#map = affine_map<(d0, d1, d2) -> (d1)>
#map1 = affine_map<(d0, d1, d2) -> (d0, d2)>
#map2 = affine_map<(d0, d1, d2) -> (d0, d1)>
#map3 = affine_map<(d0, d1, d2, d3) -> (d0, d1, d2, d3)>
#map4 = affine_map<(d0, d1, d2) -> (d0, d1, d2)>
module {
  func.func @subgraph0(%arg0: tensor<151936x1536xf32>, %arg1: tensor<1x1024xi64>, %arg2: tensor<1x1024xi64>, %arg3: tensor<64xf32>, %arg4: tensor<1536xf32>, %arg5: tensor<1536x1536xf32>, %arg6: tensor<1536xf32>, %arg7: tensor<256x1536xf32>, %arg8: tensor<256xf32>, %arg9: tensor<256x1536xf32>, %arg10: tensor<256xf32>, %arg11: tensor<1536x1536xf32>, %arg12: tensor<1536xf32>, %arg13: tensor<8960x1536xf32>, %arg14: tensor<8960x1536xf32>, %arg15: tensor<1536x8960xf32>, %arg16: tensor<1536xf32>, %arg17: tensor<1536x1536xf32>, %arg18: tensor<1536xf32>, %arg19: tensor<256x1536xf32>, %arg20: tensor<256xf32>, %arg21: tensor<256x1536xf32>, %arg22: tensor<256xf32>, %arg23: tensor<1536x1536xf32>, %arg24: tensor<1536xf32>, %arg25: tensor<8960x1536xf32>, %arg26: tensor<8960x1536xf32>, %arg27: tensor<1536x8960xf32>, %arg28: tensor<1536xf32>, %arg29: tensor<1536x1536xf32>, %arg30: tensor<1536xf32>, %arg31: tensor<256x1536xf32>, %arg32: tensor<256xf32>, %arg33: tensor<256x1536xf32>, %arg34: tensor<256xf32>, %arg35: tensor<1536x1536xf32>, %arg36: tensor<1536xf32>, %arg37: tensor<8960x1536xf32>, %arg38: tensor<8960x1536xf32>, %arg39: tensor<1536x8960xf32>, %arg40: tensor<1536xf32>, %arg41: tensor<1536x1536xf32>, %arg42: tensor<1536xf32>, %arg43: tensor<256x1536xf32>, %arg44: tensor<256xf32>, %arg45: tensor<256x1536xf32>, %arg46: tensor<256xf32>, %arg47: tensor<1536x1536xf32>, %arg48: tensor<1536xf32>, %arg49: tensor<8960x1536xf32>, %arg50: tensor<8960x1536xf32>, %arg51: tensor<1536x8960xf32>, %arg52: tensor<1536xf32>, %arg53: tensor<1536x1536xf32>, %arg54: tensor<1536xf32>, %arg55: tensor<256x1536xf32>, %arg56: tensor<256xf32>, %arg57: tensor<256x1536xf32>, %arg58: tensor<256xf32>, %arg59: tensor<1536x1536xf32>, %arg60: tensor<1536xf32>, %arg61: tensor<8960x1536xf32>, %arg62: tensor<8960x1536xf32>, %arg63: tensor<1536x8960xf32>, %arg64: tensor<1536xf32>, %arg65: tensor<1536x1536xf32>, %arg66: tensor<1536xf32>, %arg67: tensor<256x1536xf32>, %arg68: tensor<256xf32>, %arg69: tensor<256x1536xf32>, %arg70: tensor<256xf32>, %arg71: tensor<1536x1536xf32>, %arg72: tensor<1536xf32>, %arg73: tensor<8960x1536xf32>, %arg74: tensor<8960x1536xf32>, %arg75: tensor<1536x8960xf32>, %arg76: tensor<1536xf32>, %arg77: tensor<1536x1536xf32>, %arg78: tensor<1536xf32>, %arg79: tensor<256x1536xf32>, %arg80: tensor<256xf32>, %arg81: tensor<256x1536xf32>, %arg82: tensor<256xf32>, %arg83: tensor<1536x1536xf32>, %arg84: tensor<1536xf32>, %arg85: tensor<8960x1536xf32>, %arg86: tensor<8960x1536xf32>, %arg87: tensor<1536x8960xf32>, %arg88: tensor<1536xf32>, %arg89: tensor<1536x1536xf32>, %arg90: tensor<1536xf32>, %arg91: tensor<256x1536xf32>, %arg92: tensor<256xf32>, %arg93: tensor<256x1536xf32>, %arg94: tensor<256xf32>, %arg95: tensor<1536x1536xf32>, %arg96: tensor<1536xf32>, %arg97: tensor<8960x1536xf32>, %arg98: tensor<8960x1536xf32>, %arg99: tensor<1536x8960xf32>, %arg100: tensor<1536xf32>, %arg101: tensor<1536x1536xf32>, %arg102: tensor<1536xf32>, %arg103: tensor<256x1536xf32>, %arg104: tensor<256xf32>, %arg105: tensor<256x1536xf32>, %arg106: tensor<256xf32>, %arg107: tensor<1536x1536xf32>, %arg108: tensor<1536xf32>, %arg109: tensor<8960x1536xf32>, %arg110: tensor<8960x1536xf32>, %arg111: tensor<1536x8960xf32>, %arg112: tensor<1536xf32>, %arg113: tensor<1536x1536xf32>, %arg114: tensor<1536xf32>, %arg115: tensor<256x1536xf32>, %arg116: tensor<256xf32>, %arg117: tensor<256x1536xf32>, %arg118: tensor<256xf32>, %arg119: tensor<1536x1536xf32>, %arg120: tensor<1536xf32>, %arg121: tensor<8960x1536xf32>, %arg122: tensor<8960x1536xf32>, %arg123: tensor<1536x8960xf32>, %arg124: tensor<1536xf32>, %arg125: tensor<1536x1536xf32>, %arg126: tensor<1536xf32>, %arg127: tensor<256x1536xf32>, %arg128: tensor<256xf32>, %arg129: tensor<256x1536xf32>, %arg130: tensor<256xf32>, %arg131: tensor<1536x1536xf32>, %arg132: tensor<1536xf32>, %arg133: tensor<8960x1536xf32>, %arg134: tensor<8960x1536xf32>, %arg135: tensor<1536x8960xf32>, %arg136: tensor<1536xf32>, %arg137: tensor<1536x1536xf32>, %arg138: tensor<1536xf32>, %arg139: tensor<256x1536xf32>, %arg140: tensor<256xf32>, %arg141: tensor<256x1536xf32>, %arg142: tensor<256xf32>, %arg143: tensor<1536x1536xf32>, %arg144: tensor<1536xf32>, %arg145: tensor<8960x1536xf32>, %arg146: tensor<8960x1536xf32>, %arg147: tensor<1536x8960xf32>, %arg148: tensor<1536xf32>, %arg149: tensor<1536x1536xf32>, %arg150: tensor<1536xf32>, %arg151: tensor<256x1536xf32>, %arg152: tensor<256xf32>, %arg153: tensor<256x1536xf32>, %arg154: tensor<256xf32>, %arg155: tensor<1536x1536xf32>, %arg156: tensor<1536xf32>, %arg157: tensor<8960x1536xf32>, %arg158: tensor<8960x1536xf32>, %arg159: tensor<1536x8960xf32>, %arg160: tensor<1536xf32>, %arg161: tensor<1536x1536xf32>, %arg162: tensor<1536xf32>, %arg163: tensor<256x1536xf32>, %arg164: tensor<256xf32>, %arg165: tensor<256x1536xf32>, %arg166: tensor<256xf32>, %arg167: tensor<1536x1536xf32>, %arg168: tensor<1536xf32>, %arg169: tensor<8960x1536xf32>, %arg170: tensor<8960x1536xf32>, %arg171: tensor<1536x8960xf32>, %arg172: tensor<1536xf32>, %arg173: tensor<1536x1536xf32>, %arg174: tensor<1536xf32>, %arg175: tensor<256x1536xf32>, %arg176: tensor<256xf32>, %arg177: tensor<256x1536xf32>, %arg178: tensor<256xf32>, %arg179: tensor<1536x1536xf32>, %arg180: tensor<1536xf32>, %arg181: tensor<8960x1536xf32>, %arg182: tensor<8960x1536xf32>, %arg183: tensor<1536x8960xf32>, %arg184: tensor<1536xf32>, %arg185: tensor<1536x1536xf32>, %arg186: tensor<1536xf32>, %arg187: tensor<256x1536xf32>, %arg188: tensor<256xf32>, %arg189: tensor<256x1536xf32>, %arg190: tensor<256xf32>, %arg191: tensor<1536x1536xf32>, %arg192: tensor<1536xf32>, %arg193: tensor<8960x1536xf32>, %arg194: tensor<8960x1536xf32>, %arg195: tensor<1536x8960xf32>, %arg196: tensor<1536xf32>, %arg197: tensor<1536x1536xf32>, %arg198: tensor<1536xf32>, %arg199: tensor<256x1536xf32>, %arg200: tensor<256xf32>, %arg201: tensor<256x1536xf32>, %arg202: tensor<256xf32>, %arg203: tensor<1536x1536xf32>, %arg204: tensor<1536xf32>, %arg205: tensor<8960x1536xf32>, %arg206: tensor<8960x1536xf32>, %arg207: tensor<1536x8960xf32>, %arg208: tensor<1536xf32>, %arg209: tensor<1536x1536xf32>, %arg210: tensor<1536xf32>, %arg211: tensor<256x1536xf32>, %arg212: tensor<256xf32>, %arg213: tensor<256x1536xf32>, %arg214: tensor<256xf32>, %arg215: tensor<1536x1536xf32>, %arg216: tensor<1536xf32>, %arg217: tensor<8960x1536xf32>, %arg218: tensor<8960x1536xf32>, %arg219: tensor<1536x8960xf32>, %arg220: tensor<1536xf32>, %arg221: tensor<1536x1536xf32>, %arg222: tensor<1536xf32>, %arg223: tensor<256x1536xf32>, %arg224: tensor<256xf32>, %arg225: tensor<256x1536xf32>, %arg226: tensor<256xf32>, %arg227: tensor<1536x1536xf32>, %arg228: tensor<1536xf32>, %arg229: tensor<8960x1536xf32>, %arg230: tensor<8960x1536xf32>, %arg231: tensor<1536x8960xf32>, %arg232: tensor<1536xf32>, %arg233: tensor<1536x1536xf32>, %arg234: tensor<1536xf32>, %arg235: tensor<256x1536xf32>, %arg236: tensor<256xf32>, %arg237: tensor<256x1536xf32>, %arg238: tensor<256xf32>, %arg239: tensor<1536x1536xf32>, %arg240: tensor<1536xf32>, %arg241: tensor<8960x1536xf32>, %arg242: tensor<8960x1536xf32>, %arg243: tensor<1536x8960xf32>, %arg244: tensor<1536xf32>, %arg245: tensor<1536x1536xf32>, %arg246: tensor<1536xf32>, %arg247: tensor<256x1536xf32>, %arg248: tensor<256xf32>, %arg249: tensor<256x1536xf32>, %arg250: tensor<256xf32>, %arg251: tensor<1536x1536xf32>, %arg252: tensor<1536xf32>, %arg253: tensor<8960x1536xf32>, %arg254: tensor<8960x1536xf32>, %arg255: tensor<1536x8960xf32>, %arg256: tensor<1536xf32>, %arg257: tensor<1536x1536xf32>, %arg258: tensor<1536xf32>, %arg259: tensor<256x1536xf32>, %arg260: tensor<256xf32>, %arg261: tensor<256x1536xf32>, %arg262: tensor<256xf32>, %arg263: tensor<1536x1536xf32>, %arg264: tensor<1536xf32>, %arg265: tensor<8960x1536xf32>, %arg266: tensor<8960x1536xf32>, %arg267: tensor<1536x8960xf32>, %arg268: tensor<1536xf32>, %arg269: tensor<1536x1536xf32>, %arg270: tensor<1536xf32>, %arg271: tensor<256x1536xf32>, %arg272: tensor<256xf32>, %arg273: tensor<256x1536xf32>, %arg274: tensor<256xf32>, %arg275: tensor<1536x1536xf32>, %arg276: tensor<1536xf32>, %arg277: tensor<8960x1536xf32>, %arg278: tensor<8960x1536xf32>, %arg279: tensor<1536x8960xf32>, %arg280: tensor<1536xf32>, %arg281: tensor<1536x1536xf32>, %arg282: tensor<1536xf32>, %arg283: tensor<256x1536xf32>, %arg284: tensor<256xf32>, %arg285: tensor<256x1536xf32>, %arg286: tensor<256xf32>, %arg287: tensor<1536x1536xf32>, %arg288: tensor<1536xf32>, %arg289: tensor<8960x1536xf32>, %arg290: tensor<8960x1536xf32>, %arg291: tensor<1536x8960xf32>, %arg292: tensor<1536xf32>, %arg293: tensor<1536x1536xf32>, %arg294: tensor<1536xf32>, %arg295: tensor<256x1536xf32>, %arg296: tensor<256xf32>, %arg297: tensor<256x1536xf32>, %arg298: tensor<256xf32>, %arg299: tensor<1536x1536xf32>, %arg300: tensor<1536xf32>, %arg301: tensor<8960x1536xf32>, %arg302: tensor<8960x1536xf32>, %arg303: tensor<1536x8960xf32>, %arg304: tensor<1536xf32>, %arg305: tensor<1536x1536xf32>, %arg306: tensor<1536xf32>, %arg307: tensor<256x1536xf32>, %arg308: tensor<256xf32>, %arg309: tensor<256x1536xf32>, %arg310: tensor<256xf32>, %arg311: tensor<1536x1536xf32>, %arg312: tensor<1536xf32>, %arg313: tensor<8960x1536xf32>, %arg314: tensor<8960x1536xf32>, %arg315: tensor<1536x8960xf32>, %arg316: tensor<1536xf32>, %arg317: tensor<1536x1536xf32>, %arg318: tensor<1536xf32>, %arg319: tensor<256x1536xf32>, %arg320: tensor<256xf32>, %arg321: tensor<256x1536xf32>, %arg322: tensor<256xf32>, %arg323: tensor<1536x1536xf32>, %arg324: tensor<1536xf32>, %arg325: tensor<8960x1536xf32>, %arg326: tensor<8960x1536xf32>, %arg327: tensor<1536x8960xf32>, %arg328: tensor<1536xf32>, %arg329: tensor<1536x1536xf32>, %arg330: tensor<1536xf32>, %arg331: tensor<256x1536xf32>, %arg332: tensor<256xf32>, %arg333: tensor<256x1536xf32>, %arg334: tensor<256xf32>, %arg335: tensor<1536x1536xf32>, %arg336: tensor<1536xf32>, %arg337: tensor<8960x1536xf32>, %arg338: tensor<8960x1536xf32>, %arg339: tensor<1536x8960xf32>, %arg340: tensor<1536xf32>, %arg341: tensor<151936x1536xf32>) -> tensor<1x1024x151936xf32> {
    %0 = tosa.cast %arg1 : (tensor<1x1024xi64>) -> tensor<1x1024xi32>
    %1 = tosa.reshape %arg0 {new_shape = array<i64: 1, 151936, 1536>} : (tensor<151936x1536xf32>) -> tensor<1x151936x1536xf32>
    %2 = tosa.gather %1, %0 : (tensor<1x151936x1536xf32>, tensor<1x1024xi32>) -> tensor<1x1024x1536xf32>
    %3 = tosa.reshape %2 {new_shape = array<i64: 1, 1024, 1536>} : (tensor<1x1024x1536xf32>) -> tensor<1x1024x1536xf32>
    %4 = "tosa.const"() <{value = dense<"…"> : tensor<1024xi64>}> : () -> tensor<1024xi64>
    %5 = tosa.reshape %4 {new_shape = array<i64: 1, 1024>} : (tensor<1024xi64>) -> tensor<1x1024xi64>
    %cst = arith.constant dense<-3.40282347E+38> : tensor<1024x1024xf32>
    %6 = "tosa.const"() <{value = dense<"…"> : tensor<1024xi64>}> : () -> tensor<1024xi64>
    %7 = tosa.reshape %4 {new_shape = array<i64: 1024, 1>} : (tensor<1024xi64>) -> tensor<1024x1xi64>
    %8 = tensor.empty() : tensor<1024x1024xi1>
    %9 = linalg.generic {indexing_maps = [#map, #map1, #map2], iterator_types = ["parallel", "parallel", "reduction"]} ins(%6, %7 : tensor<1024xi64>, tensor<1024x1xi64>) outs(%8 : tensor<1024x1024xi1>) {
    ^bb0(%in: i64, %in_927: i64, %out: i1):
      %3486 = arith.cmpi sgt, %in, %in_927 : i64
      linalg.yield %3486 : i1
    } -> tensor<1024x1024xi1>
    %10 = tosa.cast %9 : (tensor<1024x1024xi1>) -> tensor<1024x1024xf32>
    %11 = tosa.mul %cst, %10 : (tensor<1024x1024xf32>, tensor<1024x1024xf32>) -> tensor<1024x1024xf32>
    %12 = tosa.reshape %11 {new_shape = array<i64: 1, 1024, 1024>} : (tensor<1024x1024xf32>) -> tensor<1x1024x1024xf32>
    %13 = tosa.reshape %12 {new_shape = array<i64: 1, 1, 1024, 1024>} : (tensor<1x1024x1024xf32>) -> tensor<1x1x1024x1024xf32>
    %extracted_slice = tensor.extract_slice %13[0, 0, 0, 0] [1, 1, 1024, 1024] [1, 1, 1, 1] : tensor<1x1x1024x1024xf32> to tensor<1x1x1024x1024xf32>
    %extracted_slice_0 = tensor.extract_slice %extracted_slice[0, 0, 0, 0] [1, 1, 1024, 1024] [1, 1, 1, 1] : tensor<1x1x1024x1024xf32> to tensor<1x1x1024x1024xf32>
    %14 = "tosa.const"() <{value = dense<0.000000e+00> : tensor<1x1x1024x1024xf32>}> : () -> tensor<1x1x1024x1024xf32>
    %15 = tosa.add %extracted_slice_0, %14 : (tensor<1x1x1024x1024xf32>, tensor<1x1x1024x1024xf32>) -> tensor<1x1x1024x1024xf32>
    %16 = tosa.identity %15 : (tensor<1x1x1024x1024xf32>) -> tensor<1x1x1024x1024xf32>
    %extracted_slice_1 = tensor.extract_slice %16[0, 0, 0, 0] [1, 1, 1024, 1024] [1, 1, 1, 1] : tensor<1x1x1024x1024xf32> to tensor<1x1x1024x1024xf32>
    %extracted_slice_2 = tensor.extract_slice %extracted_slice_1[0, 0, 0, 0] [1, 1, 1024, 1024] [1, 1, 1, 1] : tensor<1x1x1024x1024xf32> to tensor<1x1x1024x1024xf32>
    %extracted_slice_3 = tensor.extract_slice %extracted_slice_2[0, 0, 0, 0] [1, 1, 1024, 1024] [1, 1, 1, 1] : tensor<1x1x1024x1024xf32> to tensor<1x1x1024x1024xf32>
    %extracted_slice_4 = tensor.extract_slice %arg2[0, 0] [1, 1024] [1, 1] : tensor<1x1024xi64> to tensor<1x1024xi64>
    %17 = tosa.reshape %extracted_slice_4 {new_shape = array<i64: 1, 1, 1024>} : (tensor<1x1024xi64>) -> tensor<1x1x1024xi64>
    %18 = tosa.reshape %17 {new_shape = array<i64: 1, 1, 1, 1024>} : (tensor<1x1x1024xi64>) -> tensor<1x1x1x1024xi64>
    %extracted_slice_5 = tensor.extract_slice %18[0, 0, 0, 0] [1, 1, 1, 1024] [1, 1, 1, 1] : tensor<1x1x1x1024xi64> to tensor<1x1x1x1024xi64>
    %19 = tosa.cast %extracted_slice_5 : (tensor<1x1x1x1024xi64>) -> tensor<1x1x1x1024xf32>
    %20 = tosa.add %extracted_slice_3, %19 : (tensor<1x1x1024x1024xf32>, tensor<1x1x1x1024xf32>) -> tensor<1x1x1024x1024xf32>
    %cst_6 = arith.constant 0.000000e+00 : f32
    %splat = tensor.splat %cst_6 : tensor<1x1x1024x1024xf32>
    %21 = arith.cmpf oeq, %20, %splat : tensor<1x1x1024x1024xf32>
    %extracted_slice_7 = tensor.extract_slice %16[0, 0, 0, 0] [1, 1, 1024, 1024] [1, 1, 1, 1] : tensor<1x1x1024x1024xf32> to tensor<1x1x1024x1024xf32>
    %extracted_slice_8 = tensor.extract_slice %extracted_slice_7[0, 0, 0, 0] [1, 1, 1024, 1024] [1, 1, 1, 1] : tensor<1x1x1024x1024xf32> to tensor<1x1x1024x1024xf32>
    %extracted_slice_9 = tensor.extract_slice %extracted_slice_8[0, 0, 0, 0] [1, 1, 1024, 1024] [1, 1, 1, 1] : tensor<1x1x1024x1024xf32> to tensor<1x1x1024x1024xf32>
    %cst_10 = arith.constant -3.40282347E+38 : f32
    %22 = tensor.empty() : tensor<1x1x1024x1024xf32>
    %splat_11 = tensor.splat %cst_10 : tensor<1x1x1024x1024xf32>
    %23 = linalg.generic {indexing_maps = [#map3, #map3, #map3, #map3], iterator_types = ["parallel", "parallel", "parallel", "parallel"]} ins(%21, %splat_11, %extracted_slice_9 : tensor<1x1x1024x1024xi1>, tensor<1x1x1024x1024xf32>, tensor<1x1x1024x1024xf32>) outs(%22 : tensor<1x1x1024x1024xf32>) {
    ^bb0(%in: i1, %in_927: f32, %in_928: f32, %out: f32):
      %3486 = arith.select %in, %in_927, %in_928 : f32
      linalg.yield %3486 : f32
    } -> tensor<1x1x1024x1024xf32>
    %extracted_slice_12 = tensor.extract_slice %16[0, 0, 0, 0] [1, 1, 1024, 1024] [1, 1, 1, 1] : tensor<1x1x1024x1024xf32> to tensor<1x1x1024x1024xf32>
    %extracted_slice_13 = tensor.extract_slice %extracted_slice_12[0, 0, 0, 0] [1, 1, 1024, 1024] [1, 1, 1, 1] : tensor<1x1x1024x1024xf32> to tensor<1x1x1024x1024xf32>
    %extracted_slice_14 = tensor.extract_slice %extracted_slice_13[0, 0, 0, 0] [1, 1, 1024, 1024] [1, 1, 1, 1] : tensor<1x1x1024x1024xf32> to tensor<1x1x1024x1024xf32>
    %24 = tensor.empty() : tensor<1x1x1024x1024xf32>
    %25 = linalg.generic {indexing_maps = [#map3, #map3], iterator_types = ["parallel", "parallel", "parallel", "parallel"]} ins(%23 : tensor<1x1x1024x1024xf32>) outs(%extracted_slice_14 : tensor<1x1x1024x1024xf32>) {
    ^bb0(%in: f32, %out: f32):
      linalg.yield %in : f32
    } -> tensor<1x1x1024x1024xf32>
    %extracted_slice_15 = tensor.extract_slice %16[0, 0, 0, 0] [1, 1, 1024, 1024] [1, 1, 1, 1] : tensor<1x1x1024x1024xf32> to tensor<1x1x1024x1024xf32>
    %extracted_slice_16 = tensor.extract_slice %extracted_slice_15[0, 0, 0, 0] [1, 1, 1024, 1024] [1, 1, 1, 1] : tensor<1x1x1024x1024xf32> to tensor<1x1x1024x1024xf32>
    %extracted_slice_17 = tensor.extract_slice %extracted_slice_16[0, 0, 0, 0] [1, 1, 1024, 1024] [1, 1, 1, 1] : tensor<1x1x1024x1024xf32> to tensor<1x1x1024x1024xf32>
    %inserted_slice = tensor.insert_slice %25 into %extracted_slice_16[0, 0, 0, 0] [1, 1, 1024, 1024] [1, 1, 1, 1] : tensor<1x1x1024x1024xf32> into tensor<1x1x1024x1024xf32>
    %extracted_slice_18 = tensor.extract_slice %extracted_slice_15[0, 0, 0, 0] [1, 1, 1024, 1024] [1, 1, 1, 1] : tensor<1x1x1024x1024xf32> to tensor<1x1x1024x1024xf32>
    %inserted_slice_19 = tensor.insert_slice %inserted_slice into %extracted_slice_15[0, 0, 0, 0] [1, 1, 1024, 1024] [1, 1, 1, 1] : tensor<1x1x1024x1024xf32> into tensor<1x1x1024x1024xf32>
    %extracted_slice_20 = tensor.extract_slice %16[0, 0, 0, 0] [1, 1, 1024, 1024] [1, 1, 1, 1] : tensor<1x1x1024x1024xf32> to tensor<1x1x1024x1024xf32>
    %inserted_slice_21 = tensor.insert_slice %inserted_slice_19 into %16[0, 0, 0, 0] [1, 1, 1024, 1024] [1, 1, 1, 1] : tensor<1x1x1024x1024xf32> into tensor<1x1x1024x1024xf32>
    %26 = tosa.reshape %arg3 {new_shape = array<i64: 1, 64>} : (tensor<64xf32>) -> tensor<1x64xf32>
    %extracted_slice_22 = tensor.extract_slice %26[0, 0] [1, 64] [1, 1] : tensor<1x64xf32> to tensor<1x64xf32>
    %27 = tosa.reshape %extracted_slice_22 {new_shape = array<i64: 1, 64, 1>} : (tensor<1x64xf32>) -> tensor<1x64x1xf32>
    %28 = "tosa.const"() <{value = dense<0.000000e+00> : tensor<1x64x1xf32>}> : () -> tensor<1x64x1xf32>
    %29 = tosa.add %27, %28 : (tensor<1x64x1xf32>, tensor<1x64x1xf32>) -> tensor<1x64x1xf32>
    %extracted_slice_23 = tensor.extract_slice %5[0, 0] [1, 1024] [1, 1] : tensor<1x1024xi64> to tensor<1x1024xi64>
    %30 = tosa.reshape %extracted_slice_23 {new_shape = array<i64: 1, 1, 1024>} : (tensor<1x1024xi64>) -> tensor<1x1x1024xi64>
    %extracted_slice_24 = tensor.extract_slice %30[0, 0, 0] [1, 1, 1024] [1, 1, 1] : tensor<1x1x1024xi64> to tensor<1x1x1024xi64>
    %31 = tosa.cast %extracted_slice_24 : (tensor<1x1x1024xi64>) -> tensor<1x1x1024xf32>
    %32 = "tosa.const"() <{value = dense<0.000000e+00> : tensor<1x64x1xf32>}> : () -> tensor<1x64x1xf32>
    %33 = tosa.add %29, %32 : (tensor<1x64x1xf32>, tensor<1x64x1xf32>) -> tensor<1x64x1xf32>
    %34 = tosa.reshape %33 {new_shape = array<i64: 1, 64, 1>} : (tensor<1x64x1xf32>) -> tensor<1x64x1xf32>
    %35 = "tosa.const"() <{value = dense<0.000000e+00> : tensor<1x1x1024xf32>}> : () -> tensor<1x1x1024xf32>
    %36 = tosa.add %31, %35 : (tensor<1x1x1024xf32>, tensor<1x1x1024xf32>) -> tensor<1x1x1024xf32>
    %37 = tosa.reshape %36 {new_shape = array<i64: 1, 1, 1024>} : (tensor<1x1x1024xf32>) -> tensor<1x1x1024xf32>
    %38 = tosa.matmul %34, %37 : (tensor<1x64x1xf32>, tensor<1x1x1024xf32>) -> tensor<1x64x1024xf32>
    %39 = tosa.reshape %38 {new_shape = array<i64: 1, 64, 1024>} : (tensor<1x64x1024xf32>) -> tensor<1x64x1024xf32>
    %40 = "tosa.const"() <{value = dense<[0, 2, 1]> : tensor<3xi32>}> : () -> tensor<3xi32>
    %41 = tosa.transpose %39, %40 : (tensor<1x64x1024xf32>, tensor<3xi32>) -> tensor<1x1024x64xf32>
    %42 = tosa.reshape %41 {new_shape = array<i64: 1, 1024, 1, 64>} : (tensor<1x1024x64xf32>) -> tensor<1x1024x1x64xf32>
    %43 = "tosa.const"() <{value = dense<0.000000e+00> : tensor<1x1024x2x64xf32>}> : () -> tensor<1x1024x2x64xf32>
    %44 = tosa.add %42, %43 : (tensor<1x1024x1x64xf32>, tensor<1x1024x2x64xf32>) -> tensor<1x1024x2x64xf32>
    %45 = tosa.identity %44 : (tensor<1x1024x2x64xf32>) -> tensor<1x1024x2x64xf32>
    %46 = tosa.reshape %45 {new_shape = array<i64: 1, 1024, 128>} : (tensor<1x1024x2x64xf32>) -> tensor<1x1024x128xf32>
    %47 = tosa.identity %46 : (tensor<1x1024x128xf32>) -> tensor<1x1024x128xf32>
    %48 = math.cos %47 : tensor<1x1024x128xf32>
    %49 = math.sin %47 : tensor<1x1024x128xf32>
    %cst_25 = arith.constant dense<1.000000e+00> : tensor<1xf32>
    %50 = tosa.reshape %cst_25 {new_shape = array<i64: 1, 1, 1>} : (tensor<1xf32>) -> tensor<1x1x1xf32>
    %51 = tosa.mul %48, %50 : (tensor<1x1024x128xf32>, tensor<1x1x1xf32>) -> tensor<1x1024x128xf32>
    %cst_26 = arith.constant dense<1.000000e+00> : tensor<1xf32>
    %52 = tosa.reshape %cst_26 {new_shape = array<i64: 1, 1, 1>} : (tensor<1xf32>) -> tensor<1x1x1xf32>
    %53 = tosa.mul %49, %52 : (tensor<1x1024x128xf32>, tensor<1x1x1xf32>) -> tensor<1x1024x128xf32>
    %54 = tensor.empty() : tensor<1x1024x1536xf32>
    %c2_i32 = arith.constant 2 : i32
    %55 = linalg.generic {indexing_maps = [#map4, #map4], iterator_types = ["parallel", "parallel", "parallel"]} ins(%3 : tensor<1x1024x1536xf32>) outs(%54 : tensor<1x1024x1536xf32>) {
    ^bb0(%in: f32, %out: f32):
      %3486 = math.fpowi %in, %c2_i32 : f32, i32
      linalg.yield %3486 : f32
    } -> tensor<1x1024x1536xf32>
    %56 = tosa.reduce_sum %55 {axis = 2 : i32} : (tensor<1x1024x1536xf32>) -> tensor<1x1024x1xf32>
    %57 = "tosa.const"() <{value = dense<1.536000e+03> : tensor<1xf32>}> : () -> tensor<1xf32>
    %58 = tosa.reciprocal %57 : (tensor<1xf32>) -> tensor<1xf32>
    %59 = tosa.reshape %58 {new_shape = array<i64: 1, 1, 1>} : (tensor<1xf32>) -> tensor<1x1x1xf32>
    %60 = tosa.mul %59, %56 : (tensor<1x1x1xf32>, tensor<1x1024x1xf32>) -> tensor<1x1024x1xf32>
    %61 = "tosa.const"() <{value = dense<9.99999997E-7> : tensor<1x1024x1xf32>}> : () -> tensor<1x1024x1xf32>
    %62 = tosa.add %60, %61 : (tensor<1x1024x1xf32>, tensor<1x1024x1xf32>) -> tensor<1x1024x1xf32>
    %63 = tosa.rsqrt %62 : (tensor<1x1024x1xf32>) -> tensor<1x1024x1xf32>
    %64 = tosa.mul %3, %63 : (tensor<1x1024x1536xf32>, tensor<1x1024x1xf32>) -> tensor<1x1024x1536xf32>
    %65 = tosa.reshape %arg4 {new_shape = array<i64: 1, 1, 1536>} : (tensor<1536xf32>) -> tensor<1x1x1536xf32>
    %66 = tosa.mul %65, %64 : (tensor<1x1x1536xf32>, tensor<1x1024x1536xf32>) -> tensor<1x1024x1536xf32>
    %67 = tosa.reshape %66 {new_shape = array<i64: 1024, 1536>} : (tensor<1x1024x1536xf32>) -> tensor<1024x1536xf32>
    %68 = "tosa.const"() <{value = dense<[1, 0]> : tensor<2xi32>}> : () -> tensor<2xi32>
    %69 = tosa.transpose %arg5, %68 : (tensor<1536x1536xf32>, tensor<2xi32>) -> tensor<1536x1536xf32>
    %cst_27 = arith.constant dense<0.000000e+00> : tensor<1024x1536xf32>
    %70 = linalg.matmul {cast = #linalg.type_fn<cast_signed>} ins(%67, %69 : tensor<1024x1536xf32>, tensor<1536x1536xf32>) outs(%cst_27 : tensor<1024x1536xf32>) -> tensor<1024x1536xf32>
    %71 = tosa.reshape %arg6 {new_shape = array<i64: 1, 1536>} : (tensor<1536xf32>) -> tensor<1x1536xf32>
    %72 = tosa.add %71, %70 : (tensor<1x1536xf32>, tensor<1024x1536xf32>) -> tensor<1024x1536xf32>
    %73 = tosa.reshape %72 {new_shape = array<i64: 1, 1024, 1536>} : (tensor<1024x1536xf32>) -> tensor<1x1024x1536xf32>
    %74 = tosa.reshape %66 {new_shape = array<i64: 1024, 1536>} : (tensor<1x1024x1536xf32>) -> tensor<1024x1536xf32>
    %75 = "tosa.const"() <{value = dense<[1, 0]> : tensor<2xi32>}> : () -> tensor<2xi32>
    %76 = tosa.transpose %arg7, %75 : (tensor<256x1536xf32>, tensor<2xi32>) -> tensor<1536x256xf32>
    %cst_28 = arith.constant dense<0.000000e+00> : tensor<1024x256xf32>
    %77 = linalg.matmul {cast = #linalg.type_fn<cast_signed>} ins(%74, %76 : tensor<1024x1536xf32>, tensor<1536x256xf32>) outs(%cst_28 : tensor<1024x256xf32>) -> tensor<1024x256xf32>
    %78 = tosa.reshape %arg8 {new_shape = array<i64: 1, 256>} : (tensor<256xf32>) -> tensor<1x256xf32>
    %79 = tosa.add %78, %77 : (tensor<1x256xf32>, tensor<1024x256xf32>) -> tensor<1024x256xf32>
    %80 = tosa.reshape %79 {new_shape = array<i64: 1, 1024, 256>} : (tensor<1024x256xf32>) -> tensor<1x1024x256xf32>
    %81 = tosa.reshape %66 {new_shape = array<i64: 1024, 1536>} : (tensor<1x1024x1536xf32>) -> tensor<1024x1536xf32>
    %82 = "tosa.const"() <{value = dense<[1, 0]> : tensor<2xi32>}> : () -> tensor<2xi32>
    %83 = tosa.transpose %arg9, %82 : (tensor<256x1536xf32>, tensor<2xi32>) -> tensor<1536x256xf32>
    %cst_29 = arith.constant dense<0.000000e+00> : tensor<1024x256xf32>
    %84 = linalg.matmul {cast = #linalg.type_fn<cast_signed>} ins(%81, %83 : tensor<1024x1536xf32>, tensor<1536x256xf32>) outs(%cst_29 : tensor<1024x256xf32>) -> tensor<1024x256xf32>
    %85 = tosa.reshape %arg10 {new_shape = array<i64: 1, 256>} : (tensor<256xf32>) -> tensor<1x256xf32>
    %86 = tosa.add %85, %84 : (tensor<1x256xf32>, tensor<1024x256xf32>) -> tensor<1024x256xf32>
    %87 = tosa.reshape %86 {new_shape = array<i64: 1, 1024, 256>} : (tensor<1024x256xf32>) -> tensor<1x1024x256xf32>
    %88 = tosa.reshape %73 {new_shape = array<i64: 1, 1024, 12, 128>} : (tensor<1x1024x1536xf32>) -> tensor<1x1024x12x128xf32>
    %89 = "tosa.const"() <{value = dense<[0, 2, 1, 3]> : tensor<4xi32>}> : () -> tensor<4xi32>
    %90 = tosa.transpose %88, %89 : (tensor<1x1024x12x128xf32>, tensor<4xi32>) -> tensor<1x12x1024x128xf32>
    %91 = tosa.reshape %80 {new_shape = array<i64: 1, 1024, 2, 128>} : (tensor<1x1024x256xf32>) -> tensor<1x1024x2x128xf32>
    %92 = "tosa.const"() <{value = dense<[0, 2, 1, 3]> : tensor<4xi32>}> : () -> tensor<4xi32>
    %93 = tosa.transpose %91, %92 : (tensor<1x1024x2x128xf32>, tensor<4xi32>) -> tensor<1x2x1024x128xf32>
    %94 = tosa.reshape %87 {new_shape = array<i64: 1, 1024, 2, 128>} : (tensor<1x1024x256xf32>) -> tensor<1x1024x2x128xf32>
    %95 = "tosa.const"() <{value = dense<[0, 2, 1, 3]> : tensor<4xi32>}> : () -> tensor<4xi32>
    %96 = tosa.transpose %94, %95 : (tensor<1x1024x2x128xf32>, tensor<4xi32>) -> tensor<1x2x1024x128xf32>
    %97 = tosa.reshape %51 {new_shape = array<i64: 1, 1, 1024, 128>} : (tensor<1x1024x128xf32>) -> tensor<1x1x1024x128xf32>
    %98 = tosa.reshape %53 {new_shape = array<i64: 1, 1, 1024, 128>} : (tensor<1x1024x128xf32>) -> tensor<1x1x1024x128xf32>
    %99 = tosa.mul %90, %97 : (tensor<1x12x1024x128xf32>, tensor<1x1x1024x128xf32>) -> tensor<1x12x1024x128xf32>
    %extracted_slice_30 = tensor.extract_slice %90[0, 0, 0, 0] [1, 12, 1024, 64] [1, 1, 1, 1] : tensor<1x12x1024x128xf32> to tensor<1x12x1024x64xf32>
    %extracted_slice_31 = tensor.extract_slice %90[0, 0, 0, 64] [1, 12, 1024, 64] [1, 1, 1, 1] : tensor<1x12x1024x128xf32> to tensor<1x12x1024x64xf32>
    %100 = tensor.empty() : tensor<1x12x1024x64xf32>
    %101 = linalg.negf ins(%extracted_slice_31 : tensor<1x12x1024x64xf32>) outs(%100 : tensor<1x12x1024x64xf32>) -> tensor<1x12x1024x64xf32>
    %102 = tensor.empty() : tensor<1x12x1024x128xf32>
    %inserted_slice_32 = tensor.insert_slice %101 into %102[0, 0, 0, 0] [1, 12, 1024, 64] [1, 1, 1, 1] : tensor<1x12x1024x64xf32> into tensor<1x12x1024x128xf32>
    %inserted_slice_33 = tensor.insert_slice %extracted_slice_30 into %inserted_slice_32[0, 0, 0, 64] [1, 12, 1024, 64] [1, 1, 1, 1] : tensor<1x12x1024x64xf32> into tensor<1x12x1024x128xf32>
    %103 = tosa.mul %inserted_slice_33, %98 : (tensor<1x12x1024x128xf32>, tensor<1x1x1024x128xf32>) -> tensor<1x12x1024x128xf32>
    %104 = tosa.add %99, %103 : (tensor<1x12x1024x128xf32>, tensor<1x12x1024x128xf32>) -> tensor<1x12x1024x128xf32>
    %105 = tosa.mul %93, %97 : (tensor<1x2x1024x128xf32>, tensor<1x1x1024x128xf32>) -> tensor<1x2x1024x128xf32>
    %extracted_slice_34 = tensor.extract_slice %93[0, 0, 0, 0] [1, 2, 1024, 64] [1, 1, 1, 1] : tensor<1x2x1024x128xf32> to tensor<1x2x1024x64xf32>
    %extracted_slice_35 = tensor.extract_slice %93[0, 0, 0, 64] [1, 2, 1024, 64] [1, 1, 1, 1] : tensor<1x2x1024x128xf32> to tensor<1x2x1024x64xf32>
    %106 = tensor.empty() : tensor<1x2x1024x64xf32>
    %107 = linalg.negf ins(%extracted_slice_35 : tensor<1x2x1024x64xf32>) outs(%106 : tensor<1x2x1024x64xf32>) -> tensor<1x2x1024x64xf32>
    %108 = tensor.empty() : tensor<1x2x1024x128xf32>
    %inserted_slice_36 = tensor.insert_slice %107 into %108[0, 0, 0, 0] [1, 2, 1024, 64] [1, 1, 1, 1] : tensor<1x2x1024x64xf32> into tensor<1x2x1024x128xf32>
    %inserted_slice_37 = tensor.insert_slice %extracted_slice_34 into %inserted_slice_36[0, 0, 0, 64] [1, 2, 1024, 64] [1, 1, 1, 1] : tensor<1x2x1024x64xf32> into tensor<1x2x1024x128xf32>
    %109 = tosa.mul %inserted_slice_37, %98 : (tensor<1x2x1024x128xf32>, tensor<1x1x1024x128xf32>) -> tensor<1x2x1024x128xf32>
    %110 = tosa.add %105, %109 : (tensor<1x2x1024x128xf32>, tensor<1x2x1024x128xf32>) -> tensor<1x2x1024x128xf32>
    %extracted_slice_38 = tensor.extract_slice %110[0, 0, 0, 0] [1, 2, 1024, 128] [1, 1, 1, 1] : tensor<1x2x1024x128xf32> to tensor<1x2x1024x128xf32>
    %extracted_slice_39 = tensor.extract_slice %extracted_slice_38[0, 0, 0, 0] [1, 2, 1024, 128] [1, 1, 1, 1] : tensor<1x2x1024x128xf32> to tensor<1x2x1024x128xf32>
    %111 = tosa.reshape %extracted_slice_39 {new_shape = array<i64: 1, 2, 1, 1024, 128>} : (tensor<1x2x1024x128xf32>) -> tensor<1x2x1x1024x128xf32>
    %extracted_slice_40 = tensor.extract_slice %111[0, 0, 0, 0, 0] [1, 2, 1, 1024, 128] [1, 1, 1, 1, 1] : tensor<1x2x1x1024x128xf32> to tensor<1x2x1x1024x128xf32>
    %extracted_slice_41 = tensor.extract_slice %extracted_slice_40[0, 0, 0, 0, 0] [1, 2, 1, 1024, 128] [1, 1, 1, 1, 1] : tensor<1x2x1x1024x128xf32> to tensor<1x2x1x1024x128xf32>
    %112 = "tosa.const"() <{value = dense<0.000000e+00> : tensor<1x2x6x1024x128xf32>}> : () -> tensor<1x2x6x1024x128xf32>
    %113 = tosa.add %extracted_slice_41, %112 : (tensor<1x2x1x1024x128xf32>, tensor<1x2x6x1024x128xf32>) -> tensor<1x2x6x1024x128xf32>
    %114 = tosa.identity %113 : (tensor<1x2x6x1024x128xf32>) -> tensor<1x2x6x1024x128xf32>
    %115 = tosa.reshape %114 {new_shape = array<i64: 1, 12, 1024, 128>} : (tensor<1x2x6x1024x128xf32>) -> tensor<1x12x1024x128xf32>
    %extracted_slice_42 = tensor.extract_slice %96[0, 0, 0, 0] [1, 2, 1024, 128] [1, 1, 1, 1] : tensor<1x2x1024x128xf32> to tensor<1x2x1024x128xf32>
    %extracted_slice_43 = tensor.extract_slice %extracted_slice_42[0, 0, 0, 0] [1, 2, 1024, 128] [1, 1, 1, 1] : tensor<1x2x1024x128xf32> to tensor<1x2x1024x128xf32>
    %116 = tosa.reshape %extracted_slice_43 {new_shape = array<i64: 1, 2, 1, 1024, 128>} : (tensor<1x2x1024x128xf32>) -> tensor<1x2x1x1024x128xf32>
    %extracted_slice_44 = tensor.extract_slice %116[0, 0, 0, 0, 0] [1, 2, 1, 1024, 128] [1, 1, 1, 1, 1] : tensor<1x2x1x1024x128xf32> to tensor<1x2x1x1024x128xf32>
    %extracted_slice_45 = tensor.extract_slice %extracted_slice_44[0, 0, 0, 0, 0] [1, 2, 1, 1024, 128] [1, 1, 1, 1, 1] : tensor<1x2x1x1024x128xf32> to tensor<1x2x1x1024x128xf32>
    %117 = "tosa.const"() <{value = dense<0.000000e+00> : tensor<1x2x6x1024x128xf32>}> : () -> tensor<1x2x6x1024x128xf32>
    %118 = tosa.add %extracted_slice_45, %117 : (tensor<1x2x1x1024x128xf32>, tensor<1x2x6x1024x128xf32>) -> tensor<1x2x6x1024x128xf32>
    %119 = tosa.identity %118 : (tensor<1x2x6x1024x128xf32>) -> tensor<1x2x6x1024x128xf32>
    %120 = tosa.reshape %119 {new_shape = array<i64: 1, 12, 1024, 128>} : (tensor<1x2x6x1024x128xf32>) -> tensor<1x12x1024x128xf32>
    %extracted_slice_46 = tensor.extract_slice %inserted_slice_21[0, 0, 0, 0] [1, 1, 1024, 1024] [1, 1, 1, 1] : tensor<1x1x1024x1024xf32> to tensor<1x1x1024x1024xf32>
    %extracted_slice_47 = tensor.extract_slice %extracted_slice_46[0, 0, 0, 0] [1, 1, 1024, 1024] [1, 1, 1, 1] : tensor<1x1x1024x1024xf32> to tensor<1x1x1024x1024xf32>
    %extracted_slice_48 = tensor.extract_slice %extracted_slice_47[0, 0, 0, 0] [1, 1, 1024, 1024] [1, 1, 1, 1] : tensor<1x1x1024x1024xf32> to tensor<1x1x1024x1024xf32>
    %cst_49 = arith.constant 0.000000e+00 : f32
    %splat_50 = tensor.splat %cst_49 : tensor<1024x1024xf32>
    %121 = tosa.reshape %extracted_slice_48 {new_shape = array<i64: 1024, 1024>} : (tensor<1x1x1024x1024xf32>) -> tensor<1024x1024xf32>
    %122 = tosa.add %splat_50, %121 : (tensor<1024x1024xf32>, tensor<1024x1024xf32>) -> tensor<1024x1024xf32>
    %123 = "tosa.const"() <{value = dense<[0, 1, 3, 2]> : tensor<4xi32>}> : () -> tensor<4xi32>
    %124 = tosa.transpose %115, %123 : (tensor<1x12x1024x128xf32>, tensor<4xi32>) -> tensor<1x12x128x1024xf32>
    %125 = tosa.reshape %104 {new_shape = array<i64: 12, 1024, 128>} : (tensor<1x12x1024x128xf32>) -> tensor<12x1024x128xf32>
    %126 = tosa.reshape %124 {new_shape = array<i64: 12, 128, 1024>} : (tensor<1x12x128x1024xf32>) -> tensor<12x128x1024xf32>
    %127 = tosa.matmul %125, %126 : (tensor<12x1024x128xf32>, tensor<12x128x1024xf32>) -> tensor<12x1024x1024xf32>
    %cst_51 = arith.constant 0.0883883461 : f32
    %splat_52 = tensor.splat %cst_51 : tensor<12x1024x1024xf32>
    %128 = tosa.mul %127, %splat_52 : (tensor<12x1024x1024xf32>, tensor<12x1024x1024xf32>) -> tensor<12x1024x1024xf32>
    %129 = tosa.reshape %122 {new_shape = array<i64: 1, 1024, 1024>} : (tensor<1024x1024xf32>) -> tensor<1x1024x1024xf32>
    %130 = tosa.add %128, %129 : (tensor<12x1024x1024xf32>, tensor<1x1024x1024xf32>) -> tensor<12x1024x1024xf32>
    %131 = tosa.reduce_max %130 {axis = 2 : i32} : (tensor<12x1024x1024xf32>) -> tensor<12x1024x1xf32>
    %132 = tosa.sub %130, %131 : (tensor<12x1024x1024xf32>, tensor<12x1024x1xf32>) -> tensor<12x1024x1024xf32>
    %133 = math.exp %132 : tensor<12x1024x1024xf32>
    %134 = tosa.reduce_sum %133 {axis = 2 : i32} : (tensor<12x1024x1024xf32>) -> tensor<12x1024x1xf32>
    %135 = tosa.log %134 : (tensor<12x1024x1xf32>) -> tensor<12x1024x1xf32>
    %136 = tosa.add %131, %135 : (tensor<12x1024x1xf32>, tensor<12x1024x1xf32>) -> tensor<12x1024x1xf32>
    %137 = tosa.sub %130, %136 : (tensor<12x1024x1024xf32>, tensor<12x1024x1xf32>) -> tensor<12x1024x1024xf32>
    %138 = math.exp %137 : tensor<12x1024x1024xf32>
    %139 = tosa.reshape %136 {new_shape = array<i64: 1, 12, 1024>} : (tensor<12x1024x1xf32>) -> tensor<1x12x1024xf32>
    %140 = tosa.reshape %120 {new_shape = array<i64: 12, 1024, 128>} : (tensor<1x12x1024x128xf32>) -> tensor<12x1024x128xf32>
    %141 = tosa.matmul %138, %140 : (tensor<12x1024x1024xf32>, tensor<12x1024x128xf32>) -> tensor<12x1024x128xf32>
    %142 = tosa.reshape %141 {new_shape = array<i64: 1, 12, 1024, 128>} : (tensor<12x1024x128xf32>) -> tensor<1x12x1024x128xf32>
    %143 = "tosa.const"() <{value = dense<[0, 2, 1, 3]> : tensor<4xi32>}> : () -> tensor<4xi32>
    %144 = tosa.transpose %142, %143 : (tensor<1x12x1024x128xf32>, tensor<4xi32>) -> tensor<1x1024x12x128xf32>
    %145 = tosa.reshape %144 {new_shape = array<i64: 1, 1024, 1536>} : (tensor<1x1024x12x128xf32>) -> tensor<1x1024x1536xf32>
    %146 = tosa.reshape %145 {new_shape = array<i64: 1024, 1536>} : (tensor<1x1024x1536xf32>) -> tensor<1024x1536xf32>
    %cst_53 = arith.constant dense<0.000000e+00> : tensor<1024x1536xf32>
    %147 = linalg.matmul_transpose_b {cast = #linalg.type_fn<cast_signed>} ins(%146, %arg11 : tensor<1024x1536xf32>, tensor<1536x1536xf32>) outs(%cst_53 : tensor<1024x1536xf32>) -> tensor<1024x1536xf32>
    %148 = tosa.reshape %147 {new_shape = array<i64: 1, 1024, 1536>} : (tensor<1024x1536xf32>) -> tensor<1x1024x1536xf32>
    %149 = tosa.add %3, %148 : (tensor<1x1024x1536xf32>, tensor<1x1024x1536xf32>) -> tensor<1x1024x1536xf32>
    %150 = tensor.empty() : tensor<1x1024x1536xf32>
    %c2_i32_54 = arith.constant 2 : i32
    %151 = linalg.generic {indexing_maps = [#map4, #map4], iterator_types = ["parallel", "parallel", "parallel"]} ins(%149 : tensor<1x1024x1536xf32>) outs(%150 : tensor<1x1024x1536xf32>) {
    ^bb0(%in: f32, %out: f32):
      %3486 = math.fpowi %in, %c2_i32_54 : f32, i32
      linalg.yield %3486 : f32
    } -> tensor<1x1024x1536xf32>
    %152 = tosa.reduce_sum %151 {axis = 2 : i32} : (tensor<1x1024x1536xf32>) -> tensor<1x1024x1xf32>
    %153 = "tosa.const"() <{value = dense<1.536000e+03> : tensor<1xf32>}> : () -> tensor<1xf32>
    %154 = tosa.reciprocal %153 : (tensor<1xf32>) -> tensor<1xf32>
    %155 = tosa.reshape %154 {new_shape = array<i64: 1, 1, 1>} : (tensor<1xf32>) -> tensor<1x1x1xf32>
    %156 = tosa.mul %155, %152 : (tensor<1x1x1xf32>, tensor<1x1024x1xf32>) -> tensor<1x1024x1xf32>
    %157 = "tosa.const"() <{value = dense<9.99999997E-7> : tensor<1x1024x1xf32>}> : () -> tensor<1x1024x1xf32>
    %158 = tosa.add %156, %157 : (tensor<1x1024x1xf32>, tensor<1x1024x1xf32>) -> tensor<1x1024x1xf32>
    %159 = tosa.rsqrt %158 : (tensor<1x1024x1xf32>) -> tensor<1x1024x1xf32>
    %160 = tosa.mul %149, %159 : (tensor<1x1024x1536xf32>, tensor<1x1024x1xf32>) -> tensor<1x1024x1536xf32>
    %161 = tosa.reshape %arg12 {new_shape = array<i64: 1, 1, 1536>} : (tensor<1536xf32>) -> tensor<1x1x1536xf32>
    %162 = tosa.mul %161, %160 : (tensor<1x1x1536xf32>, tensor<1x1024x1536xf32>) -> tensor<1x1024x1536xf32>
    %163 = tosa.reshape %162 {new_shape = array<i64: 1024, 1536>} : (tensor<1x1024x1536xf32>) -> tensor<1024x1536xf32>

    %cst_55 = arith.constant dense<0.000000e+00> : tensor<1024x8960xf32>
    %164 = linalg.matmul_transpose_b {cast = #linalg.type_fn<cast_signed>} ins(%163, %arg13 : tensor<1024x1536xf32>, tensor<8960x1536xf32>) outs(%cst_55 : tensor<1024x8960xf32>) -> tensor<1024x8960xf32>
    %165 = tosa.reshape %164 {new_shape = array<i64: 1, 1024, 8960>} : (tensor<1024x8960xf32>) -> tensor<1x1024x8960xf32>
    %166 = tosa.sigmoid %165 : (tensor<1x1024x8960xf32>) -> tensor<1x1024x8960xf32>
    %167 = tosa.mul %165, %166 : (tensor<1x1024x8960xf32>, tensor<1x1024x8960xf32>) -> tensor<1x1024x8960xf32>
    %168 = tosa.reshape %162 {new_shape = array<i64: 1024, 1536>} : (tensor<1x1024x1536xf32>) -> tensor<1024x1536xf32>
    %cst_56 = arith.constant dense<0.000000e+00> : tensor<1024x8960xf32>
    %169 = linalg.matmul_transpose_b {cast = #linalg.type_fn<cast_signed>} ins(%168, %arg14 : tensor<1024x1536xf32>, tensor<8960x1536xf32>) outs(%cst_56 : tensor<1024x8960xf32>) -> tensor<1024x8960xf32>
    %170 = tosa.reshape %169 {new_shape = array<i64: 1, 1024, 8960>} : (tensor<1024x8960xf32>) -> tensor<1x1024x8960xf32>
    %171 = tosa.mul %167, %170 : (tensor<1x1024x8960xf32>, tensor<1x1024x8960xf32>) -> tensor<1x1024x8960xf32>
    %172 = tosa.reshape %171 {new_shape = array<i64: 1024, 8960>} : (tensor<1x1024x8960xf32>) -> tensor<1024x8960xf32>
    %cst_57 = arith.constant dense<0.000000e+00> : tensor<1024x1536xf32>
    %173 = linalg.matmul_transpose_b {cast = #linalg.type_fn<cast_signed>} ins(%172, %arg15 : tensor<1024x8960xf32>, tensor<1536x8960xf32>) outs(%cst_57 : tensor<1024x1536xf32>) -> tensor<1024x1536xf32>
    %174 = tosa.reshape %173 {new_shape = array<i64: 1, 1024, 1536>} : (tensor<1024x1536xf32>) -> tensor<1x1024x1536xf32>
    %175 = tosa.add %149, %174 : (tensor<1x1024x1536xf32>, tensor<1x1024x1536xf32>) -> tensor<1x1024x1536xf32>
    %176 = tensor.empty() : tensor<1x1024x1536xf32>
    %c2_i32_58 = arith.constant 2 : i32
    %177 = linalg.generic {indexing_maps = [#map4, #map4], iterator_types = ["parallel", "parallel", "parallel"]} ins(%175 : tensor<1x1024x1536xf32>) outs(%176 : tensor<1x1024x1536xf32>) {
    ^bb0(%in: f32, %out: f32):
      %3486 = math.fpowi %in, %c2_i32_58 : f32, i32
      linalg.yield %3486 : f32
    } -> tensor<1x1024x1536xf32>
    %178 = tosa.reduce_sum %177 {axis = 2 : i32} : (tensor<1x1024x1536xf32>) -> tensor<1x1024x1xf32>
    %179 = "tosa.const"() <{value = dense<1.536000e+03> : tensor<1xf32>}> : () -> tensor<1xf32>
    %180 = tosa.reciprocal %179 : (tensor<1xf32>) -> tensor<1xf32>
    %181 = tosa.reshape %180 {new_shape = array<i64: 1, 1, 1>} : (tensor<1xf32>) -> tensor<1x1x1xf32>
    %182 = tosa.mul %181, %178 : (tensor<1x1x1xf32>, tensor<1x1024x1xf32>) -> tensor<1x1024x1xf32>
    %183 = "tosa.const"() <{value = dense<9.99999997E-7> : tensor<1x1024x1xf32>}> : () -> tensor<1x1024x1xf32>
    %184 = tosa.add %182, %183 : (tensor<1x1024x1xf32>, tensor<1x1024x1xf32>) -> tensor<1x1024x1xf32>
    %185 = tosa.rsqrt %184 : (tensor<1x1024x1xf32>) -> tensor<1x1024x1xf32>
    %186 = tosa.mul %175, %185 : (tensor<1x1024x1536xf32>, tensor<1x1024x1xf32>) -> tensor<1x1024x1536xf32>
    %187 = tosa.reshape %arg16 {new_shape = array<i64: 1, 1, 1536>} : (tensor<1536xf32>) -> tensor<1x1x1536xf32>
    %188 = tosa.mul %187, %186 : (tensor<1x1x1536xf32>, tensor<1x1024x1536xf32>) -> tensor<1x1024x1536xf32>
    %189 = tosa.reshape %188 {new_shape = array<i64: 1024, 1536>} : (tensor<1x1024x1536xf32>) -> tensor<1024x1536xf32>
    %190 = "tosa.const"() <{value = dense<[1, 0]> : tensor<2xi32>}> : () -> tensor<2xi32>
    %191 = tosa.transpose %arg17, %190 : (tensor<1536x1536xf32>, tensor<2xi32>) -> tensor<1536x1536xf32>
    %cst_59 = arith.constant dense<0.000000e+00> : tensor<1024x1536xf32>
    %192 = linalg.matmul {cast = #linalg.type_fn<cast_signed>} ins(%189, %191 : tensor<1024x1536xf32>, tensor<1536x1536xf32>) outs(%cst_59 : tensor<1024x1536xf32>) -> tensor<1024x1536xf32>
    %193 = tosa.reshape %arg18 {new_shape = array<i64: 1, 1536>} : (tensor<1536xf32>) -> tensor<1x1536xf32>
    %194 = tosa.add %193, %192 : (tensor<1x1536xf32>, tensor<1024x1536xf32>) -> tensor<1024x1536xf32>
    %195 = tosa.reshape %194 {new_shape = array<i64: 1, 1024, 1536>} : (tensor<1024x1536xf32>) -> tensor<1x1024x1536xf32>
    %196 = tosa.reshape %188 {new_shape = array<i64: 1024, 1536>} : (tensor<1x1024x1536xf32>) -> tensor<1024x1536xf32>
    %197 = "tosa.const"() <{value = dense<[1, 0]> : tensor<2xi32>}> : () -> tensor<2xi32>
    %198 = tosa.transpose %arg19, %197 : (tensor<256x1536xf32>, tensor<2xi32>) -> tensor<1536x256xf32>
    %cst_60 = arith.constant dense<0.000000e+00> : tensor<1024x256xf32>
    %199 = linalg.matmul {cast = #linalg.type_fn<cast_signed>} ins(%196, %198 : tensor<1024x1536xf32>, tensor<1536x256xf32>) outs(%cst_60 : tensor<1024x256xf32>) -> tensor<1024x256xf32>
    %200 = tosa.reshape %arg20 {new_shape = array<i64: 1, 256>} : (tensor<256xf32>) -> tensor<1x256xf32>
    %201 = tosa.add %200, %199 : (tensor<1x256xf32>, tensor<1024x256xf32>) -> tensor<1024x256xf32>
    %202 = tosa.reshape %201 {new_shape = array<i64: 1, 1024, 256>} : (tensor<1024x256xf32>) -> tensor<1x1024x256xf32>
    %203 = tosa.reshape %188 {new_shape = array<i64: 1024, 1536>} : (tensor<1x1024x1536xf32>) -> tensor<1024x1536xf32>
    %204 = "tosa.const"() <{value = dense<[1, 0]> : tensor<2xi32>}> : () -> tensor<2xi32>
    %205 = tosa.transpose %arg21, %204 : (tensor<256x1536xf32>, tensor<2xi32>) -> tensor<1536x256xf32>
    %cst_61 = arith.constant dense<0.000000e+00> : tensor<1024x256xf32>
    %206 = linalg.matmul {cast = #linalg.type_fn<cast_signed>} ins(%203, %205 : tensor<1024x1536xf32>, tensor<1536x256xf32>) outs(%cst_61 : tensor<1024x256xf32>) -> tensor<1024x256xf32>
    %207 = tosa.reshape %arg22 {new_shape = array<i64: 1, 256>} : (tensor<256xf32>) -> tensor<1x256xf32>
    %208 = tosa.add %207, %206 : (tensor<1x256xf32>, tensor<1024x256xf32>) -> tensor<1024x256xf32>
    %209 = tosa.reshape %208 {new_shape = array<i64: 1, 1024, 256>} : (tensor<1024x256xf32>) -> tensor<1x1024x256xf32>
    %210 = tosa.reshape %195 {new_shape = array<i64: 1, 1024, 12, 128>} : (tensor<1x1024x1536xf32>) -> tensor<1x1024x12x128xf32>
    %211 = "tosa.const"() <{value = dense<[0, 2, 1, 3]> : tensor<4xi32>}> : () -> tensor<4xi32>
    %212 = tosa.transpose %210, %211 : (tensor<1x1024x12x128xf32>, tensor<4xi32>) -> tensor<1x12x1024x128xf32>
    %213 = tosa.reshape %202 {new_shape = array<i64: 1, 1024, 2, 128>} : (tensor<1x1024x256xf32>) -> tensor<1x1024x2x128xf32>
    %214 = "tosa.const"() <{value = dense<[0, 2, 1, 3]> : tensor<4xi32>}> : () -> tensor<4xi32>
    %215 = tosa.transpose %213, %214 : (tensor<1x1024x2x128xf32>, tensor<4xi32>) -> tensor<1x2x1024x128xf32>
    %216 = tosa.reshape %209 {new_shape = array<i64: 1, 1024, 2, 128>} : (tensor<1x1024x256xf32>) -> tensor<1x1024x2x128xf32>
    %217 = "tosa.const"() <{value = dense<[0, 2, 1, 3]> : tensor<4xi32>}> : () -> tensor<4xi32>
    %218 = tosa.transpose %216, %217 : (tensor<1x1024x2x128xf32>, tensor<4xi32>) -> tensor<1x2x1024x128xf32>
    %219 = tosa.reshape %51 {new_shape = array<i64: 1, 1, 1024, 128>} : (tensor<1x1024x128xf32>) -> tensor<1x1x1024x128xf32>
    %220 = tosa.reshape %53 {new_shape = array<i64: 1, 1, 1024, 128>} : (tensor<1x1024x128xf32>) -> tensor<1x1x1024x128xf32>
    %221 = tosa.mul %212, %219 : (tensor<1x12x1024x128xf32>, tensor<1x1x1024x128xf32>) -> tensor<1x12x1024x128xf32>
    %extracted_slice_62 = tensor.extract_slice %212[0, 0, 0, 0] [1, 12, 1024, 64] [1, 1, 1, 1] : tensor<1x12x1024x128xf32> to tensor<1x12x1024x64xf32>
    %extracted_slice_63 = tensor.extract_slice %212[0, 0, 0, 64] [1, 12, 1024, 64] [1, 1, 1, 1] : tensor<1x12x1024x128xf32> to tensor<1x12x1024x64xf32>
    %222 = tensor.empty() : tensor<1x12x1024x64xf32>
    %223 = linalg.negf ins(%extracted_slice_63 : tensor<1x12x1024x64xf32>) outs(%222 : tensor<1x12x1024x64xf32>) -> tensor<1x12x1024x64xf32>
    %224 = tensor.empty() : tensor<1x12x1024x128xf32>
    %inserted_slice_64 = tensor.insert_slice %223 into %224[0, 0, 0, 0] [1, 12, 1024, 64] [1, 1, 1, 1] : tensor<1x12x1024x64xf32> into tensor<1x12x1024x128xf32>
    %inserted_slice_65 = tensor.insert_slice %extracted_slice_62 into %inserted_slice_64[0, 0, 0, 64] [1, 12, 1024, 64] [1, 1, 1, 1] : tensor<1x12x1024x64xf32> into tensor<1x12x1024x128xf32>
    %225 = tosa.mul %inserted_slice_65, %220 : (tensor<1x12x1024x128xf32>, tensor<1x1x1024x128xf32>) -> tensor<1x12x1024x128xf32>
    %226 = tosa.add %221, %225 : (tensor<1x12x1024x128xf32>, tensor<1x12x1024x128xf32>) -> tensor<1x12x1024x128xf32>
    %227 = tosa.mul %215, %219 : (tensor<1x2x1024x128xf32>, tensor<1x1x1024x128xf32>) -> tensor<1x2x1024x128xf32>
    %extracted_slice_66 = tensor.extract_slice %215[0, 0, 0, 0] [1, 2, 1024, 64] [1, 1, 1, 1] : tensor<1x2x1024x128xf32> to tensor<1x2x1024x64xf32>
    %extracted_slice_67 = tensor.extract_slice %215[0, 0, 0, 64] [1, 2, 1024, 64] [1, 1, 1, 1] : tensor<1x2x1024x128xf32> to tensor<1x2x1024x64xf32>
    %228 = tensor.empty() : tensor<1x2x1024x64xf32>
    %229 = linalg.negf ins(%extracted_slice_67 : tensor<1x2x1024x64xf32>) outs(%228 : tensor<1x2x1024x64xf32>) -> tensor<1x2x1024x64xf32>
    %230 = tensor.empty() : tensor<1x2x1024x128xf32>
    %inserted_slice_68 = tensor.insert_slice %229 into %230[0, 0, 0, 0] [1, 2, 1024, 64] [1, 1, 1, 1] : tensor<1x2x1024x64xf32> into tensor<1x2x1024x128xf32>
    %inserted_slice_69 = tensor.insert_slice %extracted_slice_66 into %inserted_slice_68[0, 0, 0, 64] [1, 2, 1024, 64] [1, 1, 1, 1] : tensor<1x2x1024x64xf32> into tensor<1x2x1024x128xf32>
    %231 = tosa.mul %inserted_slice_69, %220 : (tensor<1x2x1024x128xf32>, tensor<1x1x1024x128xf32>) -> tensor<1x2x1024x128xf32>
    %232 = tosa.add %227, %231 : (tensor<1x2x1024x128xf32>, tensor<1x2x1024x128xf32>) -> tensor<1x2x1024x128xf32>
    %extracted_slice_70 = tensor.extract_slice %232[0, 0, 0, 0] [1, 2, 1024, 128] [1, 1, 1, 1] : tensor<1x2x1024x128xf32> to tensor<1x2x1024x128xf32>
    %extracted_slice_71 = tensor.extract_slice %extracted_slice_70[0, 0, 0, 0] [1, 2, 1024, 128] [1, 1, 1, 1] : tensor<1x2x1024x128xf32> to tensor<1x2x1024x128xf32>
    %233 = tosa.reshape %extracted_slice_71 {new_shape = array<i64: 1, 2, 1, 1024, 128>} : (tensor<1x2x1024x128xf32>) -> tensor<1x2x1x1024x128xf32>
    %extracted_slice_72 = tensor.extract_slice %233[0, 0, 0, 0, 0] [1, 2, 1, 1024, 128] [1, 1, 1, 1, 1] : tensor<1x2x1x1024x128xf32> to tensor<1x2x1x1024x128xf32>
    %extracted_slice_73 = tensor.extract_slice %extracted_slice_72[0, 0, 0, 0, 0] [1, 2, 1, 1024, 128] [1, 1, 1, 1, 1] : tensor<1x2x1x1024x128xf32> to tensor<1x2x1x1024x128xf32>
    %234 = "tosa.const"() <{value = dense<0.000000e+00> : tensor<1x2x6x1024x128xf32>}> : () -> tensor<1x2x6x1024x128xf32>
    %235 = tosa.add %extracted_slice_73, %234 : (tensor<1x2x1x1024x128xf32>, tensor<1x2x6x1024x128xf32>) -> tensor<1x2x6x1024x128xf32>
    %236 = tosa.identity %235 : (tensor<1x2x6x1024x128xf32>) -> tensor<1x2x6x1024x128xf32>
    %237 = tosa.reshape %236 {new_shape = array<i64: 1, 12, 1024, 128>} : (tensor<1x2x6x1024x128xf32>) -> tensor<1x12x1024x128xf32>
    %extracted_slice_74 = tensor.extract_slice %218[0, 0, 0, 0] [1, 2, 1024, 128] [1, 1, 1, 1] : tensor<1x2x1024x128xf32> to tensor<1x2x1024x128xf32>
    %extracted_slice_75 = tensor.extract_slice %extracted_slice_74[0, 0, 0, 0] [1, 2, 1024, 128] [1, 1, 1, 1] : tensor<1x2x1024x128xf32> to tensor<1x2x1024x128xf32>
    %238 = tosa.reshape %extracted_slice_75 {new_shape = array<i64: 1, 2, 1, 1024, 128>} : (tensor<1x2x1024x128xf32>) -> tensor<1x2x1x1024x128xf32>
    %extracted_slice_76 = tensor.extract_slice %238[0, 0, 0, 0, 0] [1, 2, 1, 1024, 128] [1, 1, 1, 1, 1] : tensor<1x2x1x1024x128xf32> to tensor<1x2x1x1024x128xf32>
    %extracted_slice_77 = tensor.extract_slice %extracted_slice_76[0, 0, 0, 0, 0] [1, 2, 1, 1024, 128] [1, 1, 1, 1, 1] : tensor<1x2x1x1024x128xf32> to tensor<1x2x1x1024x128xf32>
    %239 = "tosa.const"() <{value = dense<0.000000e+00> : tensor<1x2x6x1024x128xf32>}> : () -> tensor<1x2x6x1024x128xf32>
    %240 = tosa.add %extracted_slice_77, %239 : (tensor<1x2x1x1024x128xf32>, tensor<1x2x6x1024x128xf32>) -> tensor<1x2x6x1024x128xf32>
    %241 = tosa.identity %240 : (tensor<1x2x6x1024x128xf32>) -> tensor<1x2x6x1024x128xf32>
    %242 = tosa.reshape %241 {new_shape = array<i64: 1, 12, 1024, 128>} : (tensor<1x2x6x1024x128xf32>) -> tensor<1x12x1024x128xf32>
    %extracted_slice_78 = tensor.extract_slice %inserted_slice_21[0, 0, 0, 0] [1, 1, 1024, 1024] [1, 1, 1, 1] : tensor<1x1x1024x1024xf32> to tensor<1x1x1024x1024xf32>
    %extracted_slice_79 = tensor.extract_slice %extracted_slice_78[0, 0, 0, 0] [1, 1, 1024, 1024] [1, 1, 1, 1] : tensor<1x1x1024x1024xf32> to tensor<1x1x1024x1024xf32>
    %extracted_slice_80 = tensor.extract_slice %extracted_slice_79[0, 0, 0, 0] [1, 1, 1024, 1024] [1, 1, 1, 1] : tensor<1x1x1024x1024xf32> to tensor<1x1x1024x1024xf32>
    %cst_81 = arith.constant 0.000000e+00 : f32
    %splat_82 = tensor.splat %cst_81 : tensor<1024x1024xf32>
    %243 = tosa.reshape %extracted_slice_80 {new_shape = array<i64: 1024, 1024>} : (tensor<1x1x1024x1024xf32>) -> tensor<1024x1024xf32>
    %244 = tosa.add %splat_82, %243 : (tensor<1024x1024xf32>, tensor<1024x1024xf32>) -> tensor<1024x1024xf32>
    %245 = "tosa.const"() <{value = dense<[0, 1, 3, 2]> : tensor<4xi32>}> : () -> tensor<4xi32>
    %246 = tosa.transpose %237, %245 : (tensor<1x12x1024x128xf32>, tensor<4xi32>) -> tensor<1x12x128x1024xf32>
    %247 = tosa.reshape %226 {new_shape = array<i64: 12, 1024, 128>} : (tensor<1x12x1024x128xf32>) -> tensor<12x1024x128xf32>
    %248 = tosa.reshape %246 {new_shape = array<i64: 12, 128, 1024>} : (tensor<1x12x128x1024xf32>) -> tensor<12x128x1024xf32>
    %249 = tosa.matmul %247, %248 : (tensor<12x1024x128xf32>, tensor<12x128x1024xf32>) -> tensor<12x1024x1024xf32>
    %cst_83 = arith.constant 0.0883883461 : f32
    %splat_84 = tensor.splat %cst_83 : tensor<12x1024x1024xf32>
    %250 = tosa.mul %249, %splat_84 : (tensor<12x1024x1024xf32>, tensor<12x1024x1024xf32>) -> tensor<12x1024x1024xf32>
    %251 = tosa.reshape %244 {new_shape = array<i64: 1, 1024, 1024>} : (tensor<1024x1024xf32>) -> tensor<1x1024x1024xf32>
    %252 = tosa.add %250, %251 : (tensor<12x1024x1024xf32>, tensor<1x1024x1024xf32>) -> tensor<12x1024x1024xf32>
    %253 = tosa.reduce_max %252 {axis = 2 : i32} : (tensor<12x1024x1024xf32>) -> tensor<12x1024x1xf32>
    %254 = tosa.sub %252, %253 : (tensor<12x1024x1024xf32>, tensor<12x1024x1xf32>) -> tensor<12x1024x1024xf32>
    %255 = math.exp %254 : tensor<12x1024x1024xf32>
    %256 = tosa.reduce_sum %255 {axis = 2 : i32} : (tensor<12x1024x1024xf32>) -> tensor<12x1024x1xf32>
    %257 = tosa.log %256 : (tensor<12x1024x1xf32>) -> tensor<12x1024x1xf32>
    %258 = tosa.add %253, %257 : (tensor<12x1024x1xf32>, tensor<12x1024x1xf32>) -> tensor<12x1024x1xf32>
    %259 = tosa.sub %252, %258 : (tensor<12x1024x1024xf32>, tensor<12x1024x1xf32>) -> tensor<12x1024x1024xf32>
    %260 = math.exp %259 : tensor<12x1024x1024xf32>
    %261 = tosa.reshape %258 {new_shape = array<i64: 1, 12, 1024>} : (tensor<12x1024x1xf32>) -> tensor<1x12x1024xf32>
    %262 = tosa.reshape %242 {new_shape = array<i64: 12, 1024, 128>} : (tensor<1x12x1024x128xf32>) -> tensor<12x1024x128xf32>
    %263 = tosa.matmul %260, %262 : (tensor<12x1024x1024xf32>, tensor<12x1024x128xf32>) -> tensor<12x1024x128xf32>
    %264 = tosa.reshape %263 {new_shape = array<i64: 1, 12, 1024, 128>} : (tensor<12x1024x128xf32>) -> tensor<1x12x1024x128xf32>
    %265 = "tosa.const"() <{value = dense<[0, 2, 1, 3]> : tensor<4xi32>}> : () -> tensor<4xi32>
    %266 = tosa.transpose %264, %265 : (tensor<1x12x1024x128xf32>, tensor<4xi32>) -> tensor<1x1024x12x128xf32>
    %267 = tosa.reshape %266 {new_shape = array<i64: 1, 1024, 1536>} : (tensor<1x1024x12x128xf32>) -> tensor<1x1024x1536xf32>
    %268 = tosa.reshape %267 {new_shape = array<i64: 1024, 1536>} : (tensor<1x1024x1536xf32>) -> tensor<1024x1536xf32>
    %cst_85 = arith.constant dense<0.000000e+00> : tensor<1024x1536xf32>
    %269 = linalg.matmul_transpose_b {cast = #linalg.type_fn<cast_signed>} ins(%268, %arg23 : tensor<1024x1536xf32>, tensor<1536x1536xf32>) outs(%cst_85 : tensor<1024x1536xf32>) -> tensor<1024x1536xf32>
    %270 = tosa.reshape %269 {new_shape = array<i64: 1, 1024, 1536>} : (tensor<1024x1536xf32>) -> tensor<1x1024x1536xf32>
    %271 = tosa.add %175, %270 : (tensor<1x1024x1536xf32>, tensor<1x1024x1536xf32>) -> tensor<1x1024x1536xf32>
    %272 = tensor.empty() : tensor<1x1024x1536xf32>
    %c2_i32_86 = arith.constant 2 : i32
    %273 = linalg.generic {indexing_maps = [#map4, #map4], iterator_types = ["parallel", "parallel", "parallel"]} ins(%271 : tensor<1x1024x1536xf32>) outs(%272 : tensor<1x1024x1536xf32>) {
    ^bb0(%in: f32, %out: f32):
      %3486 = math.fpowi %in, %c2_i32_86 : f32, i32
      linalg.yield %3486 : f32
    } -> tensor<1x1024x1536xf32>
    %274 = tosa.reduce_sum %273 {axis = 2 : i32} : (tensor<1x1024x1536xf32>) -> tensor<1x1024x1xf32>
    %275 = "tosa.const"() <{value = dense<1.536000e+03> : tensor<1xf32>}> : () -> tensor<1xf32>
    %276 = tosa.reciprocal %275 : (tensor<1xf32>) -> tensor<1xf32>
    %277 = tosa.reshape %276 {new_shape = array<i64: 1, 1, 1>} : (tensor<1xf32>) -> tensor<1x1x1xf32>
    %278 = tosa.mul %277, %274 : (tensor<1x1x1xf32>, tensor<1x1024x1xf32>) -> tensor<1x1024x1xf32>
    %279 = "tosa.const"() <{value = dense<9.99999997E-7> : tensor<1x1024x1xf32>}> : () -> tensor<1x1024x1xf32>
    %280 = tosa.add %278, %279 : (tensor<1x1024x1xf32>, tensor<1x1024x1xf32>) -> tensor<1x1024x1xf32>
    %281 = tosa.rsqrt %280 : (tensor<1x1024x1xf32>) -> tensor<1x1024x1xf32>
    %282 = tosa.mul %271, %281 : (tensor<1x1024x1536xf32>, tensor<1x1024x1xf32>) -> tensor<1x1024x1536xf32>
    %283 = tosa.reshape %arg24 {new_shape = array<i64: 1, 1, 1536>} : (tensor<1536xf32>) -> tensor<1x1x1536xf32>
    %284 = tosa.mul %283, %282 : (tensor<1x1x1536xf32>, tensor<1x1024x1536xf32>) -> tensor<1x1024x1536xf32>
    %285 = tosa.reshape %284 {new_shape = array<i64: 1024, 1536>} : (tensor<1x1024x1536xf32>) -> tensor<1024x1536xf32>
    %cst_87 = arith.constant dense<0.000000e+00> : tensor<1024x8960xf32>
    %286 = linalg.matmul_transpose_b {cast = #linalg.type_fn<cast_signed>} ins(%285, %arg25 : tensor<1024x1536xf32>, tensor<8960x1536xf32>) outs(%cst_87 : tensor<1024x8960xf32>) -> tensor<1024x8960xf32>
    %287 = tosa.reshape %286 {new_shape = array<i64: 1, 1024, 8960>} : (tensor<1024x8960xf32>) -> tensor<1x1024x8960xf32>
    %288 = tosa.sigmoid %287 : (tensor<1x1024x8960xf32>) -> tensor<1x1024x8960xf32>
    %289 = tosa.mul %287, %288 : (tensor<1x1024x8960xf32>, tensor<1x1024x8960xf32>) -> tensor<1x1024x8960xf32>
    %290 = tosa.reshape %284 {new_shape = array<i64: 1024, 1536>} : (tensor<1x1024x1536xf32>) -> tensor<1024x1536xf32>
    %cst_88 = arith.constant dense<0.000000e+00> : tensor<1024x8960xf32>
    %291 = linalg.matmul_transpose_b {cast = #linalg.type_fn<cast_signed>} ins(%290, %arg26 : tensor<1024x1536xf32>, tensor<8960x1536xf32>) outs(%cst_88 : tensor<1024x8960xf32>) -> tensor<1024x8960xf32>
    %292 = tosa.reshape %291 {new_shape = array<i64: 1, 1024, 8960>} : (tensor<1024x8960xf32>) -> tensor<1x1024x8960xf32>
    %293 = tosa.mul %289, %292 : (tensor<1x1024x8960xf32>, tensor<1x1024x8960xf32>) -> tensor<1x1024x8960xf32>
    %294 = tosa.reshape %293 {new_shape = array<i64: 1024, 8960>} : (tensor<1x1024x8960xf32>) -> tensor<1024x8960xf32>
    %cst_89 = arith.constant dense<0.000000e+00> : tensor<1024x1536xf32>
    %295 = linalg.matmul_transpose_b {cast = #linalg.type_fn<cast_signed>} ins(%294, %arg27 : tensor<1024x8960xf32>, tensor<1536x8960xf32>) outs(%cst_89 : tensor<1024x1536xf32>) -> tensor<1024x1536xf32>
    %296 = tosa.reshape %295 {new_shape = array<i64: 1, 1024, 1536>} : (tensor<1024x1536xf32>) -> tensor<1x1024x1536xf32>
    %297 = tosa.add %271, %296 : (tensor<1x1024x1536xf32>, tensor<1x1024x1536xf32>) -> tensor<1x1024x1536xf32>
    %298 = tensor.empty() : tensor<1x1024x1536xf32>
    %c2_i32_90 = arith.constant 2 : i32
    %299 = linalg.generic {indexing_maps = [#map4, #map4], iterator_types = ["parallel", "parallel", "parallel"]} ins(%297 : tensor<1x1024x1536xf32>) outs(%298 : tensor<1x1024x1536xf32>) {
    ^bb0(%in: f32, %out: f32):
      %3486 = math.fpowi %in, %c2_i32_90 : f32, i32
      linalg.yield %3486 : f32
    } -> tensor<1x1024x1536xf32>
    %300 = tosa.reduce_sum %299 {axis = 2 : i32} : (tensor<1x1024x1536xf32>) -> tensor<1x1024x1xf32>
    %301 = "tosa.const"() <{value = dense<1.536000e+03> : tensor<1xf32>}> : () -> tensor<1xf32>
    %302 = tosa.reciprocal %301 : (tensor<1xf32>) -> tensor<1xf32>
    %303 = tosa.reshape %302 {new_shape = array<i64: 1, 1, 1>} : (tensor<1xf32>) -> tensor<1x1x1xf32>
    %304 = tosa.mul %303, %300 : (tensor<1x1x1xf32>, tensor<1x1024x1xf32>) -> tensor<1x1024x1xf32>
    %305 = "tosa.const"() <{value = dense<9.99999997E-7> : tensor<1x1024x1xf32>}> : () -> tensor<1x1024x1xf32>
    %306 = tosa.add %304, %305 : (tensor<1x1024x1xf32>, tensor<1x1024x1xf32>) -> tensor<1x1024x1xf32>
    %307 = tosa.rsqrt %306 : (tensor<1x1024x1xf32>) -> tensor<1x1024x1xf32>
    %308 = tosa.mul %297, %307 : (tensor<1x1024x1536xf32>, tensor<1x1024x1xf32>) -> tensor<1x1024x1536xf32>
    %309 = tosa.reshape %arg28 {new_shape = array<i64: 1, 1, 1536>} : (tensor<1536xf32>) -> tensor<1x1x1536xf32>
    %310 = tosa.mul %309, %308 : (tensor<1x1x1536xf32>, tensor<1x1024x1536xf32>) -> tensor<1x1024x1536xf32>
    %311 = tosa.reshape %310 {new_shape = array<i64: 1024, 1536>} : (tensor<1x1024x1536xf32>) -> tensor<1024x1536xf32>
    %312 = "tosa.const"() <{value = dense<[1, 0]> : tensor<2xi32>}> : () -> tensor<2xi32>
    %313 = tosa.transpose %arg29, %312 : (tensor<1536x1536xf32>, tensor<2xi32>) -> tensor<1536x1536xf32>
    %cst_91 = arith.constant dense<0.000000e+00> : tensor<1024x1536xf32>
    %314 = linalg.matmul {cast = #linalg.type_fn<cast_signed>} ins(%311, %313 : tensor<1024x1536xf32>, tensor<1536x1536xf32>) outs(%cst_91 : tensor<1024x1536xf32>) -> tensor<1024x1536xf32>
    %315 = tosa.reshape %arg30 {new_shape = array<i64: 1, 1536>} : (tensor<1536xf32>) -> tensor<1x1536xf32>
    %316 = tosa.add %315, %314 : (tensor<1x1536xf32>, tensor<1024x1536xf32>) -> tensor<1024x1536xf32>
    %317 = tosa.reshape %316 {new_shape = array<i64: 1, 1024, 1536>} : (tensor<1024x1536xf32>) -> tensor<1x1024x1536xf32>
    %318 = tosa.reshape %310 {new_shape = array<i64: 1024, 1536>} : (tensor<1x1024x1536xf32>) -> tensor<1024x1536xf32>
    %319 = "tosa.const"() <{value = dense<[1, 0]> : tensor<2xi32>}> : () -> tensor<2xi32>
    %320 = tosa.transpose %arg31, %319 : (tensor<256x1536xf32>, tensor<2xi32>) -> tensor<1536x256xf32>
    %cst_92 = arith.constant dense<0.000000e+00> : tensor<1024x256xf32>
    %321 = linalg.matmul {cast = #linalg.type_fn<cast_signed>} ins(%318, %320 : tensor<1024x1536xf32>, tensor<1536x256xf32>) outs(%cst_92 : tensor<1024x256xf32>) -> tensor<1024x256xf32>
    %322 = tosa.reshape %arg32 {new_shape = array<i64: 1, 256>} : (tensor<256xf32>) -> tensor<1x256xf32>
    %323 = tosa.add %322, %321 : (tensor<1x256xf32>, tensor<1024x256xf32>) -> tensor<1024x256xf32>
    %324 = tosa.reshape %323 {new_shape = array<i64: 1, 1024, 256>} : (tensor<1024x256xf32>) -> tensor<1x1024x256xf32>
    %325 = tosa.reshape %310 {new_shape = array<i64: 1024, 1536>} : (tensor<1x1024x1536xf32>) -> tensor<1024x1536xf32>
    %326 = "tosa.const"() <{value = dense<[1, 0]> : tensor<2xi32>}> : () -> tensor<2xi32>
    %327 = tosa.transpose %arg33, %326 : (tensor<256x1536xf32>, tensor<2xi32>) -> tensor<1536x256xf32>
    %cst_93 = arith.constant dense<0.000000e+00> : tensor<1024x256xf32>
    %328 = linalg.matmul {cast = #linalg.type_fn<cast_signed>} ins(%325, %327 : tensor<1024x1536xf32>, tensor<1536x256xf32>) outs(%cst_93 : tensor<1024x256xf32>) -> tensor<1024x256xf32>
    %329 = tosa.reshape %arg34 {new_shape = array<i64: 1, 256>} : (tensor<256xf32>) -> tensor<1x256xf32>
    %330 = tosa.add %329, %328 : (tensor<1x256xf32>, tensor<1024x256xf32>) -> tensor<1024x256xf32>
    %331 = tosa.reshape %330 {new_shape = array<i64: 1, 1024, 256>} : (tensor<1024x256xf32>) -> tensor<1x1024x256xf32>
    %332 = tosa.reshape %317 {new_shape = array<i64: 1, 1024, 12, 128>} : (tensor<1x1024x1536xf32>) -> tensor<1x1024x12x128xf32>
    %333 = "tosa.const"() <{value = dense<[0, 2, 1, 3]> : tensor<4xi32>}> : () -> tensor<4xi32>
    %334 = tosa.transpose %332, %333 : (tensor<1x1024x12x128xf32>, tensor<4xi32>) -> tensor<1x12x1024x128xf32>
    %335 = tosa.reshape %324 {new_shape = array<i64: 1, 1024, 2, 128>} : (tensor<1x1024x256xf32>) -> tensor<1x1024x2x128xf32>
    %336 = "tosa.const"() <{value = dense<[0, 2, 1, 3]> : tensor<4xi32>}> : () -> tensor<4xi32>
    %337 = tosa.transpose %335, %336 : (tensor<1x1024x2x128xf32>, tensor<4xi32>) -> tensor<1x2x1024x128xf32>
    %338 = tosa.reshape %331 {new_shape = array<i64: 1, 1024, 2, 128>} : (tensor<1x1024x256xf32>) -> tensor<1x1024x2x128xf32>
    %339 = "tosa.const"() <{value = dense<[0, 2, 1, 3]> : tensor<4xi32>}> : () -> tensor<4xi32>
    %340 = tosa.transpose %338, %339 : (tensor<1x1024x2x128xf32>, tensor<4xi32>) -> tensor<1x2x1024x128xf32>
    %341 = tosa.reshape %51 {new_shape = array<i64: 1, 1, 1024, 128>} : (tensor<1x1024x128xf32>) -> tensor<1x1x1024x128xf32>
    %342 = tosa.reshape %53 {new_shape = array<i64: 1, 1, 1024, 128>} : (tensor<1x1024x128xf32>) -> tensor<1x1x1024x128xf32>
    %343 = tosa.mul %334, %341 : (tensor<1x12x1024x128xf32>, tensor<1x1x1024x128xf32>) -> tensor<1x12x1024x128xf32>
    %extracted_slice_94 = tensor.extract_slice %334[0, 0, 0, 0] [1, 12, 1024, 64] [1, 1, 1, 1] : tensor<1x12x1024x128xf32> to tensor<1x12x1024x64xf32>
    %extracted_slice_95 = tensor.extract_slice %334[0, 0, 0, 64] [1, 12, 1024, 64] [1, 1, 1, 1] : tensor<1x12x1024x128xf32> to tensor<1x12x1024x64xf32>
    %344 = tensor.empty() : tensor<1x12x1024x64xf32>
    %345 = linalg.negf ins(%extracted_slice_95 : tensor<1x12x1024x64xf32>) outs(%344 : tensor<1x12x1024x64xf32>) -> tensor<1x12x1024x64xf32>
    %346 = tensor.empty() : tensor<1x12x1024x128xf32>
    %inserted_slice_96 = tensor.insert_slice %345 into %346[0, 0, 0, 0] [1, 12, 1024, 64] [1, 1, 1, 1] : tensor<1x12x1024x64xf32> into tensor<1x12x1024x128xf32>
    %inserted_slice_97 = tensor.insert_slice %extracted_slice_94 into %inserted_slice_96[0, 0, 0, 64] [1, 12, 1024, 64] [1, 1, 1, 1] : tensor<1x12x1024x64xf32> into tensor<1x12x1024x128xf32>
    %347 = tosa.mul %inserted_slice_97, %342 : (tensor<1x12x1024x128xf32>, tensor<1x1x1024x128xf32>) -> tensor<1x12x1024x128xf32>
    %348 = tosa.add %343, %347 : (tensor<1x12x1024x128xf32>, tensor<1x12x1024x128xf32>) -> tensor<1x12x1024x128xf32>
    %349 = tosa.mul %337, %341 : (tensor<1x2x1024x128xf32>, tensor<1x1x1024x128xf32>) -> tensor<1x2x1024x128xf32>
    %extracted_slice_98 = tensor.extract_slice %337[0, 0, 0, 0] [1, 2, 1024, 64] [1, 1, 1, 1] : tensor<1x2x1024x128xf32> to tensor<1x2x1024x64xf32>
    %extracted_slice_99 = tensor.extract_slice %337[0, 0, 0, 64] [1, 2, 1024, 64] [1, 1, 1, 1] : tensor<1x2x1024x128xf32> to tensor<1x2x1024x64xf32>
    %350 = tensor.empty() : tensor<1x2x1024x64xf32>
    %351 = linalg.negf ins(%extracted_slice_99 : tensor<1x2x1024x64xf32>) outs(%350 : tensor<1x2x1024x64xf32>) -> tensor<1x2x1024x64xf32>
    %352 = tensor.empty() : tensor<1x2x1024x128xf32>
    %inserted_slice_100 = tensor.insert_slice %351 into %352[0, 0, 0, 0] [1, 2, 1024, 64] [1, 1, 1, 1] : tensor<1x2x1024x64xf32> into tensor<1x2x1024x128xf32>
    %inserted_slice_101 = tensor.insert_slice %extracted_slice_98 into %inserted_slice_100[0, 0, 0, 64] [1, 2, 1024, 64] [1, 1, 1, 1] : tensor<1x2x1024x64xf32> into tensor<1x2x1024x128xf32>
    %353 = tosa.mul %inserted_slice_101, %342 : (tensor<1x2x1024x128xf32>, tensor<1x1x1024x128xf32>) -> tensor<1x2x1024x128xf32>
    %354 = tosa.add %349, %353 : (tensor<1x2x1024x128xf32>, tensor<1x2x1024x128xf32>) -> tensor<1x2x1024x128xf32>
    %extracted_slice_102 = tensor.extract_slice %354[0, 0, 0, 0] [1, 2, 1024, 128] [1, 1, 1, 1] : tensor<1x2x1024x128xf32> to tensor<1x2x1024x128xf32>
    %extracted_slice_103 = tensor.extract_slice %extracted_slice_102[0, 0, 0, 0] [1, 2, 1024, 128] [1, 1, 1, 1] : tensor<1x2x1024x128xf32> to tensor<1x2x1024x128xf32>
    %355 = tosa.reshape %extracted_slice_103 {new_shape = array<i64: 1, 2, 1, 1024, 128>} : (tensor<1x2x1024x128xf32>) -> tensor<1x2x1x1024x128xf32>
    %extracted_slice_104 = tensor.extract_slice %355[0, 0, 0, 0, 0] [1, 2, 1, 1024, 128] [1, 1, 1, 1, 1] : tensor<1x2x1x1024x128xf32> to tensor<1x2x1x1024x128xf32>
    %extracted_slice_105 = tensor.extract_slice %extracted_slice_104[0, 0, 0, 0, 0] [1, 2, 1, 1024, 128] [1, 1, 1, 1, 1] : tensor<1x2x1x1024x128xf32> to tensor<1x2x1x1024x128xf32>
    %356 = "tosa.const"() <{value = dense<0.000000e+00> : tensor<1x2x6x1024x128xf32>}> : () -> tensor<1x2x6x1024x128xf32>
    %357 = tosa.add %extracted_slice_105, %356 : (tensor<1x2x1x1024x128xf32>, tensor<1x2x6x1024x128xf32>) -> tensor<1x2x6x1024x128xf32>
    %358 = tosa.identity %357 : (tensor<1x2x6x1024x128xf32>) -> tensor<1x2x6x1024x128xf32>
    %359 = tosa.reshape %358 {new_shape = array<i64: 1, 12, 1024, 128>} : (tensor<1x2x6x1024x128xf32>) -> tensor<1x12x1024x128xf32>
    %extracted_slice_106 = tensor.extract_slice %340[0, 0, 0, 0] [1, 2, 1024, 128] [1, 1, 1, 1] : tensor<1x2x1024x128xf32> to tensor<1x2x1024x128xf32>
    %extracted_slice_107 = tensor.extract_slice %extracted_slice_106[0, 0, 0, 0] [1, 2, 1024, 128] [1, 1, 1, 1] : tensor<1x2x1024x128xf32> to tensor<1x2x1024x128xf32>
    %360 = tosa.reshape %extracted_slice_107 {new_shape = array<i64: 1, 2, 1, 1024, 128>} : (tensor<1x2x1024x128xf32>) -> tensor<1x2x1x1024x128xf32>
    %extracted_slice_108 = tensor.extract_slice %360[0, 0, 0, 0, 0] [1, 2, 1, 1024, 128] [1, 1, 1, 1, 1] : tensor<1x2x1x1024x128xf32> to tensor<1x2x1x1024x128xf32>
    %extracted_slice_109 = tensor.extract_slice %extracted_slice_108[0, 0, 0, 0, 0] [1, 2, 1, 1024, 128] [1, 1, 1, 1, 1] : tensor<1x2x1x1024x128xf32> to tensor<1x2x1x1024x128xf32>
    %361 = "tosa.const"() <{value = dense<0.000000e+00> : tensor<1x2x6x1024x128xf32>}> : () -> tensor<1x2x6x1024x128xf32>
    %362 = tosa.add %extracted_slice_109, %361 : (tensor<1x2x1x1024x128xf32>, tensor<1x2x6x1024x128xf32>) -> tensor<1x2x6x1024x128xf32>
    %363 = tosa.identity %362 : (tensor<1x2x6x1024x128xf32>) -> tensor<1x2x6x1024x128xf32>
    %364 = tosa.reshape %363 {new_shape = array<i64: 1, 12, 1024, 128>} : (tensor<1x2x6x1024x128xf32>) -> tensor<1x12x1024x128xf32>
    %extracted_slice_110 = tensor.extract_slice %inserted_slice_21[0, 0, 0, 0] [1, 1, 1024, 1024] [1, 1, 1, 1] : tensor<1x1x1024x1024xf32> to tensor<1x1x1024x1024xf32>
    %extracted_slice_111 = tensor.extract_slice %extracted_slice_110[0, 0, 0, 0] [1, 1, 1024, 1024] [1, 1, 1, 1] : tensor<1x1x1024x1024xf32> to tensor<1x1x1024x1024xf32>
    %extracted_slice_112 = tensor.extract_slice %extracted_slice_111[0, 0, 0, 0] [1, 1, 1024, 1024] [1, 1, 1, 1] : tensor<1x1x1024x1024xf32> to tensor<1x1x1024x1024xf32>
    %cst_113 = arith.constant 0.000000e+00 : f32
    %splat_114 = tensor.splat %cst_113 : tensor<1024x1024xf32>
    %365 = tosa.reshape %extracted_slice_112 {new_shape = array<i64: 1024, 1024>} : (tensor<1x1x1024x1024xf32>) -> tensor<1024x1024xf32>
    %366 = tosa.add %splat_114, %365 : (tensor<1024x1024xf32>, tensor<1024x1024xf32>) -> tensor<1024x1024xf32>
    %367 = "tosa.const"() <{value = dense<[0, 1, 3, 2]> : tensor<4xi32>}> : () -> tensor<4xi32>
    %368 = tosa.transpose %359, %367 : (tensor<1x12x1024x128xf32>, tensor<4xi32>) -> tensor<1x12x128x1024xf32>
    %369 = tosa.reshape %348 {new_shape = array<i64: 12, 1024, 128>} : (tensor<1x12x1024x128xf32>) -> tensor<12x1024x128xf32>
    %370 = tosa.reshape %368 {new_shape = array<i64: 12, 128, 1024>} : (tensor<1x12x128x1024xf32>) -> tensor<12x128x1024xf32>
    %371 = tosa.matmul %369, %370 : (tensor<12x1024x128xf32>, tensor<12x128x1024xf32>) -> tensor<12x1024x1024xf32>
    %cst_115 = arith.constant 0.0883883461 : f32
    %splat_116 = tensor.splat %cst_115 : tensor<12x1024x1024xf32>
    %372 = tosa.mul %371, %splat_116 : (tensor<12x1024x1024xf32>, tensor<12x1024x1024xf32>) -> tensor<12x1024x1024xf32>
    %373 = tosa.reshape %366 {new_shape = array<i64: 1, 1024, 1024>} : (tensor<1024x1024xf32>) -> tensor<1x1024x1024xf32>
    %374 = tosa.add %372, %373 : (tensor<12x1024x1024xf32>, tensor<1x1024x1024xf32>) -> tensor<12x1024x1024xf32>
    %375 = tosa.reduce_max %374 {axis = 2 : i32} : (tensor<12x1024x1024xf32>) -> tensor<12x1024x1xf32>
    %376 = tosa.sub %374, %375 : (tensor<12x1024x1024xf32>, tensor<12x1024x1xf32>) -> tensor<12x1024x1024xf32>
    %377 = math.exp %376 : tensor<12x1024x1024xf32>
    %378 = tosa.reduce_sum %377 {axis = 2 : i32} : (tensor<12x1024x1024xf32>) -> tensor<12x1024x1xf32>
    %379 = tosa.log %378 : (tensor<12x1024x1xf32>) -> tensor<12x1024x1xf32>
    %380 = tosa.add %375, %379 : (tensor<12x1024x1xf32>, tensor<12x1024x1xf32>) -> tensor<12x1024x1xf32>
    %381 = tosa.sub %374, %380 : (tensor<12x1024x1024xf32>, tensor<12x1024x1xf32>) -> tensor<12x1024x1024xf32>
    %382 = math.exp %381 : tensor<12x1024x1024xf32>
    %383 = tosa.reshape %380 {new_shape = array<i64: 1, 12, 1024>} : (tensor<12x1024x1xf32>) -> tensor<1x12x1024xf32>
    %384 = tosa.reshape %364 {new_shape = array<i64: 12, 1024, 128>} : (tensor<1x12x1024x128xf32>) -> tensor<12x1024x128xf32>
    %385 = tosa.matmul %382, %384 : (tensor<12x1024x1024xf32>, tensor<12x1024x128xf32>) -> tensor<12x1024x128xf32>
    %386 = tosa.reshape %385 {new_shape = array<i64: 1, 12, 1024, 128>} : (tensor<12x1024x128xf32>) -> tensor<1x12x1024x128xf32>
    %387 = "tosa.const"() <{value = dense<[0, 2, 1, 3]> : tensor<4xi32>}> : () -> tensor<4xi32>
    %388 = tosa.transpose %386, %387 : (tensor<1x12x1024x128xf32>, tensor<4xi32>) -> tensor<1x1024x12x128xf32>
    %389 = tosa.reshape %388 {new_shape = array<i64: 1, 1024, 1536>} : (tensor<1x1024x12x128xf32>) -> tensor<1x1024x1536xf32>
    %390 = tosa.reshape %389 {new_shape = array<i64: 1024, 1536>} : (tensor<1x1024x1536xf32>) -> tensor<1024x1536xf32>
    %cst_117 = arith.constant dense<0.000000e+00> : tensor<1024x1536xf32>
    %391 = linalg.matmul_transpose_b {cast = #linalg.type_fn<cast_signed>} ins(%390, %arg35 : tensor<1024x1536xf32>, tensor<1536x1536xf32>) outs(%cst_117 : tensor<1024x1536xf32>) -> tensor<1024x1536xf32>
    %392 = tosa.reshape %391 {new_shape = array<i64: 1, 1024, 1536>} : (tensor<1024x1536xf32>) -> tensor<1x1024x1536xf32>
    %393 = tosa.add %297, %392 : (tensor<1x1024x1536xf32>, tensor<1x1024x1536xf32>) -> tensor<1x1024x1536xf32>
    %394 = tensor.empty() : tensor<1x1024x1536xf32>
    %c2_i32_118 = arith.constant 2 : i32
    %395 = linalg.generic {indexing_maps = [#map4, #map4], iterator_types = ["parallel", "parallel", "parallel"]} ins(%393 : tensor<1x1024x1536xf32>) outs(%394 : tensor<1x1024x1536xf32>) {
    ^bb0(%in: f32, %out: f32):
      %3486 = math.fpowi %in, %c2_i32_118 : f32, i32
      linalg.yield %3486 : f32
    } -> tensor<1x1024x1536xf32>
    %396 = tosa.reduce_sum %395 {axis = 2 : i32} : (tensor<1x1024x1536xf32>) -> tensor<1x1024x1xf32>
    %397 = "tosa.const"() <{value = dense<1.536000e+03> : tensor<1xf32>}> : () -> tensor<1xf32>
    %398 = tosa.reciprocal %397 : (tensor<1xf32>) -> tensor<1xf32>
    %399 = tosa.reshape %398 {new_shape = array<i64: 1, 1, 1>} : (tensor<1xf32>) -> tensor<1x1x1xf32>
    %400 = tosa.mul %399, %396 : (tensor<1x1x1xf32>, tensor<1x1024x1xf32>) -> tensor<1x1024x1xf32>
    %401 = "tosa.const"() <{value = dense<9.99999997E-7> : tensor<1x1024x1xf32>}> : () -> tensor<1x1024x1xf32>
    %402 = tosa.add %400, %401 : (tensor<1x1024x1xf32>, tensor<1x1024x1xf32>) -> tensor<1x1024x1xf32>
    %403 = tosa.rsqrt %402 : (tensor<1x1024x1xf32>) -> tensor<1x1024x1xf32>
    %404 = tosa.mul %393, %403 : (tensor<1x1024x1536xf32>, tensor<1x1024x1xf32>) -> tensor<1x1024x1536xf32>
    %405 = tosa.reshape %arg36 {new_shape = array<i64: 1, 1, 1536>} : (tensor<1536xf32>) -> tensor<1x1x1536xf32>
    %406 = tosa.mul %405, %404 : (tensor<1x1x1536xf32>, tensor<1x1024x1536xf32>) -> tensor<1x1024x1536xf32>
    %407 = tosa.reshape %406 {new_shape = array<i64: 1024, 1536>} : (tensor<1x1024x1536xf32>) -> tensor<1024x1536xf32>
    %cst_119 = arith.constant dense<0.000000e+00> : tensor<1024x8960xf32>
    %408 = linalg.matmul_transpose_b {cast = #linalg.type_fn<cast_signed>} ins(%407, %arg37 : tensor<1024x1536xf32>, tensor<8960x1536xf32>) outs(%cst_119 : tensor<1024x8960xf32>) -> tensor<1024x8960xf32>
    %409 = tosa.reshape %408 {new_shape = array<i64: 1, 1024, 8960>} : (tensor<1024x8960xf32>) -> tensor<1x1024x8960xf32>
    %410 = tosa.sigmoid %409 : (tensor<1x1024x8960xf32>) -> tensor<1x1024x8960xf32>
    %411 = tosa.mul %409, %410 : (tensor<1x1024x8960xf32>, tensor<1x1024x8960xf32>) -> tensor<1x1024x8960xf32>
    %412 = tosa.reshape %406 {new_shape = array<i64: 1024, 1536>} : (tensor<1x1024x1536xf32>) -> tensor<1024x1536xf32>
    %cst_120 = arith.constant dense<0.000000e+00> : tensor<1024x8960xf32>
    %413 = linalg.matmul_transpose_b {cast = #linalg.type_fn<cast_signed>} ins(%412, %arg38 : tensor<1024x1536xf32>, tensor<8960x1536xf32>) outs(%cst_120 : tensor<1024x8960xf32>) -> tensor<1024x8960xf32>
    %414 = tosa.reshape %413 {new_shape = array<i64: 1, 1024, 8960>} : (tensor<1024x8960xf32>) -> tensor<1x1024x8960xf32>
    %415 = tosa.mul %411, %414 : (tensor<1x1024x8960xf32>, tensor<1x1024x8960xf32>) -> tensor<1x1024x8960xf32>
    %416 = tosa.reshape %415 {new_shape = array<i64: 1024, 8960>} : (tensor<1x1024x8960xf32>) -> tensor<1024x8960xf32>
    %cst_121 = arith.constant dense<0.000000e+00> : tensor<1024x1536xf32>
    %417 = linalg.matmul_transpose_b {cast = #linalg.type_fn<cast_signed>} ins(%416, %arg39 : tensor<1024x8960xf32>, tensor<1536x8960xf32>) outs(%cst_121 : tensor<1024x1536xf32>) -> tensor<1024x1536xf32>
    %418 = tosa.reshape %417 {new_shape = array<i64: 1, 1024, 1536>} : (tensor<1024x1536xf32>) -> tensor<1x1024x1536xf32>
    %419 = tosa.add %393, %418 : (tensor<1x1024x1536xf32>, tensor<1x1024x1536xf32>) -> tensor<1x1024x1536xf32>
    %420 = tensor.empty() : tensor<1x1024x1536xf32>
    %c2_i32_122 = arith.constant 2 : i32
    %421 = linalg.generic {indexing_maps = [#map4, #map4], iterator_types = ["parallel", "parallel", "parallel"]} ins(%419 : tensor<1x1024x1536xf32>) outs(%420 : tensor<1x1024x1536xf32>) {
    ^bb0(%in: f32, %out: f32):
      %3486 = math.fpowi %in, %c2_i32_122 : f32, i32
      linalg.yield %3486 : f32
    } -> tensor<1x1024x1536xf32>
    %422 = tosa.reduce_sum %421 {axis = 2 : i32} : (tensor<1x1024x1536xf32>) -> tensor<1x1024x1xf32>
    %423 = "tosa.const"() <{value = dense<1.536000e+03> : tensor<1xf32>}> : () -> tensor<1xf32>
    %424 = tosa.reciprocal %423 : (tensor<1xf32>) -> tensor<1xf32>
    %425 = tosa.reshape %424 {new_shape = array<i64: 1, 1, 1>} : (tensor<1xf32>) -> tensor<1x1x1xf32>
    %426 = tosa.mul %425, %422 : (tensor<1x1x1xf32>, tensor<1x1024x1xf32>) -> tensor<1x1024x1xf32>
    %427 = "tosa.const"() <{value = dense<9.99999997E-7> : tensor<1x1024x1xf32>}> : () -> tensor<1x1024x1xf32>
    %428 = tosa.add %426, %427 : (tensor<1x1024x1xf32>, tensor<1x1024x1xf32>) -> tensor<1x1024x1xf32>
    %429 = tosa.rsqrt %428 : (tensor<1x1024x1xf32>) -> tensor<1x1024x1xf32>
    %430 = tosa.mul %419, %429 : (tensor<1x1024x1536xf32>, tensor<1x1024x1xf32>) -> tensor<1x1024x1536xf32>
    %431 = tosa.reshape %arg40 {new_shape = array<i64: 1, 1, 1536>} : (tensor<1536xf32>) -> tensor<1x1x1536xf32>
    %432 = tosa.mul %431, %430 : (tensor<1x1x1536xf32>, tensor<1x1024x1536xf32>) -> tensor<1x1024x1536xf32>
    %433 = tosa.reshape %432 {new_shape = array<i64: 1024, 1536>} : (tensor<1x1024x1536xf32>) -> tensor<1024x1536xf32>
    %434 = "tosa.const"() <{value = dense<[1, 0]> : tensor<2xi32>}> : () -> tensor<2xi32>
    %435 = tosa.transpose %arg41, %434 : (tensor<1536x1536xf32>, tensor<2xi32>) -> tensor<1536x1536xf32>
    %cst_123 = arith.constant dense<0.000000e+00> : tensor<1024x1536xf32>
    %436 = linalg.matmul {cast = #linalg.type_fn<cast_signed>} ins(%433, %435 : tensor<1024x1536xf32>, tensor<1536x1536xf32>) outs(%cst_123 : tensor<1024x1536xf32>) -> tensor<1024x1536xf32>
    %437 = tosa.reshape %arg42 {new_shape = array<i64: 1, 1536>} : (tensor<1536xf32>) -> tensor<1x1536xf32>
    %438 = tosa.add %437, %436 : (tensor<1x1536xf32>, tensor<1024x1536xf32>) -> tensor<1024x1536xf32>
    %439 = tosa.reshape %438 {new_shape = array<i64: 1, 1024, 1536>} : (tensor<1024x1536xf32>) -> tensor<1x1024x1536xf32>
    %440 = tosa.reshape %432 {new_shape = array<i64: 1024, 1536>} : (tensor<1x1024x1536xf32>) -> tensor<1024x1536xf32>
    %441 = "tosa.const"() <{value = dense<[1, 0]> : tensor<2xi32>}> : () -> tensor<2xi32>
    %442 = tosa.transpose %arg43, %441 : (tensor<256x1536xf32>, tensor<2xi32>) -> tensor<1536x256xf32>
    %cst_124 = arith.constant dense<0.000000e+00> : tensor<1024x256xf32>
    %443 = linalg.matmul {cast = #linalg.type_fn<cast_signed>} ins(%440, %442 : tensor<1024x1536xf32>, tensor<1536x256xf32>) outs(%cst_124 : tensor<1024x256xf32>) -> tensor<1024x256xf32>
    %444 = tosa.reshape %arg44 {new_shape = array<i64: 1, 256>} : (tensor<256xf32>) -> tensor<1x256xf32>
    %445 = tosa.add %444, %443 : (tensor<1x256xf32>, tensor<1024x256xf32>) -> tensor<1024x256xf32>
    %446 = tosa.reshape %445 {new_shape = array<i64: 1, 1024, 256>} : (tensor<1024x256xf32>) -> tensor<1x1024x256xf32>
    %447 = tosa.reshape %432 {new_shape = array<i64: 1024, 1536>} : (tensor<1x1024x1536xf32>) -> tensor<1024x1536xf32>
    %448 = "tosa.const"() <{value = dense<[1, 0]> : tensor<2xi32>}> : () -> tensor<2xi32>
    %449 = tosa.transpose %arg45, %448 : (tensor<256x1536xf32>, tensor<2xi32>) -> tensor<1536x256xf32>
    %cst_125 = arith.constant dense<0.000000e+00> : tensor<1024x256xf32>
    %450 = linalg.matmul {cast = #linalg.type_fn<cast_signed>} ins(%447, %449 : tensor<1024x1536xf32>, tensor<1536x256xf32>) outs(%cst_125 : tensor<1024x256xf32>) -> tensor<1024x256xf32>
    %451 = tosa.reshape %arg46 {new_shape = array<i64: 1, 256>} : (tensor<256xf32>) -> tensor<1x256xf32>
    %452 = tosa.add %451, %450 : (tensor<1x256xf32>, tensor<1024x256xf32>) -> tensor<1024x256xf32>
    %453 = tosa.reshape %452 {new_shape = array<i64: 1, 1024, 256>} : (tensor<1024x256xf32>) -> tensor<1x1024x256xf32>
    %454 = tosa.reshape %439 {new_shape = array<i64: 1, 1024, 12, 128>} : (tensor<1x1024x1536xf32>) -> tensor<1x1024x12x128xf32>
    %455 = "tosa.const"() <{value = dense<[0, 2, 1, 3]> : tensor<4xi32>}> : () -> tensor<4xi32>
    %456 = tosa.transpose %454, %455 : (tensor<1x1024x12x128xf32>, tensor<4xi32>) -> tensor<1x12x1024x128xf32>
    %457 = tosa.reshape %446 {new_shape = array<i64: 1, 1024, 2, 128>} : (tensor<1x1024x256xf32>) -> tensor<1x1024x2x128xf32>
    %458 = "tosa.const"() <{value = dense<[0, 2, 1, 3]> : tensor<4xi32>}> : () -> tensor<4xi32>
    %459 = tosa.transpose %457, %458 : (tensor<1x1024x2x128xf32>, tensor<4xi32>) -> tensor<1x2x1024x128xf32>
    %460 = tosa.reshape %453 {new_shape = array<i64: 1, 1024, 2, 128>} : (tensor<1x1024x256xf32>) -> tensor<1x1024x2x128xf32>
    %461 = "tosa.const"() <{value = dense<[0, 2, 1, 3]> : tensor<4xi32>}> : () -> tensor<4xi32>
    %462 = tosa.transpose %460, %461 : (tensor<1x1024x2x128xf32>, tensor<4xi32>) -> tensor<1x2x1024x128xf32>
    %463 = tosa.reshape %51 {new_shape = array<i64: 1, 1, 1024, 128>} : (tensor<1x1024x128xf32>) -> tensor<1x1x1024x128xf32>
    %464 = tosa.reshape %53 {new_shape = array<i64: 1, 1, 1024, 128>} : (tensor<1x1024x128xf32>) -> tensor<1x1x1024x128xf32>
    %465 = tosa.mul %456, %463 : (tensor<1x12x1024x128xf32>, tensor<1x1x1024x128xf32>) -> tensor<1x12x1024x128xf32>
    %extracted_slice_126 = tensor.extract_slice %456[0, 0, 0, 0] [1, 12, 1024, 64] [1, 1, 1, 1] : tensor<1x12x1024x128xf32> to tensor<1x12x1024x64xf32>
    %extracted_slice_127 = tensor.extract_slice %456[0, 0, 0, 64] [1, 12, 1024, 64] [1, 1, 1, 1] : tensor<1x12x1024x128xf32> to tensor<1x12x1024x64xf32>
    %466 = tensor.empty() : tensor<1x12x1024x64xf32>
    %467 = linalg.negf ins(%extracted_slice_127 : tensor<1x12x1024x64xf32>) outs(%466 : tensor<1x12x1024x64xf32>) -> tensor<1x12x1024x64xf32>
    %468 = tensor.empty() : tensor<1x12x1024x128xf32>
    %inserted_slice_128 = tensor.insert_slice %467 into %468[0, 0, 0, 0] [1, 12, 1024, 64] [1, 1, 1, 1] : tensor<1x12x1024x64xf32> into tensor<1x12x1024x128xf32>
    %inserted_slice_129 = tensor.insert_slice %extracted_slice_126 into %inserted_slice_128[0, 0, 0, 64] [1, 12, 1024, 64] [1, 1, 1, 1] : tensor<1x12x1024x64xf32> into tensor<1x12x1024x128xf32>
    %469 = tosa.mul %inserted_slice_129, %464 : (tensor<1x12x1024x128xf32>, tensor<1x1x1024x128xf32>) -> tensor<1x12x1024x128xf32>
    %470 = tosa.add %465, %469 : (tensor<1x12x1024x128xf32>, tensor<1x12x1024x128xf32>) -> tensor<1x12x1024x128xf32>
    %471 = tosa.mul %459, %463 : (tensor<1x2x1024x128xf32>, tensor<1x1x1024x128xf32>) -> tensor<1x2x1024x128xf32>
    %extracted_slice_130 = tensor.extract_slice %459[0, 0, 0, 0] [1, 2, 1024, 64] [1, 1, 1, 1] : tensor<1x2x1024x128xf32> to tensor<1x2x1024x64xf32>
    %extracted_slice_131 = tensor.extract_slice %459[0, 0, 0, 64] [1, 2, 1024, 64] [1, 1, 1, 1] : tensor<1x2x1024x128xf32> to tensor<1x2x1024x64xf32>
    %472 = tensor.empty() : tensor<1x2x1024x64xf32>
    %473 = linalg.negf ins(%extracted_slice_131 : tensor<1x2x1024x64xf32>) outs(%472 : tensor<1x2x1024x64xf32>) -> tensor<1x2x1024x64xf32>
    %474 = tensor.empty() : tensor<1x2x1024x128xf32>
    %inserted_slice_132 = tensor.insert_slice %473 into %474[0, 0, 0, 0] [1, 2, 1024, 64] [1, 1, 1, 1] : tensor<1x2x1024x64xf32> into tensor<1x2x1024x128xf32>
    %inserted_slice_133 = tensor.insert_slice %extracted_slice_130 into %inserted_slice_132[0, 0, 0, 64] [1, 2, 1024, 64] [1, 1, 1, 1] : tensor<1x2x1024x64xf32> into tensor<1x2x1024x128xf32>
    %475 = tosa.mul %inserted_slice_133, %464 : (tensor<1x2x1024x128xf32>, tensor<1x1x1024x128xf32>) -> tensor<1x2x1024x128xf32>
    %476 = tosa.add %471, %475 : (tensor<1x2x1024x128xf32>, tensor<1x2x1024x128xf32>) -> tensor<1x2x1024x128xf32>
    %extracted_slice_134 = tensor.extract_slice %476[0, 0, 0, 0] [1, 2, 1024, 128] [1, 1, 1, 1] : tensor<1x2x1024x128xf32> to tensor<1x2x1024x128xf32>
    %extracted_slice_135 = tensor.extract_slice %extracted_slice_134[0, 0, 0, 0] [1, 2, 1024, 128] [1, 1, 1, 1] : tensor<1x2x1024x128xf32> to tensor<1x2x1024x128xf32>
    %477 = tosa.reshape %extracted_slice_135 {new_shape = array<i64: 1, 2, 1, 1024, 128>} : (tensor<1x2x1024x128xf32>) -> tensor<1x2x1x1024x128xf32>
    %extracted_slice_136 = tensor.extract_slice %477[0, 0, 0, 0, 0] [1, 2, 1, 1024, 128] [1, 1, 1, 1, 1] : tensor<1x2x1x1024x128xf32> to tensor<1x2x1x1024x128xf32>
    %extracted_slice_137 = tensor.extract_slice %extracted_slice_136[0, 0, 0, 0, 0] [1, 2, 1, 1024, 128] [1, 1, 1, 1, 1] : tensor<1x2x1x1024x128xf32> to tensor<1x2x1x1024x128xf32>
    %478 = "tosa.const"() <{value = dense<0.000000e+00> : tensor<1x2x6x1024x128xf32>}> : () -> tensor<1x2x6x1024x128xf32>
    %479 = tosa.add %extracted_slice_137, %478 : (tensor<1x2x1x1024x128xf32>, tensor<1x2x6x1024x128xf32>) -> tensor<1x2x6x1024x128xf32>
    %480 = tosa.identity %479 : (tensor<1x2x6x1024x128xf32>) -> tensor<1x2x6x1024x128xf32>
    %481 = tosa.reshape %480 {new_shape = array<i64: 1, 12, 1024, 128>} : (tensor<1x2x6x1024x128xf32>) -> tensor<1x12x1024x128xf32>
    %extracted_slice_138 = tensor.extract_slice %462[0, 0, 0, 0] [1, 2, 1024, 128] [1, 1, 1, 1] : tensor<1x2x1024x128xf32> to tensor<1x2x1024x128xf32>
    %extracted_slice_139 = tensor.extract_slice %extracted_slice_138[0, 0, 0, 0] [1, 2, 1024, 128] [1, 1, 1, 1] : tensor<1x2x1024x128xf32> to tensor<1x2x1024x128xf32>
    %482 = tosa.reshape %extracted_slice_139 {new_shape = array<i64: 1, 2, 1, 1024, 128>} : (tensor<1x2x1024x128xf32>) -> tensor<1x2x1x1024x128xf32>
    %extracted_slice_140 = tensor.extract_slice %482[0, 0, 0, 0, 0] [1, 2, 1, 1024, 128] [1, 1, 1, 1, 1] : tensor<1x2x1x1024x128xf32> to tensor<1x2x1x1024x128xf32>
    %extracted_slice_141 = tensor.extract_slice %extracted_slice_140[0, 0, 0, 0, 0] [1, 2, 1, 1024, 128] [1, 1, 1, 1, 1] : tensor<1x2x1x1024x128xf32> to tensor<1x2x1x1024x128xf32>
    %483 = "tosa.const"() <{value = dense<0.000000e+00> : tensor<1x2x6x1024x128xf32>}> : () -> tensor<1x2x6x1024x128xf32>
    %484 = tosa.add %extracted_slice_141, %483 : (tensor<1x2x1x1024x128xf32>, tensor<1x2x6x1024x128xf32>) -> tensor<1x2x6x1024x128xf32>
    %485 = tosa.identity %484 : (tensor<1x2x6x1024x128xf32>) -> tensor<1x2x6x1024x128xf32>
    %486 = tosa.reshape %485 {new_shape = array<i64: 1, 12, 1024, 128>} : (tensor<1x2x6x1024x128xf32>) -> tensor<1x12x1024x128xf32>
    %extracted_slice_142 = tensor.extract_slice %inserted_slice_21[0, 0, 0, 0] [1, 1, 1024, 1024] [1, 1, 1, 1] : tensor<1x1x1024x1024xf32> to tensor<1x1x1024x1024xf32>
    %extracted_slice_143 = tensor.extract_slice %extracted_slice_142[0, 0, 0, 0] [1, 1, 1024, 1024] [1, 1, 1, 1] : tensor<1x1x1024x1024xf32> to tensor<1x1x1024x1024xf32>
    %extracted_slice_144 = tensor.extract_slice %extracted_slice_143[0, 0, 0, 0] [1, 1, 1024, 1024] [1, 1, 1, 1] : tensor<1x1x1024x1024xf32> to tensor<1x1x1024x1024xf32>
    %cst_145 = arith.constant 0.000000e+00 : f32
    %splat_146 = tensor.splat %cst_145 : tensor<1024x1024xf32>
    %487 = tosa.reshape %extracted_slice_144 {new_shape = array<i64: 1024, 1024>} : (tensor<1x1x1024x1024xf32>) -> tensor<1024x1024xf32>
    %488 = tosa.add %splat_146, %487 : (tensor<1024x1024xf32>, tensor<1024x1024xf32>) -> tensor<1024x1024xf32>
    %489 = "tosa.const"() <{value = dense<[0, 1, 3, 2]> : tensor<4xi32>}> : () -> tensor<4xi32>
    %490 = tosa.transpose %481, %489 : (tensor<1x12x1024x128xf32>, tensor<4xi32>) -> tensor<1x12x128x1024xf32>
    %491 = tosa.reshape %470 {new_shape = array<i64: 12, 1024, 128>} : (tensor<1x12x1024x128xf32>) -> tensor<12x1024x128xf32>
    %492 = tosa.reshape %490 {new_shape = array<i64: 12, 128, 1024>} : (tensor<1x12x128x1024xf32>) -> tensor<12x128x1024xf32>
    %493 = tosa.matmul %491, %492 : (tensor<12x1024x128xf32>, tensor<12x128x1024xf32>) -> tensor<12x1024x1024xf32>
    %cst_147 = arith.constant 0.0883883461 : f32
    %splat_148 = tensor.splat %cst_147 : tensor<12x1024x1024xf32>
    %494 = tosa.mul %493, %splat_148 : (tensor<12x1024x1024xf32>, tensor<12x1024x1024xf32>) -> tensor<12x1024x1024xf32>
    %495 = tosa.reshape %488 {new_shape = array<i64: 1, 1024, 1024>} : (tensor<1024x1024xf32>) -> tensor<1x1024x1024xf32>
    %496 = tosa.add %494, %495 : (tensor<12x1024x1024xf32>, tensor<1x1024x1024xf32>) -> tensor<12x1024x1024xf32>
    %497 = tosa.reduce_max %496 {axis = 2 : i32} : (tensor<12x1024x1024xf32>) -> tensor<12x1024x1xf32>
    %498 = tosa.sub %496, %497 : (tensor<12x1024x1024xf32>, tensor<12x1024x1xf32>) -> tensor<12x1024x1024xf32>
    %499 = math.exp %498 : tensor<12x1024x1024xf32>
    %500 = tosa.reduce_sum %499 {axis = 2 : i32} : (tensor<12x1024x1024xf32>) -> tensor<12x1024x1xf32>
    %501 = tosa.log %500 : (tensor<12x1024x1xf32>) -> tensor<12x1024x1xf32>
    %502 = tosa.add %497, %501 : (tensor<12x1024x1xf32>, tensor<12x1024x1xf32>) -> tensor<12x1024x1xf32>
    %503 = tosa.sub %496, %502 : (tensor<12x1024x1024xf32>, tensor<12x1024x1xf32>) -> tensor<12x1024x1024xf32>
    %504 = math.exp %503 : tensor<12x1024x1024xf32>
    %505 = tosa.reshape %502 {new_shape = array<i64: 1, 12, 1024>} : (tensor<12x1024x1xf32>) -> tensor<1x12x1024xf32>
    %506 = tosa.reshape %486 {new_shape = array<i64: 12, 1024, 128>} : (tensor<1x12x1024x128xf32>) -> tensor<12x1024x128xf32>
    %507 = tosa.matmul %504, %506 : (tensor<12x1024x1024xf32>, tensor<12x1024x128xf32>) -> tensor<12x1024x128xf32>
    %508 = tosa.reshape %507 {new_shape = array<i64: 1, 12, 1024, 128>} : (tensor<12x1024x128xf32>) -> tensor<1x12x1024x128xf32>
    %509 = "tosa.const"() <{value = dense<[0, 2, 1, 3]> : tensor<4xi32>}> : () -> tensor<4xi32>
    %510 = tosa.transpose %508, %509 : (tensor<1x12x1024x128xf32>, tensor<4xi32>) -> tensor<1x1024x12x128xf32>
    %511 = tosa.reshape %510 {new_shape = array<i64: 1, 1024, 1536>} : (tensor<1x1024x12x128xf32>) -> tensor<1x1024x1536xf32>
    %512 = tosa.reshape %511 {new_shape = array<i64: 1024, 1536>} : (tensor<1x1024x1536xf32>) -> tensor<1024x1536xf32>
    %cst_149 = arith.constant dense<0.000000e+00> : tensor<1024x1536xf32>
    %513 = linalg.matmul_transpose_b {cast = #linalg.type_fn<cast_signed>} ins(%512, %arg47 : tensor<1024x1536xf32>, tensor<1536x1536xf32>) outs(%cst_149 : tensor<1024x1536xf32>) -> tensor<1024x1536xf32>
    %514 = tosa.reshape %513 {new_shape = array<i64: 1, 1024, 1536>} : (tensor<1024x1536xf32>) -> tensor<1x1024x1536xf32>
    %515 = tosa.add %419, %514 : (tensor<1x1024x1536xf32>, tensor<1x1024x1536xf32>) -> tensor<1x1024x1536xf32>
    %516 = tensor.empty() : tensor<1x1024x1536xf32>
    %c2_i32_150 = arith.constant 2 : i32
    %517 = linalg.generic {indexing_maps = [#map4, #map4], iterator_types = ["parallel", "parallel", "parallel"]} ins(%515 : tensor<1x1024x1536xf32>) outs(%516 : tensor<1x1024x1536xf32>) {
    ^bb0(%in: f32, %out: f32):
      %3486 = math.fpowi %in, %c2_i32_150 : f32, i32
      linalg.yield %3486 : f32
    } -> tensor<1x1024x1536xf32>
    %518 = tosa.reduce_sum %517 {axis = 2 : i32} : (tensor<1x1024x1536xf32>) -> tensor<1x1024x1xf32>
    %519 = "tosa.const"() <{value = dense<1.536000e+03> : tensor<1xf32>}> : () -> tensor<1xf32>
    %520 = tosa.reciprocal %519 : (tensor<1xf32>) -> tensor<1xf32>
    %521 = tosa.reshape %520 {new_shape = array<i64: 1, 1, 1>} : (tensor<1xf32>) -> tensor<1x1x1xf32>
    %522 = tosa.mul %521, %518 : (tensor<1x1x1xf32>, tensor<1x1024x1xf32>) -> tensor<1x1024x1xf32>
    %523 = "tosa.const"() <{value = dense<9.99999997E-7> : tensor<1x1024x1xf32>}> : () -> tensor<1x1024x1xf32>
    %524 = tosa.add %522, %523 : (tensor<1x1024x1xf32>, tensor<1x1024x1xf32>) -> tensor<1x1024x1xf32>
    %525 = tosa.rsqrt %524 : (tensor<1x1024x1xf32>) -> tensor<1x1024x1xf32>
    %526 = tosa.mul %515, %525 : (tensor<1x1024x1536xf32>, tensor<1x1024x1xf32>) -> tensor<1x1024x1536xf32>
    %527 = tosa.reshape %arg48 {new_shape = array<i64: 1, 1, 1536>} : (tensor<1536xf32>) -> tensor<1x1x1536xf32>
    %528 = tosa.mul %527, %526 : (tensor<1x1x1536xf32>, tensor<1x1024x1536xf32>) -> tensor<1x1024x1536xf32>
    %529 = tosa.reshape %528 {new_shape = array<i64: 1024, 1536>} : (tensor<1x1024x1536xf32>) -> tensor<1024x1536xf32>
    %cst_151 = arith.constant dense<0.000000e+00> : tensor<1024x8960xf32>
    %530 = linalg.matmul_transpose_b {cast = #linalg.type_fn<cast_signed>} ins(%529, %arg49 : tensor<1024x1536xf32>, tensor<8960x1536xf32>) outs(%cst_151 : tensor<1024x8960xf32>) -> tensor<1024x8960xf32>
    %531 = tosa.reshape %530 {new_shape = array<i64: 1, 1024, 8960>} : (tensor<1024x8960xf32>) -> tensor<1x1024x8960xf32>
    %532 = tosa.sigmoid %531 : (tensor<1x1024x8960xf32>) -> tensor<1x1024x8960xf32>
    %533 = tosa.mul %531, %532 : (tensor<1x1024x8960xf32>, tensor<1x1024x8960xf32>) -> tensor<1x1024x8960xf32>
    %534 = tosa.reshape %528 {new_shape = array<i64: 1024, 1536>} : (tensor<1x1024x1536xf32>) -> tensor<1024x1536xf32>
    %cst_152 = arith.constant dense<0.000000e+00> : tensor<1024x8960xf32>
    %535 = linalg.matmul_transpose_b {cast = #linalg.type_fn<cast_signed>} ins(%534, %arg50 : tensor<1024x1536xf32>, tensor<8960x1536xf32>) outs(%cst_152 : tensor<1024x8960xf32>) -> tensor<1024x8960xf32>
    %536 = tosa.reshape %535 {new_shape = array<i64: 1, 1024, 8960>} : (tensor<1024x8960xf32>) -> tensor<1x1024x8960xf32>
    %537 = tosa.mul %533, %536 : (tensor<1x1024x8960xf32>, tensor<1x1024x8960xf32>) -> tensor<1x1024x8960xf32>
    %538 = tosa.reshape %537 {new_shape = array<i64: 1024, 8960>} : (tensor<1x1024x8960xf32>) -> tensor<1024x8960xf32>
    %cst_153 = arith.constant dense<0.000000e+00> : tensor<1024x1536xf32>
    %539 = linalg.matmul_transpose_b {cast = #linalg.type_fn<cast_signed>} ins(%538, %arg51 : tensor<1024x8960xf32>, tensor<1536x8960xf32>) outs(%cst_153 : tensor<1024x1536xf32>) -> tensor<1024x1536xf32>
    %540 = tosa.reshape %539 {new_shape = array<i64: 1, 1024, 1536>} : (tensor<1024x1536xf32>) -> tensor<1x1024x1536xf32>
    %541 = tosa.add %515, %540 : (tensor<1x1024x1536xf32>, tensor<1x1024x1536xf32>) -> tensor<1x1024x1536xf32>
    %542 = tensor.empty() : tensor<1x1024x1536xf32>
    %c2_i32_154 = arith.constant 2 : i32
    %543 = linalg.generic {indexing_maps = [#map4, #map4], iterator_types = ["parallel", "parallel", "parallel"]} ins(%541 : tensor<1x1024x1536xf32>) outs(%542 : tensor<1x1024x1536xf32>) {
    ^bb0(%in: f32, %out: f32):
      %3486 = math.fpowi %in, %c2_i32_154 : f32, i32
      linalg.yield %3486 : f32
    } -> tensor<1x1024x1536xf32>
    %544 = tosa.reduce_sum %543 {axis = 2 : i32} : (tensor<1x1024x1536xf32>) -> tensor<1x1024x1xf32>
    %545 = "tosa.const"() <{value = dense<1.536000e+03> : tensor<1xf32>}> : () -> tensor<1xf32>
    %546 = tosa.reciprocal %545 : (tensor<1xf32>) -> tensor<1xf32>
    %547 = tosa.reshape %546 {new_shape = array<i64: 1, 1, 1>} : (tensor<1xf32>) -> tensor<1x1x1xf32>
    %548 = tosa.mul %547, %544 : (tensor<1x1x1xf32>, tensor<1x1024x1xf32>) -> tensor<1x1024x1xf32>
    %549 = "tosa.const"() <{value = dense<9.99999997E-7> : tensor<1x1024x1xf32>}> : () -> tensor<1x1024x1xf32>
    %550 = tosa.add %548, %549 : (tensor<1x1024x1xf32>, tensor<1x1024x1xf32>) -> tensor<1x1024x1xf32>
    %551 = tosa.rsqrt %550 : (tensor<1x1024x1xf32>) -> tensor<1x1024x1xf32>
    %552 = tosa.mul %541, %551 : (tensor<1x1024x1536xf32>, tensor<1x1024x1xf32>) -> tensor<1x1024x1536xf32>
    %553 = tosa.reshape %arg52 {new_shape = array<i64: 1, 1, 1536>} : (tensor<1536xf32>) -> tensor<1x1x1536xf32>
    %554 = tosa.mul %553, %552 : (tensor<1x1x1536xf32>, tensor<1x1024x1536xf32>) -> tensor<1x1024x1536xf32>
    %555 = tosa.reshape %554 {new_shape = array<i64: 1024, 1536>} : (tensor<1x1024x1536xf32>) -> tensor<1024x1536xf32>
    %556 = "tosa.const"() <{value = dense<[1, 0]> : tensor<2xi32>}> : () -> tensor<2xi32>
    %557 = tosa.transpose %arg53, %556 : (tensor<1536x1536xf32>, tensor<2xi32>) -> tensor<1536x1536xf32>
    %cst_155 = arith.constant dense<0.000000e+00> : tensor<1024x1536xf32>
    %558 = linalg.matmul {cast = #linalg.type_fn<cast_signed>} ins(%555, %557 : tensor<1024x1536xf32>, tensor<1536x1536xf32>) outs(%cst_155 : tensor<1024x1536xf32>) -> tensor<1024x1536xf32>
    %559 = tosa.reshape %arg54 {new_shape = array<i64: 1, 1536>} : (tensor<1536xf32>) -> tensor<1x1536xf32>
    %560 = tosa.add %559, %558 : (tensor<1x1536xf32>, tensor<1024x1536xf32>) -> tensor<1024x1536xf32>
    %561 = tosa.reshape %560 {new_shape = array<i64: 1, 1024, 1536>} : (tensor<1024x1536xf32>) -> tensor<1x1024x1536xf32>
    %562 = tosa.reshape %554 {new_shape = array<i64: 1024, 1536>} : (tensor<1x1024x1536xf32>) -> tensor<1024x1536xf32>
    %563 = "tosa.const"() <{value = dense<[1, 0]> : tensor<2xi32>}> : () -> tensor<2xi32>
    %564 = tosa.transpose %arg55, %563 : (tensor<256x1536xf32>, tensor<2xi32>) -> tensor<1536x256xf32>
    %cst_156 = arith.constant dense<0.000000e+00> : tensor<1024x256xf32>
    %565 = linalg.matmul {cast = #linalg.type_fn<cast_signed>} ins(%562, %564 : tensor<1024x1536xf32>, tensor<1536x256xf32>) outs(%cst_156 : tensor<1024x256xf32>) -> tensor<1024x256xf32>
    %566 = tosa.reshape %arg56 {new_shape = array<i64: 1, 256>} : (tensor<256xf32>) -> tensor<1x256xf32>
    %567 = tosa.add %566, %565 : (tensor<1x256xf32>, tensor<1024x256xf32>) -> tensor<1024x256xf32>
    %568 = tosa.reshape %567 {new_shape = array<i64: 1, 1024, 256>} : (tensor<1024x256xf32>) -> tensor<1x1024x256xf32>
    %569 = tosa.reshape %554 {new_shape = array<i64: 1024, 1536>} : (tensor<1x1024x1536xf32>) -> tensor<1024x1536xf32>
    %570 = "tosa.const"() <{value = dense<[1, 0]> : tensor<2xi32>}> : () -> tensor<2xi32>
    %571 = tosa.transpose %arg57, %570 : (tensor<256x1536xf32>, tensor<2xi32>) -> tensor<1536x256xf32>
    %cst_157 = arith.constant dense<0.000000e+00> : tensor<1024x256xf32>
    %572 = linalg.matmul {cast = #linalg.type_fn<cast_signed>} ins(%569, %571 : tensor<1024x1536xf32>, tensor<1536x256xf32>) outs(%cst_157 : tensor<1024x256xf32>) -> tensor<1024x256xf32>
    %573 = tosa.reshape %arg58 {new_shape = array<i64: 1, 256>} : (tensor<256xf32>) -> tensor<1x256xf32>
    %574 = tosa.add %573, %572 : (tensor<1x256xf32>, tensor<1024x256xf32>) -> tensor<1024x256xf32>
    %575 = tosa.reshape %574 {new_shape = array<i64: 1, 1024, 256>} : (tensor<1024x256xf32>) -> tensor<1x1024x256xf32>
    %576 = tosa.reshape %561 {new_shape = array<i64: 1, 1024, 12, 128>} : (tensor<1x1024x1536xf32>) -> tensor<1x1024x12x128xf32>
    %577 = "tosa.const"() <{value = dense<[0, 2, 1, 3]> : tensor<4xi32>}> : () -> tensor<4xi32>
    %578 = tosa.transpose %576, %577 : (tensor<1x1024x12x128xf32>, tensor<4xi32>) -> tensor<1x12x1024x128xf32>
    %579 = tosa.reshape %568 {new_shape = array<i64: 1, 1024, 2, 128>} : (tensor<1x1024x256xf32>) -> tensor<1x1024x2x128xf32>
    %580 = "tosa.const"() <{value = dense<[0, 2, 1, 3]> : tensor<4xi32>}> : () -> tensor<4xi32>
    %581 = tosa.transpose %579, %580 : (tensor<1x1024x2x128xf32>, tensor<4xi32>) -> tensor<1x2x1024x128xf32>
    %582 = tosa.reshape %575 {new_shape = array<i64: 1, 1024, 2, 128>} : (tensor<1x1024x256xf32>) -> tensor<1x1024x2x128xf32>
    %583 = "tosa.const"() <{value = dense<[0, 2, 1, 3]> : tensor<4xi32>}> : () -> tensor<4xi32>
    %584 = tosa.transpose %582, %583 : (tensor<1x1024x2x128xf32>, tensor<4xi32>) -> tensor<1x2x1024x128xf32>
    %585 = tosa.reshape %51 {new_shape = array<i64: 1, 1, 1024, 128>} : (tensor<1x1024x128xf32>) -> tensor<1x1x1024x128xf32>
    %586 = tosa.reshape %53 {new_shape = array<i64: 1, 1, 1024, 128>} : (tensor<1x1024x128xf32>) -> tensor<1x1x1024x128xf32>
    %587 = tosa.mul %578, %585 : (tensor<1x12x1024x128xf32>, tensor<1x1x1024x128xf32>) -> tensor<1x12x1024x128xf32>
    %extracted_slice_158 = tensor.extract_slice %578[0, 0, 0, 0] [1, 12, 1024, 64] [1, 1, 1, 1] : tensor<1x12x1024x128xf32> to tensor<1x12x1024x64xf32>
    %extracted_slice_159 = tensor.extract_slice %578[0, 0, 0, 64] [1, 12, 1024, 64] [1, 1, 1, 1] : tensor<1x12x1024x128xf32> to tensor<1x12x1024x64xf32>
    %588 = tensor.empty() : tensor<1x12x1024x64xf32>
    %589 = linalg.negf ins(%extracted_slice_159 : tensor<1x12x1024x64xf32>) outs(%588 : tensor<1x12x1024x64xf32>) -> tensor<1x12x1024x64xf32>
    %590 = tensor.empty() : tensor<1x12x1024x128xf32>
    %inserted_slice_160 = tensor.insert_slice %589 into %590[0, 0, 0, 0] [1, 12, 1024, 64] [1, 1, 1, 1] : tensor<1x12x1024x64xf32> into tensor<1x12x1024x128xf32>
    %inserted_slice_161 = tensor.insert_slice %extracted_slice_158 into %inserted_slice_160[0, 0, 0, 64] [1, 12, 1024, 64] [1, 1, 1, 1] : tensor<1x12x1024x64xf32> into tensor<1x12x1024x128xf32>
    %591 = tosa.mul %inserted_slice_161, %586 : (tensor<1x12x1024x128xf32>, tensor<1x1x1024x128xf32>) -> tensor<1x12x1024x128xf32>
    %592 = tosa.add %587, %591 : (tensor<1x12x1024x128xf32>, tensor<1x12x1024x128xf32>) -> tensor<1x12x1024x128xf32>
    %593 = tosa.mul %581, %585 : (tensor<1x2x1024x128xf32>, tensor<1x1x1024x128xf32>) -> tensor<1x2x1024x128xf32>
    %extracted_slice_162 = tensor.extract_slice %581[0, 0, 0, 0] [1, 2, 1024, 64] [1, 1, 1, 1] : tensor<1x2x1024x128xf32> to tensor<1x2x1024x64xf32>
    %extracted_slice_163 = tensor.extract_slice %581[0, 0, 0, 64] [1, 2, 1024, 64] [1, 1, 1, 1] : tensor<1x2x1024x128xf32> to tensor<1x2x1024x64xf32>
    %594 = tensor.empty() : tensor<1x2x1024x64xf32>
    %595 = linalg.negf ins(%extracted_slice_163 : tensor<1x2x1024x64xf32>) outs(%594 : tensor<1x2x1024x64xf32>) -> tensor<1x2x1024x64xf32>
    %596 = tensor.empty() : tensor<1x2x1024x128xf32>
    %inserted_slice_164 = tensor.insert_slice %595 into %596[0, 0, 0, 0] [1, 2, 1024, 64] [1, 1, 1, 1] : tensor<1x2x1024x64xf32> into tensor<1x2x1024x128xf32>
    %inserted_slice_165 = tensor.insert_slice %extracted_slice_162 into %inserted_slice_164[0, 0, 0, 64] [1, 2, 1024, 64] [1, 1, 1, 1] : tensor<1x2x1024x64xf32> into tensor<1x2x1024x128xf32>
    %597 = tosa.mul %inserted_slice_165, %586 : (tensor<1x2x1024x128xf32>, tensor<1x1x1024x128xf32>) -> tensor<1x2x1024x128xf32>
    %598 = tosa.add %593, %597 : (tensor<1x2x1024x128xf32>, tensor<1x2x1024x128xf32>) -> tensor<1x2x1024x128xf32>
    %extracted_slice_166 = tensor.extract_slice %598[0, 0, 0, 0] [1, 2, 1024, 128] [1, 1, 1, 1] : tensor<1x2x1024x128xf32> to tensor<1x2x1024x128xf32>
    %extracted_slice_167 = tensor.extract_slice %extracted_slice_166[0, 0, 0, 0] [1, 2, 1024, 128] [1, 1, 1, 1] : tensor<1x2x1024x128xf32> to tensor<1x2x1024x128xf32>
    %599 = tosa.reshape %extracted_slice_167 {new_shape = array<i64: 1, 2, 1, 1024, 128>} : (tensor<1x2x1024x128xf32>) -> tensor<1x2x1x1024x128xf32>
    %extracted_slice_168 = tensor.extract_slice %599[0, 0, 0, 0, 0] [1, 2, 1, 1024, 128] [1, 1, 1, 1, 1] : tensor<1x2x1x1024x128xf32> to tensor<1x2x1x1024x128xf32>
    %extracted_slice_169 = tensor.extract_slice %extracted_slice_168[0, 0, 0, 0, 0] [1, 2, 1, 1024, 128] [1, 1, 1, 1, 1] : tensor<1x2x1x1024x128xf32> to tensor<1x2x1x1024x128xf32>
    %600 = "tosa.const"() <{value = dense<0.000000e+00> : tensor<1x2x6x1024x128xf32>}> : () -> tensor<1x2x6x1024x128xf32>
    %601 = tosa.add %extracted_slice_169, %600 : (tensor<1x2x1x1024x128xf32>, tensor<1x2x6x1024x128xf32>) -> tensor<1x2x6x1024x128xf32>
    %602 = tosa.identity %601 : (tensor<1x2x6x1024x128xf32>) -> tensor<1x2x6x1024x128xf32>
    %603 = tosa.reshape %602 {new_shape = array<i64: 1, 12, 1024, 128>} : (tensor<1x2x6x1024x128xf32>) -> tensor<1x12x1024x128xf32>
    %extracted_slice_170 = tensor.extract_slice %584[0, 0, 0, 0] [1, 2, 1024, 128] [1, 1, 1, 1] : tensor<1x2x1024x128xf32> to tensor<1x2x1024x128xf32>
    %extracted_slice_171 = tensor.extract_slice %extracted_slice_170[0, 0, 0, 0] [1, 2, 1024, 128] [1, 1, 1, 1] : tensor<1x2x1024x128xf32> to tensor<1x2x1024x128xf32>
    %604 = tosa.reshape %extracted_slice_171 {new_shape = array<i64: 1, 2, 1, 1024, 128>} : (tensor<1x2x1024x128xf32>) -> tensor<1x2x1x1024x128xf32>
    %extracted_slice_172 = tensor.extract_slice %604[0, 0, 0, 0, 0] [1, 2, 1, 1024, 128] [1, 1, 1, 1, 1] : tensor<1x2x1x1024x128xf32> to tensor<1x2x1x1024x128xf32>
    %extracted_slice_173 = tensor.extract_slice %extracted_slice_172[0, 0, 0, 0, 0] [1, 2, 1, 1024, 128] [1, 1, 1, 1, 1] : tensor<1x2x1x1024x128xf32> to tensor<1x2x1x1024x128xf32>
    %605 = "tosa.const"() <{value = dense<0.000000e+00> : tensor<1x2x6x1024x128xf32>}> : () -> tensor<1x2x6x1024x128xf32>
    %606 = tosa.add %extracted_slice_173, %605 : (tensor<1x2x1x1024x128xf32>, tensor<1x2x6x1024x128xf32>) -> tensor<1x2x6x1024x128xf32>
    %607 = tosa.identity %606 : (tensor<1x2x6x1024x128xf32>) -> tensor<1x2x6x1024x128xf32>
    %608 = tosa.reshape %607 {new_shape = array<i64: 1, 12, 1024, 128>} : (tensor<1x2x6x1024x128xf32>) -> tensor<1x12x1024x128xf32>
    %extracted_slice_174 = tensor.extract_slice %inserted_slice_21[0, 0, 0, 0] [1, 1, 1024, 1024] [1, 1, 1, 1] : tensor<1x1x1024x1024xf32> to tensor<1x1x1024x1024xf32>
    %extracted_slice_175 = tensor.extract_slice %extracted_slice_174[0, 0, 0, 0] [1, 1, 1024, 1024] [1, 1, 1, 1] : tensor<1x1x1024x1024xf32> to tensor<1x1x1024x1024xf32>
    %extracted_slice_176 = tensor.extract_slice %extracted_slice_175[0, 0, 0, 0] [1, 1, 1024, 1024] [1, 1, 1, 1] : tensor<1x1x1024x1024xf32> to tensor<1x1x1024x1024xf32>
    %cst_177 = arith.constant 0.000000e+00 : f32
    %splat_178 = tensor.splat %cst_177 : tensor<1024x1024xf32>
    %609 = tosa.reshape %extracted_slice_176 {new_shape = array<i64: 1024, 1024>} : (tensor<1x1x1024x1024xf32>) -> tensor<1024x1024xf32>
    %610 = tosa.add %splat_178, %609 : (tensor<1024x1024xf32>, tensor<1024x1024xf32>) -> tensor<1024x1024xf32>
    %611 = "tosa.const"() <{value = dense<[0, 1, 3, 2]> : tensor<4xi32>}> : () -> tensor<4xi32>
    %612 = tosa.transpose %603, %611 : (tensor<1x12x1024x128xf32>, tensor<4xi32>) -> tensor<1x12x128x1024xf32>
    %613 = tosa.reshape %592 {new_shape = array<i64: 12, 1024, 128>} : (tensor<1x12x1024x128xf32>) -> tensor<12x1024x128xf32>
    %614 = tosa.reshape %612 {new_shape = array<i64: 12, 128, 1024>} : (tensor<1x12x128x1024xf32>) -> tensor<12x128x1024xf32>
    %615 = tosa.matmul %613, %614 : (tensor<12x1024x128xf32>, tensor<12x128x1024xf32>) -> tensor<12x1024x1024xf32>
    %cst_179 = arith.constant 0.0883883461 : f32
    %splat_180 = tensor.splat %cst_179 : tensor<12x1024x1024xf32>
    %616 = tosa.mul %615, %splat_180 : (tensor<12x1024x1024xf32>, tensor<12x1024x1024xf32>) -> tensor<12x1024x1024xf32>
    %617 = tosa.reshape %610 {new_shape = array<i64: 1, 1024, 1024>} : (tensor<1024x1024xf32>) -> tensor<1x1024x1024xf32>
    %618 = tosa.add %616, %617 : (tensor<12x1024x1024xf32>, tensor<1x1024x1024xf32>) -> tensor<12x1024x1024xf32>
    %619 = tosa.reduce_max %618 {axis = 2 : i32} : (tensor<12x1024x1024xf32>) -> tensor<12x1024x1xf32>
    %620 = tosa.sub %618, %619 : (tensor<12x1024x1024xf32>, tensor<12x1024x1xf32>) -> tensor<12x1024x1024xf32>
    %621 = math.exp %620 : tensor<12x1024x1024xf32>
    %622 = tosa.reduce_sum %621 {axis = 2 : i32} : (tensor<12x1024x1024xf32>) -> tensor<12x1024x1xf32>
    %623 = tosa.log %622 : (tensor<12x1024x1xf32>) -> tensor<12x1024x1xf32>
    %624 = tosa.add %619, %623 : (tensor<12x1024x1xf32>, tensor<12x1024x1xf32>) -> tensor<12x1024x1xf32>
    %625 = tosa.sub %618, %624 : (tensor<12x1024x1024xf32>, tensor<12x1024x1xf32>) -> tensor<12x1024x1024xf32>
    %626 = math.exp %625 : tensor<12x1024x1024xf32>
    %627 = tosa.reshape %624 {new_shape = array<i64: 1, 12, 1024>} : (tensor<12x1024x1xf32>) -> tensor<1x12x1024xf32>
    %628 = tosa.reshape %608 {new_shape = array<i64: 12, 1024, 128>} : (tensor<1x12x1024x128xf32>) -> tensor<12x1024x128xf32>
    %629 = tosa.matmul %626, %628 : (tensor<12x1024x1024xf32>, tensor<12x1024x128xf32>) -> tensor<12x1024x128xf32>
    %630 = tosa.reshape %629 {new_shape = array<i64: 1, 12, 1024, 128>} : (tensor<12x1024x128xf32>) -> tensor<1x12x1024x128xf32>
    %631 = "tosa.const"() <{value = dense<[0, 2, 1, 3]> : tensor<4xi32>}> : () -> tensor<4xi32>
    %632 = tosa.transpose %630, %631 : (tensor<1x12x1024x128xf32>, tensor<4xi32>) -> tensor<1x1024x12x128xf32>
    %633 = tosa.reshape %632 {new_shape = array<i64: 1, 1024, 1536>} : (tensor<1x1024x12x128xf32>) -> tensor<1x1024x1536xf32>
    %634 = tosa.reshape %633 {new_shape = array<i64: 1024, 1536>} : (tensor<1x1024x1536xf32>) -> tensor<1024x1536xf32>
    %cst_181 = arith.constant dense<0.000000e+00> : tensor<1024x1536xf32>
    %635 = linalg.matmul_transpose_b {cast = #linalg.type_fn<cast_signed>} ins(%634, %arg59 : tensor<1024x1536xf32>, tensor<1536x1536xf32>) outs(%cst_181 : tensor<1024x1536xf32>) -> tensor<1024x1536xf32>
    %636 = tosa.reshape %635 {new_shape = array<i64: 1, 1024, 1536>} : (tensor<1024x1536xf32>) -> tensor<1x1024x1536xf32>
    %637 = tosa.add %541, %636 : (tensor<1x1024x1536xf32>, tensor<1x1024x1536xf32>) -> tensor<1x1024x1536xf32>
    %638 = tensor.empty() : tensor<1x1024x1536xf32>
    %c2_i32_182 = arith.constant 2 : i32
    %639 = linalg.generic {indexing_maps = [#map4, #map4], iterator_types = ["parallel", "parallel", "parallel"]} ins(%637 : tensor<1x1024x1536xf32>) outs(%638 : tensor<1x1024x1536xf32>) {
    ^bb0(%in: f32, %out: f32):
      %3486 = math.fpowi %in, %c2_i32_182 : f32, i32
      linalg.yield %3486 : f32
    } -> tensor<1x1024x1536xf32>
    %640 = tosa.reduce_sum %639 {axis = 2 : i32} : (tensor<1x1024x1536xf32>) -> tensor<1x1024x1xf32>
    %641 = "tosa.const"() <{value = dense<1.536000e+03> : tensor<1xf32>}> : () -> tensor<1xf32>
    %642 = tosa.reciprocal %641 : (tensor<1xf32>) -> tensor<1xf32>
    %643 = tosa.reshape %642 {new_shape = array<i64: 1, 1, 1>} : (tensor<1xf32>) -> tensor<1x1x1xf32>
    %644 = tosa.mul %643, %640 : (tensor<1x1x1xf32>, tensor<1x1024x1xf32>) -> tensor<1x1024x1xf32>
    %645 = "tosa.const"() <{value = dense<9.99999997E-7> : tensor<1x1024x1xf32>}> : () -> tensor<1x1024x1xf32>
    %646 = tosa.add %644, %645 : (tensor<1x1024x1xf32>, tensor<1x1024x1xf32>) -> tensor<1x1024x1xf32>
    %647 = tosa.rsqrt %646 : (tensor<1x1024x1xf32>) -> tensor<1x1024x1xf32>
    %648 = tosa.mul %637, %647 : (tensor<1x1024x1536xf32>, tensor<1x1024x1xf32>) -> tensor<1x1024x1536xf32>
    %649 = tosa.reshape %arg60 {new_shape = array<i64: 1, 1, 1536>} : (tensor<1536xf32>) -> tensor<1x1x1536xf32>
    %650 = tosa.mul %649, %648 : (tensor<1x1x1536xf32>, tensor<1x1024x1536xf32>) -> tensor<1x1024x1536xf32>
    %651 = tosa.reshape %650 {new_shape = array<i64: 1024, 1536>} : (tensor<1x1024x1536xf32>) -> tensor<1024x1536xf32>
    %cst_183 = arith.constant dense<0.000000e+00> : tensor<1024x8960xf32>
    %652 = linalg.matmul_transpose_b {cast = #linalg.type_fn<cast_signed>} ins(%651, %arg61 : tensor<1024x1536xf32>, tensor<8960x1536xf32>) outs(%cst_183 : tensor<1024x8960xf32>) -> tensor<1024x8960xf32>
    %653 = tosa.reshape %652 {new_shape = array<i64: 1, 1024, 8960>} : (tensor<1024x8960xf32>) -> tensor<1x1024x8960xf32>
    %654 = tosa.sigmoid %653 : (tensor<1x1024x8960xf32>) -> tensor<1x1024x8960xf32>
    %655 = tosa.mul %653, %654 : (tensor<1x1024x8960xf32>, tensor<1x1024x8960xf32>) -> tensor<1x1024x8960xf32>
    %656 = tosa.reshape %650 {new_shape = array<i64: 1024, 1536>} : (tensor<1x1024x1536xf32>) -> tensor<1024x1536xf32>
    %cst_184 = arith.constant dense<0.000000e+00> : tensor<1024x8960xf32>
    %657 = linalg.matmul_transpose_b {cast = #linalg.type_fn<cast_signed>} ins(%656, %arg62 : tensor<1024x1536xf32>, tensor<8960x1536xf32>) outs(%cst_184 : tensor<1024x8960xf32>) -> tensor<1024x8960xf32>
    %658 = tosa.reshape %657 {new_shape = array<i64: 1, 1024, 8960>} : (tensor<1024x8960xf32>) -> tensor<1x1024x8960xf32>
    %659 = tosa.mul %655, %658 : (tensor<1x1024x8960xf32>, tensor<1x1024x8960xf32>) -> tensor<1x1024x8960xf32>
    %660 = tosa.reshape %659 {new_shape = array<i64: 1024, 8960>} : (tensor<1x1024x8960xf32>) -> tensor<1024x8960xf32>
    %cst_185 = arith.constant dense<0.000000e+00> : tensor<1024x1536xf32>
    %661 = linalg.matmul_transpose_b {cast = #linalg.type_fn<cast_signed>} ins(%660, %arg63 : tensor<1024x8960xf32>, tensor<1536x8960xf32>) outs(%cst_185 : tensor<1024x1536xf32>) -> tensor<1024x1536xf32>
    %662 = tosa.reshape %661 {new_shape = array<i64: 1, 1024, 1536>} : (tensor<1024x1536xf32>) -> tensor<1x1024x1536xf32>
    %663 = tosa.add %637, %662 : (tensor<1x1024x1536xf32>, tensor<1x1024x1536xf32>) -> tensor<1x1024x1536xf32>
    %664 = tensor.empty() : tensor<1x1024x1536xf32>
    %c2_i32_186 = arith.constant 2 : i32
    %665 = linalg.generic {indexing_maps = [#map4, #map4], iterator_types = ["parallel", "parallel", "parallel"]} ins(%663 : tensor<1x1024x1536xf32>) outs(%664 : tensor<1x1024x1536xf32>) {
    ^bb0(%in: f32, %out: f32):
      %3486 = math.fpowi %in, %c2_i32_186 : f32, i32
      linalg.yield %3486 : f32
    } -> tensor<1x1024x1536xf32>
    %666 = tosa.reduce_sum %665 {axis = 2 : i32} : (tensor<1x1024x1536xf32>) -> tensor<1x1024x1xf32>
    %667 = "tosa.const"() <{value = dense<1.536000e+03> : tensor<1xf32>}> : () -> tensor<1xf32>
    %668 = tosa.reciprocal %667 : (tensor<1xf32>) -> tensor<1xf32>
    %669 = tosa.reshape %668 {new_shape = array<i64: 1, 1, 1>} : (tensor<1xf32>) -> tensor<1x1x1xf32>
    %670 = tosa.mul %669, %666 : (tensor<1x1x1xf32>, tensor<1x1024x1xf32>) -> tensor<1x1024x1xf32>
    %671 = "tosa.const"() <{value = dense<9.99999997E-7> : tensor<1x1024x1xf32>}> : () -> tensor<1x1024x1xf32>
    %672 = tosa.add %670, %671 : (tensor<1x1024x1xf32>, tensor<1x1024x1xf32>) -> tensor<1x1024x1xf32>
    %673 = tosa.rsqrt %672 : (tensor<1x1024x1xf32>) -> tensor<1x1024x1xf32>
    %674 = tosa.mul %663, %673 : (tensor<1x1024x1536xf32>, tensor<1x1024x1xf32>) -> tensor<1x1024x1536xf32>
    %675 = tosa.reshape %arg64 {new_shape = array<i64: 1, 1, 1536>} : (tensor<1536xf32>) -> tensor<1x1x1536xf32>
    %676 = tosa.mul %675, %674 : (tensor<1x1x1536xf32>, tensor<1x1024x1536xf32>) -> tensor<1x1024x1536xf32>
    %677 = tosa.reshape %676 {new_shape = array<i64: 1024, 1536>} : (tensor<1x1024x1536xf32>) -> tensor<1024x1536xf32>
    %678 = "tosa.const"() <{value = dense<[1, 0]> : tensor<2xi32>}> : () -> tensor<2xi32>
    %679 = tosa.transpose %arg65, %678 : (tensor<1536x1536xf32>, tensor<2xi32>) -> tensor<1536x1536xf32>
    %cst_187 = arith.constant dense<0.000000e+00> : tensor<1024x1536xf32>
    %680 = linalg.matmul {cast = #linalg.type_fn<cast_signed>} ins(%677, %679 : tensor<1024x1536xf32>, tensor<1536x1536xf32>) outs(%cst_187 : tensor<1024x1536xf32>) -> tensor<1024x1536xf32>
    %681 = tosa.reshape %arg66 {new_shape = array<i64: 1, 1536>} : (tensor<1536xf32>) -> tensor<1x1536xf32>
    %682 = tosa.add %681, %680 : (tensor<1x1536xf32>, tensor<1024x1536xf32>) -> tensor<1024x1536xf32>
    %683 = tosa.reshape %682 {new_shape = array<i64: 1, 1024, 1536>} : (tensor<1024x1536xf32>) -> tensor<1x1024x1536xf32>
    %684 = tosa.reshape %676 {new_shape = array<i64: 1024, 1536>} : (tensor<1x1024x1536xf32>) -> tensor<1024x1536xf32>
    %685 = "tosa.const"() <{value = dense<[1, 0]> : tensor<2xi32>}> : () -> tensor<2xi32>
    %686 = tosa.transpose %arg67, %685 : (tensor<256x1536xf32>, tensor<2xi32>) -> tensor<1536x256xf32>
    %cst_188 = arith.constant dense<0.000000e+00> : tensor<1024x256xf32>
    %687 = linalg.matmul {cast = #linalg.type_fn<cast_signed>} ins(%684, %686 : tensor<1024x1536xf32>, tensor<1536x256xf32>) outs(%cst_188 : tensor<1024x256xf32>) -> tensor<1024x256xf32>
    %688 = tosa.reshape %arg68 {new_shape = array<i64: 1, 256>} : (tensor<256xf32>) -> tensor<1x256xf32>
    %689 = tosa.add %688, %687 : (tensor<1x256xf32>, tensor<1024x256xf32>) -> tensor<1024x256xf32>
    %690 = tosa.reshape %689 {new_shape = array<i64: 1, 1024, 256>} : (tensor<1024x256xf32>) -> tensor<1x1024x256xf32>
    %691 = tosa.reshape %676 {new_shape = array<i64: 1024, 1536>} : (tensor<1x1024x1536xf32>) -> tensor<1024x1536xf32>
    %692 = "tosa.const"() <{value = dense<[1, 0]> : tensor<2xi32>}> : () -> tensor<2xi32>
    %693 = tosa.transpose %arg69, %692 : (tensor<256x1536xf32>, tensor<2xi32>) -> tensor<1536x256xf32>
    %cst_189 = arith.constant dense<0.000000e+00> : tensor<1024x256xf32>
    %694 = linalg.matmul {cast = #linalg.type_fn<cast_signed>} ins(%691, %693 : tensor<1024x1536xf32>, tensor<1536x256xf32>) outs(%cst_189 : tensor<1024x256xf32>) -> tensor<1024x256xf32>
    %695 = tosa.reshape %arg70 {new_shape = array<i64: 1, 256>} : (tensor<256xf32>) -> tensor<1x256xf32>
    %696 = tosa.add %695, %694 : (tensor<1x256xf32>, tensor<1024x256xf32>) -> tensor<1024x256xf32>
    %697 = tosa.reshape %696 {new_shape = array<i64: 1, 1024, 256>} : (tensor<1024x256xf32>) -> tensor<1x1024x256xf32>
    %698 = tosa.reshape %683 {new_shape = array<i64: 1, 1024, 12, 128>} : (tensor<1x1024x1536xf32>) -> tensor<1x1024x12x128xf32>
    %699 = "tosa.const"() <{value = dense<[0, 2, 1, 3]> : tensor<4xi32>}> : () -> tensor<4xi32>
    %700 = tosa.transpose %698, %699 : (tensor<1x1024x12x128xf32>, tensor<4xi32>) -> tensor<1x12x1024x128xf32>
    %701 = tosa.reshape %690 {new_shape = array<i64: 1, 1024, 2, 128>} : (tensor<1x1024x256xf32>) -> tensor<1x1024x2x128xf32>
    %702 = "tosa.const"() <{value = dense<[0, 2, 1, 3]> : tensor<4xi32>}> : () -> tensor<4xi32>
    %703 = tosa.transpose %701, %702 : (tensor<1x1024x2x128xf32>, tensor<4xi32>) -> tensor<1x2x1024x128xf32>
    %704 = tosa.reshape %697 {new_shape = array<i64: 1, 1024, 2, 128>} : (tensor<1x1024x256xf32>) -> tensor<1x1024x2x128xf32>
    %705 = "tosa.const"() <{value = dense<[0, 2, 1, 3]> : tensor<4xi32>}> : () -> tensor<4xi32>
    %706 = tosa.transpose %704, %705 : (tensor<1x1024x2x128xf32>, tensor<4xi32>) -> tensor<1x2x1024x128xf32>
    %707 = tosa.reshape %51 {new_shape = array<i64: 1, 1, 1024, 128>} : (tensor<1x1024x128xf32>) -> tensor<1x1x1024x128xf32>
    %708 = tosa.reshape %53 {new_shape = array<i64: 1, 1, 1024, 128>} : (tensor<1x1024x128xf32>) -> tensor<1x1x1024x128xf32>
    %709 = tosa.mul %700, %707 : (tensor<1x12x1024x128xf32>, tensor<1x1x1024x128xf32>) -> tensor<1x12x1024x128xf32>
    %extracted_slice_190 = tensor.extract_slice %700[0, 0, 0, 0] [1, 12, 1024, 64] [1, 1, 1, 1] : tensor<1x12x1024x128xf32> to tensor<1x12x1024x64xf32>
    %extracted_slice_191 = tensor.extract_slice %700[0, 0, 0, 64] [1, 12, 1024, 64] [1, 1, 1, 1] : tensor<1x12x1024x128xf32> to tensor<1x12x1024x64xf32>
    %710 = tensor.empty() : tensor<1x12x1024x64xf32>
    %711 = linalg.negf ins(%extracted_slice_191 : tensor<1x12x1024x64xf32>) outs(%710 : tensor<1x12x1024x64xf32>) -> tensor<1x12x1024x64xf32>
    %712 = tensor.empty() : tensor<1x12x1024x128xf32>
    %inserted_slice_192 = tensor.insert_slice %711 into %712[0, 0, 0, 0] [1, 12, 1024, 64] [1, 1, 1, 1] : tensor<1x12x1024x64xf32> into tensor<1x12x1024x128xf32>
    %inserted_slice_193 = tensor.insert_slice %extracted_slice_190 into %inserted_slice_192[0, 0, 0, 64] [1, 12, 1024, 64] [1, 1, 1, 1] : tensor<1x12x1024x64xf32> into tensor<1x12x1024x128xf32>
    %713 = tosa.mul %inserted_slice_193, %708 : (tensor<1x12x1024x128xf32>, tensor<1x1x1024x128xf32>) -> tensor<1x12x1024x128xf32>
    %714 = tosa.add %709, %713 : (tensor<1x12x1024x128xf32>, tensor<1x12x1024x128xf32>) -> tensor<1x12x1024x128xf32>
    %715 = tosa.mul %703, %707 : (tensor<1x2x1024x128xf32>, tensor<1x1x1024x128xf32>) -> tensor<1x2x1024x128xf32>
    %extracted_slice_194 = tensor.extract_slice %703[0, 0, 0, 0] [1, 2, 1024, 64] [1, 1, 1, 1] : tensor<1x2x1024x128xf32> to tensor<1x2x1024x64xf32>
    %extracted_slice_195 = tensor.extract_slice %703[0, 0, 0, 64] [1, 2, 1024, 64] [1, 1, 1, 1] : tensor<1x2x1024x128xf32> to tensor<1x2x1024x64xf32>
    %716 = tensor.empty() : tensor<1x2x1024x64xf32>
    %717 = linalg.negf ins(%extracted_slice_195 : tensor<1x2x1024x64xf32>) outs(%716 : tensor<1x2x1024x64xf32>) -> tensor<1x2x1024x64xf32>
    %718 = tensor.empty() : tensor<1x2x1024x128xf32>
    %inserted_slice_196 = tensor.insert_slice %717 into %718[0, 0, 0, 0] [1, 2, 1024, 64] [1, 1, 1, 1] : tensor<1x2x1024x64xf32> into tensor<1x2x1024x128xf32>
    %inserted_slice_197 = tensor.insert_slice %extracted_slice_194 into %inserted_slice_196[0, 0, 0, 64] [1, 2, 1024, 64] [1, 1, 1, 1] : tensor<1x2x1024x64xf32> into tensor<1x2x1024x128xf32>
    %719 = tosa.mul %inserted_slice_197, %708 : (tensor<1x2x1024x128xf32>, tensor<1x1x1024x128xf32>) -> tensor<1x2x1024x128xf32>
    %720 = tosa.add %715, %719 : (tensor<1x2x1024x128xf32>, tensor<1x2x1024x128xf32>) -> tensor<1x2x1024x128xf32>
    %extracted_slice_198 = tensor.extract_slice %720[0, 0, 0, 0] [1, 2, 1024, 128] [1, 1, 1, 1] : tensor<1x2x1024x128xf32> to tensor<1x2x1024x128xf32>
    %extracted_slice_199 = tensor.extract_slice %extracted_slice_198[0, 0, 0, 0] [1, 2, 1024, 128] [1, 1, 1, 1] : tensor<1x2x1024x128xf32> to tensor<1x2x1024x128xf32>
    %721 = tosa.reshape %extracted_slice_199 {new_shape = array<i64: 1, 2, 1, 1024, 128>} : (tensor<1x2x1024x128xf32>) -> tensor<1x2x1x1024x128xf32>
    %extracted_slice_200 = tensor.extract_slice %721[0, 0, 0, 0, 0] [1, 2, 1, 1024, 128] [1, 1, 1, 1, 1] : tensor<1x2x1x1024x128xf32> to tensor<1x2x1x1024x128xf32>
    %extracted_slice_201 = tensor.extract_slice %extracted_slice_200[0, 0, 0, 0, 0] [1, 2, 1, 1024, 128] [1, 1, 1, 1, 1] : tensor<1x2x1x1024x128xf32> to tensor<1x2x1x1024x128xf32>
    %722 = "tosa.const"() <{value = dense<0.000000e+00> : tensor<1x2x6x1024x128xf32>}> : () -> tensor<1x2x6x1024x128xf32>
    %723 = tosa.add %extracted_slice_201, %722 : (tensor<1x2x1x1024x128xf32>, tensor<1x2x6x1024x128xf32>) -> tensor<1x2x6x1024x128xf32>
    %724 = tosa.identity %723 : (tensor<1x2x6x1024x128xf32>) -> tensor<1x2x6x1024x128xf32>
    %725 = tosa.reshape %724 {new_shape = array<i64: 1, 12, 1024, 128>} : (tensor<1x2x6x1024x128xf32>) -> tensor<1x12x1024x128xf32>
    %extracted_slice_202 = tensor.extract_slice %706[0, 0, 0, 0] [1, 2, 1024, 128] [1, 1, 1, 1] : tensor<1x2x1024x128xf32> to tensor<1x2x1024x128xf32>
    %extracted_slice_203 = tensor.extract_slice %extracted_slice_202[0, 0, 0, 0] [1, 2, 1024, 128] [1, 1, 1, 1] : tensor<1x2x1024x128xf32> to tensor<1x2x1024x128xf32>
    %726 = tosa.reshape %extracted_slice_203 {new_shape = array<i64: 1, 2, 1, 1024, 128>} : (tensor<1x2x1024x128xf32>) -> tensor<1x2x1x1024x128xf32>
    %extracted_slice_204 = tensor.extract_slice %726[0, 0, 0, 0, 0] [1, 2, 1, 1024, 128] [1, 1, 1, 1, 1] : tensor<1x2x1x1024x128xf32> to tensor<1x2x1x1024x128xf32>
    %extracted_slice_205 = tensor.extract_slice %extracted_slice_204[0, 0, 0, 0, 0] [1, 2, 1, 1024, 128] [1, 1, 1, 1, 1] : tensor<1x2x1x1024x128xf32> to tensor<1x2x1x1024x128xf32>
    %727 = "tosa.const"() <{value = dense<0.000000e+00> : tensor<1x2x6x1024x128xf32>}> : () -> tensor<1x2x6x1024x128xf32>
    %728 = tosa.add %extracted_slice_205, %727 : (tensor<1x2x1x1024x128xf32>, tensor<1x2x6x1024x128xf32>) -> tensor<1x2x6x1024x128xf32>
    %729 = tosa.identity %728 : (tensor<1x2x6x1024x128xf32>) -> tensor<1x2x6x1024x128xf32>
    %730 = tosa.reshape %729 {new_shape = array<i64: 1, 12, 1024, 128>} : (tensor<1x2x6x1024x128xf32>) -> tensor<1x12x1024x128xf32>
    %extracted_slice_206 = tensor.extract_slice %inserted_slice_21[0, 0, 0, 0] [1, 1, 1024, 1024] [1, 1, 1, 1] : tensor<1x1x1024x1024xf32> to tensor<1x1x1024x1024xf32>
    %extracted_slice_207 = tensor.extract_slice %extracted_slice_206[0, 0, 0, 0] [1, 1, 1024, 1024] [1, 1, 1, 1] : tensor<1x1x1024x1024xf32> to tensor<1x1x1024x1024xf32>
    %extracted_slice_208 = tensor.extract_slice %extracted_slice_207[0, 0, 0, 0] [1, 1, 1024, 1024] [1, 1, 1, 1] : tensor<1x1x1024x1024xf32> to tensor<1x1x1024x1024xf32>
    %cst_209 = arith.constant 0.000000e+00 : f32
    %splat_210 = tensor.splat %cst_209 : tensor<1024x1024xf32>
    %731 = tosa.reshape %extracted_slice_208 {new_shape = array<i64: 1024, 1024>} : (tensor<1x1x1024x1024xf32>) -> tensor<1024x1024xf32>
    %732 = tosa.add %splat_210, %731 : (tensor<1024x1024xf32>, tensor<1024x1024xf32>) -> tensor<1024x1024xf32>
    %733 = "tosa.const"() <{value = dense<[0, 1, 3, 2]> : tensor<4xi32>}> : () -> tensor<4xi32>
    %734 = tosa.transpose %725, %733 : (tensor<1x12x1024x128xf32>, tensor<4xi32>) -> tensor<1x12x128x1024xf32>
    %735 = tosa.reshape %714 {new_shape = array<i64: 12, 1024, 128>} : (tensor<1x12x1024x128xf32>) -> tensor<12x1024x128xf32>
    %736 = tosa.reshape %734 {new_shape = array<i64: 12, 128, 1024>} : (tensor<1x12x128x1024xf32>) -> tensor<12x128x1024xf32>
    %737 = tosa.matmul %735, %736 : (tensor<12x1024x128xf32>, tensor<12x128x1024xf32>) -> tensor<12x1024x1024xf32>
    %cst_211 = arith.constant 0.0883883461 : f32
    %splat_212 = tensor.splat %cst_211 : tensor<12x1024x1024xf32>
    %738 = tosa.mul %737, %splat_212 : (tensor<12x1024x1024xf32>, tensor<12x1024x1024xf32>) -> tensor<12x1024x1024xf32>
    %739 = tosa.reshape %732 {new_shape = array<i64: 1, 1024, 1024>} : (tensor<1024x1024xf32>) -> tensor<1x1024x1024xf32>
    %740 = tosa.add %738, %739 : (tensor<12x1024x1024xf32>, tensor<1x1024x1024xf32>) -> tensor<12x1024x1024xf32>
    %741 = tosa.reduce_max %740 {axis = 2 : i32} : (tensor<12x1024x1024xf32>) -> tensor<12x1024x1xf32>
    %742 = tosa.sub %740, %741 : (tensor<12x1024x1024xf32>, tensor<12x1024x1xf32>) -> tensor<12x1024x1024xf32>
    %743 = math.exp %742 : tensor<12x1024x1024xf32>
    %744 = tosa.reduce_sum %743 {axis = 2 : i32} : (tensor<12x1024x1024xf32>) -> tensor<12x1024x1xf32>
    %745 = tosa.log %744 : (tensor<12x1024x1xf32>) -> tensor<12x1024x1xf32>
    %746 = tosa.add %741, %745 : (tensor<12x1024x1xf32>, tensor<12x1024x1xf32>) -> tensor<12x1024x1xf32>
    %747 = tosa.sub %740, %746 : (tensor<12x1024x1024xf32>, tensor<12x1024x1xf32>) -> tensor<12x1024x1024xf32>
    %748 = math.exp %747 : tensor<12x1024x1024xf32>
    %749 = tosa.reshape %746 {new_shape = array<i64: 1, 12, 1024>} : (tensor<12x1024x1xf32>) -> tensor<1x12x1024xf32>
    %750 = tosa.reshape %730 {new_shape = array<i64: 12, 1024, 128>} : (tensor<1x12x1024x128xf32>) -> tensor<12x1024x128xf32>
    %751 = tosa.matmul %748, %750 : (tensor<12x1024x1024xf32>, tensor<12x1024x128xf32>) -> tensor<12x1024x128xf32>
    %752 = tosa.reshape %751 {new_shape = array<i64: 1, 12, 1024, 128>} : (tensor<12x1024x128xf32>) -> tensor<1x12x1024x128xf32>
    %753 = "tosa.const"() <{value = dense<[0, 2, 1, 3]> : tensor<4xi32>}> : () -> tensor<4xi32>
    %754 = tosa.transpose %752, %753 : (tensor<1x12x1024x128xf32>, tensor<4xi32>) -> tensor<1x1024x12x128xf32>
    %755 = tosa.reshape %754 {new_shape = array<i64: 1, 1024, 1536>} : (tensor<1x1024x12x128xf32>) -> tensor<1x1024x1536xf32>
    %756 = tosa.reshape %755 {new_shape = array<i64: 1024, 1536>} : (tensor<1x1024x1536xf32>) -> tensor<1024x1536xf32>
    %cst_213 = arith.constant dense<0.000000e+00> : tensor<1024x1536xf32>
    %757 = linalg.matmul_transpose_b {cast = #linalg.type_fn<cast_signed>} ins(%756, %arg71 : tensor<1024x1536xf32>, tensor<1536x1536xf32>) outs(%cst_213 : tensor<1024x1536xf32>) -> tensor<1024x1536xf32>
    %758 = tosa.reshape %757 {new_shape = array<i64: 1, 1024, 1536>} : (tensor<1024x1536xf32>) -> tensor<1x1024x1536xf32>
    %759 = tosa.add %663, %758 : (tensor<1x1024x1536xf32>, tensor<1x1024x1536xf32>) -> tensor<1x1024x1536xf32>
    %760 = tensor.empty() : tensor<1x1024x1536xf32>
    %c2_i32_214 = arith.constant 2 : i32
    %761 = linalg.generic {indexing_maps = [#map4, #map4], iterator_types = ["parallel", "parallel", "parallel"]} ins(%759 : tensor<1x1024x1536xf32>) outs(%760 : tensor<1x1024x1536xf32>) {
    ^bb0(%in: f32, %out: f32):
      %3486 = math.fpowi %in, %c2_i32_214 : f32, i32
      linalg.yield %3486 : f32
    } -> tensor<1x1024x1536xf32>
    %762 = tosa.reduce_sum %761 {axis = 2 : i32} : (tensor<1x1024x1536xf32>) -> tensor<1x1024x1xf32>
    %763 = "tosa.const"() <{value = dense<1.536000e+03> : tensor<1xf32>}> : () -> tensor<1xf32>
    %764 = tosa.reciprocal %763 : (tensor<1xf32>) -> tensor<1xf32>
    %765 = tosa.reshape %764 {new_shape = array<i64: 1, 1, 1>} : (tensor<1xf32>) -> tensor<1x1x1xf32>
    %766 = tosa.mul %765, %762 : (tensor<1x1x1xf32>, tensor<1x1024x1xf32>) -> tensor<1x1024x1xf32>
    %767 = "tosa.const"() <{value = dense<9.99999997E-7> : tensor<1x1024x1xf32>}> : () -> tensor<1x1024x1xf32>
    %768 = tosa.add %766, %767 : (tensor<1x1024x1xf32>, tensor<1x1024x1xf32>) -> tensor<1x1024x1xf32>
    %769 = tosa.rsqrt %768 : (tensor<1x1024x1xf32>) -> tensor<1x1024x1xf32>
    %770 = tosa.mul %759, %769 : (tensor<1x1024x1536xf32>, tensor<1x1024x1xf32>) -> tensor<1x1024x1536xf32>
    %771 = tosa.reshape %arg72 {new_shape = array<i64: 1, 1, 1536>} : (tensor<1536xf32>) -> tensor<1x1x1536xf32>
    %772 = tosa.mul %771, %770 : (tensor<1x1x1536xf32>, tensor<1x1024x1536xf32>) -> tensor<1x1024x1536xf32>
    %773 = tosa.reshape %772 {new_shape = array<i64: 1024, 1536>} : (tensor<1x1024x1536xf32>) -> tensor<1024x1536xf32>
    %cst_215 = arith.constant dense<0.000000e+00> : tensor<1024x8960xf32>
    %774 = linalg.matmul_transpose_b {cast = #linalg.type_fn<cast_signed>} ins(%773, %arg73 : tensor<1024x1536xf32>, tensor<8960x1536xf32>) outs(%cst_215 : tensor<1024x8960xf32>) -> tensor<1024x8960xf32>
    %775 = tosa.reshape %774 {new_shape = array<i64: 1, 1024, 8960>} : (tensor<1024x8960xf32>) -> tensor<1x1024x8960xf32>
    %776 = tosa.sigmoid %775 : (tensor<1x1024x8960xf32>) -> tensor<1x1024x8960xf32>
    %777 = tosa.mul %775, %776 : (tensor<1x1024x8960xf32>, tensor<1x1024x8960xf32>) -> tensor<1x1024x8960xf32>
    %778 = tosa.reshape %772 {new_shape = array<i64: 1024, 1536>} : (tensor<1x1024x1536xf32>) -> tensor<1024x1536xf32>
    %cst_216 = arith.constant dense<0.000000e+00> : tensor<1024x8960xf32>
    %779 = linalg.matmul_transpose_b {cast = #linalg.type_fn<cast_signed>} ins(%778, %arg74 : tensor<1024x1536xf32>, tensor<8960x1536xf32>) outs(%cst_216 : tensor<1024x8960xf32>) -> tensor<1024x8960xf32>
    %780 = tosa.reshape %779 {new_shape = array<i64: 1, 1024, 8960>} : (tensor<1024x8960xf32>) -> tensor<1x1024x8960xf32>
    %781 = tosa.mul %777, %780 : (tensor<1x1024x8960xf32>, tensor<1x1024x8960xf32>) -> tensor<1x1024x8960xf32>
    %782 = tosa.reshape %781 {new_shape = array<i64: 1024, 8960>} : (tensor<1x1024x8960xf32>) -> tensor<1024x8960xf32>
    %cst_217 = arith.constant dense<0.000000e+00> : tensor<1024x1536xf32>
    %783 = linalg.matmul_transpose_b {cast = #linalg.type_fn<cast_signed>} ins(%782, %arg75 : tensor<1024x8960xf32>, tensor<1536x8960xf32>) outs(%cst_217 : tensor<1024x1536xf32>) -> tensor<1024x1536xf32>
    %784 = tosa.reshape %783 {new_shape = array<i64: 1, 1024, 1536>} : (tensor<1024x1536xf32>) -> tensor<1x1024x1536xf32>
    %785 = tosa.add %759, %784 : (tensor<1x1024x1536xf32>, tensor<1x1024x1536xf32>) -> tensor<1x1024x1536xf32>
    %786 = tensor.empty() : tensor<1x1024x1536xf32>
    %c2_i32_218 = arith.constant 2 : i32
    %787 = linalg.generic {indexing_maps = [#map4, #map4], iterator_types = ["parallel", "parallel", "parallel"]} ins(%785 : tensor<1x1024x1536xf32>) outs(%786 : tensor<1x1024x1536xf32>) {
    ^bb0(%in: f32, %out: f32):
      %3486 = math.fpowi %in, %c2_i32_218 : f32, i32
      linalg.yield %3486 : f32
    } -> tensor<1x1024x1536xf32>
    %788 = tosa.reduce_sum %787 {axis = 2 : i32} : (tensor<1x1024x1536xf32>) -> tensor<1x1024x1xf32>
    %789 = "tosa.const"() <{value = dense<1.536000e+03> : tensor<1xf32>}> : () -> tensor<1xf32>
    %790 = tosa.reciprocal %789 : (tensor<1xf32>) -> tensor<1xf32>
    %791 = tosa.reshape %790 {new_shape = array<i64: 1, 1, 1>} : (tensor<1xf32>) -> tensor<1x1x1xf32>
    %792 = tosa.mul %791, %788 : (tensor<1x1x1xf32>, tensor<1x1024x1xf32>) -> tensor<1x1024x1xf32>
    %793 = "tosa.const"() <{value = dense<9.99999997E-7> : tensor<1x1024x1xf32>}> : () -> tensor<1x1024x1xf32>
    %794 = tosa.add %792, %793 : (tensor<1x1024x1xf32>, tensor<1x1024x1xf32>) -> tensor<1x1024x1xf32>
    %795 = tosa.rsqrt %794 : (tensor<1x1024x1xf32>) -> tensor<1x1024x1xf32>
    %796 = tosa.mul %785, %795 : (tensor<1x1024x1536xf32>, tensor<1x1024x1xf32>) -> tensor<1x1024x1536xf32>
    %797 = tosa.reshape %arg76 {new_shape = array<i64: 1, 1, 1536>} : (tensor<1536xf32>) -> tensor<1x1x1536xf32>
    %798 = tosa.mul %797, %796 : (tensor<1x1x1536xf32>, tensor<1x1024x1536xf32>) -> tensor<1x1024x1536xf32>
    %799 = tosa.reshape %798 {new_shape = array<i64: 1024, 1536>} : (tensor<1x1024x1536xf32>) -> tensor<1024x1536xf32>
    %800 = "tosa.const"() <{value = dense<[1, 0]> : tensor<2xi32>}> : () -> tensor<2xi32>
    %801 = tosa.transpose %arg77, %800 : (tensor<1536x1536xf32>, tensor<2xi32>) -> tensor<1536x1536xf32>
    %cst_219 = arith.constant dense<0.000000e+00> : tensor<1024x1536xf32>
    %802 = linalg.matmul {cast = #linalg.type_fn<cast_signed>} ins(%799, %801 : tensor<1024x1536xf32>, tensor<1536x1536xf32>) outs(%cst_219 : tensor<1024x1536xf32>) -> tensor<1024x1536xf32>
    %803 = tosa.reshape %arg78 {new_shape = array<i64: 1, 1536>} : (tensor<1536xf32>) -> tensor<1x1536xf32>
    %804 = tosa.add %803, %802 : (tensor<1x1536xf32>, tensor<1024x1536xf32>) -> tensor<1024x1536xf32>
    %805 = tosa.reshape %804 {new_shape = array<i64: 1, 1024, 1536>} : (tensor<1024x1536xf32>) -> tensor<1x1024x1536xf32>
    %806 = tosa.reshape %798 {new_shape = array<i64: 1024, 1536>} : (tensor<1x1024x1536xf32>) -> tensor<1024x1536xf32>
    %807 = "tosa.const"() <{value = dense<[1, 0]> : tensor<2xi32>}> : () -> tensor<2xi32>
    %808 = tosa.transpose %arg79, %807 : (tensor<256x1536xf32>, tensor<2xi32>) -> tensor<1536x256xf32>
    %cst_220 = arith.constant dense<0.000000e+00> : tensor<1024x256xf32>
    %809 = linalg.matmul {cast = #linalg.type_fn<cast_signed>} ins(%806, %808 : tensor<1024x1536xf32>, tensor<1536x256xf32>) outs(%cst_220 : tensor<1024x256xf32>) -> tensor<1024x256xf32>
    %810 = tosa.reshape %arg80 {new_shape = array<i64: 1, 256>} : (tensor<256xf32>) -> tensor<1x256xf32>
    %811 = tosa.add %810, %809 : (tensor<1x256xf32>, tensor<1024x256xf32>) -> tensor<1024x256xf32>
    %812 = tosa.reshape %811 {new_shape = array<i64: 1, 1024, 256>} : (tensor<1024x256xf32>) -> tensor<1x1024x256xf32>
    %813 = tosa.reshape %798 {new_shape = array<i64: 1024, 1536>} : (tensor<1x1024x1536xf32>) -> tensor<1024x1536xf32>
    %814 = "tosa.const"() <{value = dense<[1, 0]> : tensor<2xi32>}> : () -> tensor<2xi32>
    %815 = tosa.transpose %arg81, %814 : (tensor<256x1536xf32>, tensor<2xi32>) -> tensor<1536x256xf32>
    %cst_221 = arith.constant dense<0.000000e+00> : tensor<1024x256xf32>
    %816 = linalg.matmul {cast = #linalg.type_fn<cast_signed>} ins(%813, %815 : tensor<1024x1536xf32>, tensor<1536x256xf32>) outs(%cst_221 : tensor<1024x256xf32>) -> tensor<1024x256xf32>
    %817 = tosa.reshape %arg82 {new_shape = array<i64: 1, 256>} : (tensor<256xf32>) -> tensor<1x256xf32>
    %818 = tosa.add %817, %816 : (tensor<1x256xf32>, tensor<1024x256xf32>) -> tensor<1024x256xf32>
    %819 = tosa.reshape %818 {new_shape = array<i64: 1, 1024, 256>} : (tensor<1024x256xf32>) -> tensor<1x1024x256xf32>
    %820 = tosa.reshape %805 {new_shape = array<i64: 1, 1024, 12, 128>} : (tensor<1x1024x1536xf32>) -> tensor<1x1024x12x128xf32>
    %821 = "tosa.const"() <{value = dense<[0, 2, 1, 3]> : tensor<4xi32>}> : () -> tensor<4xi32>
    %822 = tosa.transpose %820, %821 : (tensor<1x1024x12x128xf32>, tensor<4xi32>) -> tensor<1x12x1024x128xf32>
    %823 = tosa.reshape %812 {new_shape = array<i64: 1, 1024, 2, 128>} : (tensor<1x1024x256xf32>) -> tensor<1x1024x2x128xf32>
    %824 = "tosa.const"() <{value = dense<[0, 2, 1, 3]> : tensor<4xi32>}> : () -> tensor<4xi32>
    %825 = tosa.transpose %823, %824 : (tensor<1x1024x2x128xf32>, tensor<4xi32>) -> tensor<1x2x1024x128xf32>
    %826 = tosa.reshape %819 {new_shape = array<i64: 1, 1024, 2, 128>} : (tensor<1x1024x256xf32>) -> tensor<1x1024x2x128xf32>
    %827 = "tosa.const"() <{value = dense<[0, 2, 1, 3]> : tensor<4xi32>}> : () -> tensor<4xi32>
    %828 = tosa.transpose %826, %827 : (tensor<1x1024x2x128xf32>, tensor<4xi32>) -> tensor<1x2x1024x128xf32>
    %829 = tosa.reshape %51 {new_shape = array<i64: 1, 1, 1024, 128>} : (tensor<1x1024x128xf32>) -> tensor<1x1x1024x128xf32>
    %830 = tosa.reshape %53 {new_shape = array<i64: 1, 1, 1024, 128>} : (tensor<1x1024x128xf32>) -> tensor<1x1x1024x128xf32>
    %831 = tosa.mul %822, %829 : (tensor<1x12x1024x128xf32>, tensor<1x1x1024x128xf32>) -> tensor<1x12x1024x128xf32>
    %extracted_slice_222 = tensor.extract_slice %822[0, 0, 0, 0] [1, 12, 1024, 64] [1, 1, 1, 1] : tensor<1x12x1024x128xf32> to tensor<1x12x1024x64xf32>
    %extracted_slice_223 = tensor.extract_slice %822[0, 0, 0, 64] [1, 12, 1024, 64] [1, 1, 1, 1] : tensor<1x12x1024x128xf32> to tensor<1x12x1024x64xf32>
    %832 = tensor.empty() : tensor<1x12x1024x64xf32>
    %833 = linalg.negf ins(%extracted_slice_223 : tensor<1x12x1024x64xf32>) outs(%832 : tensor<1x12x1024x64xf32>) -> tensor<1x12x1024x64xf32>
    %834 = tensor.empty() : tensor<1x12x1024x128xf32>
    %inserted_slice_224 = tensor.insert_slice %833 into %834[0, 0, 0, 0] [1, 12, 1024, 64] [1, 1, 1, 1] : tensor<1x12x1024x64xf32> into tensor<1x12x1024x128xf32>
    %inserted_slice_225 = tensor.insert_slice %extracted_slice_222 into %inserted_slice_224[0, 0, 0, 64] [1, 12, 1024, 64] [1, 1, 1, 1] : tensor<1x12x1024x64xf32> into tensor<1x12x1024x128xf32>
    %835 = tosa.mul %inserted_slice_225, %830 : (tensor<1x12x1024x128xf32>, tensor<1x1x1024x128xf32>) -> tensor<1x12x1024x128xf32>
    %836 = tosa.add %831, %835 : (tensor<1x12x1024x128xf32>, tensor<1x12x1024x128xf32>) -> tensor<1x12x1024x128xf32>
    %837 = tosa.mul %825, %829 : (tensor<1x2x1024x128xf32>, tensor<1x1x1024x128xf32>) -> tensor<1x2x1024x128xf32>
    %extracted_slice_226 = tensor.extract_slice %825[0, 0, 0, 0] [1, 2, 1024, 64] [1, 1, 1, 1] : tensor<1x2x1024x128xf32> to tensor<1x2x1024x64xf32>
    %extracted_slice_227 = tensor.extract_slice %825[0, 0, 0, 64] [1, 2, 1024, 64] [1, 1, 1, 1] : tensor<1x2x1024x128xf32> to tensor<1x2x1024x64xf32>
    %838 = tensor.empty() : tensor<1x2x1024x64xf32>
    %839 = linalg.negf ins(%extracted_slice_227 : tensor<1x2x1024x64xf32>) outs(%838 : tensor<1x2x1024x64xf32>) -> tensor<1x2x1024x64xf32>
    %840 = tensor.empty() : tensor<1x2x1024x128xf32>
    %inserted_slice_228 = tensor.insert_slice %839 into %840[0, 0, 0, 0] [1, 2, 1024, 64] [1, 1, 1, 1] : tensor<1x2x1024x64xf32> into tensor<1x2x1024x128xf32>
    %inserted_slice_229 = tensor.insert_slice %extracted_slice_226 into %inserted_slice_228[0, 0, 0, 64] [1, 2, 1024, 64] [1, 1, 1, 1] : tensor<1x2x1024x64xf32> into tensor<1x2x1024x128xf32>
    %841 = tosa.mul %inserted_slice_229, %830 : (tensor<1x2x1024x128xf32>, tensor<1x1x1024x128xf32>) -> tensor<1x2x1024x128xf32>
    %842 = tosa.add %837, %841 : (tensor<1x2x1024x128xf32>, tensor<1x2x1024x128xf32>) -> tensor<1x2x1024x128xf32>
    %extracted_slice_230 = tensor.extract_slice %842[0, 0, 0, 0] [1, 2, 1024, 128] [1, 1, 1, 1] : tensor<1x2x1024x128xf32> to tensor<1x2x1024x128xf32>
    %extracted_slice_231 = tensor.extract_slice %extracted_slice_230[0, 0, 0, 0] [1, 2, 1024, 128] [1, 1, 1, 1] : tensor<1x2x1024x128xf32> to tensor<1x2x1024x128xf32>
    %843 = tosa.reshape %extracted_slice_231 {new_shape = array<i64: 1, 2, 1, 1024, 128>} : (tensor<1x2x1024x128xf32>) -> tensor<1x2x1x1024x128xf32>
    %extracted_slice_232 = tensor.extract_slice %843[0, 0, 0, 0, 0] [1, 2, 1, 1024, 128] [1, 1, 1, 1, 1] : tensor<1x2x1x1024x128xf32> to tensor<1x2x1x1024x128xf32>
    %extracted_slice_233 = tensor.extract_slice %extracted_slice_232[0, 0, 0, 0, 0] [1, 2, 1, 1024, 128] [1, 1, 1, 1, 1] : tensor<1x2x1x1024x128xf32> to tensor<1x2x1x1024x128xf32>
    %844 = "tosa.const"() <{value = dense<0.000000e+00> : tensor<1x2x6x1024x128xf32>}> : () -> tensor<1x2x6x1024x128xf32>
    %845 = tosa.add %extracted_slice_233, %844 : (tensor<1x2x1x1024x128xf32>, tensor<1x2x6x1024x128xf32>) -> tensor<1x2x6x1024x128xf32>
    %846 = tosa.identity %845 : (tensor<1x2x6x1024x128xf32>) -> tensor<1x2x6x1024x128xf32>
    %847 = tosa.reshape %846 {new_shape = array<i64: 1, 12, 1024, 128>} : (tensor<1x2x6x1024x128xf32>) -> tensor<1x12x1024x128xf32>
    %extracted_slice_234 = tensor.extract_slice %828[0, 0, 0, 0] [1, 2, 1024, 128] [1, 1, 1, 1] : tensor<1x2x1024x128xf32> to tensor<1x2x1024x128xf32>
    %extracted_slice_235 = tensor.extract_slice %extracted_slice_234[0, 0, 0, 0] [1, 2, 1024, 128] [1, 1, 1, 1] : tensor<1x2x1024x128xf32> to tensor<1x2x1024x128xf32>
    %848 = tosa.reshape %extracted_slice_235 {new_shape = array<i64: 1, 2, 1, 1024, 128>} : (tensor<1x2x1024x128xf32>) -> tensor<1x2x1x1024x128xf32>
    %extracted_slice_236 = tensor.extract_slice %848[0, 0, 0, 0, 0] [1, 2, 1, 1024, 128] [1, 1, 1, 1, 1] : tensor<1x2x1x1024x128xf32> to tensor<1x2x1x1024x128xf32>
    %extracted_slice_237 = tensor.extract_slice %extracted_slice_236[0, 0, 0, 0, 0] [1, 2, 1, 1024, 128] [1, 1, 1, 1, 1] : tensor<1x2x1x1024x128xf32> to tensor<1x2x1x1024x128xf32>
    %849 = "tosa.const"() <{value = dense<0.000000e+00> : tensor<1x2x6x1024x128xf32>}> : () -> tensor<1x2x6x1024x128xf32>
    %850 = tosa.add %extracted_slice_237, %849 : (tensor<1x2x1x1024x128xf32>, tensor<1x2x6x1024x128xf32>) -> tensor<1x2x6x1024x128xf32>
    %851 = tosa.identity %850 : (tensor<1x2x6x1024x128xf32>) -> tensor<1x2x6x1024x128xf32>
    %852 = tosa.reshape %851 {new_shape = array<i64: 1, 12, 1024, 128>} : (tensor<1x2x6x1024x128xf32>) -> tensor<1x12x1024x128xf32>
    %extracted_slice_238 = tensor.extract_slice %inserted_slice_21[0, 0, 0, 0] [1, 1, 1024, 1024] [1, 1, 1, 1] : tensor<1x1x1024x1024xf32> to tensor<1x1x1024x1024xf32>
    %extracted_slice_239 = tensor.extract_slice %extracted_slice_238[0, 0, 0, 0] [1, 1, 1024, 1024] [1, 1, 1, 1] : tensor<1x1x1024x1024xf32> to tensor<1x1x1024x1024xf32>
    %extracted_slice_240 = tensor.extract_slice %extracted_slice_239[0, 0, 0, 0] [1, 1, 1024, 1024] [1, 1, 1, 1] : tensor<1x1x1024x1024xf32> to tensor<1x1x1024x1024xf32>
    %cst_241 = arith.constant 0.000000e+00 : f32
    %splat_242 = tensor.splat %cst_241 : tensor<1024x1024xf32>
    %853 = tosa.reshape %extracted_slice_240 {new_shape = array<i64: 1024, 1024>} : (tensor<1x1x1024x1024xf32>) -> tensor<1024x1024xf32>
    %854 = tosa.add %splat_242, %853 : (tensor<1024x1024xf32>, tensor<1024x1024xf32>) -> tensor<1024x1024xf32>
    %855 = "tosa.const"() <{value = dense<[0, 1, 3, 2]> : tensor<4xi32>}> : () -> tensor<4xi32>
    %856 = tosa.transpose %847, %855 : (tensor<1x12x1024x128xf32>, tensor<4xi32>) -> tensor<1x12x128x1024xf32>
    %857 = tosa.reshape %836 {new_shape = array<i64: 12, 1024, 128>} : (tensor<1x12x1024x128xf32>) -> tensor<12x1024x128xf32>
    %858 = tosa.reshape %856 {new_shape = array<i64: 12, 128, 1024>} : (tensor<1x12x128x1024xf32>) -> tensor<12x128x1024xf32>
    %859 = tosa.matmul %857, %858 : (tensor<12x1024x128xf32>, tensor<12x128x1024xf32>) -> tensor<12x1024x1024xf32>
    %cst_243 = arith.constant 0.0883883461 : f32
    %splat_244 = tensor.splat %cst_243 : tensor<12x1024x1024xf32>
    %860 = tosa.mul %859, %splat_244 : (tensor<12x1024x1024xf32>, tensor<12x1024x1024xf32>) -> tensor<12x1024x1024xf32>
    %861 = tosa.reshape %854 {new_shape = array<i64: 1, 1024, 1024>} : (tensor<1024x1024xf32>) -> tensor<1x1024x1024xf32>
    %862 = tosa.add %860, %861 : (tensor<12x1024x1024xf32>, tensor<1x1024x1024xf32>) -> tensor<12x1024x1024xf32>
    %863 = tosa.reduce_max %862 {axis = 2 : i32} : (tensor<12x1024x1024xf32>) -> tensor<12x1024x1xf32>
    %864 = tosa.sub %862, %863 : (tensor<12x1024x1024xf32>, tensor<12x1024x1xf32>) -> tensor<12x1024x1024xf32>
    %865 = math.exp %864 : tensor<12x1024x1024xf32>
    %866 = tosa.reduce_sum %865 {axis = 2 : i32} : (tensor<12x1024x1024xf32>) -> tensor<12x1024x1xf32>
    %867 = tosa.log %866 : (tensor<12x1024x1xf32>) -> tensor<12x1024x1xf32>
    %868 = tosa.add %863, %867 : (tensor<12x1024x1xf32>, tensor<12x1024x1xf32>) -> tensor<12x1024x1xf32>
    %869 = tosa.sub %862, %868 : (tensor<12x1024x1024xf32>, tensor<12x1024x1xf32>) -> tensor<12x1024x1024xf32>
    %870 = math.exp %869 : tensor<12x1024x1024xf32>
    %871 = tosa.reshape %868 {new_shape = array<i64: 1, 12, 1024>} : (tensor<12x1024x1xf32>) -> tensor<1x12x1024xf32>
    %872 = tosa.reshape %852 {new_shape = array<i64: 12, 1024, 128>} : (tensor<1x12x1024x128xf32>) -> tensor<12x1024x128xf32>
    %873 = tosa.matmul %870, %872 : (tensor<12x1024x1024xf32>, tensor<12x1024x128xf32>) -> tensor<12x1024x128xf32>
    %874 = tosa.reshape %873 {new_shape = array<i64: 1, 12, 1024, 128>} : (tensor<12x1024x128xf32>) -> tensor<1x12x1024x128xf32>
    %875 = "tosa.const"() <{value = dense<[0, 2, 1, 3]> : tensor<4xi32>}> : () -> tensor<4xi32>
    %876 = tosa.transpose %874, %875 : (tensor<1x12x1024x128xf32>, tensor<4xi32>) -> tensor<1x1024x12x128xf32>
    %877 = tosa.reshape %876 {new_shape = array<i64: 1, 1024, 1536>} : (tensor<1x1024x12x128xf32>) -> tensor<1x1024x1536xf32>
    %878 = tosa.reshape %877 {new_shape = array<i64: 1024, 1536>} : (tensor<1x1024x1536xf32>) -> tensor<1024x1536xf32>
    %cst_245 = arith.constant dense<0.000000e+00> : tensor<1024x1536xf32>
    %879 = linalg.matmul_transpose_b {cast = #linalg.type_fn<cast_signed>} ins(%878, %arg83 : tensor<1024x1536xf32>, tensor<1536x1536xf32>) outs(%cst_245 : tensor<1024x1536xf32>) -> tensor<1024x1536xf32>
    %880 = tosa.reshape %879 {new_shape = array<i64: 1, 1024, 1536>} : (tensor<1024x1536xf32>) -> tensor<1x1024x1536xf32>
    %881 = tosa.add %785, %880 : (tensor<1x1024x1536xf32>, tensor<1x1024x1536xf32>) -> tensor<1x1024x1536xf32>
    %882 = tensor.empty() : tensor<1x1024x1536xf32>
    %c2_i32_246 = arith.constant 2 : i32
    %883 = linalg.generic {indexing_maps = [#map4, #map4], iterator_types = ["parallel", "parallel", "parallel"]} ins(%881 : tensor<1x1024x1536xf32>) outs(%882 : tensor<1x1024x1536xf32>) {
    ^bb0(%in: f32, %out: f32):
      %3486 = math.fpowi %in, %c2_i32_246 : f32, i32
      linalg.yield %3486 : f32
    } -> tensor<1x1024x1536xf32>
    %884 = tosa.reduce_sum %883 {axis = 2 : i32} : (tensor<1x1024x1536xf32>) -> tensor<1x1024x1xf32>
    %885 = "tosa.const"() <{value = dense<1.536000e+03> : tensor<1xf32>}> : () -> tensor<1xf32>
    %886 = tosa.reciprocal %885 : (tensor<1xf32>) -> tensor<1xf32>
    %887 = tosa.reshape %886 {new_shape = array<i64: 1, 1, 1>} : (tensor<1xf32>) -> tensor<1x1x1xf32>
    %888 = tosa.mul %887, %884 : (tensor<1x1x1xf32>, tensor<1x1024x1xf32>) -> tensor<1x1024x1xf32>
    %889 = "tosa.const"() <{value = dense<9.99999997E-7> : tensor<1x1024x1xf32>}> : () -> tensor<1x1024x1xf32>
    %890 = tosa.add %888, %889 : (tensor<1x1024x1xf32>, tensor<1x1024x1xf32>) -> tensor<1x1024x1xf32>
    %891 = tosa.rsqrt %890 : (tensor<1x1024x1xf32>) -> tensor<1x1024x1xf32>
    %892 = tosa.mul %881, %891 : (tensor<1x1024x1536xf32>, tensor<1x1024x1xf32>) -> tensor<1x1024x1536xf32>
    %893 = tosa.reshape %arg84 {new_shape = array<i64: 1, 1, 1536>} : (tensor<1536xf32>) -> tensor<1x1x1536xf32>
    %894 = tosa.mul %893, %892 : (tensor<1x1x1536xf32>, tensor<1x1024x1536xf32>) -> tensor<1x1024x1536xf32>
    %895 = tosa.reshape %894 {new_shape = array<i64: 1024, 1536>} : (tensor<1x1024x1536xf32>) -> tensor<1024x1536xf32>
    %cst_247 = arith.constant dense<0.000000e+00> : tensor<1024x8960xf32>
    %896 = linalg.matmul_transpose_b {cast = #linalg.type_fn<cast_signed>} ins(%895, %arg85 : tensor<1024x1536xf32>, tensor<8960x1536xf32>) outs(%cst_247 : tensor<1024x8960xf32>) -> tensor<1024x8960xf32>
    %897 = tosa.reshape %896 {new_shape = array<i64: 1, 1024, 8960>} : (tensor<1024x8960xf32>) -> tensor<1x1024x8960xf32>
    %898 = tosa.sigmoid %897 : (tensor<1x1024x8960xf32>) -> tensor<1x1024x8960xf32>
    %899 = tosa.mul %897, %898 : (tensor<1x1024x8960xf32>, tensor<1x1024x8960xf32>) -> tensor<1x1024x8960xf32>
    %900 = tosa.reshape %894 {new_shape = array<i64: 1024, 1536>} : (tensor<1x1024x1536xf32>) -> tensor<1024x1536xf32>
    %cst_248 = arith.constant dense<0.000000e+00> : tensor<1024x8960xf32>
    %901 = linalg.matmul_transpose_b {cast = #linalg.type_fn<cast_signed>} ins(%900, %arg86 : tensor<1024x1536xf32>, tensor<8960x1536xf32>) outs(%cst_248 : tensor<1024x8960xf32>) -> tensor<1024x8960xf32>
    %902 = tosa.reshape %901 {new_shape = array<i64: 1, 1024, 8960>} : (tensor<1024x8960xf32>) -> tensor<1x1024x8960xf32>
    %903 = tosa.mul %899, %902 : (tensor<1x1024x8960xf32>, tensor<1x1024x8960xf32>) -> tensor<1x1024x8960xf32>
    %904 = tosa.reshape %903 {new_shape = array<i64: 1024, 8960>} : (tensor<1x1024x8960xf32>) -> tensor<1024x8960xf32>
    %cst_249 = arith.constant dense<0.000000e+00> : tensor<1024x1536xf32>
    %905 = linalg.matmul_transpose_b {cast = #linalg.type_fn<cast_signed>} ins(%904, %arg87 : tensor<1024x8960xf32>, tensor<1536x8960xf32>) outs(%cst_249 : tensor<1024x1536xf32>) -> tensor<1024x1536xf32>
    %906 = tosa.reshape %905 {new_shape = array<i64: 1, 1024, 1536>} : (tensor<1024x1536xf32>) -> tensor<1x1024x1536xf32>
    %907 = tosa.add %881, %906 : (tensor<1x1024x1536xf32>, tensor<1x1024x1536xf32>) -> tensor<1x1024x1536xf32>
    %908 = tensor.empty() : tensor<1x1024x1536xf32>
    %c2_i32_250 = arith.constant 2 : i32
    %909 = linalg.generic {indexing_maps = [#map4, #map4], iterator_types = ["parallel", "parallel", "parallel"]} ins(%907 : tensor<1x1024x1536xf32>) outs(%908 : tensor<1x1024x1536xf32>) {
    ^bb0(%in: f32, %out: f32):
      %3486 = math.fpowi %in, %c2_i32_250 : f32, i32
      linalg.yield %3486 : f32
    } -> tensor<1x1024x1536xf32>
    %910 = tosa.reduce_sum %909 {axis = 2 : i32} : (tensor<1x1024x1536xf32>) -> tensor<1x1024x1xf32>
    %911 = "tosa.const"() <{value = dense<1.536000e+03> : tensor<1xf32>}> : () -> tensor<1xf32>
    %912 = tosa.reciprocal %911 : (tensor<1xf32>) -> tensor<1xf32>
    %913 = tosa.reshape %912 {new_shape = array<i64: 1, 1, 1>} : (tensor<1xf32>) -> tensor<1x1x1xf32>
    %914 = tosa.mul %913, %910 : (tensor<1x1x1xf32>, tensor<1x1024x1xf32>) -> tensor<1x1024x1xf32>
    %915 = "tosa.const"() <{value = dense<9.99999997E-7> : tensor<1x1024x1xf32>}> : () -> tensor<1x1024x1xf32>
    %916 = tosa.add %914, %915 : (tensor<1x1024x1xf32>, tensor<1x1024x1xf32>) -> tensor<1x1024x1xf32>
    %917 = tosa.rsqrt %916 : (tensor<1x1024x1xf32>) -> tensor<1x1024x1xf32>
    %918 = tosa.mul %907, %917 : (tensor<1x1024x1536xf32>, tensor<1x1024x1xf32>) -> tensor<1x1024x1536xf32>
    %919 = tosa.reshape %arg88 {new_shape = array<i64: 1, 1, 1536>} : (tensor<1536xf32>) -> tensor<1x1x1536xf32>
    %920 = tosa.mul %919, %918 : (tensor<1x1x1536xf32>, tensor<1x1024x1536xf32>) -> tensor<1x1024x1536xf32>
    %921 = tosa.reshape %920 {new_shape = array<i64: 1024, 1536>} : (tensor<1x1024x1536xf32>) -> tensor<1024x1536xf32>
    %922 = "tosa.const"() <{value = dense<[1, 0]> : tensor<2xi32>}> : () -> tensor<2xi32>
    %923 = tosa.transpose %arg89, %922 : (tensor<1536x1536xf32>, tensor<2xi32>) -> tensor<1536x1536xf32>
    %cst_251 = arith.constant dense<0.000000e+00> : tensor<1024x1536xf32>
    %924 = linalg.matmul {cast = #linalg.type_fn<cast_signed>} ins(%921, %923 : tensor<1024x1536xf32>, tensor<1536x1536xf32>) outs(%cst_251 : tensor<1024x1536xf32>) -> tensor<1024x1536xf32>
    %925 = tosa.reshape %arg90 {new_shape = array<i64: 1, 1536>} : (tensor<1536xf32>) -> tensor<1x1536xf32>
    %926 = tosa.add %925, %924 : (tensor<1x1536xf32>, tensor<1024x1536xf32>) -> tensor<1024x1536xf32>
    %927 = tosa.reshape %926 {new_shape = array<i64: 1, 1024, 1536>} : (tensor<1024x1536xf32>) -> tensor<1x1024x1536xf32>
    %928 = tosa.reshape %920 {new_shape = array<i64: 1024, 1536>} : (tensor<1x1024x1536xf32>) -> tensor<1024x1536xf32>
    %929 = "tosa.const"() <{value = dense<[1, 0]> : tensor<2xi32>}> : () -> tensor<2xi32>
…
    %inserted_slice_837 = tensor.insert_slice %extracted_slice_834 into %inserted_slice_836[0, 0, 0, 64] [1, 2, 1024, 64] [1, 1, 1, 1] : tensor<1x2x1024x64xf32> into tensor<1x2x1024x128xf32>
    %3159 = tosa.mul %inserted_slice_837, %3148 : (tensor<1x2x1024x128xf32>, tensor<1x1x1024x128xf32>) -> tensor<1x2x1024x128xf32>
    %3160 = tosa.add %3155, %3159 : (tensor<1x2x1024x128xf32>, tensor<1x2x1024x128xf32>) -> tensor<1x2x1024x128xf32>
    %extracted_slice_838 = tensor.extract_slice %3160[0, 0, 0, 0] [1, 2, 1024, 128] [1, 1, 1, 1] : tensor<1x2x1024x128xf32> to tensor<1x2x1024x128xf32>
    %extracted_slice_839 = tensor.extract_slice %extracted_slice_838[0, 0, 0, 0] [1, 2, 1024, 128] [1, 1, 1, 1] : tensor<1x2x1024x128xf32> to tensor<1x2x1024x128xf32>
    %3161 = tosa.reshape %extracted_slice_839 {new_shape = array<i64: 1, 2, 1, 1024, 128>} : (tensor<1x2x1024x128xf32>) -> tensor<1x2x1x1024x128xf32>
    %extracted_slice_840 = tensor.extract_slice %3161[0, 0, 0, 0, 0] [1, 2, 1, 1024, 128] [1, 1, 1, 1, 1] : tensor<1x2x1x1024x128xf32> to tensor<1x2x1x1024x128xf32>
    %extracted_slice_841 = tensor.extract_slice %extracted_slice_840[0, 0, 0, 0, 0] [1, 2, 1, 1024, 128] [1, 1, 1, 1, 1] : tensor<1x2x1x1024x128xf32> to tensor<1x2x1x1024x128xf32>
    %3162 = "tosa.const"() <{value = dense<0.000000e+00> : tensor<1x2x6x1024x128xf32>}> : () -> tensor<1x2x6x1024x128xf32>
    %3163 = tosa.add %extracted_slice_841, %3162 : (tensor<1x2x1x1024x128xf32>, tensor<1x2x6x1024x128xf32>) -> tensor<1x2x6x1024x128xf32>
    %3164 = tosa.identity %3163 : (tensor<1x2x6x1024x128xf32>) -> tensor<1x2x6x1024x128xf32>
    %3165 = tosa.reshape %3164 {new_shape = array<i64: 1, 12, 1024, 128>} : (tensor<1x2x6x1024x128xf32>) -> tensor<1x12x1024x128xf32>
    %extracted_slice_842 = tensor.extract_slice %3146[0, 0, 0, 0] [1, 2, 1024, 128] [1, 1, 1, 1] : tensor<1x2x1024x128xf32> to tensor<1x2x1024x128xf32>
    %extracted_slice_843 = tensor.extract_slice %extracted_slice_842[0, 0, 0, 0] [1, 2, 1024, 128] [1, 1, 1, 1] : tensor<1x2x1024x128xf32> to tensor<1x2x1024x128xf32>
    %3166 = tosa.reshape %extracted_slice_843 {new_shape = array<i64: 1, 2, 1, 1024, 128>} : (tensor<1x2x1024x128xf32>) -> tensor<1x2x1x1024x128xf32>
    %extracted_slice_844 = tensor.extract_slice %3166[0, 0, 0, 0, 0] [1, 2, 1, 1024, 128] [1, 1, 1, 1, 1] : tensor<1x2x1x1024x128xf32> to tensor<1x2x1x1024x128xf32>
    %extracted_slice_845 = tensor.extract_slice %extracted_slice_844[0, 0, 0, 0, 0] [1, 2, 1, 1024, 128] [1, 1, 1, 1, 1] : tensor<1x2x1x1024x128xf32> to tensor<1x2x1x1024x128xf32>
    %3167 = "tosa.const"() <{value = dense<0.000000e+00> : tensor<1x2x6x1024x128xf32>}> : () -> tensor<1x2x6x1024x128xf32>
    %3168 = tosa.add %extracted_slice_845, %3167 : (tensor<1x2x1x1024x128xf32>, tensor<1x2x6x1024x128xf32>) -> tensor<1x2x6x1024x128xf32>
    %3169 = tosa.identity %3168 : (tensor<1x2x6x1024x128xf32>) -> tensor<1x2x6x1024x128xf32>
    %3170 = tosa.reshape %3169 {new_shape = array<i64: 1, 12, 1024, 128>} : (tensor<1x2x6x1024x128xf32>) -> tensor<1x12x1024x128xf32>
    %extracted_slice_846 = tensor.extract_slice %inserted_slice_21[0, 0, 0, 0] [1, 1, 1024, 1024] [1, 1, 1, 1] : tensor<1x1x1024x1024xf32> to tensor<1x1x1024x1024xf32>
    %extracted_slice_847 = tensor.extract_slice %extracted_slice_846[0, 0, 0, 0] [1, 1, 1024, 1024] [1, 1, 1, 1] : tensor<1x1x1024x1024xf32> to tensor<1x1x1024x1024xf32>
    %extracted_slice_848 = tensor.extract_slice %extracted_slice_847[0, 0, 0, 0] [1, 1, 1024, 1024] [1, 1, 1, 1] : tensor<1x1x1024x1024xf32> to tensor<1x1x1024x1024xf32>
    %cst_849 = arith.constant 0.000000e+00 : f32
    %splat_850 = tensor.splat %cst_849 : tensor<1024x1024xf32>
    %3171 = tosa.reshape %extracted_slice_848 {new_shape = array<i64: 1024, 1024>} : (tensor<1x1x1024x1024xf32>) -> tensor<1024x1024xf32>
    %3172 = tosa.add %splat_850, %3171 : (tensor<1024x1024xf32>, tensor<1024x1024xf32>) -> tensor<1024x1024xf32>
    %3173 = "tosa.const"() <{value = dense<[0, 1, 3, 2]> : tensor<4xi32>}> : () -> tensor<4xi32>
    %3174 = tosa.transpose %3165, %3173 : (tensor<1x12x1024x128xf32>, tensor<4xi32>) -> tensor<1x12x128x1024xf32>
    %3175 = tosa.reshape %3154 {new_shape = array<i64: 12, 1024, 128>} : (tensor<1x12x1024x128xf32>) -> tensor<12x1024x128xf32>
    %3176 = tosa.reshape %3174 {new_shape = array<i64: 12, 128, 1024>} : (tensor<1x12x128x1024xf32>) -> tensor<12x128x1024xf32>
    %3177 = tosa.matmul %3175, %3176 : (tensor<12x1024x128xf32>, tensor<12x128x1024xf32>) -> tensor<12x1024x1024xf32>
    %cst_851 = arith.constant 0.0883883461 : f32
    %splat_852 = tensor.splat %cst_851 : tensor<12x1024x1024xf32>
    %3178 = tosa.mul %3177, %splat_852 : (tensor<12x1024x1024xf32>, tensor<12x1024x1024xf32>) -> tensor<12x1024x1024xf32>
    %3179 = tosa.reshape %3172 {new_shape = array<i64: 1, 1024, 1024>} : (tensor<1024x1024xf32>) -> tensor<1x1024x1024xf32>
    %3180 = tosa.add %3178, %3179 : (tensor<12x1024x1024xf32>, tensor<1x1024x1024xf32>) -> tensor<12x1024x1024xf32>
    %3181 = tosa.reduce_max %3180 {axis = 2 : i32} : (tensor<12x1024x1024xf32>) -> tensor<12x1024x1xf32>
    %3182 = tosa.sub %3180, %3181 : (tensor<12x1024x1024xf32>, tensor<12x1024x1xf32>) -> tensor<12x1024x1024xf32>
    %3183 = math.exp %3182 : tensor<12x1024x1024xf32>
    %3184 = tosa.reduce_sum %3183 {axis = 2 : i32} : (tensor<12x1024x1024xf32>) -> tensor<12x1024x1xf32>
    %3185 = tosa.log %3184 : (tensor<12x1024x1xf32>) -> tensor<12x1024x1xf32>
    %3186 = tosa.add %3181, %3185 : (tensor<12x1024x1xf32>, tensor<12x1024x1xf32>) -> tensor<12x1024x1xf32>
    %3187 = tosa.sub %3180, %3186 : (tensor<12x1024x1024xf32>, tensor<12x1024x1xf32>) -> tensor<12x1024x1024xf32>
    %3188 = math.exp %3187 : tensor<12x1024x1024xf32>
    %3189 = tosa.reshape %3186 {new_shape = array<i64: 1, 12, 1024>} : (tensor<12x1024x1xf32>) -> tensor<1x12x1024xf32>
    %3190 = tosa.reshape %3170 {new_shape = array<i64: 12, 1024, 128>} : (tensor<1x12x1024x128xf32>) -> tensor<12x1024x128xf32>
    %3191 = tosa.matmul %3188, %3190 : (tensor<12x1024x1024xf32>, tensor<12x1024x128xf32>) -> tensor<12x1024x128xf32>
    %3192 = tosa.reshape %3191 {new_shape = array<i64: 1, 12, 1024, 128>} : (tensor<12x1024x128xf32>) -> tensor<1x12x1024x128xf32>
    %3193 = "tosa.const"() <{value = dense<[0, 2, 1, 3]> : tensor<4xi32>}> : () -> tensor<4xi32>
    %3194 = tosa.transpose %3192, %3193 : (tensor<1x12x1024x128xf32>, tensor<4xi32>) -> tensor<1x1024x12x128xf32>
    %3195 = tosa.reshape %3194 {new_shape = array<i64: 1, 1024, 1536>} : (tensor<1x1024x12x128xf32>) -> tensor<1x1024x1536xf32>
    %3196 = tosa.reshape %3195 {new_shape = array<i64: 1024, 1536>} : (tensor<1x1024x1536xf32>) -> tensor<1024x1536xf32>
    %cst_853 = arith.constant dense<0.000000e+00> : tensor<1024x1536xf32>
    %3197 = linalg.matmul_transpose_b {cast = #linalg.type_fn<cast_signed>} ins(%3196, %arg311 : tensor<1024x1536xf32>, tensor<1536x1536xf32>) outs(%cst_853 : tensor<1024x1536xf32>) -> tensor<1024x1536xf32>
    %3198 = tosa.reshape %3197 {new_shape = array<i64: 1, 1024, 1536>} : (tensor<1024x1536xf32>) -> tensor<1x1024x1536xf32>
    %3199 = tosa.add %3103, %3198 : (tensor<1x1024x1536xf32>, tensor<1x1024x1536xf32>) -> tensor<1x1024x1536xf32>
    %3200 = tensor.empty() : tensor<1x1024x1536xf32>
    %c2_i32_854 = arith.constant 2 : i32
    %3201 = linalg.generic {indexing_maps = [#map4, #map4], iterator_types = ["parallel", "parallel", "parallel"]} ins(%3199 : tensor<1x1024x1536xf32>) outs(%3200 : tensor<1x1024x1536xf32>) {
    ^bb0(%in: f32, %out: f32):
      %3486 = math.fpowi %in, %c2_i32_854 : f32, i32
      linalg.yield %3486 : f32
    } -> tensor<1x1024x1536xf32>
    %3202 = tosa.reduce_sum %3201 {axis = 2 : i32} : (tensor<1x1024x1536xf32>) -> tensor<1x1024x1xf32>
    %3203 = "tosa.const"() <{value = dense<1.536000e+03> : tensor<1xf32>}> : () -> tensor<1xf32>
    %3204 = tosa.reciprocal %3203 : (tensor<1xf32>) -> tensor<1xf32>
    %3205 = tosa.reshape %3204 {new_shape = array<i64: 1, 1, 1>} : (tensor<1xf32>) -> tensor<1x1x1xf32>
    %3206 = tosa.mul %3205, %3202 : (tensor<1x1x1xf32>, tensor<1x1024x1xf32>) -> tensor<1x1024x1xf32>
    %3207 = "tosa.const"() <{value = dense<9.99999997E-7> : tensor<1x1024x1xf32>}> : () -> tensor<1x1024x1xf32>
    %3208 = tosa.add %3206, %3207 : (tensor<1x1024x1xf32>, tensor<1x1024x1xf32>) -> tensor<1x1024x1xf32>
    %3209 = tosa.rsqrt %3208 : (tensor<1x1024x1xf32>) -> tensor<1x1024x1xf32>
    %3210 = tosa.mul %3199, %3209 : (tensor<1x1024x1536xf32>, tensor<1x1024x1xf32>) -> tensor<1x1024x1536xf32>
    %3211 = tosa.reshape %arg312 {new_shape = array<i64: 1, 1, 1536>} : (tensor<1536xf32>) -> tensor<1x1x1536xf32>
    %3212 = tosa.mul %3211, %3210 : (tensor<1x1x1536xf32>, tensor<1x1024x1536xf32>) -> tensor<1x1024x1536xf32>
    %3213 = tosa.reshape %3212 {new_shape = array<i64: 1024, 1536>} : (tensor<1x1024x1536xf32>) -> tensor<1024x1536xf32>
    %cst_855 = arith.constant dense<0.000000e+00> : tensor<1024x8960xf32>
    %3214 = linalg.matmul_transpose_b {cast = #linalg.type_fn<cast_signed>} ins(%3213, %arg313 : tensor<1024x1536xf32>, tensor<8960x1536xf32>) outs(%cst_855 : tensor<1024x8960xf32>) -> tensor<1024x8960xf32>
    %3215 = tosa.reshape %3214 {new_shape = array<i64: 1, 1024, 8960>} : (tensor<1024x8960xf32>) -> tensor<1x1024x8960xf32>
    %3216 = tosa.sigmoid %3215 : (tensor<1x1024x8960xf32>) -> tensor<1x1024x8960xf32>
    %3217 = tosa.mul %3215, %3216 : (tensor<1x1024x8960xf32>, tensor<1x1024x8960xf32>) -> tensor<1x1024x8960xf32>
    %3218 = tosa.reshape %3212 {new_shape = array<i64: 1024, 1536>} : (tensor<1x1024x1536xf32>) -> tensor<1024x1536xf32>
    %cst_856 = arith.constant dense<0.000000e+00> : tensor<1024x8960xf32>
    %3219 = linalg.matmul_transpose_b {cast = #linalg.type_fn<cast_signed>} ins(%3218, %arg314 : tensor<1024x1536xf32>, tensor<8960x1536xf32>) outs(%cst_856 : tensor<1024x8960xf32>) -> tensor<1024x8960xf32>
    %3220 = tosa.reshape %3219 {new_shape = array<i64: 1, 1024, 8960>} : (tensor<1024x8960xf32>) -> tensor<1x1024x8960xf32>
    %3221 = tosa.mul %3217, %3220 : (tensor<1x1024x8960xf32>, tensor<1x1024x8960xf32>) -> tensor<1x1024x8960xf32>
    %3222 = tosa.reshape %3221 {new_shape = array<i64: 1024, 8960>} : (tensor<1x1024x8960xf32>) -> tensor<1024x8960xf32>
    %cst_857 = arith.constant dense<0.000000e+00> : tensor<1024x1536xf32>
    %3223 = linalg.matmul_transpose_b {cast = #linalg.type_fn<cast_signed>} ins(%3222, %arg315 : tensor<1024x8960xf32>, tensor<1536x8960xf32>) outs(%cst_857 : tensor<1024x1536xf32>) -> tensor<1024x1536xf32>
    %3224 = tosa.reshape %3223 {new_shape = array<i64: 1, 1024, 1536>} : (tensor<1024x1536xf32>) -> tensor<1x1024x1536xf32>
    %3225 = tosa.add %3199, %3224 : (tensor<1x1024x1536xf32>, tensor<1x1024x1536xf32>) -> tensor<1x1024x1536xf32>
    %3226 = tensor.empty() : tensor<1x1024x1536xf32>
    %c2_i32_858 = arith.constant 2 : i32
    %3227 = linalg.generic {indexing_maps = [#map4, #map4], iterator_types = ["parallel", "parallel", "parallel"]} ins(%3225 : tensor<1x1024x1536xf32>) outs(%3226 : tensor<1x1024x1536xf32>) {
    ^bb0(%in: f32, %out: f32):
      %3486 = math.fpowi %in, %c2_i32_858 : f32, i32
      linalg.yield %3486 : f32
    } -> tensor<1x1024x1536xf32>
    %3228 = tosa.reduce_sum %3227 {axis = 2 : i32} : (tensor<1x1024x1536xf32>) -> tensor<1x1024x1xf32>
    %3229 = "tosa.const"() <{value = dense<1.536000e+03> : tensor<1xf32>}> : () -> tensor<1xf32>
    %3230 = tosa.reciprocal %3229 : (tensor<1xf32>) -> tensor<1xf32>
    %3231 = tosa.reshape %3230 {new_shape = array<i64: 1, 1, 1>} : (tensor<1xf32>) -> tensor<1x1x1xf32>
    %3232 = tosa.mul %3231, %3228 : (tensor<1x1x1xf32>, tensor<1x1024x1xf32>) -> tensor<1x1024x1xf32>
    %3233 = "tosa.const"() <{value = dense<9.99999997E-7> : tensor<1x1024x1xf32>}> : () -> tensor<1x1024x1xf32>
    %3234 = tosa.add %3232, %3233 : (tensor<1x1024x1xf32>, tensor<1x1024x1xf32>) -> tensor<1x1024x1xf32>
    %3235 = tosa.rsqrt %3234 : (tensor<1x1024x1xf32>) -> tensor<1x1024x1xf32>
    %3236 = tosa.mul %3225, %3235 : (tensor<1x1024x1536xf32>, tensor<1x1024x1xf32>) -> tensor<1x1024x1536xf32>
    %3237 = tosa.reshape %arg316 {new_shape = array<i64: 1, 1, 1536>} : (tensor<1536xf32>) -> tensor<1x1x1536xf32>
    %3238 = tosa.mul %3237, %3236 : (tensor<1x1x1536xf32>, tensor<1x1024x1536xf32>) -> tensor<1x1024x1536xf32>
    %3239 = tosa.reshape %3238 {new_shape = array<i64: 1024, 1536>} : (tensor<1x1024x1536xf32>) -> tensor<1024x1536xf32>
    %3240 = "tosa.const"() <{value = dense<[1, 0]> : tensor<2xi32>}> : () -> tensor<2xi32>
    %3241 = tosa.transpose %arg317, %3240 : (tensor<1536x1536xf32>, tensor<2xi32>) -> tensor<1536x1536xf32>
    %cst_859 = arith.constant dense<0.000000e+00> : tensor<1024x1536xf32>
    %3242 = linalg.matmul {cast = #linalg.type_fn<cast_signed>} ins(%3239, %3241 : tensor<1024x1536xf32>, tensor<1536x1536xf32>) outs(%cst_859 : tensor<1024x1536xf32>) -> tensor<1024x1536xf32>
    %3243 = tosa.reshape %arg318 {new_shape = array<i64: 1, 1536>} : (tensor<1536xf32>) -> tensor<1x1536xf32>
    %3244 = tosa.add %3243, %3242 : (tensor<1x1536xf32>, tensor<1024x1536xf32>) -> tensor<1024x1536xf32>
    %3245 = tosa.reshape %3244 {new_shape = array<i64: 1, 1024, 1536>} : (tensor<1024x1536xf32>) -> tensor<1x1024x1536xf32>
    %3246 = tosa.reshape %3238 {new_shape = array<i64: 1024, 1536>} : (tensor<1x1024x1536xf32>) -> tensor<1024x1536xf32>
    %3247 = "tosa.const"() <{value = dense<[1, 0]> : tensor<2xi32>}> : () -> tensor<2xi32>
    %3248 = tosa.transpose %arg319, %3247 : (tensor<256x1536xf32>, tensor<2xi32>) -> tensor<1536x256xf32>
    %cst_860 = arith.constant dense<0.000000e+00> : tensor<1024x256xf32>
    %3249 = linalg.matmul {cast = #linalg.type_fn<cast_signed>} ins(%3246, %3248 : tensor<1024x1536xf32>, tensor<1536x256xf32>) outs(%cst_860 : tensor<1024x256xf32>) -> tensor<1024x256xf32>
    %3250 = tosa.reshape %arg320 {new_shape = array<i64: 1, 256>} : (tensor<256xf32>) -> tensor<1x256xf32>
    %3251 = tosa.add %3250, %3249 : (tensor<1x256xf32>, tensor<1024x256xf32>) -> tensor<1024x256xf32>
    %3252 = tosa.reshape %3251 {new_shape = array<i64: 1, 1024, 256>} : (tensor<1024x256xf32>) -> tensor<1x1024x256xf32>
    %3253 = tosa.reshape %3238 {new_shape = array<i64: 1024, 1536>} : (tensor<1x1024x1536xf32>) -> tensor<1024x1536xf32>
    %3254 = "tosa.const"() <{value = dense<[1, 0]> : tensor<2xi32>}> : () -> tensor<2xi32>
    %3255 = tosa.transpose %arg321, %3254 : (tensor<256x1536xf32>, tensor<2xi32>) -> tensor<1536x256xf32>
    %cst_861 = arith.constant dense<0.000000e+00> : tensor<1024x256xf32>
    %3256 = linalg.matmul {cast = #linalg.type_fn<cast_signed>} ins(%3253, %3255 : tensor<1024x1536xf32>, tensor<1536x256xf32>) outs(%cst_861 : tensor<1024x256xf32>) -> tensor<1024x256xf32>
    %3257 = tosa.reshape %arg322 {new_shape = array<i64: 1, 256>} : (tensor<256xf32>) -> tensor<1x256xf32>
    %3258 = tosa.add %3257, %3256 : (tensor<1x256xf32>, tensor<1024x256xf32>) -> tensor<1024x256xf32>
    %3259 = tosa.reshape %3258 {new_shape = array<i64: 1, 1024, 256>} : (tensor<1024x256xf32>) -> tensor<1x1024x256xf32>
    %3260 = tosa.reshape %3245 {new_shape = array<i64: 1, 1024, 12, 128>} : (tensor<1x1024x1536xf32>) -> tensor<1x1024x12x128xf32>
    %3261 = "tosa.const"() <{value = dense<[0, 2, 1, 3]> : tensor<4xi32>}> : () -> tensor<4xi32>
    %3262 = tosa.transpose %3260, %3261 : (tensor<1x1024x12x128xf32>, tensor<4xi32>) -> tensor<1x12x1024x128xf32>
    %3263 = tosa.reshape %3252 {new_shape = array<i64: 1, 1024, 2, 128>} : (tensor<1x1024x256xf32>) -> tensor<1x1024x2x128xf32>
    %3264 = "tosa.const"() <{value = dense<[0, 2, 1, 3]> : tensor<4xi32>}> : () -> tensor<4xi32>
    %3265 = tosa.transpose %3263, %3264 : (tensor<1x1024x2x128xf32>, tensor<4xi32>) -> tensor<1x2x1024x128xf32>
    %3266 = tosa.reshape %3259 {new_shape = array<i64: 1, 1024, 2, 128>} : (tensor<1x1024x256xf32>) -> tensor<1x1024x2x128xf32>
    %3267 = "tosa.const"() <{value = dense<[0, 2, 1, 3]> : tensor<4xi32>}> : () -> tensor<4xi32>
    %3268 = tosa.transpose %3266, %3267 : (tensor<1x1024x2x128xf32>, tensor<4xi32>) -> tensor<1x2x1024x128xf32>
    %3269 = tosa.reshape %51 {new_shape = array<i64: 1, 1, 1024, 128>} : (tensor<1x1024x128xf32>) -> tensor<1x1x1024x128xf32>
    %3270 = tosa.reshape %53 {new_shape = array<i64: 1, 1, 1024, 128>} : (tensor<1x1024x128xf32>) -> tensor<1x1x1024x128xf32>
    %3271 = tosa.mul %3262, %3269 : (tensor<1x12x1024x128xf32>, tensor<1x1x1024x128xf32>) -> tensor<1x12x1024x128xf32>
    %extracted_slice_862 = tensor.extract_slice %3262[0, 0, 0, 0] [1, 12, 1024, 64] [1, 1, 1, 1] : tensor<1x12x1024x128xf32> to tensor<1x12x1024x64xf32>
    %extracted_slice_863 = tensor.extract_slice %3262[0, 0, 0, 64] [1, 12, 1024, 64] [1, 1, 1, 1] : tensor<1x12x1024x128xf32> to tensor<1x12x1024x64xf32>
    %3272 = tensor.empty() : tensor<1x12x1024x64xf32>
    %3273 = linalg.negf ins(%extracted_slice_863 : tensor<1x12x1024x64xf32>) outs(%3272 : tensor<1x12x1024x64xf32>) -> tensor<1x12x1024x64xf32>
    %3274 = tensor.empty() : tensor<1x12x1024x128xf32>
    %inserted_slice_864 = tensor.insert_slice %3273 into %3274[0, 0, 0, 0] [1, 12, 1024, 64] [1, 1, 1, 1] : tensor<1x12x1024x64xf32> into tensor<1x12x1024x128xf32>
    %inserted_slice_865 = tensor.insert_slice %extracted_slice_862 into %inserted_slice_864[0, 0, 0, 64] [1, 12, 1024, 64] [1, 1, 1, 1] : tensor<1x12x1024x64xf32> into tensor<1x12x1024x128xf32>
    %3275 = tosa.mul %inserted_slice_865, %3270 : (tensor<1x12x1024x128xf32>, tensor<1x1x1024x128xf32>) -> tensor<1x12x1024x128xf32>
    %3276 = tosa.add %3271, %3275 : (tensor<1x12x1024x128xf32>, tensor<1x12x1024x128xf32>) -> tensor<1x12x1024x128xf32>
    %3277 = tosa.mul %3265, %3269 : (tensor<1x2x1024x128xf32>, tensor<1x1x1024x128xf32>) -> tensor<1x2x1024x128xf32>
    %extracted_slice_866 = tensor.extract_slice %3265[0, 0, 0, 0] [1, 2, 1024, 64] [1, 1, 1, 1] : tensor<1x2x1024x128xf32> to tensor<1x2x1024x64xf32>
    %extracted_slice_867 = tensor.extract_slice %3265[0, 0, 0, 64] [1, 2, 1024, 64] [1, 1, 1, 1] : tensor<1x2x1024x128xf32> to tensor<1x2x1024x64xf32>
    %3278 = tensor.empty() : tensor<1x2x1024x64xf32>
    %3279 = linalg.negf ins(%extracted_slice_867 : tensor<1x2x1024x64xf32>) outs(%3278 : tensor<1x2x1024x64xf32>) -> tensor<1x2x1024x64xf32>
    %3280 = tensor.empty() : tensor<1x2x1024x128xf32>
    %inserted_slice_868 = tensor.insert_slice %3279 into %3280[0, 0, 0, 0] [1, 2, 1024, 64] [1, 1, 1, 1] : tensor<1x2x1024x64xf32> into tensor<1x2x1024x128xf32>
    %inserted_slice_869 = tensor.insert_slice %extracted_slice_866 into %inserted_slice_868[0, 0, 0, 64] [1, 2, 1024, 64] [1, 1, 1, 1] : tensor<1x2x1024x64xf32> into tensor<1x2x1024x128xf32>
    %3281 = tosa.mul %inserted_slice_869, %3270 : (tensor<1x2x1024x128xf32>, tensor<1x1x1024x128xf32>) -> tensor<1x2x1024x128xf32>
    %3282 = tosa.add %3277, %3281 : (tensor<1x2x1024x128xf32>, tensor<1x2x1024x128xf32>) -> tensor<1x2x1024x128xf32>
    %extracted_slice_870 = tensor.extract_slice %3282[0, 0, 0, 0] [1, 2, 1024, 128] [1, 1, 1, 1] : tensor<1x2x1024x128xf32> to tensor<1x2x1024x128xf32>
    %extracted_slice_871 = tensor.extract_slice %extracted_slice_870[0, 0, 0, 0] [1, 2, 1024, 128] [1, 1, 1, 1] : tensor<1x2x1024x128xf32> to tensor<1x2x1024x128xf32>
    %3283 = tosa.reshape %extracted_slice_871 {new_shape = array<i64: 1, 2, 1, 1024, 128>} : (tensor<1x2x1024x128xf32>) -> tensor<1x2x1x1024x128xf32>
    %extracted_slice_872 = tensor.extract_slice %3283[0, 0, 0, 0, 0] [1, 2, 1, 1024, 128] [1, 1, 1, 1, 1] : tensor<1x2x1x1024x128xf32> to tensor<1x2x1x1024x128xf32>
    %extracted_slice_873 = tensor.extract_slice %extracted_slice_872[0, 0, 0, 0, 0] [1, 2, 1, 1024, 128] [1, 1, 1, 1, 1] : tensor<1x2x1x1024x128xf32> to tensor<1x2x1x1024x128xf32>
    %3284 = "tosa.const"() <{value = dense<0.000000e+00> : tensor<1x2x6x1024x128xf32>}> : () -> tensor<1x2x6x1024x128xf32>
    %3285 = tosa.add %extracted_slice_873, %3284 : (tensor<1x2x1x1024x128xf32>, tensor<1x2x6x1024x128xf32>) -> tensor<1x2x6x1024x128xf32>
    %3286 = tosa.identity %3285 : (tensor<1x2x6x1024x128xf32>) -> tensor<1x2x6x1024x128xf32>
    %3287 = tosa.reshape %3286 {new_shape = array<i64: 1, 12, 1024, 128>} : (tensor<1x2x6x1024x128xf32>) -> tensor<1x12x1024x128xf32>
    %extracted_slice_874 = tensor.extract_slice %3268[0, 0, 0, 0] [1, 2, 1024, 128] [1, 1, 1, 1] : tensor<1x2x1024x128xf32> to tensor<1x2x1024x128xf32>
    %extracted_slice_875 = tensor.extract_slice %extracted_slice_874[0, 0, 0, 0] [1, 2, 1024, 128] [1, 1, 1, 1] : tensor<1x2x1024x128xf32> to tensor<1x2x1024x128xf32>
    %3288 = tosa.reshape %extracted_slice_875 {new_shape = array<i64: 1, 2, 1, 1024, 128>} : (tensor<1x2x1024x128xf32>) -> tensor<1x2x1x1024x128xf32>
    %extracted_slice_876 = tensor.extract_slice %3288[0, 0, 0, 0, 0] [1, 2, 1, 1024, 128] [1, 1, 1, 1, 1] : tensor<1x2x1x1024x128xf32> to tensor<1x2x1x1024x128xf32>
    %extracted_slice_877 = tensor.extract_slice %extracted_slice_876[0, 0, 0, 0, 0] [1, 2, 1, 1024, 128] [1, 1, 1, 1, 1] : tensor<1x2x1x1024x128xf32> to tensor<1x2x1x1024x128xf32>
    %3289 = "tosa.const"() <{value = dense<0.000000e+00> : tensor<1x2x6x1024x128xf32>}> : () -> tensor<1x2x6x1024x128xf32>
    %3290 = tosa.add %extracted_slice_877, %3289 : (tensor<1x2x1x1024x128xf32>, tensor<1x2x6x1024x128xf32>) -> tensor<1x2x6x1024x128xf32>
    %3291 = tosa.identity %3290 : (tensor<1x2x6x1024x128xf32>) -> tensor<1x2x6x1024x128xf32>
    %3292 = tosa.reshape %3291 {new_shape = array<i64: 1, 12, 1024, 128>} : (tensor<1x2x6x1024x128xf32>) -> tensor<1x12x1024x128xf32>
    %extracted_slice_878 = tensor.extract_slice %inserted_slice_21[0, 0, 0, 0] [1, 1, 1024, 1024] [1, 1, 1, 1] : tensor<1x1x1024x1024xf32> to tensor<1x1x1024x1024xf32>
    %extracted_slice_879 = tensor.extract_slice %extracted_slice_878[0, 0, 0, 0] [1, 1, 1024, 1024] [1, 1, 1, 1] : tensor<1x1x1024x1024xf32> to tensor<1x1x1024x1024xf32>
    %extracted_slice_880 = tensor.extract_slice %extracted_slice_879[0, 0, 0, 0] [1, 1, 1024, 1024] [1, 1, 1, 1] : tensor<1x1x1024x1024xf32> to tensor<1x1x1024x1024xf32>
    %cst_881 = arith.constant 0.000000e+00 : f32
    %splat_882 = tensor.splat %cst_881 : tensor<1024x1024xf32>
    %3293 = tosa.reshape %extracted_slice_880 {new_shape = array<i64: 1024, 1024>} : (tensor<1x1x1024x1024xf32>) -> tensor<1024x1024xf32>
    %3294 = tosa.add %splat_882, %3293 : (tensor<1024x1024xf32>, tensor<1024x1024xf32>) -> tensor<1024x1024xf32>
    %3295 = "tosa.const"() <{value = dense<[0, 1, 3, 2]> : tensor<4xi32>}> : () -> tensor<4xi32>
    %3296 = tosa.transpose %3287, %3295 : (tensor<1x12x1024x128xf32>, tensor<4xi32>) -> tensor<1x12x128x1024xf32>
    %3297 = tosa.reshape %3276 {new_shape = array<i64: 12, 1024, 128>} : (tensor<1x12x1024x128xf32>) -> tensor<12x1024x128xf32>
    %3298 = tosa.reshape %3296 {new_shape = array<i64: 12, 128, 1024>} : (tensor<1x12x128x1024xf32>) -> tensor<12x128x1024xf32>
    %3299 = tosa.matmul %3297, %3298 : (tensor<12x1024x128xf32>, tensor<12x128x1024xf32>) -> tensor<12x1024x1024xf32>
    %cst_883 = arith.constant 0.0883883461 : f32
    %splat_884 = tensor.splat %cst_883 : tensor<12x1024x1024xf32>
    %3300 = tosa.mul %3299, %splat_884 : (tensor<12x1024x1024xf32>, tensor<12x1024x1024xf32>) -> tensor<12x1024x1024xf32>
    %3301 = tosa.reshape %3294 {new_shape = array<i64: 1, 1024, 1024>} : (tensor<1024x1024xf32>) -> tensor<1x1024x1024xf32>
    %3302 = tosa.add %3300, %3301 : (tensor<12x1024x1024xf32>, tensor<1x1024x1024xf32>) -> tensor<12x1024x1024xf32>
    %3303 = tosa.reduce_max %3302 {axis = 2 : i32} : (tensor<12x1024x1024xf32>) -> tensor<12x1024x1xf32>
    %3304 = tosa.sub %3302, %3303 : (tensor<12x1024x1024xf32>, tensor<12x1024x1xf32>) -> tensor<12x1024x1024xf32>
    %3305 = math.exp %3304 : tensor<12x1024x1024xf32>
    %3306 = tosa.reduce_sum %3305 {axis = 2 : i32} : (tensor<12x1024x1024xf32>) -> tensor<12x1024x1xf32>
    %3307 = tosa.log %3306 : (tensor<12x1024x1xf32>) -> tensor<12x1024x1xf32>
    %3308 = tosa.add %3303, %3307 : (tensor<12x1024x1xf32>, tensor<12x1024x1xf32>) -> tensor<12x1024x1xf32>
    %3309 = tosa.sub %3302, %3308 : (tensor<12x1024x1024xf32>, tensor<12x1024x1xf32>) -> tensor<12x1024x1024xf32>
    %3310 = math.exp %3309 : tensor<12x1024x1024xf32>
    %3311 = tosa.reshape %3308 {new_shape = array<i64: 1, 12, 1024>} : (tensor<12x1024x1xf32>) -> tensor<1x12x1024xf32>
    %3312 = tosa.reshape %3292 {new_shape = array<i64: 12, 1024, 128>} : (tensor<1x12x1024x128xf32>) -> tensor<12x1024x128xf32>
    %3313 = tosa.matmul %3310, %3312 : (tensor<12x1024x1024xf32>, tensor<12x1024x128xf32>) -> tensor<12x1024x128xf32>
    %3314 = tosa.reshape %3313 {new_shape = array<i64: 1, 12, 1024, 128>} : (tensor<12x1024x128xf32>) -> tensor<1x12x1024x128xf32>
    %3315 = "tosa.const"() <{value = dense<[0, 2, 1, 3]> : tensor<4xi32>}> : () -> tensor<4xi32>
    %3316 = tosa.transpose %3314, %3315 : (tensor<1x12x1024x128xf32>, tensor<4xi32>) -> tensor<1x1024x12x128xf32>
    %3317 = tosa.reshape %3316 {new_shape = array<i64: 1, 1024, 1536>} : (tensor<1x1024x12x128xf32>) -> tensor<1x1024x1536xf32>
    %3318 = tosa.reshape %3317 {new_shape = array<i64: 1024, 1536>} : (tensor<1x1024x1536xf32>) -> tensor<1024x1536xf32>
    %cst_885 = arith.constant dense<0.000000e+00> : tensor<1024x1536xf32>
    %3319 = linalg.matmul_transpose_b {cast = #linalg.type_fn<cast_signed>} ins(%3318, %arg323 : tensor<1024x1536xf32>, tensor<1536x1536xf32>) outs(%cst_885 : tensor<1024x1536xf32>) -> tensor<1024x1536xf32>
    %3320 = tosa.reshape %3319 {new_shape = array<i64: 1, 1024, 1536>} : (tensor<1024x1536xf32>) -> tensor<1x1024x1536xf32>
    %3321 = tosa.add %3225, %3320 : (tensor<1x1024x1536xf32>, tensor<1x1024x1536xf32>) -> tensor<1x1024x1536xf32>
    %3322 = tensor.empty() : tensor<1x1024x1536xf32>
    %c2_i32_886 = arith.constant 2 : i32
    %3323 = linalg.generic {indexing_maps = [#map4, #map4], iterator_types = ["parallel", "parallel", "parallel"]} ins(%3321 : tensor<1x1024x1536xf32>) outs(%3322 : tensor<1x1024x1536xf32>) {
    ^bb0(%in: f32, %out: f32):
      %3486 = math.fpowi %in, %c2_i32_886 : f32, i32
      linalg.yield %3486 : f32
    } -> tensor<1x1024x1536xf32>
    %3324 = tosa.reduce_sum %3323 {axis = 2 : i32} : (tensor<1x1024x1536xf32>) -> tensor<1x1024x1xf32>
    %3325 = "tosa.const"() <{value = dense<1.536000e+03> : tensor<1xf32>}> : () -> tensor<1xf32>
    %3326 = tosa.reciprocal %3325 : (tensor<1xf32>) -> tensor<1xf32>
    %3327 = tosa.reshape %3326 {new_shape = array<i64: 1, 1, 1>} : (tensor<1xf32>) -> tensor<1x1x1xf32>
    %3328 = tosa.mul %3327, %3324 : (tensor<1x1x1xf32>, tensor<1x1024x1xf32>) -> tensor<1x1024x1xf32>
    %3329 = "tosa.const"() <{value = dense<9.99999997E-7> : tensor<1x1024x1xf32>}> : () -> tensor<1x1024x1xf32>
    %3330 = tosa.add %3328, %3329 : (tensor<1x1024x1xf32>, tensor<1x1024x1xf32>) -> tensor<1x1024x1xf32>
    %3331 = tosa.rsqrt %3330 : (tensor<1x1024x1xf32>) -> tensor<1x1024x1xf32>
    %3332 = tosa.mul %3321, %3331 : (tensor<1x1024x1536xf32>, tensor<1x1024x1xf32>) -> tensor<1x1024x1536xf32>
    %3333 = tosa.reshape %arg324 {new_shape = array<i64: 1, 1, 1536>} : (tensor<1536xf32>) -> tensor<1x1x1536xf32>
    %3334 = tosa.mul %3333, %3332 : (tensor<1x1x1536xf32>, tensor<1x1024x1536xf32>) -> tensor<1x1024x1536xf32>
    %3335 = tosa.reshape %3334 {new_shape = array<i64: 1024, 1536>} : (tensor<1x1024x1536xf32>) -> tensor<1024x1536xf32>
    %cst_887 = arith.constant dense<0.000000e+00> : tensor<1024x8960xf32>
    %3336 = linalg.matmul_transpose_b {cast = #linalg.type_fn<cast_signed>} ins(%3335, %arg325 : tensor<1024x1536xf32>, tensor<8960x1536xf32>) outs(%cst_887 : tensor<1024x8960xf32>) -> tensor<1024x8960xf32>
    %3337 = tosa.reshape %3336 {new_shape = array<i64: 1, 1024, 8960>} : (tensor<1024x8960xf32>) -> tensor<1x1024x8960xf32>
    %3338 = tosa.sigmoid %3337 : (tensor<1x1024x8960xf32>) -> tensor<1x1024x8960xf32>
    %3339 = tosa.mul %3337, %3338 : (tensor<1x1024x8960xf32>, tensor<1x1024x8960xf32>) -> tensor<1x1024x8960xf32>
    %3340 = tosa.reshape %3334 {new_shape = array<i64: 1024, 1536>} : (tensor<1x1024x1536xf32>) -> tensor<1024x1536xf32>
    %cst_888 = arith.constant dense<0.000000e+00> : tensor<1024x8960xf32>
    %3341 = linalg.matmul_transpose_b {cast = #linalg.type_fn<cast_signed>} ins(%3340, %arg326 : tensor<1024x1536xf32>, tensor<8960x1536xf32>) outs(%cst_888 : tensor<1024x8960xf32>) -> tensor<1024x8960xf32>
    %3342 = tosa.reshape %3341 {new_shape = array<i64: 1, 1024, 8960>} : (tensor<1024x8960xf32>) -> tensor<1x1024x8960xf32>
    %3343 = tosa.mul %3339, %3342 : (tensor<1x1024x8960xf32>, tensor<1x1024x8960xf32>) -> tensor<1x1024x8960xf32>
    %3344 = tosa.reshape %3343 {new_shape = array<i64: 1024, 8960>} : (tensor<1x1024x8960xf32>) -> tensor<1024x8960xf32>
    %cst_889 = arith.constant dense<0.000000e+00> : tensor<1024x1536xf32>
    %3345 = linalg.matmul_transpose_b {cast = #linalg.type_fn<cast_signed>} ins(%3344, %arg327 : tensor<1024x8960xf32>, tensor<1536x8960xf32>) outs(%cst_889 : tensor<1024x1536xf32>) -> tensor<1024x1536xf32>
    %3346 = tosa.reshape %3345 {new_shape = array<i64: 1, 1024, 1536>} : (tensor<1024x1536xf32>) -> tensor<1x1024x1536xf32>
    %3347 = tosa.add %3321, %3346 : (tensor<1x1024x1536xf32>, tensor<1x1024x1536xf32>) -> tensor<1x1024x1536xf32>
    %3348 = tensor.empty() : tensor<1x1024x1536xf32>
    %c2_i32_890 = arith.constant 2 : i32
    %3349 = linalg.generic {indexing_maps = [#map4, #map4], iterator_types = ["parallel", "parallel", "parallel"]} ins(%3347 : tensor<1x1024x1536xf32>) outs(%3348 : tensor<1x1024x1536xf32>) {
    ^bb0(%in: f32, %out: f32):
      %3486 = math.fpowi %in, %c2_i32_890 : f32, i32
      linalg.yield %3486 : f32
    } -> tensor<1x1024x1536xf32>
    %3350 = tosa.reduce_sum %3349 {axis = 2 : i32} : (tensor<1x1024x1536xf32>) -> tensor<1x1024x1xf32>
    %3351 = "tosa.const"() <{value = dense<1.536000e+03> : tensor<1xf32>}> : () -> tensor<1xf32>
    %3352 = tosa.reciprocal %3351 : (tensor<1xf32>) -> tensor<1xf32>
    %3353 = tosa.reshape %3352 {new_shape = array<i64: 1, 1, 1>} : (tensor<1xf32>) -> tensor<1x1x1xf32>
    %3354 = tosa.mul %3353, %3350 : (tensor<1x1x1xf32>, tensor<1x1024x1xf32>) -> tensor<1x1024x1xf32>
    %3355 = "tosa.const"() <{value = dense<9.99999997E-7> : tensor<1x1024x1xf32>}> : () -> tensor<1x1024x1xf32>
    %3356 = tosa.add %3354, %3355 : (tensor<1x1024x1xf32>, tensor<1x1024x1xf32>) -> tensor<1x1024x1xf32>
    %3357 = tosa.rsqrt %3356 : (tensor<1x1024x1xf32>) -> tensor<1x1024x1xf32>
    %3358 = tosa.mul %3347, %3357 : (tensor<1x1024x1536xf32>, tensor<1x1024x1xf32>) -> tensor<1x1024x1536xf32>
    %3359 = tosa.reshape %arg328 {new_shape = array<i64: 1, 1, 1536>} : (tensor<1536xf32>) -> tensor<1x1x1536xf32>
    %3360 = tosa.mul %3359, %3358 : (tensor<1x1x1536xf32>, tensor<1x1024x1536xf32>) -> tensor<1x1024x1536xf32>
    %3361 = tosa.reshape %3360 {new_shape = array<i64: 1024, 1536>} : (tensor<1x1024x1536xf32>) -> tensor<1024x1536xf32>
    %3362 = "tosa.const"() <{value = dense<[1, 0]> : tensor<2xi32>}> : () -> tensor<2xi32>
    %3363 = tosa.transpose %arg329, %3362 : (tensor<1536x1536xf32>, tensor<2xi32>) -> tensor<1536x1536xf32>
    %cst_891 = arith.constant dense<0.000000e+00> : tensor<1024x1536xf32>
    %3364 = linalg.matmul {cast = #linalg.type_fn<cast_signed>} ins(%3361, %3363 : tensor<1024x1536xf32>, tensor<1536x1536xf32>) outs(%cst_891 : tensor<1024x1536xf32>) -> tensor<1024x1536xf32>
    %3365 = tosa.reshape %arg330 {new_shape = array<i64: 1, 1536>} : (tensor<1536xf32>) -> tensor<1x1536xf32>
    %3366 = tosa.add %3365, %3364 : (tensor<1x1536xf32>, tensor<1024x1536xf32>) -> tensor<1024x1536xf32>
    %3367 = tosa.reshape %3366 {new_shape = array<i64: 1, 1024, 1536>} : (tensor<1024x1536xf32>) -> tensor<1x1024x1536xf32>
    %3368 = tosa.reshape %3360 {new_shape = array<i64: 1024, 1536>} : (tensor<1x1024x1536xf32>) -> tensor<1024x1536xf32>
    %3369 = "tosa.const"() <{value = dense<[1, 0]> : tensor<2xi32>}> : () -> tensor<2xi32>
    %3370 = tosa.transpose %arg331, %3369 : (tensor<256x1536xf32>, tensor<2xi32>) -> tensor<1536x256xf32>
    %cst_892 = arith.constant dense<0.000000e+00> : tensor<1024x256xf32>
    %3371 = linalg.matmul {cast = #linalg.type_fn<cast_signed>} ins(%3368, %3370 : tensor<1024x1536xf32>, tensor<1536x256xf32>) outs(%cst_892 : tensor<1024x256xf32>) -> tensor<1024x256xf32>
    %3372 = tosa.reshape %arg332 {new_shape = array<i64: 1, 256>} : (tensor<256xf32>) -> tensor<1x256xf32>
    %3373 = tosa.add %3372, %3371 : (tensor<1x256xf32>, tensor<1024x256xf32>) -> tensor<1024x256xf32>
    %3374 = tosa.reshape %3373 {new_shape = array<i64: 1, 1024, 256>} : (tensor<1024x256xf32>) -> tensor<1x1024x256xf32>
    %3375 = tosa.reshape %3360 {new_shape = array<i64: 1024, 1536>} : (tensor<1x1024x1536xf32>) -> tensor<1024x1536xf32>
    %3376 = "tosa.const"() <{value = dense<[1, 0]> : tensor<2xi32>}> : () -> tensor<2xi32>
    %3377 = tosa.transpose %arg333, %3376 : (tensor<256x1536xf32>, tensor<2xi32>) -> tensor<1536x256xf32>
    %cst_893 = arith.constant dense<0.000000e+00> : tensor<1024x256xf32>
    %3378 = linalg.matmul {cast = #linalg.type_fn<cast_signed>} ins(%3375, %3377 : tensor<1024x1536xf32>, tensor<1536x256xf32>) outs(%cst_893 : tensor<1024x256xf32>) -> tensor<1024x256xf32>
    %3379 = tosa.reshape %arg334 {new_shape = array<i64: 1, 256>} : (tensor<256xf32>) -> tensor<1x256xf32>
    %3380 = tosa.add %3379, %3378 : (tensor<1x256xf32>, tensor<1024x256xf32>) -> tensor<1024x256xf32>
    %3381 = tosa.reshape %3380 {new_shape = array<i64: 1, 1024, 256>} : (tensor<1024x256xf32>) -> tensor<1x1024x256xf32>
    %3382 = tosa.reshape %3367 {new_shape = array<i64: 1, 1024, 12, 128>} : (tensor<1x1024x1536xf32>) -> tensor<1x1024x12x128xf32>
    %3383 = "tosa.const"() <{value = dense<[0, 2, 1, 3]> : tensor<4xi32>}> : () -> tensor<4xi32>
    %3384 = tosa.transpose %3382, %3383 : (tensor<1x1024x12x128xf32>, tensor<4xi32>) -> tensor<1x12x1024x128xf32>
    %3385 = tosa.reshape %3374 {new_shape = array<i64: 1, 1024, 2, 128>} : (tensor<1x1024x256xf32>) -> tensor<1x1024x2x128xf32>
    %3386 = "tosa.const"() <{value = dense<[0, 2, 1, 3]> : tensor<4xi32>}> : () -> tensor<4xi32>
    %3387 = tosa.transpose %3385, %3386 : (tensor<1x1024x2x128xf32>, tensor<4xi32>) -> tensor<1x2x1024x128xf32>
    %3388 = tosa.reshape %3381 {new_shape = array<i64: 1, 1024, 2, 128>} : (tensor<1x1024x256xf32>) -> tensor<1x1024x2x128xf32>
    %3389 = "tosa.const"() <{value = dense<[0, 2, 1, 3]> : tensor<4xi32>}> : () -> tensor<4xi32>
    %3390 = tosa.transpose %3388, %3389 : (tensor<1x1024x2x128xf32>, tensor<4xi32>) -> tensor<1x2x1024x128xf32>
    %3391 = tosa.reshape %51 {new_shape = array<i64: 1, 1, 1024, 128>} : (tensor<1x1024x128xf32>) -> tensor<1x1x1024x128xf32>
    %3392 = tosa.reshape %53 {new_shape = array<i64: 1, 1, 1024, 128>} : (tensor<1x1024x128xf32>) -> tensor<1x1x1024x128xf32>
    %3393 = tosa.mul %3384, %3391 : (tensor<1x12x1024x128xf32>, tensor<1x1x1024x128xf32>) -> tensor<1x12x1024x128xf32>
    %extracted_slice_894 = tensor.extract_slice %3384[0, 0, 0, 0] [1, 12, 1024, 64] [1, 1, 1, 1] : tensor<1x12x1024x128xf32> to tensor<1x12x1024x64xf32>
    %extracted_slice_895 = tensor.extract_slice %3384[0, 0, 0, 64] [1, 12, 1024, 64] [1, 1, 1, 1] : tensor<1x12x1024x128xf32> to tensor<1x12x1024x64xf32>
    %3394 = tensor.empty() : tensor<1x12x1024x64xf32>
    %3395 = linalg.negf ins(%extracted_slice_895 : tensor<1x12x1024x64xf32>) outs(%3394 : tensor<1x12x1024x64xf32>) -> tensor<1x12x1024x64xf32>
    %3396 = tensor.empty() : tensor<1x12x1024x128xf32>
    %inserted_slice_896 = tensor.insert_slice %3395 into %3396[0, 0, 0, 0] [1, 12, 1024, 64] [1, 1, 1, 1] : tensor<1x12x1024x64xf32> into tensor<1x12x1024x128xf32>
    %inserted_slice_897 = tensor.insert_slice %extracted_slice_894 into %inserted_slice_896[0, 0, 0, 64] [1, 12, 1024, 64] [1, 1, 1, 1] : tensor<1x12x1024x64xf32> into tensor<1x12x1024x128xf32>
    %3397 = tosa.mul %inserted_slice_897, %3392 : (tensor<1x12x1024x128xf32>, tensor<1x1x1024x128xf32>) -> tensor<1x12x1024x128xf32>
    %3398 = tosa.add %3393, %3397 : (tensor<1x12x1024x128xf32>, tensor<1x12x1024x128xf32>) -> tensor<1x12x1024x128xf32>
    %3399 = tosa.mul %3387, %3391 : (tensor<1x2x1024x128xf32>, tensor<1x1x1024x128xf32>) -> tensor<1x2x1024x128xf32>
    %extracted_slice_898 = tensor.extract_slice %3387[0, 0, 0, 0] [1, 2, 1024, 64] [1, 1, 1, 1] : tensor<1x2x1024x128xf32> to tensor<1x2x1024x64xf32>
    %extracted_slice_899 = tensor.extract_slice %3387[0, 0, 0, 64] [1, 2, 1024, 64] [1, 1, 1, 1] : tensor<1x2x1024x128xf32> to tensor<1x2x1024x64xf32>
    %3400 = tensor.empty() : tensor<1x2x1024x64xf32>
    %3401 = linalg.negf ins(%extracted_slice_899 : tensor<1x2x1024x64xf32>) outs(%3400 : tensor<1x2x1024x64xf32>) -> tensor<1x2x1024x64xf32>
    %3402 = tensor.empty() : tensor<1x2x1024x128xf32>
    %inserted_slice_900 = tensor.insert_slice %3401 into %3402[0, 0, 0, 0] [1, 2, 1024, 64] [1, 1, 1, 1] : tensor<1x2x1024x64xf32> into tensor<1x2x1024x128xf32>
    %inserted_slice_901 = tensor.insert_slice %extracted_slice_898 into %inserted_slice_900[0, 0, 0, 64] [1, 2, 1024, 64] [1, 1, 1, 1] : tensor<1x2x1024x64xf32> into tensor<1x2x1024x128xf32>
    %3403 = tosa.mul %inserted_slice_901, %3392 : (tensor<1x2x1024x128xf32>, tensor<1x1x1024x128xf32>) -> tensor<1x2x1024x128xf32>
    %3404 = tosa.add %3399, %3403 : (tensor<1x2x1024x128xf32>, tensor<1x2x1024x128xf32>) -> tensor<1x2x1024x128xf32>
    %extracted_slice_902 = tensor.extract_slice %3404[0, 0, 0, 0] [1, 2, 1024, 128] [1, 1, 1, 1] : tensor<1x2x1024x128xf32> to tensor<1x2x1024x128xf32>
    %extracted_slice_903 = tensor.extract_slice %extracted_slice_902[0, 0, 0, 0] [1, 2, 1024, 128] [1, 1, 1, 1] : tensor<1x2x1024x128xf32> to tensor<1x2x1024x128xf32>
    %3405 = tosa.reshape %extracted_slice_903 {new_shape = array<i64: 1, 2, 1, 1024, 128>} : (tensor<1x2x1024x128xf32>) -> tensor<1x2x1x1024x128xf32>
    %extracted_slice_904 = tensor.extract_slice %3405[0, 0, 0, 0, 0] [1, 2, 1, 1024, 128] [1, 1, 1, 1, 1] : tensor<1x2x1x1024x128xf32> to tensor<1x2x1x1024x128xf32>
    %extracted_slice_905 = tensor.extract_slice %extracted_slice_904[0, 0, 0, 0, 0] [1, 2, 1, 1024, 128] [1, 1, 1, 1, 1] : tensor<1x2x1x1024x128xf32> to tensor<1x2x1x1024x128xf32>
    %3406 = "tosa.const"() <{value = dense<0.000000e+00> : tensor<1x2x6x1024x128xf32>}> : () -> tensor<1x2x6x1024x128xf32>
    %3407 = tosa.add %extracted_slice_905, %3406 : (tensor<1x2x1x1024x128xf32>, tensor<1x2x6x1024x128xf32>) -> tensor<1x2x6x1024x128xf32>
    %3408 = tosa.identity %3407 : (tensor<1x2x6x1024x128xf32>) -> tensor<1x2x6x1024x128xf32>
    %3409 = tosa.reshape %3408 {new_shape = array<i64: 1, 12, 1024, 128>} : (tensor<1x2x6x1024x128xf32>) -> tensor<1x12x1024x128xf32>
    %extracted_slice_906 = tensor.extract_slice %3390[0, 0, 0, 0] [1, 2, 1024, 128] [1, 1, 1, 1] : tensor<1x2x1024x128xf32> to tensor<1x2x1024x128xf32>
    %extracted_slice_907 = tensor.extract_slice %extracted_slice_906[0, 0, 0, 0] [1, 2, 1024, 128] [1, 1, 1, 1] : tensor<1x2x1024x128xf32> to tensor<1x2x1024x128xf32>
    %3410 = tosa.reshape %extracted_slice_907 {new_shape = array<i64: 1, 2, 1, 1024, 128>} : (tensor<1x2x1024x128xf32>) -> tensor<1x2x1x1024x128xf32>
    %extracted_slice_908 = tensor.extract_slice %3410[0, 0, 0, 0, 0] [1, 2, 1, 1024, 128] [1, 1, 1, 1, 1] : tensor<1x2x1x1024x128xf32> to tensor<1x2x1x1024x128xf32>
    %extracted_slice_909 = tensor.extract_slice %extracted_slice_908[0, 0, 0, 0, 0] [1, 2, 1, 1024, 128] [1, 1, 1, 1, 1] : tensor<1x2x1x1024x128xf32> to tensor<1x2x1x1024x128xf32>
    %3411 = "tosa.const"() <{value = dense<0.000000e+00> : tensor<1x2x6x1024x128xf32>}> : () -> tensor<1x2x6x1024x128xf32>
    %3412 = tosa.add %extracted_slice_909, %3411 : (tensor<1x2x1x1024x128xf32>, tensor<1x2x6x1024x128xf32>) -> tensor<1x2x6x1024x128xf32>
    %3413 = tosa.identity %3412 : (tensor<1x2x6x1024x128xf32>) -> tensor<1x2x6x1024x128xf32>
    %3414 = tosa.reshape %3413 {new_shape = array<i64: 1, 12, 1024, 128>} : (tensor<1x2x6x1024x128xf32>) -> tensor<1x12x1024x128xf32>
    %extracted_slice_910 = tensor.extract_slice %inserted_slice_21[0, 0, 0, 0] [1, 1, 1024, 1024] [1, 1, 1, 1] : tensor<1x1x1024x1024xf32> to tensor<1x1x1024x1024xf32>
    %extracted_slice_911 = tensor.extract_slice %extracted_slice_910[0, 0, 0, 0] [1, 1, 1024, 1024] [1, 1, 1, 1] : tensor<1x1x1024x1024xf32> to tensor<1x1x1024x1024xf32>
    %extracted_slice_912 = tensor.extract_slice %extracted_slice_911[0, 0, 0, 0] [1, 1, 1024, 1024] [1, 1, 1, 1] : tensor<1x1x1024x1024xf32> to tensor<1x1x1024x1024xf32>
    %cst_913 = arith.constant 0.000000e+00 : f32
    %splat_914 = tensor.splat %cst_913 : tensor<1024x1024xf32>
    %3415 = tosa.reshape %extracted_slice_912 {new_shape = array<i64: 1024, 1024>} : (tensor<1x1x1024x1024xf32>) -> tensor<1024x1024xf32>
    %3416 = tosa.add %splat_914, %3415 : (tensor<1024x1024xf32>, tensor<1024x1024xf32>) -> tensor<1024x1024xf32>
    %3417 = "tosa.const"() <{value = dense<[0, 1, 3, 2]> : tensor<4xi32>}> : () -> tensor<4xi32>
    %3418 = tosa.transpose %3409, %3417 : (tensor<1x12x1024x128xf32>, tensor<4xi32>) -> tensor<1x12x128x1024xf32>
    %3419 = tosa.reshape %3398 {new_shape = array<i64: 12, 1024, 128>} : (tensor<1x12x1024x128xf32>) -> tensor<12x1024x128xf32>
    %3420 = tosa.reshape %3418 {new_shape = array<i64: 12, 128, 1024>} : (tensor<1x12x128x1024xf32>) -> tensor<12x128x1024xf32>
    %3421 = tosa.matmul %3419, %3420 : (tensor<12x1024x128xf32>, tensor<12x128x1024xf32>) -> tensor<12x1024x1024xf32>
    %cst_915 = arith.constant 0.0883883461 : f32
    %splat_916 = tensor.splat %cst_915 : tensor<12x1024x1024xf32>
    %3422 = tosa.mul %3421, %splat_916 : (tensor<12x1024x1024xf32>, tensor<12x1024x1024xf32>) -> tensor<12x1024x1024xf32>
    %3423 = tosa.reshape %3416 {new_shape = array<i64: 1, 1024, 1024>} : (tensor<1024x1024xf32>) -> tensor<1x1024x1024xf32>
    %3424 = tosa.add %3422, %3423 : (tensor<12x1024x1024xf32>, tensor<1x1024x1024xf32>) -> tensor<12x1024x1024xf32>
    %3425 = tosa.reduce_max %3424 {axis = 2 : i32} : (tensor<12x1024x1024xf32>) -> tensor<12x1024x1xf32>
    %3426 = tosa.sub %3424, %3425 : (tensor<12x1024x1024xf32>, tensor<12x1024x1xf32>) -> tensor<12x1024x1024xf32>
    %3427 = math.exp %3426 : tensor<12x1024x1024xf32>
    %3428 = tosa.reduce_sum %3427 {axis = 2 : i32} : (tensor<12x1024x1024xf32>) -> tensor<12x1024x1xf32>
    %3429 = tosa.log %3428 : (tensor<12x1024x1xf32>) -> tensor<12x1024x1xf32>
    %3430 = tosa.add %3425, %3429 : (tensor<12x1024x1xf32>, tensor<12x1024x1xf32>) -> tensor<12x1024x1xf32>
    %3431 = tosa.sub %3424, %3430 : (tensor<12x1024x1024xf32>, tensor<12x1024x1xf32>) -> tensor<12x1024x1024xf32>
    %3432 = math.exp %3431 : tensor<12x1024x1024xf32>
    %3433 = tosa.reshape %3430 {new_shape = array<i64: 1, 12, 1024>} : (tensor<12x1024x1xf32>) -> tensor<1x12x1024xf32>
    %3434 = tosa.reshape %3414 {new_shape = array<i64: 12, 1024, 128>} : (tensor<1x12x1024x128xf32>) -> tensor<12x1024x128xf32>
    %3435 = tosa.matmul %3432, %3434 : (tensor<12x1024x1024xf32>, tensor<12x1024x128xf32>) -> tensor<12x1024x128xf32>
    %3436 = tosa.reshape %3435 {new_shape = array<i64: 1, 12, 1024, 128>} : (tensor<12x1024x128xf32>) -> tensor<1x12x1024x128xf32>
    %3437 = "tosa.const"() <{value = dense<[0, 2, 1, 3]> : tensor<4xi32>}> : () -> tensor<4xi32>
    %3438 = tosa.transpose %3436, %3437 : (tensor<1x12x1024x128xf32>, tensor<4xi32>) -> tensor<1x1024x12x128xf32>
    %3439 = tosa.reshape %3438 {new_shape = array<i64: 1, 1024, 1536>} : (tensor<1x1024x12x128xf32>) -> tensor<1x1024x1536xf32>
    %3440 = tosa.reshape %3439 {new_shape = array<i64: 1024, 1536>} : (tensor<1x1024x1536xf32>) -> tensor<1024x1536xf32>
    %cst_917 = arith.constant dense<0.000000e+00> : tensor<1024x1536xf32>
    %3441 = linalg.matmul_transpose_b {cast = #linalg.type_fn<cast_signed>} ins(%3440, %arg335 : tensor<1024x1536xf32>, tensor<1536x1536xf32>) outs(%cst_917 : tensor<1024x1536xf32>) -> tensor<1024x1536xf32>
    %3442 = tosa.reshape %3441 {new_shape = array<i64: 1, 1024, 1536>} : (tensor<1024x1536xf32>) -> tensor<1x1024x1536xf32>
    %3443 = tosa.add %3347, %3442 : (tensor<1x1024x1536xf32>, tensor<1x1024x1536xf32>) -> tensor<1x1024x1536xf32>
    %3444 = tensor.empty() : tensor<1x1024x1536xf32>
    %c2_i32_918 = arith.constant 2 : i32
    %3445 = linalg.generic {indexing_maps = [#map4, #map4], iterator_types = ["parallel", "parallel", "parallel"]} ins(%3443 : tensor<1x1024x1536xf32>) outs(%3444 : tensor<1x1024x1536xf32>) {
    ^bb0(%in: f32, %out: f32):
      %3486 = math.fpowi %in, %c2_i32_918 : f32, i32
      linalg.yield %3486 : f32
    } -> tensor<1x1024x1536xf32>
    %3446 = tosa.reduce_sum %3445 {axis = 2 : i32} : (tensor<1x1024x1536xf32>) -> tensor<1x1024x1xf32>
    %3447 = "tosa.const"() <{value = dense<1.536000e+03> : tensor<1xf32>}> : () -> tensor<1xf32>
    %3448 = tosa.reciprocal %3447 : (tensor<1xf32>) -> tensor<1xf32>
    %3449 = tosa.reshape %3448 {new_shape = array<i64: 1, 1, 1>} : (tensor<1xf32>) -> tensor<1x1x1xf32>
    %3450 = tosa.mul %3449, %3446 : (tensor<1x1x1xf32>, tensor<1x1024x1xf32>) -> tensor<1x1024x1xf32>
    %3451 = "tosa.const"() <{value = dense<9.99999997E-7> : tensor<1x1024x1xf32>}> : () -> tensor<1x1024x1xf32>
    %3452 = tosa.add %3450, %3451 : (tensor<1x1024x1xf32>, tensor<1x1024x1xf32>) -> tensor<1x1024x1xf32>
    %3453 = tosa.rsqrt %3452 : (tensor<1x1024x1xf32>) -> tensor<1x1024x1xf32>
    %3454 = tosa.mul %3443, %3453 : (tensor<1x1024x1536xf32>, tensor<1x1024x1xf32>) -> tensor<1x1024x1536xf32>
    %3455 = tosa.reshape %arg336 {new_shape = array<i64: 1, 1, 1536>} : (tensor<1536xf32>) -> tensor<1x1x1536xf32>
    %3456 = tosa.mul %3455, %3454 : (tensor<1x1x1536xf32>, tensor<1x1024x1536xf32>) -> tensor<1x1024x1536xf32>
    %3457 = tosa.reshape %3456 {new_shape = array<i64: 1024, 1536>} : (tensor<1x1024x1536xf32>) -> tensor<1024x1536xf32>
    %cst_919 = arith.constant dense<0.000000e+00> : tensor<1024x8960xf32>
    %3458 = linalg.matmul_transpose_b {cast = #linalg.type_fn<cast_signed>} ins(%3457, %arg337 : tensor<1024x1536xf32>, tensor<8960x1536xf32>) outs(%cst_919 : tensor<1024x8960xf32>) -> tensor<1024x8960xf32>
    %3459 = tosa.reshape %3458 {new_shape = array<i64: 1, 1024, 8960>} : (tensor<1024x8960xf32>) -> tensor<1x1024x8960xf32>
    %3460 = tosa.sigmoid %3459 : (tensor<1x1024x8960xf32>) -> tensor<1x1024x8960xf32>
    %3461 = tosa.mul %3459, %3460 : (tensor<1x1024x8960xf32>, tensor<1x1024x8960xf32>) -> tensor<1x1024x8960xf32>
    %3462 = tosa.reshape %3456 {new_shape = array<i64: 1024, 1536>} : (tensor<1x1024x1536xf32>) -> tensor<1024x1536xf32>
    %cst_920 = arith.constant dense<0.000000e+00> : tensor<1024x8960xf32>
    %3463 = linalg.matmul_transpose_b {cast = #linalg.type_fn<cast_signed>} ins(%3462, %arg338 : tensor<1024x1536xf32>, tensor<8960x1536xf32>) outs(%cst_920 : tensor<1024x8960xf32>) -> tensor<1024x8960xf32>
    %3464 = tosa.reshape %3463 {new_shape = array<i64: 1, 1024, 8960>} : (tensor<1024x8960xf32>) -> tensor<1x1024x8960xf32>
    %3465 = tosa.mul %3461, %3464 : (tensor<1x1024x8960xf32>, tensor<1x1024x8960xf32>) -> tensor<1x1024x8960xf32>
    %3466 = tosa.reshape %3465 {new_shape = array<i64: 1024, 8960>} : (tensor<1x1024x8960xf32>) -> tensor<1024x8960xf32>
    %cst_921 = arith.constant dense<0.000000e+00> : tensor<1024x1536xf32>
    %3467 = linalg.matmul_transpose_b {cast = #linalg.type_fn<cast_signed>} ins(%3466, %arg339 : tensor<1024x8960xf32>, tensor<1536x8960xf32>) outs(%cst_921 : tensor<1024x1536xf32>) -> tensor<1024x1536xf32>
    %3468 = tosa.reshape %3467 {new_shape = array<i64: 1, 1024, 1536>} : (tensor<1024x1536xf32>) -> tensor<1x1024x1536xf32>
    %3469 = tosa.add %3443, %3468 : (tensor<1x1024x1536xf32>, tensor<1x1024x1536xf32>) -> tensor<1x1024x1536xf32>
    %3470 = tensor.empty() : tensor<1x1024x1536xf32>
    %c2_i32_922 = arith.constant 2 : i32
    %3471 = linalg.generic {indexing_maps = [#map4, #map4], iterator_types = ["parallel", "parallel", "parallel"]} ins(%3469 : tensor<1x1024x1536xf32>) outs(%3470 : tensor<1x1024x1536xf32>) {
    ^bb0(%in: f32, %out: f32):
      %3486 = math.fpowi %in, %c2_i32_922 : f32, i32
      linalg.yield %3486 : f32
    } -> tensor<1x1024x1536xf32>
    %3472 = tosa.reduce_sum %3471 {axis = 2 : i32} : (tensor<1x1024x1536xf32>) -> tensor<1x1024x1xf32>
    %3473 = "tosa.const"() <{value = dense<1.536000e+03> : tensor<1xf32>}> : () -> tensor<1xf32>
    %3474 = tosa.reciprocal %3473 : (tensor<1xf32>) -> tensor<1xf32>
    %3475 = tosa.reshape %3474 {new_shape = array<i64: 1, 1, 1>} : (tensor<1xf32>) -> tensor<1x1x1xf32>
    %3476 = tosa.mul %3475, %3472 : (tensor<1x1x1xf32>, tensor<1x1024x1xf32>) -> tensor<1x1024x1xf32>
    %3477 = "tosa.const"() <{value = dense<9.99999997E-7> : tensor<1x1024x1xf32>}> : () -> tensor<1x1024x1xf32>
    %3478 = tosa.add %3476, %3477 : (tensor<1x1024x1xf32>, tensor<1x1024x1xf32>) -> tensor<1x1024x1xf32>
    %3479 = tosa.rsqrt %3478 : (tensor<1x1024x1xf32>) -> tensor<1x1024x1xf32>
    %3480 = tosa.mul %3469, %3479 : (tensor<1x1024x1536xf32>, tensor<1x1024x1xf32>) -> tensor<1x1024x1536xf32>
    %3481 = tosa.reshape %arg340 {new_shape = array<i64: 1, 1, 1536>} : (tensor<1536xf32>) -> tensor<1x1x1536xf32>
    %3482 = tosa.mul %3481, %3480 : (tensor<1x1x1536xf32>, tensor<1x1024x1536xf32>) -> tensor<1x1024x1536xf32>
    %extracted_slice_923 = tensor.extract_slice %3482[0, 0, 0] [1, 1024, 1536] [1, 1, 1] : tensor<1x1024x1536xf32> to tensor<1x1024x1536xf32>
    %extracted_slice_924 = tensor.extract_slice %extracted_slice_923[0, 0, 0] [1, 1024, 1536] [1, 1, 1] : tensor<1x1024x1536xf32> to tensor<1x1024x1536xf32>
    %extracted_slice_925 = tensor.extract_slice %extracted_slice_924[0, 0, 0] [1, 1024, 1536] [1, 1, 1] : tensor<1x1024x1536xf32> to tensor<1x1024x1536xf32>
    %3483 = tosa.reshape %extracted_slice_925 {new_shape = array<i64: 1024, 1536>} : (tensor<1x1024x1536xf32>) -> tensor<1024x1536xf32>
    %cst_926 = arith.constant dense<0.000000e+00> : tensor<1024x151936xf32>
    %3484 = linalg.matmul_transpose_b {cast = #linalg.type_fn<cast_signed>} ins(%3483, %arg341 : tensor<1024x1536xf32>, tensor<151936x1536xf32>) outs(%cst_926 : tensor<1024x151936xf32>) -> tensor<1024x151936xf32>
    %3485 = tosa.reshape %3484 {new_shape = array<i64: 1, 1024, 151936>} : (tensor<1024x151936xf32>) -> tensor<1x1024x151936xf32>
    return %3485 : tensor<1x1024x151936xf32>
  }
}
