#map = affine_map<(d0, d1) -> (d0, d1)>
#map1 = affine_map<(d0, d1, d2) -> (d0, d1)>
#map2 = affine_map<(d0, d1, d2) -> (d0, d1, d2)>
#map3 = affine_map<(d0, d1, d2) -> (d1)>
#map4 = affine_map<(d0, d1, d2) -> (d0, d2)>
#map5 = affine_map<(d0, d1, d2, d3) -> (d0, d1, d2, d3)>
#map6 = affine_map<(d0, d1, d2, d3) -> (d0, d1, 0, d3)>
#map7 = affine_map<(d0, d1, d2) -> (d0, 0, 0)>
#map8 = affine_map<(d0, d1, d2) -> (d0, 0, d2)>
#map9 = affine_map<(d0, d1, d2) -> (d0, d1, 0)>
#map10 = affine_map<(d0, d1) -> (0, d1)>
#map11 = affine_map<(d0, d1, d2, d3) -> (d0, 0, d2, d3)>
#map12 = affine_map<(d0, d1, d2, d3, d4) -> (d0, d1, 0, d3, d4)>
#map13 = affine_map<(d0, d1, d2, d3, d4) -> (d0, d1, d2, d3, d4)>
#map14 = affine_map<(d0, d1, d2) -> (0, d1, d2)>
module {
  memref.global "private" constant @__constant_1024x151936xf32 : memref<1024x151936xf32> = dense<0.000000e+00> {alignment = 64 : i64}
  memref.global "private" constant @__constant_1024x8960xf32 : memref<1024x8960xf32> = dense<0.000000e+00> {alignment = 64 : i64}
  memref.global "private" constant @__constant_12x1024x1024xf32 : memref<12x1024x1024xf32> = dense<0.0883883461> {alignment = 64 : i64}
  memref.global "private" constant @__constant_4xi32_0 : memref<4xi32> = dense<[0, 1, 3, 2]> {alignment = 64 : i64}
  memref.global "private" constant @__constant_1024x1024xf32_0 : memref<1024x1024xf32> = dense<0.000000e+00> {alignment = 64 : i64}
  memref.global "private" constant @__constant_1x2x6x1024x128xf32 : memref<1x2x6x1024x128xf32> = dense<0.000000e+00> {alignment = 64 : i64}
  memref.global "private" constant @__constant_4xi32 : memref<4xi32> = dense<[0, 2, 1, 3]> {alignment = 64 : i64}
  memref.global "private" constant @__constant_1024x256xf32 : memref<1024x256xf32> = dense<0.000000e+00> {alignment = 64 : i64}
  memref.global "private" constant @__constant_1024x1536xf32 : memref<1024x1536xf32> = dense<0.000000e+00> {alignment = 64 : i64}
  memref.global "private" constant @__constant_2xi32 : memref<2xi32> = dense<[1, 0]> {alignment = 64 : i64}
  memref.global "private" constant @__constant_1x1024x1xf32 : memref<1x1024x1xf32> = dense<9.99999997E-7> {alignment = 64 : i64}
  memref.global "private" constant @__constant_1x1x1xf32_0 : memref<1x1x1xf32> = dense<6.51041686E-4> {alignment = 64 : i64}
  memref.global "private" constant @__constant_1xf32_1 : memref<1xf32> = dense<6.51041686E-4> {alignment = 64 : i64}
  memref.global "private" constant @__constant_1xf32_0 : memref<1xf32> = dense<1.536000e+03> {alignment = 64 : i64}
  memref.global "private" constant @__constant_1x1x1xf32 : memref<1x1x1xf32> = dense<1.000000e+00> {alignment = 64 : i64}
  memref.global "private" constant @__constant_1xf32 : memref<1xf32> = dense<1.000000e+00> {alignment = 64 : i64}
  memref.global "private" constant @__constant_1x1024x2x64xf32 : memref<1x1024x2x64xf32> = dense<0.000000e+00> {alignment = 64 : i64}
  memref.global "private" constant @__constant_3xi32 : memref<3xi32> = dense<[0, 2, 1]> {alignment = 64 : i64}
  memref.global "private" constant @__constant_1x1x1024xf32 : memref<1x1x1024xf32> = dense<0.000000e+00> {alignment = 64 : i64}
  memref.global "private" constant @__constant_1x64x1xf32 : memref<1x64x1xf32> = dense<0.000000e+00> {alignment = 64 : i64}
  memref.global "private" constant @__constant_1x1x1024x1024xf32_0 : memref<1x1x1024x1024xf32> = dense<-3.40282347E+38> {alignment = 64 : i64}
  memref.global "private" constant @__constant_1x1x1024x1024xf32 : memref<1x1x1024x1024xf32> = dense<0.000000e+00> {alignment = 64 : i64}
  memref.global "private" constant @__constant_1024x1xi64 : memref<1024x1xi64> = dense<"…"> {alignment = 64 : i64}
  memref.global "private" constant @__constant_1024x1024xf32 : memref<1024x1024xf32> = dense<-3.40282347E+38> {alignment = 64 : i64}
  memref.global "private" constant @__constant_1x1024xi64 : memref<1x1024xi64> = dense<"…"> {alignment = 64 : i64}
  memref.global "private" constant @__constant_1024xi64 : memref<1024xi64> = dense<"…"> {alignment = 64 : i64}
  func.func @subgraph0(%arg0: memref<151936x1536xf32, strided<[?, ?], offset: ?>>, %arg1: memref<1x1024xi64, strided<[?, ?], offset: ?>>, %arg2: memref<1x1024xi64, strided<[?, ?], offset: ?>>, %arg3: memref<64xf32, strided<[?], offset: ?>>, %arg4: memref<1536xf32, strided<[?], offset: ?>>, %arg5: memref<1536x1536xf32, strided<[?, ?], offset: ?>>, %arg6: memref<1536xf32, strided<[?], offset: ?>>, %arg7: memref<256x1536xf32, strided<[?, ?], offset: ?>>, %arg8: memref<256xf32, strided<[?], offset: ?>>, %arg9: memref<256x1536xf32, strided<[?, ?], offset: ?>>, %arg10: memref<256xf32, strided<[?], offset: ?>>, %arg11: memref<1536x1536xf32, strided<[?, ?], offset: ?>>, %arg12: memref<1536xf32, strided<[?], offset: ?>>, %arg13: memref<8960x1536xf32, strided<[?, ?], offset: ?>>, %arg14: memref<8960x1536xf32, strided<[?, ?], offset: ?>>, %arg15: memref<1536x8960xf32, strided<[?, ?], offset: ?>>, %arg16: memref<1536xf32, strided<[?], offset: ?>>, %arg17: memref<1536x1536xf32, strided<[?, ?], offset: ?>>, %arg18: memref<1536xf32, strided<[?], offset: ?>>, %arg19: memref<256x1536xf32, strided<[?, ?], offset: ?>>, %arg20: memref<256xf32, strided<[?], offset: ?>>, %arg21: memref<256x1536xf32, strided<[?, ?], offset: ?>>, %arg22: memref<256xf32, strided<[?], offset: ?>>, %arg23: memref<1536x1536xf32, strided<[?, ?], offset: ?>>, %arg24: memref<1536xf32, strided<[?], offset: ?>>, %arg25: memref<8960x1536xf32, strided<[?, ?], offset: ?>>, %arg26: memref<8960x1536xf32, strided<[?, ?], offset: ?>>, %arg27: memref<1536x8960xf32, strided<[?, ?], offset: ?>>, %arg28: memref<1536xf32, strided<[?], offset: ?>>, %arg29: memref<1536x1536xf32, strided<[?, ?], offset: ?>>, %arg30: memref<1536xf32, strided<[?], offset: ?>>, %arg31: memref<256x1536xf32, strided<[?, ?], offset: ?>>, %arg32: memref<256xf32, strided<[?], offset: ?>>, %arg33: memref<256x1536xf32, strided<[?, ?], offset: ?>>, %arg34: memref<256xf32, strided<[?], offset: ?>>, %arg35: memref<1536x1536xf32, strided<[?, ?], offset: ?>>, %arg36: memref<1536xf32, strided<[?], offset: ?>>, %arg37: memref<8960x1536xf32, strided<[?, ?], offset: ?>>, %arg38: memref<8960x1536xf32, strided<[?, ?], offset: ?>>, %arg39: memref<1536x8960xf32, strided<[?, ?], offset: ?>>, %arg40: memref<1536xf32, strided<[?], offset: ?>>, %arg41: memref<1536x1536xf32, strided<[?, ?], offset: ?>>, %arg42: memref<1536xf32, strided<[?], offset: ?>>, %arg43: memref<256x1536xf32, strided<[?, ?], offset: ?>>, %arg44: memref<256xf32, strided<[?], offset: ?>>, %arg45: memref<256x1536xf32, strided<[?, ?], offset: ?>>, %arg46: memref<256xf32, strided<[?], offset: ?>>, %arg47: memref<1536x1536xf32, strided<[?, ?], offset: ?>>, %arg48: memref<1536xf32, strided<[?], offset: ?>>, %arg49: memref<8960x1536xf32, strided<[?, ?], offset: ?>>, %arg50: memref<8960x1536xf32, strided<[?, ?], offset: ?>>, %arg51: memref<1536x8960xf32, strided<[?, ?], offset: ?>>, %arg52: memref<1536xf32, strided<[?], offset: ?>>, %arg53: memref<1536x1536xf32, strided<[?, ?], offset: ?>>, %arg54: memref<1536xf32, strided<[?], offset: ?>>, %arg55: memref<256x1536xf32, strided<[?, ?], offset: ?>>, %arg56: memref<256xf32, strided<[?], offset: ?>>, %arg57: memref<256x1536xf32, strided<[?, ?], offset: ?>>, %arg58: memref<256xf32, strided<[?], offset: ?>>, %arg59: memref<1536x1536xf32, strided<[?, ?], offset: ?>>, %arg60: memref<1536xf32, strided<[?], offset: ?>>, %arg61: memref<8960x1536xf32, strided<[?, ?], offset: ?>>, %arg62: memref<8960x1536xf32, strided<[?, ?], offset: ?>>, %arg63: memref<1536x8960xf32, strided<[?, ?], offset: ?>>, %arg64: memref<1536xf32, strided<[?], offset: ?>>, %arg65: memref<1536x1536xf32, strided<[?, ?], offset: ?>>, %arg66: memref<1536xf32, strided<[?], offset: ?>>, %arg67: memref<256x1536xf32, strided<[?, ?], offset: ?>>, %arg68: memref<256xf32, strided<[?], offset: ?>>, %arg69: memref<256x1536xf32, strided<[?, ?], offset: ?>>, %arg70: memref<256xf32, strided<[?], offset: ?>>, %arg71: memref<1536x1536xf32, strided<[?, ?], offset: ?>>, %arg72: memref<1536xf32, strided<[?], offset: ?>>, %arg73: memref<8960x1536xf32, strided<[?, ?], offset: ?>>, %arg74: memref<8960x1536xf32, strided<[?, ?], offset: ?>>, %arg75: memref<1536x8960xf32, strided<[?, ?], offset: ?>>, %arg76: memref<1536xf32, strided<[?], offset: ?>>, %arg77: memref<1536x1536xf32, strided<[?, ?], offset: ?>>, %arg78: memref<1536xf32, strided<[?], offset: ?>>, %arg79: memref<256x1536xf32, strided<[?, ?], offset: ?>>, %arg80: memref<256xf32, strided<[?], offset: ?>>, %arg81: memref<256x1536xf32, strided<[?, ?], offset: ?>>, %arg82: memref<256xf32, strided<[?], offset: ?>>, %arg83: memref<1536x1536xf32, strided<[?, ?], offset: ?>>, %arg84: memref<1536xf32, strided<[?], offset: ?>>, %arg85: memref<8960x1536xf32, strided<[?, ?], offset: ?>>, %arg86: memref<8960x1536xf32, strided<[?, ?], offset: ?>>, %arg87: memref<1536x8960xf32, strided<[?, ?], offset: ?>>, %arg88: memref<1536xf32, strided<[?], offset: ?>>, %arg89: memref<1536x1536xf32, strided<[?, ?], offset: ?>>, %arg90: memref<1536xf32, strided<[?], offset: ?>>, %arg91: memref<256x1536xf32, strided<[?, ?], offset: ?>>, %arg92: memref<256xf32, strided<[?], offset: ?>>, %arg93: memref<256x1536xf32, strided<[?, ?], offset: ?>>, %arg94: memref<256xf32, strided<[?], offset: ?>>, %arg95: memref<1536x1536xf32, strided<[?, ?], offset: ?>>, %arg96: memref<1536xf32, strided<[?], offset: ?>>, %arg97: memref<8960x1536xf32, strided<[?, ?], offset: ?>>, %arg98: memref<8960x1536xf32, strided<[?, ?], offset: ?>>, %arg99: memref<1536x8960xf32, strided<[?, ?], offset: ?>>, %arg100: memref<1536xf32, strided<[?], offset: ?>>, %arg101: memref<1536x1536xf32, strided<[?, ?], offset: ?>>, %arg102: memref<1536xf32, strided<[?], offset: ?>>, %arg103: memref<256x1536xf32, strided<[?, ?], offset: ?>>, %arg104: memref<256xf32, strided<[?], offset: ?>>, %arg105: memref<256x1536xf32, strided<[?, ?], offset: ?>>, %arg106: memref<256xf32, strided<[?], offset: ?>>, %arg107: memref<1536x1536xf32, strided<[?, ?], offset: ?>>, %arg108: memref<1536xf32, strided<[?], offset: ?>>, %arg109: memref<8960x1536xf32, strided<[?, ?], offset: ?>>, %arg110: memref<8960x1536xf32, strided<[?, ?], offset: ?>>, %arg111: memref<1536x8960xf32, strided<[?, ?], offset: ?>>, %arg112: memref<1536xf32, strided<[?], offset: ?>>, %arg113: memref<1536x1536xf32, strided<[?, ?], offset: ?>>, %arg114: memref<1536xf32, strided<[?], offset: ?>>, %arg115: memref<256x1536xf32, strided<[?, ?], offset: ?>>, %arg116: memref<256xf32, strided<[?], offset: ?>>, %arg117: memref<256x1536xf32, strided<[?, ?], offset: ?>>, %arg118: memref<256xf32, strided<[?], offset: ?>>, %arg119: memref<1536x1536xf32, strided<[?, ?], offset: ?>>, %arg120: memref<1536xf32, strided<[?], offset: ?>>, %arg121: memref<8960x1536xf32, strided<[?, ?], offset: ?>>, %arg122: memref<8960x1536xf32, strided<[?, ?], offset: ?>>, %arg123: memref<1536x8960xf32, strided<[?, ?], offset: ?>>, %arg124: memref<1536xf32, strided<[?], offset: ?>>, %arg125: memref<1536x1536xf32, strided<[?, ?], offset: ?>>, %arg126: memref<1536xf32, strided<[?], offset: ?>>, %arg127: memref<256x1536xf32, strided<[?, ?], offset: ?>>, %arg128: memref<256xf32, strided<[?], offset: ?>>, %arg129: memref<256x1536xf32, strided<[?, ?], offset: ?>>, %arg130: memref<256xf32, strided<[?], offset: ?>>, %arg131: memref<1536x1536xf32, strided<[?, ?], offset: ?>>, %arg132: memref<1536xf32, strided<[?], offset: ?>>, %arg133: memref<8960x1536xf32, strided<[?, ?], offset: ?>>, %arg134: memref<8960x1536xf32, strided<[?, ?], offset: ?>>, %arg135: memref<1536x8960xf32, strided<[?, ?], offset: ?>>, %arg136: memref<1536xf32, strided<[?], offset: ?>>, %arg137: memref<1536x1536xf32, strided<[?, ?], offset: ?>>, %arg138: memref<1536xf32, strided<[?], offset: ?>>, %arg139: memref<256x1536xf32, strided<[?, ?], offset: ?>>, %arg140: memref<256xf32, strided<[?], offset: ?>>, %arg141: memref<256x1536xf32, strided<[?, ?], offset: ?>>, %arg142: memref<256xf32, strided<[?], offset: ?>>, %arg143: memref<1536x1536xf32, strided<[?, ?], offset: ?>>, %arg144: memref<1536xf32, strided<[?], offset: ?>>, %arg145: memref<8960x1536xf32, strided<[?, ?], offset: ?>>, %arg146: memref<8960x1536xf32, strided<[?, ?], offset: ?>>, %arg147: memref<1536x8960xf32, strided<[?, ?], offset: ?>>, %arg148: memref<1536xf32, strided<[?], offset: ?>>, %arg149: memref<1536x1536xf32, strided<[?, ?], offset: ?>>, %arg150: memref<1536xf32, strided<[?], offset: ?>>, %arg151: memref<256x1536xf32, strided<[?, ?], offset: ?>>, %arg152: memref<256xf32, strided<[?], offset: ?>>, %arg153: memref<256x1536xf32, strided<[?, ?], offset: ?>>, %arg154: memref<256xf32, strided<[?], offset: ?>>, %arg155: memref<1536x1536xf32, strided<[?, ?], offset: ?>>, %arg156: memref<1536xf32, strided<[?], offset: ?>>, %arg157: memref<8960x1536xf32, strided<[?, ?], offset: ?>>, %arg158: memref<8960x1536xf32, strided<[?, ?], offset: ?>>, %arg159: memref<1536x8960xf32, strided<[?, ?], offset: ?>>, %arg160: memref<1536xf32, strided<[?], offset: ?>>, %arg161: memref<1536x1536xf32, strided<[?, ?], offset: ?>>, %arg162: memref<1536xf32, strided<[?], offset: ?>>, %arg163: memref<256x1536xf32, strided<[?, ?], offset: ?>>, %arg164: memref<256xf32, strided<[?], offset: ?>>, %arg165: memref<256x1536xf32, strided<[?, ?], offset: ?>>, %arg166: memref<256xf32, strided<[?], offset: ?>>, %arg167: memref<1536x1536xf32, strided<[?, ?], offset: ?>>, %arg168: memref<1536xf32, strided<[?], offset: ?>>, %arg169: memref<8960x1536xf32, strided<[?, ?], offset: ?>>, %arg170: memref<8960x1536xf32, strided<[?, ?], offset: ?>>, %arg171: memref<1536x8960xf32, strided<[?, ?], offset: ?>>, %arg172: memref<1536xf32, strided<[?], offset: ?>>, %arg173: memref<1536x1536xf32, strided<[?, ?], offset: ?>>, %arg174: memref<1536xf32, strided<[?], offset: ?>>, %arg175: memref<256x1536xf32, strided<[?, ?], offset: ?>>, %arg176: memref<256xf32, strided<[?], offset: ?>>, %arg177: memref<256x1536xf32, strided<[?, ?], offset: ?>>, %arg178: memref<256xf32, strided<[?], offset: ?>>, %arg179: memref<1536x1536xf32, strided<[?, ?], offset: ?>>, %arg180: memref<1536xf32, strided<[?], offset: ?>>, %arg181: memref<8960x1536xf32, strided<[?, ?], offset: ?>>, %arg182: memref<8960x1536xf32, strided<[?, ?], offset: ?>>, %arg183: memref<1536x8960xf32, strided<[?, ?], offset: ?>>, %arg184: memref<1536xf32, strided<[?], offset: ?>>, %arg185: memref<1536x1536xf32, strided<[?, ?], offset: ?>>, %arg186: memref<1536xf32, strided<[?], offset: ?>>, %arg187: memref<256x1536xf32, strided<[?, ?], offset: ?>>, %arg188: memref<256xf32, strided<[?], offset: ?>>, %arg189: memref<256x1536xf32, strided<[?, ?], offset: ?>>, %arg190: memref<256xf32, strided<[?], offset: ?>>, %arg191: memref<1536x1536xf32, strided<[?, ?], offset: ?>>, %arg192: memref<1536xf32, strided<[?], offset: ?>>, %arg193: memref<8960x1536xf32, strided<[?, ?], offset: ?>>, %arg194: memref<8960x1536xf32, strided<[?, ?], offset: ?>>, %arg195: memref<1536x8960xf32, strided<[?, ?], offset: ?>>, %arg196: memref<1536xf32, strided<[?], offset: ?>>, %arg197: memref<1536x1536xf32, strided<[?, ?], offset: ?>>, %arg198: memref<1536xf32, strided<[?], offset: ?>>, %arg199: memref<256x1536xf32, strided<[?, ?], offset: ?>>, %arg200: memref<256xf32, strided<[?], offset: ?>>, %arg201: memref<256x1536xf32, strided<[?, ?], offset: ?>>, %arg202: memref<256xf32, strided<[?], offset: ?>>, %arg203: memref<1536x1536xf32, strided<[?, ?], offset: ?>>, %arg204: memref<1536xf32, strided<[?], offset: ?>>, %arg205: memref<8960x1536xf32, strided<[?, ?], offset: ?>>, %arg206: memref<8960x1536xf32, strided<[?, ?], offset: ?>>, %arg207: memref<1536x8960xf32, strided<[?, ?], offset: ?>>, %arg208: memref<1536xf32, strided<[?], offset: ?>>, %arg209: memref<1536x1536xf32, strided<[?, ?], offset: ?>>, %arg210: memref<1536xf32, strided<[?], offset: ?>>, %arg211: memref<256x1536xf32, strided<[?, ?], offset: ?>>, %arg212: memref<256xf32, strided<[?], offset: ?>>, %arg213: memref<256x1536xf32, strided<[?, ?], offset: ?>>, %arg214: memref<256xf32, strided<[?], offset: ?>>, %arg215: memref<1536x1536xf32, strided<[?, ?], offset: ?>>, %arg216: memref<1536xf32, strided<[?], offset: ?>>, %arg217: memref<8960x1536xf32, strided<[?, ?], offset: ?>>, %arg218: memref<8960x1536xf32, strided<[?, ?], offset: ?>>, %arg219: memref<1536x8960xf32, strided<[?, ?], offset: ?>>, %arg220: memref<1536xf32, strided<[?], offset: ?>>, %arg221: memref<1536x1536xf32, strided<[?, ?], offset: ?>>, %arg222: memref<1536xf32, strided<[?], offset: ?>>, %arg223: memref<256x1536xf32, strided<[?, ?], offset: ?>>, %arg224: memref<256xf32, strided<[?], offset: ?>>, %arg225: memref<256x1536xf32, strided<[?, ?], offset: ?>>, %arg226: memref<256xf32, strided<[?], offset: ?>>, %arg227: memref<1536x1536xf32, strided<[?, ?], offset: ?>>, %arg228: memref<1536xf32, strided<[?], offset: ?>>, %arg229: memref<8960x1536xf32, strided<[?, ?], offset: ?>>, %arg230: memref<8960x1536xf32, strided<[?, ?], offset: ?>>, %arg231: memref<1536x8960xf32, strided<[?, ?], offset: ?>>, %arg232: memref<1536xf32, strided<[?], offset: ?>>, %arg233: memref<1536x1536xf32, strided<[?, ?], offset: ?>>, %arg234: memref<1536xf32, strided<[?], offset: ?>>, %arg235: memref<256x1536xf32, strided<[?, ?], offset: ?>>, %arg236: memref<256xf32, strided<[?], offset: ?>>, %arg237: memref<256x1536xf32, strided<[?, ?], offset: ?>>, %arg238: memref<256xf32, strided<[?], offset: ?>>, %arg239: memref<1536x1536xf32, strided<[?, ?], offset: ?>>, %arg240: memref<1536xf32, strided<[?], offset: ?>>, %arg241: memref<8960x1536xf32, strided<[?, ?], offset: ?>>, %arg242: memref<8960x1536xf32, strided<[?, ?], offset: ?>>, %arg243: memref<1536x8960xf32, strided<[?, ?], offset: ?>>, %arg244: memref<1536xf32, strided<[?], offset: ?>>, %arg245: memref<1536x1536xf32, strided<[?, ?], offset: ?>>, %arg246: memref<1536xf32, strided<[?], offset: ?>>, %arg247: memref<256x1536xf32, strided<[?, ?], offset: ?>>, %arg248: memref<256xf32, strided<[?], offset: ?>>, %arg249: memref<256x1536xf32, strided<[?, ?], offset: ?>>, %arg250: memref<256xf32, strided<[?], offset: ?>>, %arg251: memref<1536x1536xf32, strided<[?, ?], offset: ?>>, %arg252: memref<1536xf32, strided<[?], offset: ?>>, %arg253: memref<8960x1536xf32, strided<[?, ?], offset: ?>>, %arg254: memref<8960x1536xf32, strided<[?, ?], offset: ?>>, %arg255: memref<1536x8960xf32, strided<[?, ?], offset: ?>>, %arg256: memref<1536xf32, strided<[?], offset: ?>>, %arg257: memref<1536x1536xf32, strided<[?, ?], offset: ?>>, %arg258: memref<1536xf32, strided<[?], offset: ?>>, %arg259: memref<256x1536xf32, strided<[?, ?], offset: ?>>, %arg260: memref<256xf32, strided<[?], offset: ?>>, %arg261: memref<256x1536xf32, strided<[?, ?], offset: ?>>, %arg262: memref<256xf32, strided<[?], offset: ?>>, %arg263: memref<1536x1536xf32, strided<[?, ?], offset: ?>>, %arg264: memref<1536xf32, strided<[?], offset: ?>>, %arg265: memref<8960x1536xf32, strided<[?, ?], offset: ?>>, %arg266: memref<8960x1536xf32, strided<[?, ?], offset: ?>>, %arg267: memref<1536x8960xf32, strided<[?, ?], offset: ?>>, %arg268: memref<1536xf32, strided<[?], offset: ?>>, %arg269: memref<1536x1536xf32, strided<[?, ?], offset: ?>>, %arg270: memref<1536xf32, strided<[?], offset: ?>>, %arg271: memref<256x1536xf32, strided<[?, ?], offset: ?>>, %arg272: memref<256xf32, strided<[?], offset: ?>>, %arg273: memref<256x1536xf32, strided<[?, ?], offset: ?>>, %arg274: memref<256xf32, strided<[?], offset: ?>>, %arg275: memref<1536x1536xf32, strided<[?, ?], offset: ?>>, %arg276: memref<1536xf32, strided<[?], offset: ?>>, %arg277: memref<8960x1536xf32, strided<[?, ?], offset: ?>>, %arg278: memref<8960x1536xf32, strided<[?, ?], offset: ?>>, %arg279: memref<1536x8960xf32, strided<[?, ?], offset: ?>>, %arg280: memref<1536xf32, strided<[?], offset: ?>>, %arg281: memref<1536x1536xf32, strided<[?, ?], offset: ?>>, %arg282: memref<1536xf32, strided<[?], offset: ?>>, %arg283: memref<256x1536xf32, strided<[?, ?], offset: ?>>, %arg284: memref<256xf32, strided<[?], offset: ?>>, %arg285: memref<256x1536xf32, strided<[?, ?], offset: ?>>, %arg286: memref<256xf32, strided<[?], offset: ?>>, %arg287: memref<1536x1536xf32, strided<[?, ?], offset: ?>>, %arg288: memref<1536xf32, strided<[?], offset: ?>>, %arg289: memref<8960x1536xf32, strided<[?, ?], offset: ?>>, %arg290: memref<8960x1536xf32, strided<[?, ?], offset: ?>>, %arg291: memref<1536x8960xf32, strided<[?, ?], offset: ?>>, %arg292: memref<1536xf32, strided<[?], offset: ?>>, %arg293: memref<1536x1536xf32, strided<[?, ?], offset: ?>>, %arg294: memref<1536xf32, strided<[?], offset: ?>>, %arg295: memref<256x1536xf32, strided<[?, ?], offset: ?>>, %arg296: memref<256xf32, strided<[?], offset: ?>>, %arg297: memref<256x1536xf32, strided<[?, ?], offset: ?>>, %arg298: memref<256xf32, strided<[?], offset: ?>>, %arg299: memref<1536x1536xf32, strided<[?, ?], offset: ?>>, %arg300: memref<1536xf32, strided<[?], offset: ?>>, %arg301: memref<8960x1536xf32, strided<[?, ?], offset: ?>>, %arg302: memref<8960x1536xf32, strided<[?, ?], offset: ?>>, %arg303: memref<1536x8960xf32, strided<[?, ?], offset: ?>>, %arg304: memref<1536xf32, strided<[?], offset: ?>>, %arg305: memref<1536x1536xf32, strided<[?, ?], offset: ?>>, %arg306: memref<1536xf32, strided<[?], offset: ?>>, %arg307: memref<256x1536xf32, strided<[?, ?], offset: ?>>, %arg308: memref<256xf32, strided<[?], offset: ?>>, %arg309: memref<256x1536xf32, strided<[?, ?], offset: ?>>, %arg310: memref<256xf32, strided<[?], offset: ?>>, %arg311: memref<1536x1536xf32, strided<[?, ?], offset: ?>>, %arg312: memref<1536xf32, strided<[?], offset: ?>>, %arg313: memref<8960x1536xf32, strided<[?, ?], offset: ?>>, %arg314: memref<8960x1536xf32, strided<[?, ?], offset: ?>>, %arg315: memref<1536x8960xf32, strided<[?, ?], offset: ?>>, %arg316: memref<1536xf32, strided<[?], offset: ?>>, %arg317: memref<1536x1536xf32, strided<[?, ?], offset: ?>>, %arg318: memref<1536xf32, strided<[?], offset: ?>>, %arg319: memref<256x1536xf32, strided<[?, ?], offset: ?>>, %arg320: memref<256xf32, strided<[?], offset: ?>>, %arg321: memref<256x1536xf32, strided<[?, ?], offset: ?>>, %arg322: memref<256xf32, strided<[?], offset: ?>>, %arg323: memref<1536x1536xf32, strided<[?, ?], offset: ?>>, %arg324: memref<1536xf32, strided<[?], offset: ?>>, %arg325: memref<8960x1536xf32, strided<[?, ?], offset: ?>>, %arg326: memref<8960x1536xf32, strided<[?, ?], offset: ?>>, %arg327: memref<1536x8960xf32, strided<[?, ?], offset: ?>>, %arg328: memref<1536xf32, strided<[?], offset: ?>>, %arg329: memref<1536x1536xf32, strided<[?, ?], offset: ?>>, %arg330: memref<1536xf32, strided<[?], offset: ?>>, %arg331: memref<256x1536xf32, strided<[?, ?], offset: ?>>, %arg332: memref<256xf32, strided<[?], offset: ?>>, %arg333: memref<256x1536xf32, strided<[?, ?], offset: ?>>, %arg334: memref<256xf32, strided<[?], offset: ?>>, %arg335: memref<1536x1536xf32, strided<[?, ?], offset: ?>>, %arg336: memref<1536xf32, strided<[?], offset: ?>>, %arg337: memref<8960x1536xf32, strided<[?, ?], offset: ?>>, %arg338: memref<8960x1536xf32, strided<[?, ?], offset: ?>>, %arg339: memref<1536x8960xf32, strided<[?, ?], offset: ?>>, %arg340: memref<1536xf32, strided<[?], offset: ?>>, %arg341: memref<151936x1536xf32, strided<[?, ?], offset: ?>>) -> memref<1x1024x151936xf32> {
    %alloc = memref.alloc() {alignment = 64 : i64} : memref<1x1024xi32>
    linalg.generic {indexing_maps = [#map, #map], iterator_types = ["parallel", "parallel"]} ins(%arg1 : memref<1x1024xi64, strided<[?, ?], offset: ?>>) outs(%alloc : memref<1x1024xi32>) {
    ^bb0(%in: i64, %out: i32):
      %778 = arith.trunci %in : i64 to i32
      linalg.yield %778 : i32
    }
    %expand_shape = memref.expand_shape %arg0 [[0, 1], [2]] output_shape [1, 151936, 1536] : memref<151936x1536xf32, strided<[?, ?], offset: ?>> into memref<1x151936x1536xf32, strided<[?, ?, ?], offset: ?>>
    %alloc_0 = memref.alloc() {alignment = 64 : i64} : memref<1x1024x1536xf32>
    linalg.generic {indexing_maps = [#map1, #map2], iterator_types = ["parallel", "parallel", "parallel"]} ins(%alloc : memref<1x1024xi32>) outs(%alloc_0 : memref<1x1024x1536xf32>) {
    ^bb0(%in: i32, %out: f32):
      %778 = linalg.index 0 : index
      %779 = arith.index_cast %in : i32 to index
      %780 = linalg.index 2 : index
      %781 = memref.load %expand_shape[%778, %779, %780] : memref<1x151936x1536xf32, strided<[?, ?, ?], offset: ?>>
      linalg.yield %781 : f32
    }
    %0 = memref.get_global @__constant_1024xi64 : memref<1024xi64>
    %1 = memref.get_global @__constant_1x1024xi64 : memref<1x1024xi64>
    %2 = memref.get_global @__constant_1024x1024xf32 : memref<1024x1024xf32>
    %3 = memref.get_global @__constant_1024xi64 : memref<1024xi64>
    %4 = memref.get_global @__constant_1024x1xi64 : memref<1024x1xi64>
    %alloc_1 = memref.alloc() {alignment = 64 : i64} : memref<1024x1024xi1>
    linalg.generic {indexing_maps = [#map3, #map4, #map1], iterator_types = ["parallel", "parallel", "reduction"]} ins(%3, %4 : memref<1024xi64>, memref<1024x1xi64>) outs(%alloc_1 : memref<1024x1024xi1>) {
    ^bb0(%in: i64, %in_3369: i64, %out: i1):
      %778 = arith.cmpi sgt, %in, %in_3369 : i64
      linalg.yield %778 : i1
    }
    %alloc_2 = memref.alloc() {alignment = 64 : i64} : memref<1024x1024xf32>
    linalg.generic {indexing_maps = [#map, #map], iterator_types = ["parallel", "parallel"]} ins(%alloc_1 : memref<1024x1024xi1>) outs(%alloc_2 : memref<1024x1024xf32>) {
    ^bb0(%in: i1, %out: f32):
      %778 = arith.uitofp %in : i1 to f32
      linalg.yield %778 : f32
    }
    %alloc_3 = memref.alloc() {alignment = 64 : i64} : memref<1024x1024xf32>
    linalg.generic {indexing_maps = [#map, #map, #map], iterator_types = ["parallel", "parallel"]} ins(%alloc_2, %2 : memref<1024x1024xf32>, memref<1024x1024xf32>) outs(%alloc_3 : memref<1024x1024xf32>) {
    ^bb0(%in: f32, %in_3369: f32, %out: f32):
      %778 = arith.mulf %in, %in_3369 : f32
      linalg.yield %778 : f32
    }
    %expand_shape_4 = memref.expand_shape %alloc_3 [[0, 1], [2]] output_shape [1, 1024, 1024] : memref<1024x1024xf32> into memref<1x1024x1024xf32>
    %expand_shape_5 = memref.expand_shape %alloc_3 [[0, 1, 2], [3]] output_shape [1, 1, 1024, 1024] : memref<1024x1024xf32> into memref<1x1x1024x1024xf32>
    %5 = memref.get_global @__constant_1x1x1024x1024xf32 : memref<1x1x1024x1024xf32>
    %expand_shape_6 = memref.expand_shape %arg2 [[0, 1], [2]] output_shape [1, 1, 1024] : memref<1x1024xi64, strided<[?, ?], offset: ?>> into memref<1x1x1024xi64, strided<[?, ?, ?], offset: ?>>
    %expand_shape_7 = memref.expand_shape %arg2 [[0, 1, 2], [3]] output_shape [1, 1, 1, 1024] : memref<1x1024xi64, strided<[?, ?], offset: ?>> into memref<1x1x1x1024xi64, strided<[?, ?, ?, ?], offset: ?>>
    %alloc_8 = memref.alloc() {alignment = 64 : i64} : memref<1x1x1x1024xf32>
    linalg.generic {indexing_maps = [#map5, #map5], iterator_types = ["parallel", "parallel", "parallel", "parallel"]} ins(%expand_shape_7 : memref<1x1x1x1024xi64, strided<[?, ?, ?, ?], offset: ?>>) outs(%alloc_8 : memref<1x1x1x1024xf32>) {
    ^bb0(%in: i64, %out: f32):
      %778 = arith.sitofp %in : i64 to f32
      linalg.yield %778 : f32
    }
    %alloc_9 = memref.alloc() {alignment = 64 : i64} : memref<1x1x1024x1024xf32>
    linalg.generic {indexing_maps = [#map5, #map6, #map5], iterator_types = ["parallel", "parallel", "parallel", "parallel"]} ins(%expand_shape_5, %alloc_8 : memref<1x1x1024x1024xf32>, memref<1x1x1x1024xf32>) outs(%alloc_9 : memref<1x1x1024x1024xf32>) {
    ^bb0(%in: f32, %in_3369: f32, %out: f32):
      %778 = arith.addf %in, %in_3369 : f32
      linalg.yield %778 : f32
    }
    %cst = arith.constant 0.000000e+00 : f32
    %6 = memref.get_global @__constant_1x1x1024x1024xf32 : memref<1x1x1024x1024xf32>
    %alloc_10 = memref.alloc() {alignment = 64 : i64} : memref<1x1x1024x1024xi1>
    linalg.generic {indexing_maps = [#map5, #map5, #map5], iterator_types = ["parallel", "parallel", "parallel", "parallel"]} ins(%alloc_9, %6 : memref<1x1x1024x1024xf32>, memref<1x1x1024x1024xf32>) outs(%alloc_10 : memref<1x1x1024x1024xi1>) {
    ^bb0(%in: f32, %in_3369: f32, %out: i1):
      %778 = arith.cmpf oeq, %in, %in_3369 : f32
      linalg.yield %778 : i1
    }
    %cst_11 = arith.constant -3.40282347E+38 : f32
    %alloc_12 = memref.alloc() {alignment = 64 : i64} : memref<1x1x1024x1024xf32>
    %7 = memref.get_global @__constant_1x1x1024x1024xf32_0 : memref<1x1x1024x1024xf32>
    linalg.generic {indexing_maps = [#map5, #map5, #map5, #map5], iterator_types = ["parallel", "parallel", "parallel", "parallel"]} ins(%alloc_10, %7, %expand_shape_5 : memref<1x1x1024x1024xi1>, memref<1x1x1024x1024xf32>, memref<1x1x1024x1024xf32>) outs(%alloc_12 : memref<1x1x1024x1024xf32>) {
    ^bb0(%in: i1, %in_3369: f32, %in_3370: f32, %out: f32):
      %778 = arith.select %in, %in_3369, %in_3370 : f32
      linalg.yield %778 : f32
    }
    linalg.generic {indexing_maps = [#map5, #map5], iterator_types = ["parallel", "parallel", "parallel", "parallel"]} ins(%alloc_12 : memref<1x1x1024x1024xf32>) outs(%expand_shape_5 : memref<1x1x1024x1024xf32>) {
    ^bb0(%in: f32, %out: f32):
      linalg.yield %in : f32
    }
    %expand_shape_13 = memref.expand_shape %arg3 [[0, 1]] output_shape [1, 64] : memref<64xf32, strided<[?], offset: ?>> into memref<1x64xf32, strided<[?, ?], offset: ?>>
    %expand_shape_14 = memref.expand_shape %expand_shape_13 [[0], [1, 2]] output_shape [1, 64, 1] : memref<1x64xf32, strided<[?, ?], offset: ?>> into memref<1x64x1xf32, strided<[?, ?, ?], offset: ?>>
    %8 = memref.get_global @__constant_1x64x1xf32 : memref<1x64x1xf32>
    %expand_shape_15 = memref.expand_shape %1 [[0, 1], [2]] output_shape [1, 1, 1024] : memref<1x1024xi64> into memref<1x1x1024xi64>
    %alloc_16 = memref.alloc() {alignment = 64 : i64} : memref<1x1x1024xf32>
    linalg.generic {indexing_maps = [#map2, #map2], iterator_types = ["parallel", "parallel", "parallel"]} ins(%expand_shape_15 : memref<1x1x1024xi64>) outs(%alloc_16 : memref<1x1x1024xf32>) {
    ^bb0(%in: i64, %out: f32):
      %778 = arith.sitofp %in : i64 to f32
      linalg.yield %778 : f32
    }
    %9 = memref.get_global @__constant_1x64x1xf32 : memref<1x64x1xf32>
    %10 = memref.get_global @__constant_1x1x1024xf32 : memref<1x1x1024xf32>
    %cst_17 = arith.constant 0.000000e+00 : f32
    %alloc_18 = memref.alloc() {alignment = 64 : i64} : memref<1x64x1024xf32>
    linalg.fill ins(%cst_17 : f32) outs(%alloc_18 : memref<1x64x1024xf32>)
    linalg.batch_matmul ins(%expand_shape_14, %alloc_16 : memref<1x64x1xf32, strided<[?, ?, ?], offset: ?>>, memref<1x1x1024xf32>) outs(%alloc_18 : memref<1x64x1024xf32>)
    %11 = memref.get_global @__constant_3xi32 : memref<3xi32>
    %alloc_19 = memref.alloc() {alignment = 64 : i64} : memref<1x1024x64xf32>
    linalg.transpose ins(%alloc_18 : memref<1x64x1024xf32>) outs(%alloc_19 : memref<1x1024x64xf32>) permutation = [0, 2, 1] 
    %expand_shape_20 = memref.expand_shape %alloc_19 [[0], [1, 2], [3]] output_shape [1, 1024, 1, 64] : memref<1x1024x64xf32> into memref<1x1024x1x64xf32>
    %12 = memref.get_global @__constant_1x1024x2x64xf32 : memref<1x1024x2x64xf32>
    %alloc_21 = memref.alloc() {alignment = 64 : i64} : memref<1x1024x2x64xf32>
    linalg.generic {indexing_maps = [#map6, #map5, #map5], iterator_types = ["parallel", "parallel", "parallel", "parallel"]} ins(%expand_shape_20, %12 : memref<1x1024x1x64xf32>, memref<1x1024x2x64xf32>) outs(%alloc_21 : memref<1x1024x2x64xf32>) {
    ^bb0(%in: f32, %in_3369: f32, %out: f32):
      %778 = arith.addf %in, %in_3369 : f32
      linalg.yield %778 : f32
    }
    %collapse_shape = memref.collapse_shape %alloc_21 [[0], [1], [2, 3]] : memref<1x1024x2x64xf32> into memref<1x1024x128xf32>
    %alloc_22 = memref.alloc() {alignment = 64 : i64} : memref<1x1024x128xf32>
    linalg.generic {indexing_maps = [#map2, #map2], iterator_types = ["parallel", "parallel", "parallel"]} ins(%collapse_shape : memref<1x1024x128xf32>) outs(%alloc_22 : memref<1x1024x128xf32>) {
    ^bb0(%in: f32, %out: f32):
      %778 = math.cos %in : f32
      linalg.yield %778 : f32
    }
    linalg.generic {indexing_maps = [#map2, #map2], iterator_types = ["parallel", "parallel", "parallel"]} ins(%collapse_shape : memref<1x1024x128xf32>) outs(%collapse_shape : memref<1x1024x128xf32>) {
    ^bb0(%in: f32, %out: f32):
      %778 = math.sin %in : f32
      linalg.yield %778 : f32
    }
    %13 = memref.get_global @__constant_1xf32 : memref<1xf32>
    %14 = memref.get_global @__constant_1x1x1xf32 : memref<1x1x1xf32>
    %alloc_23 = memref.alloc() {alignment = 64 : i64} : memref<1x1024x128xf32>
    linalg.generic {indexing_maps = [#map2, #map7, #map2], iterator_types = ["parallel", "parallel", "parallel"]} ins(%alloc_22, %14 : memref<1x1024x128xf32>, memref<1x1x1xf32>) outs(%alloc_23 : memref<1x1024x128xf32>) {
    ^bb0(%in: f32, %in_3369: f32, %out: f32):
      %778 = arith.mulf %in, %in_3369 : f32
      linalg.yield %778 : f32
    }
    %15 = memref.get_global @__constant_1xf32 : memref<1xf32>
    %16 = memref.get_global @__constant_1x1x1xf32 : memref<1x1x1xf32>
    %alloc_24 = memref.alloc() {alignment = 64 : i64} : memref<1x1024x128xf32>
    linalg.generic {indexing_maps = [#map2, #map7, #map2], iterator_types = ["parallel", "parallel", "parallel"]} ins(%collapse_shape, %16 : memref<1x1024x128xf32>, memref<1x1x1xf32>) outs(%alloc_24 : memref<1x1024x128xf32>) {
    ^bb0(%in: f32, %in_3369: f32, %out: f32):
      %778 = arith.mulf %in, %in_3369 : f32
      linalg.yield %778 : f32
    }
    %alloc_25 = memref.alloc() {alignment = 64 : i64} : memref<1x1024x1536xf32>
    %c2_i32 = arith.constant 2 : i32
    linalg.generic {indexing_maps = [#map2, #map2], iterator_types = ["parallel", "parallel", "parallel"]} ins(%alloc_0 : memref<1x1024x1536xf32>) outs(%alloc_25 : memref<1x1024x1536xf32>) {
    ^bb0(%in: f32, %out: f32):
      %778 = math.fpowi %in, %c2_i32 : f32, i32
      linalg.yield %778 : f32
    }
    %alloc_26 = memref.alloc() {alignment = 64 : i64} : memref<1x1024xf32>
    %cst_27 = arith.constant 0.000000e+00 : f32
    linalg.fill ins(%cst_27 : f32) outs(%alloc_26 : memref<1x1024xf32>)
    linalg.reduce ins(%alloc_25 : memref<1x1024x1536xf32>) outs(%alloc_26 : memref<1x1024xf32>) dimensions = [2] 
      (%in: f32, %init: f32) {
        %778 = arith.addf %in, %init : f32
        linalg.yield %778 : f32
      }
    %expand_shape_28 = memref.expand_shape %alloc_26 [[0], [1, 2]] output_shape [1, 1024, 1] : memref<1x1024xf32> into memref<1x1024x1xf32>
    %17 = memref.get_global @__constant_1xf32_0 : memref<1xf32>
    %18 = memref.get_global @__constant_1xf32_1 : memref<1xf32>
    %19 = memref.get_global @__constant_1x1x1xf32_0 : memref<1x1x1xf32>
    %alloc_29 = memref.alloc() {alignment = 64 : i64} : memref<1x1024x1xf32>
    linalg.generic {indexing_maps = [#map8, #map2, #map2], iterator_types = ["parallel", "parallel", "parallel"]} ins(%19, %expand_shape_28 : memref<1x1x1xf32>, memref<1x1024x1xf32>) outs(%alloc_29 : memref<1x1024x1xf32>) {
    ^bb0(%in: f32, %in_3369: f32, %out: f32):
      %778 = arith.mulf %in, %in_3369 : f32
      linalg.yield %778 : f32
    }
    %20 = memref.get_global @__constant_1x1024x1xf32 : memref<1x1024x1xf32>
    %alloc_30 = memref.alloc() {alignment = 64 : i64} : memref<1x1024x1xf32>
    linalg.generic {indexing_maps = [#map2, #map2, #map2], iterator_types = ["parallel", "parallel", "parallel"]} ins(%alloc_29, %20 : memref<1x1024x1xf32>, memref<1x1024x1xf32>) outs(%alloc_30 : memref<1x1024x1xf32>) {
    ^bb0(%in: f32, %in_3369: f32, %out: f32):
      %778 = arith.addf %in, %in_3369 : f32
      linalg.yield %778 : f32
    }
    %alloc_31 = memref.alloc() {alignment = 64 : i64} : memref<1x1024x1xf32>
    linalg.generic {indexing_maps = [#map2, #map2], iterator_types = ["parallel", "parallel", "parallel"]} ins(%alloc_30 : memref<1x1024x1xf32>) outs(%alloc_31 : memref<1x1024x1xf32>) {
    ^bb0(%in: f32, %out: f32):
      %778 = math.rsqrt %in : f32
      linalg.yield %778 : f32
    }
    %alloc_32 = memref.alloc() {alignment = 64 : i64} : memref<1x1024x1536xf32>
    linalg.generic {indexing_maps = [#map2, #map9, #map2], iterator_types = ["parallel", "parallel", "parallel"]} ins(%alloc_0, %alloc_31 : memref<1x1024x1536xf32>, memref<1x1024x1xf32>) outs(%alloc_32 : memref<1x1024x1536xf32>) {
    ^bb0(%in: f32, %in_3369: f32, %out: f32):
      %778 = arith.mulf %in, %in_3369 : f32
      linalg.yield %778 : f32
    }
    %expand_shape_33 = memref.expand_shape %arg4 [[0, 1, 2]] output_shape [1, 1, 1536] : memref<1536xf32, strided<[?], offset: ?>> into memref<1x1x1536xf32, strided<[?, ?, ?], offset: ?>>
    %alloc_34 = memref.alloc() {alignment = 64 : i64} : memref<1x1024x1536xf32>
    linalg.generic {indexing_maps = [#map8, #map2, #map2], iterator_types = ["parallel", "parallel", "parallel"]} ins(%expand_shape_33, %alloc_32 : memref<1x1x1536xf32, strided<[?, ?, ?], offset: ?>>, memref<1x1024x1536xf32>) outs(%alloc_34 : memref<1x1024x1536xf32>) {
    ^bb0(%in: f32, %in_3369: f32, %out: f32):
      %778 = arith.mulf %in, %in_3369 : f32
      linalg.yield %778 : f32
    }
    %collapse_shape_35 = memref.collapse_shape %alloc_34 [[0, 1], [2]] : memref<1x1024x1536xf32> into memref<1024x1536xf32>
    %21 = memref.get_global @__constant_2xi32 : memref<2xi32>
    %alloc_36 = memref.alloc() {alignment = 64 : i64} : memref<1536x1536xf32>
    linalg.transpose ins(%arg5 : memref<1536x1536xf32, strided<[?, ?], offset: ?>>) outs(%alloc_36 : memref<1536x1536xf32>) permutation = [1, 0] 
    %22 = memref.get_global @__constant_1024x1536xf32 : memref<1024x1536xf32>
    %alloc_37 = memref.alloc() {alignment = 64 : i64} : memref<1024x1536xf32>
    memref.copy %22, %alloc_37 : memref<1024x1536xf32> to memref<1024x1536xf32>
    linalg.matmul {cast = #linalg.type_fn<cast_signed>} ins(%collapse_shape_35, %alloc_36 : memref<1024x1536xf32>, memref<1536x1536xf32>) outs(%alloc_37 : memref<1024x1536xf32>)
    %expand_shape_38 = memref.expand_shape %arg6 [[0, 1]] output_shape [1, 1536] : memref<1536xf32, strided<[?], offset: ?>> into memref<1x1536xf32, strided<[?, ?], offset: ?>>
    %alloc_39 = memref.alloc() {alignment = 64 : i64} : memref<1024x1536xf32>
    linalg.generic {indexing_maps = [#map10, #map, #map], iterator_types = ["parallel", "parallel"]} ins(%expand_shape_38, %alloc_37 : memref<1x1536xf32, strided<[?, ?], offset: ?>>, memref<1024x1536xf32>) outs(%alloc_39 : memref<1024x1536xf32>) {
    ^bb0(%in: f32, %in_3369: f32, %out: f32):
      %778 = arith.addf %in, %in_3369 : f32
      linalg.yield %778 : f32
    }
    %expand_shape_40 = memref.expand_shape %alloc_39 [[0, 1], [2]] output_shape [1, 1024, 1536] : memref<1024x1536xf32> into memref<1x1024x1536xf32>
    %collapse_shape_41 = memref.collapse_shape %alloc_34 [[0, 1], [2]] : memref<1x1024x1536xf32> into memref<1024x1536xf32>
    %23 = memref.get_global @__constant_2xi32 : memref<2xi32>
    %alloc_42 = memref.alloc() {alignment = 64 : i64} : memref<1536x256xf32>
    linalg.transpose ins(%arg7 : memref<256x1536xf32, strided<[?, ?], offset: ?>>) outs(%alloc_42 : memref<1536x256xf32>) permutation = [1, 0] 
    %24 = memref.get_global @__constant_1024x256xf32 : memref<1024x256xf32>
    %alloc_43 = memref.alloc() {alignment = 64 : i64} : memref<1024x256xf32>
    memref.copy %24, %alloc_43 : memref<1024x256xf32> to memref<1024x256xf32>
    linalg.matmul {cast = #linalg.type_fn<cast_signed>} ins(%collapse_shape_41, %alloc_42 : memref<1024x1536xf32>, memref<1536x256xf32>) outs(%alloc_43 : memref<1024x256xf32>)
    %expand_shape_44 = memref.expand_shape %arg8 [[0, 1]] output_shape [1, 256] : memref<256xf32, strided<[?], offset: ?>> into memref<1x256xf32, strided<[?, ?], offset: ?>>
    %alloc_45 = memref.alloc() {alignment = 64 : i64} : memref<1024x256xf32>
    linalg.generic {indexing_maps = [#map10, #map, #map], iterator_types = ["parallel", "parallel"]} ins(%expand_shape_44, %alloc_43 : memref<1x256xf32, strided<[?, ?], offset: ?>>, memref<1024x256xf32>) outs(%alloc_45 : memref<1024x256xf32>) {
    ^bb0(%in: f32, %in_3369: f32, %out: f32):
      %778 = arith.addf %in, %in_3369 : f32
      linalg.yield %778 : f32
    }
    %expand_shape_46 = memref.expand_shape %alloc_45 [[0, 1], [2]] output_shape [1, 1024, 256] : memref<1024x256xf32> into memref<1x1024x256xf32>
    %collapse_shape_47 = memref.collapse_shape %alloc_34 [[0, 1], [2]] : memref<1x1024x1536xf32> into memref<1024x1536xf32>
    %25 = memref.get_global @__constant_2xi32 : memref<2xi32>
    %alloc_48 = memref.alloc() {alignment = 64 : i64} : memref<1536x256xf32>
    linalg.transpose ins(%arg9 : memref<256x1536xf32, strided<[?, ?], offset: ?>>) outs(%alloc_48 : memref<1536x256xf32>) permutation = [1, 0] 
    %26 = memref.get_global @__constant_1024x256xf32 : memref<1024x256xf32>
    %alloc_49 = memref.alloc() {alignment = 64 : i64} : memref<1024x256xf32>
    memref.copy %26, %alloc_49 : memref<1024x256xf32> to memref<1024x256xf32>
    linalg.matmul {cast = #linalg.type_fn<cast_signed>} ins(%collapse_shape_47, %alloc_48 : memref<1024x1536xf32>, memref<1536x256xf32>) outs(%alloc_49 : memref<1024x256xf32>)
    %expand_shape_50 = memref.expand_shape %arg10 [[0, 1]] output_shape [1, 256] : memref<256xf32, strided<[?], offset: ?>> into memref<1x256xf32, strided<[?, ?], offset: ?>>
    %alloc_51 = memref.alloc() {alignment = 64 : i64} : memref<1024x256xf32>
    linalg.generic {indexing_maps = [#map10, #map, #map], iterator_types = ["parallel", "parallel"]} ins(%expand_shape_50, %alloc_49 : memref<1x256xf32, strided<[?, ?], offset: ?>>, memref<1024x256xf32>) outs(%alloc_51 : memref<1024x256xf32>) {
    ^bb0(%in: f32, %in_3369: f32, %out: f32):
      %778 = arith.addf %in, %in_3369 : f32
      linalg.yield %778 : f32
    }
    %expand_shape_52 = memref.expand_shape %alloc_51 [[0, 1], [2]] output_shape [1, 1024, 256] : memref<1024x256xf32> into memref<1x1024x256xf32>
    %expand_shape_53 = memref.expand_shape %alloc_39 [[0, 1], [2, 3]] output_shape [1, 1024, 12, 128] : memref<1024x1536xf32> into memref<1x1024x12x128xf32>
    %27 = memref.get_global @__constant_4xi32 : memref<4xi32>
    %alloc_54 = memref.alloc() {alignment = 64 : i64} : memref<1x12x1024x128xf32>
    linalg.transpose ins(%expand_shape_53 : memref<1x1024x12x128xf32>) outs(%alloc_54 : memref<1x12x1024x128xf32>) permutation = [0, 2, 1, 3] 
    %expand_shape_55 = memref.expand_shape %alloc_45 [[0, 1], [2, 3]] output_shape [1, 1024, 2, 128] : memref<1024x256xf32> into memref<1x1024x2x128xf32>
    %28 = memref.get_global @__constant_4xi32 : memref<4xi32>
    %alloc_56 = memref.alloc() {alignment = 64 : i64} : memref<1x2x1024x128xf32>
    linalg.transpose ins(%expand_shape_55 : memref<1x1024x2x128xf32>) outs(%alloc_56 : memref<1x2x1024x128xf32>) permutation = [0, 2, 1, 3] 
    %expand_shape_57 = memref.expand_shape %alloc_51 [[0, 1], [2, 3]] output_shape [1, 1024, 2, 128] : memref<1024x256xf32> into memref<1x1024x2x128xf32>
    %29 = memref.get_global @__constant_4xi32 : memref<4xi32>
    %alloc_58 = memref.alloc() {alignment = 64 : i64} : memref<1x2x1024x128xf32>
    linalg.transpose ins(%expand_shape_57 : memref<1x1024x2x128xf32>) outs(%alloc_58 : memref<1x2x1024x128xf32>) permutation = [0, 2, 1, 3] 
    %expand_shape_59 = memref.expand_shape %alloc_23 [[0, 1], [2], [3]] output_shape [1, 1, 1024, 128] : memref<1x1024x128xf32> into memref<1x1x1024x128xf32>
    %expand_shape_60 = memref.expand_shape %alloc_24 [[0, 1], [2], [3]] output_shape [1, 1, 1024, 128] : memref<1x1024x128xf32> into memref<1x1x1024x128xf32>
    %alloc_61 = memref.alloc() {alignment = 64 : i64} : memref<1x12x1024x128xf32>
    linalg.generic {indexing_maps = [#map5, #map11, #map5], iterator_types = ["parallel", "parallel", "parallel", "parallel"]} ins(%alloc_54, %expand_shape_59 : memref<1x12x1024x128xf32>, memref<1x1x1024x128xf32>) outs(%alloc_61 : memref<1x12x1024x128xf32>) {
    ^bb0(%in: f32, %in_3369: f32, %out: f32):
      %778 = arith.mulf %in, %in_3369 : f32
      linalg.yield %778 : f32
    }
    %subview = memref.subview %alloc_54[0, 0, 0, 0] [1, 12, 1024, 64] [1, 1, 1, 1] : memref<1x12x1024x128xf32> to memref<1x12x1024x64xf32, strided<[1572864, 131072, 128, 1]>>
    %subview_62 = memref.subview %alloc_54[0, 0, 0, 64] [1, 12, 1024, 64] [1, 1, 1, 1] : memref<1x12x1024x128xf32> to memref<1x12x1024x64xf32, strided<[1572864, 131072, 128, 1], offset: 64>>
    %alloc_63 = memref.alloc() {alignment = 64 : i64} : memref<1x12x1024x64xf32>
    linalg.negf ins(%subview_62 : memref<1x12x1024x64xf32, strided<[1572864, 131072, 128, 1], offset: 64>>) outs(%alloc_63 : memref<1x12x1024x64xf32>)
    %alloc_64 = memref.alloc() {alignment = 64 : i64} : memref<1x12x1024x128xf32>
    %subview_65 = memref.subview %alloc_64[0, 0, 0, 0] [1, 12, 1024, 64] [1, 1, 1, 1] : memref<1x12x1024x128xf32> to memref<1x12x1024x64xf32, strided<[1572864, 131072, 128, 1]>>
    memref.copy %alloc_63, %subview_65 : memref<1x12x1024x64xf32> to memref<1x12x1024x64xf32, strided<[1572864, 131072, 128, 1]>>
    %subview_66 = memref.subview %alloc_64[0, 0, 0, 64] [1, 12, 1024, 64] [1, 1, 1, 1] : memref<1x12x1024x128xf32> to memref<1x12x1024x64xf32, strided<[1572864, 131072, 128, 1], offset: 64>>
    memref.copy %subview, %subview_66 : memref<1x12x1024x64xf32, strided<[1572864, 131072, 128, 1]>> to memref<1x12x1024x64xf32, strided<[1572864, 131072, 128, 1], offset: 64>>
    %alloc_67 = memref.alloc() {alignment = 64 : i64} : memref<1x12x1024x128xf32>
    linalg.generic {indexing_maps = [#map5, #map11, #map5], iterator_types = ["parallel", "parallel", "parallel", "parallel"]} ins(%alloc_64, %expand_shape_60 : memref<1x12x1024x128xf32>, memref<1x1x1024x128xf32>) outs(%alloc_67 : memref<1x12x1024x128xf32>) {
    ^bb0(%in: f32, %in_3369: f32, %out: f32):
      %778 = arith.mulf %in, %in_3369 : f32
      linalg.yield %778 : f32
    }
    %alloc_68 = memref.alloc() {alignment = 64 : i64} : memref<1x12x1024x128xf32>
    linalg.generic {indexing_maps = [#map5, #map5, #map5], iterator_types = ["parallel", "parallel", "parallel", "parallel"]} ins(%alloc_61, %alloc_67 : memref<1x12x1024x128xf32>, memref<1x12x1024x128xf32>) outs(%alloc_68 : memref<1x12x1024x128xf32>) {
    ^bb0(%in: f32, %in_3369: f32, %out: f32):
      %778 = arith.addf %in, %in_3369 : f32
      linalg.yield %778 : f32
    }
    %alloc_69 = memref.alloc() {alignment = 64 : i64} : memref<1x2x1024x128xf32>
    linalg.generic {indexing_maps = [#map5, #map11, #map5], iterator_types = ["parallel", "parallel", "parallel", "parallel"]} ins(%alloc_56, %expand_shape_59 : memref<1x2x1024x128xf32>, memref<1x1x1024x128xf32>) outs(%alloc_69 : memref<1x2x1024x128xf32>) {
    ^bb0(%in: f32, %in_3369: f32, %out: f32):
      %778 = arith.mulf %in, %in_3369 : f32
      linalg.yield %778 : f32
    }
    %subview_70 = memref.subview %alloc_56[0, 0, 0, 0] [1, 2, 1024, 64] [1, 1, 1, 1] : memref<1x2x1024x128xf32> to memref<1x2x1024x64xf32, strided<[262144, 131072, 128, 1]>>
    %subview_71 = memref.subview %alloc_56[0, 0, 0, 64] [1, 2, 1024, 64] [1, 1, 1, 1] : memref<1x2x1024x128xf32> to memref<1x2x1024x64xf32, strided<[262144, 131072, 128, 1], offset: 64>>
    %alloc_72 = memref.alloc() {alignment = 64 : i64} : memref<1x2x1024x64xf32>
    linalg.negf ins(%subview_71 : memref<1x2x1024x64xf32, strided<[262144, 131072, 128, 1], offset: 64>>) outs(%alloc_72 : memref<1x2x1024x64xf32>)
    %alloc_73 = memref.alloc() {alignment = 64 : i64} : memref<1x2x1024x128xf32>
    %subview_74 = memref.subview %alloc_73[0, 0, 0, 0] [1, 2, 1024, 64] [1, 1, 1, 1] : memref<1x2x1024x128xf32> to memref<1x2x1024x64xf32, strided<[262144, 131072, 128, 1]>>
    memref.copy %alloc_72, %subview_74 : memref<1x2x1024x64xf32> to memref<1x2x1024x64xf32, strided<[262144, 131072, 128, 1]>>
    %subview_75 = memref.subview %alloc_73[0, 0, 0, 64] [1, 2, 1024, 64] [1, 1, 1, 1] : memref<1x2x1024x128xf32> to memref<1x2x1024x64xf32, strided<[262144, 131072, 128, 1], offset: 64>>
    memref.copy %subview_70, %subview_75 : memref<1x2x1024x64xf32, strided<[262144, 131072, 128, 1]>> to memref<1x2x1024x64xf32, strided<[262144, 131072, 128, 1], offset: 64>>
    %alloc_76 = memref.alloc() {alignment = 64 : i64} : memref<1x2x1024x128xf32>
    linalg.generic {indexing_maps = [#map5, #map11, #map5], iterator_types = ["parallel", "parallel", "parallel", "parallel"]} ins(%alloc_73, %expand_shape_60 : memref<1x2x1024x128xf32>, memref<1x1x1024x128xf32>) outs(%alloc_76 : memref<1x2x1024x128xf32>) {
    ^bb0(%in: f32, %in_3369: f32, %out: f32):
      %778 = arith.mulf %in, %in_3369 : f32
      linalg.yield %778 : f32
    }
    %alloc_77 = memref.alloc() {alignment = 64 : i64} : memref<1x2x1024x128xf32>
    linalg.generic {indexing_maps = [#map5, #map5, #map5], iterator_types = ["parallel", "parallel", "parallel", "parallel"]} ins(%alloc_69, %alloc_76 : memref<1x2x1024x128xf32>, memref<1x2x1024x128xf32>) outs(%alloc_77 : memref<1x2x1024x128xf32>) {
    ^bb0(%in: f32, %in_3369: f32, %out: f32):
      %778 = arith.addf %in, %in_3369 : f32
      linalg.yield %778 : f32
    }
    %expand_shape_78 = memref.expand_shape %alloc_77 [[0], [1, 2], [3], [4]] output_shape [1, 2, 1, 1024, 128] : memref<1x2x1024x128xf32> into memref<1x2x1x1024x128xf32>
    %30 = memref.get_global @__constant_1x2x6x1024x128xf32 : memref<1x2x6x1024x128xf32>
    %alloc_79 = memref.alloc() {alignment = 64 : i64} : memref<1x2x6x1024x128xf32>
    linalg.generic {indexing_maps = [#map12, #map13, #map13], iterator_types = ["parallel", "parallel", "parallel", "parallel", "parallel"]} ins(%expand_shape_78, %30 : memref<1x2x1x1024x128xf32>, memref<1x2x6x1024x128xf32>) outs(%alloc_79 : memref<1x2x6x1024x128xf32>) {
    ^bb0(%in: f32, %in_3369: f32, %out: f32):
      %778 = arith.addf %in, %in_3369 : f32
      linalg.yield %778 : f32
    }
    %collapse_shape_80 = memref.collapse_shape %alloc_79 [[0], [1, 2], [3], [4]] : memref<1x2x6x1024x128xf32> into memref<1x12x1024x128xf32>
    %expand_shape_81 = memref.expand_shape %alloc_58 [[0], [1, 2], [3], [4]] output_shape [1, 2, 1, 1024, 128] : memref<1x2x1024x128xf32> into memref<1x2x1x1024x128xf32>
    %31 = memref.get_global @__constant_1x2x6x1024x128xf32 : memref<1x2x6x1024x128xf32>
    %alloc_82 = memref.alloc() {alignment = 64 : i64} : memref<1x2x6x1024x128xf32>
    linalg.generic {indexing_maps = [#map12, #map13, #map13], iterator_types = ["parallel", "parallel", "parallel", "parallel", "parallel"]} ins(%expand_shape_81, %31 : memref<1x2x1x1024x128xf32>, memref<1x2x6x1024x128xf32>) outs(%alloc_82 : memref<1x2x6x1024x128xf32>) {
    ^bb0(%in: f32, %in_3369: f32, %out: f32):
      %778 = arith.addf %in, %in_3369 : f32
      linalg.yield %778 : f32
    }
    %collapse_shape_83 = memref.collapse_shape %alloc_82 [[0], [1, 2], [3], [4]] : memref<1x2x6x1024x128xf32> into memref<1x12x1024x128xf32>
    %cst_84 = arith.constant 0.000000e+00 : f32
    %32 = memref.get_global @__constant_1024x1024xf32_0 : memref<1024x1024xf32>
    %collapse_shape_85 = memref.collapse_shape %expand_shape_5 [[0, 1, 2], [3]] : memref<1x1x1024x1024xf32> into memref<1024x1024xf32>
    %alloc_86 = memref.alloc() {alignment = 64 : i64} : memref<1024x1024xf32>
    linalg.generic {indexing_maps = [#map, #map, #map], iterator_types = ["parallel", "parallel"]} ins(%32, %collapse_shape_85 : memref<1024x1024xf32>, memref<1024x1024xf32>) outs(%alloc_86 : memref<1024x1024xf32>) {
    ^bb0(%in: f32, %in_3369: f32, %out: f32):
      %778 = arith.addf %in, %in_3369 : f32
      linalg.yield %778 : f32
    }
    %33 = memref.get_global @__constant_4xi32_0 : memref<4xi32>
    %alloc_87 = memref.alloc() {alignment = 64 : i64} : memref<1x12x128x1024xf32>
    linalg.transpose ins(%collapse_shape_80 : memref<1x12x1024x128xf32>) outs(%alloc_87 : memref<1x12x128x1024xf32>) permutation = [0, 1, 3, 2] 
    %collapse_shape_88 = memref.collapse_shape %alloc_68 [[0, 1], [2], [3]] : memref<1x12x1024x128xf32> into memref<12x1024x128xf32>
    %collapse_shape_89 = memref.collapse_shape %alloc_87 [[0, 1], [2], [3]] : memref<1x12x128x1024xf32> into memref<12x128x1024xf32>
    %cst_90 = arith.constant 0.000000e+00 : f32
    %alloc_91 = memref.alloc() {alignment = 64 : i64} : memref<12x1024x1024xf32>
    linalg.fill ins(%cst_90 : f32) outs(%alloc_91 : memref<12x1024x1024xf32>)
    linalg.batch_matmul ins(%collapse_shape_88, %collapse_shape_89 : memref<12x1024x128xf32>, memref<12x128x1024xf32>) outs(%alloc_91 : memref<12x1024x1024xf32>)
    %cst_92 = arith.constant 0.0883883461 : f32
    %34 = memref.get_global @__constant_12x1024x1024xf32 : memref<12x1024x1024xf32>
    %alloc_93 = memref.alloc() {alignment = 64 : i64} : memref<12x1024x1024xf32>
    linalg.generic {indexing_maps = [#map2, #map2, #map2], iterator_types = ["parallel", "parallel", "parallel"]} ins(%alloc_91, %34 : memref<12x1024x1024xf32>, memref<12x1024x1024xf32>) outs(%alloc_93 : memref<12x1024x1024xf32>) {
    ^bb0(%in: f32, %in_3369: f32, %out: f32):
      %778 = arith.mulf %in, %in_3369 : f32
      linalg.yield %778 : f32
    }
    %expand_shape_94 = memref.expand_shape %alloc_86 [[0, 1], [2]] output_shape [1, 1024, 1024] : memref<1024x1024xf32> into memref<1x1024x1024xf32>
    %alloc_95 = memref.alloc() {alignment = 64 : i64} : memref<12x1024x1024xf32>
    linalg.generic {indexing_maps = [#map2, #map14, #map2], iterator_types = ["parallel", "parallel", "parallel"]} ins(%alloc_93, %expand_shape_94 : memref<12x1024x1024xf32>, memref<1x1024x1024xf32>) outs(%alloc_95 : memref<12x1024x1024xf32>) {
    ^bb0(%in: f32, %in_3369: f32, %out: f32):
      %778 = arith.addf %in, %in_3369 : f32
      linalg.yield %778 : f32
    }
    %alloc_96 = memref.alloc() {alignment = 64 : i64} : memref<12x1024xf32>
    %cst_97 = arith.constant -3.40282347E+38 : f32
    linalg.fill ins(%cst_97 : f32) outs(%alloc_96 : memref<12x1024xf32>)
    linalg.reduce ins(%alloc_95 : memref<12x1024x1024xf32>) outs(%alloc_96 : memref<12x1024xf32>) dimensions = [2] 
      (%in: f32, %init: f32) {
        %778 = arith.maximumf %in, %init : f32
        linalg.yield %778 : f32
      }
    %expand_shape_98 = memref.expand_shape %alloc_96 [[0], [1, 2]] output_shape [12, 1024, 1] : memref<12x1024xf32> into memref<12x1024x1xf32>
    %alloc_99 = memref.alloc() {alignment = 64 : i64} : memref<12x1024x1024xf32>
    linalg.generic {indexing_maps = [#map2, #map9, #map2], iterator_types = ["parallel", "parallel", "parallel"]} ins(%alloc_95, %expand_shape_98 : memref<12x1024x1024xf32>, memref<12x1024x1xf32>) outs(%alloc_99 : memref<12x1024x1024xf32>) {
    ^bb0(%in: f32, %in_3369: f32, %out: f32):
      %778 = arith.subf %in, %in_3369 : f32
      linalg.yield %778 : f32
    }
    linalg.generic {indexing_maps = [#map2, #map2], iterator_types = ["parallel", "parallel", "parallel"]} ins(%alloc_99 : memref<12x1024x1024xf32>) outs(%alloc_99 : memref<12x1024x1024xf32>) {
    ^bb0(%in: f32, %out: f32):
      %778 = math.exp %in : f32
      linalg.yield %778 : f32
    }
    %alloc_100 = memref.alloc() {alignment = 64 : i64} : memref<12x1024xf32>
    %cst_101 = arith.constant 0.000000e+00 : f32
    linalg.fill ins(%cst_101 : f32) outs(%alloc_100 : memref<12x1024xf32>)
    linalg.reduce ins(%alloc_99 : memref<12x1024x1024xf32>) outs(%alloc_100 : memref<12x1024xf32>) dimensions = [2] 
      (%in: f32, %init: f32) {
        %778 = arith.addf %in, %init : f32
        linalg.yield %778 : f32
      }
    %expand_shape_102 = memref.expand_shape %alloc_100 [[0], [1, 2]] output_shape [12, 1024, 1] : memref<12x1024xf32> into memref<12x1024x1xf32>
    %alloc_103 = memref.alloc() {alignment = 64 : i64} : memref<12x1024x1xf32>
    linalg.generic {indexing_maps = [#map2, #map2], iterator_types = ["parallel", "parallel", "parallel"]} ins(%expand_shape_102 : memref<12x1024x1xf32>) outs(%alloc_103 : memref<12x1024x1xf32>) {
    ^bb0(%in: f32, %out: f32):
      %778 = math.log %in : f32
      linalg.yield %778 : f32
    }
    %alloc_104 = memref.alloc() {alignment = 64 : i64} : memref<12x1024x1xf32>
    linalg.generic {indexing_maps = [#map2, #map2, #map2], iterator_types = ["parallel", "parallel", "parallel"]} ins(%expand_shape_98, %alloc_103 : memref<12x1024x1xf32>, memref<12x1024x1xf32>) outs(%alloc_104 : memref<12x1024x1xf32>) {
    ^bb0(%in: f32, %in_3369: f32, %out: f32):
      %778 = arith.addf %in, %in_3369 : f32
      linalg.yield %778 : f32
    }
    %alloc_105 = memref.alloc() {alignment = 64 : i64} : memref<12x1024x1024xf32>
    linalg.generic {indexing_maps = [#map2, #map9, #map2], iterator_types = ["parallel", "parallel", "parallel"]} ins(%alloc_95, %alloc_104 : memref<12x1024x1024xf32>, memref<12x1024x1xf32>) outs(%alloc_105 : memref<12x1024x1024xf32>) {
    ^bb0(%in: f32, %in_3369: f32, %out: f32):
      %778 = arith.subf %in, %in_3369 : f32
      linalg.yield %778 : f32
    }
    linalg.generic {indexing_maps = [#map2, #map2], iterator_types = ["parallel", "parallel", "parallel"]} ins(%alloc_105 : memref<12x1024x1024xf32>) outs(%alloc_105 : memref<12x1024x1024xf32>) {
    ^bb0(%in: f32, %out: f32):
      %778 = math.exp %in : f32
      linalg.yield %778 : f32
    }
    %collapse_shape_106 = memref.collapse_shape %alloc_104 [[0], [1, 2]] : memref<12x1024x1xf32> into memref<12x1024xf32>
    %expand_shape_107 = memref.expand_shape %collapse_shape_106 [[0, 1], [2]] output_shape [1, 12, 1024] : memref<12x1024xf32> into memref<1x12x1024xf32>
    %collapse_shape_108 = memref.collapse_shape %alloc_82 [[0, 1, 2], [3], [4]] : memref<1x2x6x1024x128xf32> into memref<12x1024x128xf32>
    %cst_109 = arith.constant 0.000000e+00 : f32
    %alloc_110 = memref.alloc() {alignment = 64 : i64} : memref<12x1024x128xf32>
    linalg.fill ins(%cst_109 : f32) outs(%alloc_110 : memref<12x1024x128xf32>)
    linalg.batch_matmul ins(%alloc_105, %collapse_shape_108 : memref<12x1024x1024xf32>, memref<12x1024x128xf32>) outs(%alloc_110 : memref<12x1024x128xf32>)
    %expand_shape_111 = memref.expand_shape %alloc_110 [[0, 1], [2], [3]] output_shape [1, 12, 1024, 128] : memref<12x1024x128xf32> into memref<1x12x1024x128xf32>
    %35 = memref.get_global @__constant_4xi32 : memref<4xi32>
    %alloc_112 = memref.alloc() {alignment = 64 : i64} : memref<1x1024x12x128xf32>
    linalg.transpose ins(%expand_shape_111 : memref<1x12x1024x128xf32>) outs(%alloc_112 : memref<1x1024x12x128xf32>) permutation = [0, 2, 1, 3] 
    %collapse_shape_113 = memref.collapse_shape %alloc_112 [[0], [1], [2, 3]] : memref<1x1024x12x128xf32> into memref<1x1024x1536xf32>
    %collapse_shape_114 = memref.collapse_shape %alloc_112 [[0, 1], [2, 3]] : memref<1x1024x12x128xf32> into memref<1024x1536xf32>
    %36 = memref.get_global @__constant_1024x1536xf32 : memref<1024x1536xf32>
    %alloc_115 = memref.alloc() {alignment = 64 : i64} : memref<1024x1536xf32>
    memref.copy %36, %alloc_115 : memref<1024x1536xf32> to memref<1024x1536xf32>
    linalg.matmul_transpose_b {cast = #linalg.type_fn<cast_signed>} ins(%collapse_shape_114, %arg11 : memref<1024x1536xf32>, memref<1536x1536xf32, strided<[?, ?], offset: ?>>) outs(%alloc_115 : memref<1024x1536xf32>)
    %expand_shape_116 = memref.expand_shape %alloc_115 [[0, 1], [2]] output_shape [1, 1024, 1536] : memref<1024x1536xf32> into memref<1x1024x1536xf32>
    %alloc_117 = memref.alloc() {alignment = 64 : i64} : memref<1x1024x1536xf32>
    linalg.generic {indexing_maps = [#map2, #map2, #map2], iterator_types = ["parallel", "parallel", "parallel"]} ins(%alloc_0, %expand_shape_116 : memref<1x1024x1536xf32>, memref<1x1024x1536xf32>) outs(%alloc_117 : memref<1x1024x1536xf32>) {
    ^bb0(%in: f32, %in_3369: f32, %out: f32):
      %778 = arith.addf %in, %in_3369 : f32
      linalg.yield %778 : f32
    }
    %alloc_118 = memref.alloc() {alignment = 64 : i64} : memref<1x1024x1536xf32>
    %c2_i32_119 = arith.constant 2 : i32
    linalg.generic {indexing_maps = [#map2, #map2], iterator_types = ["parallel", "parallel", "parallel"]} ins(%alloc_117 : memref<1x1024x1536xf32>) outs(%alloc_118 : memref<1x1024x1536xf32>) {
    ^bb0(%in: f32, %out: f32):
      %778 = math.fpowi %in, %c2_i32_119 : f32, i32
      linalg.yield %778 : f32
    }
    %alloc_120 = memref.alloc() {alignment = 64 : i64} : memref<1x1024xf32>
    %cst_121 = arith.constant 0.000000e+00 : f32
    linalg.fill ins(%cst_121 : f32) outs(%alloc_120 : memref<1x1024xf32>)
    linalg.reduce ins(%alloc_118 : memref<1x1024x1536xf32>) outs(%alloc_120 : memref<1x1024xf32>) dimensions = [2] 
      (%in: f32, %init: f32) {
        %778 = arith.addf %in, %init : f32
        linalg.yield %778 : f32
      }
    %expand_shape_122 = memref.expand_shape %alloc_120 [[0], [1, 2]] output_shape [1, 1024, 1] : memref<1x1024xf32> into memref<1x1024x1xf32>
    %37 = memref.get_global @__constant_1xf32_0 : memref<1xf32>
    %38 = memref.get_global @__constant_1xf32_1 : memref<1xf32>
    %39 = memref.get_global @__constant_1x1x1xf32_0 : memref<1x1x1xf32>
    %alloc_123 = memref.alloc() {alignment = 64 : i64} : memref<1x1024x1xf32>
    linalg.generic {indexing_maps = [#map8, #map2, #map2], iterator_types = ["parallel", "parallel", "parallel"]} ins(%39, %expand_shape_122 : memref<1x1x1xf32>, memref<1x1024x1xf32>) outs(%alloc_123 : memref<1x1024x1xf32>) {
    ^bb0(%in: f32, %in_3369: f32, %out: f32):
      %778 = arith.mulf %in, %in_3369 : f32
      linalg.yield %778 : f32
    }
    %40 = memref.get_global @__constant_1x1024x1xf32 : memref<1x1024x1xf32>
    %alloc_124 = memref.alloc() {alignment = 64 : i64} : memref<1x1024x1xf32>
    linalg.generic {indexing_maps = [#map2, #map2, #map2], iterator_types = ["parallel", "parallel", "parallel"]} ins(%alloc_123, %40 : memref<1x1024x1xf32>, memref<1x1024x1xf32>) outs(%alloc_124 : memref<1x1024x1xf32>) {
    ^bb0(%in: f32, %in_3369: f32, %out: f32):
      %778 = arith.addf %in, %in_3369 : f32
      linalg.yield %778 : f32
    }
    %alloc_125 = memref.alloc() {alignment = 64 : i64} : memref<1x1024x1xf32>
    linalg.generic {indexing_maps = [#map2, #map2], iterator_types = ["parallel", "parallel", "parallel"]} ins(%alloc_124 : memref<1x1024x1xf32>) outs(%alloc_125 : memref<1x1024x1xf32>) {
    ^bb0(%in: f32, %out: f32):
      %778 = math.rsqrt %in : f32
      linalg.yield %778 : f32
    }
    %alloc_126 = memref.alloc() {alignment = 64 : i64} : memref<1x1024x1536xf32>
    linalg.generic {indexing_maps = [#map2, #map9, #map2], iterator_types = ["parallel", "parallel", "parallel"]} ins(%alloc_117, %alloc_125 : memref<1x1024x1536xf32>, memref<1x1024x1xf32>) outs(%alloc_126 : memref<1x1024x1536xf32>) {
    ^bb0(%in: f32, %in_3369: f32, %out: f32):
      %778 = arith.mulf %in, %in_3369 : f32
      linalg.yield %778 : f32
    }
    %expand_shape_127 = memref.expand_shape %arg12 [[0, 1, 2]] output_shape [1, 1, 1536] : memref<1536xf32, strided<[?], offset: ?>> into memref<1x1x1536xf32, strided<[?, ?, ?], offset: ?>>
    %alloc_128 = memref.alloc() {alignment = 64 : i64} : memref<1x1024x1536xf32>
    linalg.generic {indexing_maps = [#map8, #map2, #map2], iterator_types = ["parallel", "parallel", "parallel"]} ins(%expand_shape_127, %alloc_126 : memref<1x1x1536xf32, strided<[?, ?, ?], offset: ?>>, memref<1x1024x1536xf32>) outs(%alloc_128 : memref<1x1024x1536xf32>) {
    ^bb0(%in: f32, %in_3369: f32, %out: f32):
      %778 = arith.mulf %in, %in_3369 : f32
      linalg.yield %778 : f32
    }
    %collapse_shape_129 = memref.collapse_shape %alloc_128 [[0, 1], [2]] : memref<1x1024x1536xf32> into memref<1024x1536xf32>
    %41 = memref.get_global @__constant_1024x8960xf32 : memref<1024x8960xf32>
    %alloc_130 = memref.alloc() {alignment = 64 : i64} : memref<1024x8960xf32>
    memref.copy %41, %alloc_130 : memref<1024x8960xf32> to memref<1024x8960xf32>
    linalg.matmul_transpose_b {cast = #linalg.type_fn<cast_signed>} ins(%collapse_shape_129, %arg13 : memref<1024x1536xf32>, memref<8960x1536xf32, strided<[?, ?], offset: ?>>) outs(%alloc_130 : memref<1024x8960xf32>)
    %expand_shape_131 = memref.expand_shape %alloc_130 [[0, 1], [2]] output_shape [1, 1024, 8960] : memref<1024x8960xf32> into memref<1x1024x8960xf32>
    %alloc_132 = memref.alloc() {alignment = 64 : i64} : memref<1x1024x8960xf32>
    linalg.generic {indexing_maps = [#map2, #map2], iterator_types = ["parallel", "parallel", "parallel"]} ins(%expand_shape_131 : memref<1x1024x8960xf32>) outs(%alloc_132 : memref<1x1024x8960xf32>) {
    ^bb0(%in: f32, %out: f32):
      %cst_3369 = arith.constant 1.000000e+00 : f32
      %778 = arith.negf %in : f32
      %779 = math.exp %778 : f32
      %780 = arith.addf %779, %cst_3369 : f32
      %781 = arith.divf %cst_3369, %780 : f32
      linalg.yield %781 : f32
    }
    %alloc_133 = memref.alloc() {alignment = 64 : i64} : memref<1x1024x8960xf32>
    linalg.generic {indexing_maps = [#map2, #map2, #map2], iterator_types = ["parallel", "parallel", "parallel"]} ins(%expand_shape_131, %alloc_132 : memref<1x1024x8960xf32>, memref<1x1024x8960xf32>) outs(%alloc_133 : memref<1x1024x8960xf32>) {
    ^bb0(%in: f32, %in_3369: f32, %out: f32):
      %778 = arith.mulf %in, %in_3369 : f32
      linalg.yield %778 : f32
    }
    %collapse_shape_134 = memref.collapse_shape %alloc_128 [[0, 1], [2]] : memref<1x1024x1536xf32> into memref<1024x1536xf32>
    %42 = memref.get_global @__constant_1024x8960xf32 : memref<1024x8960xf32>
    %alloc_135 = memref.alloc() {alignment = 64 : i64} : memref<1024x8960xf32>
    memref.copy %42, %alloc_135 : memref<1024x8960xf32> to memref<1024x8960xf32>
    linalg.matmul_transpose_b {cast = #linalg.type_fn<cast_signed>} ins(%collapse_shape_134, %arg14 : memref<1024x1536xf32>, memref<8960x1536xf32, strided<[?, ?], offset: ?>>) outs(%alloc_135 : memref<1024x8960xf32>)
    %expand_shape_136 = memref.expand_shape %alloc_135 [[0, 1], [2]] output_shape [1, 1024, 8960] : memref<1024x8960xf32> into memref<1x1024x8960xf32>
    %alloc_137 = memref.alloc() {alignment = 64 : i64} : memref<1x1024x8960xf32>
    linalg.generic {indexing_maps = [#map2, #map2, #map2], iterator_types = ["parallel", "parallel", "parallel"]} ins(%alloc_133, %expand_shape_136 : memref<1x1024x8960xf32>, memref<1x1024x8960xf32>) outs(%alloc_137 : memref<1x1024x8960xf32>) {
    ^bb0(%in: f32, %in_3369: f32, %out: f32):
      %778 = arith.mulf %in, %in_3369 : f32
      linalg.yield %778 : f32
    }
    %collapse_shape_138 = memref.collapse_shape %alloc_137 [[0, 1], [2]] : memref<1x1024x8960xf32> into memref<1024x8960xf32>
    %43 = memref.get_global @__constant_1024x1536xf32 : memref<1024x1536xf32>
    %alloc_139 = memref.alloc() {alignment = 64 : i64} : memref<1024x1536xf32>
    memref.copy %43, %alloc_139 : memref<1024x1536xf32> to memref<1024x1536xf32>
    linalg.matmul_transpose_b {cast = #linalg.type_fn<cast_signed>} ins(%collapse_shape_138, %arg15 : memref<1024x8960xf32>, memref<1536x8960xf32, strided<[?, ?], offset: ?>>) outs(%alloc_139 : memref<1024x1536xf32>)
    %expand_shape_140 = memref.expand_shape %alloc_139 [[0, 1], [2]] output_shape [1, 1024, 1536] : memref<1024x1536xf32> into memref<1x1024x1536xf32>
    %alloc_141 = memref.alloc() {alignment = 64 : i64} : memref<1x1024x1536xf32>
    linalg.generic {indexing_maps = [#map2, #map2, #map2], iterator_types = ["parallel", "parallel", "parallel"]} ins(%alloc_117, %expand_shape_140 : memref<1x1024x1536xf32>, memref<1x1024x1536xf32>) outs(%alloc_141 : memref<1x1024x1536xf32>) {
    ^bb0(%in: f32, %in_3369: f32, %out: f32):
      %778 = arith.addf %in, %in_3369 : f32
      linalg.yield %778 : f32
    }
    %alloc_142 = memref.alloc() {alignment = 64 : i64} : memref<1x1024x1536xf32>
    %c2_i32_143 = arith.constant 2 : i32
    linalg.generic {indexing_maps = [#map2, #map2], iterator_types = ["parallel", "parallel", "parallel"]} ins(%alloc_141 : memref<1x1024x1536xf32>) outs(%alloc_142 : memref<1x1024x1536xf32>) {
    ^bb0(%in: f32, %out: f32):
      %778 = math.fpowi %in, %c2_i32_143 : f32, i32
      linalg.yield %778 : f32
    }
    %alloc_144 = memref.alloc() {alignment = 64 : i64} : memref<1x1024xf32>
    %cst_145 = arith.constant 0.000000e+00 : f32
    linalg.fill ins(%cst_145 : f32) outs(%alloc_144 : memref<1x1024xf32>)
    linalg.reduce ins(%alloc_142 : memref<1x1024x1536xf32>) outs(%alloc_144 : memref<1x1024xf32>) dimensions = [2] 
      (%in: f32, %init: f32) {
        %778 = arith.addf %in, %init : f32
        linalg.yield %778 : f32
      }
    %expand_shape_146 = memref.expand_shape %alloc_144 [[0], [1, 2]] output_shape [1, 1024, 1] : memref<1x1024xf32> into memref<1x1024x1xf32>
    %44 = memref.get_global @__constant_1xf32_0 : memref<1xf32>
    %45 = memref.get_global @__constant_1xf32_1 : memref<1xf32>
    %46 = memref.get_global @__constant_1x1x1xf32_0 : memref<1x1x1xf32>
    %alloc_147 = memref.alloc() {alignment = 64 : i64} : memref<1x1024x1xf32>
    linalg.generic {indexing_maps = [#map8, #map2, #map2], iterator_types = ["parallel", "parallel", "parallel"]} ins(%46, %expand_shape_146 : memref<1x1x1xf32>, memref<1x1024x1xf32>) outs(%alloc_147 : memref<1x1024x1xf32>) {
    ^bb0(%in: f32, %in_3369: f32, %out: f32):
      %778 = arith.mulf %in, %in_3369 : f32
      linalg.yield %778 : f32
    }
    %47 = memref.get_global @__constant_1x1024x1xf32 : memref<1x1024x1xf32>
    %alloc_148 = memref.alloc() {alignment = 64 : i64} : memref<1x1024x1xf32>
    linalg.generic {indexing_maps = [#map2, #map2, #map2], iterator_types = ["parallel", "parallel", "parallel"]} ins(%alloc_147, %47 : memref<1x1024x1xf32>, memref<1x1024x1xf32>) outs(%alloc_148 : memref<1x1024x1xf32>) {
    ^bb0(%in: f32, %in_3369: f32, %out: f32):
      %778 = arith.addf %in, %in_3369 : f32
      linalg.yield %778 : f32
    }
    %alloc_149 = memref.alloc() {alignment = 64 : i64} : memref<1x1024x1xf32>
    linalg.generic {indexing_maps = [#map2, #map2], iterator_types = ["parallel", "parallel", "parallel"]} ins(%alloc_148 : memref<1x1024x1xf32>) outs(%alloc_149 : memref<1x1024x1xf32>) {
    ^bb0(%in: f32, %out: f32):
      %778 = math.rsqrt %in : f32
      linalg.yield %778 : f32
    }
    %alloc_150 = memref.alloc() {alignment = 64 : i64} : memref<1x1024x1536xf32>
    linalg.generic {indexing_maps = [#map2, #map9, #map2], iterator_types = ["parallel", "parallel", "parallel"]} ins(%alloc_141, %alloc_149 : memref<1x1024x1536xf32>, memref<1x1024x1xf32>) outs(%alloc_150 : memref<1x1024x1536xf32>) {
    ^bb0(%in: f32, %in_3369: f32, %out: f32):
      %778 = arith.mulf %in, %in_3369 : f32
      linalg.yield %778 : f32
    }
    %expand_shape_151 = memref.expand_shape %arg16 [[0, 1, 2]] output_shape [1, 1, 1536] : memref<1536xf32, strided<[?], offset: ?>> into memref<1x1x1536xf32, strided<[?, ?, ?], offset: ?>>
    %alloc_152 = memref.alloc() {alignment = 64 : i64} : memref<1x1024x1536xf32>
    linalg.generic {indexing_maps = [#map8, #map2, #map2], iterator_types = ["parallel", "parallel", "parallel"]} ins(%expand_shape_151, %alloc_150 : memref<1x1x1536xf32, strided<[?, ?, ?], offset: ?>>, memref<1x1024x1536xf32>) outs(%alloc_152 : memref<1x1024x1536xf32>) {
    ^bb0(%in: f32, %in_3369: f32, %out: f32):
      %778 = arith.mulf %in, %in_3369 : f32
      linalg.yield %778 : f32
    }
    %collapse_shape_153 = memref.collapse_shape %alloc_152 [[0, 1], [2]] : memref<1x1024x1536xf32> into memref<1024x1536xf32>
    %48 = memref.get_global @__constant_2xi32 : memref<2xi32>
    %alloc_154 = memref.alloc() {alignment = 64 : i64} : memref<1536x1536xf32>
    linalg.transpose ins(%arg17 : memref<1536x1536xf32, strided<[?, ?], offset: ?>>) outs(%alloc_154 : memref<1536x1536xf32>) permutation = [1, 0] 
    %49 = memref.get_global @__constant_1024x1536xf32 : memref<1024x1536xf32>
    %alloc_155 = memref.alloc() {alignment = 64 : i64} : memref<1024x1536xf32>
    memref.copy %49, %alloc_155 : memref<1024x1536xf32> to memref<1024x1536xf32>
    linalg.matmul {cast = #linalg.type_fn<cast_signed>} ins(%collapse_shape_153, %alloc_154 : memref<1024x1536xf32>, memref<1536x1536xf32>) outs(%alloc_155 : memref<1024x1536xf32>)
    %expand_shape_156 = memref.expand_shape %arg18 [[0, 1]] output_shape [1, 1536] : memref<1536xf32, strided<[?], offset: ?>> into memref<1x1536xf32, strided<[?, ?], offset: ?>>
    %alloc_157 = memref.alloc() {alignment = 64 : i64} : memref<1024x1536xf32>
    linalg.generic {indexing_maps = [#map10, #map, #map], iterator_types = ["parallel", "parallel"]} ins(%expand_shape_156, %alloc_155 : memref<1x1536xf32, strided<[?, ?], offset: ?>>, memref<1024x1536xf32>) outs(%alloc_157 : memref<1024x1536xf32>) {
    ^bb0(%in: f32, %in_3369: f32, %out: f32):
      %778 = arith.addf %in, %in_3369 : f32
      linalg.yield %778 : f32
    }
    %expand_shape_158 = memref.expand_shape %alloc_157 [[0, 1], [2]] output_shape [1, 1024, 1536] : memref<1024x1536xf32> into memref<1x1024x1536xf32>
    %collapse_shape_159 = memref.collapse_shape %alloc_152 [[0, 1], [2]] : memref<1x1024x1536xf32> into memref<1024x1536xf32>
    %50 = memref.get_global @__constant_2xi32 : memref<2xi32>
    %alloc_160 = memref.alloc() {alignment = 64 : i64} : memref<1536x256xf32>
    linalg.transpose ins(%arg19 : memref<256x1536xf32, strided<[?, ?], offset: ?>>) outs(%alloc_160 : memref<1536x256xf32>) permutation = [1, 0] 
    %51 = memref.get_global @__constant_1024x256xf32 : memref<1024x256xf32>
    %alloc_161 = memref.alloc() {alignment = 64 : i64} : memref<1024x256xf32>
    memref.copy %51, %alloc_161 : memref<1024x256xf32> to memref<1024x256xf32>
    linalg.matmul {cast = #linalg.type_fn<cast_signed>} ins(%collapse_shape_159, %alloc_160 : memref<1024x1536xf32>, memref<1536x256xf32>) outs(%alloc_161 : memref<1024x256xf32>)
    %expand_shape_162 = memref.expand_shape %arg20 [[0, 1]] output_shape [1, 256] : memref<256xf32, strided<[?], offset: ?>> into memref<1x256xf32, strided<[?, ?], offset: ?>>
    %alloc_163 = memref.alloc() {alignment = 64 : i64} : memref<1024x256xf32>
    linalg.generic {indexing_maps = [#map10, #map, #map], iterator_types = ["parallel", "parallel"]} ins(%expand_shape_162, %alloc_161 : memref<1x256xf32, strided<[?, ?], offset: ?>>, memref<1024x256xf32>) outs(%alloc_163 : memref<1024x256xf32>) {
    ^bb0(%in: f32, %in_3369: f32, %out: f32):
      %778 = arith.addf %in, %in_3369 : f32
      linalg.yield %778 : f32
    }
    %expand_shape_164 = memref.expand_shape %alloc_163 [[0, 1], [2]] output_shape [1, 1024, 256] : memref<1024x256xf32> into memref<1x1024x256xf32>
    %collapse_shape_165 = memref.collapse_shape %alloc_152 [[0, 1], [2]] : memref<1x1024x1536xf32> into memref<1024x1536xf32>
    %52 = memref.get_global @__constant_2xi32 : memref<2xi32>
    %alloc_166 = memref.alloc() {alignment = 64 : i64} : memref<1536x256xf32>
    linalg.transpose ins(%arg21 : memref<256x1536xf32, strided<[?, ?], offset: ?>>) outs(%alloc_166 : memref<1536x256xf32>) permutation = [1, 0] 
    %53 = memref.get_global @__constant_1024x256xf32 : memref<1024x256xf32>
    %alloc_167 = memref.alloc() {alignment = 64 : i64} : memref<1024x256xf32>
    memref.copy %53, %alloc_167 : memref<1024x256xf32> to memref<1024x256xf32>
    linalg.matmul {cast = #linalg.type_fn<cast_signed>} ins(%collapse_shape_165, %alloc_166 : memref<1024x1536xf32>, memref<1536x256xf32>) outs(%alloc_167 : memref<1024x256xf32>)
    %expand_shape_168 = memref.expand_shape %arg22 [[0, 1]] output_shape [1, 256] : memref<256xf32, strided<[?], offset: ?>> into memref<1x256xf32, strided<[?, ?], offset: ?>>
    %alloc_169 = memref.alloc() {alignment = 64 : i64} : memref<1024x256xf32>
    linalg.generic {indexing_maps = [#map10, #map, #map], iterator_types = ["parallel", "parallel"]} ins(%expand_shape_168, %alloc_167 : memref<1x256xf32, strided<[?, ?], offset: ?>>, memref<1024x256xf32>) outs(%alloc_169 : memref<1024x256xf32>) {
    ^bb0(%in: f32, %in_3369: f32, %out: f32):
      %778 = arith.addf %in, %in_3369 : f32
      linalg.yield %778 : f32
    }
    %expand_shape_170 = memref.expand_shape %alloc_169 [[0, 1], [2]] output_shape [1, 1024, 256] : memref<1024x256xf32> into memref<1x1024x256xf32>
    %expand_shape_171 = memref.expand_shape %alloc_157 [[0, 1], [2, 3]] output_shape [1, 1024, 12, 128] : memref<1024x1536xf32> into memref<1x1024x12x128xf32>
    %54 = memref.get_global @__constant_4xi32 : memref<4xi32>
    %alloc_172 = memref.alloc() {alignment = 64 : i64} : memref<1x12x1024x128xf32>
    linalg.transpose ins(%expand_shape_171 : memref<1x1024x12x128xf32>) outs(%alloc_172 : memref<1x12x1024x128xf32>) permutation = [0, 2, 1, 3] 
    %expand_shape_173 = memref.expand_shape %alloc_163 [[0, 1], [2, 3]] output_shape [1, 1024, 2, 128] : memref<1024x256xf32> into memref<1x1024x2x128xf32>
    %55 = memref.get_global @__constant_4xi32 : memref<4xi32>
    %alloc_174 = memref.alloc() {alignment = 64 : i64} : memref<1x2x1024x128xf32>
    linalg.transpose ins(%expand_shape_173 : memref<1x1024x2x128xf32>) outs(%alloc_174 : memref<1x2x1024x128xf32>) permutation = [0, 2, 1, 3] 
    %expand_shape_175 = memref.expand_shape %alloc_169 [[0, 1], [2, 3]] output_shape [1, 1024, 2, 128] : memref<1024x256xf32> into memref<1x1024x2x128xf32>
    %56 = memref.get_global @__constant_4xi32 : memref<4xi32>
    %alloc_176 = memref.alloc() {alignment = 64 : i64} : memref<1x2x1024x128xf32>
    linalg.transpose ins(%expand_shape_175 : memref<1x1024x2x128xf32>) outs(%alloc_176 : memref<1x2x1024x128xf32>) permutation = [0, 2, 1, 3] 
    %expand_shape_177 = memref.expand_shape %alloc_23 [[0, 1], [2], [3]] output_shape [1, 1, 1024, 128] : memref<1x1024x128xf32> into memref<1x1x1024x128xf32>
    %expand_shape_178 = memref.expand_shape %alloc_24 [[0, 1], [2], [3]] output_shape [1, 1, 1024, 128] : memref<1x1024x128xf32> into memref<1x1x1024x128xf32>
    %alloc_179 = memref.alloc() {alignment = 64 : i64} : memref<1x12x1024x128xf32>
    linalg.generic {indexing_maps = [#map5, #map11, #map5], iterator_types = ["parallel", "parallel", "parallel", "parallel"]} ins(%alloc_172, %expand_shape_177 : memref<1x12x1024x128xf32>, memref<1x1x1024x128xf32>) outs(%alloc_179 : memref<1x12x1024x128xf32>) {
    ^bb0(%in: f32, %in_3369: f32, %out: f32):
      %778 = arith.mulf %in, %in_3369 : f32
      linalg.yield %778 : f32
    }
    %subview_180 = memref.subview %alloc_172[0, 0, 0, 0] [1, 12, 1024, 64] [1, 1, 1, 1] : memref<1x12x1024x128xf32> to memref<1x12x1024x64xf32, strided<[1572864, 131072, 128, 1]>>
    %subview_181 = memref.subview %alloc_172[0, 0, 0, 64] [1, 12, 1024, 64] [1, 1, 1, 1] : memref<1x12x1024x128xf32> to memref<1x12x1024x64xf32, strided<[1572864, 131072, 128, 1], offset: 64>>
    %alloc_182 = memref.alloc() {alignment = 64 : i64} : memref<1x12x1024x64xf32>
    linalg.negf ins(%subview_181 : memref<1x12x1024x64xf32, strided<[1572864, 131072, 128, 1], offset: 64>>) outs(%alloc_182 : memref<1x12x1024x64xf32>)
    %alloc_183 = memref.alloc() {alignment = 64 : i64} : memref<1x12x1024x128xf32>
    %subview_184 = memref.subview %alloc_183[0, 0, 0, 0] [1, 12, 1024, 64] [1, 1, 1, 1] : memref<1x12x1024x128xf32> to memref<1x12x1024x64xf32, strided<[1572864, 131072, 128, 1]>>
    memref.copy %alloc_182, %subview_184 : memref<1x12x1024x64xf32> to memref<1x12x1024x64xf32, strided<[1572864, 131072, 128, 1]>>
    %subview_185 = memref.subview %alloc_183[0, 0, 0, 64] [1, 12, 1024, 64] [1, 1, 1, 1] : memref<1x12x1024x128xf32> to memref<1x12x1024x64xf32, strided<[1572864, 131072, 128, 1], offset: 64>>
    memref.copy %subview_180, %subview_185 : memref<1x12x1024x64xf32, strided<[1572864, 131072, 128, 1]>> to memref<1x12x1024x64xf32, strided<[1572864, 131072, 128, 1], offset: 64>>
    %alloc_186 = memref.alloc() {alignment = 64 : i64} : memref<1x12x1024x128xf32>
    linalg.generic {indexing_maps = [#map5, #map11, #map5], iterator_types = ["parallel", "parallel", "parallel", "parallel"]} ins(%alloc_183, %expand_shape_178 : memref<1x12x1024x128xf32>, memref<1x1x1024x128xf32>) outs(%alloc_186 : memref<1x12x1024x128xf32>) {
    ^bb0(%in: f32, %in_3369: f32, %out: f32):
      %778 = arith.mulf %in, %in_3369 : f32
      linalg.yield %778 : f32
    }
    %alloc_187 = memref.alloc() {alignment = 64 : i64} : memref<1x12x1024x128xf32>
    linalg.generic {indexing_maps = [#map5, #map5, #map5], iterator_types = ["parallel", "parallel", "parallel", "parallel"]} ins(%alloc_179, %alloc_186 : memref<1x12x1024x128xf32>, memref<1x12x1024x128xf32>) outs(%alloc_187 : memref<1x12x1024x128xf32>) {
    ^bb0(%in: f32, %in_3369: f32, %out: f32):
      %778 = arith.addf %in, %in_3369 : f32
      linalg.yield %778 : f32
    }
    %alloc_188 = memref.alloc() {alignment = 64 : i64} : memref<1x2x1024x128xf32>
    linalg.generic {indexing_maps = [#map5, #map11, #map5], iterator_types = ["parallel", "parallel", "parallel", "parallel"]} ins(%alloc_174, %expand_shape_177 : memref<1x2x1024x128xf32>, memref<1x1x1024x128xf32>) outs(%alloc_188 : memref<1x2x1024x128xf32>) {
    ^bb0(%in: f32, %in_3369: f32, %out: f32):
      %778 = arith.mulf %in, %in_3369 : f32
      linalg.yield %778 : f32
    }
    %subview_189 = memref.subview %alloc_174[0, 0, 0, 0] [1, 2, 1024, 64] [1, 1, 1, 1] : memref<1x2x1024x128xf32> to memref<1x2x1024x64xf32, strided<[262144, 131072, 128, 1]>>
    %subview_190 = memref.subview %alloc_174[0, 0, 0, 64] [1, 2, 1024, 64] [1, 1, 1, 1] : memref<1x2x1024x128xf32> to memref<1x2x1024x64xf32, strided<[262144, 131072, 128, 1], offset: 64>>
    %alloc_191 = memref.alloc() {alignment = 64 : i64} : memref<1x2x1024x64xf32>
    linalg.negf ins(%subview_190 : memref<1x2x1024x64xf32, strided<[262144, 131072, 128, 1], offset: 64>>) outs(%alloc_191 : memref<1x2x1024x64xf32>)
    %alloc_192 = memref.alloc() {alignment = 64 : i64} : memref<1x2x1024x128xf32>
    %subview_193 = memref.subview %alloc_192[0, 0, 0, 0] [1, 2, 1024, 64] [1, 1, 1, 1] : memref<1x2x1024x128xf32> to memref<1x2x1024x64xf32, strided<[262144, 131072, 128, 1]>>
    memref.copy %alloc_191, %subview_193 : memref<1x2x1024x64xf32> to memref<1x2x1024x64xf32, strided<[262144, 131072, 128, 1]>>
    %subview_194 = memref.subview %alloc_192[0, 0, 0, 64] [1, 2, 1024, 64] [1, 1, 1, 1] : memref<1x2x1024x128xf32> to memref<1x2x1024x64xf32, strided<[262144, 131072, 128, 1], offset: 64>>
    memref.copy %subview_189, %subview_194 : memref<1x2x1024x64xf32, strided<[262144, 131072, 128, 1]>> to memref<1x2x1024x64xf32, strided<[262144, 131072, 128, 1], offset: 64>>
    %alloc_195 = memref.alloc() {alignment = 64 : i64} : memref<1x2x1024x128xf32>
    linalg.generic {indexing_maps = [#map5, #map11, #map5], iterator_types = ["parallel", "parallel", "parallel", "parallel"]} ins(%alloc_192, %expand_shape_178 : memref<1x2x1024x128xf32>, memref<1x1x1024x128xf32>) outs(%alloc_195 : memref<1x2x1024x128xf32>) {
    ^bb0(%in: f32, %in_3369: f32, %out: f32):
      %778 = arith.mulf %in, %in_3369 : f32
      linalg.yield %778 : f32
    }
    %alloc_196 = memref.alloc() {alignment = 64 : i64} : memref<1x2x1024x128xf32>
    linalg.generic {indexing_maps = [#map5, #map5, #map5], iterator_types = ["parallel", "parallel", "parallel", "parallel"]} ins(%alloc_188, %alloc_195 : memref<1x2x1024x128xf32>, memref<1x2x1024x128xf32>) outs(%alloc_196 : memref<1x2x1024x128xf32>) {
    ^bb0(%in: f32, %in_3369: f32, %out: f32):
      %778 = arith.addf %in, %in_3369 : f32
      linalg.yield %778 : f32
    }
    %expand_shape_197 = memref.expand_shape %alloc_196 [[0], [1, 2], [3], [4]] output_shape [1, 2, 1, 1024, 128] : memref<1x2x1024x128xf32> into memref<1x2x1x1024x128xf32>
    %57 = memref.get_global @__constant_1x2x6x1024x128xf32 : memref<1x2x6x1024x128xf32>
    %alloc_198 = memref.alloc() {alignment = 64 : i64} : memref<1x2x6x1024x128xf32>
    linalg.generic {indexing_maps = [#map12, #map13, #map13], iterator_types = ["parallel", "parallel", "parallel", "parallel", "parallel"]} ins(%expand_shape_197, %57 : memref<1x2x1x1024x128xf32>, memref<1x2x6x1024x128xf32>) outs(%alloc_198 : memref<1x2x6x1024x128xf32>) {
    ^bb0(%in: f32, %in_3369: f32, %out: f32):
      %778 = arith.addf %in, %in_3369 : f32
      linalg.yield %778 : f32
    }
    %collapse_shape_199 = memref.collapse_shape %alloc_198 [[0], [1, 2], [3], [4]] : memref<1x2x6x1024x128xf32> into memref<1x12x1024x128xf32>
    %expand_shape_200 = memref.expand_shape %alloc_176 [[0], [1, 2], [3], [4]] output_shape [1, 2, 1, 1024, 128] : memref<1x2x1024x128xf32> into memref<1x2x1x1024x128xf32>
    %58 = memref.get_global @__constant_1x2x6x1024x128xf32 : memref<1x2x6x1024x128xf32>
    %alloc_201 = memref.alloc() {alignment = 64 : i64} : memref<1x2x6x1024x128xf32>
    linalg.generic {indexing_maps = [#map12, #map13, #map13], iterator_types = ["parallel", "parallel", "parallel", "parallel", "parallel"]} ins(%expand_shape_200, %58 : memref<1x2x1x1024x128xf32>, memref<1x2x6x1024x128xf32>) outs(%alloc_201 : memref<1x2x6x1024x128xf32>) {
    ^bb0(%in: f32, %in_3369: f32, %out: f32):
      %778 = arith.addf %in, %in_3369 : f32
      linalg.yield %778 : f32
    }
    %collapse_shape_202 = memref.collapse_shape %alloc_201 [[0], [1, 2], [3], [4]] : memref<1x2x6x1024x128xf32> into memref<1x12x1024x128xf32>
    %cst_203 = arith.constant 0.000000e+00 : f32
    %59 = memref.get_global @__constant_1024x1024xf32_0 : memref<1024x1024xf32>
    %collapse_shape_204 = memref.collapse_shape %expand_shape_5 [[0, 1, 2], [3]] : memref<1x1x1024x1024xf32> into memref<1024x1024xf32>
    %alloc_205 = memref.alloc() {alignment = 64 : i64} : memref<1024x1024xf32>
    linalg.generic {indexing_maps = [#map, #map, #map], iterator_types = ["parallel", "parallel"]} ins(%59, %collapse_shape_204 : memref<1024x1024xf32>, memref<1024x1024xf32>) outs(%alloc_205 : memref<1024x1024xf32>) {
    ^bb0(%in: f32, %in_3369: f32, %out: f32):
      %778 = arith.addf %in, %in_3369 : f32
      linalg.yield %778 : f32
    }
    %60 = memref.get_global @__constant_4xi32_0 : memref<4xi32>
    %alloc_206 = memref.alloc() {alignment = 64 : i64} : memref<1x12x128x1024xf32>
    linalg.transpose ins(%collapse_shape_199 : memref<1x12x1024x128xf32>) outs(%alloc_206 : memref<1x12x128x1024xf32>) permutation = [0, 1, 3, 2] 
    %collapse_shape_207 = memref.collapse_shape %alloc_187 [[0, 1], [2], [3]] : memref<1x12x1024x128xf32> into memref<12x1024x128xf32>
    %collapse_shape_208 = memref.collapse_shape %alloc_206 [[0, 1], [2], [3]] : memref<1x12x128x1024xf32> into memref<12x128x1024xf32>
    %cst_209 = arith.constant 0.000000e+00 : f32
    %alloc_210 = memref.alloc() {alignment = 64 : i64} : memref<12x1024x1024xf32>
    linalg.fill ins(%cst_209 : f32) outs(%alloc_210 : memref<12x1024x1024xf32>)
    linalg.batch_matmul ins(%collapse_shape_207, %collapse_shape_208 : memref<12x1024x128xf32>, memref<12x128x1024xf32>) outs(%alloc_210 : memref<12x1024x1024xf32>)
    %cst_211 = arith.constant 0.0883883461 : f32
    %61 = memref.get_global @__constant_12x1024x1024xf32 : memref<12x1024x1024xf32>
    %alloc_212 = memref.alloc() {alignment = 64 : i64} : memref<12x1024x1024xf32>
    linalg.generic {indexing_maps = [#map2, #map2, #map2], iterator_types = ["parallel", "parallel", "parallel"]} ins(%alloc_210, %61 : memref<12x1024x1024xf32>, memref<12x1024x1024xf32>) outs(%alloc_212 : memref<12x1024x1024xf32>) {
    ^bb0(%in: f32, %in_3369: f32, %out: f32):
      %778 = arith.mulf %in, %in_3369 : f32
      linalg.yield %778 : f32
    }
    %expand_shape_213 = memref.expand_shape %alloc_205 [[0, 1], [2]] output_shape [1, 1024, 1024] : memref<1024x1024xf32> into memref<1x1024x1024xf32>
    %alloc_214 = memref.alloc() {alignment = 64 : i64} : memref<12x1024x1024xf32>
    linalg.generic {indexing_maps = [#map2, #map14, #map2], iterator_types = ["parallel", "parallel", "parallel"]} ins(%alloc_212, %expand_shape_213 : memref<12x1024x1024xf32>, memref<1x1024x1024xf32>) outs(%alloc_214 : memref<12x1024x1024xf32>) {
    ^bb0(%in: f32, %in_3369: f32, %out: f32):
      %778 = arith.addf %in, %in_3369 : f32
      linalg.yield %778 : f32
    }
    %alloc_215 = memref.alloc() {alignment = 64 : i64} : memref<12x1024xf32>
    %cst_216 = arith.constant -3.40282347E+38 : f32
    linalg.fill ins(%cst_216 : f32) outs(%alloc_215 : memref<12x1024xf32>)
    linalg.reduce ins(%alloc_214 : memref<12x1024x1024xf32>) outs(%alloc_215 : memref<12x1024xf32>) dimensions = [2] 
      (%in: f32, %init: f32) {
        %778 = arith.maximumf %in, %init : f32
        linalg.yield %778 : f32
      }
    %expand_shape_217 = memref.expand_shape %alloc_215 [[0], [1, 2]] output_shape [12, 1024, 1] : memref<12x1024xf32> into memref<12x1024x1xf32>
    %alloc_218 = memref.alloc() {alignment = 64 : i64} : memref<12x1024x1024xf32>
    linalg.generic {indexing_maps = [#map2, #map9, #map2], iterator_types = ["parallel", "parallel", "parallel"]} ins(%alloc_214, %expand_shape_217 : memref<12x1024x1024xf32>, memref<12x1024x1xf32>) outs(%alloc_218 : memref<12x1024x1024xf32>) {
    ^bb0(%in: f32, %in_3369: f32, %out: f32):
      %778 = arith.subf %in, %in_3369 : f32
      linalg.yield %778 : f32
    }
    linalg.generic {indexing_maps = [#map2, #map2], iterator_types = ["parallel", "parallel", "parallel"]} ins(%alloc_218 : memref<12x1024x1024xf32>) outs(%alloc_218 : memref<12x1024x1024xf32>) {
    ^bb0(%in: f32, %out: f32):
      %778 = math.exp %in : f32
      linalg.yield %778 : f32
    }
    %alloc_219 = memref.alloc() {alignment = 64 : i64} : memref<12x1024xf32>
    %cst_220 = arith.constant 0.000000e+00 : f32
    linalg.fill ins(%cst_220 : f32) outs(%alloc_219 : memref<12x1024xf32>)
    linalg.reduce ins(%alloc_218 : memref<12x1024x1024xf32>) outs(%alloc_219 : memref<12x1024xf32>) dimensions = [2] 
      (%in: f32, %init: f32) {
        %778 = arith.addf %in, %init : f32
        linalg.yield %778 : f32
      }
    %expand_shape_221 = memref.expand_shape %alloc_219 [[0], [1, 2]] output_shape [12, 1024, 1] : memref<12x1024xf32> into memref<12x1024x1xf32>
    %alloc_222 = memref.alloc() {alignment = 64 : i64} : memref<12x1024x1xf32>
    linalg.generic {indexing_maps = [#map2, #map2], iterator_types = ["parallel", "parallel", "parallel"]} ins(%expand_shape_221 : memref<12x1024x1xf32>) outs(%alloc_222 : memref<12x1024x1xf32>) {
    ^bb0(%in: f32, %out: f32):
      %778 = math.log %in : f32
      linalg.yield %778 : f32
    }
    %alloc_223 = memref.alloc() {alignment = 64 : i64} : memref<12x1024x1xf32>
    linalg.generic {indexing_maps = [#map2, #map2, #map2], iterator_types = ["parallel", "parallel", "parallel"]} ins(%expand_shape_217, %alloc_222 : memref<12x1024x1xf32>, memref<12x1024x1xf32>) outs(%alloc_223 : memref<12x1024x1xf32>) {
    ^bb0(%in: f32, %in_3369: f32, %out: f32):
      %778 = arith.addf %in, %in_3369 : f32
      linalg.yield %778 : f32
    }
    %alloc_224 = memref.alloc() {alignment = 64 : i64} : memref<12x1024x1024xf32>
    linalg.generic {indexing_maps = [#map2, #map9, #map2], iterator_types = ["parallel", "parallel", "parallel"]} ins(%alloc_214, %alloc_223 : memref<12x1024x1024xf32>, memref<12x1024x1xf32>) outs(%alloc_224 : memref<12x1024x1024xf32>) {
    ^bb0(%in: f32, %in_3369: f32, %out: f32):
      %778 = arith.subf %in, %in_3369 : f32
      linalg.yield %778 : f32
    }
    linalg.generic {indexing_maps = [#map2, #map2], iterator_types = ["parallel", "parallel", "parallel"]} ins(%alloc_224 : memref<12x1024x1024xf32>) outs(%alloc_224 : memref<12x1024x1024xf32>) {
    ^bb0(%in: f32, %out: f32):
      %778 = math.exp %in : f32
      linalg.yield %778 : f32
    }
    %collapse_shape_225 = memref.collapse_shape %alloc_223 [[0], [1, 2]] : memref<12x1024x1xf32> into memref<12x1024xf32>
    %expand_shape_226 = memref.expand_shape %collapse_shape_225 [[0, 1], [2]] output_shape [1, 12, 1024] : memref<12x1024xf32> into memref<1x12x1024xf32>
    %collapse_shape_227 = memref.collapse_shape %alloc_201 [[0, 1, 2], [3], [4]] : memref<1x2x6x1024x128xf32> into memref<12x1024x128xf32>
    %cst_228 = arith.constant 0.000000e+00 : f32
    %alloc_229 = memref.alloc() {alignment = 64 : i64} : memref<12x1024x128xf32>
    linalg.fill ins(%cst_228 : f32) outs(%alloc_229 : memref<12x1024x128xf32>)
    linalg.batch_matmul ins(%alloc_224, %collapse_shape_227 : memref<12x1024x1024xf32>, memref<12x1024x128xf32>) outs(%alloc_229 : memref<12x1024x128xf32>)
    %expand_shape_230 = memref.expand_shape %alloc_229 [[0, 1], [2], [3]] output_shape [1, 12, 1024, 128] : memref<12x1024x128xf32> into memref<1x12x1024x128xf32>
    %62 = memref.get_global @__constant_4xi32 : memref<4xi32>
    %alloc_231 = memref.alloc() {alignment = 64 : i64} : memref<1x1024x12x128xf32>
    linalg.transpose ins(%expand_shape_230 : memref<1x12x1024x128xf32>) outs(%alloc_231 : memref<1x1024x12x128xf32>) permutation = [0, 2, 1, 3] 
    %collapse_shape_232 = memref.collapse_shape %alloc_231 [[0], [1], [2, 3]] : memref<1x1024x12x128xf32> into memref<1x1024x1536xf32>
    %collapse_shape_233 = memref.collapse_shape %alloc_231 [[0, 1], [2, 3]] : memref<1x1024x12x128xf32> into memref<1024x1536xf32>
    %63 = memref.get_global @__constant_1024x1536xf32 : memref<1024x1536xf32>
    %alloc_234 = memref.alloc() {alignment = 64 : i64} : memref<1024x1536xf32>
    memref.copy %63, %alloc_234 : memref<1024x1536xf32> to memref<1024x1536xf32>
    linalg.matmul_transpose_b {cast = #linalg.type_fn<cast_signed>} ins(%collapse_shape_233, %arg23 : memref<1024x1536xf32>, memref<1536x1536xf32, strided<[?, ?], offset: ?>>) outs(%alloc_234 : memref<1024x1536xf32>)
    %expand_shape_235 = memref.expand_shape %alloc_234 [[0, 1], [2]] output_shape [1, 1024, 1536] : memref<1024x1536xf32> into memref<1x1024x1536xf32>
    %alloc_236 = memref.alloc() {alignment = 64 : i64} : memref<1x1024x1536xf32>
    linalg.generic {indexing_maps = [#map2, #map2, #map2], iterator_types = ["parallel", "parallel", "parallel"]} ins(%alloc_141, %expand_shape_235 : memref<1x1024x1536xf32>, memref<1x1024x1536xf32>) outs(%alloc_236 : memref<1x1024x1536xf32>) {
    ^bb0(%in: f32, %in_3369: f32, %out: f32):
      %778 = arith.addf %in, %in_3369 : f32
      linalg.yield %778 : f32
    }
    %alloc_237 = memref.alloc() {alignment = 64 : i64} : memref<1x1024x1536xf32>
    %c2_i32_238 = arith.constant 2 : i32
    linalg.generic {indexing_maps = [#map2, #map2], iterator_types = ["parallel", "parallel", "parallel"]} ins(%alloc_236 : memref<1x1024x1536xf32>) outs(%alloc_237 : memref<1x1024x1536xf32>) {
    ^bb0(%in: f32, %out: f32):
      %778 = math.fpowi %in, %c2_i32_238 : f32, i32
      linalg.yield %778 : f32
    }
    %alloc_239 = memref.alloc() {alignment = 64 : i64} : memref<1x1024xf32>
    %cst_240 = arith.constant 0.000000e+00 : f32
    linalg.fill ins(%cst_240 : f32) outs(%alloc_239 : memref<1x1024xf32>)
    linalg.reduce ins(%alloc_237 : memref<1x1024x1536xf32>) outs(%alloc_239 : memref<1x1024xf32>) dimensions = [2] 
      (%in: f32, %init: f32) {
        %778 = arith.addf %in, %init : f32
        linalg.yield %778 : f32
      }
    %expand_shape_241 = memref.expand_shape %alloc_239 [[0], [1, 2]] output_shape [1, 1024, 1] : memref<1x1024xf32> into memref<1x1024x1xf32>
    %64 = memref.get_global @__constant_1xf32_0 : memref<1xf32>
    %65 = memref.get_global @__constant_1xf32_1 : memref<1xf32>
    %66 = memref.get_global @__constant_1x1x1xf32_0 : memref<1x1x1xf32>
    %alloc_242 = memref.alloc() {alignment = 64 : i64} : memref<1x1024x1xf32>
    linalg.generic {indexing_maps = [#map8, #map2, #map2], iterator_types = ["parallel", "parallel", "parallel"]} ins(%66, %expand_shape_241 : memref<1x1x1xf32>, memref<1x1024x1xf32>) outs(%alloc_242 : memref<1x1024x1xf32>) {
    ^bb0(%in: f32, %in_3369: f32, %out: f32):
      %778 = arith.mulf %in, %in_3369 : f32
      linalg.yield %778 : f32
    }
    %67 = memref.get_global @__constant_1x1024x1xf32 : memref<1x1024x1xf32>
    %alloc_243 = memref.alloc() {alignment = 64 : i64} : memref<1x1024x1xf32>
    linalg.generic {indexing_maps = [#map2, #map2, #map2], iterator_types = ["parallel", "parallel", "parallel"]} ins(%alloc_242, %67 : memref<1x1024x1xf32>, memref<1x1024x1xf32>) outs(%alloc_243 : memref<1x1024x1xf32>) {
    ^bb0(%in: f32, %in_3369: f32, %out: f32):
      %778 = arith.addf %in, %in_3369 : f32
      linalg.yield %778 : f32
    }
    %alloc_244 = memref.alloc() {alignment = 64 : i64} : memref<1x1024x1xf32>
    linalg.generic {indexing_maps = [#map2, #map2], iterator_types = ["parallel", "parallel", "parallel"]} ins(%alloc_243 : memref<1x1024x1xf32>) outs(%alloc_244 : memref<1x1024x1xf32>) {
    ^bb0(%in: f32, %out: f32):
      %778 = math.rsqrt %in : f32
      linalg.yield %778 : f32
    }
    %alloc_245 = memref.alloc() {alignment = 64 : i64} : memref<1x1024x1536xf32>
    linalg.generic {indexing_maps = [#map2, #map9, #map2], iterator_types = ["parallel", "parallel", "parallel"]} ins(%alloc_236, %alloc_244 : memref<1x1024x1536xf32>, memref<1x1024x1xf32>) outs(%alloc_245 : memref<1x1024x1536xf32>) {
    ^bb0(%in: f32, %in_3369: f32, %out: f32):
      %778 = arith.mulf %in, %in_3369 : f32
      linalg.yield %778 : f32
    }
    %expand_shape_246 = memref.expand_shape %arg24 [[0, 1, 2]] output_shape [1, 1, 1536] : memref<1536xf32, strided<[?], offset: ?>> into memref<1x1x1536xf32, strided<[?, ?, ?], offset: ?>>
    %alloc_247 = memref.alloc() {alignment = 64 : i64} : memref<1x1024x1536xf32>
    linalg.generic {indexing_maps = [#map8, #map2, #map2], iterator_types = ["parallel", "parallel", "parallel"]} ins(%expand_shape_246, %alloc_245 : memref<1x1x1536xf32, strided<[?, ?, ?], offset: ?>>, memref<1x1024x1536xf32>) outs(%alloc_247 : memref<1x1024x1536xf32>) {
    ^bb0(%in: f32, %in_3369: f32, %out: f32):
      %778 = arith.mulf %in, %in_3369 : f32
      linalg.yield %778 : f32
    }
    %collapse_shape_248 = memref.collapse_shape %alloc_247 [[0, 1], [2]] : memref<1x1024x1536xf32> into memref<1024x1536xf32>
    %68 = memref.get_global @__constant_1024x8960xf32 : memref<1024x8960xf32>
    %alloc_249 = memref.alloc() {alignment = 64 : i64} : memref<1024x8960xf32>
    memref.copy %68, %alloc_249 : memref<1024x8960xf32> to memref<1024x8960xf32>
    linalg.matmul_transpose_b {cast = #linalg.type_fn<cast_signed>} ins(%collapse_shape_248, %arg25 : memref<1024x1536xf32>, memref<8960x1536xf32, strided<[?, ?], offset: ?>>) outs(%alloc_249 : memref<1024x8960xf32>)
    %expand_shape_250 = memref.expand_shape %alloc_249 [[0, 1], [2]] output_shape [1, 1024, 8960] : memref<1024x8960xf32> into memref<1x1024x8960xf32>
    %alloc_251 = memref.alloc() {alignment = 64 : i64} : memref<1x1024x8960xf32>
    linalg.generic {indexing_maps = [#map2, #map2], iterator_types = ["parallel", "parallel", "parallel"]} ins(%expand_shape_250 : memref<1x1024x8960xf32>) outs(%alloc_251 : memref<1x1024x8960xf32>) {
    ^bb0(%in: f32, %out: f32):
      %cst_3369 = arith.constant 1.000000e+00 : f32
      %778 = arith.negf %in : f32
      %779 = math.exp %778 : f32
      %780 = arith.addf %779, %cst_3369 : f32
      %781 = arith.divf %cst_3369, %780 : f32
      linalg.yield %781 : f32
    }
    %alloc_252 = memref.alloc() {alignment = 64 : i64} : memref<1x1024x8960xf32>
    linalg.generic {indexing_maps = [#map2, #map2, #map2], iterator_types = ["parallel", "parallel", "parallel"]} ins(%expand_shape_250, %alloc_251 : memref<1x1024x8960xf32>, memref<1x1024x8960xf32>) outs(%alloc_252 : memref<1x1024x8960xf32>) {
    ^bb0(%in: f32, %in_3369: f32, %out: f32):
      %778 = arith.mulf %in, %in_3369 : f32
      linalg.yield %778 : f32
    }
    %collapse_shape_253 = memref.collapse_shape %alloc_247 [[0, 1], [2]] : memref<1x1024x1536xf32> into memref<1024x1536xf32>
    %69 = memref.get_global @__constant_1024x8960xf32 : memref<1024x8960xf32>
    %alloc_254 = memref.alloc() {alignment = 64 : i64} : memref<1024x8960xf32>
    memref.copy %69, %alloc_254 : memref<1024x8960xf32> to memref<1024x8960xf32>
    linalg.matmul_transpose_b {cast = #linalg.type_fn<cast_signed>} ins(%collapse_shape_253, %arg26 : memref<1024x1536xf32>, memref<8960x1536xf32, strided<[?, ?], offset: ?>>) outs(%alloc_254 : memref<1024x8960xf32>)
    %expand_shape_255 = memref.expand_shape %alloc_254 [[0, 1], [2]] output_shape [1, 1024, 8960] : memref<1024x8960xf32> into memref<1x1024x8960xf32>
    %alloc_256 = memref.alloc() {alignment = 64 : i64} : memref<1x1024x8960xf32>
    linalg.generic {indexing_maps = [#map2, #map2, #map2], iterator_types = ["parallel", "parallel", "parallel"]} ins(%alloc_252, %expand_shape_255 : memref<1x1024x8960xf32>, memref<1x1024x8960xf32>) outs(%alloc_256 : memref<1x1024x8960xf32>) {
    ^bb0(%in: f32, %in_3369: f32, %out: f32):
      %778 = arith.mulf %in, %in_3369 : f32
      linalg.yield %778 : f32
    }
    %collapse_shape_257 = memref.collapse_shape %alloc_256 [[0, 1], [2]] : memref<1x1024x8960xf32> into memref<1024x8960xf32>
    %70 = memref.get_global @__constant_1024x1536xf32 : memref<1024x1536xf32>
    %alloc_258 = memref.alloc() {alignment = 64 : i64} : memref<1024x1536xf32>
    memref.copy %70, %alloc_258 : memref<1024x1536xf32> to memref<1024x1536xf32>
    linalg.matmul_transpose_b {cast = #linalg.type_fn<cast_signed>} ins(%collapse_shape_257, %arg27 : memref<1024x8960xf32>, memref<1536x8960xf32, strided<[?, ?], offset: ?>>) outs(%alloc_258 : memref<1024x1536xf32>)
    %expand_shape_259 = memref.expand_shape %alloc_258 [[0, 1], [2]] output_shape [1, 1024, 1536] : memref<1024x1536xf32> into memref<1x1024x1536xf32>
    %alloc_260 = memref.alloc() {alignment = 64 : i64} : memref<1x1024x1536xf32>
    linalg.generic {indexing_maps = [#map2, #map2, #map2], iterator_types = ["parallel", "parallel", "parallel"]} ins(%alloc_236, %expand_shape_259 : memref<1x1024x1536xf32>, memref<1x1024x1536xf32>) outs(%alloc_260 : memref<1x1024x1536xf32>) {
    ^bb0(%in: f32, %in_3369: f32, %out: f32):
      %778 = arith.addf %in, %in_3369 : f32
      linalg.yield %778 : f32
    }
    %alloc_261 = memref.alloc() {alignment = 64 : i64} : memref<1x1024x1536xf32>
    %c2_i32_262 = arith.constant 2 : i32
    linalg.generic {indexing_maps = [#map2, #map2], iterator_types = ["parallel", "parallel", "parallel"]} ins(%alloc_260 : memref<1x1024x1536xf32>) outs(%alloc_261 : memref<1x1024x1536xf32>) {
    ^bb0(%in: f32, %out: f32):
      %778 = math.fpowi %in, %c2_i32_262 : f32, i32
      linalg.yield %778 : f32
    }
    %alloc_263 = memref.alloc() {alignment = 64 : i64} : memref<1x1024xf32>
    %cst_264 = arith.constant 0.000000e+00 : f32
    linalg.fill ins(%cst_264 : f32) outs(%alloc_263 : memref<1x1024xf32>)
    linalg.reduce ins(%alloc_261 : memref<1x1024x1536xf32>) outs(%alloc_263 : memref<1x1024xf32>) dimensions = [2] 
      (%in: f32, %init: f32) {
        %778 = arith.addf %in, %init : f32
        linalg.yield %778 : f32
      }
    %expand_shape_265 = memref.expand_shape %alloc_263 [[0], [1, 2]] output_shape [1, 1024, 1] : memref<1x1024xf32> into memref<1x1024x1xf32>
    %71 = memref.get_global @__constant_1xf32_0 : memref<1xf32>
    %72 = memref.get_global @__constant_1xf32_1 : memref<1xf32>
    %73 = memref.get_global @__constant_1x1x1xf32_0 : memref<1x1x1xf32>
    %alloc_266 = memref.alloc() {alignment = 64 : i64} : memref<1x1024x1xf32>
    linalg.generic {indexing_maps = [#map8, #map2, #map2], iterator_types = ["parallel", "parallel", "parallel"]} ins(%73, %expand_shape_265 : memref<1x1x1xf32>, memref<1x1024x1xf32>) outs(%alloc_266 : memref<1x1024x1xf32>) {
    ^bb0(%in: f32, %in_3369: f32, %out: f32):
      %778 = arith.mulf %in, %in_3369 : f32
      linalg.yield %778 : f32
    }
    %74 = memref.get_global @__constant_1x1024x1xf32 : memref<1x1024x1xf32>
    %alloc_267 = memref.alloc() {alignment = 64 : i64} : memref<1x1024x1xf32>
    linalg.generic {indexing_maps = [#map2, #map2, #map2], iterator_types = ["parallel", "parallel", "parallel"]} ins(%alloc_266, %74 : memref<1x1024x1xf32>, memref<1x1024x1xf32>) outs(%alloc_267 : memref<1x1024x1xf32>) {
    ^bb0(%in: f32, %in_3369: f32, %out: f32):
      %778 = arith.addf %in, %in_3369 : f32
      linalg.yield %778 : f32
    }
    %alloc_268 = memref.alloc() {alignment = 64 : i64} : memref<1x1024x1xf32>
    linalg.generic {indexing_maps = [#map2, #map2], iterator_types = ["parallel", "parallel", "parallel"]} ins(%alloc_267 : memref<1x1024x1xf32>) outs(%alloc_268 : memref<1x1024x1xf32>) {
    ^bb0(%in: f32, %out: f32):
      %778 = math.rsqrt %in : f32
      linalg.yield %778 : f32
    }
    %alloc_269 = memref.alloc() {alignment = 64 : i64} : memref<1x1024x1536xf32>
    linalg.generic {indexing_maps = [#map2, #map9, #map2], iterator_types = ["parallel", "parallel", "parallel"]} ins(%alloc_260, %alloc_268 : memref<1x1024x1536xf32>, memref<1x1024x1xf32>) outs(%alloc_269 : memref<1x1024x1536xf32>) {
    ^bb0(%in: f32, %in_3369: f32, %out: f32):
      %778 = arith.mulf %in, %in_3369 : f32
      linalg.yield %778 : f32
    }
    %expand_shape_270 = memref.expand_shape %arg28 [[0, 1, 2]] output_shape [1, 1, 1536] : memref<1536xf32, strided<[?], offset: ?>> into memref<1x1x1536xf32, strided<[?, ?, ?], offset: ?>>
    %alloc_271 = memref.alloc() {alignment = 64 : i64} : memref<1x1024x1536xf32>
    linalg.generic {indexing_maps = [#map8, #map2, #map2], iterator_types = ["parallel", "parallel", "parallel"]} ins(%expand_shape_270, %alloc_269 : memref<1x1x1536xf32, strided<[?, ?, ?], offset: ?>>, memref<1x1024x1536xf32>) outs(%alloc_271 : memref<1x1024x1536xf32>) {
    ^bb0(%in: f32, %in_3369: f32, %out: f32):
      %778 = arith.mulf %in, %in_3369 : f32
      linalg.yield %778 : f32
    }
    %collapse_shape_272 = memref.collapse_shape %alloc_271 [[0, 1], [2]] : memref<1x1024x1536xf32> into memref<1024x1536xf32>
    %75 = memref.get_global @__constant_2xi32 : memref<2xi32>
    %alloc_273 = memref.alloc() {alignment = 64 : i64} : memref<1536x1536xf32>
    linalg.transpose ins(%arg29 : memref<1536x1536xf32, strided<[?, ?], offset: ?>>) outs(%alloc_273 : memref<1536x1536xf32>) permutation = [1, 0] 
    %76 = memref.get_global @__constant_1024x1536xf32 : memref<1024x1536xf32>
    %alloc_274 = memref.alloc() {alignment = 64 : i64} : memref<1024x1536xf32>
    memref.copy %76, %alloc_274 : memref<1024x1536xf32> to memref<1024x1536xf32>
    linalg.matmul {cast = #linalg.type_fn<cast_signed>} ins(%collapse_shape_272, %alloc_273 : memref<1024x1536xf32>, memref<1536x1536xf32>) outs(%alloc_274 : memref<1024x1536xf32>)
    %expand_shape_275 = memref.expand_shape %arg30 [[0, 1]] output_shape [1, 1536] : memref<1536xf32, strided<[?], offset: ?>> into memref<1x1536xf32, strided<[?, ?], offset: ?>>
    %alloc_276 = memref.alloc() {alignment = 64 : i64} : memref<1024x1536xf32>
    linalg.generic {indexing_maps = [#map10, #map, #map], iterator_types = ["parallel", "parallel"]} ins(%expand_shape_275, %alloc_274 : memref<1x1536xf32, strided<[?, ?], offset: ?>>, memref<1024x1536xf32>) outs(%alloc_276 : memref<1024x1536xf32>) {
    ^bb0(%in: f32, %in_3369: f32, %out: f32):
      %778 = arith.addf %in, %in_3369 : f32
      linalg.yield %778 : f32
    }
    %expand_shape_277 = memref.expand_shape %alloc_276 [[0, 1], [2]] output_shape [1, 1024, 1536] : memref<1024x1536xf32> into memref<1x1024x1536xf32>
    %collapse_shape_278 = memref.collapse_shape %alloc_271 [[0, 1], [2]] : memref<1x1024x1536xf32> into memref<1024x1536xf32>
    %77 = memref.get_global @__constant_2xi32 : memref<2xi32>
    %alloc_279 = memref.alloc() {alignment = 64 : i64} : memref<1536x256xf32>
    linalg.transpose ins(%arg31 : memref<256x1536xf32, strided<[?, ?], offset: ?>>) outs(%alloc_279 : memref<1536x256xf32>) permutation = [1, 0] 
    %78 = memref.get_global @__constant_1024x256xf32 : memref<1024x256xf32>
    %alloc_280 = memref.alloc() {alignment = 64 : i64} : memref<1024x256xf32>
    memref.copy %78, %alloc_280 : memref<1024x256xf32> to memref<1024x256xf32>
    linalg.matmul {cast = #linalg.type_fn<cast_signed>} ins(%collapse_shape_278, %alloc_279 : memref<1024x1536xf32>, memref<1536x256xf32>) outs(%alloc_280 : memref<1024x256xf32>)
    %expand_shape_281 = memref.expand_shape %arg32 [[0, 1]] output_shape [1, 256] : memref<256xf32, strided<[?], offset: ?>> into memref<1x256xf32, strided<[?, ?], offset: ?>>
    %alloc_282 = memref.alloc() {alignment = 64 : i64} : memref<1024x256xf32>
    linalg.generic {indexing_maps = [#map10, #map, #map], iterator_types = ["parallel", "parallel"]} ins(%expand_shape_281, %alloc_280 : memref<1x256xf32, strided<[?, ?], offset: ?>>, memref<1024x256xf32>) outs(%alloc_282 : memref<1024x256xf32>) {
    ^bb0(%in: f32, %in_3369: f32, %out: f32):
      %778 = arith.addf %in, %in_3369 : f32
      linalg.yield %778 : f32
    }
    %expand_shape_283 = memref.expand_shape %alloc_282 [[0, 1], [2]] output_shape [1, 1024, 256] : memref<1024x256xf32> into memref<1x1024x256xf32>
    %collapse_shape_284 = memref.collapse_shape %alloc_271 [[0, 1], [2]] : memref<1x1024x1536xf32> into memref<1024x1536xf32>
    %79 = memref.get_global @__constant_2xi32 : memref<2xi32>
    %alloc_285 = memref.alloc() {alignment = 64 : i64} : memref<1536x256xf32>
    linalg.transpose ins(%arg33 : memref<256x1536xf32, strided<[?, ?], offset: ?>>) outs(%alloc_285 : memref<1536x256xf32>) permutation = [1, 0] 
    %80 = memref.get_global @__constant_1024x256xf32 : memref<1024x256xf32>
    %alloc_286 = memref.alloc() {alignment = 64 : i64} : memref<1024x256xf32>
    memref.copy %80, %alloc_286 : memref<1024x256xf32> to memref<1024x256xf32>
    linalg.matmul {cast = #linalg.type_fn<cast_signed>} ins(%collapse_shape_284, %alloc_285 : memref<1024x1536xf32>, memref<1536x256xf32>) outs(%alloc_286 : memref<1024x256xf32>)
    %expand_shape_287 = memref.expand_shape %arg34 [[0, 1]] output_shape [1, 256] : memref<256xf32, strided<[?], offset: ?>> into memref<1x256xf32, strided<[?, ?], offset: ?>>
    %alloc_288 = memref.alloc() {alignment = 64 : i64} : memref<1024x256xf32>
    linalg.generic {indexing_maps = [#map10, #map, #map], iterator_types = ["parallel", "parallel"]} ins(%expand_shape_287, %alloc_286 : memref<1x256xf32, strided<[?, ?], offset: ?>>, memref<1024x256xf32>) outs(%alloc_288 : memref<1024x256xf32>) {
    ^bb0(%in: f32, %in_3369: f32, %out: f32):
      %778 = arith.addf %in, %in_3369 : f32
      linalg.yield %778 : f32
    }
    %expand_shape_289 = memref.expand_shape %alloc_288 [[0, 1], [2]] output_shape [1, 1024, 256] : memref<1024x256xf32> into memref<1x1024x256xf32>
    %expand_shape_290 = memref.expand_shape %alloc_276 [[0, 1], [2, 3]] output_shape [1, 1024, 12, 128] : memref<1024x1536xf32> into memref<1x1024x12x128xf32>
    %81 = memref.get_global @__constant_4xi32 : memref<4xi32>
    %alloc_291 = memref.alloc() {alignment = 64 : i64} : memref<1x12x1024x128xf32>
    linalg.transpose ins(%expand_shape_290 : memref<1x1024x12x128xf32>) outs(%alloc_291 : memref<1x12x1024x128xf32>) permutation = [0, 2, 1, 3] 
    %expand_shape_292 = memref.expand_shape %alloc_282 [[0, 1], [2, 3]] output_shape [1, 1024, 2, 128] : memref<1024x256xf32> into memref<1x1024x2x128xf32>
    %82 = memref.get_global @__constant_4xi32 : memref<4xi32>
    %alloc_293 = memref.alloc() {alignment = 64 : i64} : memref<1x2x1024x128xf32>
    linalg.transpose ins(%expand_shape_292 : memref<1x1024x2x128xf32>) outs(%alloc_293 : memref<1x2x1024x128xf32>) permutation = [0, 2, 1, 3] 
    %expand_shape_294 = memref.expand_shape %alloc_288 [[0, 1], [2, 3]] output_shape [1, 1024, 2, 128] : memref<1024x256xf32> into memref<1x1024x2x128xf32>
    %83 = memref.get_global @__constant_4xi32 : memref<4xi32>
    %alloc_295 = memref.alloc() {alignment = 64 : i64} : memref<1x2x1024x128xf32>
    linalg.transpose ins(%expand_shape_294 : memref<1x1024x2x128xf32>) outs(%alloc_295 : memref<1x2x1024x128xf32>) permutation = [0, 2, 1, 3] 
    %expand_shape_296 = memref.expand_shape %alloc_23 [[0, 1], [2], [3]] output_shape [1, 1, 1024, 128] : memref<1x1024x128xf32> into memref<1x1x1024x128xf32>
    %expand_shape_297 = memref.expand_shape %alloc_24 [[0, 1], [2], [3]] output_shape [1, 1, 1024, 128] : memref<1x1024x128xf32> into memref<1x1x1024x128xf32>
    %alloc_298 = memref.alloc() {alignment = 64 : i64} : memref<1x12x1024x128xf32>
    linalg.generic {indexing_maps = [#map5, #map11, #map5], iterator_types = ["parallel", "parallel", "parallel", "parallel"]} ins(%alloc_291, %expand_shape_296 : memref<1x12x1024x128xf32>, memref<1x1x1024x128xf32>) outs(%alloc_298 : memref<1x12x1024x128xf32>) {
    ^bb0(%in: f32, %in_3369: f32, %out: f32):
      %778 = arith.mulf %in, %in_3369 : f32
      linalg.yield %778 : f32
    }
    %subview_299 = memref.subview %alloc_291[0, 0, 0, 0] [1, 12, 1024, 64] [1, 1, 1, 1] : memref<1x12x1024x128xf32> to memref<1x12x1024x64xf32, strided<[1572864, 131072, 128, 1]>>
    %subview_300 = memref.subview %alloc_291[0, 0, 0, 64] [1, 12, 1024, 64] [1, 1, 1, 1] : memref<1x12x1024x128xf32> to memref<1x12x1024x64xf32, strided<[1572864, 131072, 128, 1], offset: 64>>
    %alloc_301 = memref.alloc() {alignment = 64 : i64} : memref<1x12x1024x64xf32>
    linalg.negf ins(%subview_300 : memref<1x12x1024x64xf32, strided<[1572864, 131072, 128, 1], offset: 64>>) outs(%alloc_301 : memref<1x12x1024x64xf32>)
    %alloc_302 = memref.alloc() {alignment = 64 : i64} : memref<1x12x1024x128xf32>
    %subview_303 = memref.subview %alloc_302[0, 0, 0, 0] [1, 12, 1024, 64] [1, 1, 1, 1] : memref<1x12x1024x128xf32> to memref<1x12x1024x64xf32, strided<[1572864, 131072, 128, 1]>>
    memref.copy %alloc_301, %subview_303 : memref<1x12x1024x64xf32> to memref<1x12x1024x64xf32, strided<[1572864, 131072, 128, 1]>>
    %subview_304 = memref.subview %alloc_302[0, 0, 0, 64] [1, 12, 1024, 64] [1, 1, 1, 1] : memref<1x12x1024x128xf32> to memref<1x12x1024x64xf32, strided<[1572864, 131072, 128, 1], offset: 64>>
    memref.copy %subview_299, %subview_304 : memref<1x12x1024x64xf32, strided<[1572864, 131072, 128, 1]>> to memref<1x12x1024x64xf32, strided<[1572864, 131072, 128, 1], offset: 64>>
    %alloc_305 = memref.alloc() {alignment = 64 : i64} : memref<1x12x1024x128xf32>
    linalg.generic {indexing_maps = [#map5, #map11, #map5], iterator_types = ["parallel", "parallel", "parallel", "parallel"]} ins(%alloc_302, %expand_shape_297 : memref<1x12x1024x128xf32>, memref<1x1x1024x128xf32>) outs(%alloc_305 : memref<1x12x1024x128xf32>) {
    ^bb0(%in: f32, %in_3369: f32, %out: f32):
      %778 = arith.mulf %in, %in_3369 : f32
      linalg.yield %778 : f32
    }
    %alloc_306 = memref.alloc() {alignment = 64 : i64} : memref<1x12x1024x128xf32>
    linalg.generic {indexing_maps = [#map5, #map5, #map5], iterator_types = ["parallel", "parallel", "parallel", "parallel"]} ins(%alloc_298, %alloc_305 : memref<1x12x1024x128xf32>, memref<1x12x1024x128xf32>) outs(%alloc_306 : memref<1x12x1024x128xf32>) {
    ^bb0(%in: f32, %in_3369: f32, %out: f32):
      %778 = arith.addf %in, %in_3369 : f32
      linalg.yield %778 : f32
    }
    %alloc_307 = memref.alloc() {alignment = 64 : i64} : memref<1x2x1024x128xf32>
    linalg.generic {indexing_maps = [#map5, #map11, #map5], iterator_types = ["parallel", "parallel", "parallel", "parallel"]} ins(%alloc_293, %expand_shape_296 : memref<1x2x1024x128xf32>, memref<1x1x1024x128xf32>) outs(%alloc_307 : memref<1x2x1024x128xf32>) {
    ^bb0(%in: f32, %in_3369: f32, %out: f32):
      %778 = arith.mulf %in, %in_3369 : f32
      linalg.yield %778 : f32
    }
    %subview_308 = memref.subview %alloc_293[0, 0, 0, 0] [1, 2, 1024, 64] [1, 1, 1, 1] : memref<1x2x1024x128xf32> to memref<1x2x1024x64xf32, strided<[262144, 131072, 128, 1]>>
    %subview_309 = memref.subview %alloc_293[0, 0, 0, 64] [1, 2, 1024, 64] [1, 1, 1, 1] : memref<1x2x1024x128xf32> to memref<1x2x1024x64xf32, strided<[262144, 131072, 128, 1], offset: 64>>
    %alloc_310 = memref.alloc() {alignment = 64 : i64} : memref<1x2x1024x64xf32>
    linalg.negf ins(%subview_309 : memref<1x2x1024x64xf32, strided<[262144, 131072, 128, 1], offset: 64>>) outs(%alloc_310 : memref<1x2x1024x64xf32>)
    %alloc_311 = memref.alloc() {alignment = 64 : i64} : memref<1x2x1024x128xf32>
    %subview_312 = memref.subview %alloc_311[0, 0, 0, 0] [1, 2, 1024, 64] [1, 1, 1, 1] : memref<1x2x1024x128xf32> to memref<1x2x1024x64xf32, strided<[262144, 131072, 128, 1]>>
    memref.copy %alloc_310, %subview_312 : memref<1x2x1024x64xf32> to memref<1x2x1024x64xf32, strided<[262144, 131072, 128, 1]>>
    %subview_313 = memref.subview %alloc_311[0, 0, 0, 64] [1, 2, 1024, 64] [1, 1, 1, 1] : memref<1x2x1024x128xf32> to memref<1x2x1024x64xf32, strided<[262144, 131072, 128, 1], offset: 64>>
    memref.copy %subview_308, %subview_313 : memref<1x2x1024x64xf32, strided<[262144, 131072, 128, 1]>> to memref<1x2x1024x64xf32, strided<[262144, 131072, 128, 1], offset: 64>>
    %alloc_314 = memref.alloc() {alignment = 64 : i64} : memref<1x2x1024x128xf32>
    linalg.generic {indexing_maps = [#map5, #map11, #map5], iterator_types = ["parallel", "parallel", "parallel", "parallel"]} ins(%alloc_311, %expand_shape_297 : memref<1x2x1024x128xf32>, memref<1x1x1024x128xf32>) outs(%alloc_314 : memref<1x2x1024x128xf32>) {
    ^bb0(%in: f32, %in_3369: f32, %out: f32):
      %778 = arith.mulf %in, %in_3369 : f32
      linalg.yield %778 : f32
    }
    %alloc_315 = memref.alloc() {alignment = 64 : i64} : memref<1x2x1024x128xf32>
    linalg.generic {indexing_maps = [#map5, #map5, #map5], iterator_types = ["parallel", "parallel", "parallel", "parallel"]} ins(%alloc_307, %alloc_314 : memref<1x2x1024x128xf32>, memref<1x2x1024x128xf32>) outs(%alloc_315 : memref<1x2x1024x128xf32>) {
    ^bb0(%in: f32, %in_3369: f32, %out: f32):
      %778 = arith.addf %in, %in_3369 : f32
      linalg.yield %778 : f32
    }
    %expand_shape_316 = memref.expand_shape %alloc_315 [[0], [1, 2], [3], [4]] output_shape [1, 2, 1, 1024, 128] : memref<1x2x1024x128xf32> into memref<1x2x1x1024x128xf32>
    %84 = memref.get_global @__constant_1x2x6x1024x128xf32 : memref<1x2x6x1024x128xf32>
    %alloc_317 = memref.alloc() {alignment = 64 : i64} : memref<1x2x6x1024x128xf32>
    linalg.generic {indexing_maps = [#map12, #map13, #map13], iterator_types = ["parallel", "parallel", "parallel", "parallel", "parallel"]} ins(%expand_shape_316, %84 : memref<1x2x1x1024x128xf32>, memref<1x2x6x1024x128xf32>) outs(%alloc_317 : memref<1x2x6x1024x128xf32>) {
    ^bb0(%in: f32, %in_3369: f32, %out: f32):
      %778 = arith.addf %in, %in_3369 : f32
      linalg.yield %778 : f32
    }
    %collapse_shape_318 = memref.collapse_shape %alloc_317 [[0], [1, 2], [3], [4]] : memref<1x2x6x1024x128xf32> into memref<1x12x1024x128xf32>
    %expand_shape_319 = memref.expand_shape %alloc_295 [[0], [1, 2], [3], [4]] output_shape [1, 2, 1, 1024, 128] : memref<1x2x1024x128xf32> into memref<1x2x1x1024x128xf32>
    %85 = memref.get_global @__constant_1x2x6x1024x128xf32 : memref<1x2x6x1024x128xf32>
    %alloc_320 = memref.alloc() {alignment = 64 : i64} : memref<1x2x6x1024x128xf32>
    linalg.generic {indexing_maps = [#map12, #map13, #map13], iterator_types = ["parallel", "parallel", "parallel", "parallel", "parallel"]} ins(%expand_shape_319, %85 : memref<1x2x1x1024x128xf32>, memref<1x2x6x1024x128xf32>) outs(%alloc_320 : memref<1x2x6x1024x128xf32>) {
    ^bb0(%in: f32, %in_3369: f32, %out: f32):
      %778 = arith.addf %in, %in_3369 : f32
      linalg.yield %778 : f32
    }
    %collapse_shape_321 = memref.collapse_shape %alloc_320 [[0], [1, 2], [3], [4]] : memref<1x2x6x1024x128xf32> into memref<1x12x1024x128xf32>
    %cst_322 = arith.constant 0.000000e+00 : f32
    %86 = memref.get_global @__constant_1024x1024xf32_0 : memref<1024x1024xf32>
    %collapse_shape_323 = memref.collapse_shape %expand_shape_5 [[0, 1, 2], [3]] : memref<1x1x1024x1024xf32> into memref<1024x1024xf32>
    %alloc_324 = memref.alloc() {alignment = 64 : i64} : memref<1024x1024xf32>
    linalg.generic {indexing_maps = [#map, #map, #map], iterator_types = ["parallel", "parallel"]} ins(%86, %collapse_shape_323 : memref<1024x1024xf32>, memref<1024x1024xf32>) outs(%alloc_324 : memref<1024x1024xf32>) {
    ^bb0(%in: f32, %in_3369: f32, %out: f32):
      %778 = arith.addf %in, %in_3369 : f32
      linalg.yield %778 : f32
    }
    %87 = memref.get_global @__constant_4xi32_0 : memref<4xi32>
    %alloc_325 = memref.alloc() {alignment = 64 : i64} : memref<1x12x128x1024xf32>
    linalg.transpose ins(%collapse_shape_318 : memref<1x12x1024x128xf32>) outs(%alloc_325 : memref<1x12x128x1024xf32>) permutation = [0, 1, 3, 2] 
    %collapse_shape_326 = memref.collapse_shape %alloc_306 [[0, 1], [2], [3]] : memref<1x12x1024x128xf32> into memref<12x1024x128xf32>
    %collapse_shape_327 = memref.collapse_shape %alloc_325 [[0, 1], [2], [3]] : memref<1x12x128x1024xf32> into memref<12x128x1024xf32>
    %cst_328 = arith.constant 0.000000e+00 : f32
    %alloc_329 = memref.alloc() {alignment = 64 : i64} : memref<12x1024x1024xf32>
    linalg.fill ins(%cst_328 : f32) outs(%alloc_329 : memref<12x1024x1024xf32>)
    linalg.batch_matmul ins(%collapse_shape_326, %collapse_shape_327 : memref<12x1024x128xf32>, memref<12x128x1024xf32>) outs(%alloc_329 : memref<12x1024x1024xf32>)
    %cst_330 = arith.constant 0.0883883461 : f32
    %88 = memref.get_global @__constant_12x1024x1024xf32 : memref<12x1024x1024xf32>
    %alloc_331 = memref.alloc() {alignment = 64 : i64} : memref<12x1024x1024xf32>
    linalg.generic {indexing_maps = [#map2, #map2, #map2], iterator_types = ["parallel", "parallel", "parallel"]} ins(%alloc_329, %88 : memref<12x1024x1024xf32>, memref<12x1024x1024xf32>) outs(%alloc_331 : memref<12x1024x1024xf32>) {
    ^bb0(%in: f32, %in_3369: f32, %out: f32):
      %778 = arith.mulf %in, %in_3369 : f32
      linalg.yield %778 : f32
    }
    %expand_shape_332 = memref.expand_shape %alloc_324 [[0, 1], [2]] output_shape [1, 1024, 1024] : memref<1024x1024xf32> into memref<1x1024x1024xf32>
    %alloc_333 = memref.alloc() {alignment = 64 : i64} : memref<12x1024x1024xf32>
    linalg.generic {indexing_maps = [#map2, #map14, #map2], iterator_types = ["parallel", "parallel", "parallel"]} ins(%alloc_331, %expand_shape_332 : memref<12x1024x1024xf32>, memref<1x1024x1024xf32>) outs(%alloc_333 : memref<12x1024x1024xf32>) {
    ^bb0(%in: f32, %in_3369: f32, %out: f32):
      %778 = arith.addf %in, %in_3369 : f32
      linalg.yield %778 : f32
    }
    %alloc_334 = memref.alloc() {alignment = 64 : i64} : memref<12x1024xf32>
    %cst_335 = arith.constant -3.40282347E+38 : f32
    linalg.fill ins(%cst_335 : f32) outs(%alloc_334 : memref<12x1024xf32>)
    linalg.reduce ins(%alloc_333 : memref<12x1024x1024xf32>) outs(%alloc_334 : memref<12x1024xf32>) dimensions = [2] 
      (%in: f32, %init: f32) {
        %778 = arith.maximumf %in, %init : f32
        linalg.yield %778 : f32
      }
    %expand_shape_336 = memref.expand_shape %alloc_334 [[0], [1, 2]] output_shape [12, 1024, 1] : memref<12x1024xf32> into memref<12x1024x1xf32>
    %alloc_337 = memref.alloc() {alignment = 64 : i64} : memref<12x1024x1024xf32>
    linalg.generic {indexing_maps = [#map2, #map9, #map2], iterator_types = ["parallel", "parallel", "parallel"]} ins(%alloc_333, %expand_shape_336 : memref<12x1024x1024xf32>, memref<12x1024x1xf32>) outs(%alloc_337 : memref<12x1024x1024xf32>) {
    ^bb0(%in: f32, %in_3369: f32, %out: f32):
      %778 = arith.subf %in, %in_3369 : f32
      linalg.yield %778 : f32
    }
    linalg.generic {indexing_maps = [#map2, #map2], iterator_types = ["parallel", "parallel", "parallel"]} ins(%alloc_337 : memref<12x1024x1024xf32>) outs(%alloc_337 : memref<12x1024x1024xf32>) {
    ^bb0(%in: f32, %out: f32):
      %778 = math.exp %in : f32
      linalg.yield %778 : f32
    }
    %alloc_338 = memref.alloc() {alignment = 64 : i64} : memref<12x1024xf32>
    %cst_339 = arith.constant 0.000000e+00 : f32
    linalg.fill ins(%cst_339 : f32) outs(%alloc_338 : memref<12x1024xf32>)
    linalg.reduce ins(%alloc_337 : memref<12x1024x1024xf32>) outs(%alloc_338 : memref<12x1024xf32>) dimensions = [2] 
      (%in: f32, %init: f32) {
        %778 = arith.addf %in, %init : f32
        linalg.yield %778 : f32
      }
    %expand_shape_340 = memref.expand_shape %alloc_338 [[0], [1, 2]] output_shape [12, 1024, 1] : memref<12x1024xf32> into memref<12x1024x1xf32>
    %alloc_341 = memref.alloc() {alignment = 64 : i64} : memref<12x1024x1xf32>
    linalg.generic {indexing_maps = [#map2, #map2], iterator_types = ["parallel", "parallel", "parallel"]} ins(%expand_shape_340 : memref<12x1024x1xf32>) outs(%alloc_341 : memref<12x1024x1xf32>) {
    ^bb0(%in: f32, %out: f32):
      %778 = math.log %in : f32
      linalg.yield %778 : f32
    }
    %alloc_342 = memref.alloc() {alignment = 64 : i64} : memref<12x1024x1xf32>
    linalg.generic {indexing_maps = [#map2, #map2, #map2], iterator_types = ["parallel", "parallel", "parallel"]} ins(%expand_shape_336, %alloc_341 : memref<12x1024x1xf32>, memref<12x1024x1xf32>) outs(%alloc_342 : memref<12x1024x1xf32>) {
    ^bb0(%in: f32, %in_3369: f32, %out: f32):
      %778 = arith.addf %in, %in_3369 : f32
      linalg.yield %778 : f32
    }
    %alloc_343 = memref.alloc() {alignment = 64 : i64} : memref<12x1024x1024xf32>
    linalg.generic {indexing_maps = [#map2, #map9, #map2], iterator_types = ["parallel", "parallel", "parallel"]} ins(%alloc_333, %alloc_342 : memref<12x1024x1024xf32>, memref<12x1024x1xf32>) outs(%alloc_343 : memref<12x1024x1024xf32>) {
    ^bb0(%in: f32, %in_3369: f32, %out: f32):
      %778 = arith.subf %in, %in_3369 : f32
      linalg.yield %778 : f32
    }
    linalg.generic {indexing_maps = [#map2, #map2], iterator_types = ["parallel", "parallel", "parallel"]} ins(%alloc_343 : memref<12x1024x1024xf32>) outs(%alloc_343 : memref<12x1024x1024xf32>) {
    ^bb0(%in: f32, %out: f32):
      %778 = math.exp %in : f32
      linalg.yield %778 : f32
    }
    %collapse_shape_344 = memref.collapse_shape %alloc_342 [[0], [1, 2]] : memref<12x1024x1xf32> into memref<12x1024xf32>
    %expand_shape_345 = memref.expand_shape %collapse_shape_344 [[0, 1], [2]] output_shape [1, 12, 1024] : memref<12x1024xf32> into memref<1x12x1024xf32>
    %collapse_shape_346 = memref.collapse_shape %alloc_320 [[0, 1, 2], [3], [4]] : memref<1x2x6x1024x128xf32> into memref<12x1024x128xf32>
    %cst_347 = arith.constant 0.000000e+00 : f32
    %alloc_348 = memref.alloc() {alignment = 64 : i64} : memref<12x1024x128xf32>
    linalg.fill ins(%cst_347 : f32) outs(%alloc_348 : memref<12x1024x128xf32>)
    linalg.batch_matmul ins(%alloc_343, %collapse_shape_346 : memref<12x1024x1024xf32>, memref<12x1024x128xf32>) outs(%alloc_348 : memref<12x1024x128xf32>)
    %expand_shape_349 = memref.expand_shape %alloc_348 [[0, 1], [2], [3]] output_shape [1, 12, 1024, 128] : memref<12x1024x128xf32> into memref<1x12x1024x128xf32>
    %89 = memref.get_global @__constant_4xi32 : memref<4xi32>
    %alloc_350 = memref.alloc() {alignment = 64 : i64} : memref<1x1024x12x128xf32>
    linalg.transpose ins(%expand_shape_349 : memref<1x12x1024x128xf32>) outs(%alloc_350 : memref<1x1024x12x128xf32>) permutation = [0, 2, 1, 3] 
    %collapse_shape_351 = memref.collapse_shape %alloc_350 [[0], [1], [2, 3]] : memref<1x1024x12x128xf32> into memref<1x1024x1536xf32>
    %collapse_shape_352 = memref.collapse_shape %alloc_350 [[0, 1], [2, 3]] : memref<1x1024x12x128xf32> into memref<1024x1536xf32>
    %90 = memref.get_global @__constant_1024x1536xf32 : memref<1024x1536xf32>
    %alloc_353 = memref.alloc() {alignment = 64 : i64} : memref<1024x1536xf32>
    memref.copy %90, %alloc_353 : memref<1024x1536xf32> to memref<1024x1536xf32>
    linalg.matmul_transpose_b {cast = #linalg.type_fn<cast_signed>} ins(%collapse_shape_352, %arg35 : memref<1024x1536xf32>, memref<1536x1536xf32, strided<[?, ?], offset: ?>>) outs(%alloc_353 : memref<1024x1536xf32>)
    %expand_shape_354 = memref.expand_shape %alloc_353 [[0, 1], [2]] output_shape [1, 1024, 1536] : memref<1024x1536xf32> into memref<1x1024x1536xf32>
    %alloc_355 = memref.alloc() {alignment = 64 : i64} : memref<1x1024x1536xf32>
    linalg.generic {indexing_maps = [#map2, #map2, #map2], iterator_types = ["parallel", "parallel", "parallel"]} ins(%alloc_260, %expand_shape_354 : memref<1x1024x1536xf32>, memref<1x1024x1536xf32>) outs(%alloc_355 : memref<1x1024x1536xf32>) {
    ^bb0(%in: f32, %in_3369: f32, %out: f32):
      %778 = arith.addf %in, %in_3369 : f32
      linalg.yield %778 : f32
    }
    %alloc_356 = memref.alloc() {alignment = 64 : i64} : memref<1x1024x1536xf32>
    %c2_i32_357 = arith.constant 2 : i32
    linalg.generic {indexing_maps = [#map2, #map2], iterator_types = ["parallel", "parallel", "parallel"]} ins(%alloc_355 : memref<1x1024x1536xf32>) outs(%alloc_356 : memref<1x1024x1536xf32>) {
    ^bb0(%in: f32, %out: f32):
      %778 = math.fpowi %in, %c2_i32_357 : f32, i32
      linalg.yield %778 : f32
    }
    %alloc_358 = memref.alloc() {alignment = 64 : i64} : memref<1x1024xf32>
    %cst_359 = arith.constant 0.000000e+00 : f32
    linalg.fill ins(%cst_359 : f32) outs(%alloc_358 : memref<1x1024xf32>)
    linalg.reduce ins(%alloc_356 : memref<1x1024x1536xf32>) outs(%alloc_358 : memref<1x1024xf32>) dimensions = [2] 
      (%in: f32, %init: f32) {
        %778 = arith.addf %in, %init : f32
        linalg.yield %778 : f32
      }
    %expand_shape_360 = memref.expand_shape %alloc_358 [[0], [1, 2]] output_shape [1, 1024, 1] : memref<1x1024xf32> into memref<1x1024x1xf32>
    %91 = memref.get_global @__constant_1xf32_0 : memref<1xf32>
    %92 = memref.get_global @__constant_1xf32_1 : memref<1xf32>
    %93 = memref.get_global @__constant_1x1x1xf32_0 : memref<1x1x1xf32>
    %alloc_361 = memref.alloc() {alignment = 64 : i64} : memref<1x1024x1xf32>
    linalg.generic {indexing_maps = [#map8, #map2, #map2], iterator_types = ["parallel", "parallel", "parallel"]} ins(%93, %expand_shape_360 : memref<1x1x1xf32>, memref<1x1024x1xf32>) outs(%alloc_361 : memref<1x1024x1xf32>) {
    ^bb0(%in: f32, %in_3369: f32, %out: f32):
      %778 = arith.mulf %in, %in_3369 : f32
      linalg.yield %778 : f32
    }
    %94 = memref.get_global @__constant_1x1024x1xf32 : memref<1x1024x1xf32>
    %alloc_362 = memref.alloc() {alignment = 64 : i64} : memref<1x1024x1xf32>
    linalg.generic {indexing_maps = [#map2, #map2, #map2], iterator_types = ["parallel", "parallel", "parallel"]} ins(%alloc_361, %94 : memref<1x1024x1xf32>, memref<1x1024x1xf32>) outs(%alloc_362 : memref<1x1024x1xf32>) {
    ^bb0(%in: f32, %in_3369: f32, %out: f32):
      %778 = arith.addf %in, %in_3369 : f32
      linalg.yield %778 : f32
    }
    %alloc_363 = memref.alloc() {alignment = 64 : i64} : memref<1x1024x1xf32>
    linalg.generic {indexing_maps = [#map2, #map2], iterator_types = ["parallel", "parallel", "parallel"]} ins(%alloc_362 : memref<1x1024x1xf32>) outs(%alloc_363 : memref<1x1024x1xf32>) {
    ^bb0(%in: f32, %out: f32):
      %778 = math.rsqrt %in : f32
      linalg.yield %778 : f32
    }
    %alloc_364 = memref.alloc() {alignment = 64 : i64} : memref<1x1024x1536xf32>
    linalg.generic {indexing_maps = [#map2, #map9, #map2], iterator_types = ["parallel", "parallel", "parallel"]} ins(%alloc_355, %alloc_363 : memref<1x1024x1536xf32>, memref<1x1024x1xf32>) outs(%alloc_364 : memref<1x1024x1536xf32>) {
    ^bb0(%in: f32, %in_3369: f32, %out: f32):
      %778 = arith.mulf %in, %in_3369 : f32
      linalg.yield %778 : f32
    }
    %expand_shape_365 = memref.expand_shape %arg36 [[0, 1, 2]] output_shape [1, 1, 1536] : memref<1536xf32, strided<[?], offset: ?>> into memref<1x1x1536xf32, strided<[?, ?, ?], offset: ?>>
    %alloc_366 = memref.alloc() {alignment = 64 : i64} : memref<1x1024x1536xf32>
    linalg.generic {indexing_maps = [#map8, #map2, #map2], iterator_types = ["parallel", "parallel", "parallel"]} ins(%expand_shape_365, %alloc_364 : memref<1x1x1536xf32, strided<[?, ?, ?], offset: ?>>, memref<1x1024x1536xf32>) outs(%alloc_366 : memref<1x1024x1536xf32>) {
    ^bb0(%in: f32, %in_3369: f32, %out: f32):
      %778 = arith.mulf %in, %in_3369 : f32
      linalg.yield %778 : f32
    }
    %collapse_shape_367 = memref.collapse_shape %alloc_366 [[0, 1], [2]] : memref<1x1024x1536xf32> into memref<1024x1536xf32>
    %95 = memref.get_global @__constant_1024x8960xf32 : memref<1024x8960xf32>
    %alloc_368 = memref.alloc() {alignment = 64 : i64} : memref<1024x8960xf32>
    memref.copy %95, %alloc_368 : memref<1024x8960xf32> to memref<1024x8960xf32>
    linalg.matmul_transpose_b {cast = #linalg.type_fn<cast_signed>} ins(%collapse_shape_367, %arg37 : memref<1024x1536xf32>, memref<8960x1536xf32, strided<[?, ?], offset: ?>>) outs(%alloc_368 : memref<1024x8960xf32>)
    %expand_shape_369 = memref.expand_shape %alloc_368 [[0, 1], [2]] output_shape [1, 1024, 8960] : memref<1024x8960xf32> into memref<1x1024x8960xf32>
    %alloc_370 = memref.alloc() {alignment = 64 : i64} : memref<1x1024x8960xf32>
    linalg.generic {indexing_maps = [#map2, #map2], iterator_types = ["parallel", "parallel", "parallel"]} ins(%expand_shape_369 : memref<1x1024x8960xf32>) outs(%alloc_370 : memref<1x1024x8960xf32>) {
    ^bb0(%in: f32, %out: f32):
      %cst_3369 = arith.constant 1.000000e+00 : f32
      %778 = arith.negf %in : f32
      %779 = math.exp %778 : f32
      %780 = arith.addf %779, %cst_3369 : f32
      %781 = arith.divf %cst_3369, %780 : f32
      linalg.yield %781 : f32
    }
    %alloc_371 = memref.alloc() {alignment = 64 : i64} : memref<1x1024x8960xf32>
    linalg.generic {indexing_maps = [#map2, #map2, #map2], iterator_types = ["parallel", "parallel", "parallel"]} ins(%expand_shape_369, %alloc_370 : memref<1x1024x8960xf32>, memref<1x1024x8960xf32>) outs(%alloc_371 : memref<1x1024x8960xf32>) {
    ^bb0(%in: f32, %in_3369: f32, %out: f32):
      %778 = arith.mulf %in, %in_3369 : f32
      linalg.yield %778 : f32
    }
    %collapse_shape_372 = memref.collapse_shape %alloc_366 [[0, 1], [2]] : memref<1x1024x1536xf32> into memref<1024x1536xf32>
    %96 = memref.get_global @__constant_1024x8960xf32 : memref<1024x8960xf32>
    %alloc_373 = memref.alloc() {alignment = 64 : i64} : memref<1024x8960xf32>
    memref.copy %96, %alloc_373 : memref<1024x8960xf32> to memref<1024x8960xf32>
    linalg.matmul_transpose_b {cast = #linalg.type_fn<cast_signed>} ins(%collapse_shape_372, %arg38 : memref<1024x1536xf32>, memref<8960x1536xf32, strided<[?, ?], offset: ?>>) outs(%alloc_373 : memref<1024x8960xf32>)
    %expand_shape_374 = memref.expand_shape %alloc_373 [[0, 1], [2]] output_shape [1, 1024, 8960] : memref<1024x8960xf32> into memref<1x1024x8960xf32>
    %alloc_375 = memref.alloc() {alignment = 64 : i64} : memref<1x1024x8960xf32>
    linalg.generic {indexing_maps = [#map2, #map2, #map2], iterator_types = ["parallel", "parallel", "parallel"]} ins(%alloc_371, %expand_shape_374 : memref<1x1024x8960xf32>, memref<1x1024x8960xf32>) outs(%alloc_375 : memref<1x1024x8960xf32>) {
    ^bb0(%in: f32, %in_3369: f32, %out: f32):
      %778 = arith.mulf %in, %in_3369 : f32
      linalg.yield %778 : f32
    }
    %collapse_shape_376 = memref.collapse_shape %alloc_375 [[0, 1], [2]] : memref<1x1024x8960xf32> into memref<1024x8960xf32>
    %97 = memref.get_global @__constant_1024x1536xf32 : memref<1024x1536xf32>
    %alloc_377 = memref.alloc() {alignment = 64 : i64} : memref<1024x1536xf32>
    memref.copy %97, %alloc_377 : memref<1024x1536xf32> to memref<1024x1536xf32>
    linalg.matmul_transpose_b {cast = #linalg.type_fn<cast_signed>} ins(%collapse_shape_376, %arg39 : memref<1024x8960xf32>, memref<1536x8960xf32, strided<[?, ?], offset: ?>>) outs(%alloc_377 : memref<1024x1536xf32>)
    %expand_shape_378 = memref.expand_shape %alloc_377 [[0, 1], [2]] output_shape [1, 1024, 1536] : memref<1024x1536xf32> into memref<1x1024x1536xf32>
    %alloc_379 = memref.alloc() {alignment = 64 : i64} : memref<1x1024x1536xf32>
    linalg.generic {indexing_maps = [#map2, #map2, #map2], iterator_types = ["parallel", "parallel", "parallel"]} ins(%alloc_355, %expand_shape_378 : memref<1x1024x1536xf32>, memref<1x1024x1536xf32>) outs(%alloc_379 : memref<1x1024x1536xf32>) {
    ^bb0(%in: f32, %in_3369: f32, %out: f32):
      %778 = arith.addf %in, %in_3369 : f32
      linalg.yield %778 : f32
    }
    %alloc_380 = memref.alloc() {alignment = 64 : i64} : memref<1x1024x1536xf32>
    %c2_i32_381 = arith.constant 2 : i32
    linalg.generic {indexing_maps = [#map2, #map2], iterator_types = ["parallel", "parallel", "parallel"]} ins(%alloc_379 : memref<1x1024x1536xf32>) outs(%alloc_380 : memref<1x1024x1536xf32>) {
    ^bb0(%in: f32, %out: f32):
      %778 = math.fpowi %in, %c2_i32_381 : f32, i32
      linalg.yield %778 : f32
    }
    %alloc_382 = memref.alloc() {alignment = 64 : i64} : memref<1x1024xf32>
    %cst_383 = arith.constant 0.000000e+00 : f32
    linalg.fill ins(%cst_383 : f32) outs(%alloc_382 : memref<1x1024xf32>)
    linalg.reduce ins(%alloc_380 : memref<1x1024x1536xf32>) outs(%alloc_382 : memref<1x1024xf32>) dimensions = [2] 
      (%in: f32, %init: f32) {
        %778 = arith.addf %in, %init : f32
        linalg.yield %778 : f32
      }
    %expand_shape_384 = memref.expand_shape %alloc_382 [[0], [1, 2]] output_shape [1, 1024, 1] : memref<1x1024xf32> into memref<1x1024x1xf32>
    %98 = memref.get_global @__constant_1xf32_0 : memref<1xf32>
    %99 = memref.get_global @__constant_1xf32_1 : memref<1xf32>
    %100 = memref.get_global @__constant_1x1x1xf32_0 : memref<1x1x1xf32>
    %alloc_385 = memref.alloc() {alignment = 64 : i64} : memref<1x1024x1xf32>
    linalg.generic {indexing_maps = [#map8, #map2, #map2], iterator_types = ["parallel", "parallel", "parallel"]} ins(%100, %expand_shape_384 : memref<1x1x1xf32>, memref<1x1024x1xf32>) outs(%alloc_385 : memref<1x1024x1xf32>) {
    ^bb0(%in: f32, %in_3369: f32, %out: f32):
      %778 = arith.mulf %in, %in_3369 : f32
      linalg.yield %778 : f32
    }
    %101 = memref.get_global @__constant_1x1024x1xf32 : memref<1x1024x1xf32>
    %alloc_386 = memref.alloc() {alignment = 64 : i64} : memref<1x1024x1xf32>
    linalg.generic {indexing_maps = [#map2, #map2, #map2], iterator_types = ["parallel", "parallel", "parallel"]} ins(%alloc_385, %101 : memref<1x1024x1xf32>, memref<1x1024x1xf32>) outs(%alloc_386 : memref<1x1024x1xf32>) {
    ^bb0(%in: f32, %in_3369: f32, %out: f32):
      %778 = arith.addf %in, %in_3369 : f32
      linalg.yield %778 : f32
    }
    %alloc_387 = memref.alloc() {alignment = 64 : i64} : memref<1x1024x1xf32>
    linalg.generic {indexing_maps = [#map2, #map2], iterator_types = ["parallel", "parallel", "parallel"]} ins(%alloc_386 : memref<1x1024x1xf32>) outs(%alloc_387 : memref<1x1024x1xf32>) {
    ^bb0(%in: f32, %out: f32):
      %778 = math.rsqrt %in : f32
      linalg.yield %778 : f32
    }
    %alloc_388 = memref.alloc() {alignment = 64 : i64} : memref<1x1024x1536xf32>
    linalg.generic {indexing_maps = [#map2, #map9, #map2], iterator_types = ["parallel", "parallel", "parallel"]} ins(%alloc_379, %alloc_387 : memref<1x1024x1536xf32>, memref<1x1024x1xf32>) outs(%alloc_388 : memref<1x1024x1536xf32>) {
    ^bb0(%in: f32, %in_3369: f32, %out: f32):
      %778 = arith.mulf %in, %in_3369 : f32
      linalg.yield %778 : f32
    }
    %expand_shape_389 = memref.expand_shape %arg40 [[0, 1, 2]] output_shape [1, 1, 1536] : memref<1536xf32, strided<[?], offset: ?>> into memref<1x1x1536xf32, strided<[?, ?, ?], offset: ?>>
    %alloc_390 = memref.alloc() {alignment = 64 : i64} : memref<1x1024x1536xf32>
    linalg.generic {indexing_maps = [#map8, #map2, #map2], iterator_types = ["parallel", "parallel", "parallel"]} ins(%expand_shape_389, %alloc_388 : memref<1x1x1536xf32, strided<[?, ?, ?], offset: ?>>, memref<1x1024x1536xf32>) outs(%alloc_390 : memref<1x1024x1536xf32>) {
    ^bb0(%in: f32, %in_3369: f32, %out: f32):
      %778 = arith.mulf %in, %in_3369 : f32
      linalg.yield %778 : f32
    }
    %collapse_shape_391 = memref.collapse_shape %alloc_390 [[0, 1], [2]] : memref<1x1024x1536xf32> into memref<1024x1536xf32>
    %102 = memref.get_global @__constant_2xi32 : memref<2xi32>
    %alloc_392 = memref.alloc() {alignment = 64 : i64} : memref<1536x1536xf32>
    linalg.transpose ins(%arg41 : memref<1536x1536xf32, strided<[?, ?], offset: ?>>) outs(%alloc_392 : memref<1536x1536xf32>) permutation = [1, 0] 
    %103 = memref.get_global @__constant_1024x1536xf32 : memref<1024x1536xf32>
    %alloc_393 = memref.alloc() {alignment = 64 : i64} : memref<1024x1536xf32>
    memref.copy %103, %alloc_393 : memref<1024x1536xf32> to memref<1024x1536xf32>
    linalg.matmul {cast = #linalg.type_fn<cast_signed>} ins(%collapse_shape_391, %alloc_392 : memref<1024x1536xf32>, memref<1536x1536xf32>) outs(%alloc_393 : memref<1024x1536xf32>)
    %expand_shape_394 = memref.expand_shape %arg42 [[0, 1]] output_shape [1, 1536] : memref<1536xf32, strided<[?], offset: ?>> into memref<1x1536xf32, strided<[?, ?], offset: ?>>
    %alloc_395 = memref.alloc() {alignment = 64 : i64} : memref<1024x1536xf32>
    linalg.generic {indexing_maps = [#map10, #map, #map], iterator_types = ["parallel", "parallel"]} ins(%expand_shape_394, %alloc_393 : memref<1x1536xf32, strided<[?, ?], offset: ?>>, memref<1024x1536xf32>) outs(%alloc_395 : memref<1024x1536xf32>) {
    ^bb0(%in: f32, %in_3369: f32, %out: f32):
      %778 = arith.addf %in, %in_3369 : f32
      linalg.yield %778 : f32
    }
    %expand_shape_396 = memref.expand_shape %alloc_395 [[0, 1], [2]] output_shape [1, 1024, 1536] : memref<1024x1536xf32> into memref<1x1024x1536xf32>
    %collapse_shape_397 = memref.collapse_shape %alloc_390 [[0, 1], [2]] : memref<1x1024x1536xf32> into memref<1024x1536xf32>
    %104 = memref.get_global @__constant_2xi32 : memref<2xi32>
    %alloc_398 = memref.alloc() {alignment = 64 : i64} : memref<1536x256xf32>
    linalg.transpose ins(%arg43 : memref<256x1536xf32, strided<[?, ?], offset: ?>>) outs(%alloc_398 : memref<1536x256xf32>) permutation = [1, 0] 
    %105 = memref.get_global @__constant_1024x256xf32 : memref<1024x256xf32>
    %alloc_399 = memref.alloc() {alignment = 64 : i64} : memref<1024x256xf32>
    memref.copy %105, %alloc_399 : memref<1024x256xf32> to memref<1024x256xf32>
    linalg.matmul {cast = #linalg.type_fn<cast_signed>} ins(%collapse_shape_397, %alloc_398 : memref<1024x1536xf32>, memref<1536x256xf32>) outs(%alloc_399 : memref<1024x256xf32>)
    %expand_shape_400 = memref.expand_shape %arg44 [[0, 1]] output_shape [1, 256] : memref<256xf32, strided<[?], offset: ?>> into memref<1x256xf32, strided<[?, ?], offset: ?>>
    %alloc_401 = memref.alloc() {alignment = 64 : i64} : memref<1024x256xf32>
    linalg.generic {indexing_maps = [#map10, #map, #map], iterator_types = ["parallel", "parallel"]} ins(%expand_shape_400, %alloc_399 : memref<1x256xf32, strided<[?, ?], offset: ?>>, memref<1024x256xf32>) outs(%alloc_401 : memref<1024x256xf32>) {
    ^bb0(%in: f32, %in_3369: f32, %out: f32):
      %778 = arith.addf %in, %in_3369 : f32
      linalg.yield %778 : f32
    }
    %expand_shape_402 = memref.expand_shape %alloc_401 [[0, 1], [2]] output_shape [1, 1024, 256] : memref<1024x256xf32> into memref<1x1024x256xf32>
    %collapse_shape_403 = memref.collapse_shape %alloc_390 [[0, 1], [2]] : memref<1x1024x1536xf32> into memref<1024x1536xf32>
    %106 = memref.get_global @__constant_2xi32 : memref<2xi32>
    %alloc_404 = memref.alloc() {alignment = 64 : i64} : memref<1536x256xf32>
    linalg.transpose ins(%arg45 : memref<256x1536xf32, strided<[?, ?], offset: ?>>) outs(%alloc_404 : memref<1536x256xf32>) permutation = [1, 0] 
    %107 = memref.get_global @__constant_1024x256xf32 : memref<1024x256xf32>
    %alloc_405 = memref.alloc() {alignment = 64 : i64} : memref<1024x256xf32>
    memref.copy %107, %alloc_405 : memref<1024x256xf32> to memref<1024x256xf32>
    linalg.matmul {cast = #linalg.type_fn<cast_signed>} ins(%collapse_shape_403, %alloc_404 : memref<1024x1536xf32>, memref<1536x256xf32>) outs(%alloc_405 : memref<1024x256xf32>)
    %expand_shape_406 = memref.expand_shape %arg46 [[0, 1]] output_shape [1, 256] : memref<256xf32, strided<[?], offset: ?>> into memref<1x256xf32, strided<[?, ?], offset: ?>>
    %alloc_407 = memref.alloc() {alignment = 64 : i64} : memref<1024x256xf32>
    linalg.generic {indexing_maps = [#map10, #map, #map], iterator_types = ["parallel", "parallel"]} ins(%expand_shape_406, %alloc_405 : memref<1x256xf32, strided<[?, ?], offset: ?>>, memref<1024x256xf32>) outs(%alloc_407 : memref<1024x256xf32>) {
    ^bb0(%in: f32, %in_3369: f32, %out: f32):
      %778 = arith.addf %in, %in_3369 : f32
      linalg.yield %778 : f32
    }
    %expand_shape_408 = memref.expand_shape %alloc_407 [[0, 1], [2]] output_shape [1, 1024, 256] : memref<1024x256xf32> into memref<1x1024x256xf32>
    %expand_shape_409 = memref.expand_shape %alloc_395 [[0, 1], [2, 3]] output_shape [1, 1024, 12, 128] : memref<1024x1536xf32> into memref<1x1024x12x128xf32>
    %108 = memref.get_global @__constant_4xi32 : memref<4xi32>
    %alloc_410 = memref.alloc() {alignment = 64 : i64} : memref<1x12x1024x128xf32>
    linalg.transpose ins(%expand_shape_409 : memref<1x1024x12x128xf32>) outs(%alloc_410 : memref<1x12x1024x128xf32>) permutation = [0, 2, 1, 3] 
    %expand_shape_411 = memref.expand_shape %alloc_401 [[0, 1], [2, 3]] output_shape [1, 1024, 2, 128] : memref<1024x256xf32> into memref<1x1024x2x128xf32>
    %109 = memref.get_global @__constant_4xi32 : memref<4xi32>
    %alloc_412 = memref.alloc() {alignment = 64 : i64} : memref<1x2x1024x128xf32>
    linalg.transpose ins(%expand_shape_411 : memref<1x1024x2x128xf32>) outs(%alloc_412 : memref<1x2x1024x128xf32>) permutation = [0, 2, 1, 3] 
    %expand_shape_413 = memref.expand_shape %alloc_407 [[0, 1], [2, 3]] output_shape [1, 1024, 2, 128] : memref<1024x256xf32> into memref<1x1024x2x128xf32>
    %110 = memref.get_global @__constant_4xi32 : memref<4xi32>
    %alloc_414 = memref.alloc() {alignment = 64 : i64} : memref<1x2x1024x128xf32>
    linalg.transpose ins(%expand_shape_413 : memref<1x1024x2x128xf32>) outs(%alloc_414 : memref<1x2x1024x128xf32>) permutation = [0, 2, 1, 3] 
    %expand_shape_415 = memref.expand_shape %alloc_23 [[0, 1], [2], [3]] output_shape [1, 1, 1024, 128] : memref<1x1024x128xf32> into memref<1x1x1024x128xf32>
    %expand_shape_416 = memref.expand_shape %alloc_24 [[0, 1], [2], [3]] output_shape [1, 1, 1024, 128] : memref<1x1024x128xf32> into memref<1x1x1024x128xf32>
    %alloc_417 = memref.alloc() {alignment = 64 : i64} : memref<1x12x1024x128xf32>
    linalg.generic {indexing_maps = [#map5, #map11, #map5], iterator_types = ["parallel", "parallel", "parallel", "parallel"]} ins(%alloc_410, %expand_shape_415 : memref<1x12x1024x128xf32>, memref<1x1x1024x128xf32>) outs(%alloc_417 : memref<1x12x1024x128xf32>) {
    ^bb0(%in: f32, %in_3369: f32, %out: f32):
      %778 = arith.mulf %in, %in_3369 : f32
      linalg.yield %778 : f32
    }
    %subview_418 = memref.subview %alloc_410[0, 0, 0, 0] [1, 12, 1024, 64] [1, 1, 1, 1] : memref<1x12x1024x128xf32> to memref<1x12x1024x64xf32, strided<[1572864, 131072, 128, 1]>>
    %subview_419 = memref.subview %alloc_410[0, 0, 0, 64] [1, 12, 1024, 64] [1, 1, 1, 1] : memref<1x12x1024x128xf32> to memref<1x12x1024x64xf32, strided<[1572864, 131072, 128, 1], offset: 64>>
    %alloc_420 = memref.alloc() {alignment = 64 : i64} : memref<1x12x1024x64xf32>
    linalg.negf ins(%subview_419 : memref<1x12x1024x64xf32, strided<[1572864, 131072, 128, 1], offset: 64>>) outs(%alloc_420 : memref<1x12x1024x64xf32>)
    %alloc_421 = memref.alloc() {alignment = 64 : i64} : memref<1x12x1024x128xf32>
    %subview_422 = memref.subview %alloc_421[0, 0, 0, 0] [1, 12, 1024, 64] [1, 1, 1, 1] : memref<1x12x1024x128xf32> to memref<1x12x1024x64xf32, strided<[1572864, 131072, 128, 1]>>
    memref.copy %alloc_420, %subview_422 : memref<1x12x1024x64xf32> to memref<1x12x1024x64xf32, strided<[1572864, 131072, 128, 1]>>
    %subview_423 = memref.subview %alloc_421[0, 0, 0, 64] [1, 12, 1024, 64] [1, 1, 1, 1] : memref<1x12x1024x128xf32> to memref<1x12x1024x64xf32, strided<[1572864, 131072, 128, 1], offset: 64>>
    memref.copy %subview_418, %subview_423 : memref<1x12x1024x64xf32, strided<[1572864, 131072, 128, 1]>> to memref<1x12x1024x64xf32, strided<[1572864, 131072, 128, 1], offset: 64>>
    %alloc_424 = memref.alloc() {alignment = 64 : i64} : memref<1x12x1024x128xf32>
    linalg.generic {indexing_maps = [#map5, #map11, #map5], iterator_types = ["parallel", "parallel", "parallel", "parallel"]} ins(%alloc_421, %expand_shape_416 : memref<1x12x1024x128xf32>, memref<1x1x1024x128xf32>) outs(%alloc_424 : memref<1x12x1024x128xf32>) {
    ^bb0(%in: f32, %in_3369: f32, %out: f32):
      %778 = arith.mulf %in, %in_3369 : f32
      linalg.yield %778 : f32
    }
    %alloc_425 = memref.alloc() {alignment = 64 : i64} : memref<1x12x1024x128xf32>
    linalg.generic {indexing_maps = [#map5, #map5, #map5], iterator_types = ["parallel", "parallel", "parallel", "parallel"]} ins(%alloc_417, %alloc_424 : memref<1x12x1024x128xf32>, memref<1x12x1024x128xf32>) outs(%alloc_425 : memref<1x12x1024x128xf32>) {
    ^bb0(%in: f32, %in_3369: f32, %out: f32):
      %778 = arith.addf %in, %in_3369 : f32
      linalg.yield %778 : f32
    }
    %alloc_426 = memref.alloc() {alignment = 64 : i64} : memref<1x2x1024x128xf32>
    linalg.generic {indexing_maps = [#map5, #map11, #map5], iterator_types = ["parallel", "parallel", "parallel", "parallel"]} ins(%alloc_412, %expand_shape_415 : memref<1x2x1024x128xf32>, memref<1x1x1024x128xf32>) outs(%alloc_426 : memref<1x2x1024x128xf32>) {
    ^bb0(%in: f32, %in_3369: f32, %out: f32):
      %778 = arith.mulf %in, %in_3369 : f32
      linalg.yield %778 : f32
    }
    %subview_427 = memref.subview %alloc_412[0, 0, 0, 0] [1, 2, 1024, 64] [1, 1, 1, 1] : memref<1x2x1024x128xf32> to memref<1x2x1024x64xf32, strided<[262144, 131072, 128, 1]>>
    %subview_428 = memref.subview %alloc_412[0, 0, 0, 64] [1, 2, 1024, 64] [1, 1, 1, 1] : memref<1x2x1024x128xf32> to memref<1x2x1024x64xf32, strided<[262144, 131072, 128, 1], offset: 64>>
    %alloc_429 = memref.alloc() {alignment = 64 : i64} : memref<1x2x1024x64xf32>
    linalg.negf ins(%subview_428 : memref<1x2x1024x64xf32, strided<[262144, 131072, 128, 1], offset: 64>>) outs(%alloc_429 : memref<1x2x1024x64xf32>)
    %alloc_430 = memref.alloc() {alignment = 64 : i64} : memref<1x2x1024x128xf32>
    %subview_431 = memref.subview %alloc_430[0, 0, 0, 0] [1, 2, 1024, 64] [1, 1, 1, 1] : memref<1x2x1024x128xf32> to memref<1x2x1024x64xf32, strided<[262144, 131072, 128, 1]>>
    memref.copy %alloc_429, %subview_431 : memref<1x2x1024x64xf32> to memref<1x2x1024x64xf32, strided<[262144, 131072, 128, 1]>>
    %subview_432 = memref.subview %alloc_430[0, 0, 0, 64] [1, 2, 1024, 64] [1, 1, 1, 1] : memref<1x2x1024x128xf32> to memref<1x2x1024x64xf32, strided<[262144, 131072, 128, 1], offset: 64>>
    memref.copy %subview_427, %subview_432 : memref<1x2x1024x64xf32, strided<[262144, 131072, 128, 1]>> to memref<1x2x1024x64xf32, strided<[262144, 131072, 128, 1], offset: 64>>
    %alloc_433 = memref.alloc() {alignment = 64 : i64} : memref<1x2x1024x128xf32>
…
    linalg.generic {indexing_maps = [#map2, #map9, #map2], iterator_types = ["parallel", "parallel", "parallel"]} ins(%alloc_3189, %alloc_3198 : memref<12x1024x1024xf32>, memref<12x1024x1xf32>) outs(%alloc_3199 : memref<12x1024x1024xf32>) {
    ^bb0(%in: f32, %in_3369: f32, %out: f32):
      %778 = arith.subf %in, %in_3369 : f32
      linalg.yield %778 : f32
    }
    linalg.generic {indexing_maps = [#map2, #map2], iterator_types = ["parallel", "parallel", "parallel"]} ins(%alloc_3199 : memref<12x1024x1024xf32>) outs(%alloc_3199 : memref<12x1024x1024xf32>) {
    ^bb0(%in: f32, %out: f32):
      %778 = math.exp %in : f32
      linalg.yield %778 : f32
    }
    %collapse_shape_3200 = memref.collapse_shape %alloc_3198 [[0], [1, 2]] : memref<12x1024x1xf32> into memref<12x1024xf32>
    %expand_shape_3201 = memref.expand_shape %collapse_shape_3200 [[0, 1], [2]] output_shape [1, 12, 1024] : memref<12x1024xf32> into memref<1x12x1024xf32>
    %collapse_shape_3202 = memref.collapse_shape %alloc_3176 [[0, 1, 2], [3], [4]] : memref<1x2x6x1024x128xf32> into memref<12x1024x128xf32>
    %cst_3203 = arith.constant 0.000000e+00 : f32
    %alloc_3204 = memref.alloc() {alignment = 64 : i64} : memref<12x1024x128xf32>
    linalg.fill ins(%cst_3203 : f32) outs(%alloc_3204 : memref<12x1024x128xf32>)
    linalg.batch_matmul ins(%alloc_3199, %collapse_shape_3202 : memref<12x1024x1024xf32>, memref<12x1024x128xf32>) outs(%alloc_3204 : memref<12x1024x128xf32>)
    %expand_shape_3205 = memref.expand_shape %alloc_3204 [[0, 1], [2], [3]] output_shape [1, 12, 1024, 128] : memref<12x1024x128xf32> into memref<1x12x1024x128xf32>
    %737 = memref.get_global @__constant_4xi32 : memref<4xi32>
    %alloc_3206 = memref.alloc() {alignment = 64 : i64} : memref<1x1024x12x128xf32>
    linalg.transpose ins(%expand_shape_3205 : memref<1x12x1024x128xf32>) outs(%alloc_3206 : memref<1x1024x12x128xf32>) permutation = [0, 2, 1, 3] 
    %collapse_shape_3207 = memref.collapse_shape %alloc_3206 [[0], [1], [2, 3]] : memref<1x1024x12x128xf32> into memref<1x1024x1536xf32>
    %collapse_shape_3208 = memref.collapse_shape %alloc_3206 [[0, 1], [2, 3]] : memref<1x1024x12x128xf32> into memref<1024x1536xf32>
    %738 = memref.get_global @__constant_1024x1536xf32 : memref<1024x1536xf32>
    %alloc_3209 = memref.alloc() {alignment = 64 : i64} : memref<1024x1536xf32>
    memref.copy %738, %alloc_3209 : memref<1024x1536xf32> to memref<1024x1536xf32>
    linalg.matmul_transpose_b {cast = #linalg.type_fn<cast_signed>} ins(%collapse_shape_3208, %arg323 : memref<1024x1536xf32>, memref<1536x1536xf32, strided<[?, ?], offset: ?>>) outs(%alloc_3209 : memref<1024x1536xf32>)
    %expand_shape_3210 = memref.expand_shape %alloc_3209 [[0, 1], [2]] output_shape [1, 1024, 1536] : memref<1024x1536xf32> into memref<1x1024x1536xf32>
    %alloc_3211 = memref.alloc() {alignment = 64 : i64} : memref<1x1024x1536xf32>
    linalg.generic {indexing_maps = [#map2, #map2, #map2], iterator_types = ["parallel", "parallel", "parallel"]} ins(%alloc_3116, %expand_shape_3210 : memref<1x1024x1536xf32>, memref<1x1024x1536xf32>) outs(%alloc_3211 : memref<1x1024x1536xf32>) {
    ^bb0(%in: f32, %in_3369: f32, %out: f32):
      %778 = arith.addf %in, %in_3369 : f32
      linalg.yield %778 : f32
    }
    %alloc_3212 = memref.alloc() {alignment = 64 : i64} : memref<1x1024x1536xf32>
    %c2_i32_3213 = arith.constant 2 : i32
    linalg.generic {indexing_maps = [#map2, #map2], iterator_types = ["parallel", "parallel", "parallel"]} ins(%alloc_3211 : memref<1x1024x1536xf32>) outs(%alloc_3212 : memref<1x1024x1536xf32>) {
    ^bb0(%in: f32, %out: f32):
      %778 = math.fpowi %in, %c2_i32_3213 : f32, i32
      linalg.yield %778 : f32
    }
    %alloc_3214 = memref.alloc() {alignment = 64 : i64} : memref<1x1024xf32>
    %cst_3215 = arith.constant 0.000000e+00 : f32
    linalg.fill ins(%cst_3215 : f32) outs(%alloc_3214 : memref<1x1024xf32>)
    linalg.reduce ins(%alloc_3212 : memref<1x1024x1536xf32>) outs(%alloc_3214 : memref<1x1024xf32>) dimensions = [2] 
      (%in: f32, %init: f32) {
        %778 = arith.addf %in, %init : f32
        linalg.yield %778 : f32
      }
    %expand_shape_3216 = memref.expand_shape %alloc_3214 [[0], [1, 2]] output_shape [1, 1024, 1] : memref<1x1024xf32> into memref<1x1024x1xf32>
    %739 = memref.get_global @__constant_1xf32_0 : memref<1xf32>
    %740 = memref.get_global @__constant_1xf32_1 : memref<1xf32>
    %741 = memref.get_global @__constant_1x1x1xf32_0 : memref<1x1x1xf32>
    %alloc_3217 = memref.alloc() {alignment = 64 : i64} : memref<1x1024x1xf32>
    linalg.generic {indexing_maps = [#map8, #map2, #map2], iterator_types = ["parallel", "parallel", "parallel"]} ins(%741, %expand_shape_3216 : memref<1x1x1xf32>, memref<1x1024x1xf32>) outs(%alloc_3217 : memref<1x1024x1xf32>) {
    ^bb0(%in: f32, %in_3369: f32, %out: f32):
      %778 = arith.mulf %in, %in_3369 : f32
      linalg.yield %778 : f32
    }
    %742 = memref.get_global @__constant_1x1024x1xf32 : memref<1x1024x1xf32>
    %alloc_3218 = memref.alloc() {alignment = 64 : i64} : memref<1x1024x1xf32>
    linalg.generic {indexing_maps = [#map2, #map2, #map2], iterator_types = ["parallel", "parallel", "parallel"]} ins(%alloc_3217, %742 : memref<1x1024x1xf32>, memref<1x1024x1xf32>) outs(%alloc_3218 : memref<1x1024x1xf32>) {
    ^bb0(%in: f32, %in_3369: f32, %out: f32):
      %778 = arith.addf %in, %in_3369 : f32
      linalg.yield %778 : f32
    }
    %alloc_3219 = memref.alloc() {alignment = 64 : i64} : memref<1x1024x1xf32>
    linalg.generic {indexing_maps = [#map2, #map2], iterator_types = ["parallel", "parallel", "parallel"]} ins(%alloc_3218 : memref<1x1024x1xf32>) outs(%alloc_3219 : memref<1x1024x1xf32>) {
    ^bb0(%in: f32, %out: f32):
      %778 = math.rsqrt %in : f32
      linalg.yield %778 : f32
    }
    %alloc_3220 = memref.alloc() {alignment = 64 : i64} : memref<1x1024x1536xf32>
    linalg.generic {indexing_maps = [#map2, #map9, #map2], iterator_types = ["parallel", "parallel", "parallel"]} ins(%alloc_3211, %alloc_3219 : memref<1x1024x1536xf32>, memref<1x1024x1xf32>) outs(%alloc_3220 : memref<1x1024x1536xf32>) {
    ^bb0(%in: f32, %in_3369: f32, %out: f32):
      %778 = arith.mulf %in, %in_3369 : f32
      linalg.yield %778 : f32
    }
    %expand_shape_3221 = memref.expand_shape %arg324 [[0, 1, 2]] output_shape [1, 1, 1536] : memref<1536xf32, strided<[?], offset: ?>> into memref<1x1x1536xf32, strided<[?, ?, ?], offset: ?>>
    %alloc_3222 = memref.alloc() {alignment = 64 : i64} : memref<1x1024x1536xf32>
    linalg.generic {indexing_maps = [#map8, #map2, #map2], iterator_types = ["parallel", "parallel", "parallel"]} ins(%expand_shape_3221, %alloc_3220 : memref<1x1x1536xf32, strided<[?, ?, ?], offset: ?>>, memref<1x1024x1536xf32>) outs(%alloc_3222 : memref<1x1024x1536xf32>) {
    ^bb0(%in: f32, %in_3369: f32, %out: f32):
      %778 = arith.mulf %in, %in_3369 : f32
      linalg.yield %778 : f32
    }
    %collapse_shape_3223 = memref.collapse_shape %alloc_3222 [[0, 1], [2]] : memref<1x1024x1536xf32> into memref<1024x1536xf32>
    %743 = memref.get_global @__constant_1024x8960xf32 : memref<1024x8960xf32>
    %alloc_3224 = memref.alloc() {alignment = 64 : i64} : memref<1024x8960xf32>
    memref.copy %743, %alloc_3224 : memref<1024x8960xf32> to memref<1024x8960xf32>
    linalg.matmul_transpose_b {cast = #linalg.type_fn<cast_signed>} ins(%collapse_shape_3223, %arg325 : memref<1024x1536xf32>, memref<8960x1536xf32, strided<[?, ?], offset: ?>>) outs(%alloc_3224 : memref<1024x8960xf32>)
    %expand_shape_3225 = memref.expand_shape %alloc_3224 [[0, 1], [2]] output_shape [1, 1024, 8960] : memref<1024x8960xf32> into memref<1x1024x8960xf32>
    %alloc_3226 = memref.alloc() {alignment = 64 : i64} : memref<1x1024x8960xf32>
    linalg.generic {indexing_maps = [#map2, #map2], iterator_types = ["parallel", "parallel", "parallel"]} ins(%expand_shape_3225 : memref<1x1024x8960xf32>) outs(%alloc_3226 : memref<1x1024x8960xf32>) {
    ^bb0(%in: f32, %out: f32):
      %cst_3369 = arith.constant 1.000000e+00 : f32
      %778 = arith.negf %in : f32
      %779 = math.exp %778 : f32
      %780 = arith.addf %779, %cst_3369 : f32
      %781 = arith.divf %cst_3369, %780 : f32
      linalg.yield %781 : f32
    }
    %alloc_3227 = memref.alloc() {alignment = 64 : i64} : memref<1x1024x8960xf32>
    linalg.generic {indexing_maps = [#map2, #map2, #map2], iterator_types = ["parallel", "parallel", "parallel"]} ins(%expand_shape_3225, %alloc_3226 : memref<1x1024x8960xf32>, memref<1x1024x8960xf32>) outs(%alloc_3227 : memref<1x1024x8960xf32>) {
    ^bb0(%in: f32, %in_3369: f32, %out: f32):
      %778 = arith.mulf %in, %in_3369 : f32
      linalg.yield %778 : f32
    }
    %collapse_shape_3228 = memref.collapse_shape %alloc_3222 [[0, 1], [2]] : memref<1x1024x1536xf32> into memref<1024x1536xf32>
    %744 = memref.get_global @__constant_1024x8960xf32 : memref<1024x8960xf32>
    %alloc_3229 = memref.alloc() {alignment = 64 : i64} : memref<1024x8960xf32>
    memref.copy %744, %alloc_3229 : memref<1024x8960xf32> to memref<1024x8960xf32>
    linalg.matmul_transpose_b {cast = #linalg.type_fn<cast_signed>} ins(%collapse_shape_3228, %arg326 : memref<1024x1536xf32>, memref<8960x1536xf32, strided<[?, ?], offset: ?>>) outs(%alloc_3229 : memref<1024x8960xf32>)
    %expand_shape_3230 = memref.expand_shape %alloc_3229 [[0, 1], [2]] output_shape [1, 1024, 8960] : memref<1024x8960xf32> into memref<1x1024x8960xf32>
    %alloc_3231 = memref.alloc() {alignment = 64 : i64} : memref<1x1024x8960xf32>
    linalg.generic {indexing_maps = [#map2, #map2, #map2], iterator_types = ["parallel", "parallel", "parallel"]} ins(%alloc_3227, %expand_shape_3230 : memref<1x1024x8960xf32>, memref<1x1024x8960xf32>) outs(%alloc_3231 : memref<1x1024x8960xf32>) {
    ^bb0(%in: f32, %in_3369: f32, %out: f32):
      %778 = arith.mulf %in, %in_3369 : f32
      linalg.yield %778 : f32
    }
    %collapse_shape_3232 = memref.collapse_shape %alloc_3231 [[0, 1], [2]] : memref<1x1024x8960xf32> into memref<1024x8960xf32>
    %745 = memref.get_global @__constant_1024x1536xf32 : memref<1024x1536xf32>
    %alloc_3233 = memref.alloc() {alignment = 64 : i64} : memref<1024x1536xf32>
    memref.copy %745, %alloc_3233 : memref<1024x1536xf32> to memref<1024x1536xf32>
    linalg.matmul_transpose_b {cast = #linalg.type_fn<cast_signed>} ins(%collapse_shape_3232, %arg327 : memref<1024x8960xf32>, memref<1536x8960xf32, strided<[?, ?], offset: ?>>) outs(%alloc_3233 : memref<1024x1536xf32>)
    %expand_shape_3234 = memref.expand_shape %alloc_3233 [[0, 1], [2]] output_shape [1, 1024, 1536] : memref<1024x1536xf32> into memref<1x1024x1536xf32>
    %alloc_3235 = memref.alloc() {alignment = 64 : i64} : memref<1x1024x1536xf32>
    linalg.generic {indexing_maps = [#map2, #map2, #map2], iterator_types = ["parallel", "parallel", "parallel"]} ins(%alloc_3211, %expand_shape_3234 : memref<1x1024x1536xf32>, memref<1x1024x1536xf32>) outs(%alloc_3235 : memref<1x1024x1536xf32>) {
    ^bb0(%in: f32, %in_3369: f32, %out: f32):
      %778 = arith.addf %in, %in_3369 : f32
      linalg.yield %778 : f32
    }
    %alloc_3236 = memref.alloc() {alignment = 64 : i64} : memref<1x1024x1536xf32>
    %c2_i32_3237 = arith.constant 2 : i32
    linalg.generic {indexing_maps = [#map2, #map2], iterator_types = ["parallel", "parallel", "parallel"]} ins(%alloc_3235 : memref<1x1024x1536xf32>) outs(%alloc_3236 : memref<1x1024x1536xf32>) {
    ^bb0(%in: f32, %out: f32):
      %778 = math.fpowi %in, %c2_i32_3237 : f32, i32
      linalg.yield %778 : f32
    }
    %alloc_3238 = memref.alloc() {alignment = 64 : i64} : memref<1x1024xf32>
    %cst_3239 = arith.constant 0.000000e+00 : f32
    linalg.fill ins(%cst_3239 : f32) outs(%alloc_3238 : memref<1x1024xf32>)
    linalg.reduce ins(%alloc_3236 : memref<1x1024x1536xf32>) outs(%alloc_3238 : memref<1x1024xf32>) dimensions = [2] 
      (%in: f32, %init: f32) {
        %778 = arith.addf %in, %init : f32
        linalg.yield %778 : f32
      }
    %expand_shape_3240 = memref.expand_shape %alloc_3238 [[0], [1, 2]] output_shape [1, 1024, 1] : memref<1x1024xf32> into memref<1x1024x1xf32>
    %746 = memref.get_global @__constant_1xf32_0 : memref<1xf32>
    %747 = memref.get_global @__constant_1xf32_1 : memref<1xf32>
    %748 = memref.get_global @__constant_1x1x1xf32_0 : memref<1x1x1xf32>
    %alloc_3241 = memref.alloc() {alignment = 64 : i64} : memref<1x1024x1xf32>
    linalg.generic {indexing_maps = [#map8, #map2, #map2], iterator_types = ["parallel", "parallel", "parallel"]} ins(%748, %expand_shape_3240 : memref<1x1x1xf32>, memref<1x1024x1xf32>) outs(%alloc_3241 : memref<1x1024x1xf32>) {
    ^bb0(%in: f32, %in_3369: f32, %out: f32):
      %778 = arith.mulf %in, %in_3369 : f32
      linalg.yield %778 : f32
    }
    %749 = memref.get_global @__constant_1x1024x1xf32 : memref<1x1024x1xf32>
    %alloc_3242 = memref.alloc() {alignment = 64 : i64} : memref<1x1024x1xf32>
    linalg.generic {indexing_maps = [#map2, #map2, #map2], iterator_types = ["parallel", "parallel", "parallel"]} ins(%alloc_3241, %749 : memref<1x1024x1xf32>, memref<1x1024x1xf32>) outs(%alloc_3242 : memref<1x1024x1xf32>) {
    ^bb0(%in: f32, %in_3369: f32, %out: f32):
      %778 = arith.addf %in, %in_3369 : f32
      linalg.yield %778 : f32
    }
    %alloc_3243 = memref.alloc() {alignment = 64 : i64} : memref<1x1024x1xf32>
    linalg.generic {indexing_maps = [#map2, #map2], iterator_types = ["parallel", "parallel", "parallel"]} ins(%alloc_3242 : memref<1x1024x1xf32>) outs(%alloc_3243 : memref<1x1024x1xf32>) {
    ^bb0(%in: f32, %out: f32):
      %778 = math.rsqrt %in : f32
      linalg.yield %778 : f32
    }
    %alloc_3244 = memref.alloc() {alignment = 64 : i64} : memref<1x1024x1536xf32>
    linalg.generic {indexing_maps = [#map2, #map9, #map2], iterator_types = ["parallel", "parallel", "parallel"]} ins(%alloc_3235, %alloc_3243 : memref<1x1024x1536xf32>, memref<1x1024x1xf32>) outs(%alloc_3244 : memref<1x1024x1536xf32>) {
    ^bb0(%in: f32, %in_3369: f32, %out: f32):
      %778 = arith.mulf %in, %in_3369 : f32
      linalg.yield %778 : f32
    }
    %expand_shape_3245 = memref.expand_shape %arg328 [[0, 1, 2]] output_shape [1, 1, 1536] : memref<1536xf32, strided<[?], offset: ?>> into memref<1x1x1536xf32, strided<[?, ?, ?], offset: ?>>
    %alloc_3246 = memref.alloc() {alignment = 64 : i64} : memref<1x1024x1536xf32>
    linalg.generic {indexing_maps = [#map8, #map2, #map2], iterator_types = ["parallel", "parallel", "parallel"]} ins(%expand_shape_3245, %alloc_3244 : memref<1x1x1536xf32, strided<[?, ?, ?], offset: ?>>, memref<1x1024x1536xf32>) outs(%alloc_3246 : memref<1x1024x1536xf32>) {
    ^bb0(%in: f32, %in_3369: f32, %out: f32):
      %778 = arith.mulf %in, %in_3369 : f32
      linalg.yield %778 : f32
    }
    %collapse_shape_3247 = memref.collapse_shape %alloc_3246 [[0, 1], [2]] : memref<1x1024x1536xf32> into memref<1024x1536xf32>
    %750 = memref.get_global @__constant_2xi32 : memref<2xi32>
    %alloc_3248 = memref.alloc() {alignment = 64 : i64} : memref<1536x1536xf32>
    linalg.transpose ins(%arg329 : memref<1536x1536xf32, strided<[?, ?], offset: ?>>) outs(%alloc_3248 : memref<1536x1536xf32>) permutation = [1, 0] 
    %751 = memref.get_global @__constant_1024x1536xf32 : memref<1024x1536xf32>
    %alloc_3249 = memref.alloc() {alignment = 64 : i64} : memref<1024x1536xf32>
    memref.copy %751, %alloc_3249 : memref<1024x1536xf32> to memref<1024x1536xf32>
    linalg.matmul {cast = #linalg.type_fn<cast_signed>} ins(%collapse_shape_3247, %alloc_3248 : memref<1024x1536xf32>, memref<1536x1536xf32>) outs(%alloc_3249 : memref<1024x1536xf32>)
    %expand_shape_3250 = memref.expand_shape %arg330 [[0, 1]] output_shape [1, 1536] : memref<1536xf32, strided<[?], offset: ?>> into memref<1x1536xf32, strided<[?, ?], offset: ?>>
    %alloc_3251 = memref.alloc() {alignment = 64 : i64} : memref<1024x1536xf32>
    linalg.generic {indexing_maps = [#map10, #map, #map], iterator_types = ["parallel", "parallel"]} ins(%expand_shape_3250, %alloc_3249 : memref<1x1536xf32, strided<[?, ?], offset: ?>>, memref<1024x1536xf32>) outs(%alloc_3251 : memref<1024x1536xf32>) {
    ^bb0(%in: f32, %in_3369: f32, %out: f32):
      %778 = arith.addf %in, %in_3369 : f32
      linalg.yield %778 : f32
    }
    %expand_shape_3252 = memref.expand_shape %alloc_3251 [[0, 1], [2]] output_shape [1, 1024, 1536] : memref<1024x1536xf32> into memref<1x1024x1536xf32>
    %collapse_shape_3253 = memref.collapse_shape %alloc_3246 [[0, 1], [2]] : memref<1x1024x1536xf32> into memref<1024x1536xf32>
    %752 = memref.get_global @__constant_2xi32 : memref<2xi32>
    %alloc_3254 = memref.alloc() {alignment = 64 : i64} : memref<1536x256xf32>
    linalg.transpose ins(%arg331 : memref<256x1536xf32, strided<[?, ?], offset: ?>>) outs(%alloc_3254 : memref<1536x256xf32>) permutation = [1, 0] 
    %753 = memref.get_global @__constant_1024x256xf32 : memref<1024x256xf32>
    %alloc_3255 = memref.alloc() {alignment = 64 : i64} : memref<1024x256xf32>
    memref.copy %753, %alloc_3255 : memref<1024x256xf32> to memref<1024x256xf32>
    linalg.matmul {cast = #linalg.type_fn<cast_signed>} ins(%collapse_shape_3253, %alloc_3254 : memref<1024x1536xf32>, memref<1536x256xf32>) outs(%alloc_3255 : memref<1024x256xf32>)
    %expand_shape_3256 = memref.expand_shape %arg332 [[0, 1]] output_shape [1, 256] : memref<256xf32, strided<[?], offset: ?>> into memref<1x256xf32, strided<[?, ?], offset: ?>>
    %alloc_3257 = memref.alloc() {alignment = 64 : i64} : memref<1024x256xf32>
    linalg.generic {indexing_maps = [#map10, #map, #map], iterator_types = ["parallel", "parallel"]} ins(%expand_shape_3256, %alloc_3255 : memref<1x256xf32, strided<[?, ?], offset: ?>>, memref<1024x256xf32>) outs(%alloc_3257 : memref<1024x256xf32>) {
    ^bb0(%in: f32, %in_3369: f32, %out: f32):
      %778 = arith.addf %in, %in_3369 : f32
      linalg.yield %778 : f32
    }
    %expand_shape_3258 = memref.expand_shape %alloc_3257 [[0, 1], [2]] output_shape [1, 1024, 256] : memref<1024x256xf32> into memref<1x1024x256xf32>
    %collapse_shape_3259 = memref.collapse_shape %alloc_3246 [[0, 1], [2]] : memref<1x1024x1536xf32> into memref<1024x1536xf32>
    %754 = memref.get_global @__constant_2xi32 : memref<2xi32>
    %alloc_3260 = memref.alloc() {alignment = 64 : i64} : memref<1536x256xf32>
    linalg.transpose ins(%arg333 : memref<256x1536xf32, strided<[?, ?], offset: ?>>) outs(%alloc_3260 : memref<1536x256xf32>) permutation = [1, 0] 
    %755 = memref.get_global @__constant_1024x256xf32 : memref<1024x256xf32>
    %alloc_3261 = memref.alloc() {alignment = 64 : i64} : memref<1024x256xf32>
    memref.copy %755, %alloc_3261 : memref<1024x256xf32> to memref<1024x256xf32>
    linalg.matmul {cast = #linalg.type_fn<cast_signed>} ins(%collapse_shape_3259, %alloc_3260 : memref<1024x1536xf32>, memref<1536x256xf32>) outs(%alloc_3261 : memref<1024x256xf32>)
    %expand_shape_3262 = memref.expand_shape %arg334 [[0, 1]] output_shape [1, 256] : memref<256xf32, strided<[?], offset: ?>> into memref<1x256xf32, strided<[?, ?], offset: ?>>
    %alloc_3263 = memref.alloc() {alignment = 64 : i64} : memref<1024x256xf32>
    linalg.generic {indexing_maps = [#map10, #map, #map], iterator_types = ["parallel", "parallel"]} ins(%expand_shape_3262, %alloc_3261 : memref<1x256xf32, strided<[?, ?], offset: ?>>, memref<1024x256xf32>) outs(%alloc_3263 : memref<1024x256xf32>) {
    ^bb0(%in: f32, %in_3369: f32, %out: f32):
      %778 = arith.addf %in, %in_3369 : f32
      linalg.yield %778 : f32
    }
    %expand_shape_3264 = memref.expand_shape %alloc_3263 [[0, 1], [2]] output_shape [1, 1024, 256] : memref<1024x256xf32> into memref<1x1024x256xf32>
    %expand_shape_3265 = memref.expand_shape %alloc_3251 [[0, 1], [2, 3]] output_shape [1, 1024, 12, 128] : memref<1024x1536xf32> into memref<1x1024x12x128xf32>
    %756 = memref.get_global @__constant_4xi32 : memref<4xi32>
    %alloc_3266 = memref.alloc() {alignment = 64 : i64} : memref<1x12x1024x128xf32>
    linalg.transpose ins(%expand_shape_3265 : memref<1x1024x12x128xf32>) outs(%alloc_3266 : memref<1x12x1024x128xf32>) permutation = [0, 2, 1, 3] 
    %expand_shape_3267 = memref.expand_shape %alloc_3257 [[0, 1], [2, 3]] output_shape [1, 1024, 2, 128] : memref<1024x256xf32> into memref<1x1024x2x128xf32>
    %757 = memref.get_global @__constant_4xi32 : memref<4xi32>
    %alloc_3268 = memref.alloc() {alignment = 64 : i64} : memref<1x2x1024x128xf32>
    linalg.transpose ins(%expand_shape_3267 : memref<1x1024x2x128xf32>) outs(%alloc_3268 : memref<1x2x1024x128xf32>) permutation = [0, 2, 1, 3] 
    %expand_shape_3269 = memref.expand_shape %alloc_3263 [[0, 1], [2, 3]] output_shape [1, 1024, 2, 128] : memref<1024x256xf32> into memref<1x1024x2x128xf32>
    %758 = memref.get_global @__constant_4xi32 : memref<4xi32>
    %alloc_3270 = memref.alloc() {alignment = 64 : i64} : memref<1x2x1024x128xf32>
    linalg.transpose ins(%expand_shape_3269 : memref<1x1024x2x128xf32>) outs(%alloc_3270 : memref<1x2x1024x128xf32>) permutation = [0, 2, 1, 3] 
    %expand_shape_3271 = memref.expand_shape %alloc_23 [[0, 1], [2], [3]] output_shape [1, 1, 1024, 128] : memref<1x1024x128xf32> into memref<1x1x1024x128xf32>
    %expand_shape_3272 = memref.expand_shape %alloc_24 [[0, 1], [2], [3]] output_shape [1, 1, 1024, 128] : memref<1x1024x128xf32> into memref<1x1x1024x128xf32>
    %alloc_3273 = memref.alloc() {alignment = 64 : i64} : memref<1x12x1024x128xf32>
    linalg.generic {indexing_maps = [#map5, #map11, #map5], iterator_types = ["parallel", "parallel", "parallel", "parallel"]} ins(%alloc_3266, %expand_shape_3271 : memref<1x12x1024x128xf32>, memref<1x1x1024x128xf32>) outs(%alloc_3273 : memref<1x12x1024x128xf32>) {
    ^bb0(%in: f32, %in_3369: f32, %out: f32):
      %778 = arith.mulf %in, %in_3369 : f32
      linalg.yield %778 : f32
    }
    %subview_3274 = memref.subview %alloc_3266[0, 0, 0, 0] [1, 12, 1024, 64] [1, 1, 1, 1] : memref<1x12x1024x128xf32> to memref<1x12x1024x64xf32, strided<[1572864, 131072, 128, 1]>>
    %subview_3275 = memref.subview %alloc_3266[0, 0, 0, 64] [1, 12, 1024, 64] [1, 1, 1, 1] : memref<1x12x1024x128xf32> to memref<1x12x1024x64xf32, strided<[1572864, 131072, 128, 1], offset: 64>>
    %alloc_3276 = memref.alloc() {alignment = 64 : i64} : memref<1x12x1024x64xf32>
    linalg.negf ins(%subview_3275 : memref<1x12x1024x64xf32, strided<[1572864, 131072, 128, 1], offset: 64>>) outs(%alloc_3276 : memref<1x12x1024x64xf32>)
    %alloc_3277 = memref.alloc() {alignment = 64 : i64} : memref<1x12x1024x128xf32>
    %subview_3278 = memref.subview %alloc_3277[0, 0, 0, 0] [1, 12, 1024, 64] [1, 1, 1, 1] : memref<1x12x1024x128xf32> to memref<1x12x1024x64xf32, strided<[1572864, 131072, 128, 1]>>
    memref.copy %alloc_3276, %subview_3278 : memref<1x12x1024x64xf32> to memref<1x12x1024x64xf32, strided<[1572864, 131072, 128, 1]>>
    %subview_3279 = memref.subview %alloc_3277[0, 0, 0, 64] [1, 12, 1024, 64] [1, 1, 1, 1] : memref<1x12x1024x128xf32> to memref<1x12x1024x64xf32, strided<[1572864, 131072, 128, 1], offset: 64>>
    memref.copy %subview_3274, %subview_3279 : memref<1x12x1024x64xf32, strided<[1572864, 131072, 128, 1]>> to memref<1x12x1024x64xf32, strided<[1572864, 131072, 128, 1], offset: 64>>
    %alloc_3280 = memref.alloc() {alignment = 64 : i64} : memref<1x12x1024x128xf32>
    linalg.generic {indexing_maps = [#map5, #map11, #map5], iterator_types = ["parallel", "parallel", "parallel", "parallel"]} ins(%alloc_3277, %expand_shape_3272 : memref<1x12x1024x128xf32>, memref<1x1x1024x128xf32>) outs(%alloc_3280 : memref<1x12x1024x128xf32>) {
    ^bb0(%in: f32, %in_3369: f32, %out: f32):
      %778 = arith.mulf %in, %in_3369 : f32
      linalg.yield %778 : f32
    }
    %alloc_3281 = memref.alloc() {alignment = 64 : i64} : memref<1x12x1024x128xf32>
    linalg.generic {indexing_maps = [#map5, #map5, #map5], iterator_types = ["parallel", "parallel", "parallel", "parallel"]} ins(%alloc_3273, %alloc_3280 : memref<1x12x1024x128xf32>, memref<1x12x1024x128xf32>) outs(%alloc_3281 : memref<1x12x1024x128xf32>) {
    ^bb0(%in: f32, %in_3369: f32, %out: f32):
      %778 = arith.addf %in, %in_3369 : f32
      linalg.yield %778 : f32
    }
    %alloc_3282 = memref.alloc() {alignment = 64 : i64} : memref<1x2x1024x128xf32>
    linalg.generic {indexing_maps = [#map5, #map11, #map5], iterator_types = ["parallel", "parallel", "parallel", "parallel"]} ins(%alloc_3268, %expand_shape_3271 : memref<1x2x1024x128xf32>, memref<1x1x1024x128xf32>) outs(%alloc_3282 : memref<1x2x1024x128xf32>) {
    ^bb0(%in: f32, %in_3369: f32, %out: f32):
      %778 = arith.mulf %in, %in_3369 : f32
      linalg.yield %778 : f32
    }
    %subview_3283 = memref.subview %alloc_3268[0, 0, 0, 0] [1, 2, 1024, 64] [1, 1, 1, 1] : memref<1x2x1024x128xf32> to memref<1x2x1024x64xf32, strided<[262144, 131072, 128, 1]>>
    %subview_3284 = memref.subview %alloc_3268[0, 0, 0, 64] [1, 2, 1024, 64] [1, 1, 1, 1] : memref<1x2x1024x128xf32> to memref<1x2x1024x64xf32, strided<[262144, 131072, 128, 1], offset: 64>>
    %alloc_3285 = memref.alloc() {alignment = 64 : i64} : memref<1x2x1024x64xf32>
    linalg.negf ins(%subview_3284 : memref<1x2x1024x64xf32, strided<[262144, 131072, 128, 1], offset: 64>>) outs(%alloc_3285 : memref<1x2x1024x64xf32>)
    %alloc_3286 = memref.alloc() {alignment = 64 : i64} : memref<1x2x1024x128xf32>
    %subview_3287 = memref.subview %alloc_3286[0, 0, 0, 0] [1, 2, 1024, 64] [1, 1, 1, 1] : memref<1x2x1024x128xf32> to memref<1x2x1024x64xf32, strided<[262144, 131072, 128, 1]>>
    memref.copy %alloc_3285, %subview_3287 : memref<1x2x1024x64xf32> to memref<1x2x1024x64xf32, strided<[262144, 131072, 128, 1]>>
    %subview_3288 = memref.subview %alloc_3286[0, 0, 0, 64] [1, 2, 1024, 64] [1, 1, 1, 1] : memref<1x2x1024x128xf32> to memref<1x2x1024x64xf32, strided<[262144, 131072, 128, 1], offset: 64>>
    memref.copy %subview_3283, %subview_3288 : memref<1x2x1024x64xf32, strided<[262144, 131072, 128, 1]>> to memref<1x2x1024x64xf32, strided<[262144, 131072, 128, 1], offset: 64>>
    %alloc_3289 = memref.alloc() {alignment = 64 : i64} : memref<1x2x1024x128xf32>
    linalg.generic {indexing_maps = [#map5, #map11, #map5], iterator_types = ["parallel", "parallel", "parallel", "parallel"]} ins(%alloc_3286, %expand_shape_3272 : memref<1x2x1024x128xf32>, memref<1x1x1024x128xf32>) outs(%alloc_3289 : memref<1x2x1024x128xf32>) {
    ^bb0(%in: f32, %in_3369: f32, %out: f32):
      %778 = arith.mulf %in, %in_3369 : f32
      linalg.yield %778 : f32
    }
    %alloc_3290 = memref.alloc() {alignment = 64 : i64} : memref<1x2x1024x128xf32>
    linalg.generic {indexing_maps = [#map5, #map5, #map5], iterator_types = ["parallel", "parallel", "parallel", "parallel"]} ins(%alloc_3282, %alloc_3289 : memref<1x2x1024x128xf32>, memref<1x2x1024x128xf32>) outs(%alloc_3290 : memref<1x2x1024x128xf32>) {
    ^bb0(%in: f32, %in_3369: f32, %out: f32):
      %778 = arith.addf %in, %in_3369 : f32
      linalg.yield %778 : f32
    }
    %expand_shape_3291 = memref.expand_shape %alloc_3290 [[0], [1, 2], [3], [4]] output_shape [1, 2, 1, 1024, 128] : memref<1x2x1024x128xf32> into memref<1x2x1x1024x128xf32>
    %759 = memref.get_global @__constant_1x2x6x1024x128xf32 : memref<1x2x6x1024x128xf32>
    %alloc_3292 = memref.alloc() {alignment = 64 : i64} : memref<1x2x6x1024x128xf32>
    linalg.generic {indexing_maps = [#map12, #map13, #map13], iterator_types = ["parallel", "parallel", "parallel", "parallel", "parallel"]} ins(%expand_shape_3291, %759 : memref<1x2x1x1024x128xf32>, memref<1x2x6x1024x128xf32>) outs(%alloc_3292 : memref<1x2x6x1024x128xf32>) {
    ^bb0(%in: f32, %in_3369: f32, %out: f32):
      %778 = arith.addf %in, %in_3369 : f32
      linalg.yield %778 : f32
    }
    %collapse_shape_3293 = memref.collapse_shape %alloc_3292 [[0], [1, 2], [3], [4]] : memref<1x2x6x1024x128xf32> into memref<1x12x1024x128xf32>
    %expand_shape_3294 = memref.expand_shape %alloc_3270 [[0], [1, 2], [3], [4]] output_shape [1, 2, 1, 1024, 128] : memref<1x2x1024x128xf32> into memref<1x2x1x1024x128xf32>
    %760 = memref.get_global @__constant_1x2x6x1024x128xf32 : memref<1x2x6x1024x128xf32>
    %alloc_3295 = memref.alloc() {alignment = 64 : i64} : memref<1x2x6x1024x128xf32>
    linalg.generic {indexing_maps = [#map12, #map13, #map13], iterator_types = ["parallel", "parallel", "parallel", "parallel", "parallel"]} ins(%expand_shape_3294, %760 : memref<1x2x1x1024x128xf32>, memref<1x2x6x1024x128xf32>) outs(%alloc_3295 : memref<1x2x6x1024x128xf32>) {
    ^bb0(%in: f32, %in_3369: f32, %out: f32):
      %778 = arith.addf %in, %in_3369 : f32
      linalg.yield %778 : f32
    }
    %collapse_shape_3296 = memref.collapse_shape %alloc_3295 [[0], [1, 2], [3], [4]] : memref<1x2x6x1024x128xf32> into memref<1x12x1024x128xf32>
    %cst_3297 = arith.constant 0.000000e+00 : f32
    %761 = memref.get_global @__constant_1024x1024xf32_0 : memref<1024x1024xf32>
    %collapse_shape_3298 = memref.collapse_shape %expand_shape_5 [[0, 1, 2], [3]] : memref<1x1x1024x1024xf32> into memref<1024x1024xf32>
    %alloc_3299 = memref.alloc() {alignment = 64 : i64} : memref<1024x1024xf32>
    linalg.generic {indexing_maps = [#map, #map, #map], iterator_types = ["parallel", "parallel"]} ins(%761, %collapse_shape_3298 : memref<1024x1024xf32>, memref<1024x1024xf32>) outs(%alloc_3299 : memref<1024x1024xf32>) {
    ^bb0(%in: f32, %in_3369: f32, %out: f32):
      %778 = arith.addf %in, %in_3369 : f32
      linalg.yield %778 : f32
    }
    %762 = memref.get_global @__constant_4xi32_0 : memref<4xi32>
    %alloc_3300 = memref.alloc() {alignment = 64 : i64} : memref<1x12x128x1024xf32>
    linalg.transpose ins(%collapse_shape_3293 : memref<1x12x1024x128xf32>) outs(%alloc_3300 : memref<1x12x128x1024xf32>) permutation = [0, 1, 3, 2] 
    %collapse_shape_3301 = memref.collapse_shape %alloc_3281 [[0, 1], [2], [3]] : memref<1x12x1024x128xf32> into memref<12x1024x128xf32>
    %collapse_shape_3302 = memref.collapse_shape %alloc_3300 [[0, 1], [2], [3]] : memref<1x12x128x1024xf32> into memref<12x128x1024xf32>
    %cst_3303 = arith.constant 0.000000e+00 : f32
    %alloc_3304 = memref.alloc() {alignment = 64 : i64} : memref<12x1024x1024xf32>
    linalg.fill ins(%cst_3303 : f32) outs(%alloc_3304 : memref<12x1024x1024xf32>)
    linalg.batch_matmul ins(%collapse_shape_3301, %collapse_shape_3302 : memref<12x1024x128xf32>, memref<12x128x1024xf32>) outs(%alloc_3304 : memref<12x1024x1024xf32>)
    %cst_3305 = arith.constant 0.0883883461 : f32
    %763 = memref.get_global @__constant_12x1024x1024xf32 : memref<12x1024x1024xf32>
    %alloc_3306 = memref.alloc() {alignment = 64 : i64} : memref<12x1024x1024xf32>
    linalg.generic {indexing_maps = [#map2, #map2, #map2], iterator_types = ["parallel", "parallel", "parallel"]} ins(%alloc_3304, %763 : memref<12x1024x1024xf32>, memref<12x1024x1024xf32>) outs(%alloc_3306 : memref<12x1024x1024xf32>) {
    ^bb0(%in: f32, %in_3369: f32, %out: f32):
      %778 = arith.mulf %in, %in_3369 : f32
      linalg.yield %778 : f32
    }
    %expand_shape_3307 = memref.expand_shape %alloc_3299 [[0, 1], [2]] output_shape [1, 1024, 1024] : memref<1024x1024xf32> into memref<1x1024x1024xf32>
    %alloc_3308 = memref.alloc() {alignment = 64 : i64} : memref<12x1024x1024xf32>
    linalg.generic {indexing_maps = [#map2, #map14, #map2], iterator_types = ["parallel", "parallel", "parallel"]} ins(%alloc_3306, %expand_shape_3307 : memref<12x1024x1024xf32>, memref<1x1024x1024xf32>) outs(%alloc_3308 : memref<12x1024x1024xf32>) {
    ^bb0(%in: f32, %in_3369: f32, %out: f32):
      %778 = arith.addf %in, %in_3369 : f32
      linalg.yield %778 : f32
    }
    %alloc_3309 = memref.alloc() {alignment = 64 : i64} : memref<12x1024xf32>
    %cst_3310 = arith.constant -3.40282347E+38 : f32
    linalg.fill ins(%cst_3310 : f32) outs(%alloc_3309 : memref<12x1024xf32>)
    linalg.reduce ins(%alloc_3308 : memref<12x1024x1024xf32>) outs(%alloc_3309 : memref<12x1024xf32>) dimensions = [2] 
      (%in: f32, %init: f32) {
        %778 = arith.maximumf %in, %init : f32
        linalg.yield %778 : f32
      }
    %expand_shape_3311 = memref.expand_shape %alloc_3309 [[0], [1, 2]] output_shape [12, 1024, 1] : memref<12x1024xf32> into memref<12x1024x1xf32>
    %alloc_3312 = memref.alloc() {alignment = 64 : i64} : memref<12x1024x1024xf32>
    linalg.generic {indexing_maps = [#map2, #map9, #map2], iterator_types = ["parallel", "parallel", "parallel"]} ins(%alloc_3308, %expand_shape_3311 : memref<12x1024x1024xf32>, memref<12x1024x1xf32>) outs(%alloc_3312 : memref<12x1024x1024xf32>) {
    ^bb0(%in: f32, %in_3369: f32, %out: f32):
      %778 = arith.subf %in, %in_3369 : f32
      linalg.yield %778 : f32
    }
    linalg.generic {indexing_maps = [#map2, #map2], iterator_types = ["parallel", "parallel", "parallel"]} ins(%alloc_3312 : memref<12x1024x1024xf32>) outs(%alloc_3312 : memref<12x1024x1024xf32>) {
    ^bb0(%in: f32, %out: f32):
      %778 = math.exp %in : f32
      linalg.yield %778 : f32
    }
    %alloc_3313 = memref.alloc() {alignment = 64 : i64} : memref<12x1024xf32>
    %cst_3314 = arith.constant 0.000000e+00 : f32
    linalg.fill ins(%cst_3314 : f32) outs(%alloc_3313 : memref<12x1024xf32>)
    linalg.reduce ins(%alloc_3312 : memref<12x1024x1024xf32>) outs(%alloc_3313 : memref<12x1024xf32>) dimensions = [2] 
      (%in: f32, %init: f32) {
        %778 = arith.addf %in, %init : f32
        linalg.yield %778 : f32
      }
    %expand_shape_3315 = memref.expand_shape %alloc_3313 [[0], [1, 2]] output_shape [12, 1024, 1] : memref<12x1024xf32> into memref<12x1024x1xf32>
    %alloc_3316 = memref.alloc() {alignment = 64 : i64} : memref<12x1024x1xf32>
    linalg.generic {indexing_maps = [#map2, #map2], iterator_types = ["parallel", "parallel", "parallel"]} ins(%expand_shape_3315 : memref<12x1024x1xf32>) outs(%alloc_3316 : memref<12x1024x1xf32>) {
    ^bb0(%in: f32, %out: f32):
      %778 = math.log %in : f32
      linalg.yield %778 : f32
    }
    %alloc_3317 = memref.alloc() {alignment = 64 : i64} : memref<12x1024x1xf32>
    linalg.generic {indexing_maps = [#map2, #map2, #map2], iterator_types = ["parallel", "parallel", "parallel"]} ins(%expand_shape_3311, %alloc_3316 : memref<12x1024x1xf32>, memref<12x1024x1xf32>) outs(%alloc_3317 : memref<12x1024x1xf32>) {
    ^bb0(%in: f32, %in_3369: f32, %out: f32):
      %778 = arith.addf %in, %in_3369 : f32
      linalg.yield %778 : f32
    }
    %alloc_3318 = memref.alloc() {alignment = 64 : i64} : memref<12x1024x1024xf32>
    linalg.generic {indexing_maps = [#map2, #map9, #map2], iterator_types = ["parallel", "parallel", "parallel"]} ins(%alloc_3308, %alloc_3317 : memref<12x1024x1024xf32>, memref<12x1024x1xf32>) outs(%alloc_3318 : memref<12x1024x1024xf32>) {
    ^bb0(%in: f32, %in_3369: f32, %out: f32):
      %778 = arith.subf %in, %in_3369 : f32
      linalg.yield %778 : f32
    }
    linalg.generic {indexing_maps = [#map2, #map2], iterator_types = ["parallel", "parallel", "parallel"]} ins(%alloc_3318 : memref<12x1024x1024xf32>) outs(%alloc_3318 : memref<12x1024x1024xf32>) {
    ^bb0(%in: f32, %out: f32):
      %778 = math.exp %in : f32
      linalg.yield %778 : f32
    }
    %collapse_shape_3319 = memref.collapse_shape %alloc_3317 [[0], [1, 2]] : memref<12x1024x1xf32> into memref<12x1024xf32>
    %expand_shape_3320 = memref.expand_shape %collapse_shape_3319 [[0, 1], [2]] output_shape [1, 12, 1024] : memref<12x1024xf32> into memref<1x12x1024xf32>
    %collapse_shape_3321 = memref.collapse_shape %alloc_3295 [[0, 1, 2], [3], [4]] : memref<1x2x6x1024x128xf32> into memref<12x1024x128xf32>
    %cst_3322 = arith.constant 0.000000e+00 : f32
    %alloc_3323 = memref.alloc() {alignment = 64 : i64} : memref<12x1024x128xf32>
    linalg.fill ins(%cst_3322 : f32) outs(%alloc_3323 : memref<12x1024x128xf32>)
    linalg.batch_matmul ins(%alloc_3318, %collapse_shape_3321 : memref<12x1024x1024xf32>, memref<12x1024x128xf32>) outs(%alloc_3323 : memref<12x1024x128xf32>)
    %expand_shape_3324 = memref.expand_shape %alloc_3323 [[0, 1], [2], [3]] output_shape [1, 12, 1024, 128] : memref<12x1024x128xf32> into memref<1x12x1024x128xf32>
    %764 = memref.get_global @__constant_4xi32 : memref<4xi32>
    %alloc_3325 = memref.alloc() {alignment = 64 : i64} : memref<1x1024x12x128xf32>
    linalg.transpose ins(%expand_shape_3324 : memref<1x12x1024x128xf32>) outs(%alloc_3325 : memref<1x1024x12x128xf32>) permutation = [0, 2, 1, 3] 
    %collapse_shape_3326 = memref.collapse_shape %alloc_3325 [[0], [1], [2, 3]] : memref<1x1024x12x128xf32> into memref<1x1024x1536xf32>
    %collapse_shape_3327 = memref.collapse_shape %alloc_3325 [[0, 1], [2, 3]] : memref<1x1024x12x128xf32> into memref<1024x1536xf32>
    %765 = memref.get_global @__constant_1024x1536xf32 : memref<1024x1536xf32>
    %alloc_3328 = memref.alloc() {alignment = 64 : i64} : memref<1024x1536xf32>
    memref.copy %765, %alloc_3328 : memref<1024x1536xf32> to memref<1024x1536xf32>
    linalg.matmul_transpose_b {cast = #linalg.type_fn<cast_signed>} ins(%collapse_shape_3327, %arg335 : memref<1024x1536xf32>, memref<1536x1536xf32, strided<[?, ?], offset: ?>>) outs(%alloc_3328 : memref<1024x1536xf32>)
    %expand_shape_3329 = memref.expand_shape %alloc_3328 [[0, 1], [2]] output_shape [1, 1024, 1536] : memref<1024x1536xf32> into memref<1x1024x1536xf32>
    %alloc_3330 = memref.alloc() {alignment = 64 : i64} : memref<1x1024x1536xf32>
    linalg.generic {indexing_maps = [#map2, #map2, #map2], iterator_types = ["parallel", "parallel", "parallel"]} ins(%alloc_3235, %expand_shape_3329 : memref<1x1024x1536xf32>, memref<1x1024x1536xf32>) outs(%alloc_3330 : memref<1x1024x1536xf32>) {
    ^bb0(%in: f32, %in_3369: f32, %out: f32):
      %778 = arith.addf %in, %in_3369 : f32
      linalg.yield %778 : f32
    }
    %alloc_3331 = memref.alloc() {alignment = 64 : i64} : memref<1x1024x1536xf32>
    %c2_i32_3332 = arith.constant 2 : i32
    linalg.generic {indexing_maps = [#map2, #map2], iterator_types = ["parallel", "parallel", "parallel"]} ins(%alloc_3330 : memref<1x1024x1536xf32>) outs(%alloc_3331 : memref<1x1024x1536xf32>) {
    ^bb0(%in: f32, %out: f32):
      %778 = math.fpowi %in, %c2_i32_3332 : f32, i32
      linalg.yield %778 : f32
    }
    %alloc_3333 = memref.alloc() {alignment = 64 : i64} : memref<1x1024xf32>
    %cst_3334 = arith.constant 0.000000e+00 : f32
    linalg.fill ins(%cst_3334 : f32) outs(%alloc_3333 : memref<1x1024xf32>)
    linalg.reduce ins(%alloc_3331 : memref<1x1024x1536xf32>) outs(%alloc_3333 : memref<1x1024xf32>) dimensions = [2] 
      (%in: f32, %init: f32) {
        %778 = arith.addf %in, %init : f32
        linalg.yield %778 : f32
      }
    %expand_shape_3335 = memref.expand_shape %alloc_3333 [[0], [1, 2]] output_shape [1, 1024, 1] : memref<1x1024xf32> into memref<1x1024x1xf32>
    %766 = memref.get_global @__constant_1xf32_0 : memref<1xf32>
    %767 = memref.get_global @__constant_1xf32_1 : memref<1xf32>
    %768 = memref.get_global @__constant_1x1x1xf32_0 : memref<1x1x1xf32>
    %alloc_3336 = memref.alloc() {alignment = 64 : i64} : memref<1x1024x1xf32>
    linalg.generic {indexing_maps = [#map8, #map2, #map2], iterator_types = ["parallel", "parallel", "parallel"]} ins(%768, %expand_shape_3335 : memref<1x1x1xf32>, memref<1x1024x1xf32>) outs(%alloc_3336 : memref<1x1024x1xf32>) {
    ^bb0(%in: f32, %in_3369: f32, %out: f32):
      %778 = arith.mulf %in, %in_3369 : f32
      linalg.yield %778 : f32
    }
    %769 = memref.get_global @__constant_1x1024x1xf32 : memref<1x1024x1xf32>
    %alloc_3337 = memref.alloc() {alignment = 64 : i64} : memref<1x1024x1xf32>
    linalg.generic {indexing_maps = [#map2, #map2, #map2], iterator_types = ["parallel", "parallel", "parallel"]} ins(%alloc_3336, %769 : memref<1x1024x1xf32>, memref<1x1024x1xf32>) outs(%alloc_3337 : memref<1x1024x1xf32>) {
    ^bb0(%in: f32, %in_3369: f32, %out: f32):
      %778 = arith.addf %in, %in_3369 : f32
      linalg.yield %778 : f32
    }
    %alloc_3338 = memref.alloc() {alignment = 64 : i64} : memref<1x1024x1xf32>
    linalg.generic {indexing_maps = [#map2, #map2], iterator_types = ["parallel", "parallel", "parallel"]} ins(%alloc_3337 : memref<1x1024x1xf32>) outs(%alloc_3338 : memref<1x1024x1xf32>) {
    ^bb0(%in: f32, %out: f32):
      %778 = math.rsqrt %in : f32
      linalg.yield %778 : f32
    }
    %alloc_3339 = memref.alloc() {alignment = 64 : i64} : memref<1x1024x1536xf32>
    linalg.generic {indexing_maps = [#map2, #map9, #map2], iterator_types = ["parallel", "parallel", "parallel"]} ins(%alloc_3330, %alloc_3338 : memref<1x1024x1536xf32>, memref<1x1024x1xf32>) outs(%alloc_3339 : memref<1x1024x1536xf32>) {
    ^bb0(%in: f32, %in_3369: f32, %out: f32):
      %778 = arith.mulf %in, %in_3369 : f32
      linalg.yield %778 : f32
    }
    %expand_shape_3340 = memref.expand_shape %arg336 [[0, 1, 2]] output_shape [1, 1, 1536] : memref<1536xf32, strided<[?], offset: ?>> into memref<1x1x1536xf32, strided<[?, ?, ?], offset: ?>>
    %alloc_3341 = memref.alloc() {alignment = 64 : i64} : memref<1x1024x1536xf32>
    linalg.generic {indexing_maps = [#map8, #map2, #map2], iterator_types = ["parallel", "parallel", "parallel"]} ins(%expand_shape_3340, %alloc_3339 : memref<1x1x1536xf32, strided<[?, ?, ?], offset: ?>>, memref<1x1024x1536xf32>) outs(%alloc_3341 : memref<1x1024x1536xf32>) {
    ^bb0(%in: f32, %in_3369: f32, %out: f32):
      %778 = arith.mulf %in, %in_3369 : f32
      linalg.yield %778 : f32
    }
    %collapse_shape_3342 = memref.collapse_shape %alloc_3341 [[0, 1], [2]] : memref<1x1024x1536xf32> into memref<1024x1536xf32>
    %770 = memref.get_global @__constant_1024x8960xf32 : memref<1024x8960xf32>
    %alloc_3343 = memref.alloc() {alignment = 64 : i64} : memref<1024x8960xf32>
    memref.copy %770, %alloc_3343 : memref<1024x8960xf32> to memref<1024x8960xf32>
    linalg.matmul_transpose_b {cast = #linalg.type_fn<cast_signed>} ins(%collapse_shape_3342, %arg337 : memref<1024x1536xf32>, memref<8960x1536xf32, strided<[?, ?], offset: ?>>) outs(%alloc_3343 : memref<1024x8960xf32>)
    %expand_shape_3344 = memref.expand_shape %alloc_3343 [[0, 1], [2]] output_shape [1, 1024, 8960] : memref<1024x8960xf32> into memref<1x1024x8960xf32>
    %alloc_3345 = memref.alloc() {alignment = 64 : i64} : memref<1x1024x8960xf32>
    linalg.generic {indexing_maps = [#map2, #map2], iterator_types = ["parallel", "parallel", "parallel"]} ins(%expand_shape_3344 : memref<1x1024x8960xf32>) outs(%alloc_3345 : memref<1x1024x8960xf32>) {
    ^bb0(%in: f32, %out: f32):
      %cst_3369 = arith.constant 1.000000e+00 : f32
      %778 = arith.negf %in : f32
      %779 = math.exp %778 : f32
      %780 = arith.addf %779, %cst_3369 : f32
      %781 = arith.divf %cst_3369, %780 : f32
      linalg.yield %781 : f32
    }
    %alloc_3346 = memref.alloc() {alignment = 64 : i64} : memref<1x1024x8960xf32>
    linalg.generic {indexing_maps = [#map2, #map2, #map2], iterator_types = ["parallel", "parallel", "parallel"]} ins(%expand_shape_3344, %alloc_3345 : memref<1x1024x8960xf32>, memref<1x1024x8960xf32>) outs(%alloc_3346 : memref<1x1024x8960xf32>) {
    ^bb0(%in: f32, %in_3369: f32, %out: f32):
      %778 = arith.mulf %in, %in_3369 : f32
      linalg.yield %778 : f32
    }
    %collapse_shape_3347 = memref.collapse_shape %alloc_3341 [[0, 1], [2]] : memref<1x1024x1536xf32> into memref<1024x1536xf32>
    %771 = memref.get_global @__constant_1024x8960xf32 : memref<1024x8960xf32>
    %alloc_3348 = memref.alloc() {alignment = 64 : i64} : memref<1024x8960xf32>
    memref.copy %771, %alloc_3348 : memref<1024x8960xf32> to memref<1024x8960xf32>
    linalg.matmul_transpose_b {cast = #linalg.type_fn<cast_signed>} ins(%collapse_shape_3347, %arg338 : memref<1024x1536xf32>, memref<8960x1536xf32, strided<[?, ?], offset: ?>>) outs(%alloc_3348 : memref<1024x8960xf32>)
    %expand_shape_3349 = memref.expand_shape %alloc_3348 [[0, 1], [2]] output_shape [1, 1024, 8960] : memref<1024x8960xf32> into memref<1x1024x8960xf32>
    %alloc_3350 = memref.alloc() {alignment = 64 : i64} : memref<1x1024x8960xf32>
    linalg.generic {indexing_maps = [#map2, #map2, #map2], iterator_types = ["parallel", "parallel", "parallel"]} ins(%alloc_3346, %expand_shape_3349 : memref<1x1024x8960xf32>, memref<1x1024x8960xf32>) outs(%alloc_3350 : memref<1x1024x8960xf32>) {
    ^bb0(%in: f32, %in_3369: f32, %out: f32):
      %778 = arith.mulf %in, %in_3369 : f32
      linalg.yield %778 : f32
    }
    %collapse_shape_3351 = memref.collapse_shape %alloc_3350 [[0, 1], [2]] : memref<1x1024x8960xf32> into memref<1024x8960xf32>
    %772 = memref.get_global @__constant_1024x1536xf32 : memref<1024x1536xf32>
    %alloc_3352 = memref.alloc() {alignment = 64 : i64} : memref<1024x1536xf32>
    memref.copy %772, %alloc_3352 : memref<1024x1536xf32> to memref<1024x1536xf32>
    linalg.matmul_transpose_b {cast = #linalg.type_fn<cast_signed>} ins(%collapse_shape_3351, %arg339 : memref<1024x8960xf32>, memref<1536x8960xf32, strided<[?, ?], offset: ?>>) outs(%alloc_3352 : memref<1024x1536xf32>)
    %expand_shape_3353 = memref.expand_shape %alloc_3352 [[0, 1], [2]] output_shape [1, 1024, 1536] : memref<1024x1536xf32> into memref<1x1024x1536xf32>
    %alloc_3354 = memref.alloc() {alignment = 64 : i64} : memref<1x1024x1536xf32>
    linalg.generic {indexing_maps = [#map2, #map2, #map2], iterator_types = ["parallel", "parallel", "parallel"]} ins(%alloc_3330, %expand_shape_3353 : memref<1x1024x1536xf32>, memref<1x1024x1536xf32>) outs(%alloc_3354 : memref<1x1024x1536xf32>) {
    ^bb0(%in: f32, %in_3369: f32, %out: f32):
      %778 = arith.addf %in, %in_3369 : f32
      linalg.yield %778 : f32
    }
    %alloc_3355 = memref.alloc() {alignment = 64 : i64} : memref<1x1024x1536xf32>
    %c2_i32_3356 = arith.constant 2 : i32
    linalg.generic {indexing_maps = [#map2, #map2], iterator_types = ["parallel", "parallel", "parallel"]} ins(%alloc_3354 : memref<1x1024x1536xf32>) outs(%alloc_3355 : memref<1x1024x1536xf32>) {
    ^bb0(%in: f32, %out: f32):
      %778 = math.fpowi %in, %c2_i32_3356 : f32, i32
      linalg.yield %778 : f32
    }
    %alloc_3357 = memref.alloc() {alignment = 64 : i64} : memref<1x1024xf32>
    %cst_3358 = arith.constant 0.000000e+00 : f32
    linalg.fill ins(%cst_3358 : f32) outs(%alloc_3357 : memref<1x1024xf32>)
    linalg.reduce ins(%alloc_3355 : memref<1x1024x1536xf32>) outs(%alloc_3357 : memref<1x1024xf32>) dimensions = [2] 
      (%in: f32, %init: f32) {
        %778 = arith.addf %in, %init : f32
        linalg.yield %778 : f32
      }
    %expand_shape_3359 = memref.expand_shape %alloc_3357 [[0], [1, 2]] output_shape [1, 1024, 1] : memref<1x1024xf32> into memref<1x1024x1xf32>
    %773 = memref.get_global @__constant_1xf32_0 : memref<1xf32>
    %774 = memref.get_global @__constant_1xf32_1 : memref<1xf32>
    %775 = memref.get_global @__constant_1x1x1xf32_0 : memref<1x1x1xf32>
    %alloc_3360 = memref.alloc() {alignment = 64 : i64} : memref<1x1024x1xf32>
    linalg.generic {indexing_maps = [#map8, #map2, #map2], iterator_types = ["parallel", "parallel", "parallel"]} ins(%775, %expand_shape_3359 : memref<1x1x1xf32>, memref<1x1024x1xf32>) outs(%alloc_3360 : memref<1x1024x1xf32>) {
    ^bb0(%in: f32, %in_3369: f32, %out: f32):
      %778 = arith.mulf %in, %in_3369 : f32
      linalg.yield %778 : f32
    }
    %776 = memref.get_global @__constant_1x1024x1xf32 : memref<1x1024x1xf32>
    %alloc_3361 = memref.alloc() {alignment = 64 : i64} : memref<1x1024x1xf32>
    linalg.generic {indexing_maps = [#map2, #map2, #map2], iterator_types = ["parallel", "parallel", "parallel"]} ins(%alloc_3360, %776 : memref<1x1024x1xf32>, memref<1x1024x1xf32>) outs(%alloc_3361 : memref<1x1024x1xf32>) {
    ^bb0(%in: f32, %in_3369: f32, %out: f32):
      %778 = arith.addf %in, %in_3369 : f32
      linalg.yield %778 : f32
    }
    %alloc_3362 = memref.alloc() {alignment = 64 : i64} : memref<1x1024x1xf32>
    linalg.generic {indexing_maps = [#map2, #map2], iterator_types = ["parallel", "parallel", "parallel"]} ins(%alloc_3361 : memref<1x1024x1xf32>) outs(%alloc_3362 : memref<1x1024x1xf32>) {
    ^bb0(%in: f32, %out: f32):
      %778 = math.rsqrt %in : f32
      linalg.yield %778 : f32
    }
    %alloc_3363 = memref.alloc() {alignment = 64 : i64} : memref<1x1024x1536xf32>
    linalg.generic {indexing_maps = [#map2, #map9, #map2], iterator_types = ["parallel", "parallel", "parallel"]} ins(%alloc_3354, %alloc_3362 : memref<1x1024x1536xf32>, memref<1x1024x1xf32>) outs(%alloc_3363 : memref<1x1024x1536xf32>) {
    ^bb0(%in: f32, %in_3369: f32, %out: f32):
      %778 = arith.mulf %in, %in_3369 : f32
      linalg.yield %778 : f32
    }
    %expand_shape_3364 = memref.expand_shape %arg340 [[0, 1, 2]] output_shape [1, 1, 1536] : memref<1536xf32, strided<[?], offset: ?>> into memref<1x1x1536xf32, strided<[?, ?, ?], offset: ?>>
    %alloc_3365 = memref.alloc() {alignment = 64 : i64} : memref<1x1024x1536xf32>
    linalg.generic {indexing_maps = [#map8, #map2, #map2], iterator_types = ["parallel", "parallel", "parallel"]} ins(%expand_shape_3364, %alloc_3363 : memref<1x1x1536xf32, strided<[?, ?, ?], offset: ?>>, memref<1x1024x1536xf32>) outs(%alloc_3365 : memref<1x1024x1536xf32>) {
    ^bb0(%in: f32, %in_3369: f32, %out: f32):
      %778 = arith.mulf %in, %in_3369 : f32
      linalg.yield %778 : f32
    }
    %collapse_shape_3366 = memref.collapse_shape %alloc_3365 [[0, 1], [2]] : memref<1x1024x1536xf32> into memref<1024x1536xf32>
    %777 = memref.get_global @__constant_1024x151936xf32 : memref<1024x151936xf32>
    %alloc_3367 = memref.alloc() {alignment = 64 : i64} : memref<1024x151936xf32>
    memref.copy %777, %alloc_3367 : memref<1024x151936xf32> to memref<1024x151936xf32>
    linalg.matmul_transpose_b {cast = #linalg.type_fn<cast_signed>} ins(%collapse_shape_3366, %arg341 : memref<1024x1536xf32>, memref<151936x1536xf32, strided<[?, ?], offset: ?>>) outs(%alloc_3367 : memref<1024x151936xf32>)
    %expand_shape_3368 = memref.expand_shape %alloc_3367 [[0, 1], [2]] output_shape [1, 1024, 151936] : memref<1024x151936xf32> into memref<1x1024x151936xf32>
    %cast = memref.cast %expand_shape_3368 : memref<1x1024x151936xf32> to memref<1x1024x151936xf32, strided<[?, ?, ?], offset: ?>>
    return %expand_shape_3368 : memref<1x1024x151936xf32>
  }
}

