#map = affine_map<(d0, d1) -> (d0, d1)>
#map1 = affine_map<(d0, d1, d2) -> (d0, d1)>
#map2 = affine_map<(d0, d1, d2) -> (d0, d1, d2)>
#map3 = affine_map<(d0, d1, d2) -> (d1)>
#map4 = affine_map<(d0, d1, d2) -> (d0, d2)>
#map5 = affine_map<(d0, d1, d2, d3) -> (d0, d1, d2, d3)>
#map6 = affine_map<(d0, d1, d2, d3) -> (d0, d1, 0, d3)>
#map7 = affine_map<(d0, d1, d2) -> (d0, 0, 0)>
#map8 = affine_map<(d0, d1, d2) -> (d0, 0, d2)>
#map9 = affine_map<(d0, d1, d2) -> (d0, d1, 0)>
#map10 = affine_map<(d0, d1) -> (0, d1)>
#map11 = affine_map<(d0, d1, d2, d3) -> (d0, 0, d2, d3)>
#map12 = affine_map<(d0, d1, d2, d3, d4) -> (d0, d1, 0, d3, d4)>
#map13 = affine_map<(d0, d1, d2, d3, d4) -> (d0, d1, d2, d3, d4)>
#map14 = affine_map<(d0, d1, d2) -> (0, d1, d2)>
module {
  memref.global "private" constant @__constant_1024x151936xf32 : memref<1024x151936xf32> = dense<0.000000e+00> {alignment = 64 : i64}
  memref.global "private" constant @__constant_1024x8960xf32 : memref<1024x8960xf32> = dense<0.000000e+00> {alignment = 64 : i64}
  memref.global "private" constant @__constant_12x1024x1024xf32 : memref<12x1024x1024xf32> = dense<0.0883883461> {alignment = 64 : i64}
  memref.global "private" constant @__constant_4xi32_0 : memref<4xi32> = dense<[0, 1, 3, 2]> {alignment = 64 : i64}
  memref.global "private" constant @__constant_1024x1024xf32_0 : memref<1024x1024xf32> = dense<0.000000e+00> {alignment = 64 : i64}
  memref.global "private" constant @__constant_1x2x6x1024x128xf32 : memref<1x2x6x1024x128xf32> = dense<0.000000e+00> {alignment = 64 : i64}
  memref.global "private" constant @__constant_4xi32 : memref<4xi32> = dense<[0, 2, 1, 3]> {alignment = 64 : i64}
  memref.global "private" constant @__constant_1024x256xf32 : memref<1024x256xf32> = dense<0.000000e+00> {alignment = 64 : i64}
  memref.global "private" constant @__constant_1024x1536xf32 : memref<1024x1536xf32> = dense<0.000000e+00> {alignment = 64 : i64}
  memref.global "private" constant @__constant_2xi32 : memref<2xi32> = dense<[1, 0]> {alignment = 64 : i64}
  memref.global "private" constant @__constant_1x1024x1xf32 : memref<1x1024x1xf32> = dense<9.99999997E-7> {alignment = 64 : i64}
  memref.global "private" constant @__constant_1x1x1xf32_0 : memref<1x1x1xf32> = dense<6.51041686E-4> {alignment = 64 : i64}
  memref.global "private" constant @__constant_1xf32_1 : memref<1xf32> = dense<6.51041686E-4> {alignment = 64 : i64}
  memref.global "private" constant @__constant_1xf32_0 : memref<1xf32> = dense<1.536000e+03> {alignment = 64 : i64}
  memref.global "private" constant @__constant_1x1x1xf32 : memref<1x1x1xf32> = dense<1.000000e+00> {alignment = 64 : i64}
  memref.global "private" constant @__constant_1xf32 : memref<1xf32> = dense<1.000000e+00> {alignment = 64 : i64}
  memref.global "private" constant @__constant_1x1024x2x64xf32 : memref<1x1024x2x64xf32> = dense<0.000000e+00> {alignment = 64 : i64}
  memref.global "private" constant @__constant_3xi32 : memref<3xi32> = dense<[0, 2, 1]> {alignment = 64 : i64}
  memref.global "private" constant @__constant_1x1x1024xf32 : memref<1x1x1024xf32> = dense<0.000000e+00> {alignment = 64 : i64}
  memref.global "private" constant @__constant_1x64x1xf32 : memref<1x64x1xf32> = dense<0.000000e+00> {alignment = 64 : i64}
  memref.global "private" constant @__constant_1x1x1024x1024xf32_0 : memref<1x1x1024x1024xf32> = dense<-3.40282347E+38> {alignment = 64 : i64}
  memref.global "private" constant @__constant_1x1x1024x1024xf32 : memref<1x1x1024x1024xf32> = dense<0.000000e+00> {alignment = 64 : i64}
  memref.global "private" constant @__constant_1024x1xi64 : memref<1024x1xi64> = dense<"…"> {alignment = 64 : i64}
  memref.global "private" constant @__constant_1024x1024xf32 : memref<1024x1024xf32> = dense<-3.40282347E+38> {alignment = 64 : i64}
  memref.global "private" constant @__constant_1x1024xi64 : memref<1x1024xi64> = dense<"…"> {alignment = 64 : i64}
  memref.global "private" constant @__constant_1024xi64 : memref<1024xi64> = dense<"…"> {alignment = 64 : i64}
  func.func @subgraph0(%arg0: memref<151936x1536xf32, strided<[?, ?], offset: ?>>, %arg1: memref<1x1024xi64, strided<[?, ?], offset: ?>>, %arg2: memref<1x1024xi64, strided<[?, ?], offset: ?>>, %arg3: memref<64xf32, strided<[?], offset: ?>>, %arg4: memref<1536xf32, strided<[?], offset: ?>>, %arg5: memref<1536x1536xf32, strided<[?, ?], offset: ?>>, %arg6: memref<1536xf32, strided<[?], offset: ?>>, %arg7: memref<256x1536xf32, strided<[?, ?], offset: ?>>, %arg8: memref<256xf32, strided<[?], offset: ?>>, %arg9: memref<256x1536xf32, strided<[?, ?], offset: ?>>, %arg10: memref<256xf32, strided<[?], offset: ?>>, %arg11: memref<1536x1536xf32, strided<[?, ?], offset: ?>>, %arg12: memref<1536xf32, strided<[?], offset: ?>>, %arg13: memref<8960x1536xf32, strided<[?, ?], offset: ?>>, %arg14: memref<8960x1536xf32, strided<[?, ?], offset: ?>>, %arg15: memref<1536x8960xf32, strided<[?, ?], offset: ?>>, %arg16: memref<1536xf32, strided<[?], offset: ?>>, %arg17: memref<1536x1536xf32, strided<[?, ?], offset: ?>>, %arg18: memref<1536xf32, strided<[?], offset: ?>>, %arg19: memref<256x1536xf32, strided<[?, ?], offset: ?>>, %arg20: memref<256xf32, strided<[?], offset: ?>>, %arg21: memref<256x1536xf32, strided<[?, ?], offset: ?>>, %arg22: memref<256xf32, strided<[?], offset: ?>>, %arg23: memref<1536x1536xf32, strided<[?, ?], offset: ?>>, %arg24: memref<1536xf32, strided<[?], offset: ?>>, %arg25: memref<8960x1536xf32, strided<[?, ?], offset: ?>>, %arg26: memref<8960x1536xf32, strided<[?, ?], offset: ?>>, %arg27: memref<1536x8960xf32, strided<[?, ?], offset: ?>>, %arg28: memref<1536xf32, strided<[?], offset: ?>>, %arg29: memref<1536x1536xf32, strided<[?, ?], offset: ?>>, %arg30: memref<1536xf32, strided<[?], offset: ?>>, %arg31: memref<256x1536xf32, strided<[?, ?], offset: ?>>, %arg32: memref<256xf32, strided<[?], offset: ?>>, %arg33: memref<256x1536xf32, strided<[?, ?], offset: ?>>, %arg34: memref<256xf32, strided<[?], offset: ?>>, %arg35: memref<1536x1536xf32, strided<[?, ?], offset: ?>>, %arg36: memref<1536xf32, strided<[?], offset: ?>>, %arg37: memref<8960x1536xf32, strided<[?, ?], offset: ?>>, %arg38: memref<8960x1536xf32, strided<[?, ?], offset: ?>>, %arg39: memref<1536x8960xf32, strided<[?, ?], offset: ?>>, %arg40: memref<1536xf32, strided<[?], offset: ?>>, %arg41: memref<1536x1536xf32, strided<[?, ?], offset: ?>>, %arg42: memref<1536xf32, strided<[?], offset: ?>>, %arg43: memref<256x1536xf32, strided<[?, ?], offset: ?>>, %arg44: memref<256xf32, strided<[?], offset: ?>>, %arg45: memref<256x1536xf32, strided<[?, ?], offset: ?>>, %arg46: memref<256xf32, strided<[?], offset: ?>>, %arg47: memref<1536x1536xf32, strided<[?, ?], offset: ?>>, %arg48: memref<1536xf32, strided<[?], offset: ?>>, %arg49: memref<8960x1536xf32, strided<[?, ?], offset: ?>>, %arg50: memref<8960x1536xf32, strided<[?, ?], offset: ?>>, %arg51: memref<1536x8960xf32, strided<[?, ?], offset: ?>>, %arg52: memref<1536xf32, strided<[?], offset: ?>>, %arg53: memref<1536x1536xf32, strided<[?, ?], offset: ?>>, %arg54: memref<1536xf32, strided<[?], offset: ?>>, %arg55: memref<256x1536xf32, strided<[?, ?], offset: ?>>, %arg56: memref<256xf32, strided<[?], offset: ?>>, %arg57: memref<256x1536xf32, strided<[?, ?], offset: ?>>, %arg58: memref<256xf32, strided<[?], offset: ?>>, %arg59: memref<1536x1536xf32, strided<[?, ?], offset: ?>>, %arg60: memref<1536xf32, strided<[?], offset: ?>>, %arg61: memref<8960x1536xf32, strided<[?, ?], offset: ?>>, %arg62: memref<8960x1536xf32, strided<[?, ?], offset: ?>>, %arg63: memref<1536x8960xf32, strided<[?, ?], offset: ?>>, %arg64: memref<1536xf32, strided<[?], offset: ?>>, %arg65: memref<1536x1536xf32, strided<[?, ?], offset: ?>>, %arg66: memref<1536xf32, strided<[?], offset: ?>>, %arg67: memref<256x1536xf32, strided<[?, ?], offset: ?>>, %arg68: memref<256xf32, strided<[?], offset: ?>>, %arg69: memref<256x1536xf32, strided<[?, ?], offset: ?>>, %arg70: memref<256xf32, strided<[?], offset: ?>>, %arg71: memref<1536x1536xf32, strided<[?, ?], offset: ?>>, %arg72: memref<1536xf32, strided<[?], offset: ?>>, %arg73: memref<8960x1536xf32, strided<[?, ?], offset: ?>>, %arg74: memref<8960x1536xf32, strided<[?, ?], offset: ?>>, %arg75: memref<1536x8960xf32, strided<[?, ?], offset: ?>>, %arg76: memref<1536xf32, strided<[?], offset: ?>>, %arg77: memref<1536x1536xf32, strided<[?, ?], offset: ?>>, %arg78: memref<1536xf32, strided<[?], offset: ?>>, %arg79: memref<256x1536xf32, strided<[?, ?], offset: ?>>, %arg80: memref<256xf32, strided<[?], offset: ?>>, %arg81: memref<256x1536xf32, strided<[?, ?], offset: ?>>, %arg82: memref<256xf32, strided<[?], offset: ?>>, %arg83: memref<1536x1536xf32, strided<[?, ?], offset: ?>>, %arg84: memref<1536xf32, strided<[?], offset: ?>>, %arg85: memref<8960x1536xf32, strided<[?, ?], offset: ?>>, %arg86: memref<8960x1536xf32, strided<[?, ?], offset: ?>>, %arg87: memref<1536x8960xf32, strided<[?, ?], offset: ?>>, %arg88: memref<1536xf32, strided<[?], offset: ?>>, %arg89: memref<1536x1536xf32, strided<[?, ?], offset: ?>>, %arg90: memref<1536xf32, strided<[?], offset: ?>>, %arg91: memref<256x1536xf32, strided<[?, ?], offset: ?>>, %arg92: memref<256xf32, strided<[?], offset: ?>>, %arg93: memref<256x1536xf32, strided<[?, ?], offset: ?>>, %arg94: memref<256xf32, strided<[?], offset: ?>>, %arg95: memref<1536x1536xf32, strided<[?, ?], offset: ?>>, %arg96: memref<1536xf32, strided<[?], offset: ?>>, %arg97: memref<8960x1536xf32, strided<[?, ?], offset: ?>>, %arg98: memref<8960x1536xf32, strided<[?, ?], offset: ?>>, %arg99: memref<1536x8960xf32, strided<[?, ?], offset: ?>>, %arg100: memref<1536xf32, strided<[?], offset: ?>>, %arg101: memref<1536x1536xf32, strided<[?, ?], offset: ?>>, %arg102: memref<1536xf32, strided<[?], offset: ?>>, %arg103: memref<256x1536xf32, strided<[?, ?], offset: ?>>, %arg104: memref<256xf32, strided<[?], offset: ?>>, %arg105: memref<256x1536xf32, strided<[?, ?], offset: ?>>, %arg106: memref<256xf32, strided<[?], offset: ?>>, %arg107: memref<1536x1536xf32, strided<[?, ?], offset: ?>>, %arg108: memref<1536xf32, strided<[?], offset: ?>>, %arg109: memref<8960x1536xf32, strided<[?, ?], offset: ?>>, %arg110: memref<8960x1536xf32, strided<[?, ?], offset: ?>>, %arg111: memref<1536x8960xf32, strided<[?, ?], offset: ?>>, %arg112: memref<1536xf32, strided<[?], offset: ?>>, %arg113: memref<1536x1536xf32, strided<[?, ?], offset: ?>>, %arg114: memref<1536xf32, strided<[?], offset: ?>>, %arg115: memref<256x1536xf32, strided<[?, ?], offset: ?>>, %arg116: memref<256xf32, strided<[?], offset: ?>>, %arg117: memref<256x1536xf32, strided<[?, ?], offset: ?>>, %arg118: memref<256xf32, strided<[?], offset: ?>>, %arg119: memref<1536x1536xf32, strided<[?, ?], offset: ?>>, %arg120: memref<1536xf32, strided<[?], offset: ?>>, %arg121: memref<8960x1536xf32, strided<[?, ?], offset: ?>>, %arg122: memref<8960x1536xf32, strided<[?, ?], offset: ?>>, %arg123: memref<1536x8960xf32, strided<[?, ?], offset: ?>>, %arg124: memref<1536xf32, strided<[?], offset: ?>>, %arg125: memref<1536x1536xf32, strided<[?, ?], offset: ?>>, %arg126: memref<1536xf32, strided<[?], offset: ?>>, %arg127: memref<256x1536xf32, strided<[?, ?], offset: ?>>, %arg128: memref<256xf32, strided<[?], offset: ?>>, %arg129: memref<256x1536xf32, strided<[?, ?], offset: ?>>, %arg130: memref<256xf32, strided<[?], offset: ?>>, %arg131: memref<1536x1536xf32, strided<[?, ?], offset: ?>>, %arg132: memref<1536xf32, strided<[?], offset: ?>>, %arg133: memref<8960x1536xf32, strided<[?, ?], offset: ?>>, %arg134: memref<8960x1536xf32, strided<[?, ?], offset: ?>>, %arg135: memref<1536x8960xf32, strided<[?, ?], offset: ?>>, %arg136: memref<1536xf32, strided<[?], offset: ?>>, %arg137: memref<1536x1536xf32, strided<[?, ?], offset: ?>>, %arg138: memref<1536xf32, strided<[?], offset: ?>>, %arg139: memref<256x1536xf32, strided<[?, ?], offset: ?>>, %arg140: memref<256xf32, strided<[?], offset: ?>>, %arg141: memref<256x1536xf32, strided<[?, ?], offset: ?>>, %arg142: memref<256xf32, strided<[?], offset: ?>>, %arg143: memref<1536x1536xf32, strided<[?, ?], offset: ?>>, %arg144: memref<1536xf32, strided<[?], offset: ?>>, %arg145: memref<8960x1536xf32, strided<[?, ?], offset: ?>>, %arg146: memref<8960x1536xf32, strided<[?, ?], offset: ?>>, %arg147: memref<1536x8960xf32, strided<[?, ?], offset: ?>>, %arg148: memref<1536xf32, strided<[?], offset: ?>>, %arg149: memref<1536x1536xf32, strided<[?, ?], offset: ?>>, %arg150: memref<1536xf32, strided<[?], offset: ?>>, %arg151: memref<256x1536xf32, strided<[?, ?], offset: ?>>, %arg152: memref<256xf32, strided<[?], offset: ?>>, %arg153: memref<256x1536xf32, strided<[?, ?], offset: ?>>, %arg154: memref<256xf32, strided<[?], offset: ?>>, %arg155: memref<1536x1536xf32, strided<[?, ?], offset: ?>>, %arg156: memref<1536xf32, strided<[?], offset: ?>>, %arg157: memref<8960x1536xf32, strided<[?, ?], offset: ?>>, %arg158: memref<8960x1536xf32, strided<[?, ?], offset: ?>>, %arg159: memref<1536x8960xf32, strided<[?, ?], offset: ?>>, %arg160: memref<1536xf32, strided<[?], offset: ?>>, %arg161: memref<1536x1536xf32, strided<[?, ?], offset: ?>>, %arg162: memref<1536xf32, strided<[?], offset: ?>>, %arg163: memref<256x1536xf32, strided<[?, ?], offset: ?>>, %arg164: memref<256xf32, strided<[?], offset: ?>>, %arg165: memref<256x1536xf32, strided<[?, ?], offset: ?>>, %arg166: memref<256xf32, strided<[?], offset: ?>>, %arg167: memref<1536x1536xf32, strided<[?, ?], offset: ?>>, %arg168: memref<1536xf32, strided<[?], offset: ?>>, %arg169: memref<8960x1536xf32, strided<[?, ?], offset: ?>>, %arg170: memref<8960x1536xf32, strided<[?, ?], offset: ?>>, %arg171: memref<1536x8960xf32, strided<[?, ?], offset: ?>>, %arg172: memref<1536xf32, strided<[?], offset: ?>>, %arg173: memref<1536x1536xf32, strided<[?, ?], offset: ?>>, %arg174: memref<1536xf32, strided<[?], offset: ?>>, %arg175: memref<256x1536xf32, strided<[?, ?], offset: ?>>, %arg176: memref<256xf32, strided<[?], offset: ?>>, %arg177: memref<256x1536xf32, strided<[?, ?], offset: ?>>, %arg178: memref<256xf32, strided<[?], offset: ?>>, %arg179: memref<1536x1536xf32, strided<[?, ?], offset: ?>>, %arg180: memref<1536xf32, strided<[?], offset: ?>>, %arg181: memref<8960x1536xf32, strided<[?, ?], offset: ?>>, %arg182: memref<8960x1536xf32, strided<[?, ?], offset: ?>>, %arg183: memref<1536x8960xf32, strided<[?, ?], offset: ?>>, %arg184: memref<1536xf32, strided<[?], offset: ?>>, %arg185: memref<1536x1536xf32, strided<[?, ?], offset: ?>>, %arg186: memref<1536xf32, strided<[?], offset: ?>>, %arg187: memref<256x1536xf32, strided<[?, ?], offset: ?>>, %arg188: memref<256xf32, strided<[?], offset: ?>>, %arg189: memref<256x1536xf32, strided<[?, ?], offset: ?>>, %arg190: memref<256xf32, strided<[?], offset: ?>>, %arg191: memref<1536x1536xf32, strided<[?, ?], offset: ?>>, %arg192: memref<1536xf32, strided<[?], offset: ?>>, %arg193: memref<8960x1536xf32, strided<[?, ?], offset: ?>>, %arg194: memref<8960x1536xf32, strided<[?, ?], offset: ?>>, %arg195: memref<1536x8960xf32, strided<[?, ?], offset: ?>>, %arg196: memref<1536xf32, strided<[?], offset: ?>>, %arg197: memref<1536x1536xf32, strided<[?, ?], offset: ?>>, %arg198: memref<1536xf32, strided<[?], offset: ?>>, %arg199: memref<256x1536xf32, strided<[?, ?], offset: ?>>, %arg200: memref<256xf32, strided<[?], offset: ?>>, %arg201: memref<256x1536xf32, strided<[?, ?], offset: ?>>, %arg202: memref<256xf32, strided<[?], offset: ?>>, %arg203: memref<1536x1536xf32, strided<[?, ?], offset: ?>>, %arg204: memref<1536xf32, strided<[?], offset: ?>>, %arg205: memref<8960x1536xf32, strided<[?, ?], offset: ?>>, %arg206: memref<8960x1536xf32, strided<[?, ?], offset: ?>>, %arg207: memref<1536x8960xf32, strided<[?, ?], offset: ?>>, %arg208: memref<1536xf32, strided<[?], offset: ?>>, %arg209: memref<1536x1536xf32, strided<[?, ?], offset: ?>>, %arg210: memref<1536xf32, strided<[?], offset: ?>>, %arg211: memref<256x1536xf32, strided<[?, ?], offset: ?>>, %arg212: memref<256xf32, strided<[?], offset: ?>>, %arg213: memref<256x1536xf32, strided<[?, ?], offset: ?>>, %arg214: memref<256xf32, strided<[?], offset: ?>>, %arg215: memref<1536x1536xf32, strided<[?, ?], offset: ?>>, %arg216: memref<1536xf32, strided<[?], offset: ?>>, %arg217: memref<8960x1536xf32, strided<[?, ?], offset: ?>>, %arg218: memref<8960x1536xf32, strided<[?, ?], offset: ?>>, %arg219: memref<1536x8960xf32, strided<[?, ?], offset: ?>>, %arg220: memref<1536xf32, strided<[?], offset: ?>>, %arg221: memref<1536x1536xf32, strided<[?, ?], offset: ?>>, %arg222: memref<1536xf32, strided<[?], offset: ?>>, %arg223: memref<256x1536xf32, strided<[?, ?], offset: ?>>, %arg224: memref<256xf32, strided<[?], offset: ?>>, %arg225: memref<256x1536xf32, strided<[?, ?], offset: ?>>, %arg226: memref<256xf32, strided<[?], offset: ?>>, %arg227: memref<1536x1536xf32, strided<[?, ?], offset: ?>>, %arg228: memref<1536xf32, strided<[?], offset: ?>>, %arg229: memref<8960x1536xf32, strided<[?, ?], offset: ?>>, %arg230: memref<8960x1536xf32, strided<[?, ?], offset: ?>>, %arg231: memref<1536x8960xf32, strided<[?, ?], offset: ?>>, %arg232: memref<1536xf32, strided<[?], offset: ?>>, %arg233: memref<1536x1536xf32, strided<[?, ?], offset: ?>>, %arg234: memref<1536xf32, strided<[?], offset: ?>>, %arg235: memref<256x1536xf32, strided<[?, ?], offset: ?>>, %arg236: memref<256xf32, strided<[?], offset: ?>>, %arg237: memref<256x1536xf32, strided<[?, ?], offset: ?>>, %arg238: memref<256xf32, strided<[?], offset: ?>>, %arg239: memref<1536x1536xf32, strided<[?, ?], offset: ?>>, %arg240: memref<1536xf32, strided<[?], offset: ?>>, %arg241: memref<8960x1536xf32, strided<[?, ?], offset: ?>>, %arg242: memref<8960x1536xf32, strided<[?, ?], offset: ?>>, %arg243: memref<1536x8960xf32, strided<[?, ?], offset: ?>>, %arg244: memref<1536xf32, strided<[?], offset: ?>>, %arg245: memref<1536x1536xf32, strided<[?, ?], offset: ?>>, %arg246: memref<1536xf32, strided<[?], offset: ?>>, %arg247: memref<256x1536xf32, strided<[?, ?], offset: ?>>, %arg248: memref<256xf32, strided<[?], offset: ?>>, %arg249: memref<256x1536xf32, strided<[?, ?], offset: ?>>, %arg250: memref<256xf32, strided<[?], offset: ?>>, %arg251: memref<1536x1536xf32, strided<[?, ?], offset: ?>>, %arg252: memref<1536xf32, strided<[?], offset: ?>>, %arg253: memref<8960x1536xf32, strided<[?, ?], offset: ?>>, %arg254: memref<8960x1536xf32, strided<[?, ?], offset: ?>>, %arg255: memref<1536x8960xf32, strided<[?, ?], offset: ?>>, %arg256: memref<1536xf32, strided<[?], offset: ?>>, %arg257: memref<1536x1536xf32, strided<[?, ?], offset: ?>>, %arg258: memref<1536xf32, strided<[?], offset: ?>>, %arg259: memref<256x1536xf32, strided<[?, ?], offset: ?>>, %arg260: memref<256xf32, strided<[?], offset: ?>>, %arg261: memref<256x1536xf32, strided<[?, ?], offset: ?>>, %arg262: memref<256xf32, strided<[?], offset: ?>>, %arg263: memref<1536x1536xf32, strided<[?, ?], offset: ?>>, %arg264: memref<1536xf32, strided<[?], offset: ?>>, %arg265: memref<8960x1536xf32, strided<[?, ?], offset: ?>>, %arg266: memref<8960x1536xf32, strided<[?, ?], offset: ?>>, %arg267: memref<1536x8960xf32, strided<[?, ?], offset: ?>>, %arg268: memref<1536xf32, strided<[?], offset: ?>>, %arg269: memref<1536x1536xf32, strided<[?, ?], offset: ?>>, %arg270: memref<1536xf32, strided<[?], offset: ?>>, %arg271: memref<256x1536xf32, strided<[?, ?], offset: ?>>, %arg272: memref<256xf32, strided<[?], offset: ?>>, %arg273: memref<256x1536xf32, strided<[?, ?], offset: ?>>, %arg274: memref<256xf32, strided<[?], offset: ?>>, %arg275: memref<1536x1536xf32, strided<[?, ?], offset: ?>>, %arg276: memref<1536xf32, strided<[?], offset: ?>>, %arg277: memref<8960x1536xf32, strided<[?, ?], offset: ?>>, %arg278: memref<8960x1536xf32, strided<[?, ?], offset: ?>>, %arg279: memref<1536x8960xf32, strided<[?, ?], offset: ?>>, %arg280: memref<1536xf32, strided<[?], offset: ?>>, %arg281: memref<1536x1536xf32, strided<[?, ?], offset: ?>>, %arg282: memref<1536xf32, strided<[?], offset: ?>>, %arg283: memref<256x1536xf32, strided<[?, ?], offset: ?>>, %arg284: memref<256xf32, strided<[?], offset: ?>>, %arg285: memref<256x1536xf32, strided<[?, ?], offset: ?>>, %arg286: memref<256xf32, strided<[?], offset: ?>>, %arg287: memref<1536x1536xf32, strided<[?, ?], offset: ?>>, %arg288: memref<1536xf32, strided<[?], offset: ?>>, %arg289: memref<8960x1536xf32, strided<[?, ?], offset: ?>>, %arg290: memref<8960x1536xf32, strided<[?, ?], offset: ?>>, %arg291: memref<1536x8960xf32, strided<[?, ?], offset: ?>>, %arg292: memref<1536xf32, strided<[?], offset: ?>>, %arg293: memref<1536x1536xf32, strided<[?, ?], offset: ?>>, %arg294: memref<1536xf32, strided<[?], offset: ?>>, %arg295: memref<256x1536xf32, strided<[?, ?], offset: ?>>, %arg296: memref<256xf32, strided<[?], offset: ?>>, %arg297: memref<256x1536xf32, strided<[?, ?], offset: ?>>, %arg298: memref<256xf32, strided<[?], offset: ?>>, %arg299: memref<1536x1536xf32, strided<[?, ?], offset: ?>>, %arg300: memref<1536xf32, strided<[?], offset: ?>>, %arg301: memref<8960x1536xf32, strided<[?, ?], offset: ?>>, %arg302: memref<8960x1536xf32, strided<[?, ?], offset: ?>>, %arg303: memref<1536x8960xf32, strided<[?, ?], offset: ?>>, %arg304: memref<1536xf32, strided<[?], offset: ?>>, %arg305: memref<1536x1536xf32, strided<[?, ?], offset: ?>>, %arg306: memref<1536xf32, strided<[?], offset: ?>>, %arg307: memref<256x1536xf32, strided<[?, ?], offset: ?>>, %arg308: memref<256xf32, strided<[?], offset: ?>>, %arg309: memref<256x1536xf32, strided<[?, ?], offset: ?>>, %arg310: memref<256xf32, strided<[?], offset: ?>>, %arg311: memref<1536x1536xf32, strided<[?, ?], offset: ?>>, %arg312: memref<1536xf32, strided<[?], offset: ?>>, %arg313: memref<8960x1536xf32, strided<[?, ?], offset: ?>>, %arg314: memref<8960x1536xf32, strided<[?, ?], offset: ?>>, %arg315: memref<1536x8960xf32, strided<[?, ?], offset: ?>>, %arg316: memref<1536xf32, strided<[?], offset: ?>>, %arg317: memref<1536x1536xf32, strided<[?, ?], offset: ?>>, %arg318: memref<1536xf32, strided<[?], offset: ?>>, %arg319: memref<256x1536xf32, strided<[?, ?], offset: ?>>, %arg320: memref<256xf32, strided<[?], offset: ?>>, %arg321: memref<256x1536xf32, strided<[?, ?], offset: ?>>, %arg322: memref<256xf32, strided<[?], offset: ?>>, %arg323: memref<1536x1536xf32, strided<[?, ?], offset: ?>>, %arg324: memref<1536xf32, strided<[?], offset: ?>>, %arg325: memref<8960x1536xf32, strided<[?, ?], offset: ?>>, %arg326: memref<8960x1536xf32, strided<[?, ?], offset: ?>>, %arg327: memref<1536x8960xf32, strided<[?, ?], offset: ?>>, %arg328: memref<1536xf32, strided<[?], offset: ?>>, %arg329: memref<1536x1536xf32, strided<[?, ?], offset: ?>>, %arg330: memref<1536xf32, strided<[?], offset: ?>>, %arg331: memref<256x1536xf32, strided<[?, ?], offset: ?>>, %arg332: memref<256xf32, strided<[?], offset: ?>>, %arg333: memref<256x1536xf32, strided<[?, ?], offset: ?>>, %arg334: memref<256xf32, strided<[?], offset: ?>>, %arg335: memref<1536x1536xf32, strided<[?, ?], offset: ?>>, %arg336: memref<1536xf32, strided<[?], offset: ?>>, %arg337: memref<8960x1536xf32, strided<[?, ?], offset: ?>>, %arg338: memref<8960x1536xf32, strided<[?, ?], offset: ?>>, %arg339: memref<1536x8960xf32, strided<[?, ?], offset: ?>>, %arg340: memref<1536xf32, strided<[?], offset: ?>>, %arg341: memref<151936x1536xf32, strided<[?, ?], offset: ?>>) -> memref<1x1024x151936xf32> {
    %alloc = memref.alloc() {alignment = 64 : i64} : memref<1x1024xi32>
    linalg.generic {indexing_maps = [#map, #map], iterator_types = ["parallel", "parallel"]} ins(%arg1 : memref<1x1024xi64, strided<[?, ?], offset: ?>>) outs(%alloc : memref<1x1024xi32>) {
    ^bb0(%in: i64, %out: i32):
      %892 = arith.trunci %in : i64 to i32
      linalg.yield %892 : i32
    }
    %expand_shape = memref.expand_shape %arg0 [[0, 1], [2]] output_shape [1, 151936, 1536] : memref<151936x1536xf32, strided<[?, ?], offset: ?>> into memref<1x151936x1536xf32, strided<[?, ?, ?], offset: ?>>
    %alloc_0 = memref.alloc() {alignment = 64 : i64} : memref<1x1024x1536xf32>
    linalg.generic {indexing_maps = [#map1, #map2], iterator_types = ["parallel", "parallel", "parallel"]} ins(%alloc : memref<1x1024xi32>) outs(%alloc_0 : memref<1x1024x1536xf32>) {
    ^bb0(%in: i32, %out: f32):
      %892 = linalg.index 0 : index
      %893 = arith.index_cast %in : i32 to index
      %894 = linalg.index 2 : index
      %895 = memref.load %expand_shape[%892, %893, %894] : memref<1x151936x1536xf32, strided<[?, ?, ?], offset: ?>>
      linalg.yield %895 : f32
    }
    %0 = memref.get_global @__constant_1024xi64 : memref<1024xi64>
    %1 = memref.get_global @__constant_1x1024xi64 : memref<1x1024xi64>
    %2 = memref.get_global @__constant_1024x1024xf32 : memref<1024x1024xf32>
    %3 = memref.get_global @__constant_1024xi64 : memref<1024xi64>
    %4 = memref.get_global @__constant_1024x1xi64 : memref<1024x1xi64>
    %alloc_1 = memref.alloc() {alignment = 64 : i64} : memref<1024x1024xi1>
    linalg.generic {indexing_maps = [#map3, #map4, #map1], iterator_types = ["parallel", "parallel", "reduction"]} ins(%3, %4 : memref<1024xi64>, memref<1024x1xi64>) outs(%alloc_1 : memref<1024x1024xi1>) {
    ^bb0(%in: i64, %in_4156: i64, %out: i1):
      %892 = arith.cmpi sgt, %in, %in_4156 : i64
      linalg.yield %892 : i1
    }
    %alloc_2 = memref.alloc() {alignment = 64 : i64} : memref<1024x1024xf32>
    linalg.generic {indexing_maps = [#map, #map], iterator_types = ["parallel", "parallel"]} ins(%alloc_1 : memref<1024x1024xi1>) outs(%alloc_2 : memref<1024x1024xf32>) {
    ^bb0(%in: i1, %out: f32):
      %892 = arith.uitofp %in : i1 to f32
      linalg.yield %892 : f32
    }
    %alloc_3 = memref.alloc() {alignment = 64 : i64} : memref<1024x1024xf32>
    linalg.generic {indexing_maps = [#map, #map, #map], iterator_types = ["parallel", "parallel"]} ins(%alloc_2, %2 : memref<1024x1024xf32>, memref<1024x1024xf32>) outs(%alloc_3 : memref<1024x1024xf32>) {
    ^bb0(%in: f32, %in_4156: f32, %out: f32):
      %892 = arith.mulf %in, %in_4156 : f32
      linalg.yield %892 : f32
    }
    %expand_shape_4 = memref.expand_shape %alloc_3 [[0, 1], [2]] output_shape [1, 1024, 1024] : memref<1024x1024xf32> into memref<1x1024x1024xf32>
    %expand_shape_5 = memref.expand_shape %alloc_3 [[0, 1, 2], [3]] output_shape [1, 1, 1024, 1024] : memref<1024x1024xf32> into memref<1x1x1024x1024xf32>
    %5 = memref.get_global @__constant_1x1x1024x1024xf32 : memref<1x1x1024x1024xf32>
    %expand_shape_6 = memref.expand_shape %arg2 [[0, 1], [2]] output_shape [1, 1, 1024] : memref<1x1024xi64, strided<[?, ?], offset: ?>> into memref<1x1x1024xi64, strided<[?, ?, ?], offset: ?>>
    %expand_shape_7 = memref.expand_shape %arg2 [[0, 1, 2], [3]] output_shape [1, 1, 1, 1024] : memref<1x1024xi64, strided<[?, ?], offset: ?>> into memref<1x1x1x1024xi64, strided<[?, ?, ?, ?], offset: ?>>
    %alloc_8 = memref.alloc() {alignment = 64 : i64} : memref<1x1x1x1024xf32>
    linalg.generic {indexing_maps = [#map5, #map5], iterator_types = ["parallel", "parallel", "parallel", "parallel"]} ins(%expand_shape_7 : memref<1x1x1x1024xi64, strided<[?, ?, ?, ?], offset: ?>>) outs(%alloc_8 : memref<1x1x1x1024xf32>) {
    ^bb0(%in: i64, %out: f32):
      %892 = arith.sitofp %in : i64 to f32
      linalg.yield %892 : f32
    }
    %alloc_9 = memref.alloc() {alignment = 64 : i64} : memref<1x1x1024x1024xf32>
    linalg.generic {indexing_maps = [#map5, #map6, #map5], iterator_types = ["parallel", "parallel", "parallel", "parallel"]} ins(%expand_shape_5, %alloc_8 : memref<1x1x1024x1024xf32>, memref<1x1x1x1024xf32>) outs(%alloc_9 : memref<1x1x1024x1024xf32>) {
    ^bb0(%in: f32, %in_4156: f32, %out: f32):
      %892 = arith.addf %in, %in_4156 : f32
      linalg.yield %892 : f32
    }
    %cst = arith.constant 0.000000e+00 : f32
    %6 = memref.get_global @__constant_1x1x1024x1024xf32 : memref<1x1x1024x1024xf32>
    %alloc_10 = memref.alloc() {alignment = 64 : i64} : memref<1x1x1024x1024xi1>
    linalg.generic {indexing_maps = [#map5, #map5, #map5], iterator_types = ["parallel", "parallel", "parallel", "parallel"]} ins(%alloc_9, %6 : memref<1x1x1024x1024xf32>, memref<1x1x1024x1024xf32>) outs(%alloc_10 : memref<1x1x1024x1024xi1>) {
    ^bb0(%in: f32, %in_4156: f32, %out: i1):
      %892 = arith.cmpf oeq, %in, %in_4156 : f32
      linalg.yield %892 : i1
    }
    %cst_11 = arith.constant -3.40282347E+38 : f32
    %alloc_12 = memref.alloc() {alignment = 64 : i64} : memref<1x1x1024x1024xf32>
    %7 = memref.get_global @__constant_1x1x1024x1024xf32_0 : memref<1x1x1024x1024xf32>
    linalg.generic {indexing_maps = [#map5, #map5, #map5, #map5], iterator_types = ["parallel", "parallel", "parallel", "parallel"]} ins(%alloc_10, %7, %expand_shape_5 : memref<1x1x1024x1024xi1>, memref<1x1x1024x1024xf32>, memref<1x1x1024x1024xf32>) outs(%alloc_12 : memref<1x1x1024x1024xf32>) {
    ^bb0(%in: i1, %in_4156: f32, %in_4157: f32, %out: f32):
      %892 = arith.select %in, %in_4156, %in_4157 : f32
      linalg.yield %892 : f32
    }
    linalg.generic {indexing_maps = [#map5, #map5], iterator_types = ["parallel", "parallel", "parallel", "parallel"]} ins(%alloc_12 : memref<1x1x1024x1024xf32>) outs(%expand_shape_5 : memref<1x1x1024x1024xf32>) {
    ^bb0(%in: f32, %out: f32):
      linalg.yield %in : f32
    }
    %expand_shape_13 = memref.expand_shape %arg3 [[0, 1]] output_shape [1, 64] : memref<64xf32, strided<[?], offset: ?>> into memref<1x64xf32, strided<[?, ?], offset: ?>>
    %expand_shape_14 = memref.expand_shape %expand_shape_13 [[0], [1, 2]] output_shape [1, 64, 1] : memref<1x64xf32, strided<[?, ?], offset: ?>> into memref<1x64x1xf32, strided<[?, ?, ?], offset: ?>>
    %8 = memref.get_global @__constant_1x64x1xf32 : memref<1x64x1xf32>
    %expand_shape_15 = memref.expand_shape %1 [[0, 1], [2]] output_shape [1, 1, 1024] : memref<1x1024xi64> into memref<1x1x1024xi64>
    %alloc_16 = memref.alloc() {alignment = 64 : i64} : memref<1x1x1024xf32>
    linalg.generic {indexing_maps = [#map2, #map2], iterator_types = ["parallel", "parallel", "parallel"]} ins(%expand_shape_15 : memref<1x1x1024xi64>) outs(%alloc_16 : memref<1x1x1024xf32>) {
    ^bb0(%in: i64, %out: f32):
      %892 = arith.sitofp %in : i64 to f32
      linalg.yield %892 : f32
    }
    %9 = memref.get_global @__constant_1x64x1xf32 : memref<1x64x1xf32>
    %10 = memref.get_global @__constant_1x1x1024xf32 : memref<1x1x1024xf32>
    %cst_17 = arith.constant 0.000000e+00 : f32
    %alloc_18 = memref.alloc() {alignment = 64 : i64} : memref<1x64x1024xf32>
    linalg.fill ins(%cst_17 : f32) outs(%alloc_18 : memref<1x64x1024xf32>)
    %c0 = arith.constant 0 : index
    %c1 = arith.constant 1 : index
    %c2 = arith.constant 2 : index
    %c3 = arith.constant 3 : index
    %c4 = arith.constant 4 : index
    %c5 = arith.constant 5 : index
    %c6 = arith.constant 6 : index
    %c7 = arith.constant 7 : index
    %c8 = arith.constant 8 : index
    %c32 = arith.constant 32 : index
    %dim = memref.dim %expand_shape_14, %c0 : memref<1x64x1xf32, strided<[?, ?, ?], offset: ?>>
    %dim_19 = memref.dim %expand_shape_14, %c1 : memref<1x64x1xf32, strided<[?, ?, ?], offset: ?>>
    %dim_20 = memref.dim %expand_shape_14, %c2 : memref<1x64x1xf32, strided<[?, ?, ?], offset: ?>>
    %dim_21 = memref.dim %alloc_18, %c2 : memref<1x64x1024xf32>
    %11 = arith.subi %dim_21, %c32 : index
    %12 = arith.addi %11, %c1 : index
    scf.parallel (%arg342, %arg343) = (%c0, %c0) to (%dim, %dim_19) step (%c1, %c8) {
      %892 = arith.addi %arg343, %c1 : index
      %893 = arith.addi %arg343, %c2 : index
      %894 = arith.addi %arg343, %c3 : index
      %895 = arith.addi %arg343, %c4 : index
      %896 = arith.addi %arg343, %c5 : index
      %897 = arith.addi %arg343, %c6 : index
      %898 = arith.addi %arg343, %c7 : index
      %899 = scf.for %arg344 = %c0 to %12 step %c32 iter_args(%arg345 = %c0) -> (index) {
        %900 = vector.load %alloc_18[%arg342, %arg343, %arg344] : memref<1x64x1024xf32>, vector<32xf32>
        %901 = vector.load %alloc_18[%arg342, %892, %arg344] : memref<1x64x1024xf32>, vector<32xf32>
        %902 = vector.load %alloc_18[%arg342, %893, %arg344] : memref<1x64x1024xf32>, vector<32xf32>
        %903 = vector.load %alloc_18[%arg342, %894, %arg344] : memref<1x64x1024xf32>, vector<32xf32>
        %904 = vector.load %alloc_18[%arg342, %895, %arg344] : memref<1x64x1024xf32>, vector<32xf32>
        %905 = vector.load %alloc_18[%arg342, %896, %arg344] : memref<1x64x1024xf32>, vector<32xf32>
        %906 = vector.load %alloc_18[%arg342, %897, %arg344] : memref<1x64x1024xf32>, vector<32xf32>
        %907 = vector.load %alloc_18[%arg342, %898, %arg344] : memref<1x64x1024xf32>, vector<32xf32>
        %908:8 = scf.for %arg346 = %c0 to %dim_20 step %c1 iter_args(%arg347 = %900, %arg348 = %901, %arg349 = %902, %arg350 = %903, %arg351 = %904, %arg352 = %905, %arg353 = %906, %arg354 = %907) -> (vector<32xf32>, vector<32xf32>, vector<32xf32>, vector<32xf32>, vector<32xf32>, vector<32xf32>, vector<32xf32>, vector<32xf32>) {
          %910 = memref.load %expand_shape_14[%arg342, %arg343, %arg346] : memref<1x64x1xf32, strided<[?, ?, ?], offset: ?>>
          %911 = memref.load %expand_shape_14[%arg342, %892, %arg346] : memref<1x64x1xf32, strided<[?, ?, ?], offset: ?>>
          %912 = memref.load %expand_shape_14[%arg342, %893, %arg346] : memref<1x64x1xf32, strided<[?, ?, ?], offset: ?>>
          %913 = memref.load %expand_shape_14[%arg342, %894, %arg346] : memref<1x64x1xf32, strided<[?, ?, ?], offset: ?>>
          %914 = memref.load %expand_shape_14[%arg342, %895, %arg346] : memref<1x64x1xf32, strided<[?, ?, ?], offset: ?>>
          %915 = memref.load %expand_shape_14[%arg342, %896, %arg346] : memref<1x64x1xf32, strided<[?, ?, ?], offset: ?>>
          %916 = memref.load %expand_shape_14[%arg342, %897, %arg346] : memref<1x64x1xf32, strided<[?, ?, ?], offset: ?>>
          %917 = memref.load %expand_shape_14[%arg342, %898, %arg346] : memref<1x64x1xf32, strided<[?, ?, ?], offset: ?>>
          %918 = vector.broadcast %910 : f32 to vector<32xf32>
          %919 = vector.broadcast %911 : f32 to vector<32xf32>
          %920 = vector.broadcast %912 : f32 to vector<32xf32>
          %921 = vector.broadcast %913 : f32 to vector<32xf32>
          %922 = vector.broadcast %914 : f32 to vector<32xf32>
          %923 = vector.broadcast %915 : f32 to vector<32xf32>
          %924 = vector.broadcast %916 : f32 to vector<32xf32>
          %925 = vector.broadcast %917 : f32 to vector<32xf32>
          %926 = vector.load %alloc_16[%arg342, %arg346, %arg344] : memref<1x1x1024xf32>, vector<32xf32>
          %927 = vector.fma %918, %926, %arg347 : vector<32xf32>
          %928 = vector.fma %919, %926, %arg348 : vector<32xf32>
          %929 = vector.fma %920, %926, %arg349 : vector<32xf32>
          %930 = vector.fma %921, %926, %arg350 : vector<32xf32>
          %931 = vector.fma %922, %926, %arg351 : vector<32xf32>
          %932 = vector.fma %923, %926, %arg352 : vector<32xf32>
          %933 = vector.fma %924, %926, %arg353 : vector<32xf32>
          %934 = vector.fma %925, %926, %arg354 : vector<32xf32>
          scf.yield %927, %928, %929, %930, %931, %932, %933, %934 : vector<32xf32>, vector<32xf32>, vector<32xf32>, vector<32xf32>, vector<32xf32>, vector<32xf32>, vector<32xf32>, vector<32xf32>
        }
        vector.store %908#0, %alloc_18[%arg342, %arg343, %arg344] : memref<1x64x1024xf32>, vector<32xf32>
        vector.store %908#1, %alloc_18[%arg342, %892, %arg344] : memref<1x64x1024xf32>, vector<32xf32>
        vector.store %908#2, %alloc_18[%arg342, %893, %arg344] : memref<1x64x1024xf32>, vector<32xf32>
        vector.store %908#3, %alloc_18[%arg342, %894, %arg344] : memref<1x64x1024xf32>, vector<32xf32>
        vector.store %908#4, %alloc_18[%arg342, %895, %arg344] : memref<1x64x1024xf32>, vector<32xf32>
        vector.store %908#5, %alloc_18[%arg342, %896, %arg344] : memref<1x64x1024xf32>, vector<32xf32>
        vector.store %908#6, %alloc_18[%arg342, %897, %arg344] : memref<1x64x1024xf32>, vector<32xf32>
        vector.store %908#7, %alloc_18[%arg342, %898, %arg344] : memref<1x64x1024xf32>, vector<32xf32>
        %909 = arith.addi %arg344, %c32 : index
        scf.yield %909 : index
      }
      scf.for %arg344 = %899 to %dim_21 step %c1 {
        %900 = memref.load %alloc_18[%arg342, %arg343, %arg344] : memref<1x64x1024xf32>
        %901 = memref.load %alloc_18[%arg342, %892, %arg344] : memref<1x64x1024xf32>
        %902 = memref.load %alloc_18[%arg342, %893, %arg344] : memref<1x64x1024xf32>
        %903 = memref.load %alloc_18[%arg342, %894, %arg344] : memref<1x64x1024xf32>
        %904 = memref.load %alloc_18[%arg342, %895, %arg344] : memref<1x64x1024xf32>
        %905 = memref.load %alloc_18[%arg342, %896, %arg344] : memref<1x64x1024xf32>
        %906 = memref.load %alloc_18[%arg342, %897, %arg344] : memref<1x64x1024xf32>
        %907 = memref.load %alloc_18[%arg342, %898, %arg344] : memref<1x64x1024xf32>
        %908:8 = scf.for %arg345 = %c0 to %dim_20 step %c1 iter_args(%arg346 = %900, %arg347 = %901, %arg348 = %902, %arg349 = %903, %arg350 = %904, %arg351 = %905, %arg352 = %906, %arg353 = %907) -> (f32, f32, f32, f32, f32, f32, f32, f32) {
          %909 = memref.load %expand_shape_14[%arg342, %arg343, %arg345] : memref<1x64x1xf32, strided<[?, ?, ?], offset: ?>>
          %910 = memref.load %expand_shape_14[%arg342, %892, %arg345] : memref<1x64x1xf32, strided<[?, ?, ?], offset: ?>>
          %911 = memref.load %expand_shape_14[%arg342, %893, %arg345] : memref<1x64x1xf32, strided<[?, ?, ?], offset: ?>>
          %912 = memref.load %expand_shape_14[%arg342, %894, %arg345] : memref<1x64x1xf32, strided<[?, ?, ?], offset: ?>>
          %913 = memref.load %expand_shape_14[%arg342, %895, %arg345] : memref<1x64x1xf32, strided<[?, ?, ?], offset: ?>>
          %914 = memref.load %expand_shape_14[%arg342, %896, %arg345] : memref<1x64x1xf32, strided<[?, ?, ?], offset: ?>>
          %915 = memref.load %expand_shape_14[%arg342, %897, %arg345] : memref<1x64x1xf32, strided<[?, ?, ?], offset: ?>>
          %916 = memref.load %expand_shape_14[%arg342, %898, %arg345] : memref<1x64x1xf32, strided<[?, ?, ?], offset: ?>>
          %917 = memref.load %alloc_16[%arg342, %arg345, %arg344] : memref<1x1x1024xf32>
          %918 = arith.mulf %909, %917 : f32
          %919 = arith.mulf %910, %917 : f32
          %920 = arith.mulf %911, %917 : f32
          %921 = arith.mulf %912, %917 : f32
          %922 = arith.mulf %913, %917 : f32
          %923 = arith.mulf %914, %917 : f32
          %924 = arith.mulf %915, %917 : f32
          %925 = arith.mulf %916, %917 : f32
          %926 = arith.addf %918, %arg346 : f32
          %927 = arith.addf %919, %arg347 : f32
          %928 = arith.addf %920, %arg348 : f32
          %929 = arith.addf %921, %arg349 : f32
          %930 = arith.addf %922, %arg350 : f32
          %931 = arith.addf %923, %arg351 : f32
          %932 = arith.addf %924, %arg352 : f32
          %933 = arith.addf %925, %arg353 : f32
          scf.yield %926, %927, %928, %929, %930, %931, %932, %933 : f32, f32, f32, f32, f32, f32, f32, f32
        }
        memref.store %908#0, %alloc_18[%arg342, %arg343, %arg344] : memref<1x64x1024xf32>
        memref.store %908#1, %alloc_18[%arg342, %892, %arg344] : memref<1x64x1024xf32>
        memref.store %908#2, %alloc_18[%arg342, %893, %arg344] : memref<1x64x1024xf32>
        memref.store %908#3, %alloc_18[%arg342, %894, %arg344] : memref<1x64x1024xf32>
        memref.store %908#4, %alloc_18[%arg342, %895, %arg344] : memref<1x64x1024xf32>
        memref.store %908#5, %alloc_18[%arg342, %896, %arg344] : memref<1x64x1024xf32>
        memref.store %908#6, %alloc_18[%arg342, %897, %arg344] : memref<1x64x1024xf32>
        memref.store %908#7, %alloc_18[%arg342, %898, %arg344] : memref<1x64x1024xf32>
      }
      scf.reduce 
    }
    %13 = memref.get_global @__constant_3xi32 : memref<3xi32>
    %alloc_22 = memref.alloc() {alignment = 64 : i64} : memref<1x1024x64xf32>
    linalg.transpose ins(%alloc_18 : memref<1x64x1024xf32>) outs(%alloc_22 : memref<1x1024x64xf32>) permutation = [0, 2, 1] 
    %expand_shape_23 = memref.expand_shape %alloc_22 [[0], [1, 2], [3]] output_shape [1, 1024, 1, 64] : memref<1x1024x64xf32> into memref<1x1024x1x64xf32>
    %14 = memref.get_global @__constant_1x1024x2x64xf32 : memref<1x1024x2x64xf32>
    %alloc_24 = memref.alloc() {alignment = 64 : i64} : memref<1x1024x2x64xf32>
    linalg.generic {indexing_maps = [#map6, #map5, #map5], iterator_types = ["parallel", "parallel", "parallel", "parallel"]} ins(%expand_shape_23, %14 : memref<1x1024x1x64xf32>, memref<1x1024x2x64xf32>) outs(%alloc_24 : memref<1x1024x2x64xf32>) {
    ^bb0(%in: f32, %in_4156: f32, %out: f32):
      %892 = arith.addf %in, %in_4156 : f32
      linalg.yield %892 : f32
    }
    %collapse_shape = memref.collapse_shape %alloc_24 [[0], [1], [2, 3]] : memref<1x1024x2x64xf32> into memref<1x1024x128xf32>
    %alloc_25 = memref.alloc() {alignment = 64 : i64} : memref<1x1024x128xf32>
    linalg.generic {indexing_maps = [#map2, #map2], iterator_types = ["parallel", "parallel", "parallel"]} ins(%collapse_shape : memref<1x1024x128xf32>) outs(%alloc_25 : memref<1x1024x128xf32>) {
    ^bb0(%in: f32, %out: f32):
      %892 = math.cos %in : f32
      linalg.yield %892 : f32
    }
    linalg.generic {indexing_maps = [#map2, #map2], iterator_types = ["parallel", "parallel", "parallel"]} ins(%collapse_shape : memref<1x1024x128xf32>) outs(%collapse_shape : memref<1x1024x128xf32>) {
    ^bb0(%in: f32, %out: f32):
      %892 = math.sin %in : f32
      linalg.yield %892 : f32
    }
    %15 = memref.get_global @__constant_1xf32 : memref<1xf32>
    %16 = memref.get_global @__constant_1x1x1xf32 : memref<1x1x1xf32>
    %alloc_26 = memref.alloc() {alignment = 64 : i64} : memref<1x1024x128xf32>
    linalg.generic {indexing_maps = [#map2, #map7, #map2], iterator_types = ["parallel", "parallel", "parallel"]} ins(%alloc_25, %16 : memref<1x1024x128xf32>, memref<1x1x1xf32>) outs(%alloc_26 : memref<1x1024x128xf32>) {
    ^bb0(%in: f32, %in_4156: f32, %out: f32):
      %892 = arith.mulf %in, %in_4156 : f32
      linalg.yield %892 : f32
    }
    %17 = memref.get_global @__constant_1xf32 : memref<1xf32>
    %18 = memref.get_global @__constant_1x1x1xf32 : memref<1x1x1xf32>
    %alloc_27 = memref.alloc() {alignment = 64 : i64} : memref<1x1024x128xf32>
    linalg.generic {indexing_maps = [#map2, #map7, #map2], iterator_types = ["parallel", "parallel", "parallel"]} ins(%collapse_shape, %18 : memref<1x1024x128xf32>, memref<1x1x1xf32>) outs(%alloc_27 : memref<1x1024x128xf32>) {
    ^bb0(%in: f32, %in_4156: f32, %out: f32):
      %892 = arith.mulf %in, %in_4156 : f32
      linalg.yield %892 : f32
    }
    %alloc_28 = memref.alloc() {alignment = 64 : i64} : memref<1x1024x1536xf32>
    %c2_i32 = arith.constant 2 : i32
    linalg.generic {indexing_maps = [#map2, #map2], iterator_types = ["parallel", "parallel", "parallel"]} ins(%alloc_0 : memref<1x1024x1536xf32>) outs(%alloc_28 : memref<1x1024x1536xf32>) {
    ^bb0(%in: f32, %out: f32):
      %892 = math.fpowi %in, %c2_i32 : f32, i32
      linalg.yield %892 : f32
    }
    %alloc_29 = memref.alloc() {alignment = 64 : i64} : memref<1x1024xf32>
    %cst_30 = arith.constant 0.000000e+00 : f32
    linalg.fill ins(%cst_30 : f32) outs(%alloc_29 : memref<1x1024xf32>)
    linalg.reduce ins(%alloc_28 : memref<1x1024x1536xf32>) outs(%alloc_29 : memref<1x1024xf32>) dimensions = [2] 
      (%in: f32, %init: f32) {
        %892 = arith.addf %in, %init : f32
        linalg.yield %892 : f32
      }
    %expand_shape_31 = memref.expand_shape %alloc_29 [[0], [1, 2]] output_shape [1, 1024, 1] : memref<1x1024xf32> into memref<1x1024x1xf32>
    %19 = memref.get_global @__constant_1xf32_0 : memref<1xf32>
    %20 = memref.get_global @__constant_1xf32_1 : memref<1xf32>
    %21 = memref.get_global @__constant_1x1x1xf32_0 : memref<1x1x1xf32>
    %alloc_32 = memref.alloc() {alignment = 64 : i64} : memref<1x1024x1xf32>
    linalg.generic {indexing_maps = [#map8, #map2, #map2], iterator_types = ["parallel", "parallel", "parallel"]} ins(%21, %expand_shape_31 : memref<1x1x1xf32>, memref<1x1024x1xf32>) outs(%alloc_32 : memref<1x1024x1xf32>) {
    ^bb0(%in: f32, %in_4156: f32, %out: f32):
      %892 = arith.mulf %in, %in_4156 : f32
      linalg.yield %892 : f32
    }
    %22 = memref.get_global @__constant_1x1024x1xf32 : memref<1x1024x1xf32>
    %alloc_33 = memref.alloc() {alignment = 64 : i64} : memref<1x1024x1xf32>
    linalg.generic {indexing_maps = [#map2, #map2, #map2], iterator_types = ["parallel", "parallel", "parallel"]} ins(%alloc_32, %22 : memref<1x1024x1xf32>, memref<1x1024x1xf32>) outs(%alloc_33 : memref<1x1024x1xf32>) {
    ^bb0(%in: f32, %in_4156: f32, %out: f32):
      %892 = arith.addf %in, %in_4156 : f32
      linalg.yield %892 : f32
    }
    %alloc_34 = memref.alloc() {alignment = 64 : i64} : memref<1x1024x1xf32>
    linalg.generic {indexing_maps = [#map2, #map2], iterator_types = ["parallel", "parallel", "parallel"]} ins(%alloc_33 : memref<1x1024x1xf32>) outs(%alloc_34 : memref<1x1024x1xf32>) {
    ^bb0(%in: f32, %out: f32):
      %892 = math.rsqrt %in : f32
      linalg.yield %892 : f32
    }
    %alloc_35 = memref.alloc() {alignment = 64 : i64} : memref<1x1024x1536xf32>
    linalg.generic {indexing_maps = [#map2, #map9, #map2], iterator_types = ["parallel", "parallel", "parallel"]} ins(%alloc_0, %alloc_34 : memref<1x1024x1536xf32>, memref<1x1024x1xf32>) outs(%alloc_35 : memref<1x1024x1536xf32>) {
    ^bb0(%in: f32, %in_4156: f32, %out: f32):
      %892 = arith.mulf %in, %in_4156 : f32
      linalg.yield %892 : f32
    }
    %expand_shape_36 = memref.expand_shape %arg4 [[0, 1, 2]] output_shape [1, 1, 1536] : memref<1536xf32, strided<[?], offset: ?>> into memref<1x1x1536xf32, strided<[?, ?, ?], offset: ?>>
    %alloc_37 = memref.alloc() {alignment = 64 : i64} : memref<1x1024x1536xf32>
    linalg.generic {indexing_maps = [#map8, #map2, #map2], iterator_types = ["parallel", "parallel", "parallel"]} ins(%expand_shape_36, %alloc_35 : memref<1x1x1536xf32, strided<[?, ?, ?], offset: ?>>, memref<1x1024x1536xf32>) outs(%alloc_37 : memref<1x1024x1536xf32>) {
    ^bb0(%in: f32, %in_4156: f32, %out: f32):
      %892 = arith.mulf %in, %in_4156 : f32
      linalg.yield %892 : f32
    }
    %collapse_shape_38 = memref.collapse_shape %alloc_37 [[0, 1], [2]] : memref<1x1024x1536xf32> into memref<1024x1536xf32>
    %23 = memref.get_global @__constant_2xi32 : memref<2xi32>
    %alloc_39 = memref.alloc() {alignment = 64 : i64} : memref<1536x1536xf32>
    linalg.transpose ins(%arg5 : memref<1536x1536xf32, strided<[?, ?], offset: ?>>) outs(%alloc_39 : memref<1536x1536xf32>) permutation = [1, 0] 
    %24 = memref.get_global @__constant_1024x1536xf32 : memref<1024x1536xf32>
    %alloc_40 = memref.alloc() {alignment = 64 : i64} : memref<1024x1536xf32>
    memref.copy %24, %alloc_40 : memref<1024x1536xf32> to memref<1024x1536xf32>
    linalg.matmul {cast = #linalg.type_fn<cast_signed>} ins(%collapse_shape_38, %alloc_39 : memref<1024x1536xf32>, memref<1536x1536xf32>) outs(%alloc_40 : memref<1024x1536xf32>)
    %expand_shape_41 = memref.expand_shape %arg6 [[0, 1]] output_shape [1, 1536] : memref<1536xf32, strided<[?], offset: ?>> into memref<1x1536xf32, strided<[?, ?], offset: ?>>
    %alloc_42 = memref.alloc() {alignment = 64 : i64} : memref<1024x1536xf32>
    linalg.generic {indexing_maps = [#map10, #map, #map], iterator_types = ["parallel", "parallel"]} ins(%expand_shape_41, %alloc_40 : memref<1x1536xf32, strided<[?, ?], offset: ?>>, memref<1024x1536xf32>) outs(%alloc_42 : memref<1024x1536xf32>) {
    ^bb0(%in: f32, %in_4156: f32, %out: f32):
      %892 = arith.addf %in, %in_4156 : f32
      linalg.yield %892 : f32
    }
    %expand_shape_43 = memref.expand_shape %alloc_42 [[0, 1], [2]] output_shape [1, 1024, 1536] : memref<1024x1536xf32> into memref<1x1024x1536xf32>
    %collapse_shape_44 = memref.collapse_shape %alloc_37 [[0, 1], [2]] : memref<1x1024x1536xf32> into memref<1024x1536xf32>
    %25 = memref.get_global @__constant_2xi32 : memref<2xi32>
    %alloc_45 = memref.alloc() {alignment = 64 : i64} : memref<1536x256xf32>
    linalg.transpose ins(%arg7 : memref<256x1536xf32, strided<[?, ?], offset: ?>>) outs(%alloc_45 : memref<1536x256xf32>) permutation = [1, 0] 
    %26 = memref.get_global @__constant_1024x256xf32 : memref<1024x256xf32>
    %alloc_46 = memref.alloc() {alignment = 64 : i64} : memref<1024x256xf32>
    memref.copy %26, %alloc_46 : memref<1024x256xf32> to memref<1024x256xf32>
    linalg.matmul {cast = #linalg.type_fn<cast_signed>} ins(%collapse_shape_44, %alloc_45 : memref<1024x1536xf32>, memref<1536x256xf32>) outs(%alloc_46 : memref<1024x256xf32>)
    %expand_shape_47 = memref.expand_shape %arg8 [[0, 1]] output_shape [1, 256] : memref<256xf32, strided<[?], offset: ?>> into memref<1x256xf32, strided<[?, ?], offset: ?>>
    %alloc_48 = memref.alloc() {alignment = 64 : i64} : memref<1024x256xf32>
    linalg.generic {indexing_maps = [#map10, #map, #map], iterator_types = ["parallel", "parallel"]} ins(%expand_shape_47, %alloc_46 : memref<1x256xf32, strided<[?, ?], offset: ?>>, memref<1024x256xf32>) outs(%alloc_48 : memref<1024x256xf32>) {
    ^bb0(%in: f32, %in_4156: f32, %out: f32):
      %892 = arith.addf %in, %in_4156 : f32
      linalg.yield %892 : f32
    }
    %expand_shape_49 = memref.expand_shape %alloc_48 [[0, 1], [2]] output_shape [1, 1024, 256] : memref<1024x256xf32> into memref<1x1024x256xf32>
    %collapse_shape_50 = memref.collapse_shape %alloc_37 [[0, 1], [2]] : memref<1x1024x1536xf32> into memref<1024x1536xf32>
    %27 = memref.get_global @__constant_2xi32 : memref<2xi32>
    %alloc_51 = memref.alloc() {alignment = 64 : i64} : memref<1536x256xf32>
    linalg.transpose ins(%arg9 : memref<256x1536xf32, strided<[?, ?], offset: ?>>) outs(%alloc_51 : memref<1536x256xf32>) permutation = [1, 0] 
    %28 = memref.get_global @__constant_1024x256xf32 : memref<1024x256xf32>
    %alloc_52 = memref.alloc() {alignment = 64 : i64} : memref<1024x256xf32>
    memref.copy %28, %alloc_52 : memref<1024x256xf32> to memref<1024x256xf32>
    linalg.matmul {cast = #linalg.type_fn<cast_signed>} ins(%collapse_shape_50, %alloc_51 : memref<1024x1536xf32>, memref<1536x256xf32>) outs(%alloc_52 : memref<1024x256xf32>)
    %expand_shape_53 = memref.expand_shape %arg10 [[0, 1]] output_shape [1, 256] : memref<256xf32, strided<[?], offset: ?>> into memref<1x256xf32, strided<[?, ?], offset: ?>>
    %alloc_54 = memref.alloc() {alignment = 64 : i64} : memref<1024x256xf32>
    linalg.generic {indexing_maps = [#map10, #map, #map], iterator_types = ["parallel", "parallel"]} ins(%expand_shape_53, %alloc_52 : memref<1x256xf32, strided<[?, ?], offset: ?>>, memref<1024x256xf32>) outs(%alloc_54 : memref<1024x256xf32>) {
    ^bb0(%in: f32, %in_4156: f32, %out: f32):
      %892 = arith.addf %in, %in_4156 : f32
      linalg.yield %892 : f32
    }
    %expand_shape_55 = memref.expand_shape %alloc_54 [[0, 1], [2]] output_shape [1, 1024, 256] : memref<1024x256xf32> into memref<1x1024x256xf32>
    %expand_shape_56 = memref.expand_shape %alloc_42 [[0, 1], [2, 3]] output_shape [1, 1024, 12, 128] : memref<1024x1536xf32> into memref<1x1024x12x128xf32>
    %29 = memref.get_global @__constant_4xi32 : memref<4xi32>
    %alloc_57 = memref.alloc() {alignment = 64 : i64} : memref<1x12x1024x128xf32>
    linalg.transpose ins(%expand_shape_56 : memref<1x1024x12x128xf32>) outs(%alloc_57 : memref<1x12x1024x128xf32>) permutation = [0, 2, 1, 3] 
    %expand_shape_58 = memref.expand_shape %alloc_48 [[0, 1], [2, 3]] output_shape [1, 1024, 2, 128] : memref<1024x256xf32> into memref<1x1024x2x128xf32>
    %30 = memref.get_global @__constant_4xi32 : memref<4xi32>
    %alloc_59 = memref.alloc() {alignment = 64 : i64} : memref<1x2x1024x128xf32>
    linalg.transpose ins(%expand_shape_58 : memref<1x1024x2x128xf32>) outs(%alloc_59 : memref<1x2x1024x128xf32>) permutation = [0, 2, 1, 3] 
    %expand_shape_60 = memref.expand_shape %alloc_54 [[0, 1], [2, 3]] output_shape [1, 1024, 2, 128] : memref<1024x256xf32> into memref<1x1024x2x128xf32>
    %31 = memref.get_global @__constant_4xi32 : memref<4xi32>
    %alloc_61 = memref.alloc() {alignment = 64 : i64} : memref<1x2x1024x128xf32>
    linalg.transpose ins(%expand_shape_60 : memref<1x1024x2x128xf32>) outs(%alloc_61 : memref<1x2x1024x128xf32>) permutation = [0, 2, 1, 3] 
    %expand_shape_62 = memref.expand_shape %alloc_26 [[0, 1], [2], [3]] output_shape [1, 1, 1024, 128] : memref<1x1024x128xf32> into memref<1x1x1024x128xf32>
    %expand_shape_63 = memref.expand_shape %alloc_27 [[0, 1], [2], [3]] output_shape [1, 1, 1024, 128] : memref<1x1024x128xf32> into memref<1x1x1024x128xf32>
    %alloc_64 = memref.alloc() {alignment = 64 : i64} : memref<1x12x1024x128xf32>
    linalg.generic {indexing_maps = [#map5, #map11, #map5], iterator_types = ["parallel", "parallel", "parallel", "parallel"]} ins(%alloc_57, %expand_shape_62 : memref<1x12x1024x128xf32>, memref<1x1x1024x128xf32>) outs(%alloc_64 : memref<1x12x1024x128xf32>) {
    ^bb0(%in: f32, %in_4156: f32, %out: f32):
      %892 = arith.mulf %in, %in_4156 : f32
      linalg.yield %892 : f32
    }
    %subview = memref.subview %alloc_57[0, 0, 0, 0] [1, 12, 1024, 64] [1, 1, 1, 1] : memref<1x12x1024x128xf32> to memref<1x12x1024x64xf32, strided<[1572864, 131072, 128, 1]>>
    %subview_65 = memref.subview %alloc_57[0, 0, 0, 64] [1, 12, 1024, 64] [1, 1, 1, 1] : memref<1x12x1024x128xf32> to memref<1x12x1024x64xf32, strided<[1572864, 131072, 128, 1], offset: 64>>
    %alloc_66 = memref.alloc() {alignment = 64 : i64} : memref<1x12x1024x64xf32>
    linalg.negf ins(%subview_65 : memref<1x12x1024x64xf32, strided<[1572864, 131072, 128, 1], offset: 64>>) outs(%alloc_66 : memref<1x12x1024x64xf32>)
    %alloc_67 = memref.alloc() {alignment = 64 : i64} : memref<1x12x1024x128xf32>
    %subview_68 = memref.subview %alloc_67[0, 0, 0, 0] [1, 12, 1024, 64] [1, 1, 1, 1] : memref<1x12x1024x128xf32> to memref<1x12x1024x64xf32, strided<[1572864, 131072, 128, 1]>>
    memref.copy %alloc_66, %subview_68 : memref<1x12x1024x64xf32> to memref<1x12x1024x64xf32, strided<[1572864, 131072, 128, 1]>>
    %subview_69 = memref.subview %alloc_67[0, 0, 0, 64] [1, 12, 1024, 64] [1, 1, 1, 1] : memref<1x12x1024x128xf32> to memref<1x12x1024x64xf32, strided<[1572864, 131072, 128, 1], offset: 64>>
    memref.copy %subview, %subview_69 : memref<1x12x1024x64xf32, strided<[1572864, 131072, 128, 1]>> to memref<1x12x1024x64xf32, strided<[1572864, 131072, 128, 1], offset: 64>>
    %alloc_70 = memref.alloc() {alignment = 64 : i64} : memref<1x12x1024x128xf32>
    linalg.generic {indexing_maps = [#map5, #map11, #map5], iterator_types = ["parallel", "parallel", "parallel", "parallel"]} ins(%alloc_67, %expand_shape_63 : memref<1x12x1024x128xf32>, memref<1x1x1024x128xf32>) outs(%alloc_70 : memref<1x12x1024x128xf32>) {
    ^bb0(%in: f32, %in_4156: f32, %out: f32):
      %892 = arith.mulf %in, %in_4156 : f32
      linalg.yield %892 : f32
    }
    %alloc_71 = memref.alloc() {alignment = 64 : i64} : memref<1x12x1024x128xf32>
    linalg.generic {indexing_maps = [#map5, #map5, #map5], iterator_types = ["parallel", "parallel", "parallel", "parallel"]} ins(%alloc_64, %alloc_70 : memref<1x12x1024x128xf32>, memref<1x12x1024x128xf32>) outs(%alloc_71 : memref<1x12x1024x128xf32>) {
    ^bb0(%in: f32, %in_4156: f32, %out: f32):
      %892 = arith.addf %in, %in_4156 : f32
      linalg.yield %892 : f32
    }
    %alloc_72 = memref.alloc() {alignment = 64 : i64} : memref<1x2x1024x128xf32>
    linalg.generic {indexing_maps = [#map5, #map11, #map5], iterator_types = ["parallel", "parallel", "parallel", "parallel"]} ins(%alloc_59, %expand_shape_62 : memref<1x2x1024x128xf32>, memref<1x1x1024x128xf32>) outs(%alloc_72 : memref<1x2x1024x128xf32>) {
    ^bb0(%in: f32, %in_4156: f32, %out: f32):
      %892 = arith.mulf %in, %in_4156 : f32
      linalg.yield %892 : f32
    }
    %subview_73 = memref.subview %alloc_59[0, 0, 0, 0] [1, 2, 1024, 64] [1, 1, 1, 1] : memref<1x2x1024x128xf32> to memref<1x2x1024x64xf32, strided<[262144, 131072, 128, 1]>>
    %subview_74 = memref.subview %alloc_59[0, 0, 0, 64] [1, 2, 1024, 64] [1, 1, 1, 1] : memref<1x2x1024x128xf32> to memref<1x2x1024x64xf32, strided<[262144, 131072, 128, 1], offset: 64>>
    %alloc_75 = memref.alloc() {alignment = 64 : i64} : memref<1x2x1024x64xf32>
    linalg.negf ins(%subview_74 : memref<1x2x1024x64xf32, strided<[262144, 131072, 128, 1], offset: 64>>) outs(%alloc_75 : memref<1x2x1024x64xf32>)
    %alloc_76 = memref.alloc() {alignment = 64 : i64} : memref<1x2x1024x128xf32>
    %subview_77 = memref.subview %alloc_76[0, 0, 0, 0] [1, 2, 1024, 64] [1, 1, 1, 1] : memref<1x2x1024x128xf32> to memref<1x2x1024x64xf32, strided<[262144, 131072, 128, 1]>>
    memref.copy %alloc_75, %subview_77 : memref<1x2x1024x64xf32> to memref<1x2x1024x64xf32, strided<[262144, 131072, 128, 1]>>
    %subview_78 = memref.subview %alloc_76[0, 0, 0, 64] [1, 2, 1024, 64] [1, 1, 1, 1] : memref<1x2x1024x128xf32> to memref<1x2x1024x64xf32, strided<[262144, 131072, 128, 1], offset: 64>>
    memref.copy %subview_73, %subview_78 : memref<1x2x1024x64xf32, strided<[262144, 131072, 128, 1]>> to memref<1x2x1024x64xf32, strided<[262144, 131072, 128, 1], offset: 64>>
    %alloc_79 = memref.alloc() {alignment = 64 : i64} : memref<1x2x1024x128xf32>
    linalg.generic {indexing_maps = [#map5, #map11, #map5], iterator_types = ["parallel", "parallel", "parallel", "parallel"]} ins(%alloc_76, %expand_shape_63 : memref<1x2x1024x128xf32>, memref<1x1x1024x128xf32>) outs(%alloc_79 : memref<1x2x1024x128xf32>) {
    ^bb0(%in: f32, %in_4156: f32, %out: f32):
      %892 = arith.mulf %in, %in_4156 : f32
      linalg.yield %892 : f32
    }
    %alloc_80 = memref.alloc() {alignment = 64 : i64} : memref<1x2x1024x128xf32>
    linalg.generic {indexing_maps = [#map5, #map5, #map5], iterator_types = ["parallel", "parallel", "parallel", "parallel"]} ins(%alloc_72, %alloc_79 : memref<1x2x1024x128xf32>, memref<1x2x1024x128xf32>) outs(%alloc_80 : memref<1x2x1024x128xf32>) {
    ^bb0(%in: f32, %in_4156: f32, %out: f32):
      %892 = arith.addf %in, %in_4156 : f32
      linalg.yield %892 : f32
    }
    %expand_shape_81 = memref.expand_shape %alloc_80 [[0], [1, 2], [3], [4]] output_shape [1, 2, 1, 1024, 128] : memref<1x2x1024x128xf32> into memref<1x2x1x1024x128xf32>
    %32 = memref.get_global @__constant_1x2x6x1024x128xf32 : memref<1x2x6x1024x128xf32>
    %alloc_82 = memref.alloc() {alignment = 64 : i64} : memref<1x2x6x1024x128xf32>
    linalg.generic {indexing_maps = [#map12, #map13, #map13], iterator_types = ["parallel", "parallel", "parallel", "parallel", "parallel"]} ins(%expand_shape_81, %32 : memref<1x2x1x1024x128xf32>, memref<1x2x6x1024x128xf32>) outs(%alloc_82 : memref<1x2x6x1024x128xf32>) {
    ^bb0(%in: f32, %in_4156: f32, %out: f32):
      %892 = arith.addf %in, %in_4156 : f32
      linalg.yield %892 : f32
    }
    %collapse_shape_83 = memref.collapse_shape %alloc_82 [[0], [1, 2], [3], [4]] : memref<1x2x6x1024x128xf32> into memref<1x12x1024x128xf32>
    %expand_shape_84 = memref.expand_shape %alloc_61 [[0], [1, 2], [3], [4]] output_shape [1, 2, 1, 1024, 128] : memref<1x2x1024x128xf32> into memref<1x2x1x1024x128xf32>
    %33 = memref.get_global @__constant_1x2x6x1024x128xf32 : memref<1x2x6x1024x128xf32>
    %alloc_85 = memref.alloc() {alignment = 64 : i64} : memref<1x2x6x1024x128xf32>
    linalg.generic {indexing_maps = [#map12, #map13, #map13], iterator_types = ["parallel", "parallel", "parallel", "parallel", "parallel"]} ins(%expand_shape_84, %33 : memref<1x2x1x1024x128xf32>, memref<1x2x6x1024x128xf32>) outs(%alloc_85 : memref<1x2x6x1024x128xf32>) {
    ^bb0(%in: f32, %in_4156: f32, %out: f32):
      %892 = arith.addf %in, %in_4156 : f32
      linalg.yield %892 : f32
    }
    %collapse_shape_86 = memref.collapse_shape %alloc_85 [[0], [1, 2], [3], [4]] : memref<1x2x6x1024x128xf32> into memref<1x12x1024x128xf32>
    %cst_87 = arith.constant 0.000000e+00 : f32
    %34 = memref.get_global @__constant_1024x1024xf32_0 : memref<1024x1024xf32>
    %collapse_shape_88 = memref.collapse_shape %expand_shape_5 [[0, 1, 2], [3]] : memref<1x1x1024x1024xf32> into memref<1024x1024xf32>
    %alloc_89 = memref.alloc() {alignment = 64 : i64} : memref<1024x1024xf32>
    linalg.generic {indexing_maps = [#map, #map, #map], iterator_types = ["parallel", "parallel"]} ins(%34, %collapse_shape_88 : memref<1024x1024xf32>, memref<1024x1024xf32>) outs(%alloc_89 : memref<1024x1024xf32>) {
    ^bb0(%in: f32, %in_4156: f32, %out: f32):
      %892 = arith.addf %in, %in_4156 : f32
      linalg.yield %892 : f32
    }
    %35 = memref.get_global @__constant_4xi32_0 : memref<4xi32>
    %alloc_90 = memref.alloc() {alignment = 64 : i64} : memref<1x12x128x1024xf32>
    linalg.transpose ins(%collapse_shape_83 : memref<1x12x1024x128xf32>) outs(%alloc_90 : memref<1x12x128x1024xf32>) permutation = [0, 1, 3, 2] 
    %collapse_shape_91 = memref.collapse_shape %alloc_71 [[0, 1], [2], [3]] : memref<1x12x1024x128xf32> into memref<12x1024x128xf32>
    %collapse_shape_92 = memref.collapse_shape %alloc_90 [[0, 1], [2], [3]] : memref<1x12x128x1024xf32> into memref<12x128x1024xf32>
    %cst_93 = arith.constant 0.000000e+00 : f32
    %alloc_94 = memref.alloc() {alignment = 64 : i64} : memref<12x1024x1024xf32>
    linalg.fill ins(%cst_93 : f32) outs(%alloc_94 : memref<12x1024x1024xf32>)
    %c0_95 = arith.constant 0 : index
    %c1_96 = arith.constant 1 : index
    %c2_97 = arith.constant 2 : index
    %c3_98 = arith.constant 3 : index
    %c4_99 = arith.constant 4 : index
    %c5_100 = arith.constant 5 : index
    %c6_101 = arith.constant 6 : index
    %c7_102 = arith.constant 7 : index
    %c8_103 = arith.constant 8 : index
    %c32_104 = arith.constant 32 : index
    %dim_105 = memref.dim %collapse_shape_91, %c0_95 : memref<12x1024x128xf32>
    %dim_106 = memref.dim %collapse_shape_91, %c1_96 : memref<12x1024x128xf32>
    %dim_107 = memref.dim %collapse_shape_91, %c2_97 : memref<12x1024x128xf32>
    %dim_108 = memref.dim %alloc_94, %c2_97 : memref<12x1024x1024xf32>
    %36 = arith.subi %dim_108, %c32_104 : index
    %37 = arith.addi %36, %c1_96 : index
    scf.parallel (%arg342, %arg343) = (%c0_95, %c0_95) to (%dim_105, %dim_106) step (%c1_96, %c8_103) {
      %892 = arith.addi %arg343, %c1_96 : index
      %893 = arith.addi %arg343, %c2_97 : index
      %894 = arith.addi %arg343, %c3_98 : index
      %895 = arith.addi %arg343, %c4_99 : index
      %896 = arith.addi %arg343, %c5_100 : index
      %897 = arith.addi %arg343, %c6_101 : index
      %898 = arith.addi %arg343, %c7_102 : index
      %899 = scf.for %arg344 = %c0_95 to %37 step %c32_104 iter_args(%arg345 = %c0_95) -> (index) {
        %900 = vector.load %alloc_94[%arg342, %arg343, %arg344] : memref<12x1024x1024xf32>, vector<32xf32>
        %901 = vector.load %alloc_94[%arg342, %892, %arg344] : memref<12x1024x1024xf32>, vector<32xf32>
        %902 = vector.load %alloc_94[%arg342, %893, %arg344] : memref<12x1024x1024xf32>, vector<32xf32>
        %903 = vector.load %alloc_94[%arg342, %894, %arg344] : memref<12x1024x1024xf32>, vector<32xf32>
        %904 = vector.load %alloc_94[%arg342, %895, %arg344] : memref<12x1024x1024xf32>, vector<32xf32>
        %905 = vector.load %alloc_94[%arg342, %896, %arg344] : memref<12x1024x1024xf32>, vector<32xf32>
        %906 = vector.load %alloc_94[%arg342, %897, %arg344] : memref<12x1024x1024xf32>, vector<32xf32>
        %907 = vector.load %alloc_94[%arg342, %898, %arg344] : memref<12x1024x1024xf32>, vector<32xf32>
        %908:8 = scf.for %arg346 = %c0_95 to %dim_107 step %c1_96 iter_args(%arg347 = %900, %arg348 = %901, %arg349 = %902, %arg350 = %903, %arg351 = %904, %arg352 = %905, %arg353 = %906, %arg354 = %907) -> (vector<32xf32>, vector<32xf32>, vector<32xf32>, vector<32xf32>, vector<32xf32>, vector<32xf32>, vector<32xf32>, vector<32xf32>) {
          %910 = memref.load %collapse_shape_91[%arg342, %arg343, %arg346] : memref<12x1024x128xf32>
          %911 = memref.load %collapse_shape_91[%arg342, %892, %arg346] : memref<12x1024x128xf32>
          %912 = memref.load %collapse_shape_91[%arg342, %893, %arg346] : memref<12x1024x128xf32>
          %913 = memref.load %collapse_shape_91[%arg342, %894, %arg346] : memref<12x1024x128xf32>
          %914 = memref.load %collapse_shape_91[%arg342, %895, %arg346] : memref<12x1024x128xf32>
          %915 = memref.load %collapse_shape_91[%arg342, %896, %arg346] : memref<12x1024x128xf32>
          %916 = memref.load %collapse_shape_91[%arg342, %897, %arg346] : memref<12x1024x128xf32>
          %917 = memref.load %collapse_shape_91[%arg342, %898, %arg346] : memref<12x1024x128xf32>
          %918 = vector.broadcast %910 : f32 to vector<32xf32>
          %919 = vector.broadcast %911 : f32 to vector<32xf32>
          %920 = vector.broadcast %912 : f32 to vector<32xf32>
          %921 = vector.broadcast %913 : f32 to vector<32xf32>
          %922 = vector.broadcast %914 : f32 to vector<32xf32>
          %923 = vector.broadcast %915 : f32 to vector<32xf32>
          %924 = vector.broadcast %916 : f32 to vector<32xf32>
          %925 = vector.broadcast %917 : f32 to vector<32xf32>
          %926 = vector.load %collapse_shape_92[%arg342, %arg346, %arg344] : memref<12x128x1024xf32>, vector<32xf32>
          %927 = vector.fma %918, %926, %arg347 : vector<32xf32>
          %928 = vector.fma %919, %926, %arg348 : vector<32xf32>
          %929 = vector.fma %920, %926, %arg349 : vector<32xf32>
          %930 = vector.fma %921, %926, %arg350 : vector<32xf32>
          %931 = vector.fma %922, %926, %arg351 : vector<32xf32>
          %932 = vector.fma %923, %926, %arg352 : vector<32xf32>
          %933 = vector.fma %924, %926, %arg353 : vector<32xf32>
          %934 = vector.fma %925, %926, %arg354 : vector<32xf32>
          scf.yield %927, %928, %929, %930, %931, %932, %933, %934 : vector<32xf32>, vector<32xf32>, vector<32xf32>, vector<32xf32>, vector<32xf32>, vector<32xf32>, vector<32xf32>, vector<32xf32>
        }
        vector.store %908#0, %alloc_94[%arg342, %arg343, %arg344] : memref<12x1024x1024xf32>, vector<32xf32>
        vector.store %908#1, %alloc_94[%arg342, %892, %arg344] : memref<12x1024x1024xf32>, vector<32xf32>
        vector.store %908#2, %alloc_94[%arg342, %893, %arg344] : memref<12x1024x1024xf32>, vector<32xf32>
        vector.store %908#3, %alloc_94[%arg342, %894, %arg344] : memref<12x1024x1024xf32>, vector<32xf32>
        vector.store %908#4, %alloc_94[%arg342, %895, %arg344] : memref<12x1024x1024xf32>, vector<32xf32>
        vector.store %908#5, %alloc_94[%arg342, %896, %arg344] : memref<12x1024x1024xf32>, vector<32xf32>
        vector.store %908#6, %alloc_94[%arg342, %897, %arg344] : memref<12x1024x1024xf32>, vector<32xf32>
        vector.store %908#7, %alloc_94[%arg342, %898, %arg344] : memref<12x1024x1024xf32>, vector<32xf32>
        %909 = arith.addi %arg344, %c32_104 : index
        scf.yield %909 : index
      }
      scf.for %arg344 = %899 to %dim_108 step %c1_96 {
        %900 = memref.load %alloc_94[%arg342, %arg343, %arg344] : memref<12x1024x1024xf32>
        %901 = memref.load %alloc_94[%arg342, %892, %arg344] : memref<12x1024x1024xf32>
        %902 = memref.load %alloc_94[%arg342, %893, %arg344] : memref<12x1024x1024xf32>
        %903 = memref.load %alloc_94[%arg342, %894, %arg344] : memref<12x1024x1024xf32>
        %904 = memref.load %alloc_94[%arg342, %895, %arg344] : memref<12x1024x1024xf32>
        %905 = memref.load %alloc_94[%arg342, %896, %arg344] : memref<12x1024x1024xf32>
        %906 = memref.load %alloc_94[%arg342, %897, %arg344] : memref<12x1024x1024xf32>
        %907 = memref.load %alloc_94[%arg342, %898, %arg344] : memref<12x1024x1024xf32>
        %908:8 = scf.for %arg345 = %c0_95 to %dim_107 step %c1_96 iter_args(%arg346 = %900, %arg347 = %901, %arg348 = %902, %arg349 = %903, %arg350 = %904, %arg351 = %905, %arg352 = %906, %arg353 = %907) -> (f32, f32, f32, f32, f32, f32, f32, f32) {
          %909 = memref.load %collapse_shape_91[%arg342, %arg343, %arg345] : memref<12x1024x128xf32>
          %910 = memref.load %collapse_shape_91[%arg342, %892, %arg345] : memref<12x1024x128xf32>
          %911 = memref.load %collapse_shape_91[%arg342, %893, %arg345] : memref<12x1024x128xf32>
          %912 = memref.load %collapse_shape_91[%arg342, %894, %arg345] : memref<12x1024x128xf32>
          %913 = memref.load %collapse_shape_91[%arg342, %895, %arg345] : memref<12x1024x128xf32>
          %914 = memref.load %collapse_shape_91[%arg342, %896, %arg345] : memref<12x1024x128xf32>
          %915 = memref.load %collapse_shape_91[%arg342, %897, %arg345] : memref<12x1024x128xf32>
          %916 = memref.load %collapse_shape_91[%arg342, %898, %arg345] : memref<12x1024x128xf32>
          %917 = memref.load %collapse_shape_92[%arg342, %arg345, %arg344] : memref<12x128x1024xf32>
          %918 = arith.mulf %909, %917 : f32
          %919 = arith.mulf %910, %917 : f32
          %920 = arith.mulf %911, %917 : f32
          %921 = arith.mulf %912, %917 : f32
          %922 = arith.mulf %913, %917 : f32
          %923 = arith.mulf %914, %917 : f32
          %924 = arith.mulf %915, %917 : f32
          %925 = arith.mulf %916, %917 : f32
          %926 = arith.addf %918, %arg346 : f32
          %927 = arith.addf %919, %arg347 : f32
          %928 = arith.addf %920, %arg348 : f32
          %929 = arith.addf %921, %arg349 : f32
          %930 = arith.addf %922, %arg350 : f32
          %931 = arith.addf %923, %arg351 : f32
          %932 = arith.addf %924, %arg352 : f32
          %933 = arith.addf %925, %arg353 : f32
          scf.yield %926, %927, %928, %929, %930, %931, %932, %933 : f32, f32, f32, f32, f32, f32, f32, f32
        }
        memref.store %908#0, %alloc_94[%arg342, %arg343, %arg344] : memref<12x1024x1024xf32>
        memref.store %908#1, %alloc_94[%arg342, %892, %arg344] : memref<12x1024x1024xf32>
        memref.store %908#2, %alloc_94[%arg342, %893, %arg344] : memref<12x1024x1024xf32>
        memref.store %908#3, %alloc_94[%arg342, %894, %arg344] : memref<12x1024x1024xf32>
        memref.store %908#4, %alloc_94[%arg342, %895, %arg344] : memref<12x1024x1024xf32>
        memref.store %908#5, %alloc_94[%arg342, %896, %arg344] : memref<12x1024x1024xf32>
        memref.store %908#6, %alloc_94[%arg342, %897, %arg344] : memref<12x1024x1024xf32>
        memref.store %908#7, %alloc_94[%arg342, %898, %arg344] : memref<12x1024x1024xf32>
      }
      scf.reduce 
    }
    %cst_109 = arith.constant 0.0883883461 : f32
    %38 = memref.get_global @__constant_12x1024x1024xf32 : memref<12x1024x1024xf32>
    %alloc_110 = memref.alloc() {alignment = 64 : i64} : memref<12x1024x1024xf32>
    linalg.generic {indexing_maps = [#map2, #map2, #map2], iterator_types = ["parallel", "parallel", "parallel"]} ins(%alloc_94, %38 : memref<12x1024x1024xf32>, memref<12x1024x1024xf32>) outs(%alloc_110 : memref<12x1024x1024xf32>) {
    ^bb0(%in: f32, %in_4156: f32, %out: f32):
      %892 = arith.mulf %in, %in_4156 : f32
      linalg.yield %892 : f32
    }
    %expand_shape_111 = memref.expand_shape %alloc_89 [[0, 1], [2]] output_shape [1, 1024, 1024] : memref<1024x1024xf32> into memref<1x1024x1024xf32>
    %alloc_112 = memref.alloc() {alignment = 64 : i64} : memref<12x1024x1024xf32>
    linalg.generic {indexing_maps = [#map2, #map14, #map2], iterator_types = ["parallel", "parallel", "parallel"]} ins(%alloc_110, %expand_shape_111 : memref<12x1024x1024xf32>, memref<1x1024x1024xf32>) outs(%alloc_112 : memref<12x1024x1024xf32>) {
    ^bb0(%in: f32, %in_4156: f32, %out: f32):
      %892 = arith.addf %in, %in_4156 : f32
      linalg.yield %892 : f32
    }
    %alloc_113 = memref.alloc() {alignment = 64 : i64} : memref<12x1024xf32>
    %cst_114 = arith.constant -3.40282347E+38 : f32
    linalg.fill ins(%cst_114 : f32) outs(%alloc_113 : memref<12x1024xf32>)
    linalg.reduce ins(%alloc_112 : memref<12x1024x1024xf32>) outs(%alloc_113 : memref<12x1024xf32>) dimensions = [2] 
      (%in: f32, %init: f32) {
        %892 = arith.maximumf %in, %init : f32
        linalg.yield %892 : f32
      }
    %expand_shape_115 = memref.expand_shape %alloc_113 [[0], [1, 2]] output_shape [12, 1024, 1] : memref<12x1024xf32> into memref<12x1024x1xf32>
    %alloc_116 = memref.alloc() {alignment = 64 : i64} : memref<12x1024x1024xf32>
    linalg.generic {indexing_maps = [#map2, #map9, #map2], iterator_types = ["parallel", "parallel", "parallel"]} ins(%alloc_112, %expand_shape_115 : memref<12x1024x1024xf32>, memref<12x1024x1xf32>) outs(%alloc_116 : memref<12x1024x1024xf32>) {
    ^bb0(%in: f32, %in_4156: f32, %out: f32):
      %892 = arith.subf %in, %in_4156 : f32
      linalg.yield %892 : f32
    }
    linalg.generic {indexing_maps = [#map2, #map2], iterator_types = ["parallel", "parallel", "parallel"]} ins(%alloc_116 : memref<12x1024x1024xf32>) outs(%alloc_116 : memref<12x1024x1024xf32>) {
    ^bb0(%in: f32, %out: f32):
      %892 = math.exp %in : f32
      linalg.yield %892 : f32
    }
    %alloc_117 = memref.alloc() {alignment = 64 : i64} : memref<12x1024xf32>
    %cst_118 = arith.constant 0.000000e+00 : f32
    linalg.fill ins(%cst_118 : f32) outs(%alloc_117 : memref<12x1024xf32>)
    linalg.reduce ins(%alloc_116 : memref<12x1024x1024xf32>) outs(%alloc_117 : memref<12x1024xf32>) dimensions = [2] 
      (%in: f32, %init: f32) {
        %892 = arith.addf %in, %init : f32
        linalg.yield %892 : f32
      }
    %expand_shape_119 = memref.expand_shape %alloc_117 [[0], [1, 2]] output_shape [12, 1024, 1] : memref<12x1024xf32> into memref<12x1024x1xf32>
    %alloc_120 = memref.alloc() {alignment = 64 : i64} : memref<12x1024x1xf32>
    linalg.generic {indexing_maps = [#map2, #map2], iterator_types = ["parallel", "parallel", "parallel"]} ins(%expand_shape_119 : memref<12x1024x1xf32>) outs(%alloc_120 : memref<12x1024x1xf32>) {
    ^bb0(%in: f32, %out: f32):
      %892 = math.log %in : f32
      linalg.yield %892 : f32
    }
    %alloc_121 = memref.alloc() {alignment = 64 : i64} : memref<12x1024x1xf32>
    linalg.generic {indexing_maps = [#map2, #map2, #map2], iterator_types = ["parallel", "parallel", "parallel"]} ins(%expand_shape_115, %alloc_120 : memref<12x1024x1xf32>, memref<12x1024x1xf32>) outs(%alloc_121 : memref<12x1024x1xf32>) {
    ^bb0(%in: f32, %in_4156: f32, %out: f32):
      %892 = arith.addf %in, %in_4156 : f32
      linalg.yield %892 : f32
    }
    %alloc_122 = memref.alloc() {alignment = 64 : i64} : memref<12x1024x1024xf32>
    linalg.generic {indexing_maps = [#map2, #map9, #map2], iterator_types = ["parallel", "parallel", "parallel"]} ins(%alloc_112, %alloc_121 : memref<12x1024x1024xf32>, memref<12x1024x1xf32>) outs(%alloc_122 : memref<12x1024x1024xf32>) {
    ^bb0(%in: f32, %in_4156: f32, %out: f32):
      %892 = arith.subf %in, %in_4156 : f32
      linalg.yield %892 : f32
    }
    linalg.generic {indexing_maps = [#map2, #map2], iterator_types = ["parallel", "parallel", "parallel"]} ins(%alloc_122 : memref<12x1024x1024xf32>) outs(%alloc_122 : memref<12x1024x1024xf32>) {
    ^bb0(%in: f32, %out: f32):
      %892 = math.exp %in : f32
      linalg.yield %892 : f32
    }
    %collapse_shape_123 = memref.collapse_shape %alloc_121 [[0], [1, 2]] : memref<12x1024x1xf32> into memref<12x1024xf32>
    %expand_shape_124 = memref.expand_shape %collapse_shape_123 [[0, 1], [2]] output_shape [1, 12, 1024] : memref<12x1024xf32> into memref<1x12x1024xf32>
    %collapse_shape_125 = memref.collapse_shape %alloc_85 [[0, 1, 2], [3], [4]] : memref<1x2x6x1024x128xf32> into memref<12x1024x128xf32>
    %cst_126 = arith.constant 0.000000e+00 : f32
    %alloc_127 = memref.alloc() {alignment = 64 : i64} : memref<12x1024x128xf32>
    linalg.fill ins(%cst_126 : f32) outs(%alloc_127 : memref<12x1024x128xf32>)
    %c0_128 = arith.constant 0 : index
    %c1_129 = arith.constant 1 : index
    %c2_130 = arith.constant 2 : index
    %c3_131 = arith.constant 3 : index
    %c4_132 = arith.constant 4 : index
    %c5_133 = arith.constant 5 : index
    %c6_134 = arith.constant 6 : index
    %c7_135 = arith.constant 7 : index
    %c8_136 = arith.constant 8 : index
    %c32_137 = arith.constant 32 : index
    %dim_138 = memref.dim %alloc_122, %c0_128 : memref<12x1024x1024xf32>
    %dim_139 = memref.dim %alloc_122, %c1_129 : memref<12x1024x1024xf32>
    %dim_140 = memref.dim %alloc_122, %c2_130 : memref<12x1024x1024xf32>
    %dim_141 = memref.dim %alloc_127, %c2_130 : memref<12x1024x128xf32>
    %39 = arith.subi %dim_141, %c32_137 : index
    %40 = arith.addi %39, %c1_129 : index
    scf.parallel (%arg342, %arg343) = (%c0_128, %c0_128) to (%dim_138, %dim_139) step (%c1_129, %c8_136) {
      %892 = arith.addi %arg343, %c1_129 : index
      %893 = arith.addi %arg343, %c2_130 : index
      %894 = arith.addi %arg343, %c3_131 : index
      %895 = arith.addi %arg343, %c4_132 : index
      %896 = arith.addi %arg343, %c5_133 : index
      %897 = arith.addi %arg343, %c6_134 : index
      %898 = arith.addi %arg343, %c7_135 : index
      %899 = scf.for %arg344 = %c0_128 to %40 step %c32_137 iter_args(%arg345 = %c0_128) -> (index) {
        %900 = vector.load %alloc_127[%arg342, %arg343, %arg344] : memref<12x1024x128xf32>, vector<32xf32>
        %901 = vector.load %alloc_127[%arg342, %892, %arg344] : memref<12x1024x128xf32>, vector<32xf32>
        %902 = vector.load %alloc_127[%arg342, %893, %arg344] : memref<12x1024x128xf32>, vector<32xf32>
        %903 = vector.load %alloc_127[%arg342, %894, %arg344] : memref<12x1024x128xf32>, vector<32xf32>
        %904 = vector.load %alloc_127[%arg342, %895, %arg344] : memref<12x1024x128xf32>, vector<32xf32>
        %905 = vector.load %alloc_127[%arg342, %896, %arg344] : memref<12x1024x128xf32>, vector<32xf32>
        %906 = vector.load %alloc_127[%arg342, %897, %arg344] : memref<12x1024x128xf32>, vector<32xf32>
        %907 = vector.load %alloc_127[%arg342, %898, %arg344] : memref<12x1024x128xf32>, vector<32xf32>
        %908:8 = scf.for %arg346 = %c0_128 to %dim_140 step %c1_129 iter_args(%arg347 = %900, %arg348 = %901, %arg349 = %902, %arg350 = %903, %arg351 = %904, %arg352 = %905, %arg353 = %906, %arg354 = %907) -> (vector<32xf32>, vector<32xf32>, vector<32xf32>, vector<32xf32>, vector<32xf32>, vector<32xf32>, vector<32xf32>, vector<32xf32>) {
          %910 = memref.load %alloc_122[%arg342, %arg343, %arg346] : memref<12x1024x1024xf32>
          %911 = memref.load %alloc_122[%arg342, %892, %arg346] : memref<12x1024x1024xf32>
          %912 = memref.load %alloc_122[%arg342, %893, %arg346] : memref<12x1024x1024xf32>
          %913 = memref.load %alloc_122[%arg342, %894, %arg346] : memref<12x1024x1024xf32>
          %914 = memref.load %alloc_122[%arg342, %895, %arg346] : memref<12x1024x1024xf32>
          %915 = memref.load %alloc_122[%arg342, %896, %arg346] : memref<12x1024x1024xf32>
          %916 = memref.load %alloc_122[%arg342, %897, %arg346] : memref<12x1024x1024xf32>
          %917 = memref.load %alloc_122[%arg342, %898, %arg346] : memref<12x1024x1024xf32>
          %918 = vector.broadcast %910 : f32 to vector<32xf32>
          %919 = vector.broadcast %911 : f32 to vector<32xf32>
          %920 = vector.broadcast %912 : f32 to vector<32xf32>
          %921 = vector.broadcast %913 : f32 to vector<32xf32>
          %922 = vector.broadcast %914 : f32 to vector<32xf32>
          %923 = vector.broadcast %915 : f32 to vector<32xf32>
          %924 = vector.broadcast %916 : f32 to vector<32xf32>
          %925 = vector.broadcast %917 : f32 to vector<32xf32>
          %926 = vector.load %collapse_shape_125[%arg342, %arg346, %arg344] : memref<12x1024x128xf32>, vector<32xf32>
          %927 = vector.fma %918, %926, %arg347 : vector<32xf32>
          %928 = vector.fma %919, %926, %arg348 : vector<32xf32>
          %929 = vector.fma %920, %926, %arg349 : vector<32xf32>
          %930 = vector.fma %921, %926, %arg350 : vector<32xf32>
          %931 = vector.fma %922, %926, %arg351 : vector<32xf32>
          %932 = vector.fma %923, %926, %arg352 : vector<32xf32>
          %933 = vector.fma %924, %926, %arg353 : vector<32xf32>
          %934 = vector.fma %925, %926, %arg354 : vector<32xf32>
          scf.yield %927, %928, %929, %930, %931, %932, %933, %934 : vector<32xf32>, vector<32xf32>, vector<32xf32>, vector<32xf32>, vector<32xf32>, vector<32xf32>, vector<32xf32>, vector<32xf32>
        }
        vector.store %908#0, %alloc_127[%arg342, %arg343, %arg344] : memref<12x1024x128xf32>, vector<32xf32>
        vector.store %908#1, %alloc_127[%arg342, %892, %arg344] : memref<12x1024x128xf32>, vector<32xf32>
        vector.store %908#2, %alloc_127[%arg342, %893, %arg344] : memref<12x1024x128xf32>, vector<32xf32>
        vector.store %908#3, %alloc_127[%arg342, %894, %arg344] : memref<12x1024x128xf32>, vector<32xf32>
        vector.store %908#4, %alloc_127[%arg342, %895, %arg344] : memref<12x1024x128xf32>, vector<32xf32>
        vector.store %908#5, %alloc_127[%arg342, %896, %arg344] : memref<12x1024x128xf32>, vector<32xf32>
        vector.store %908#6, %alloc_127[%arg342, %897, %arg344] : memref<12x1024x128xf32>, vector<32xf32>
        vector.store %908#7, %alloc_127[%arg342, %898, %arg344] : memref<12x1024x128xf32>, vector<32xf32>
        %909 = arith.addi %arg344, %c32_137 : index
        scf.yield %909 : index
      }
      scf.for %arg344 = %899 to %dim_141 step %c1_129 {
        %900 = memref.load %alloc_127[%arg342, %arg343, %arg344] : memref<12x1024x128xf32>
        %901 = memref.load %alloc_127[%arg342, %892, %arg344] : memref<12x1024x128xf32>
        %902 = memref.load %alloc_127[%arg342, %893, %arg344] : memref<12x1024x128xf32>
        %903 = memref.load %alloc_127[%arg342, %894, %arg344] : memref<12x1024x128xf32>
        %904 = memref.load %alloc_127[%arg342, %895, %arg344] : memref<12x1024x128xf32>
        %905 = memref.load %alloc_127[%arg342, %896, %arg344] : memref<12x1024x128xf32>
        %906 = memref.load %alloc_127[%arg342, %897, %arg344] : memref<12x1024x128xf32>
        %907 = memref.load %alloc_127[%arg342, %898, %arg344] : memref<12x1024x128xf32>
        %908:8 = scf.for %arg345 = %c0_128 to %dim_140 step %c1_129 iter_args(%arg346 = %900, %arg347 = %901, %arg348 = %902, %arg349 = %903, %arg350 = %904, %arg351 = %905, %arg352 = %906, %arg353 = %907) -> (f32, f32, f32, f32, f32, f32, f32, f32) {
          %909 = memref.load %alloc_122[%arg342, %arg343, %arg345] : memref<12x1024x1024xf32>
          %910 = memref.load %alloc_122[%arg342, %892, %arg345] : memref<12x1024x1024xf32>
          %911 = memref.load %alloc_122[%arg342, %893, %arg345] : memref<12x1024x1024xf32>
          %912 = memref.load %alloc_122[%arg342, %894, %arg345] : memref<12x1024x1024xf32>
          %913 = memref.load %alloc_122[%arg342, %895, %arg345] : memref<12x1024x1024xf32>
          %914 = memref.load %alloc_122[%arg342, %896, %arg345] : memref<12x1024x1024xf32>
          %915 = memref.load %alloc_122[%arg342, %897, %arg345] : memref<12x1024x1024xf32>
          %916 = memref.load %alloc_122[%arg342, %898, %arg345] : memref<12x1024x1024xf32>
          %917 = memref.load %collapse_shape_125[%arg342, %arg345, %arg344] : memref<12x1024x128xf32>
          %918 = arith.mulf %909, %917 : f32
          %919 = arith.mulf %910, %917 : f32
          %920 = arith.mulf %911, %917 : f32
          %921 = arith.mulf %912, %917 : f32
          %922 = arith.mulf %913, %917 : f32
          %923 = arith.mulf %914, %917 : f32
          %924 = arith.mulf %915, %917 : f32
          %925 = arith.mulf %916, %917 : f32
          %926 = arith.addf %918, %arg346 : f32
          %927 = arith.addf %919, %arg347 : f32
          %928 = arith.addf %920, %arg348 : f32
          %929 = arith.addf %921, %arg349 : f32
          %930 = arith.addf %922, %arg350 : f32
          %931 = arith.addf %923, %arg351 : f32
          %932 = arith.addf %924, %arg352 : f32
          %933 = arith.addf %925, %arg353 : f32
          scf.yield %926, %927, %928, %929, %930, %931, %932, %933 : f32, f32, f32, f32, f32, f32, f32, f32
        }
        memref.store %908#0, %alloc_127[%arg342, %arg343, %arg344] : memref<12x1024x128xf32>
        memref.store %908#1, %alloc_127[%arg342, %892, %arg344] : memref<12x1024x128xf32>
        memref.store %908#2, %alloc_127[%arg342, %893, %arg344] : memref<12x1024x128xf32>
        memref.store %908#3, %alloc_127[%arg342, %894, %arg344] : memref<12x1024x128xf32>
        memref.store %908#4, %alloc_127[%arg342, %895, %arg344] : memref<12x1024x128xf32>
        memref.store %908#5, %alloc_127[%arg342, %896, %arg344] : memref<12x1024x128xf32>
        memref.store %908#6, %alloc_127[%arg342, %897, %arg344] : memref<12x1024x128xf32>
        memref.store %908#7, %alloc_127[%arg342, %898, %arg344] : memref<12x1024x128xf32>
      }
      scf.reduce 
    }
    %expand_shape_142 = memref.expand_shape %alloc_127 [[0, 1], [2], [3]] output_shape [1, 12, 1024, 128] : memref<12x1024x128xf32> into memref<1x12x1024x128xf32>
    %41 = memref.get_global @__constant_4xi32 : memref<4xi32>
    %alloc_143 = memref.alloc() {alignment = 64 : i64} : memref<1x1024x12x128xf32>
    linalg.transpose ins(%expand_shape_142 : memref<1x12x1024x128xf32>) outs(%alloc_143 : memref<1x1024x12x128xf32>) permutation = [0, 2, 1, 3] 
    %collapse_shape_144 = memref.collapse_shape %alloc_143 [[0], [1], [2, 3]] : memref<1x1024x12x128xf32> into memref<1x1024x1536xf32>
    %collapse_shape_145 = memref.collapse_shape %alloc_143 [[0, 1], [2, 3]] : memref<1x1024x12x128xf32> into memref<1024x1536xf32>
    %42 = memref.get_global @__constant_1024x1536xf32 : memref<1024x1536xf32>
    %alloc_146 = memref.alloc() {alignment = 64 : i64} : memref<1024x1536xf32>
    memref.copy %42, %alloc_146 : memref<1024x1536xf32> to memref<1024x1536xf32>
    linalg.matmul_transpose_b {cast = #linalg.type_fn<cast_signed>} ins(%collapse_shape_145, %arg11 : memref<1024x1536xf32>, memref<1536x1536xf32, strided<[?, ?], offset: ?>>) outs(%alloc_146 : memref<1024x1536xf32>)
    %expand_shape_147 = memref.expand_shape %alloc_146 [[0, 1], [2]] output_shape [1, 1024, 1536] : memref<1024x1536xf32> into memref<1x1024x1536xf32>
    %alloc_148 = memref.alloc() {alignment = 64 : i64} : memref<1x1024x1536xf32>
    linalg.generic {indexing_maps = [#map2, #map2, #map2], iterator_types = ["parallel", "parallel", "parallel"]} ins(%alloc_0, %expand_shape_147 : memref<1x1024x1536xf32>, memref<1x1024x1536xf32>) outs(%alloc_148 : memref<1x1024x1536xf32>) {
    ^bb0(%in: f32, %in_4156: f32, %out: f32):
      %892 = arith.addf %in, %in_4156 : f32
      linalg.yield %892 : f32
    }
    %alloc_149 = memref.alloc() {alignment = 64 : i64} : memref<1x1024x1536xf32>
    %c2_i32_150 = arith.constant 2 : i32
    linalg.generic {indexing_maps = [#map2, #map2], iterator_types = ["parallel", "parallel", "parallel"]} ins(%alloc_148 : memref<1x1024x1536xf32>) outs(%alloc_149 : memref<1x1024x1536xf32>) {
    ^bb0(%in: f32, %out: f32):
      %892 = math.fpowi %in, %c2_i32_150 : f32, i32
      linalg.yield %892 : f32
    }
    %alloc_151 = memref.alloc() {alignment = 64 : i64} : memref<1x1024xf32>
    %cst_152 = arith.constant 0.000000e+00 : f32
    linalg.fill ins(%cst_152 : f32) outs(%alloc_151 : memref<1x1024xf32>)
    linalg.reduce ins(%alloc_149 : memref<1x1024x1536xf32>) outs(%alloc_151 : memref<1x1024xf32>) dimensions = [2] 
      (%in: f32, %init: f32) {
        %892 = arith.addf %in, %init : f32
        linalg.yield %892 : f32
      }
    %expand_shape_153 = memref.expand_shape %alloc_151 [[0], [1, 2]] output_shape [1, 1024, 1] : memref<1x1024xf32> into memref<1x1024x1xf32>
    %43 = memref.get_global @__constant_1xf32_0 : memref<1xf32>
    %44 = memref.get_global @__constant_1xf32_1 : memref<1xf32>
    %45 = memref.get_global @__constant_1x1x1xf32_0 : memref<1x1x1xf32>
    %alloc_154 = memref.alloc() {alignment = 64 : i64} : memref<1x1024x1xf32>
    linalg.generic {indexing_maps = [#map8, #map2, #map2], iterator_types = ["parallel", "parallel", "parallel"]} ins(%45, %expand_shape_153 : memref<1x1x1xf32>, memref<1x1024x1xf32>) outs(%alloc_154 : memref<1x1024x1xf32>) {
    ^bb0(%in: f32, %in_4156: f32, %out: f32):
      %892 = arith.mulf %in, %in_4156 : f32
      linalg.yield %892 : f32
    }
    %46 = memref.get_global @__constant_1x1024x1xf32 : memref<1x1024x1xf32>
    %alloc_155 = memref.alloc() {alignment = 64 : i64} : memref<1x1024x1xf32>
    linalg.generic {indexing_maps = [#map2, #map2, #map2], iterator_types = ["parallel", "parallel", "parallel"]} ins(%alloc_154, %46 : memref<1x1024x1xf32>, memref<1x1024x1xf32>) outs(%alloc_155 : memref<1x1024x1xf32>) {
    ^bb0(%in: f32, %in_4156: f32, %out: f32):
      %892 = arith.addf %in, %in_4156 : f32
      linalg.yield %892 : f32
    }
    %alloc_156 = memref.alloc() {alignment = 64 : i64} : memref<1x1024x1xf32>
    linalg.generic {indexing_maps = [#map2, #map2], iterator_types = ["parallel", "parallel", "parallel"]} ins(%alloc_155 : memref<1x1024x1xf32>) outs(%alloc_156 : memref<1x1024x1xf32>) {
    ^bb0(%in: f32, %out: f32):
      %892 = math.rsqrt %in : f32
      linalg.yield %892 : f32
    }
    %alloc_157 = memref.alloc() {alignment = 64 : i64} : memref<1x1024x1536xf32>
    linalg.generic {indexing_maps = [#map2, #map9, #map2], iterator_types = ["parallel", "parallel", "parallel"]} ins(%alloc_148, %alloc_156 : memref<1x1024x1536xf32>, memref<1x1024x1xf32>) outs(%alloc_157 : memref<1x1024x1536xf32>) {
    ^bb0(%in: f32, %in_4156: f32, %out: f32):
      %892 = arith.mulf %in, %in_4156 : f32
      linalg.yield %892 : f32
    }
    %expand_shape_158 = memref.expand_shape %arg12 [[0, 1, 2]] output_shape [1, 1, 1536] : memref<1536xf32, strided<[?], offset: ?>> into memref<1x1x1536xf32, strided<[?, ?, ?], offset: ?>>
    %alloc_159 = memref.alloc() {alignment = 64 : i64} : memref<1x1024x1536xf32>
    linalg.generic {indexing_maps = [#map8, #map2, #map2], iterator_types = ["parallel", "parallel", "parallel"]} ins(%expand_shape_158, %alloc_157 : memref<1x1x1536xf32, strided<[?, ?, ?], offset: ?>>, memref<1x1024x1536xf32>) outs(%alloc_159 : memref<1x1024x1536xf32>) {
    ^bb0(%in: f32, %in_4156: f32, %out: f32):
      %892 = arith.mulf %in, %in_4156 : f32
      linalg.yield %892 : f32
    }
    %collapse_shape_160 = memref.collapse_shape %alloc_159 [[0, 1], [2]] : memref<1x1024x1536xf32> into memref<1024x1536xf32>
    %47 = memref.get_global @__constant_1024x8960xf32 : memref<1024x8960xf32>
    %alloc_161 = memref.alloc() {alignment = 64 : i64} : memref<1024x8960xf32>
    memref.copy %47, %alloc_161 : memref<1024x8960xf32> to memref<1024x8960xf32>
    linalg.matmul_transpose_b {cast = #linalg.type_fn<cast_signed>} ins(%collapse_shape_160, %arg13 : memref<1024x1536xf32>, memref<8960x1536xf32, strided<[?, ?], offset: ?>>) outs(%alloc_161 : memref<1024x8960xf32>)
    %expand_shape_162 = memref.expand_shape %alloc_161 [[0, 1], [2]] output_shape [1, 1024, 8960] : memref<1024x8960xf32> into memref<1x1024x8960xf32>
    %alloc_163 = memref.alloc() {alignment = 64 : i64} : memref<1x1024x8960xf32>
    linalg.generic {indexing_maps = [#map2, #map2], iterator_types = ["parallel", "parallel", "parallel"]} ins(%expand_shape_162 : memref<1x1024x8960xf32>) outs(%alloc_163 : memref<1x1024x8960xf32>) {
    ^bb0(%in: f32, %out: f32):
      %cst_4156 = arith.constant 1.000000e+00 : f32
      %892 = arith.negf %in : f32
      %893 = math.exp %892 : f32
      %894 = arith.addf %893, %cst_4156 : f32
      %895 = arith.divf %cst_4156, %894 : f32
      linalg.yield %895 : f32
    }
    %alloc_164 = memref.alloc() {alignment = 64 : i64} : memref<1x1024x8960xf32>
    linalg.generic {indexing_maps = [#map2, #map2, #map2], iterator_types = ["parallel", "parallel", "parallel"]} ins(%expand_shape_162, %alloc_163 : memref<1x1024x8960xf32>, memref<1x1024x8960xf32>) outs(%alloc_164 : memref<1x1024x8960xf32>) {
    ^bb0(%in: f32, %in_4156: f32, %out: f32):
      %892 = arith.mulf %in, %in_4156 : f32
      linalg.yield %892 : f32
    }
    %collapse_shape_165 = memref.collapse_shape %alloc_159 [[0, 1], [2]] : memref<1x1024x1536xf32> into memref<1024x1536xf32>
    %48 = memref.get_global @__constant_1024x8960xf32 : memref<1024x8960xf32>
    %alloc_166 = memref.alloc() {alignment = 64 : i64} : memref<1024x8960xf32>
    memref.copy %48, %alloc_166 : memref<1024x8960xf32> to memref<1024x8960xf32>
    linalg.matmul_transpose_b {cast = #linalg.type_fn<cast_signed>} ins(%collapse_shape_165, %arg14 : memref<1024x1536xf32>, memref<8960x1536xf32, strided<[?, ?], offset: ?>>) outs(%alloc_166 : memref<1024x8960xf32>)
    %expand_shape_167 = memref.expand_shape %alloc_166 [[0, 1], [2]] output_shape [1, 1024, 8960] : memref<1024x8960xf32> into memref<1x1024x8960xf32>
    %alloc_168 = memref.alloc() {alignment = 64 : i64} : memref<1x1024x8960xf32>
    linalg.generic {indexing_maps = [#map2, #map2, #map2], iterator_types = ["parallel", "parallel", "parallel"]} ins(%alloc_164, %expand_shape_167 : memref<1x1024x8960xf32>, memref<1x1024x8960xf32>) outs(%alloc_168 : memref<1x1024x8960xf32>) {
    ^bb0(%in: f32, %in_4156: f32, %out: f32):
      %892 = arith.mulf %in, %in_4156 : f32
      linalg.yield %892 : f32
    }
    %collapse_shape_169 = memref.collapse_shape %alloc_168 [[0, 1], [2]] : memref<1x1024x8960xf32> into memref<1024x8960xf32>
    %49 = memref.get_global @__constant_1024x1536xf32 : memref<1024x1536xf32>
    %alloc_170 = memref.alloc() {alignment = 64 : i64} : memref<1024x1536xf32>
    memref.copy %49, %alloc_170 : memref<1024x1536xf32> to memref<1024x1536xf32>
    linalg.matmul_transpose_b {cast = #linalg.type_fn<cast_signed>} ins(%collapse_shape_169, %arg15 : memref<1024x8960xf32>, memref<1536x8960xf32, strided<[?, ?], offset: ?>>) outs(%alloc_170 : memref<1024x1536xf32>)
    %expand_shape_171 = memref.expand_shape %alloc_170 [[0, 1], [2]] output_shape [1, 1024, 1536] : memref<1024x1536xf32> into memref<1x1024x1536xf32>
    %alloc_172 = memref.alloc() {alignment = 64 : i64} : memref<1x1024x1536xf32>
    linalg.generic {indexing_maps = [#map2, #map2, #map2], iterator_types = ["parallel", "parallel", "parallel"]} ins(%alloc_148, %expand_shape_171 : memref<1x1024x1536xf32>, memref<1x1024x1536xf32>) outs(%alloc_172 : memref<1x1024x1536xf32>) {
    ^bb0(%in: f32, %in_4156: f32, %out: f32):
      %892 = arith.addf %in, %in_4156 : f32
      linalg.yield %892 : f32
    }
    %alloc_173 = memref.alloc() {alignment = 64 : i64} : memref<1x1024x1536xf32>
    %c2_i32_174 = arith.constant 2 : i32
    linalg.generic {indexing_maps = [#map2, #map2], iterator_types = ["parallel", "parallel", "parallel"]} ins(%alloc_172 : memref<1x1024x1536xf32>) outs(%alloc_173 : memref<1x1024x1536xf32>) {
    ^bb0(%in: f32, %out: f32):
      %892 = math.fpowi %in, %c2_i32_174 : f32, i32
      linalg.yield %892 : f32
    }
    %alloc_175 = memref.alloc() {alignment = 64 : i64} : memref<1x1024xf32>
    %cst_176 = arith.constant 0.000000e+00 : f32
    linalg.fill ins(%cst_176 : f32) outs(%alloc_175 : memref<1x1024xf32>)
    linalg.reduce ins(%alloc_173 : memref<1x1024x1536xf32>) outs(%alloc_175 : memref<1x1024xf32>) dimensions = [2] 
      (%in: f32, %init: f32) {
        %892 = arith.addf %in, %init : f32
        linalg.yield %892 : f32
      }
    %expand_shape_177 = memref.expand_shape %alloc_175 [[0], [1, 2]] output_shape [1, 1024, 1] : memref<1x1024xf32> into memref<1x1024x1xf32>
    %50 = memref.get_global @__constant_1xf32_0 : memref<1xf32>
    %51 = memref.get_global @__constant_1xf32_1 : memref<1xf32>
    %52 = memref.get_global @__constant_1x1x1xf32_0 : memref<1x1x1xf32>
    %alloc_178 = memref.alloc() {alignment = 64 : i64} : memref<1x1024x1xf32>
    linalg.generic {indexing_maps = [#map8, #map2, #map2], iterator_types = ["parallel", "parallel", "parallel"]} ins(%52, %expand_shape_177 : memref<1x1x1xf32>, memref<1x1024x1xf32>) outs(%alloc_178 : memref<1x1024x1xf32>) {
    ^bb0(%in: f32, %in_4156: f32, %out: f32):
      %892 = arith.mulf %in, %in_4156 : f32
      linalg.yield %892 : f32
    }
    %53 = memref.get_global @__constant_1x1024x1xf32 : memref<1x1024x1xf32>
    %alloc_179 = memref.alloc() {alignment = 64 : i64} : memref<1x1024x1xf32>
    linalg.generic {indexing_maps = [#map2, #map2, #map2], iterator_types = ["parallel", "parallel", "parallel"]} ins(%alloc_178, %53 : memref<1x1024x1xf32>, memref<1x1024x1xf32>) outs(%alloc_179 : memref<1x1024x1xf32>) {
    ^bb0(%in: f32, %in_4156: f32, %out: f32):
      %892 = arith.addf %in, %in_4156 : f32
      linalg.yield %892 : f32
    }
    %alloc_180 = memref.alloc() {alignment = 64 : i64} : memref<1x1024x1xf32>
    linalg.generic {indexing_maps = [#map2, #map2], iterator_types = ["parallel", "parallel", "parallel"]} ins(%alloc_179 : memref<1x1024x1xf32>) outs(%alloc_180 : memref<1x1024x1xf32>) {
    ^bb0(%in: f32, %out: f32):
      %892 = math.rsqrt %in : f32
      linalg.yield %892 : f32
    }
    %alloc_181 = memref.alloc() {alignment = 64 : i64} : memref<1x1024x1536xf32>
    linalg.generic {indexing_maps = [#map2, #map9, #map2], iterator_types = ["parallel", "parallel", "parallel"]} ins(%alloc_172, %alloc_180 : memref<1x1024x1536xf32>, memref<1x1024x1xf32>) outs(%alloc_181 : memref<1x1024x1536xf32>) {
    ^bb0(%in: f32, %in_4156: f32, %out: f32):
      %892 = arith.mulf %in, %in_4156 : f32
      linalg.yield %892 : f32
    }
    %expand_shape_182 = memref.expand_shape %arg16 [[0, 1, 2]] output_shape [1, 1, 1536] : memref<1536xf32, strided<[?], offset: ?>> into memref<1x1x1536xf32, strided<[?, ?, ?], offset: ?>>
    %alloc_183 = memref.alloc() {alignment = 64 : i64} : memref<1x1024x1536xf32>
    linalg.generic {indexing_maps = [#map8, #map2, #map2], iterator_types = ["parallel", "parallel", "parallel"]} ins(%expand_shape_182, %alloc_181 : memref<1x1x1536xf32, strided<[?, ?, ?], offset: ?>>, memref<1x1024x1536xf32>) outs(%alloc_183 : memref<1x1024x1536xf32>) {
    ^bb0(%in: f32, %in_4156: f32, %out: f32):
      %892 = arith.mulf %in, %in_4156 : f32
      linalg.yield %892 : f32
    }
    %collapse_shape_184 = memref.collapse_shape %alloc_183 [[0, 1], [2]] : memref<1x1024x1536xf32> into memref<1024x1536xf32>
    %54 = memref.get_global @__constant_2xi32 : memref<2xi32>
    %alloc_185 = memref.alloc() {alignment = 64 : i64} : memref<1536x1536xf32>
    linalg.transpose ins(%arg17 : memref<1536x1536xf32, strided<[?, ?], offset: ?>>) outs(%alloc_185 : memref<1536x1536xf32>) permutation = [1, 0] 
    %55 = memref.get_global @__constant_1024x1536xf32 : memref<1024x1536xf32>
    %alloc_186 = memref.alloc() {alignment = 64 : i64} : memref<1024x1536xf32>
    memref.copy %55, %alloc_186 : memref<1024x1536xf32> to memref<1024x1536xf32>
    linalg.matmul {cast = #linalg.type_fn<cast_signed>} ins(%collapse_shape_184, %alloc_185 : memref<1024x1536xf32>, memref<1536x1536xf32>) outs(%alloc_186 : memref<1024x1536xf32>)
    %expand_shape_187 = memref.expand_shape %arg18 [[0, 1]] output_shape [1, 1536] : memref<1536xf32, strided<[?], offset: ?>> into memref<1x1536xf32, strided<[?, ?], offset: ?>>
    %alloc_188 = memref.alloc() {alignment = 64 : i64} : memref<1024x1536xf32>
    linalg.generic {indexing_maps = [#map10, #map, #map], iterator_types = ["parallel", "parallel"]} ins(%expand_shape_187, %alloc_186 : memref<1x1536xf32, strided<[?, ?], offset: ?>>, memref<1024x1536xf32>) outs(%alloc_188 : memref<1024x1536xf32>) {
    ^bb0(%in: f32, %in_4156: f32, %out: f32):
      %892 = arith.addf %in, %in_4156 : f32
      linalg.yield %892 : f32
    }
    %expand_shape_189 = memref.expand_shape %alloc_188 [[0, 1], [2]] output_shape [1, 1024, 1536] : memref<1024x1536xf32> into memref<1x1024x1536xf32>
    %collapse_shape_190 = memref.collapse_shape %alloc_183 [[0, 1], [2]] : memref<1x1024x1536xf32> into memref<1024x1536xf32>
    %56 = memref.get_global @__constant_2xi32 : memref<2xi32>
    %alloc_191 = memref.alloc() {alignment = 64 : i64} : memref<1536x256xf32>
    linalg.transpose ins(%arg19 : memref<256x1536xf32, strided<[?, ?], offset: ?>>) outs(%alloc_191 : memref<1536x256xf32>) permutation = [1, 0] 
    %57 = memref.get_global @__constant_1024x256xf32 : memref<1024x256xf32>
    %alloc_192 = memref.alloc() {alignment = 64 : i64} : memref<1024x256xf32>
    memref.copy %57, %alloc_192 : memref<1024x256xf32> to memref<1024x256xf32>
    linalg.matmul {cast = #linalg.type_fn<cast_signed>} ins(%collapse_shape_190, %alloc_191 : memref<1024x1536xf32>, memref<1536x256xf32>) outs(%alloc_192 : memref<1024x256xf32>)
    %expand_shape_193 = memref.expand_shape %arg20 [[0, 1]] output_shape [1, 256] : memref<256xf32, strided<[?], offset: ?>> into memref<1x256xf32, strided<[?, ?], offset: ?>>
    %alloc_194 = memref.alloc() {alignment = 64 : i64} : memref<1024x256xf32>
    linalg.generic {indexing_maps = [#map10, #map, #map], iterator_types = ["parallel", "parallel"]} ins(%expand_shape_193, %alloc_192 : memref<1x256xf32, strided<[?, ?], offset: ?>>, memref<1024x256xf32>) outs(%alloc_194 : memref<1024x256xf32>) {
    ^bb0(%in: f32, %in_4156: f32, %out: f32):
      %892 = arith.addf %in, %in_4156 : f32
      linalg.yield %892 : f32
    }
    %expand_shape_195 = memref.expand_shape %alloc_194 [[0, 1], [2]] output_shape [1, 1024, 256] : memref<1024x256xf32> into memref<1x1024x256xf32>
    %collapse_shape_196 = memref.collapse_shape %alloc_183 [[0, 1], [2]] : memref<1x1024x1536xf32> into memref<1024x1536xf32>
    %58 = memref.get_global @__constant_2xi32 : memref<2xi32>
    %alloc_197 = memref.alloc() {alignment = 64 : i64} : memref<1536x256xf32>
    linalg.transpose ins(%arg21 : memref<256x1536xf32, strided<[?, ?], offset: ?>>) outs(%alloc_197 : memref<1536x256xf32>) permutation = [1, 0] 
    %59 = memref.get_global @__constant_1024x256xf32 : memref<1024x256xf32>
    %alloc_198 = memref.alloc() {alignment = 64 : i64} : memref<1024x256xf32>
    memref.copy %59, %alloc_198 : memref<1024x256xf32> to memref<1024x256xf32>
    linalg.matmul {cast = #linalg.type_fn<cast_signed>} ins(%collapse_shape_196, %alloc_197 : memref<1024x1536xf32>, memref<1536x256xf32>) outs(%alloc_198 : memref<1024x256xf32>)
    %expand_shape_199 = memref.expand_shape %arg22 [[0, 1]] output_shape [1, 256] : memref<256xf32, strided<[?], offset: ?>> into memref<1x256xf32, strided<[?, ?], offset: ?>>
    %alloc_200 = memref.alloc() {alignment = 64 : i64} : memref<1024x256xf32>
    linalg.generic {indexing_maps = [#map10, #map, #map], iterator_types = ["parallel", "parallel"]} ins(%expand_shape_199, %alloc_198 : memref<1x256xf32, strided<[?, ?], offset: ?>>, memref<1024x256xf32>) outs(%alloc_200 : memref<1024x256xf32>) {
    ^bb0(%in: f32, %in_4156: f32, %out: f32):
      %892 = arith.addf %in, %in_4156 : f32
      linalg.yield %892 : f32
    }
    %expand_shape_201 = memref.expand_shape %alloc_200 [[0, 1], [2]] output_shape [1, 1024, 256] : memref<1024x256xf32> into memref<1x1024x256xf32>
    %expand_shape_202 = memref.expand_shape %alloc_188 [[0, 1], [2, 3]] output_shape [1, 1024, 12, 128] : memref<1024x1536xf32> into memref<1x1024x12x128xf32>
    %60 = memref.get_global @__constant_4xi32 : memref<4xi32>
    %alloc_203 = memref.alloc() {alignment = 64 : i64} : memref<1x12x1024x128xf32>
    linalg.transpose ins(%expand_shape_202 : memref<1x1024x12x128xf32>) outs(%alloc_203 : memref<1x12x1024x128xf32>) permutation = [0, 2, 1, 3] 
    %expand_shape_204 = memref.expand_shape %alloc_194 [[0, 1], [2, 3]] output_shape [1, 1024, 2, 128] : memref<1024x256xf32> into memref<1x1024x2x128xf32>
    %61 = memref.get_global @__constant_4xi32 : memref<4xi32>
    %alloc_205 = memref.alloc() {alignment = 64 : i64} : memref<1x2x1024x128xf32>
    linalg.transpose ins(%expand_shape_204 : memref<1x1024x2x128xf32>) outs(%alloc_205 : memref<1x2x1024x128xf32>) permutation = [0, 2, 1, 3] 
    %expand_shape_206 = memref.expand_shape %alloc_200 [[0, 1], [2, 3]] output_shape [1, 1024, 2, 128] : memref<1024x256xf32> into memref<1x1024x2x128xf32>
    %62 = memref.get_global @__constant_4xi32 : memref<4xi32>
    %alloc_207 = memref.alloc() {alignment = 64 : i64} : memref<1x2x1024x128xf32>
    linalg.transpose ins(%expand_shape_206 : memref<1x1024x2x128xf32>) outs(%alloc_207 : memref<1x2x1024x128xf32>) permutation = [0, 2, 1, 3] 
    %expand_shape_208 = memref.expand_shape %alloc_26 [[0, 1], [2], [3]] output_shape [1, 1, 1024, 128] : memref<1x1024x128xf32> into memref<1x1x1024x128xf32>
    %expand_shape_209 = memref.expand_shape %alloc_27 [[0, 1], [2], [3]] output_shape [1, 1, 1024, 128] : memref<1x1024x128xf32> into memref<1x1x1024x128xf32>
    %alloc_210 = memref.alloc() {alignment = 64 : i64} : memref<1x12x1024x128xf32>
    linalg.generic {indexing_maps = [#map5, #map11, #map5], iterator_types = ["parallel", "parallel", "parallel", "parallel"]} ins(%alloc_203, %expand_shape_208 : memref<1x12x1024x128xf32>, memref<1x1x1024x128xf32>) outs(%alloc_210 : memref<1x12x1024x128xf32>) {
    ^bb0(%in: f32, %in_4156: f32, %out: f32):
      %892 = arith.mulf %in, %in_4156 : f32
      linalg.yield %892 : f32
    }
    %subview_211 = memref.subview %alloc_203[0, 0, 0, 0] [1, 12, 1024, 64] [1, 1, 1, 1] : memref<1x12x1024x128xf32> to memref<1x12x1024x64xf32, strided<[1572864, 131072, 128, 1]>>
    %subview_212 = memref.subview %alloc_203[0, 0, 0, 64] [1, 12, 1024, 64] [1, 1, 1, 1] : memref<1x12x1024x128xf32> to memref<1x12x1024x64xf32, strided<[1572864, 131072, 128, 1], offset: 64>>
    %alloc_213 = memref.alloc() {alignment = 64 : i64} : memref<1x12x1024x64xf32>
    linalg.negf ins(%subview_212 : memref<1x12x1024x64xf32, strided<[1572864, 131072, 128, 1], offset: 64>>) outs(%alloc_213 : memref<1x12x1024x64xf32>)
    %alloc_214 = memref.alloc() {alignment = 64 : i64} : memref<1x12x1024x128xf32>
    %subview_215 = memref.subview %alloc_214[0, 0, 0, 0] [1, 12, 1024, 64] [1, 1, 1, 1] : memref<1x12x1024x128xf32> to memref<1x12x1024x64xf32, strided<[1572864, 131072, 128, 1]>>
    memref.copy %alloc_213, %subview_215 : memref<1x12x1024x64xf32> to memref<1x12x1024x64xf32, strided<[1572864, 131072, 128, 1]>>
    %subview_216 = memref.subview %alloc_214[0, 0, 0, 64] [1, 12, 1024, 64] [1, 1, 1, 1] : memref<1x12x1024x128xf32> to memref<1x12x1024x64xf32, strided<[1572864, 131072, 128, 1], offset: 64>>
    memref.copy %subview_211, %subview_216 : memref<1x12x1024x64xf32, strided<[1572864, 131072, 128, 1]>> to memref<1x12x1024x64xf32, strided<[1572864, 131072, 128, 1], offset: 64>>
    %alloc_217 = memref.alloc() {alignment = 64 : i64} : memref<1x12x1024x128xf32>
    linalg.generic {indexing_maps = [#map5, #map11, #map5], iterator_types = ["parallel", "parallel", "parallel", "parallel"]} ins(%alloc_214, %expand_shape_209 : memref<1x12x1024x128xf32>, memref<1x1x1024x128xf32>) outs(%alloc_217 : memref<1x12x1024x128xf32>) {
    ^bb0(%in: f32, %in_4156: f32, %out: f32):
      %892 = arith.mulf %in, %in_4156 : f32
      linalg.yield %892 : f32
    }
    %alloc_218 = memref.alloc() {alignment = 64 : i64} : memref<1x12x1024x128xf32>
    linalg.generic {indexing_maps = [#map5, #map5, #map5], iterator_types = ["parallel", "parallel", "parallel", "parallel"]} ins(%alloc_210, %alloc_217 : memref<1x12x1024x128xf32>, memref<1x12x1024x128xf32>) outs(%alloc_218 : memref<1x12x1024x128xf32>) {
    ^bb0(%in: f32, %in_4156: f32, %out: f32):
      %892 = arith.addf %in, %in_4156 : f32
      linalg.yield %892 : f32
    }
    %alloc_219 = memref.alloc() {alignment = 64 : i64} : memref<1x2x1024x128xf32>
    linalg.generic {indexing_maps = [#map5, #map11, #map5], iterator_types = ["parallel", "parallel", "parallel", "parallel"]} ins(%alloc_205, %expand_shape_208 : memref<1x2x1024x128xf32>, memref<1x1x1024x128xf32>) outs(%alloc_219 : memref<1x2x1024x128xf32>) {
    ^bb0(%in: f32, %in_4156: f32, %out: f32):
      %892 = arith.mulf %in, %in_4156 : f32
      linalg.yield %892 : f32
    }
    %subview_220 = memref.subview %alloc_205[0, 0, 0, 0] [1, 2, 1024, 64] [1, 1, 1, 1] : memref<1x2x1024x128xf32> to memref<1x2x1024x64xf32, strided<[262144, 131072, 128, 1]>>
    %subview_221 = memref.subview %alloc_205[0, 0, 0, 64] [1, 2, 1024, 64] [1, 1, 1, 1] : memref<1x2x1024x128xf32> to memref<1x2x1024x64xf32, strided<[262144, 131072, 128, 1], offset: 64>>
    %alloc_222 = memref.alloc() {alignment = 64 : i64} : memref<1x2x1024x64xf32>
    linalg.negf ins(%subview_221 : memref<1x2x1024x64xf32, strided<[262144, 131072, 128, 1], offset: 64>>) outs(%alloc_222 : memref<1x2x1024x64xf32>)
    %alloc_223 = memref.alloc() {alignment = 64 : i64} : memref<1x2x1024x128xf32>
    %subview_224 = memref.subview %alloc_223[0, 0, 0, 0] [1, 2, 1024, 64] [1, 1, 1, 1] : memref<1x2x1024x128xf32> to memref<1x2x1024x64xf32, strided<[262144, 131072, 128, 1]>>
    memref.copy %alloc_222, %subview_224 : memref<1x2x1024x64xf32> to memref<1x2x1024x64xf32, strided<[262144, 131072, 128, 1]>>
    %subview_225 = memref.subview %alloc_223[0, 0, 0, 64] [1, 2, 1024, 64] [1, 1, 1, 1] : memref<1x2x1024x128xf32> to memref<1x2x1024x64xf32, strided<[262144, 131072, 128, 1], offset: 64>>
    memref.copy %subview_220, %subview_225 : memref<1x2x1024x64xf32, strided<[262144, 131072, 128, 1]>> to memref<1x2x1024x64xf32, strided<[262144, 131072, 128, 1], offset: 64>>
    %alloc_226 = memref.alloc() {alignment = 64 : i64} : memref<1x2x1024x128xf32>
    linalg.generic {indexing_maps = [#map5, #map11, #map5], iterator_types = ["parallel", "parallel", "parallel", "parallel"]} ins(%alloc_223, %expand_shape_209 : memref<1x2x1024x128xf32>, memref<1x1x1024x128xf32>) outs(%alloc_226 : memref<1x2x1024x128xf32>) {
    ^bb0(%in: f32, %in_4156: f32, %out: f32):
      %892 = arith.mulf %in, %in_4156 : f32
      linalg.yield %892 : f32
    }
    %alloc_227 = memref.alloc() {alignment = 64 : i64} : memref<1x2x1024x128xf32>
    linalg.generic {indexing_maps = [#map5, #map5, #map5], iterator_types = ["parallel", "parallel", "parallel", "parallel"]} ins(%alloc_219, %alloc_226 : memref<1x2x1024x128xf32>, memref<1x2x1024x128xf32>) outs(%alloc_227 : memref<1x2x1024x128xf32>) {
    ^bb0(%in: f32, %in_4156: f32, %out: f32):
      %892 = arith.addf %in, %in_4156 : f32
      linalg.yield %892 : f32
    }
    %expand_shape_228 = memref.expand_shape %alloc_227 [[0], [1, 2], [3], [4]] output_shape [1, 2, 1, 1024, 128] : memref<1x2x1024x128xf32> into memref<1x2x1x1024x128xf32>
    %63 = memref.get_global @__constant_1x2x6x1024x128xf32 : memref<1x2x6x1024x128xf32>
    %alloc_229 = memref.alloc() {alignment = 64 : i64} : memref<1x2x6x1024x128xf32>
    linalg.generic {indexing_maps = [#map12, #map13, #map13], iterator_types = ["parallel", "parallel", "parallel", "parallel", "parallel"]} ins(%expand_shape_228, %63 : memref<1x2x1x1024x128xf32>, memref<1x2x6x1024x128xf32>) outs(%alloc_229 : memref<1x2x6x1024x128xf32>) {
    ^bb0(%in: f32, %in_4156: f32, %out: f32):
      %892 = arith.addf %in, %in_4156 : f32
      linalg.yield %892 : f32
    }
    %collapse_shape_230 = memref.collapse_shape %alloc_229 [[0], [1, 2], [3], [4]] : memref<1x2x6x1024x128xf32> into memref<1x12x1024x128xf32>
    %expand_shape_231 = memref.expand_shape %alloc_207 [[0], [1, 2], [3], [4]] output_shape [1, 2, 1, 1024, 128] : memref<1x2x1024x128xf32> into memref<1x2x1x1024x128xf32>
    %64 = memref.get_global @__constant_1x2x6x1024x128xf32 : memref<1x2x6x1024x128xf32>
    %alloc_232 = memref.alloc() {alignment = 64 : i64} : memref<1x2x6x1024x128xf32>
    linalg.generic {indexing_maps = [#map12, #map13, #map13], iterator_types = ["parallel", "parallel", "parallel", "parallel", "parallel"]} ins(%expand_shape_231, %64 : memref<1x2x1x1024x128xf32>, memref<1x2x6x1024x128xf32>) outs(%alloc_232 : memref<1x2x6x1024x128xf32>) {
    ^bb0(%in: f32, %in_4156: f32, %out: f32):
      %892 = arith.addf %in, %in_4156 : f32
      linalg.yield %892 : f32
    }
    %collapse_shape_233 = memref.collapse_shape %alloc_232 [[0], [1, 2], [3], [4]] : memref<1x2x6x1024x128xf32> into memref<1x12x1024x128xf32>
    %cst_234 = arith.constant 0.000000e+00 : f32
    %65 = memref.get_global @__constant_1024x1024xf32_0 : memref<1024x1024xf32>
    %collapse_shape_235 = memref.collapse_shape %expand_shape_5 [[0, 1, 2], [3]] : memref<1x1x1024x1024xf32> into memref<1024x1024xf32>
    %alloc_236 = memref.alloc() {alignment = 64 : i64} : memref<1024x1024xf32>
    linalg.generic {indexing_maps = [#map, #map, #map], iterator_types = ["parallel", "parallel"]} ins(%65, %collapse_shape_235 : memref<1024x1024xf32>, memref<1024x1024xf32>) outs(%alloc_236 : memref<1024x1024xf32>) {
    ^bb0(%in: f32, %in_4156: f32, %out: f32):
      %892 = arith.addf %in, %in_4156 : f32
      linalg.yield %892 : f32
    }
    %66 = memref.get_global @__constant_4xi32_0 : memref<4xi32>
    %alloc_237 = memref.alloc() {alignment = 64 : i64} : memref<1x12x128x1024xf32>
    linalg.transpose ins(%collapse_shape_230 : memref<1x12x1024x128xf32>) outs(%alloc_237 : memref<1x12x128x1024xf32>) permutation = [0, 1, 3, 2] 
    %collapse_shape_238 = memref.collapse_shape %alloc_218 [[0, 1], [2], [3]] : memref<1x12x1024x128xf32> into memref<12x1024x128xf32>
    %collapse_shape_239 = memref.collapse_shape %alloc_237 [[0, 1], [2], [3]] : memref<1x12x128x1024xf32> into memref<12x128x1024xf32>
    %cst_240 = arith.constant 0.000000e+00 : f32
    %alloc_241 = memref.alloc() {alignment = 64 : i64} : memref<12x1024x1024xf32>
    linalg.fill ins(%cst_240 : f32) outs(%alloc_241 : memref<12x1024x1024xf32>)
    %c0_242 = arith.constant 0 : index
    %c1_243 = arith.constant 1 : index
    %c2_244 = arith.constant 2 : index
    %c3_245 = arith.constant 3 : index
    %c4_246 = arith.constant 4 : index
    %c5_247 = arith.constant 5 : index
    %c6_248 = arith.constant 6 : index
    %c7_249 = arith.constant 7 : index
    %c8_250 = arith.constant 8 : index
    %c32_251 = arith.constant 32 : index
    %dim_252 = memref.dim %collapse_shape_238, %c0_242 : memref<12x1024x128xf32>
    %dim_253 = memref.dim %collapse_shape_238, %c1_243 : memref<12x1024x128xf32>
    %dim_254 = memref.dim %collapse_shape_238, %c2_244 : memref<12x1024x128xf32>
    %dim_255 = memref.dim %alloc_241, %c2_244 : memref<12x1024x1024xf32>
    %67 = arith.subi %dim_255, %c32_251 : index
    %68 = arith.addi %67, %c1_243 : index
    scf.parallel (%arg342, %arg343) = (%c0_242, %c0_242) to (%dim_252, %dim_253) step (%c1_243, %c8_250) {
      %892 = arith.addi %arg343, %c1_243 : index
      %893 = arith.addi %arg343, %c2_244 : index
      %894 = arith.addi %arg343, %c3_245 : index
      %895 = arith.addi %arg343, %c4_246 : index
      %896 = arith.addi %arg343, %c5_247 : index
      %897 = arith.addi %arg343, %c6_248 : index
      %898 = arith.addi %arg343, %c7_249 : index
      %899 = scf.for %arg344 = %c0_242 to %68 step %c32_251 iter_args(%arg345 = %c0_242) -> (index) {
        %900 = vector.load %alloc_241[%arg342, %arg343, %arg344] : memref<12x1024x1024xf32>, vector<32xf32>
        %901 = vector.load %alloc_241[%arg342, %892, %arg344] : memref<12x1024x1024xf32>, vector<32xf32>
        %902 = vector.load %alloc_241[%arg342, %893, %arg344] : memref<12x1024x1024xf32>, vector<32xf32>
        %903 = vector.load %alloc_241[%arg342, %894, %arg344] : memref<12x1024x1024xf32>, vector<32xf32>
        %904 = vector.load %alloc_241[%arg342, %895, %arg344] : memref<12x1024x1024xf32>, vector<32xf32>
        %905 = vector.load %alloc_241[%arg342, %896, %arg344] : memref<12x1024x1024xf32>, vector<32xf32>
        %906 = vector.load %alloc_241[%arg342, %897, %arg344] : memref<12x1024x1024xf32>, vector<32xf32>
        %907 = vector.load %alloc_241[%arg342, %898, %arg344] : memref<12x1024x1024xf32>, vector<32xf32>
        %908:8 = scf.for %arg346 = %c0_242 to %dim_254 step %c1_243 iter_args(%arg347 = %900, %arg348 = %901, %arg349 = %902, %arg350 = %903, %arg351 = %904, %arg352 = %905, %arg353 = %906, %arg354 = %907) -> (vector<32xf32>, vector<32xf32>, vector<32xf32>, vector<32xf32>, vector<32xf32>, vector<32xf32>, vector<32xf32>, vector<32xf32>) {
          %910 = memref.load %collapse_shape_238[%arg342, %arg343, %arg346] : memref<12x1024x128xf32>
          %911 = memref.load %collapse_shape_238[%arg342, %892, %arg346] : memref<12x1024x128xf32>
          %912 = memref.load %collapse_shape_238[%arg342, %893, %arg346] : memref<12x1024x128xf32>
          %913 = memref.load %collapse_shape_238[%arg342, %894, %arg346] : memref<12x1024x128xf32>
          %914 = memref.load %collapse_shape_238[%arg342, %895, %arg346] : memref<12x1024x128xf32>
          %915 = memref.load %collapse_shape_238[%arg342, %896, %arg346] : memref<12x1024x128xf32>
          %916 = memref.load %collapse_shape_238[%arg342, %897, %arg346] : memref<12x1024x128xf32>
          %917 = memref.load %collapse_shape_238[%arg342, %898, %arg346] : memref<12x1024x128xf32>
          %918 = vector.broadcast %910 : f32 to vector<32xf32>
          %919 = vector.broadcast %911 : f32 to vector<32xf32>
          %920 = vector.broadcast %912 : f32 to vector<32xf32>
          %921 = vector.broadcast %913 : f32 to vector<32xf32>
          %922 = vector.broadcast %914 : f32 to vector<32xf32>
          %923 = vector.broadcast %915 : f32 to vector<32xf32>
          %924 = vector.broadcast %916 : f32 to vector<32xf32>
          %925 = vector.broadcast %917 : f32 to vector<32xf32>
          %926 = vector.load %collapse_shape_239[%arg342, %arg346, %arg344] : memref<12x128x1024xf32>, vector<32xf32>
          %927 = vector.fma %918, %926, %arg347 : vector<32xf32>
          %928 = vector.fma %919, %926, %arg348 : vector<32xf32>
          %929 = vector.fma %920, %926, %arg349 : vector<32xf32>
          %930 = vector.fma %921, %926, %arg350 : vector<32xf32>
          %931 = vector.fma %922, %926, %arg351 : vector<32xf32>
          %932 = vector.fma %923, %926, %arg352 : vector<32xf32>
          %933 = vector.fma %924, %926, %arg353 : vector<32xf32>
          %934 = vector.fma %925, %926, %arg354 : vector<32xf32>
          scf.yield %927, %928, %929, %930, %931, %932, %933, %934 : vector<32xf32>, vector<32xf32>, vector<32xf32>, vector<32xf32>, vector<32xf32>, vector<32xf32>, vector<32xf32>, vector<32xf32>
        }
        vector.store %908#0, %alloc_241[%arg342, %arg343, %arg344] : memref<12x1024x1024xf32>, vector<32xf32>
        vector.store %908#1, %alloc_241[%arg342, %892, %arg344] : memref<12x1024x1024xf32>, vector<32xf32>
        vector.store %908#2, %alloc_241[%arg342, %893, %arg344] : memref<12x1024x1024xf32>, vector<32xf32>
        vector.store %908#3, %alloc_241[%arg342, %894, %arg344] : memref<12x1024x1024xf32>, vector<32xf32>
        vector.store %908#4, %alloc_241[%arg342, %895, %arg344] : memref<12x1024x1024xf32>, vector<32xf32>
        vector.store %908#5, %alloc_241[%arg342, %896, %arg344] : memref<12x1024x1024xf32>, vector<32xf32>
        vector.store %908#6, %alloc_241[%arg342, %897, %arg344] : memref<12x1024x1024xf32>, vector<32xf32>
        vector.store %908#7, %alloc_241[%arg342, %898, %arg344] : memref<12x1024x1024xf32>, vector<32xf32>
        %909 = arith.addi %arg344, %c32_251 : index
        scf.yield %909 : index
      }
      scf.for %arg344 = %899 to %dim_255 step %c1_243 {
        %900 = memref.load %alloc_241[%arg342, %arg343, %arg344] : memref<12x1024x1024xf32>
        %901 = memref.load %alloc_241[%arg342, %892, %arg344] : memref<12x1024x1024xf32>
        %902 = memref.load %alloc_241[%arg342, %893, %arg344] : memref<12x1024x1024xf32>
        %903 = memref.load %alloc_241[%arg342, %894, %arg344] : memref<12x1024x1024xf32>
        %904 = memref.load %alloc_241[%arg342, %895, %arg344] : memref<12x1024x1024xf32>
        %905 = memref.load %alloc_241[%arg342, %896, %arg344] : memref<12x1024x1024xf32>
        %906 = memref.load %alloc_241[%arg342, %897, %arg344] : memref<12x1024x1024xf32>
        %907 = memref.load %alloc_241[%arg342, %898, %arg344] : memref<12x1024x1024xf32>
        %908:8 = scf.for %arg345 = %c0_242 to %dim_254 step %c1_243 iter_args(%arg346 = %900, %arg347 = %901, %arg348 = %902, %arg349 = %903, %arg350 = %904, %arg351 = %905, %arg352 = %906, %arg353 = %907) -> (f32, f32, f32, f32, f32, f32, f32, f32) {
          %909 = memref.load %collapse_shape_238[%arg342, %arg343, %arg345] : memref<12x1024x128xf32>
          %910 = memref.load %collapse_shape_238[%arg342, %892, %arg345] : memref<12x1024x128xf32>
          %911 = memref.load %collapse_shape_238[%arg342, %893, %arg345] : memref<12x1024x128xf32>
          %912 = memref.load %collapse_shape_238[%arg342, %894, %arg345] : memref<12x1024x128xf32>
          %913 = memref.load %collapse_shape_238[%arg342, %895, %arg345] : memref<12x1024x128xf32>
          %914 = memref.load %collapse_shape_238[%arg342, %896, %arg345] : memref<12x1024x128xf32>
          %915 = memref.load %collapse_shape_238[%arg342, %897, %arg345] : memref<12x1024x128xf32>
          %916 = memref.load %collapse_shape_238[%arg342, %898, %arg345] : memref<12x1024x128xf32>
          %917 = memref.load %collapse_shape_239[%arg342, %arg345, %arg344] : memref<12x128x1024xf32>
          %918 = arith.mulf %909, %917 : f32
          %919 = arith.mulf %910, %917 : f32
          %920 = arith.mulf %911, %917 : f32
          %921 = arith.mulf %912, %917 : f32
          %922 = arith.mulf %913, %917 : f32
          %923 = arith.mulf %914, %917 : f32
          %924 = arith.mulf %915, %917 : f32
          %925 = arith.mulf %916, %917 : f32
          %926 = arith.addf %918, %arg346 : f32
          %927 = arith.addf %919, %arg347 : f32
          %928 = arith.addf %920, %arg348 : f32
          %929 = arith.addf %921, %arg349 : f32
          %930 = arith.addf %922, %arg350 : f32
          %931 = arith.addf %923, %arg351 : f32
          %932 = arith.addf %924, %arg352 : f32
          %933 = arith.addf %925, %arg353 : f32
          scf.yield %926, %927, %928, %929, %930, %931, %932, %933 : f32, f32, f32, f32, f32, f32, f32, f32
        }
        memref.store %908#0, %alloc_241[%arg342, %arg343, %arg344] : memref<12x1024x1024xf32>
        memref.store %908#1, %alloc_241[%arg342, %892, %arg344] : memref<12x1024x1024xf32>
        memref.store %908#2, %alloc_241[%arg342, %893, %arg344] : memref<12x1024x1024xf32>
        memref.store %908#3, %alloc_241[%arg342, %894, %arg344] : memref<12x1024x1024xf32>
        memref.store %908#4, %alloc_241[%arg342, %895, %arg344] : memref<12x1024x1024xf32>
        memref.store %908#5, %alloc_241[%arg342, %896, %arg344] : memref<12x1024x1024xf32>
        memref.store %908#6, %alloc_241[%arg342, %897, %arg344] : memref<12x1024x1024xf32>
        memref.store %908#7, %alloc_241[%arg342, %898, %arg344] : memref<12x1024x1024xf32>
      }
      scf.reduce 
    }
    %cst_256 = arith.constant 0.0883883461 : f32
    %69 = memref.get_global @__constant_12x1024x1024xf32 : memref<12x1024x1024xf32>
    %alloc_257 = memref.alloc() {alignment = 64 : i64} : memref<12x1024x1024xf32>
    linalg.generic {indexing_maps = [#map2, #map2, #map2], iterator_types = ["parallel", "parallel", "parallel"]} ins(%alloc_241, %69 : memref<12x1024x1024xf32>, memref<12x1024x1024xf32>) outs(%alloc_257 : memref<12x1024x1024xf32>) {
    ^bb0(%in: f32, %in_4156: f32, %out: f32):
      %892 = arith.mulf %in, %in_4156 : f32
      linalg.yield %892 : f32
    }
    %expand_shape_258 = memref.expand_shape %alloc_236 [[0, 1], [2]] output_shape [1, 1024, 1024] : memref<1024x1024xf32> into memref<1x1024x1024xf32>
    %alloc_259 = memref.alloc() {alignment = 64 : i64} : memref<12x1024x1024xf32>
    linalg.generic {indexing_maps = [#map2, #map14, #map2], iterator_types = ["parallel", "parallel", "parallel"]} ins(%alloc_257, %expand_shape_258 : memref<12x1024x1024xf32>, memref<1x1024x1024xf32>) outs(%alloc_259 : memref<12x1024x1024xf32>) {
    ^bb0(%in: f32, %in_4156: f32, %out: f32):
      %892 = arith.addf %in, %in_4156 : f32
      linalg.yield %892 : f32
    }
    %alloc_260 = memref.alloc() {alignment = 64 : i64} : memref<12x1024xf32>
    %cst_261 = arith.constant -3.40282347E+38 : f32
    linalg.fill ins(%cst_261 : f32) outs(%alloc_260 : memref<12x1024xf32>)
    linalg.reduce ins(%alloc_259 : memref<12x1024x1024xf32>) outs(%alloc_260 : memref<12x1024xf32>) dimensions = [2] 
      (%in: f32, %init: f32) {
        %892 = arith.maximumf %in, %init : f32
        linalg.yield %892 : f32
      }
    %expand_shape_262 = memref.expand_shape %alloc_260 [[0], [1, 2]] output_shape [12, 1024, 1] : memref<12x1024xf32> into memref<12x1024x1xf32>
    %alloc_263 = memref.alloc() {alignment = 64 : i64} : memref<12x1024x1024xf32>
    linalg.generic {indexing_maps = [#map2, #map9, #map2], iterator_types = ["parallel", "parallel", "parallel"]} ins(%alloc_259, %expand_shape_262 : memref<12x1024x1024xf32>, memref<12x1024x1xf32>) outs(%alloc_263 : memref<12x1024x1024xf32>) {
    ^bb0(%in: f32, %in_4156: f32, %out: f32):
      %892 = arith.subf %in, %in_4156 : f32
      linalg.yield %892 : f32
    }
    linalg.generic {indexing_maps = [#map2, #map2], iterator_types = ["parallel", "parallel", "parallel"]} ins(%alloc_263 : memref<12x1024x1024xf32>) outs(%alloc_263 : memref<12x1024x1024xf32>) {
    ^bb0(%in: f32, %out: f32):
      %892 = math.exp %in : f32
      linalg.yield %892 : f32
    }
    %alloc_264 = memref.alloc() {alignment = 64 : i64} : memref<12x1024xf32>
    %cst_265 = arith.constant 0.000000e+00 : f32
    linalg.fill ins(%cst_265 : f32) outs(%alloc_264 : memref<12x1024xf32>)
    linalg.reduce ins(%alloc_263 : memref<12x1024x1024xf32>) outs(%alloc_264 : memref<12x1024xf32>) dimensions = [2] 
      (%in: f32, %init: f32) {
        %892 = arith.addf %in, %init : f32
        linalg.yield %892 : f32
      }
    %expand_shape_266 = memref.expand_shape %alloc_264 [[0], [1, 2]] output_shape [12, 1024, 1] : memref<12x1024xf32> into memref<12x1024x1xf32>
    %alloc_267 = memref.alloc() {alignment = 64 : i64} : memref<12x1024x1xf32>
    linalg.generic {indexing_maps = [#map2, #map2], iterator_types = ["parallel", "parallel", "parallel"]} ins(%expand_shape_266 : memref<12x1024x1xf32>) outs(%alloc_267 : memref<12x1024x1xf32>) {
    ^bb0(%in: f32, %out: f32):
      %892 = math.log %in : f32
      linalg.yield %892 : f32
    }
    %alloc_268 = memref.alloc() {alignment = 64 : i64} : memref<12x1024x1xf32>
    linalg.generic {indexing_maps = [#map2, #map2, #map2], iterator_types = ["parallel", "parallel", "parallel"]} ins(%expand_shape_262, %alloc_267 : memref<12x1024x1xf32>, memref<12x1024x1xf32>) outs(%alloc_268 : memref<12x1024x1xf32>) {
    ^bb0(%in: f32, %in_4156: f32, %out: f32):
      %892 = arith.addf %in, %in_4156 : f32
      linalg.yield %892 : f32
    }
    %alloc_269 = memref.alloc() {alignment = 64 : i64} : memref<12x1024x1024xf32>
    linalg.generic {indexing_maps = [#map2, #map9, #map2], iterator_types = ["parallel", "parallel", "parallel"]} ins(%alloc_259, %alloc_268 : memref<12x1024x1024xf32>, memref<12x1024x1xf32>) outs(%alloc_269 : memref<12x1024x1024xf32>) {
    ^bb0(%in: f32, %in_4156: f32, %out: f32):
      %892 = arith.subf %in, %in_4156 : f32
      linalg.yield %892 : f32
    }
    linalg.generic {indexing_maps = [#map2, #map2], iterator_types = ["parallel", "parallel", "parallel"]} ins(%alloc_269 : memref<12x1024x1024xf32>) outs(%alloc_269 : memref<12x1024x1024xf32>) {
    ^bb0(%in: f32, %out: f32):
      %892 = math.exp %in : f32
      linalg.yield %892 : f32
    }
    %collapse_shape_270 = memref.collapse_shape %alloc_268 [[0], [1, 2]] : memref<12x1024x1xf32> into memref<12x1024xf32>
    %expand_shape_271 = memref.expand_shape %collapse_shape_270 [[0, 1], [2]] output_shape [1, 12, 1024] : memref<12x1024xf32> into memref<1x12x1024xf32>
    %collapse_shape_272 = memref.collapse_shape %alloc_232 [[0, 1, 2], [3], [4]] : memref<1x2x6x1024x128xf32> into memref<12x1024x128xf32>
    %cst_273 = arith.constant 0.000000e+00 : f32
    %alloc_274 = memref.alloc() {alignment = 64 : i64} : memref<12x1024x128xf32>
    linalg.fill ins(%cst_273 : f32) outs(%alloc_274 : memref<12x1024x128xf32>)
    %c0_275 = arith.constant 0 : index
    %c1_276 = arith.constant 1 : index
    %c2_277 = arith.constant 2 : index
    %c3_278 = arith.constant 3 : index
    %c4_279 = arith.constant 4 : index
    %c5_280 = arith.constant 5 : index
    %c6_281 = arith.constant 6 : index
    %c7_282 = arith.constant 7 : index
    %c8_283 = arith.constant 8 : index
    %c32_284 = arith.constant 32 : index
    %dim_285 = memref.dim %alloc_269, %c0_275 : memref<12x1024x1024xf32>
    %dim_286 = memref.dim %alloc_269, %c1_276 : memref<12x1024x1024xf32>
    %dim_287 = memref.dim %alloc_269, %c2_277 : memref<12x1024x1024xf32>
    %dim_288 = memref.dim %alloc_274, %c2_277 : memref<12x1024x128xf32>
    %70 = arith.subi %dim_288, %c32_284 : index
    %71 = arith.addi %70, %c1_276 : index
    scf.parallel (%arg342, %arg343) = (%c0_275, %c0_275) to (%dim_285, %dim_286) step (%c1_276, %c8_283) {
      %892 = arith.addi %arg343, %c1_276 : index
      %893 = arith.addi %arg343, %c2_277 : index
      %894 = arith.addi %arg343, %c3_278 : index
      %895 = arith.addi %arg343, %c4_279 : index
      %896 = arith.addi %arg343, %c5_280 : index
      %897 = arith.addi %arg343, %c6_281 : index
      %898 = arith.addi %arg343, %c7_282 : index
      %899 = scf.for %arg344 = %c0_275 to %71 step %c32_284 iter_args(%arg345 = %c0_275) -> (index) {
        %900 = vector.load %alloc_274[%arg342, %arg343, %arg344] : memref<12x1024x128xf32>, vector<32xf32>
        %901 = vector.load %alloc_274[%arg342, %892, %arg344] : memref<12x1024x128xf32>, vector<32xf32>
        %902 = vector.load %alloc_274[%arg342, %893, %arg344] : memref<12x1024x128xf32>, vector<32xf32>
        %903 = vector.load %alloc_274[%arg342, %894, %arg344] : memref<12x1024x128xf32>, vector<32xf32>
        %904 = vector.load %alloc_274[%arg342, %895, %arg344] : memref<12x1024x128xf32>, vector<32xf32>
        %905 = vector.load %alloc_274[%arg342, %896, %arg344] : memref<12x1024x128xf32>, vector<32xf32>
        %906 = vector.load %alloc_274[%arg342, %897, %arg344] : memref<12x1024x128xf32>, vector<32xf32>
        %907 = vector.load %alloc_274[%arg342, %898, %arg344] : memref<12x1024x128xf32>, vector<32xf32>
        %908:8 = scf.for %arg346 = %c0_275 to %dim_287 step %c1_276 iter_args(%arg347 = %900, %arg348 = %901, %arg349 = %902, %arg350 = %903, %arg351 = %904, %arg352 = %905, %arg353 = %906, %arg354 = %907) -> (vector<32xf32>, vector<32xf32>, vector<32xf32>, vector<32xf32>, vector<32xf32>, vector<32xf32>, vector<32xf32>, vector<32xf32>) {
          %910 = memref.load %alloc_269[%arg342, %arg343, %arg346] : memref<12x1024x1024xf32>
          %911 = memref.load %alloc_269[%arg342, %892, %arg346] : memref<12x1024x1024xf32>
          %912 = memref.load %alloc_269[%arg342, %893, %arg346] : memref<12x1024x1024xf32>
          %913 = memref.load %alloc_269[%arg342, %894, %arg346] : memref<12x1024x1024xf32>
          %914 = memref.load %alloc_269[%arg342, %895, %arg346] : memref<12x1024x1024xf32>
          %915 = memref.load %alloc_269[%arg342, %896, %arg346] : memref<12x1024x1024xf32>
          %916 = memref.load %alloc_269[%arg342, %897, %arg346] : memref<12x1024x1024xf32>
          %917 = memref.load %alloc_269[%arg342, %898, %arg346] : memref<12x1024x1024xf32>
          %918 = vector.broadcast %910 : f32 to vector<32xf32>
          %919 = vector.broadcast %911 : f32 to vector<32xf32>
          %920 = vector.broadcast %912 : f32 to vector<32xf32>
          %921 = vector.broadcast %913 : f32 to vector<32xf32>
          %922 = vector.broadcast %914 : f32 to vector<32xf32>
          %923 = vector.broadcast %915 : f32 to vector<32xf32>
          %924 = vector.broadcast %916 : f32 to vector<32xf32>
          %925 = vector.broadcast %917 : f32 to vector<32xf32>
          %926 = vector.load %collapse_shape_272[%arg342, %arg346, %arg344] : memref<12x1024x128xf32>, vector<32xf32>
          %927 = vector.fma %918, %926, %arg347 : vector<32xf32>
          %928 = vector.fma %919, %926, %arg348 : vector<32xf32>
          %929 = vector.fma %920, %926, %arg349 : vector<32xf32>
          %930 = vector.fma %921, %926, %arg350 : vector<32xf32>
          %931 = vector.fma %922, %926, %arg351 : vector<32xf32>
          %932 = vector.fma %923, %926, %arg352 : vector<32xf32>
          %933 = vector.fma %924, %926, %arg353 : vector<32xf32>
          %934 = vector.fma %925, %926, %arg354 : vector<32xf32>
          scf.yield %927, %928, %929, %930, %931, %932, %933, %934 : vector<32xf32>, vector<32xf32>, vector<32xf32>, vector<32xf32>, vector<32xf32>, vector<32xf32>, vector<32xf32>, vector<32xf32>
        }
        vector.store %908#0, %alloc_274[%arg342, %arg343, %arg344] : memref<12x1024x128xf32>, vector<32xf32>
        vector.store %908#1, %alloc_274[%arg342, %892, %arg344] : memref<12x1024x128xf32>, vector<32xf32>
        vector.store %908#2, %alloc_274[%arg342, %893, %arg344] : memref<12x1024x128xf32>, vector<32xf32>
        vector.store %908#3, %alloc_274[%arg342, %894, %arg344] : memref<12x1024x128xf32>, vector<32xf32>
        vector.store %908#4, %alloc_274[%arg342, %895, %arg344] : memref<12x1024x128xf32>, vector<32xf32>
        vector.store %908#5, %alloc_274[%arg342, %896, %arg344] : memref<12x1024x128xf32>, vector<32xf32>
        vector.store %908#6, %alloc_274[%arg342, %897, %arg344] : memref<12x1024x128xf32>, vector<32xf32>
        vector.store %908#7, %alloc_274[%arg342, %898, %arg344] : memref<12x1024x128xf32>, vector<32xf32>
        %909 = arith.addi %arg344, %c32_284 : index
        scf.yield %909 : index
      }
      scf.for %arg344 = %899 to %dim_288 step %c1_276 {
        %900 = memref.load %alloc_274[%arg342, %arg343, %arg344] : memref<12x1024x128xf32>
        %901 = memref.load %alloc_274[%arg342, %892, %arg344] : memref<12x1024x128xf32>
        %902 = memref.load %alloc_274[%arg342, %893, %arg344] : memref<12x1024x128xf32>
        %903 = memref.load %alloc_274[%arg342, %894, %arg344] : memref<12x1024x128xf32>
        %904 = memref.load %alloc_274[%arg342, %895, %arg344] : memref<12x1024x128xf32>
        %905 = memref.load %alloc_274[%arg342, %896, %arg344] : memref<12x1024x128xf32>
        %906 = memref.load %alloc_274[%arg342, %897, %arg344] : memref<12x1024x128xf32>
        %907 = memref.load %alloc_274[%arg342, %898, %arg344] : memref<12x1024x128xf32>
        %908:8 = scf.for %arg345 = %c0_275 to %dim_287 step %c1_276 iter_args(%arg346 = %900, %arg347 = %901, %arg348 = %902, %arg349 = %903, %arg350 = %904, %arg351 = %905, %arg352 = %906, %arg353 = %907) -> (f32, f32, f32, f32, f32, f32, f32, f32) {
          %909 = memref.load %alloc_269[%arg342, %arg343, %arg345] : memref<12x1024x1024xf32>
          %910 = memref.load %alloc_269[%arg342, %892, %arg345] : memref<12x1024x1024xf32>
          %911 = memref.load %alloc_269[%arg342, %893, %arg345] : memref<12x1024x1024xf32>
          %912 = memref.load %alloc_269[%arg342, %894, %arg345] : memref<12x1024x1024xf32>
          %913 = memref.load %alloc_269[%arg342, %895, %arg345] : memref<12x1024x1024xf32>
          %914 = memref.load %alloc_269[%arg342, %896, %arg345] : memref<12x1024x1024xf32>
          %915 = memref.load %alloc_269[%arg342, %897, %arg345] : memref<12x1024x1024xf32>
          %916 = memref.load %alloc_269[%arg342, %898, %arg345] : memref<12x1024x1024xf32>
          %917 = memref.load %collapse_shape_272[%arg342, %arg345, %arg344] : memref<12x1024x128xf32>
          %918 = arith.mulf %909, %917 : f32
          %919 = arith.mulf %910, %917 : f32
          %920 = arith.mulf %911, %917 : f32
          %921 = arith.mulf %912, %917 : f32
          %922 = arith.mulf %913, %917 : f32
          %923 = arith.mulf %914, %917 : f32
          %924 = arith.mulf %915, %917 : f32
          %925 = arith.mulf %916, %917 : f32
          %926 = arith.addf %918, %arg346 : f32
          %927 = arith.addf %919, %arg347 : f32
          %928 = arith.addf %920, %arg348 : f32
          %929 = arith.addf %921, %arg349 : f32
          %930 = arith.addf %922, %arg350 : f32
          %931 = arith.addf %923, %arg351 : f32
          %932 = arith.addf %924, %arg352 : f32
          %933 = arith.addf %925, %arg353 : f32
          scf.yield %926, %927, %928, %929, %930, %931, %932, %933 : f32, f32, f32, f32, f32, f32, f32, f32
        }
        memref.store %908#0, %alloc_274[%arg342, %arg343, %arg344] : memref<12x1024x128xf32>
        memref.store %908#1, %alloc_274[%arg342, %892, %arg344] : memref<12x1024x128xf32>
        memref.store %908#2, %alloc_274[%arg342, %893, %arg344] : memref<12x1024x128xf32>
        memref.store %908#3, %alloc_274[%arg342, %894, %arg344] : memref<12x1024x128xf32>
        memref.store %908#4, %alloc_274[%arg342, %895, %arg344] : memref<12x1024x128xf32>
        memref.store %908#5, %alloc_274[%arg342, %896, %arg344] : memref<12x1024x128xf32>
        memref.store %908#6, %alloc_274[%arg342, %897, %arg344] : memref<12x1024x128xf32>
        memref.store %908#7, %alloc_274[%arg342, %898, %arg344] : memref<12x1024x128xf32>
      }
      scf.reduce 
    }
    %expand_shape_289 = memref.expand_shape %alloc_274 [[0, 1], [2], [3]] output_shape [1, 12, 1024, 128] : memref<12x1024x128xf32> into memref<1x12x1024x128xf32>
    %72 = memref.get_global @__constant_4xi32 : memref<4xi32>
    %alloc_290 = memref.alloc() {alignment = 64 : i64} : memref<1x1024x12x128xf32>
    linalg.transpose ins(%expand_shape_289 : memref<1x12x1024x128xf32>) outs(%alloc_290 : memref<1x1024x12x128xf32>) permutation = [0, 2, 1, 3] 
    %collapse_shape_291 = memref.collapse_shape %alloc_290 [[0], [1], [2, 3]] : memref<1x1024x12x128xf32> into memref<1x1024x1536xf32>
    %collapse_shape_292 = memref.collapse_shape %alloc_290 [[0, 1], [2, 3]] : memref<1x1024x12x128xf32> into memref<1024x1536xf32>
    %73 = memref.get_global @__constant_1024x1536xf32 : memref<1024x1536xf32>
    %alloc_293 = memref.alloc() {alignment = 64 : i64} : memref<1024x1536xf32>
    memref.copy %73, %alloc_293 : memref<1024x1536xf32> to memref<1024x1536xf32>
    linalg.matmul_transpose_b {cast = #linalg.type_fn<cast_signed>} ins(%collapse_shape_292, %arg23 : memref<1024x1536xf32>, memref<1536x1536xf32, strided<[?, ?], offset: ?>>) outs(%alloc_293 : memref<1024x1536xf32>)
    %expand_shape_294 = memref.expand_shape %alloc_293 [[0, 1], [2]] output_shape [1, 1024, 1536] : memref<1024x1536xf32> into memref<1x1024x1536xf32>
    %alloc_295 = memref.alloc() {alignment = 64 : i64} : memref<1x1024x1536xf32>
    linalg.generic {indexing_maps = [#map2, #map2, #map2], iterator_types = ["parallel", "parallel", "parallel"]} ins(%alloc_172, %expand_shape_294 : memref<1x1024x1536xf32>, memref<1x1024x1536xf32>) outs(%alloc_295 : memref<1x1024x1536xf32>) {
    ^bb0(%in: f32, %in_4156: f32, %out: f32):
      %892 = arith.addf %in, %in_4156 : f32
      linalg.yield %892 : f32
    }
    %alloc_296 = memref.alloc() {alignment = 64 : i64} : memref<1x1024x1536xf32>
    %c2_i32_297 = arith.constant 2 : i32
    linalg.generic {indexing_maps = [#map2, #map2], iterator_types = ["parallel", "parallel", "parallel"]} ins(%alloc_295 : memref<1x1024x1536xf32>) outs(%alloc_296 : memref<1x1024x1536xf32>) {
    ^bb0(%in: f32, %out: f32):
      %892 = math.fpowi %in, %c2_i32_297 : f32, i32
      linalg.yield %892 : f32
    }
    %alloc_298 = memref.alloc() {alignment = 64 : i64} : memref<1x1024xf32>
    %cst_299 = arith.constant 0.000000e+00 : f32
    linalg.fill ins(%cst_299 : f32) outs(%alloc_298 : memref<1x1024xf32>)
    linalg.reduce ins(%alloc_296 : memref<1x1024x1536xf32>) outs(%alloc_298 : memref<1x1024xf32>) dimensions = [2] 
      (%in: f32, %init: f32) {
        %892 = arith.addf %in, %init : f32
        linalg.yield %892 : f32
      }
    %expand_shape_300 = memref.expand_shape %alloc_298 [[0], [1, 2]] output_shape [1, 1024, 1] : memref<1x1024xf32> into memref<1x1024x1xf32>
    %74 = memref.get_global @__constant_1xf32_0 : memref<1xf32>
    %75 = memref.get_global @__constant_1xf32_1 : memref<1xf32>
    %76 = memref.get_global @__constant_1x1x1xf32_0 : memref<1x1x1xf32>
    %alloc_301 = memref.alloc() {alignment = 64 : i64} : memref<1x1024x1xf32>
    linalg.generic {indexing_maps = [#map8, #map2, #map2], iterator_types = ["parallel", "parallel", "parallel"]} ins(%76, %expand_shape_300 : memref<1x1x1xf32>, memref<1x1024x1xf32>) outs(%alloc_301 : memref<1x1024x1xf32>) {
    ^bb0(%in: f32, %in_4156: f32, %out: f32):
      %892 = arith.mulf %in, %in_4156 : f32
      linalg.yield %892 : f32
    }
    %77 = memref.get_global @__constant_1x1024x1xf32 : memref<1x1024x1xf32>
    %alloc_302 = memref.alloc() {alignment = 64 : i64} : memref<1x1024x1xf32>
    linalg.generic {indexing_maps = [#map2, #map2, #map2], iterator_types = ["parallel", "parallel", "parallel"]} ins(%alloc_301, %77 : memref<1x1024x1xf32>, memref<1x1024x1xf32>) outs(%alloc_302 : memref<1x1024x1xf32>) {
    ^bb0(%in: f32, %in_4156: f32, %out: f32):
      %892 = arith.addf %in, %in_4156 : f32
      linalg.yield %892 : f32
    }
    %alloc_303 = memref.alloc() {alignment = 64 : i64} : memref<1x1024x1xf32>
    linalg.generic {indexing_maps = [#map2, #map2], iterator_types = ["parallel", "parallel", "parallel"]} ins(%alloc_302 : memref<1x1024x1xf32>) outs(%alloc_303 : memref<1x1024x1xf32>) {
    ^bb0(%in: f32, %out: f32):
      %892 = math.rsqrt %in : f32
      linalg.yield %892 : f32
    }
    %alloc_304 = memref.alloc() {alignment = 64 : i64} : memref<1x1024x1536xf32>
    linalg.generic {indexing_maps = [#map2, #map9, #map2], iterator_types = ["parallel", "parallel", "parallel"]} ins(%alloc_295, %alloc_303 : memref<1x1024x1536xf32>, memref<1x1024x1xf32>) outs(%alloc_304 : memref<1x1024x1536xf32>) {
    ^bb0(%in: f32, %in_4156: f32, %out: f32):
      %892 = arith.mulf %in, %in_4156 : f32
      linalg.yield %892 : f32
    }
    %expand_shape_305 = memref.expand_shape %arg24 [[0, 1, 2]] output_shape [1, 1, 1536] : memref<1536xf32, strided<[?], offset: ?>> into memref<1x1x1536xf32, strided<[?, ?, ?], offset: ?>>
    %alloc_306 = memref.alloc() {alignment = 64 : i64} : memref<1x1024x1536xf32>
    linalg.generic {indexing_maps = [#map8, #map2, #map2], iterator_types = ["parallel", "parallel", "parallel"]} ins(%expand_shape_305, %alloc_304 : memref<1x1x1536xf32, strided<[?, ?, ?], offset: ?>>, memref<1x1024x1536xf32>) outs(%alloc_306 : memref<1x1024x1536xf32>) {
    ^bb0(%in: f32, %in_4156: f32, %out: f32):
      %892 = arith.mulf %in, %in_4156 : f32
      linalg.yield %892 : f32
    }
    %collapse_shape_307 = memref.collapse_shape %alloc_306 [[0, 1], [2]] : memref<1x1024x1536xf32> into memref<1024x1536xf32>
    %78 = memref.get_global @__constant_1024x8960xf32 : memref<1024x8960xf32>
    %alloc_308 = memref.alloc() {alignment = 64 : i64} : memref<1024x8960xf32>
    memref.copy %78, %alloc_308 : memref<1024x8960xf32> to memref<1024x8960xf32>
    linalg.matmul_transpose_b {cast = #linalg.type_fn<cast_signed>} ins(%collapse_shape_307, %arg25 : memref<1024x1536xf32>, memref<8960x1536xf32, strided<[?, ?], offset: ?>>) outs(%alloc_308 : memref<1024x8960xf32>)
    %expand_shape_309 = memref.expand_shape %alloc_308 [[0, 1], [2]] output_shape [1, 1024, 8960] : memref<1024x8960xf32> into memref<1x1024x8960xf32>
    %alloc_310 = memref.alloc() {alignment = 64 : i64} : memref<1x1024x8960xf32>
    linalg.generic {indexing_maps = [#map2, #map2], iterator_types = ["parallel", "parallel", "parallel"]} ins(%expand_shape_309 : memref<1x1024x8960xf32>) outs(%alloc_310 : memref<1x1024x8960xf32>) {
    ^bb0(%in: f32, %out: f32):
      %cst_4156 = arith.constant 1.000000e+00 : f32
      %892 = arith.negf %in : f32
      %893 = math.exp %892 : f32
      %894 = arith.addf %893, %cst_4156 : f32
      %895 = arith.divf %cst_4156, %894 : f32
      linalg.yield %895 : f32
    }
    %alloc_311 = memref.alloc() {alignment = 64 : i64} : memref<1x1024x8960xf32>
    linalg.generic {indexing_maps = [#map2, #map2, #map2], iterator_types = ["parallel", "parallel", "parallel"]} ins(%expand_shape_309, %alloc_310 : memref<1x1024x8960xf32>, memref<1x1024x8960xf32>) outs(%alloc_311 : memref<1x1024x8960xf32>) {
    ^bb0(%in: f32, %in_4156: f32, %out: f32):
      %892 = arith.mulf %in, %in_4156 : f32
      linalg.yield %892 : f32
    }
    %collapse_shape_312 = memref.collapse_shape %alloc_306 [[0, 1], [2]] : memref<1x1024x1536xf32> into memref<1024x1536xf32>
    %79 = memref.get_global @__constant_1024x8960xf32 : memref<1024x8960xf32>
    %alloc_313 = memref.alloc() {alignment = 64 : i64} : memref<1024x8960xf32>
    memref.copy %79, %alloc_313 : memref<1024x8960xf32> to memref<1024x8960xf32>
    linalg.matmul_transpose_b {cast = #linalg.type_fn<cast_signed>} ins(%collapse_shape_312, %arg26 : memref<1024x1536xf32>, memref<8960x1536xf32, strided<[?, ?], offset: ?>>) outs(%alloc_313 : memref<1024x8960xf32>)
    %expand_shape_314 = memref.expand_shape %alloc_313 [[0, 1], [2]] output_shape [1, 1024, 8960] : memref<1024x8960xf32> into memref<1x1024x8960xf32>
    %alloc_315 = memref.alloc() {alignment = 64 : i64} : memref<1x1024x8960xf32>
    linalg.generic {indexing_maps = [#map2, #map2, #map2], iterator_types = ["parallel", "parallel", "parallel"]} ins(%alloc_311, %expand_shape_314 : memref<1x1024x8960xf32>, memref<1x1024x8960xf32>) outs(%alloc_315 : memref<1x1024x8960xf32>) {
    ^bb0(%in: f32, %in_4156: f32, %out: f32):
      %892 = arith.mulf %in, %in_4156 : f32
      linalg.yield %892 : f32
    }
    %collapse_shape_316 = memref.collapse_shape %alloc_315 [[0, 1], [2]] : memref<1x1024x8960xf32> into memref<1024x8960xf32>
    %80 = memref.get_global @__constant_1024x1536xf32 : memref<1024x1536xf32>
    %alloc_317 = memref.alloc() {alignment = 64 : i64} : memref<1024x1536xf32>
    memref.copy %80, %alloc_317 : memref<1024x1536xf32> to memref<1024x1536xf32>
    linalg.matmul_transpose_b {cast = #linalg.type_fn<cast_signed>} ins(%collapse_shape_316, %arg27 : memref<1024x8960xf32>, memref<1536x8960xf32, strided<[?, ?], offset: ?>>) outs(%alloc_317 : memref<1024x1536xf32>)
    %expand_shape_318 = memref.expand_shape %alloc_317 [[0, 1], [2]] output_shape [1, 1024, 1536] : memref<1024x1536xf32> into memref<1x1024x1536xf32>
    %alloc_319 = memref.alloc() {alignment = 64 : i64} : memref<1x1024x1536xf32>
    linalg.generic {indexing_maps = [#map2, #map2, #map2], iterator_types = ["parallel", "parallel", "parallel"]} ins(%alloc_295, %expand_shape_318 : memref<1x1024x1536xf32>, memref<1x1024x1536xf32>) outs(%alloc_319 : memref<1x1024x1536xf32>) {
    ^bb0(%in: f32, %in_4156: f32, %out: f32):
      %892 = arith.addf %in, %in_4156 : f32
      linalg.yield %892 : f32
    }
    %alloc_320 = memref.alloc() {alignment = 64 : i64} : memref<1x1024x1536xf32>
    %c2_i32_321 = arith.constant 2 : i32
    linalg.generic {indexing_maps = [#map2, #map2], iterator_types = ["parallel", "parallel", "parallel"]} ins(%alloc_319 : memref<1x1024x1536xf32>) outs(%alloc_320 : memref<1x1024x1536xf32>) {
    ^bb0(%in: f32, %out: f32):
      %892 = math.fpowi %in, %c2_i32_321 : f32, i32
      linalg.yield %892 : f32
    }
    %alloc_322 = memref.alloc() {alignment = 64 : i64} : memref<1x1024xf32>
    %cst_323 = arith.constant 0.000000e+00 : f32
    linalg.fill ins(%cst_323 : f32) outs(%alloc_322 : memref<1x1024xf32>)
    linalg.reduce ins(%alloc_320 : memref<1x1024x1536xf32>) outs(%alloc_322 : memref<1x1024xf32>) dimensions = [2] 
      (%in: f32, %init: f32) {
        %892 = arith.addf %in, %init : f32
        linalg.yield %892 : f32
      }
    %expand_shape_324 = memref.expand_shape %alloc_322 [[0], [1, 2]] output_shape [1, 1024, 1] : memref<1x1024xf32> into memref<1x1024x1xf32>
    %81 = memref.get_global @__constant_1xf32_0 : memref<1xf32>
    %82 = memref.get_global @__constant_1xf32_1 : memref<1xf32>
    %83 = memref.get_global @__constant_1x1x1xf32_0 : memref<1x1x1xf32>
    %alloc_325 = memref.alloc() {alignment = 64 : i64} : memref<1x1024x1xf32>
    linalg.generic {indexing_maps = [#map8, #map2, #map2], iterator_types = ["parallel", "parallel", "parallel"]} ins(%83, %expand_shape_324 : memref<1x1x1xf32>, memref<1x1024x1xf32>) outs(%alloc_325 : memref<1x1024x1xf32>) {
    ^bb0(%in: f32, %in_4156: f32, %out: f32):
      %892 = arith.mulf %in, %in_4156 : f32
      linalg.yield %892 : f32
    }
    %84 = memref.get_global @__constant_1x1024x1xf32 : memref<1x1024x1xf32>
    %alloc_326 = memref.alloc() {alignment = 64 : i64} : memref<1x1024x1xf32>
    linalg.generic {indexing_maps = [#map2, #map2, #map2], iterator_types = ["parallel", "parallel", "parallel"]} ins(%alloc_325, %84 : memref<1x1024x1xf32>, memref<1x1024x1xf32>) outs(%alloc_326 : memref<1x1024x1xf32>) {
    ^bb0(%in: f32, %in_4156: f32, %out: f32):
      %892 = arith.addf %in, %in_4156 : f32
      linalg.yield %892 : f32
    }
    %alloc_327 = memref.alloc() {alignment = 64 : i64} : memref<1x1024x1xf32>
    linalg.generic {indexing_maps = [#map2, #map2], iterator_types = ["parallel", "parallel", "parallel"]} ins(%alloc_326 : memref<1x1024x1xf32>) outs(%alloc_327 : memref<1x1024x1xf32>) {
    ^bb0(%in: f32, %out: f32):
      %892 = math.rsqrt %in : f32
      linalg.yield %892 : f32
    }
    %alloc_328 = memref.alloc() {alignment = 64 : i64} : memref<1x1024x1536xf32>
    linalg.generic {indexing_maps = [#map2, #map9, #map2], iterator_types = ["parallel", "parallel", "parallel"]} ins(%alloc_319, %alloc_327 : memref<1x1024x1536xf32>, memref<1x1024x1xf32>) outs(%alloc_328 : memref<1x1024x1536xf32>) {
    ^bb0(%in: f32, %in_4156: f32, %out: f32):
      %892 = arith.mulf %in, %in_4156 : f32
      linalg.yield %892 : f32
    }
    %expand_shape_329 = memref.expand_shape %arg28 [[0, 1, 2]] output_shape [1, 1, 1536] : memref<1536xf32, strided<[?], offset: ?>> into memref<1x1x1536xf32, strided<[?, ?, ?], offset: ?>>
    %alloc_330 = memref.alloc() {alignment = 64 : i64} : memref<1x1024x1536xf32>
    linalg.generic {indexing_maps = [#map8, #map2, #map2], iterator_types = ["parallel", "parallel", "parallel"]} ins(%expand_shape_329, %alloc_328 : memref<1x1x1536xf32, strided<[?, ?, ?], offset: ?>>, memref<1x1024x1536xf32>) outs(%alloc_330 : memref<1x1024x1536xf32>) {
    ^bb0(%in: f32, %in_4156: f32, %out: f32):
      %892 = arith.mulf %in, %in_4156 : f32
      linalg.yield %892 : f32
    }
    %collapse_shape_331 = memref.collapse_shape %alloc_330 [[0, 1], [2]] : memref<1x1024x1536xf32> into memref<1024x1536xf32>
    %85 = memref.get_global @__constant_2xi32 : memref<2xi32>
    %alloc_332 = memref.alloc() {alignment = 64 : i64} : memref<1536x1536xf32>
    linalg.transpose ins(%arg29 : memref<1536x1536xf32, strided<[?, ?], offset: ?>>) outs(%alloc_332 : memref<1536x1536xf32>) permutation = [1, 0] 
…
    %collapse_shape_4018 = memref.collapse_shape %alloc_4005 [[0, 1], [2]] : memref<1x1024x1536xf32> into memref<1024x1536xf32>
    %864 = memref.get_global @__constant_2xi32 : memref<2xi32>
    %alloc_4019 = memref.alloc() {alignment = 64 : i64} : memref<1536x256xf32>
    linalg.transpose ins(%arg333 : memref<256x1536xf32, strided<[?, ?], offset: ?>>) outs(%alloc_4019 : memref<1536x256xf32>) permutation = [1, 0] 
    %865 = memref.get_global @__constant_1024x256xf32 : memref<1024x256xf32>
    %alloc_4020 = memref.alloc() {alignment = 64 : i64} : memref<1024x256xf32>
    memref.copy %865, %alloc_4020 : memref<1024x256xf32> to memref<1024x256xf32>
    linalg.matmul {cast = #linalg.type_fn<cast_signed>} ins(%collapse_shape_4018, %alloc_4019 : memref<1024x1536xf32>, memref<1536x256xf32>) outs(%alloc_4020 : memref<1024x256xf32>)
    %expand_shape_4021 = memref.expand_shape %arg334 [[0, 1]] output_shape [1, 256] : memref<256xf32, strided<[?], offset: ?>> into memref<1x256xf32, strided<[?, ?], offset: ?>>
    %alloc_4022 = memref.alloc() {alignment = 64 : i64} : memref<1024x256xf32>
    linalg.generic {indexing_maps = [#map10, #map, #map], iterator_types = ["parallel", "parallel"]} ins(%expand_shape_4021, %alloc_4020 : memref<1x256xf32, strided<[?, ?], offset: ?>>, memref<1024x256xf32>) outs(%alloc_4022 : memref<1024x256xf32>) {
    ^bb0(%in: f32, %in_4156: f32, %out: f32):
      %892 = arith.addf %in, %in_4156 : f32
      linalg.yield %892 : f32
    }
    %expand_shape_4023 = memref.expand_shape %alloc_4022 [[0, 1], [2]] output_shape [1, 1024, 256] : memref<1024x256xf32> into memref<1x1024x256xf32>
    %expand_shape_4024 = memref.expand_shape %alloc_4010 [[0, 1], [2, 3]] output_shape [1, 1024, 12, 128] : memref<1024x1536xf32> into memref<1x1024x12x128xf32>
    %866 = memref.get_global @__constant_4xi32 : memref<4xi32>
    %alloc_4025 = memref.alloc() {alignment = 64 : i64} : memref<1x12x1024x128xf32>
    linalg.transpose ins(%expand_shape_4024 : memref<1x1024x12x128xf32>) outs(%alloc_4025 : memref<1x12x1024x128xf32>) permutation = [0, 2, 1, 3] 
    %expand_shape_4026 = memref.expand_shape %alloc_4016 [[0, 1], [2, 3]] output_shape [1, 1024, 2, 128] : memref<1024x256xf32> into memref<1x1024x2x128xf32>
    %867 = memref.get_global @__constant_4xi32 : memref<4xi32>
    %alloc_4027 = memref.alloc() {alignment = 64 : i64} : memref<1x2x1024x128xf32>
    linalg.transpose ins(%expand_shape_4026 : memref<1x1024x2x128xf32>) outs(%alloc_4027 : memref<1x2x1024x128xf32>) permutation = [0, 2, 1, 3] 
    %expand_shape_4028 = memref.expand_shape %alloc_4022 [[0, 1], [2, 3]] output_shape [1, 1024, 2, 128] : memref<1024x256xf32> into memref<1x1024x2x128xf32>
    %868 = memref.get_global @__constant_4xi32 : memref<4xi32>
    %alloc_4029 = memref.alloc() {alignment = 64 : i64} : memref<1x2x1024x128xf32>
    linalg.transpose ins(%expand_shape_4028 : memref<1x1024x2x128xf32>) outs(%alloc_4029 : memref<1x2x1024x128xf32>) permutation = [0, 2, 1, 3] 
    %expand_shape_4030 = memref.expand_shape %alloc_26 [[0, 1], [2], [3]] output_shape [1, 1, 1024, 128] : memref<1x1024x128xf32> into memref<1x1x1024x128xf32>
    %expand_shape_4031 = memref.expand_shape %alloc_27 [[0, 1], [2], [3]] output_shape [1, 1, 1024, 128] : memref<1x1024x128xf32> into memref<1x1x1024x128xf32>
    %alloc_4032 = memref.alloc() {alignment = 64 : i64} : memref<1x12x1024x128xf32>
    linalg.generic {indexing_maps = [#map5, #map11, #map5], iterator_types = ["parallel", "parallel", "parallel", "parallel"]} ins(%alloc_4025, %expand_shape_4030 : memref<1x12x1024x128xf32>, memref<1x1x1024x128xf32>) outs(%alloc_4032 : memref<1x12x1024x128xf32>) {
    ^bb0(%in: f32, %in_4156: f32, %out: f32):
      %892 = arith.mulf %in, %in_4156 : f32
      linalg.yield %892 : f32
    }
    %subview_4033 = memref.subview %alloc_4025[0, 0, 0, 0] [1, 12, 1024, 64] [1, 1, 1, 1] : memref<1x12x1024x128xf32> to memref<1x12x1024x64xf32, strided<[1572864, 131072, 128, 1]>>
    %subview_4034 = memref.subview %alloc_4025[0, 0, 0, 64] [1, 12, 1024, 64] [1, 1, 1, 1] : memref<1x12x1024x128xf32> to memref<1x12x1024x64xf32, strided<[1572864, 131072, 128, 1], offset: 64>>
    %alloc_4035 = memref.alloc() {alignment = 64 : i64} : memref<1x12x1024x64xf32>
    linalg.negf ins(%subview_4034 : memref<1x12x1024x64xf32, strided<[1572864, 131072, 128, 1], offset: 64>>) outs(%alloc_4035 : memref<1x12x1024x64xf32>)
    %alloc_4036 = memref.alloc() {alignment = 64 : i64} : memref<1x12x1024x128xf32>
    %subview_4037 = memref.subview %alloc_4036[0, 0, 0, 0] [1, 12, 1024, 64] [1, 1, 1, 1] : memref<1x12x1024x128xf32> to memref<1x12x1024x64xf32, strided<[1572864, 131072, 128, 1]>>
    memref.copy %alloc_4035, %subview_4037 : memref<1x12x1024x64xf32> to memref<1x12x1024x64xf32, strided<[1572864, 131072, 128, 1]>>
    %subview_4038 = memref.subview %alloc_4036[0, 0, 0, 64] [1, 12, 1024, 64] [1, 1, 1, 1] : memref<1x12x1024x128xf32> to memref<1x12x1024x64xf32, strided<[1572864, 131072, 128, 1], offset: 64>>
    memref.copy %subview_4033, %subview_4038 : memref<1x12x1024x64xf32, strided<[1572864, 131072, 128, 1]>> to memref<1x12x1024x64xf32, strided<[1572864, 131072, 128, 1], offset: 64>>
    %alloc_4039 = memref.alloc() {alignment = 64 : i64} : memref<1x12x1024x128xf32>
    linalg.generic {indexing_maps = [#map5, #map11, #map5], iterator_types = ["parallel", "parallel", "parallel", "parallel"]} ins(%alloc_4036, %expand_shape_4031 : memref<1x12x1024x128xf32>, memref<1x1x1024x128xf32>) outs(%alloc_4039 : memref<1x12x1024x128xf32>) {
    ^bb0(%in: f32, %in_4156: f32, %out: f32):
      %892 = arith.mulf %in, %in_4156 : f32
      linalg.yield %892 : f32
    }
    %alloc_4040 = memref.alloc() {alignment = 64 : i64} : memref<1x12x1024x128xf32>
    linalg.generic {indexing_maps = [#map5, #map5, #map5], iterator_types = ["parallel", "parallel", "parallel", "parallel"]} ins(%alloc_4032, %alloc_4039 : memref<1x12x1024x128xf32>, memref<1x12x1024x128xf32>) outs(%alloc_4040 : memref<1x12x1024x128xf32>) {
    ^bb0(%in: f32, %in_4156: f32, %out: f32):
      %892 = arith.addf %in, %in_4156 : f32
      linalg.yield %892 : f32
    }
    %alloc_4041 = memref.alloc() {alignment = 64 : i64} : memref<1x2x1024x128xf32>
    linalg.generic {indexing_maps = [#map5, #map11, #map5], iterator_types = ["parallel", "parallel", "parallel", "parallel"]} ins(%alloc_4027, %expand_shape_4030 : memref<1x2x1024x128xf32>, memref<1x1x1024x128xf32>) outs(%alloc_4041 : memref<1x2x1024x128xf32>) {
    ^bb0(%in: f32, %in_4156: f32, %out: f32):
      %892 = arith.mulf %in, %in_4156 : f32
      linalg.yield %892 : f32
    }
    %subview_4042 = memref.subview %alloc_4027[0, 0, 0, 0] [1, 2, 1024, 64] [1, 1, 1, 1] : memref<1x2x1024x128xf32> to memref<1x2x1024x64xf32, strided<[262144, 131072, 128, 1]>>
    %subview_4043 = memref.subview %alloc_4027[0, 0, 0, 64] [1, 2, 1024, 64] [1, 1, 1, 1] : memref<1x2x1024x128xf32> to memref<1x2x1024x64xf32, strided<[262144, 131072, 128, 1], offset: 64>>
    %alloc_4044 = memref.alloc() {alignment = 64 : i64} : memref<1x2x1024x64xf32>
    linalg.negf ins(%subview_4043 : memref<1x2x1024x64xf32, strided<[262144, 131072, 128, 1], offset: 64>>) outs(%alloc_4044 : memref<1x2x1024x64xf32>)
    %alloc_4045 = memref.alloc() {alignment = 64 : i64} : memref<1x2x1024x128xf32>
    %subview_4046 = memref.subview %alloc_4045[0, 0, 0, 0] [1, 2, 1024, 64] [1, 1, 1, 1] : memref<1x2x1024x128xf32> to memref<1x2x1024x64xf32, strided<[262144, 131072, 128, 1]>>
    memref.copy %alloc_4044, %subview_4046 : memref<1x2x1024x64xf32> to memref<1x2x1024x64xf32, strided<[262144, 131072, 128, 1]>>
    %subview_4047 = memref.subview %alloc_4045[0, 0, 0, 64] [1, 2, 1024, 64] [1, 1, 1, 1] : memref<1x2x1024x128xf32> to memref<1x2x1024x64xf32, strided<[262144, 131072, 128, 1], offset: 64>>
    memref.copy %subview_4042, %subview_4047 : memref<1x2x1024x64xf32, strided<[262144, 131072, 128, 1]>> to memref<1x2x1024x64xf32, strided<[262144, 131072, 128, 1], offset: 64>>
    %alloc_4048 = memref.alloc() {alignment = 64 : i64} : memref<1x2x1024x128xf32>
    linalg.generic {indexing_maps = [#map5, #map11, #map5], iterator_types = ["parallel", "parallel", "parallel", "parallel"]} ins(%alloc_4045, %expand_shape_4031 : memref<1x2x1024x128xf32>, memref<1x1x1024x128xf32>) outs(%alloc_4048 : memref<1x2x1024x128xf32>) {
    ^bb0(%in: f32, %in_4156: f32, %out: f32):
      %892 = arith.mulf %in, %in_4156 : f32
      linalg.yield %892 : f32
    }
    %alloc_4049 = memref.alloc() {alignment = 64 : i64} : memref<1x2x1024x128xf32>
    linalg.generic {indexing_maps = [#map5, #map5, #map5], iterator_types = ["parallel", "parallel", "parallel", "parallel"]} ins(%alloc_4041, %alloc_4048 : memref<1x2x1024x128xf32>, memref<1x2x1024x128xf32>) outs(%alloc_4049 : memref<1x2x1024x128xf32>) {
    ^bb0(%in: f32, %in_4156: f32, %out: f32):
      %892 = arith.addf %in, %in_4156 : f32
      linalg.yield %892 : f32
    }
    %expand_shape_4050 = memref.expand_shape %alloc_4049 [[0], [1, 2], [3], [4]] output_shape [1, 2, 1, 1024, 128] : memref<1x2x1024x128xf32> into memref<1x2x1x1024x128xf32>
    %869 = memref.get_global @__constant_1x2x6x1024x128xf32 : memref<1x2x6x1024x128xf32>
    %alloc_4051 = memref.alloc() {alignment = 64 : i64} : memref<1x2x6x1024x128xf32>
    linalg.generic {indexing_maps = [#map12, #map13, #map13], iterator_types = ["parallel", "parallel", "parallel", "parallel", "parallel"]} ins(%expand_shape_4050, %869 : memref<1x2x1x1024x128xf32>, memref<1x2x6x1024x128xf32>) outs(%alloc_4051 : memref<1x2x6x1024x128xf32>) {
    ^bb0(%in: f32, %in_4156: f32, %out: f32):
      %892 = arith.addf %in, %in_4156 : f32
      linalg.yield %892 : f32
    }
    %collapse_shape_4052 = memref.collapse_shape %alloc_4051 [[0], [1, 2], [3], [4]] : memref<1x2x6x1024x128xf32> into memref<1x12x1024x128xf32>
    %expand_shape_4053 = memref.expand_shape %alloc_4029 [[0], [1, 2], [3], [4]] output_shape [1, 2, 1, 1024, 128] : memref<1x2x1024x128xf32> into memref<1x2x1x1024x128xf32>
    %870 = memref.get_global @__constant_1x2x6x1024x128xf32 : memref<1x2x6x1024x128xf32>
    %alloc_4054 = memref.alloc() {alignment = 64 : i64} : memref<1x2x6x1024x128xf32>
    linalg.generic {indexing_maps = [#map12, #map13, #map13], iterator_types = ["parallel", "parallel", "parallel", "parallel", "parallel"]} ins(%expand_shape_4053, %870 : memref<1x2x1x1024x128xf32>, memref<1x2x6x1024x128xf32>) outs(%alloc_4054 : memref<1x2x6x1024x128xf32>) {
    ^bb0(%in: f32, %in_4156: f32, %out: f32):
      %892 = arith.addf %in, %in_4156 : f32
      linalg.yield %892 : f32
    }
    %collapse_shape_4055 = memref.collapse_shape %alloc_4054 [[0], [1, 2], [3], [4]] : memref<1x2x6x1024x128xf32> into memref<1x12x1024x128xf32>
    %cst_4056 = arith.constant 0.000000e+00 : f32
    %871 = memref.get_global @__constant_1024x1024xf32_0 : memref<1024x1024xf32>
    %collapse_shape_4057 = memref.collapse_shape %expand_shape_5 [[0, 1, 2], [3]] : memref<1x1x1024x1024xf32> into memref<1024x1024xf32>
    %alloc_4058 = memref.alloc() {alignment = 64 : i64} : memref<1024x1024xf32>
    linalg.generic {indexing_maps = [#map, #map, #map], iterator_types = ["parallel", "parallel"]} ins(%871, %collapse_shape_4057 : memref<1024x1024xf32>, memref<1024x1024xf32>) outs(%alloc_4058 : memref<1024x1024xf32>) {
    ^bb0(%in: f32, %in_4156: f32, %out: f32):
      %892 = arith.addf %in, %in_4156 : f32
      linalg.yield %892 : f32
    }
    %872 = memref.get_global @__constant_4xi32_0 : memref<4xi32>
    %alloc_4059 = memref.alloc() {alignment = 64 : i64} : memref<1x12x128x1024xf32>
    linalg.transpose ins(%collapse_shape_4052 : memref<1x12x1024x128xf32>) outs(%alloc_4059 : memref<1x12x128x1024xf32>) permutation = [0, 1, 3, 2] 
    %collapse_shape_4060 = memref.collapse_shape %alloc_4040 [[0, 1], [2], [3]] : memref<1x12x1024x128xf32> into memref<12x1024x128xf32>
    %collapse_shape_4061 = memref.collapse_shape %alloc_4059 [[0, 1], [2], [3]] : memref<1x12x128x1024xf32> into memref<12x128x1024xf32>
    %cst_4062 = arith.constant 0.000000e+00 : f32
    %alloc_4063 = memref.alloc() {alignment = 64 : i64} : memref<12x1024x1024xf32>
    linalg.fill ins(%cst_4062 : f32) outs(%alloc_4063 : memref<12x1024x1024xf32>)
    %c0_4064 = arith.constant 0 : index
    %c1_4065 = arith.constant 1 : index
    %c2_4066 = arith.constant 2 : index
    %c3_4067 = arith.constant 3 : index
    %c4_4068 = arith.constant 4 : index
    %c5_4069 = arith.constant 5 : index
    %c6_4070 = arith.constant 6 : index
    %c7_4071 = arith.constant 7 : index
    %c8_4072 = arith.constant 8 : index
    %c32_4073 = arith.constant 32 : index
    %dim_4074 = memref.dim %collapse_shape_4060, %c0_4064 : memref<12x1024x128xf32>
    %dim_4075 = memref.dim %collapse_shape_4060, %c1_4065 : memref<12x1024x128xf32>
    %dim_4076 = memref.dim %collapse_shape_4060, %c2_4066 : memref<12x1024x128xf32>
    %dim_4077 = memref.dim %alloc_4063, %c2_4066 : memref<12x1024x1024xf32>
    %873 = arith.subi %dim_4077, %c32_4073 : index
    %874 = arith.addi %873, %c1_4065 : index
    scf.parallel (%arg342, %arg343) = (%c0_4064, %c0_4064) to (%dim_4074, %dim_4075) step (%c1_4065, %c8_4072) {
      %892 = arith.addi %arg343, %c1_4065 : index
      %893 = arith.addi %arg343, %c2_4066 : index
      %894 = arith.addi %arg343, %c3_4067 : index
      %895 = arith.addi %arg343, %c4_4068 : index
      %896 = arith.addi %arg343, %c5_4069 : index
      %897 = arith.addi %arg343, %c6_4070 : index
      %898 = arith.addi %arg343, %c7_4071 : index
      %899 = scf.for %arg344 = %c0_4064 to %874 step %c32_4073 iter_args(%arg345 = %c0_4064) -> (index) {
        %900 = vector.load %alloc_4063[%arg342, %arg343, %arg344] : memref<12x1024x1024xf32>, vector<32xf32>
        %901 = vector.load %alloc_4063[%arg342, %892, %arg344] : memref<12x1024x1024xf32>, vector<32xf32>
        %902 = vector.load %alloc_4063[%arg342, %893, %arg344] : memref<12x1024x1024xf32>, vector<32xf32>
        %903 = vector.load %alloc_4063[%arg342, %894, %arg344] : memref<12x1024x1024xf32>, vector<32xf32>
        %904 = vector.load %alloc_4063[%arg342, %895, %arg344] : memref<12x1024x1024xf32>, vector<32xf32>
        %905 = vector.load %alloc_4063[%arg342, %896, %arg344] : memref<12x1024x1024xf32>, vector<32xf32>
        %906 = vector.load %alloc_4063[%arg342, %897, %arg344] : memref<12x1024x1024xf32>, vector<32xf32>
        %907 = vector.load %alloc_4063[%arg342, %898, %arg344] : memref<12x1024x1024xf32>, vector<32xf32>
        %908:8 = scf.for %arg346 = %c0_4064 to %dim_4076 step %c1_4065 iter_args(%arg347 = %900, %arg348 = %901, %arg349 = %902, %arg350 = %903, %arg351 = %904, %arg352 = %905, %arg353 = %906, %arg354 = %907) -> (vector<32xf32>, vector<32xf32>, vector<32xf32>, vector<32xf32>, vector<32xf32>, vector<32xf32>, vector<32xf32>, vector<32xf32>) {
          %910 = memref.load %collapse_shape_4060[%arg342, %arg343, %arg346] : memref<12x1024x128xf32>
          %911 = memref.load %collapse_shape_4060[%arg342, %892, %arg346] : memref<12x1024x128xf32>
          %912 = memref.load %collapse_shape_4060[%arg342, %893, %arg346] : memref<12x1024x128xf32>
          %913 = memref.load %collapse_shape_4060[%arg342, %894, %arg346] : memref<12x1024x128xf32>
          %914 = memref.load %collapse_shape_4060[%arg342, %895, %arg346] : memref<12x1024x128xf32>
          %915 = memref.load %collapse_shape_4060[%arg342, %896, %arg346] : memref<12x1024x128xf32>
          %916 = memref.load %collapse_shape_4060[%arg342, %897, %arg346] : memref<12x1024x128xf32>
          %917 = memref.load %collapse_shape_4060[%arg342, %898, %arg346] : memref<12x1024x128xf32>
          %918 = vector.broadcast %910 : f32 to vector<32xf32>
          %919 = vector.broadcast %911 : f32 to vector<32xf32>
          %920 = vector.broadcast %912 : f32 to vector<32xf32>
          %921 = vector.broadcast %913 : f32 to vector<32xf32>
          %922 = vector.broadcast %914 : f32 to vector<32xf32>
          %923 = vector.broadcast %915 : f32 to vector<32xf32>
          %924 = vector.broadcast %916 : f32 to vector<32xf32>
          %925 = vector.broadcast %917 : f32 to vector<32xf32>
          %926 = vector.load %collapse_shape_4061[%arg342, %arg346, %arg344] : memref<12x128x1024xf32>, vector<32xf32>
          %927 = vector.fma %918, %926, %arg347 : vector<32xf32>
          %928 = vector.fma %919, %926, %arg348 : vector<32xf32>
          %929 = vector.fma %920, %926, %arg349 : vector<32xf32>
          %930 = vector.fma %921, %926, %arg350 : vector<32xf32>
          %931 = vector.fma %922, %926, %arg351 : vector<32xf32>
          %932 = vector.fma %923, %926, %arg352 : vector<32xf32>
          %933 = vector.fma %924, %926, %arg353 : vector<32xf32>
          %934 = vector.fma %925, %926, %arg354 : vector<32xf32>
          scf.yield %927, %928, %929, %930, %931, %932, %933, %934 : vector<32xf32>, vector<32xf32>, vector<32xf32>, vector<32xf32>, vector<32xf32>, vector<32xf32>, vector<32xf32>, vector<32xf32>
        }
        vector.store %908#0, %alloc_4063[%arg342, %arg343, %arg344] : memref<12x1024x1024xf32>, vector<32xf32>
        vector.store %908#1, %alloc_4063[%arg342, %892, %arg344] : memref<12x1024x1024xf32>, vector<32xf32>
        vector.store %908#2, %alloc_4063[%arg342, %893, %arg344] : memref<12x1024x1024xf32>, vector<32xf32>
        vector.store %908#3, %alloc_4063[%arg342, %894, %arg344] : memref<12x1024x1024xf32>, vector<32xf32>
        vector.store %908#4, %alloc_4063[%arg342, %895, %arg344] : memref<12x1024x1024xf32>, vector<32xf32>
        vector.store %908#5, %alloc_4063[%arg342, %896, %arg344] : memref<12x1024x1024xf32>, vector<32xf32>
        vector.store %908#6, %alloc_4063[%arg342, %897, %arg344] : memref<12x1024x1024xf32>, vector<32xf32>
        vector.store %908#7, %alloc_4063[%arg342, %898, %arg344] : memref<12x1024x1024xf32>, vector<32xf32>
        %909 = arith.addi %arg344, %c32_4073 : index
        scf.yield %909 : index
      }
      scf.for %arg344 = %899 to %dim_4077 step %c1_4065 {
        %900 = memref.load %alloc_4063[%arg342, %arg343, %arg344] : memref<12x1024x1024xf32>
        %901 = memref.load %alloc_4063[%arg342, %892, %arg344] : memref<12x1024x1024xf32>
        %902 = memref.load %alloc_4063[%arg342, %893, %arg344] : memref<12x1024x1024xf32>
        %903 = memref.load %alloc_4063[%arg342, %894, %arg344] : memref<12x1024x1024xf32>
        %904 = memref.load %alloc_4063[%arg342, %895, %arg344] : memref<12x1024x1024xf32>
        %905 = memref.load %alloc_4063[%arg342, %896, %arg344] : memref<12x1024x1024xf32>
        %906 = memref.load %alloc_4063[%arg342, %897, %arg344] : memref<12x1024x1024xf32>
        %907 = memref.load %alloc_4063[%arg342, %898, %arg344] : memref<12x1024x1024xf32>
        %908:8 = scf.for %arg345 = %c0_4064 to %dim_4076 step %c1_4065 iter_args(%arg346 = %900, %arg347 = %901, %arg348 = %902, %arg349 = %903, %arg350 = %904, %arg351 = %905, %arg352 = %906, %arg353 = %907) -> (f32, f32, f32, f32, f32, f32, f32, f32) {
          %909 = memref.load %collapse_shape_4060[%arg342, %arg343, %arg345] : memref<12x1024x128xf32>
          %910 = memref.load %collapse_shape_4060[%arg342, %892, %arg345] : memref<12x1024x128xf32>
          %911 = memref.load %collapse_shape_4060[%arg342, %893, %arg345] : memref<12x1024x128xf32>
          %912 = memref.load %collapse_shape_4060[%arg342, %894, %arg345] : memref<12x1024x128xf32>
          %913 = memref.load %collapse_shape_4060[%arg342, %895, %arg345] : memref<12x1024x128xf32>
          %914 = memref.load %collapse_shape_4060[%arg342, %896, %arg345] : memref<12x1024x128xf32>
          %915 = memref.load %collapse_shape_4060[%arg342, %897, %arg345] : memref<12x1024x128xf32>
          %916 = memref.load %collapse_shape_4060[%arg342, %898, %arg345] : memref<12x1024x128xf32>
          %917 = memref.load %collapse_shape_4061[%arg342, %arg345, %arg344] : memref<12x128x1024xf32>
          %918 = arith.mulf %909, %917 : f32
          %919 = arith.mulf %910, %917 : f32
          %920 = arith.mulf %911, %917 : f32
          %921 = arith.mulf %912, %917 : f32
          %922 = arith.mulf %913, %917 : f32
          %923 = arith.mulf %914, %917 : f32
          %924 = arith.mulf %915, %917 : f32
          %925 = arith.mulf %916, %917 : f32
          %926 = arith.addf %918, %arg346 : f32
          %927 = arith.addf %919, %arg347 : f32
          %928 = arith.addf %920, %arg348 : f32
          %929 = arith.addf %921, %arg349 : f32
          %930 = arith.addf %922, %arg350 : f32
          %931 = arith.addf %923, %arg351 : f32
          %932 = arith.addf %924, %arg352 : f32
          %933 = arith.addf %925, %arg353 : f32
          scf.yield %926, %927, %928, %929, %930, %931, %932, %933 : f32, f32, f32, f32, f32, f32, f32, f32
        }
        memref.store %908#0, %alloc_4063[%arg342, %arg343, %arg344] : memref<12x1024x1024xf32>
        memref.store %908#1, %alloc_4063[%arg342, %892, %arg344] : memref<12x1024x1024xf32>
        memref.store %908#2, %alloc_4063[%arg342, %893, %arg344] : memref<12x1024x1024xf32>
        memref.store %908#3, %alloc_4063[%arg342, %894, %arg344] : memref<12x1024x1024xf32>
        memref.store %908#4, %alloc_4063[%arg342, %895, %arg344] : memref<12x1024x1024xf32>
        memref.store %908#5, %alloc_4063[%arg342, %896, %arg344] : memref<12x1024x1024xf32>
        memref.store %908#6, %alloc_4063[%arg342, %897, %arg344] : memref<12x1024x1024xf32>
        memref.store %908#7, %alloc_4063[%arg342, %898, %arg344] : memref<12x1024x1024xf32>
      }
      scf.reduce 
    }
    %cst_4078 = arith.constant 0.0883883461 : f32
    %875 = memref.get_global @__constant_12x1024x1024xf32 : memref<12x1024x1024xf32>
    %alloc_4079 = memref.alloc() {alignment = 64 : i64} : memref<12x1024x1024xf32>
    linalg.generic {indexing_maps = [#map2, #map2, #map2], iterator_types = ["parallel", "parallel", "parallel"]} ins(%alloc_4063, %875 : memref<12x1024x1024xf32>, memref<12x1024x1024xf32>) outs(%alloc_4079 : memref<12x1024x1024xf32>) {
    ^bb0(%in: f32, %in_4156: f32, %out: f32):
      %892 = arith.mulf %in, %in_4156 : f32
      linalg.yield %892 : f32
    }
    %expand_shape_4080 = memref.expand_shape %alloc_4058 [[0, 1], [2]] output_shape [1, 1024, 1024] : memref<1024x1024xf32> into memref<1x1024x1024xf32>
    %alloc_4081 = memref.alloc() {alignment = 64 : i64} : memref<12x1024x1024xf32>
    linalg.generic {indexing_maps = [#map2, #map14, #map2], iterator_types = ["parallel", "parallel", "parallel"]} ins(%alloc_4079, %expand_shape_4080 : memref<12x1024x1024xf32>, memref<1x1024x1024xf32>) outs(%alloc_4081 : memref<12x1024x1024xf32>) {
    ^bb0(%in: f32, %in_4156: f32, %out: f32):
      %892 = arith.addf %in, %in_4156 : f32
      linalg.yield %892 : f32
    }
    %alloc_4082 = memref.alloc() {alignment = 64 : i64} : memref<12x1024xf32>
    %cst_4083 = arith.constant -3.40282347E+38 : f32
    linalg.fill ins(%cst_4083 : f32) outs(%alloc_4082 : memref<12x1024xf32>)
    linalg.reduce ins(%alloc_4081 : memref<12x1024x1024xf32>) outs(%alloc_4082 : memref<12x1024xf32>) dimensions = [2] 
      (%in: f32, %init: f32) {
        %892 = arith.maximumf %in, %init : f32
        linalg.yield %892 : f32
      }
    %expand_shape_4084 = memref.expand_shape %alloc_4082 [[0], [1, 2]] output_shape [12, 1024, 1] : memref<12x1024xf32> into memref<12x1024x1xf32>
    %alloc_4085 = memref.alloc() {alignment = 64 : i64} : memref<12x1024x1024xf32>
    linalg.generic {indexing_maps = [#map2, #map9, #map2], iterator_types = ["parallel", "parallel", "parallel"]} ins(%alloc_4081, %expand_shape_4084 : memref<12x1024x1024xf32>, memref<12x1024x1xf32>) outs(%alloc_4085 : memref<12x1024x1024xf32>) {
    ^bb0(%in: f32, %in_4156: f32, %out: f32):
      %892 = arith.subf %in, %in_4156 : f32
      linalg.yield %892 : f32
    }
    linalg.generic {indexing_maps = [#map2, #map2], iterator_types = ["parallel", "parallel", "parallel"]} ins(%alloc_4085 : memref<12x1024x1024xf32>) outs(%alloc_4085 : memref<12x1024x1024xf32>) {
    ^bb0(%in: f32, %out: f32):
      %892 = math.exp %in : f32
      linalg.yield %892 : f32
    }
    %alloc_4086 = memref.alloc() {alignment = 64 : i64} : memref<12x1024xf32>
    %cst_4087 = arith.constant 0.000000e+00 : f32
    linalg.fill ins(%cst_4087 : f32) outs(%alloc_4086 : memref<12x1024xf32>)
    linalg.reduce ins(%alloc_4085 : memref<12x1024x1024xf32>) outs(%alloc_4086 : memref<12x1024xf32>) dimensions = [2] 
      (%in: f32, %init: f32) {
        %892 = arith.addf %in, %init : f32
        linalg.yield %892 : f32
      }
    %expand_shape_4088 = memref.expand_shape %alloc_4086 [[0], [1, 2]] output_shape [12, 1024, 1] : memref<12x1024xf32> into memref<12x1024x1xf32>
    %alloc_4089 = memref.alloc() {alignment = 64 : i64} : memref<12x1024x1xf32>
    linalg.generic {indexing_maps = [#map2, #map2], iterator_types = ["parallel", "parallel", "parallel"]} ins(%expand_shape_4088 : memref<12x1024x1xf32>) outs(%alloc_4089 : memref<12x1024x1xf32>) {
    ^bb0(%in: f32, %out: f32):
      %892 = math.log %in : f32
      linalg.yield %892 : f32
    }
    %alloc_4090 = memref.alloc() {alignment = 64 : i64} : memref<12x1024x1xf32>
    linalg.generic {indexing_maps = [#map2, #map2, #map2], iterator_types = ["parallel", "parallel", "parallel"]} ins(%expand_shape_4084, %alloc_4089 : memref<12x1024x1xf32>, memref<12x1024x1xf32>) outs(%alloc_4090 : memref<12x1024x1xf32>) {
    ^bb0(%in: f32, %in_4156: f32, %out: f32):
      %892 = arith.addf %in, %in_4156 : f32
      linalg.yield %892 : f32
    }
    %alloc_4091 = memref.alloc() {alignment = 64 : i64} : memref<12x1024x1024xf32>
    linalg.generic {indexing_maps = [#map2, #map9, #map2], iterator_types = ["parallel", "parallel", "parallel"]} ins(%alloc_4081, %alloc_4090 : memref<12x1024x1024xf32>, memref<12x1024x1xf32>) outs(%alloc_4091 : memref<12x1024x1024xf32>) {
    ^bb0(%in: f32, %in_4156: f32, %out: f32):
      %892 = arith.subf %in, %in_4156 : f32
      linalg.yield %892 : f32
    }
    linalg.generic {indexing_maps = [#map2, #map2], iterator_types = ["parallel", "parallel", "parallel"]} ins(%alloc_4091 : memref<12x1024x1024xf32>) outs(%alloc_4091 : memref<12x1024x1024xf32>) {
    ^bb0(%in: f32, %out: f32):
      %892 = math.exp %in : f32
      linalg.yield %892 : f32
    }
    %collapse_shape_4092 = memref.collapse_shape %alloc_4090 [[0], [1, 2]] : memref<12x1024x1xf32> into memref<12x1024xf32>
    %expand_shape_4093 = memref.expand_shape %collapse_shape_4092 [[0, 1], [2]] output_shape [1, 12, 1024] : memref<12x1024xf32> into memref<1x12x1024xf32>
    %collapse_shape_4094 = memref.collapse_shape %alloc_4054 [[0, 1, 2], [3], [4]] : memref<1x2x6x1024x128xf32> into memref<12x1024x128xf32>
    %cst_4095 = arith.constant 0.000000e+00 : f32
    %alloc_4096 = memref.alloc() {alignment = 64 : i64} : memref<12x1024x128xf32>
    linalg.fill ins(%cst_4095 : f32) outs(%alloc_4096 : memref<12x1024x128xf32>)
    %c0_4097 = arith.constant 0 : index
    %c1_4098 = arith.constant 1 : index
    %c2_4099 = arith.constant 2 : index
    %c3_4100 = arith.constant 3 : index
    %c4_4101 = arith.constant 4 : index
    %c5_4102 = arith.constant 5 : index
    %c6_4103 = arith.constant 6 : index
    %c7_4104 = arith.constant 7 : index
    %c8_4105 = arith.constant 8 : index
    %c32_4106 = arith.constant 32 : index
    %dim_4107 = memref.dim %alloc_4091, %c0_4097 : memref<12x1024x1024xf32>
    %dim_4108 = memref.dim %alloc_4091, %c1_4098 : memref<12x1024x1024xf32>
    %dim_4109 = memref.dim %alloc_4091, %c2_4099 : memref<12x1024x1024xf32>
    %dim_4110 = memref.dim %alloc_4096, %c2_4099 : memref<12x1024x128xf32>
    %876 = arith.subi %dim_4110, %c32_4106 : index
    %877 = arith.addi %876, %c1_4098 : index
    scf.parallel (%arg342, %arg343) = (%c0_4097, %c0_4097) to (%dim_4107, %dim_4108) step (%c1_4098, %c8_4105) {
      %892 = arith.addi %arg343, %c1_4098 : index
      %893 = arith.addi %arg343, %c2_4099 : index
      %894 = arith.addi %arg343, %c3_4100 : index
      %895 = arith.addi %arg343, %c4_4101 : index
      %896 = arith.addi %arg343, %c5_4102 : index
      %897 = arith.addi %arg343, %c6_4103 : index
      %898 = arith.addi %arg343, %c7_4104 : index
      %899 = scf.for %arg344 = %c0_4097 to %877 step %c32_4106 iter_args(%arg345 = %c0_4097) -> (index) {
        %900 = vector.load %alloc_4096[%arg342, %arg343, %arg344] : memref<12x1024x128xf32>, vector<32xf32>
        %901 = vector.load %alloc_4096[%arg342, %892, %arg344] : memref<12x1024x128xf32>, vector<32xf32>
        %902 = vector.load %alloc_4096[%arg342, %893, %arg344] : memref<12x1024x128xf32>, vector<32xf32>
        %903 = vector.load %alloc_4096[%arg342, %894, %arg344] : memref<12x1024x128xf32>, vector<32xf32>
        %904 = vector.load %alloc_4096[%arg342, %895, %arg344] : memref<12x1024x128xf32>, vector<32xf32>
        %905 = vector.load %alloc_4096[%arg342, %896, %arg344] : memref<12x1024x128xf32>, vector<32xf32>
        %906 = vector.load %alloc_4096[%arg342, %897, %arg344] : memref<12x1024x128xf32>, vector<32xf32>
        %907 = vector.load %alloc_4096[%arg342, %898, %arg344] : memref<12x1024x128xf32>, vector<32xf32>
        %908:8 = scf.for %arg346 = %c0_4097 to %dim_4109 step %c1_4098 iter_args(%arg347 = %900, %arg348 = %901, %arg349 = %902, %arg350 = %903, %arg351 = %904, %arg352 = %905, %arg353 = %906, %arg354 = %907) -> (vector<32xf32>, vector<32xf32>, vector<32xf32>, vector<32xf32>, vector<32xf32>, vector<32xf32>, vector<32xf32>, vector<32xf32>) {
          %910 = memref.load %alloc_4091[%arg342, %arg343, %arg346] : memref<12x1024x1024xf32>
          %911 = memref.load %alloc_4091[%arg342, %892, %arg346] : memref<12x1024x1024xf32>
          %912 = memref.load %alloc_4091[%arg342, %893, %arg346] : memref<12x1024x1024xf32>
          %913 = memref.load %alloc_4091[%arg342, %894, %arg346] : memref<12x1024x1024xf32>
          %914 = memref.load %alloc_4091[%arg342, %895, %arg346] : memref<12x1024x1024xf32>
          %915 = memref.load %alloc_4091[%arg342, %896, %arg346] : memref<12x1024x1024xf32>
          %916 = memref.load %alloc_4091[%arg342, %897, %arg346] : memref<12x1024x1024xf32>
          %917 = memref.load %alloc_4091[%arg342, %898, %arg346] : memref<12x1024x1024xf32>
          %918 = vector.broadcast %910 : f32 to vector<32xf32>
          %919 = vector.broadcast %911 : f32 to vector<32xf32>
          %920 = vector.broadcast %912 : f32 to vector<32xf32>
          %921 = vector.broadcast %913 : f32 to vector<32xf32>
          %922 = vector.broadcast %914 : f32 to vector<32xf32>
          %923 = vector.broadcast %915 : f32 to vector<32xf32>
          %924 = vector.broadcast %916 : f32 to vector<32xf32>
          %925 = vector.broadcast %917 : f32 to vector<32xf32>
          %926 = vector.load %collapse_shape_4094[%arg342, %arg346, %arg344] : memref<12x1024x128xf32>, vector<32xf32>
          %927 = vector.fma %918, %926, %arg347 : vector<32xf32>
          %928 = vector.fma %919, %926, %arg348 : vector<32xf32>
          %929 = vector.fma %920, %926, %arg349 : vector<32xf32>
          %930 = vector.fma %921, %926, %arg350 : vector<32xf32>
          %931 = vector.fma %922, %926, %arg351 : vector<32xf32>
          %932 = vector.fma %923, %926, %arg352 : vector<32xf32>
          %933 = vector.fma %924, %926, %arg353 : vector<32xf32>
          %934 = vector.fma %925, %926, %arg354 : vector<32xf32>
          scf.yield %927, %928, %929, %930, %931, %932, %933, %934 : vector<32xf32>, vector<32xf32>, vector<32xf32>, vector<32xf32>, vector<32xf32>, vector<32xf32>, vector<32xf32>, vector<32xf32>
        }
        vector.store %908#0, %alloc_4096[%arg342, %arg343, %arg344] : memref<12x1024x128xf32>, vector<32xf32>
        vector.store %908#1, %alloc_4096[%arg342, %892, %arg344] : memref<12x1024x128xf32>, vector<32xf32>
        vector.store %908#2, %alloc_4096[%arg342, %893, %arg344] : memref<12x1024x128xf32>, vector<32xf32>
        vector.store %908#3, %alloc_4096[%arg342, %894, %arg344] : memref<12x1024x128xf32>, vector<32xf32>
        vector.store %908#4, %alloc_4096[%arg342, %895, %arg344] : memref<12x1024x128xf32>, vector<32xf32>
        vector.store %908#5, %alloc_4096[%arg342, %896, %arg344] : memref<12x1024x128xf32>, vector<32xf32>
        vector.store %908#6, %alloc_4096[%arg342, %897, %arg344] : memref<12x1024x128xf32>, vector<32xf32>
        vector.store %908#7, %alloc_4096[%arg342, %898, %arg344] : memref<12x1024x128xf32>, vector<32xf32>
        %909 = arith.addi %arg344, %c32_4106 : index
        scf.yield %909 : index
      }
      scf.for %arg344 = %899 to %dim_4110 step %c1_4098 {
        %900 = memref.load %alloc_4096[%arg342, %arg343, %arg344] : memref<12x1024x128xf32>
        %901 = memref.load %alloc_4096[%arg342, %892, %arg344] : memref<12x1024x128xf32>
        %902 = memref.load %alloc_4096[%arg342, %893, %arg344] : memref<12x1024x128xf32>
        %903 = memref.load %alloc_4096[%arg342, %894, %arg344] : memref<12x1024x128xf32>
        %904 = memref.load %alloc_4096[%arg342, %895, %arg344] : memref<12x1024x128xf32>
        %905 = memref.load %alloc_4096[%arg342, %896, %arg344] : memref<12x1024x128xf32>
        %906 = memref.load %alloc_4096[%arg342, %897, %arg344] : memref<12x1024x128xf32>
        %907 = memref.load %alloc_4096[%arg342, %898, %arg344] : memref<12x1024x128xf32>
        %908:8 = scf.for %arg345 = %c0_4097 to %dim_4109 step %c1_4098 iter_args(%arg346 = %900, %arg347 = %901, %arg348 = %902, %arg349 = %903, %arg350 = %904, %arg351 = %905, %arg352 = %906, %arg353 = %907) -> (f32, f32, f32, f32, f32, f32, f32, f32) {
          %909 = memref.load %alloc_4091[%arg342, %arg343, %arg345] : memref<12x1024x1024xf32>
          %910 = memref.load %alloc_4091[%arg342, %892, %arg345] : memref<12x1024x1024xf32>
          %911 = memref.load %alloc_4091[%arg342, %893, %arg345] : memref<12x1024x1024xf32>
          %912 = memref.load %alloc_4091[%arg342, %894, %arg345] : memref<12x1024x1024xf32>
          %913 = memref.load %alloc_4091[%arg342, %895, %arg345] : memref<12x1024x1024xf32>
          %914 = memref.load %alloc_4091[%arg342, %896, %arg345] : memref<12x1024x1024xf32>
          %915 = memref.load %alloc_4091[%arg342, %897, %arg345] : memref<12x1024x1024xf32>
          %916 = memref.load %alloc_4091[%arg342, %898, %arg345] : memref<12x1024x1024xf32>
          %917 = memref.load %collapse_shape_4094[%arg342, %arg345, %arg344] : memref<12x1024x128xf32>
          %918 = arith.mulf %909, %917 : f32
          %919 = arith.mulf %910, %917 : f32
          %920 = arith.mulf %911, %917 : f32
          %921 = arith.mulf %912, %917 : f32
          %922 = arith.mulf %913, %917 : f32
          %923 = arith.mulf %914, %917 : f32
          %924 = arith.mulf %915, %917 : f32
          %925 = arith.mulf %916, %917 : f32
          %926 = arith.addf %918, %arg346 : f32
          %927 = arith.addf %919, %arg347 : f32
          %928 = arith.addf %920, %arg348 : f32
          %929 = arith.addf %921, %arg349 : f32
          %930 = arith.addf %922, %arg350 : f32
          %931 = arith.addf %923, %arg351 : f32
          %932 = arith.addf %924, %arg352 : f32
          %933 = arith.addf %925, %arg353 : f32
          scf.yield %926, %927, %928, %929, %930, %931, %932, %933 : f32, f32, f32, f32, f32, f32, f32, f32
        }
        memref.store %908#0, %alloc_4096[%arg342, %arg343, %arg344] : memref<12x1024x128xf32>
        memref.store %908#1, %alloc_4096[%arg342, %892, %arg344] : memref<12x1024x128xf32>
        memref.store %908#2, %alloc_4096[%arg342, %893, %arg344] : memref<12x1024x128xf32>
        memref.store %908#3, %alloc_4096[%arg342, %894, %arg344] : memref<12x1024x128xf32>
        memref.store %908#4, %alloc_4096[%arg342, %895, %arg344] : memref<12x1024x128xf32>
        memref.store %908#5, %alloc_4096[%arg342, %896, %arg344] : memref<12x1024x128xf32>
        memref.store %908#6, %alloc_4096[%arg342, %897, %arg344] : memref<12x1024x128xf32>
        memref.store %908#7, %alloc_4096[%arg342, %898, %arg344] : memref<12x1024x128xf32>
      }
      scf.reduce 
    }
    %expand_shape_4111 = memref.expand_shape %alloc_4096 [[0, 1], [2], [3]] output_shape [1, 12, 1024, 128] : memref<12x1024x128xf32> into memref<1x12x1024x128xf32>
    %878 = memref.get_global @__constant_4xi32 : memref<4xi32>
    %alloc_4112 = memref.alloc() {alignment = 64 : i64} : memref<1x1024x12x128xf32>
    linalg.transpose ins(%expand_shape_4111 : memref<1x12x1024x128xf32>) outs(%alloc_4112 : memref<1x1024x12x128xf32>) permutation = [0, 2, 1, 3] 
    %collapse_shape_4113 = memref.collapse_shape %alloc_4112 [[0], [1], [2, 3]] : memref<1x1024x12x128xf32> into memref<1x1024x1536xf32>
    %collapse_shape_4114 = memref.collapse_shape %alloc_4112 [[0, 1], [2, 3]] : memref<1x1024x12x128xf32> into memref<1024x1536xf32>
    %879 = memref.get_global @__constant_1024x1536xf32 : memref<1024x1536xf32>
    %alloc_4115 = memref.alloc() {alignment = 64 : i64} : memref<1024x1536xf32>
    memref.copy %879, %alloc_4115 : memref<1024x1536xf32> to memref<1024x1536xf32>
    linalg.matmul_transpose_b {cast = #linalg.type_fn<cast_signed>} ins(%collapse_shape_4114, %arg335 : memref<1024x1536xf32>, memref<1536x1536xf32, strided<[?, ?], offset: ?>>) outs(%alloc_4115 : memref<1024x1536xf32>)
    %expand_shape_4116 = memref.expand_shape %alloc_4115 [[0, 1], [2]] output_shape [1, 1024, 1536] : memref<1024x1536xf32> into memref<1x1024x1536xf32>
    %alloc_4117 = memref.alloc() {alignment = 64 : i64} : memref<1x1024x1536xf32>
    linalg.generic {indexing_maps = [#map2, #map2, #map2], iterator_types = ["parallel", "parallel", "parallel"]} ins(%alloc_3994, %expand_shape_4116 : memref<1x1024x1536xf32>, memref<1x1024x1536xf32>) outs(%alloc_4117 : memref<1x1024x1536xf32>) {
    ^bb0(%in: f32, %in_4156: f32, %out: f32):
      %892 = arith.addf %in, %in_4156 : f32
      linalg.yield %892 : f32
    }
    %alloc_4118 = memref.alloc() {alignment = 64 : i64} : memref<1x1024x1536xf32>
    %c2_i32_4119 = arith.constant 2 : i32
    linalg.generic {indexing_maps = [#map2, #map2], iterator_types = ["parallel", "parallel", "parallel"]} ins(%alloc_4117 : memref<1x1024x1536xf32>) outs(%alloc_4118 : memref<1x1024x1536xf32>) {
    ^bb0(%in: f32, %out: f32):
      %892 = math.fpowi %in, %c2_i32_4119 : f32, i32
      linalg.yield %892 : f32
    }
    %alloc_4120 = memref.alloc() {alignment = 64 : i64} : memref<1x1024xf32>
    %cst_4121 = arith.constant 0.000000e+00 : f32
    linalg.fill ins(%cst_4121 : f32) outs(%alloc_4120 : memref<1x1024xf32>)
    linalg.reduce ins(%alloc_4118 : memref<1x1024x1536xf32>) outs(%alloc_4120 : memref<1x1024xf32>) dimensions = [2] 
      (%in: f32, %init: f32) {
        %892 = arith.addf %in, %init : f32
        linalg.yield %892 : f32
      }
    %expand_shape_4122 = memref.expand_shape %alloc_4120 [[0], [1, 2]] output_shape [1, 1024, 1] : memref<1x1024xf32> into memref<1x1024x1xf32>
    %880 = memref.get_global @__constant_1xf32_0 : memref<1xf32>
    %881 = memref.get_global @__constant_1xf32_1 : memref<1xf32>
    %882 = memref.get_global @__constant_1x1x1xf32_0 : memref<1x1x1xf32>
    %alloc_4123 = memref.alloc() {alignment = 64 : i64} : memref<1x1024x1xf32>
    linalg.generic {indexing_maps = [#map8, #map2, #map2], iterator_types = ["parallel", "parallel", "parallel"]} ins(%882, %expand_shape_4122 : memref<1x1x1xf32>, memref<1x1024x1xf32>) outs(%alloc_4123 : memref<1x1024x1xf32>) {
    ^bb0(%in: f32, %in_4156: f32, %out: f32):
      %892 = arith.mulf %in, %in_4156 : f32
      linalg.yield %892 : f32
    }
    %883 = memref.get_global @__constant_1x1024x1xf32 : memref<1x1024x1xf32>
    %alloc_4124 = memref.alloc() {alignment = 64 : i64} : memref<1x1024x1xf32>
    linalg.generic {indexing_maps = [#map2, #map2, #map2], iterator_types = ["parallel", "parallel", "parallel"]} ins(%alloc_4123, %883 : memref<1x1024x1xf32>, memref<1x1024x1xf32>) outs(%alloc_4124 : memref<1x1024x1xf32>) {
    ^bb0(%in: f32, %in_4156: f32, %out: f32):
      %892 = arith.addf %in, %in_4156 : f32
      linalg.yield %892 : f32
    }
    %alloc_4125 = memref.alloc() {alignment = 64 : i64} : memref<1x1024x1xf32>
    linalg.generic {indexing_maps = [#map2, #map2], iterator_types = ["parallel", "parallel", "parallel"]} ins(%alloc_4124 : memref<1x1024x1xf32>) outs(%alloc_4125 : memref<1x1024x1xf32>) {
    ^bb0(%in: f32, %out: f32):
      %892 = math.rsqrt %in : f32
      linalg.yield %892 : f32
    }
    %alloc_4126 = memref.alloc() {alignment = 64 : i64} : memref<1x1024x1536xf32>
    linalg.generic {indexing_maps = [#map2, #map9, #map2], iterator_types = ["parallel", "parallel", "parallel"]} ins(%alloc_4117, %alloc_4125 : memref<1x1024x1536xf32>, memref<1x1024x1xf32>) outs(%alloc_4126 : memref<1x1024x1536xf32>) {
    ^bb0(%in: f32, %in_4156: f32, %out: f32):
      %892 = arith.mulf %in, %in_4156 : f32
      linalg.yield %892 : f32
    }
    %expand_shape_4127 = memref.expand_shape %arg336 [[0, 1, 2]] output_shape [1, 1, 1536] : memref<1536xf32, strided<[?], offset: ?>> into memref<1x1x1536xf32, strided<[?, ?, ?], offset: ?>>
    %alloc_4128 = memref.alloc() {alignment = 64 : i64} : memref<1x1024x1536xf32>
    linalg.generic {indexing_maps = [#map8, #map2, #map2], iterator_types = ["parallel", "parallel", "parallel"]} ins(%expand_shape_4127, %alloc_4126 : memref<1x1x1536xf32, strided<[?, ?, ?], offset: ?>>, memref<1x1024x1536xf32>) outs(%alloc_4128 : memref<1x1024x1536xf32>) {
    ^bb0(%in: f32, %in_4156: f32, %out: f32):
      %892 = arith.mulf %in, %in_4156 : f32
      linalg.yield %892 : f32
    }
    %collapse_shape_4129 = memref.collapse_shape %alloc_4128 [[0, 1], [2]] : memref<1x1024x1536xf32> into memref<1024x1536xf32>
    %884 = memref.get_global @__constant_1024x8960xf32 : memref<1024x8960xf32>
    %alloc_4130 = memref.alloc() {alignment = 64 : i64} : memref<1024x8960xf32>
    memref.copy %884, %alloc_4130 : memref<1024x8960xf32> to memref<1024x8960xf32>
    linalg.matmul_transpose_b {cast = #linalg.type_fn<cast_signed>} ins(%collapse_shape_4129, %arg337 : memref<1024x1536xf32>, memref<8960x1536xf32, strided<[?, ?], offset: ?>>) outs(%alloc_4130 : memref<1024x8960xf32>)
    %expand_shape_4131 = memref.expand_shape %alloc_4130 [[0, 1], [2]] output_shape [1, 1024, 8960] : memref<1024x8960xf32> into memref<1x1024x8960xf32>
    %alloc_4132 = memref.alloc() {alignment = 64 : i64} : memref<1x1024x8960xf32>
    linalg.generic {indexing_maps = [#map2, #map2], iterator_types = ["parallel", "parallel", "parallel"]} ins(%expand_shape_4131 : memref<1x1024x8960xf32>) outs(%alloc_4132 : memref<1x1024x8960xf32>) {
    ^bb0(%in: f32, %out: f32):
      %cst_4156 = arith.constant 1.000000e+00 : f32
      %892 = arith.negf %in : f32
      %893 = math.exp %892 : f32
      %894 = arith.addf %893, %cst_4156 : f32
      %895 = arith.divf %cst_4156, %894 : f32
      linalg.yield %895 : f32
    }
    %alloc_4133 = memref.alloc() {alignment = 64 : i64} : memref<1x1024x8960xf32>
    linalg.generic {indexing_maps = [#map2, #map2, #map2], iterator_types = ["parallel", "parallel", "parallel"]} ins(%expand_shape_4131, %alloc_4132 : memref<1x1024x8960xf32>, memref<1x1024x8960xf32>) outs(%alloc_4133 : memref<1x1024x8960xf32>) {
    ^bb0(%in: f32, %in_4156: f32, %out: f32):
      %892 = arith.mulf %in, %in_4156 : f32
      linalg.yield %892 : f32
    }
    %collapse_shape_4134 = memref.collapse_shape %alloc_4128 [[0, 1], [2]] : memref<1x1024x1536xf32> into memref<1024x1536xf32>
    %885 = memref.get_global @__constant_1024x8960xf32 : memref<1024x8960xf32>
    %alloc_4135 = memref.alloc() {alignment = 64 : i64} : memref<1024x8960xf32>
    memref.copy %885, %alloc_4135 : memref<1024x8960xf32> to memref<1024x8960xf32>
    linalg.matmul_transpose_b {cast = #linalg.type_fn<cast_signed>} ins(%collapse_shape_4134, %arg338 : memref<1024x1536xf32>, memref<8960x1536xf32, strided<[?, ?], offset: ?>>) outs(%alloc_4135 : memref<1024x8960xf32>)
    %expand_shape_4136 = memref.expand_shape %alloc_4135 [[0, 1], [2]] output_shape [1, 1024, 8960] : memref<1024x8960xf32> into memref<1x1024x8960xf32>
    %alloc_4137 = memref.alloc() {alignment = 64 : i64} : memref<1x1024x8960xf32>
    linalg.generic {indexing_maps = [#map2, #map2, #map2], iterator_types = ["parallel", "parallel", "parallel"]} ins(%alloc_4133, %expand_shape_4136 : memref<1x1024x8960xf32>, memref<1x1024x8960xf32>) outs(%alloc_4137 : memref<1x1024x8960xf32>) {
    ^bb0(%in: f32, %in_4156: f32, %out: f32):
      %892 = arith.mulf %in, %in_4156 : f32
      linalg.yield %892 : f32
    }
    %collapse_shape_4138 = memref.collapse_shape %alloc_4137 [[0, 1], [2]] : memref<1x1024x8960xf32> into memref<1024x8960xf32>
    %886 = memref.get_global @__constant_1024x1536xf32 : memref<1024x1536xf32>
    %alloc_4139 = memref.alloc() {alignment = 64 : i64} : memref<1024x1536xf32>
    memref.copy %886, %alloc_4139 : memref<1024x1536xf32> to memref<1024x1536xf32>
    linalg.matmul_transpose_b {cast = #linalg.type_fn<cast_signed>} ins(%collapse_shape_4138, %arg339 : memref<1024x8960xf32>, memref<1536x8960xf32, strided<[?, ?], offset: ?>>) outs(%alloc_4139 : memref<1024x1536xf32>)
    %expand_shape_4140 = memref.expand_shape %alloc_4139 [[0, 1], [2]] output_shape [1, 1024, 1536] : memref<1024x1536xf32> into memref<1x1024x1536xf32>
    %alloc_4141 = memref.alloc() {alignment = 64 : i64} : memref<1x1024x1536xf32>
    linalg.generic {indexing_maps = [#map2, #map2, #map2], iterator_types = ["parallel", "parallel", "parallel"]} ins(%alloc_4117, %expand_shape_4140 : memref<1x1024x1536xf32>, memref<1x1024x1536xf32>) outs(%alloc_4141 : memref<1x1024x1536xf32>) {
    ^bb0(%in: f32, %in_4156: f32, %out: f32):
      %892 = arith.addf %in, %in_4156 : f32
      linalg.yield %892 : f32
    }
    %alloc_4142 = memref.alloc() {alignment = 64 : i64} : memref<1x1024x1536xf32>
    %c2_i32_4143 = arith.constant 2 : i32
    linalg.generic {indexing_maps = [#map2, #map2], iterator_types = ["parallel", "parallel", "parallel"]} ins(%alloc_4141 : memref<1x1024x1536xf32>) outs(%alloc_4142 : memref<1x1024x1536xf32>) {
    ^bb0(%in: f32, %out: f32):
      %892 = math.fpowi %in, %c2_i32_4143 : f32, i32
      linalg.yield %892 : f32
    }
    %alloc_4144 = memref.alloc() {alignment = 64 : i64} : memref<1x1024xf32>
    %cst_4145 = arith.constant 0.000000e+00 : f32
    linalg.fill ins(%cst_4145 : f32) outs(%alloc_4144 : memref<1x1024xf32>)
    linalg.reduce ins(%alloc_4142 : memref<1x1024x1536xf32>) outs(%alloc_4144 : memref<1x1024xf32>) dimensions = [2] 
      (%in: f32, %init: f32) {
        %892 = arith.addf %in, %init : f32
        linalg.yield %892 : f32
      }
    %expand_shape_4146 = memref.expand_shape %alloc_4144 [[0], [1, 2]] output_shape [1, 1024, 1] : memref<1x1024xf32> into memref<1x1024x1xf32>
    %887 = memref.get_global @__constant_1xf32_0 : memref<1xf32>
    %888 = memref.get_global @__constant_1xf32_1 : memref<1xf32>
    %889 = memref.get_global @__constant_1x1x1xf32_0 : memref<1x1x1xf32>
    %alloc_4147 = memref.alloc() {alignment = 64 : i64} : memref<1x1024x1xf32>
    linalg.generic {indexing_maps = [#map8, #map2, #map2], iterator_types = ["parallel", "parallel", "parallel"]} ins(%889, %expand_shape_4146 : memref<1x1x1xf32>, memref<1x1024x1xf32>) outs(%alloc_4147 : memref<1x1024x1xf32>) {
    ^bb0(%in: f32, %in_4156: f32, %out: f32):
      %892 = arith.mulf %in, %in_4156 : f32
      linalg.yield %892 : f32
    }
    %890 = memref.get_global @__constant_1x1024x1xf32 : memref<1x1024x1xf32>
    %alloc_4148 = memref.alloc() {alignment = 64 : i64} : memref<1x1024x1xf32>
    linalg.generic {indexing_maps = [#map2, #map2, #map2], iterator_types = ["parallel", "parallel", "parallel"]} ins(%alloc_4147, %890 : memref<1x1024x1xf32>, memref<1x1024x1xf32>) outs(%alloc_4148 : memref<1x1024x1xf32>) {
    ^bb0(%in: f32, %in_4156: f32, %out: f32):
      %892 = arith.addf %in, %in_4156 : f32
      linalg.yield %892 : f32
    }
    %alloc_4149 = memref.alloc() {alignment = 64 : i64} : memref<1x1024x1xf32>
    linalg.generic {indexing_maps = [#map2, #map2], iterator_types = ["parallel", "parallel", "parallel"]} ins(%alloc_4148 : memref<1x1024x1xf32>) outs(%alloc_4149 : memref<1x1024x1xf32>) {
    ^bb0(%in: f32, %out: f32):
      %892 = math.rsqrt %in : f32
      linalg.yield %892 : f32
    }
    %alloc_4150 = memref.alloc() {alignment = 64 : i64} : memref<1x1024x1536xf32>
    linalg.generic {indexing_maps = [#map2, #map9, #map2], iterator_types = ["parallel", "parallel", "parallel"]} ins(%alloc_4141, %alloc_4149 : memref<1x1024x1536xf32>, memref<1x1024x1xf32>) outs(%alloc_4150 : memref<1x1024x1536xf32>) {
    ^bb0(%in: f32, %in_4156: f32, %out: f32):
      %892 = arith.mulf %in, %in_4156 : f32
      linalg.yield %892 : f32
    }
    %expand_shape_4151 = memref.expand_shape %arg340 [[0, 1, 2]] output_shape [1, 1, 1536] : memref<1536xf32, strided<[?], offset: ?>> into memref<1x1x1536xf32, strided<[?, ?, ?], offset: ?>>
    %alloc_4152 = memref.alloc() {alignment = 64 : i64} : memref<1x1024x1536xf32>
    linalg.generic {indexing_maps = [#map8, #map2, #map2], iterator_types = ["parallel", "parallel", "parallel"]} ins(%expand_shape_4151, %alloc_4150 : memref<1x1x1536xf32, strided<[?, ?, ?], offset: ?>>, memref<1x1024x1536xf32>) outs(%alloc_4152 : memref<1x1024x1536xf32>) {
    ^bb0(%in: f32, %in_4156: f32, %out: f32):
      %892 = arith.mulf %in, %in_4156 : f32
      linalg.yield %892 : f32
    }
    %collapse_shape_4153 = memref.collapse_shape %alloc_4152 [[0, 1], [2]] : memref<1x1024x1536xf32> into memref<1024x1536xf32>
    %891 = memref.get_global @__constant_1024x151936xf32 : memref<1024x151936xf32>
    %alloc_4154 = memref.alloc() {alignment = 64 : i64} : memref<1024x151936xf32>
    memref.copy %891, %alloc_4154 : memref<1024x151936xf32> to memref<1024x151936xf32>
    linalg.matmul_transpose_b {cast = #linalg.type_fn<cast_signed>} ins(%collapse_shape_4153, %arg341 : memref<1024x1536xf32>, memref<151936x1536xf32, strided<[?, ?], offset: ?>>) outs(%alloc_4154 : memref<1024x151936xf32>)
    %expand_shape_4155 = memref.expand_shape %alloc_4154 [[0, 1], [2]] output_shape [1, 1024, 151936] : memref<1024x151936xf32> into memref<1x1024x151936xf32>
    %cast = memref.cast %expand_shape_4155 : memref<1x1024x151936xf32> to memref<1x1024x151936xf32, strided<[?, ?, ?], offset: ?>>
    return %expand_shape_4155 : memref<1x1024x151936xf32>
  }
}

