====================Graph Node====================
Node: arg57_1
Type: OpType.PlaceholderType
Arguments: []
Parents: []
Children: []
--------------------MLIR OPS--------------------

====================Graph Node====================
Node: arg56_1
Type: OpType.PlaceholderType
Arguments: []
Parents: []
Children: []
--------------------MLIR OPS--------------------

====================Graph Node====================
Node: arg58_1
Type: OpType.PlaceholderType
Arguments: []
Parents: []
Children: []
--------------------MLIR OPS--------------------

====================Graph Node====================
Node: arg59_1
Type: OpType.PlaceholderType
Arguments: []
Parents: []
Children: []
--------------------MLIR OPS--------------------

====================Graph Node====================
Node: arg60_1
Type: OpType.PlaceholderType
Arguments: []
Parents: []
Children: []
--------------------MLIR OPS--------------------

====================Graph Node====================
Node: arg61_1
Type: OpType.PlaceholderType
Arguments: []
Parents: []
Children: []
--------------------MLIR OPS--------------------

====================Graph Node====================
Node: arg62_1
Type: OpType.PlaceholderType
Arguments: []
Parents: []
Children: []
--------------------MLIR OPS--------------------

====================Graph Node====================
Node: arg63_1
Type: OpType.PlaceholderType
Arguments: []
Parents: []
Children: []
--------------------MLIR OPS--------------------

====================Graph Node====================
Node: arg64_1
Type: OpType.PlaceholderType
Arguments: []
Parents: []
Children: []
--------------------MLIR OPS--------------------

====================Graph Node====================
Node: arg65_1
Type: OpType.PlaceholderType
Arguments: []
Parents: []
Children: []
--------------------MLIR OPS--------------------

====================Graph Node====================
Node: arg66_1
Type: OpType.PlaceholderType
Arguments: []
Parents: []
Children: []
--------------------MLIR OPS--------------------

====================Graph Node====================
Node: arg0_1
Type: OpType.PlaceholderType
Arguments: []
Parents: []
Children: []
--------------------MLIR OPS--------------------

====================Graph Node====================
Node: arg1_1
Type: OpType.PlaceholderType
Arguments: []
Parents: []
Children: []
--------------------MLIR OPS--------------------

====================Graph Node====================
Node: arg67_1
Type: OpType.PlaceholderType
Arguments: []
Parents: []
Children: []
--------------------MLIR OPS--------------------

====================Graph Node====================
Node: arg68_1
Type: OpType.PlaceholderType
Arguments: []
Parents: []
Children: []
--------------------MLIR OPS--------------------

====================Graph Node====================
Node: arg69_1
Type: OpType.PlaceholderType
Arguments: []
Parents: []
Children: []
--------------------MLIR OPS--------------------

====================Graph Node====================
Node: arg70_1
Type: OpType.PlaceholderType
Arguments: []
Parents: []
Children: []
--------------------MLIR OPS--------------------

====================Graph Node====================
Node: arg71_1
Type: OpType.PlaceholderType
Arguments: []
Parents: []
Children: []
--------------------MLIR OPS--------------------

====================Graph Node====================
Node: arg72_1
Type: OpType.PlaceholderType
Arguments: []
Parents: []
Children: []
--------------------MLIR OPS--------------------

====================Graph Node====================
Node: arg73_1
Type: OpType.PlaceholderType
Arguments: []
Parents: []
Children: []
--------------------MLIR OPS--------------------

====================Graph Node====================
Node: arg74_1
Type: OpType.PlaceholderType
Arguments: []
Parents: []
Children: []
--------------------MLIR OPS--------------------

====================Graph Node====================
Node: arg75_1
Type: OpType.PlaceholderType
Arguments: []
Parents: []
Children: []
--------------------MLIR OPS--------------------

====================Graph Node====================
Node: arg76_1
Type: OpType.PlaceholderType
Arguments: []
Parents: []
Children: []
--------------------MLIR OPS--------------------

====================Graph Node====================
Node: arg77_1
Type: OpType.PlaceholderType
Arguments: []
Parents: []
Children: []
--------------------MLIR OPS--------------------

====================Graph Node====================
Node: arg78_1
Type: OpType.PlaceholderType
Arguments: []
Parents: []
Children: []
--------------------MLIR OPS--------------------

====================Graph Node====================
Node: arg2_1
Type: OpType.PlaceholderType
Arguments: []
Parents: []
Children: []
--------------------MLIR OPS--------------------

====================Graph Node====================
Node: arg3_1
Type: OpType.PlaceholderType
Arguments: []
Parents: []
Children: []
--------------------MLIR OPS--------------------

====================Graph Node====================
Node: arg79_1
Type: OpType.PlaceholderType
Arguments: []
Parents: []
Children: []
--------------------MLIR OPS--------------------

====================Graph Node====================
Node: arg80_1
Type: OpType.PlaceholderType
Arguments: []
Parents: []
Children: []
--------------------MLIR OPS--------------------

====================Graph Node====================
Node: arg81_1
Type: OpType.PlaceholderType
Arguments: []
Parents: []
Children: []
--------------------MLIR OPS--------------------

====================Graph Node====================
Node: arg82_1
Type: OpType.PlaceholderType
Arguments: []
Parents: []
Children: []
--------------------MLIR OPS--------------------

====================Graph Node====================
Node: arg83_1
Type: OpType.PlaceholderType
Arguments: []
Parents: []
Children: []
--------------------MLIR OPS--------------------

====================Graph Node====================
Node: arg84_1
Type: OpType.PlaceholderType
Arguments: []
Parents: []
Children: []
--------------------MLIR OPS--------------------

====================Graph Node====================
Node: arg85_1
Type: OpType.PlaceholderType
Arguments: []
Parents: []
Children: []
--------------------MLIR OPS--------------------

====================Graph Node====================
Node: arg86_1
Type: OpType.PlaceholderType
Arguments: []
Parents: []
Children: []
--------------------MLIR OPS--------------------

====================Graph Node====================
Node: arg87_1
Type: OpType.PlaceholderType
Arguments: []
Parents: []
Children: []
--------------------MLIR OPS--------------------

====================Graph Node====================
Node: arg88_1
Type: OpType.PlaceholderType
Arguments: []
Parents: []
Children: []
--------------------MLIR OPS--------------------

====================Graph Node====================
Node: arg89_1
Type: OpType.PlaceholderType
Arguments: []
Parents: []
Children: []
--------------------MLIR OPS--------------------

====================Graph Node====================
Node: arg90_1
Type: OpType.PlaceholderType
Arguments: []
Parents: []
Children: []
--------------------MLIR OPS--------------------

====================Graph Node====================
Node: arg4_1
Type: OpType.PlaceholderType
Arguments: []
Parents: []
Children: []
--------------------MLIR OPS--------------------

====================Graph Node====================
Node: arg5_1
Type: OpType.PlaceholderType
Arguments: []
Parents: []
Children: []
--------------------MLIR OPS--------------------

====================Graph Node====================
Node: arg91_1
Type: OpType.PlaceholderType
Arguments: []
Parents: []
Children: []
--------------------MLIR OPS--------------------

====================Graph Node====================
Node: arg92_1
Type: OpType.PlaceholderType
Arguments: []
Parents: []
Children: []
--------------------MLIR OPS--------------------

====================Graph Node====================
Node: arg93_1
Type: OpType.PlaceholderType
Arguments: []
Parents: []
Children: []
--------------------MLIR OPS--------------------

====================Graph Node====================
Node: arg94_1
Type: OpType.PlaceholderType
Arguments: []
Parents: []
Children: []
--------------------MLIR OPS--------------------

====================Graph Node====================
Node: arg95_1
Type: OpType.PlaceholderType
Arguments: []
Parents: []
Children: []
--------------------MLIR OPS--------------------

====================Graph Node====================
Node: arg96_1
Type: OpType.PlaceholderType
Arguments: []
Parents: []
Children: []
--------------------MLIR OPS--------------------

====================Graph Node====================
Node: arg97_1
Type: OpType.PlaceholderType
Arguments: []
Parents: []
Children: []
--------------------MLIR OPS--------------------

====================Graph Node====================
Node: arg98_1
Type: OpType.PlaceholderType
Arguments: []
Parents: []
Children: []
--------------------MLIR OPS--------------------

====================Graph Node====================
Node: arg99_1
Type: OpType.PlaceholderType
Arguments: []
Parents: []
Children: []
--------------------MLIR OPS--------------------

====================Graph Node====================
Node: arg100_1
Type: OpType.PlaceholderType
Arguments: []
Parents: []
Children: []
--------------------MLIR OPS--------------------

====================Graph Node====================
Node: arg101_1
Type: OpType.PlaceholderType
Arguments: []
Parents: []
Children: []
--------------------MLIR OPS--------------------

====================Graph Node====================
Node: arg102_1
Type: OpType.PlaceholderType
Arguments: []
Parents: []
Children: []
--------------------MLIR OPS--------------------

====================Graph Node====================
Node: arg6_1
Type: OpType.PlaceholderType
Arguments: []
Parents: []
Children: []
--------------------MLIR OPS--------------------

====================Graph Node====================
Node: arg7_1
Type: OpType.PlaceholderType
Arguments: []
Parents: []
Children: []
--------------------MLIR OPS--------------------

====================Graph Node====================
Node: arg103_1
Type: OpType.PlaceholderType
Arguments: []
Parents: []
Children: []
--------------------MLIR OPS--------------------

====================Graph Node====================
Node: arg104_1
Type: OpType.PlaceholderType
Arguments: []
Parents: []
Children: []
--------------------MLIR OPS--------------------

====================Graph Node====================
Node: arg105_1
Type: OpType.PlaceholderType
Arguments: []
Parents: []
Children: []
--------------------MLIR OPS--------------------

====================Graph Node====================
Node: arg106_1
Type: OpType.PlaceholderType
Arguments: []
Parents: []
Children: []
--------------------MLIR OPS--------------------

====================Graph Node====================
Node: arg107_1
Type: OpType.PlaceholderType
Arguments: []
Parents: []
Children: []
--------------------MLIR OPS--------------------

====================Graph Node====================
Node: arg108_1
Type: OpType.PlaceholderType
Arguments: []
Parents: []
Children: []
--------------------MLIR OPS--------------------

====================Graph Node====================
Node: arg109_1
Type: OpType.PlaceholderType
Arguments: []
Parents: []
Children: []
--------------------MLIR OPS--------------------

====================Graph Node====================
Node: arg110_1
Type: OpType.PlaceholderType
Arguments: []
Parents: []
Children: []
--------------------MLIR OPS--------------------

====================Graph Node====================
Node: arg111_1
Type: OpType.PlaceholderType
Arguments: []
Parents: []
Children: []
--------------------MLIR OPS--------------------

====================Graph Node====================
Node: arg112_1
Type: OpType.PlaceholderType
Arguments: []
Parents: []
Children: []
--------------------MLIR OPS--------------------

====================Graph Node====================
Node: arg113_1
Type: OpType.PlaceholderType
Arguments: []
Parents: []
Children: []
--------------------MLIR OPS--------------------

====================Graph Node====================
Node: arg114_1
Type: OpType.PlaceholderType
Arguments: []
Parents: []
Children: []
--------------------MLIR OPS--------------------

====================Graph Node====================
Node: arg8_1
Type: OpType.PlaceholderType
Arguments: []
Parents: []
Children: []
--------------------MLIR OPS--------------------

====================Graph Node====================
Node: arg9_1
Type: OpType.PlaceholderType
Arguments: []
Parents: []
Children: []
--------------------MLIR OPS--------------------

====================Graph Node====================
Node: arg115_1
Type: OpType.PlaceholderType
Arguments: []
Parents: []
Children: []
--------------------MLIR OPS--------------------

====================Graph Node====================
Node: arg116_1
Type: OpType.PlaceholderType
Arguments: []
Parents: []
Children: []
--------------------MLIR OPS--------------------

====================Graph Node====================
Node: arg117_1
Type: OpType.PlaceholderType
Arguments: []
Parents: []
Children: []
--------------------MLIR OPS--------------------

====================Graph Node====================
Node: arg118_1
Type: OpType.PlaceholderType
Arguments: []
Parents: []
Children: []
--------------------MLIR OPS--------------------

====================Graph Node====================
Node: arg119_1
Type: OpType.PlaceholderType
Arguments: []
Parents: []
Children: []
--------------------MLIR OPS--------------------

====================Graph Node====================
Node: arg120_1
Type: OpType.PlaceholderType
Arguments: []
Parents: []
Children: []
--------------------MLIR OPS--------------------

====================Graph Node====================
Node: arg121_1
Type: OpType.PlaceholderType
Arguments: []
Parents: []
Children: []
--------------------MLIR OPS--------------------

====================Graph Node====================
Node: arg122_1
Type: OpType.PlaceholderType
Arguments: []
Parents: []
Children: []
--------------------MLIR OPS--------------------

====================Graph Node====================
Node: arg123_1
Type: OpType.PlaceholderType
Arguments: []
Parents: []
Children: []
--------------------MLIR OPS--------------------

====================Graph Node====================
Node: arg124_1
Type: OpType.PlaceholderType
Arguments: []
Parents: []
Children: []
--------------------MLIR OPS--------------------

====================Graph Node====================
Node: arg125_1
Type: OpType.PlaceholderType
Arguments: []
Parents: []
Children: []
--------------------MLIR OPS--------------------

====================Graph Node====================
Node: arg126_1
Type: OpType.PlaceholderType
Arguments: []
Parents: []
Children: []
--------------------MLIR OPS--------------------

====================Graph Node====================
Node: arg10_1
Type: OpType.PlaceholderType
Arguments: []
Parents: []
Children: []
--------------------MLIR OPS--------------------

====================Graph Node====================
Node: arg11_1
Type: OpType.PlaceholderType
Arguments: []
Parents: []
Children: []
--------------------MLIR OPS--------------------

====================Graph Node====================
Node: arg127_1
Type: OpType.PlaceholderType
Arguments: []
Parents: []
Children: []
--------------------MLIR OPS--------------------

====================Graph Node====================
Node: arg128_1
Type: OpType.PlaceholderType
Arguments: []
Parents: []
Children: []
--------------------MLIR OPS--------------------

====================Graph Node====================
Node: arg129_1
Type: OpType.PlaceholderType
Arguments: []
Parents: []
Children: []
--------------------MLIR OPS--------------------

====================Graph Node====================
Node: arg130_1
Type: OpType.PlaceholderType
Arguments: []
Parents: []
Children: []
--------------------MLIR OPS--------------------

====================Graph Node====================
Node: arg131_1
Type: OpType.PlaceholderType
Arguments: []
Parents: []
Children: []
--------------------MLIR OPS--------------------

====================Graph Node====================
Node: arg132_1
Type: OpType.PlaceholderType
Arguments: []
Parents: []
Children: []
--------------------MLIR OPS--------------------

====================Graph Node====================
Node: arg133_1
Type: OpType.PlaceholderType
Arguments: []
Parents: []
Children: []
--------------------MLIR OPS--------------------

====================Graph Node====================
Node: arg134_1
Type: OpType.PlaceholderType
Arguments: []
Parents: []
Children: []
--------------------MLIR OPS--------------------

====================Graph Node====================
Node: arg135_1
Type: OpType.PlaceholderType
Arguments: []
Parents: []
Children: []
--------------------MLIR OPS--------------------

====================Graph Node====================
Node: arg136_1
Type: OpType.PlaceholderType
Arguments: []
Parents: []
Children: []
--------------------MLIR OPS--------------------

====================Graph Node====================
Node: arg137_1
Type: OpType.PlaceholderType
Arguments: []
Parents: []
Children: []
--------------------MLIR OPS--------------------

====================Graph Node====================
Node: arg138_1
Type: OpType.PlaceholderType
Arguments: []
Parents: []
Children: []
--------------------MLIR OPS--------------------

====================Graph Node====================
Node: arg12_1
Type: OpType.PlaceholderType
Arguments: []
Parents: []
Children: []
--------------------MLIR OPS--------------------

====================Graph Node====================
Node: arg13_1
Type: OpType.PlaceholderType
Arguments: []
Parents: []
Children: []
--------------------MLIR OPS--------------------

====================Graph Node====================
Node: arg139_1
Type: OpType.PlaceholderType
Arguments: []
Parents: []
Children: []
--------------------MLIR OPS--------------------

====================Graph Node====================
Node: arg140_1
Type: OpType.PlaceholderType
Arguments: []
Parents: []
Children: []
--------------------MLIR OPS--------------------

====================Graph Node====================
Node: arg141_1
Type: OpType.PlaceholderType
Arguments: []
Parents: []
Children: []
--------------------MLIR OPS--------------------

====================Graph Node====================
Node: arg142_1
Type: OpType.PlaceholderType
Arguments: []
Parents: []
Children: []
--------------------MLIR OPS--------------------

====================Graph Node====================
Node: arg143_1
Type: OpType.PlaceholderType
Arguments: []
Parents: []
Children: []
--------------------MLIR OPS--------------------

====================Graph Node====================
Node: arg144_1
Type: OpType.PlaceholderType
Arguments: []
Parents: []
Children: []
--------------------MLIR OPS--------------------

====================Graph Node====================
Node: arg145_1
Type: OpType.PlaceholderType
Arguments: []
Parents: []
Children: []
--------------------MLIR OPS--------------------

====================Graph Node====================
Node: arg146_1
Type: OpType.PlaceholderType
Arguments: []
Parents: []
Children: []
--------------------MLIR OPS--------------------

====================Graph Node====================
Node: arg147_1
Type: OpType.PlaceholderType
Arguments: []
Parents: []
Children: []
--------------------MLIR OPS--------------------

====================Graph Node====================
Node: arg148_1
Type: OpType.PlaceholderType
Arguments: []
Parents: []
Children: []
--------------------MLIR OPS--------------------

====================Graph Node====================
Node: arg149_1
Type: OpType.PlaceholderType
Arguments: []
Parents: []
Children: []
--------------------MLIR OPS--------------------

====================Graph Node====================
Node: arg150_1
Type: OpType.PlaceholderType
Arguments: []
Parents: []
Children: []
--------------------MLIR OPS--------------------

====================Graph Node====================
Node: arg14_1
Type: OpType.PlaceholderType
Arguments: []
Parents: []
Children: []
--------------------MLIR OPS--------------------

====================Graph Node====================
Node: arg15_1
Type: OpType.PlaceholderType
Arguments: []
Parents: []
Children: []
--------------------MLIR OPS--------------------

====================Graph Node====================
Node: arg151_1
Type: OpType.PlaceholderType
Arguments: []
Parents: []
Children: []
--------------------MLIR OPS--------------------

====================Graph Node====================
Node: arg152_1
Type: OpType.PlaceholderType
Arguments: []
Parents: []
Children: []
--------------------MLIR OPS--------------------

====================Graph Node====================
Node: arg153_1
Type: OpType.PlaceholderType
Arguments: []
Parents: []
Children: []
--------------------MLIR OPS--------------------

====================Graph Node====================
Node: arg154_1
Type: OpType.PlaceholderType
Arguments: []
Parents: []
Children: []
--------------------MLIR OPS--------------------

====================Graph Node====================
Node: arg155_1
Type: OpType.PlaceholderType
Arguments: []
Parents: []
Children: []
--------------------MLIR OPS--------------------

====================Graph Node====================
Node: arg156_1
Type: OpType.PlaceholderType
Arguments: []
Parents: []
Children: []
--------------------MLIR OPS--------------------

====================Graph Node====================
Node: arg157_1
Type: OpType.PlaceholderType
Arguments: []
Parents: []
Children: []
--------------------MLIR OPS--------------------

====================Graph Node====================
Node: arg158_1
Type: OpType.PlaceholderType
Arguments: []
Parents: []
Children: []
--------------------MLIR OPS--------------------

====================Graph Node====================
Node: arg159_1
Type: OpType.PlaceholderType
Arguments: []
Parents: []
Children: []
--------------------MLIR OPS--------------------

====================Graph Node====================
Node: arg160_1
Type: OpType.PlaceholderType
Arguments: []
Parents: []
Children: []
--------------------MLIR OPS--------------------

====================Graph Node====================
Node: arg161_1
Type: OpType.PlaceholderType
Arguments: []
Parents: []
Children: []
--------------------MLIR OPS--------------------

====================Graph Node====================
Node: arg162_1
Type: OpType.PlaceholderType
Arguments: []
Parents: []
Children: []
--------------------MLIR OPS--------------------

====================Graph Node====================
Node: arg16_1
Type: OpType.PlaceholderType
Arguments: []
Parents: []
Children: []
--------------------MLIR OPS--------------------

====================Graph Node====================
Node: arg17_1
Type: OpType.PlaceholderType
Arguments: []
Parents: []
Children: []
--------------------MLIR OPS--------------------

====================Graph Node====================
Node: arg163_1
Type: OpType.PlaceholderType
Arguments: []
Parents: []
Children: []
--------------------MLIR OPS--------------------

====================Graph Node====================
Node: arg164_1
Type: OpType.PlaceholderType
Arguments: []
Parents: []
Children: []
--------------------MLIR OPS--------------------

====================Graph Node====================
Node: arg165_1
Type: OpType.PlaceholderType
Arguments: []
Parents: []
Children: []
--------------------MLIR OPS--------------------

====================Graph Node====================
Node: arg166_1
Type: OpType.PlaceholderType
Arguments: []
Parents: []
Children: []
--------------------MLIR OPS--------------------

====================Graph Node====================
Node: arg167_1
Type: OpType.PlaceholderType
Arguments: []
Parents: []
Children: []
--------------------MLIR OPS--------------------

====================Graph Node====================
Node: arg168_1
Type: OpType.PlaceholderType
Arguments: []
Parents: []
Children: []
--------------------MLIR OPS--------------------

====================Graph Node====================
Node: arg169_1
Type: OpType.PlaceholderType
Arguments: []
Parents: []
Children: []
--------------------MLIR OPS--------------------

====================Graph Node====================
Node: arg170_1
Type: OpType.PlaceholderType
Arguments: []
Parents: []
Children: []
--------------------MLIR OPS--------------------

====================Graph Node====================
Node: arg171_1
Type: OpType.PlaceholderType
Arguments: []
Parents: []
Children: []
--------------------MLIR OPS--------------------

====================Graph Node====================
Node: arg172_1
Type: OpType.PlaceholderType
Arguments: []
Parents: []
Children: []
--------------------MLIR OPS--------------------

====================Graph Node====================
Node: arg173_1
Type: OpType.PlaceholderType
Arguments: []
Parents: []
Children: []
--------------------MLIR OPS--------------------

====================Graph Node====================
Node: arg174_1
Type: OpType.PlaceholderType
Arguments: []
Parents: []
Children: []
--------------------MLIR OPS--------------------

====================Graph Node====================
Node: arg18_1
Type: OpType.PlaceholderType
Arguments: []
Parents: []
Children: []
--------------------MLIR OPS--------------------

====================Graph Node====================
Node: arg19_1
Type: OpType.PlaceholderType
Arguments: []
Parents: []
Children: []
--------------------MLIR OPS--------------------

====================Graph Node====================
Node: arg175_1
Type: OpType.PlaceholderType
Arguments: []
Parents: []
Children: []
--------------------MLIR OPS--------------------

====================Graph Node====================
Node: arg176_1
Type: OpType.PlaceholderType
Arguments: []
Parents: []
Children: []
--------------------MLIR OPS--------------------

====================Graph Node====================
Node: arg177_1
Type: OpType.PlaceholderType
Arguments: []
Parents: []
Children: []
--------------------MLIR OPS--------------------

====================Graph Node====================
Node: arg178_1
Type: OpType.PlaceholderType
Arguments: []
Parents: []
Children: []
--------------------MLIR OPS--------------------

====================Graph Node====================
Node: arg179_1
Type: OpType.PlaceholderType
Arguments: []
Parents: []
Children: []
--------------------MLIR OPS--------------------

====================Graph Node====================
Node: arg180_1
Type: OpType.PlaceholderType
Arguments: []
Parents: []
Children: []
--------------------MLIR OPS--------------------

====================Graph Node====================
Node: arg181_1
Type: OpType.PlaceholderType
Arguments: []
Parents: []
Children: []
--------------------MLIR OPS--------------------

====================Graph Node====================
Node: arg182_1
Type: OpType.PlaceholderType
Arguments: []
Parents: []
Children: []
--------------------MLIR OPS--------------------

====================Graph Node====================
Node: arg183_1
Type: OpType.PlaceholderType
Arguments: []
Parents: []
Children: []
--------------------MLIR OPS--------------------

====================Graph Node====================
Node: arg184_1
Type: OpType.PlaceholderType
Arguments: []
Parents: []
Children: []
--------------------MLIR OPS--------------------

====================Graph Node====================
Node: arg185_1
Type: OpType.PlaceholderType
Arguments: []
Parents: []
Children: []
--------------------MLIR OPS--------------------

====================Graph Node====================
Node: arg186_1
Type: OpType.PlaceholderType
Arguments: []
Parents: []
Children: []
--------------------MLIR OPS--------------------

====================Graph Node====================
Node: arg20_1
Type: OpType.PlaceholderType
Arguments: []
Parents: []
Children: []
--------------------MLIR OPS--------------------

====================Graph Node====================
Node: arg21_1
Type: OpType.PlaceholderType
Arguments: []
Parents: []
Children: []
--------------------MLIR OPS--------------------

====================Graph Node====================
Node: arg187_1
Type: OpType.PlaceholderType
Arguments: []
Parents: []
Children: []
--------------------MLIR OPS--------------------

====================Graph Node====================
Node: arg188_1
Type: OpType.PlaceholderType
Arguments: []
Parents: []
Children: []
--------------------MLIR OPS--------------------

====================Graph Node====================
Node: arg189_1
Type: OpType.PlaceholderType
Arguments: []
Parents: []
Children: []
--------------------MLIR OPS--------------------

====================Graph Node====================
Node: arg190_1
Type: OpType.PlaceholderType
Arguments: []
Parents: []
Children: []
--------------------MLIR OPS--------------------

====================Graph Node====================
Node: arg191_1
Type: OpType.PlaceholderType
Arguments: []
Parents: []
Children: []
--------------------MLIR OPS--------------------

====================Graph Node====================
Node: arg192_1
Type: OpType.PlaceholderType
Arguments: []
Parents: []
Children: []
--------------------MLIR OPS--------------------

====================Graph Node====================
Node: arg193_1
Type: OpType.PlaceholderType
Arguments: []
Parents: []
Children: []
--------------------MLIR OPS--------------------

====================Graph Node====================
Node: arg194_1
Type: OpType.PlaceholderType
Arguments: []
Parents: []
Children: []
--------------------MLIR OPS--------------------

====================Graph Node====================
Node: arg195_1
Type: OpType.PlaceholderType
Arguments: []
Parents: []
Children: []
--------------------MLIR OPS--------------------

====================Graph Node====================
Node: arg196_1
Type: OpType.PlaceholderType
Arguments: []
Parents: []
Children: []
--------------------MLIR OPS--------------------

====================Graph Node====================
Node: arg197_1
Type: OpType.PlaceholderType
Arguments: []
Parents: []
Children: []
--------------------MLIR OPS--------------------

====================Graph Node====================
Node: arg198_1
Type: OpType.PlaceholderType
Arguments: []
Parents: []
Children: []
--------------------MLIR OPS--------------------

====================Graph Node====================
Node: arg22_1
Type: OpType.PlaceholderType
Arguments: []
Parents: []
Children: []
--------------------MLIR OPS--------------------

====================Graph Node====================
Node: arg23_1
Type: OpType.PlaceholderType
Arguments: []
Parents: []
Children: []
--------------------MLIR OPS--------------------

====================Graph Node====================
Node: arg199_1
Type: OpType.PlaceholderType
Arguments: []
Parents: []
Children: []
--------------------MLIR OPS--------------------

====================Graph Node====================
Node: arg200_1
Type: OpType.PlaceholderType
Arguments: []
Parents: []
Children: []
--------------------MLIR OPS--------------------

====================Graph Node====================
Node: arg201_1
Type: OpType.PlaceholderType
Arguments: []
Parents: []
Children: []
--------------------MLIR OPS--------------------

====================Graph Node====================
Node: arg202_1
Type: OpType.PlaceholderType
Arguments: []
Parents: []
Children: []
--------------------MLIR OPS--------------------

====================Graph Node====================
Node: arg203_1
Type: OpType.PlaceholderType
Arguments: []
Parents: []
Children: []
--------------------MLIR OPS--------------------

====================Graph Node====================
Node: arg204_1
Type: OpType.PlaceholderType
Arguments: []
Parents: []
Children: []
--------------------MLIR OPS--------------------

====================Graph Node====================
Node: arg205_1
Type: OpType.PlaceholderType
Arguments: []
Parents: []
Children: []
--------------------MLIR OPS--------------------

====================Graph Node====================
Node: arg206_1
Type: OpType.PlaceholderType
Arguments: []
Parents: []
Children: []
--------------------MLIR OPS--------------------

====================Graph Node====================
Node: arg207_1
Type: OpType.PlaceholderType
Arguments: []
Parents: []
Children: []
--------------------MLIR OPS--------------------

====================Graph Node====================
Node: arg208_1
Type: OpType.PlaceholderType
Arguments: []
Parents: []
Children: []
--------------------MLIR OPS--------------------

====================Graph Node====================
Node: arg209_1
Type: OpType.PlaceholderType
Arguments: []
Parents: []
Children: []
--------------------MLIR OPS--------------------

====================Graph Node====================
Node: arg210_1
Type: OpType.PlaceholderType
Arguments: []
Parents: []
Children: []
--------------------MLIR OPS--------------------

====================Graph Node====================
Node: arg24_1
Type: OpType.PlaceholderType
Arguments: []
Parents: []
Children: []
--------------------MLIR OPS--------------------

====================Graph Node====================
Node: arg25_1
Type: OpType.PlaceholderType
Arguments: []
Parents: []
Children: []
--------------------MLIR OPS--------------------

====================Graph Node====================
Node: arg211_1
Type: OpType.PlaceholderType
Arguments: []
Parents: []
Children: []
--------------------MLIR OPS--------------------

====================Graph Node====================
Node: arg212_1
Type: OpType.PlaceholderType
Arguments: []
Parents: []
Children: []
--------------------MLIR OPS--------------------

====================Graph Node====================
Node: arg213_1
Type: OpType.PlaceholderType
Arguments: []
Parents: []
Children: []
--------------------MLIR OPS--------------------

====================Graph Node====================
Node: arg214_1
Type: OpType.PlaceholderType
Arguments: []
Parents: []
Children: []
--------------------MLIR OPS--------------------

====================Graph Node====================
Node: arg215_1
Type: OpType.PlaceholderType
Arguments: []
Parents: []
Children: []
--------------------MLIR OPS--------------------

====================Graph Node====================
Node: arg216_1
Type: OpType.PlaceholderType
Arguments: []
Parents: []
Children: []
--------------------MLIR OPS--------------------

====================Graph Node====================
Node: arg217_1
Type: OpType.PlaceholderType
Arguments: []
Parents: []
Children: []
--------------------MLIR OPS--------------------

====================Graph Node====================
Node: arg218_1
Type: OpType.PlaceholderType
Arguments: []
Parents: []
Children: []
--------------------MLIR OPS--------------------

====================Graph Node====================
Node: arg219_1
Type: OpType.PlaceholderType
Arguments: []
Parents: []
Children: []
--------------------MLIR OPS--------------------

====================Graph Node====================
Node: arg220_1
Type: OpType.PlaceholderType
Arguments: []
Parents: []
Children: []
--------------------MLIR OPS--------------------

====================Graph Node====================
Node: arg221_1
Type: OpType.PlaceholderType
Arguments: []
Parents: []
Children: []
--------------------MLIR OPS--------------------

====================Graph Node====================
Node: arg222_1
Type: OpType.PlaceholderType
Arguments: []
Parents: []
Children: []
--------------------MLIR OPS--------------------

====================Graph Node====================
Node: arg26_1
Type: OpType.PlaceholderType
Arguments: []
Parents: []
Children: []
--------------------MLIR OPS--------------------

====================Graph Node====================
Node: arg27_1
Type: OpType.PlaceholderType
Arguments: []
Parents: []
Children: []
--------------------MLIR OPS--------------------

====================Graph Node====================
Node: arg223_1
Type: OpType.PlaceholderType
Arguments: []
Parents: []
Children: []
--------------------MLIR OPS--------------------

====================Graph Node====================
Node: arg224_1
Type: OpType.PlaceholderType
Arguments: []
Parents: []
Children: []
--------------------MLIR OPS--------------------

====================Graph Node====================
Node: arg225_1
Type: OpType.PlaceholderType
Arguments: []
Parents: []
Children: []
--------------------MLIR OPS--------------------

====================Graph Node====================
Node: arg226_1
Type: OpType.PlaceholderType
Arguments: []
Parents: []
Children: []
--------------------MLIR OPS--------------------

====================Graph Node====================
Node: arg227_1
Type: OpType.PlaceholderType
Arguments: []
Parents: []
Children: []
--------------------MLIR OPS--------------------

====================Graph Node====================
Node: arg228_1
Type: OpType.PlaceholderType
Arguments: []
Parents: []
Children: []
--------------------MLIR OPS--------------------

====================Graph Node====================
Node: arg229_1
Type: OpType.PlaceholderType
Arguments: []
Parents: []
Children: []
--------------------MLIR OPS--------------------

====================Graph Node====================
Node: arg230_1
Type: OpType.PlaceholderType
Arguments: []
Parents: []
Children: []
--------------------MLIR OPS--------------------

====================Graph Node====================
Node: arg231_1
Type: OpType.PlaceholderType
Arguments: []
Parents: []
Children: []
--------------------MLIR OPS--------------------

====================Graph Node====================
Node: arg232_1
Type: OpType.PlaceholderType
Arguments: []
Parents: []
Children: []
--------------------MLIR OPS--------------------

====================Graph Node====================
Node: arg233_1
Type: OpType.PlaceholderType
Arguments: []
Parents: []
Children: []
--------------------MLIR OPS--------------------

====================Graph Node====================
Node: arg234_1
Type: OpType.PlaceholderType
Arguments: []
Parents: []
Children: []
--------------------MLIR OPS--------------------

====================Graph Node====================
Node: arg28_1
Type: OpType.PlaceholderType
Arguments: []
Parents: []
Children: []
--------------------MLIR OPS--------------------

====================Graph Node====================
Node: arg29_1
Type: OpType.PlaceholderType
Arguments: []
Parents: []
Children: []
--------------------MLIR OPS--------------------

====================Graph Node====================
Node: arg235_1
Type: OpType.PlaceholderType
Arguments: []
Parents: []
Children: []
--------------------MLIR OPS--------------------

====================Graph Node====================
Node: arg236_1
Type: OpType.PlaceholderType
Arguments: []
Parents: []
Children: []
--------------------MLIR OPS--------------------

====================Graph Node====================
Node: arg237_1
Type: OpType.PlaceholderType
Arguments: []
Parents: []
Children: []
--------------------MLIR OPS--------------------

====================Graph Node====================
Node: arg238_1
Type: OpType.PlaceholderType
Arguments: []
Parents: []
Children: []
--------------------MLIR OPS--------------------

====================Graph Node====================
Node: arg239_1
Type: OpType.PlaceholderType
Arguments: []
Parents: []
Children: []
--------------------MLIR OPS--------------------

====================Graph Node====================
Node: arg240_1
Type: OpType.PlaceholderType
Arguments: []
Parents: []
Children: []
--------------------MLIR OPS--------------------

====================Graph Node====================
Node: arg241_1
Type: OpType.PlaceholderType
Arguments: []
Parents: []
Children: []
--------------------MLIR OPS--------------------

====================Graph Node====================
Node: arg242_1
Type: OpType.PlaceholderType
Arguments: []
Parents: []
Children: []
--------------------MLIR OPS--------------------

====================Graph Node====================
Node: arg243_1
Type: OpType.PlaceholderType
Arguments: []
Parents: []
Children: []
--------------------MLIR OPS--------------------

====================Graph Node====================
Node: arg244_1
Type: OpType.PlaceholderType
Arguments: []
Parents: []
Children: []
--------------------MLIR OPS--------------------

====================Graph Node====================
Node: arg245_1
Type: OpType.PlaceholderType
Arguments: []
Parents: []
Children: []
--------------------MLIR OPS--------------------

====================Graph Node====================
Node: arg246_1
Type: OpType.PlaceholderType
Arguments: []
Parents: []
Children: []
--------------------MLIR OPS--------------------

====================Graph Node====================
Node: arg30_1
Type: OpType.PlaceholderType
Arguments: []
Parents: []
Children: []
--------------------MLIR OPS--------------------

====================Graph Node====================
Node: arg31_1
Type: OpType.PlaceholderType
Arguments: []
Parents: []
Children: []
--------------------MLIR OPS--------------------

====================Graph Node====================
Node: arg247_1
Type: OpType.PlaceholderType
Arguments: []
Parents: []
Children: []
--------------------MLIR OPS--------------------

====================Graph Node====================
Node: arg248_1
Type: OpType.PlaceholderType
Arguments: []
Parents: []
Children: []
--------------------MLIR OPS--------------------

====================Graph Node====================
Node: arg249_1
Type: OpType.PlaceholderType
Arguments: []
Parents: []
Children: []
--------------------MLIR OPS--------------------

====================Graph Node====================
Node: arg250_1
Type: OpType.PlaceholderType
Arguments: []
Parents: []
Children: []
--------------------MLIR OPS--------------------

====================Graph Node====================
Node: arg251_1
Type: OpType.PlaceholderType
Arguments: []
Parents: []
Children: []
--------------------MLIR OPS--------------------

====================Graph Node====================
Node: arg252_1
Type: OpType.PlaceholderType
Arguments: []
Parents: []
Children: []
--------------------MLIR OPS--------------------

====================Graph Node====================
Node: arg253_1
Type: OpType.PlaceholderType
Arguments: []
Parents: []
Children: []
--------------------MLIR OPS--------------------

====================Graph Node====================
Node: arg254_1
Type: OpType.PlaceholderType
Arguments: []
Parents: []
Children: []
--------------------MLIR OPS--------------------

====================Graph Node====================
Node: arg255_1
Type: OpType.PlaceholderType
Arguments: []
Parents: []
Children: []
--------------------MLIR OPS--------------------

====================Graph Node====================
Node: arg256_1
Type: OpType.PlaceholderType
Arguments: []
Parents: []
Children: []
--------------------MLIR OPS--------------------

====================Graph Node====================
Node: arg257_1
Type: OpType.PlaceholderType
Arguments: []
Parents: []
Children: []
--------------------MLIR OPS--------------------

====================Graph Node====================
Node: arg258_1
Type: OpType.PlaceholderType
Arguments: []
Parents: []
Children: []
--------------------MLIR OPS--------------------

====================Graph Node====================
Node: arg32_1
Type: OpType.PlaceholderType
Arguments: []
Parents: []
Children: []
--------------------MLIR OPS--------------------

====================Graph Node====================
Node: arg33_1
Type: OpType.PlaceholderType
Arguments: []
Parents: []
Children: []
--------------------MLIR OPS--------------------

====================Graph Node====================
Node: arg259_1
Type: OpType.PlaceholderType
Arguments: []
Parents: []
Children: []
--------------------MLIR OPS--------------------

====================Graph Node====================
Node: arg260_1
Type: OpType.PlaceholderType
Arguments: []
Parents: []
Children: []
--------------------MLIR OPS--------------------

====================Graph Node====================
Node: arg261_1
Type: OpType.PlaceholderType
Arguments: []
Parents: []
Children: []
--------------------MLIR OPS--------------------

====================Graph Node====================
Node: arg262_1
Type: OpType.PlaceholderType
Arguments: []
Parents: []
Children: []
--------------------MLIR OPS--------------------

====================Graph Node====================
Node: arg263_1
Type: OpType.PlaceholderType
Arguments: []
Parents: []
Children: []
--------------------MLIR OPS--------------------

====================Graph Node====================
Node: arg264_1
Type: OpType.PlaceholderType
Arguments: []
Parents: []
Children: []
--------------------MLIR OPS--------------------

====================Graph Node====================
Node: arg265_1
Type: OpType.PlaceholderType
Arguments: []
Parents: []
Children: []
--------------------MLIR OPS--------------------

====================Graph Node====================
Node: arg266_1
Type: OpType.PlaceholderType
Arguments: []
Parents: []
Children: []
--------------------MLIR OPS--------------------

====================Graph Node====================
Node: arg267_1
Type: OpType.PlaceholderType
Arguments: []
Parents: []
Children: []
--------------------MLIR OPS--------------------

====================Graph Node====================
Node: arg268_1
Type: OpType.PlaceholderType
Arguments: []
Parents: []
Children: []
--------------------MLIR OPS--------------------

====================Graph Node====================
Node: arg269_1
Type: OpType.PlaceholderType
Arguments: []
Parents: []
Children: []
--------------------MLIR OPS--------------------

====================Graph Node====================
Node: arg270_1
Type: OpType.PlaceholderType
Arguments: []
Parents: []
Children: []
--------------------MLIR OPS--------------------

====================Graph Node====================
Node: arg34_1
Type: OpType.PlaceholderType
Arguments: []
Parents: []
Children: []
--------------------MLIR OPS--------------------

====================Graph Node====================
Node: arg35_1
Type: OpType.PlaceholderType
Arguments: []
Parents: []
Children: []
--------------------MLIR OPS--------------------

====================Graph Node====================
Node: arg271_1
Type: OpType.PlaceholderType
Arguments: []
Parents: []
Children: []
--------------------MLIR OPS--------------------

====================Graph Node====================
Node: arg272_1
Type: OpType.PlaceholderType
Arguments: []
Parents: []
Children: []
--------------------MLIR OPS--------------------

====================Graph Node====================
Node: arg273_1
Type: OpType.PlaceholderType
Arguments: []
Parents: []
Children: []
--------------------MLIR OPS--------------------

====================Graph Node====================
Node: arg274_1
Type: OpType.PlaceholderType
Arguments: []
Parents: []
Children: []
--------------------MLIR OPS--------------------

====================Graph Node====================
Node: arg275_1
Type: OpType.PlaceholderType
Arguments: []
Parents: []
Children: []
--------------------MLIR OPS--------------------

====================Graph Node====================
Node: arg276_1
Type: OpType.PlaceholderType
Arguments: []
Parents: []
Children: []
--------------------MLIR OPS--------------------

====================Graph Node====================
Node: arg277_1
Type: OpType.PlaceholderType
Arguments: []
Parents: []
Children: []
--------------------MLIR OPS--------------------

====================Graph Node====================
Node: arg278_1
Type: OpType.PlaceholderType
Arguments: []
Parents: []
Children: []
--------------------MLIR OPS--------------------

====================Graph Node====================
Node: arg279_1
Type: OpType.PlaceholderType
Arguments: []
Parents: []
Children: []
--------------------MLIR OPS--------------------

====================Graph Node====================
Node: arg280_1
Type: OpType.PlaceholderType
Arguments: []
Parents: []
Children: []
--------------------MLIR OPS--------------------

====================Graph Node====================
Node: arg281_1
Type: OpType.PlaceholderType
Arguments: []
Parents: []
Children: []
--------------------MLIR OPS--------------------

====================Graph Node====================
Node: arg282_1
Type: OpType.PlaceholderType
Arguments: []
Parents: []
Children: []
--------------------MLIR OPS--------------------

====================Graph Node====================
Node: arg36_1
Type: OpType.PlaceholderType
Arguments: []
Parents: []
Children: []
--------------------MLIR OPS--------------------

====================Graph Node====================
Node: arg37_1
Type: OpType.PlaceholderType
Arguments: []
Parents: []
Children: []
--------------------MLIR OPS--------------------

====================Graph Node====================
Node: arg283_1
Type: OpType.PlaceholderType
Arguments: []
Parents: []
Children: []
--------------------MLIR OPS--------------------

====================Graph Node====================
Node: arg284_1
Type: OpType.PlaceholderType
Arguments: []
Parents: []
Children: []
--------------------MLIR OPS--------------------

====================Graph Node====================
Node: arg285_1
Type: OpType.PlaceholderType
Arguments: []
Parents: []
Children: []
--------------------MLIR OPS--------------------

====================Graph Node====================
Node: arg286_1
Type: OpType.PlaceholderType
Arguments: []
Parents: []
Children: []
--------------------MLIR OPS--------------------

====================Graph Node====================
Node: arg287_1
Type: OpType.PlaceholderType
Arguments: []
Parents: []
Children: []
--------------------MLIR OPS--------------------

====================Graph Node====================
Node: arg288_1
Type: OpType.PlaceholderType
Arguments: []
Parents: []
Children: []
--------------------MLIR OPS--------------------

====================Graph Node====================
Node: arg289_1
Type: OpType.PlaceholderType
Arguments: []
Parents: []
Children: []
--------------------MLIR OPS--------------------

====================Graph Node====================
Node: arg290_1
Type: OpType.PlaceholderType
Arguments: []
Parents: []
Children: []
--------------------MLIR OPS--------------------

====================Graph Node====================
Node: arg291_1
Type: OpType.PlaceholderType
Arguments: []
Parents: []
Children: []
--------------------MLIR OPS--------------------

====================Graph Node====================
Node: arg292_1
Type: OpType.PlaceholderType
Arguments: []
Parents: []
Children: []
--------------------MLIR OPS--------------------

====================Graph Node====================
Node: arg293_1
Type: OpType.PlaceholderType
Arguments: []
Parents: []
Children: []
--------------------MLIR OPS--------------------

====================Graph Node====================
Node: arg294_1
Type: OpType.PlaceholderType
Arguments: []
Parents: []
Children: []
--------------------MLIR OPS--------------------

====================Graph Node====================
Node: arg38_1
Type: OpType.PlaceholderType
Arguments: []
Parents: []
Children: []
--------------------MLIR OPS--------------------

====================Graph Node====================
Node: arg39_1
Type: OpType.PlaceholderType
Arguments: []
Parents: []
Children: []
--------------------MLIR OPS--------------------

====================Graph Node====================
Node: arg295_1
Type: OpType.PlaceholderType
Arguments: []
Parents: []
Children: []
--------------------MLIR OPS--------------------

====================Graph Node====================
Node: arg296_1
Type: OpType.PlaceholderType
Arguments: []
Parents: []
Children: []
--------------------MLIR OPS--------------------

====================Graph Node====================
Node: arg297_1
Type: OpType.PlaceholderType
Arguments: []
Parents: []
Children: []
--------------------MLIR OPS--------------------

====================Graph Node====================
Node: arg298_1
Type: OpType.PlaceholderType
Arguments: []
Parents: []
Children: []
--------------------MLIR OPS--------------------

====================Graph Node====================
Node: arg299_1
Type: OpType.PlaceholderType
Arguments: []
Parents: []
Children: []
--------------------MLIR OPS--------------------

====================Graph Node====================
Node: arg300_1
Type: OpType.PlaceholderType
Arguments: []
Parents: []
Children: []
--------------------MLIR OPS--------------------

====================Graph Node====================
Node: arg301_1
Type: OpType.PlaceholderType
Arguments: []
Parents: []
Children: []
--------------------MLIR OPS--------------------

====================Graph Node====================
Node: arg302_1
Type: OpType.PlaceholderType
Arguments: []
Parents: []
Children: []
--------------------MLIR OPS--------------------

====================Graph Node====================
Node: arg303_1
Type: OpType.PlaceholderType
Arguments: []
Parents: []
Children: []
--------------------MLIR OPS--------------------

====================Graph Node====================
Node: arg304_1
Type: OpType.PlaceholderType
Arguments: []
Parents: []
Children: []
--------------------MLIR OPS--------------------

====================Graph Node====================
Node: arg305_1
Type: OpType.PlaceholderType
Arguments: []
Parents: []
Children: []
--------------------MLIR OPS--------------------

====================Graph Node====================
Node: arg306_1
Type: OpType.PlaceholderType
Arguments: []
Parents: []
Children: []
--------------------MLIR OPS--------------------

====================Graph Node====================
Node: arg40_1
Type: OpType.PlaceholderType
Arguments: []
Parents: []
Children: []
--------------------MLIR OPS--------------------

====================Graph Node====================
Node: arg41_1
Type: OpType.PlaceholderType
Arguments: []
Parents: []
Children: []
--------------------MLIR OPS--------------------

====================Graph Node====================
Node: arg307_1
Type: OpType.PlaceholderType
Arguments: []
Parents: []
Children: []
--------------------MLIR OPS--------------------

====================Graph Node====================
Node: arg308_1
Type: OpType.PlaceholderType
Arguments: []
Parents: []
Children: []
--------------------MLIR OPS--------------------

====================Graph Node====================
Node: arg309_1
Type: OpType.PlaceholderType
Arguments: []
Parents: []
Children: []
--------------------MLIR OPS--------------------

====================Graph Node====================
Node: arg310_1
Type: OpType.PlaceholderType
Arguments: []
Parents: []
Children: []
--------------------MLIR OPS--------------------

====================Graph Node====================
Node: arg311_1
Type: OpType.PlaceholderType
Arguments: []
Parents: []
Children: []
--------------------MLIR OPS--------------------

====================Graph Node====================
Node: arg312_1
Type: OpType.PlaceholderType
Arguments: []
Parents: []
Children: []
--------------------MLIR OPS--------------------

====================Graph Node====================
Node: arg313_1
Type: OpType.PlaceholderType
Arguments: []
Parents: []
Children: []
--------------------MLIR OPS--------------------

====================Graph Node====================
Node: arg314_1
Type: OpType.PlaceholderType
Arguments: []
Parents: []
Children: []
--------------------MLIR OPS--------------------

====================Graph Node====================
Node: arg315_1
Type: OpType.PlaceholderType
Arguments: []
Parents: []
Children: []
--------------------MLIR OPS--------------------

====================Graph Node====================
Node: arg316_1
Type: OpType.PlaceholderType
Arguments: []
Parents: []
Children: []
--------------------MLIR OPS--------------------

====================Graph Node====================
Node: arg317_1
Type: OpType.PlaceholderType
Arguments: []
Parents: []
Children: []
--------------------MLIR OPS--------------------

====================Graph Node====================
Node: arg318_1
Type: OpType.PlaceholderType
Arguments: []
Parents: []
Children: []
--------------------MLIR OPS--------------------

====================Graph Node====================
Node: arg42_1
Type: OpType.PlaceholderType
Arguments: []
Parents: []
Children: []
--------------------MLIR OPS--------------------

====================Graph Node====================
Node: arg43_1
Type: OpType.PlaceholderType
Arguments: []
Parents: []
Children: []
--------------------MLIR OPS--------------------

====================Graph Node====================
Node: arg319_1
Type: OpType.PlaceholderType
Arguments: []
Parents: []
Children: []
--------------------MLIR OPS--------------------

====================Graph Node====================
Node: arg320_1
Type: OpType.PlaceholderType
Arguments: []
Parents: []
Children: []
--------------------MLIR OPS--------------------

====================Graph Node====================
Node: arg321_1
Type: OpType.PlaceholderType
Arguments: []
Parents: []
Children: []
--------------------MLIR OPS--------------------

====================Graph Node====================
Node: arg322_1
Type: OpType.PlaceholderType
Arguments: []
Parents: []
Children: []
--------------------MLIR OPS--------------------

====================Graph Node====================
Node: arg323_1
Type: OpType.PlaceholderType
Arguments: []
Parents: []
Children: []
--------------------MLIR OPS--------------------

====================Graph Node====================
Node: arg324_1
Type: OpType.PlaceholderType
Arguments: []
Parents: []
Children: []
--------------------MLIR OPS--------------------

====================Graph Node====================
Node: arg325_1
Type: OpType.PlaceholderType
Arguments: []
Parents: []
Children: []
--------------------MLIR OPS--------------------

====================Graph Node====================
Node: arg326_1
Type: OpType.PlaceholderType
Arguments: []
Parents: []
Children: []
--------------------MLIR OPS--------------------

====================Graph Node====================
Node: arg327_1
Type: OpType.PlaceholderType
Arguments: []
Parents: []
Children: []
--------------------MLIR OPS--------------------

====================Graph Node====================
Node: arg328_1
Type: OpType.PlaceholderType
Arguments: []
Parents: []
Children: []
--------------------MLIR OPS--------------------

====================Graph Node====================
Node: arg329_1
Type: OpType.PlaceholderType
Arguments: []
Parents: []
Children: []
--------------------MLIR OPS--------------------

====================Graph Node====================
Node: arg330_1
Type: OpType.PlaceholderType
Arguments: []
Parents: []
Children: []
--------------------MLIR OPS--------------------

====================Graph Node====================
Node: arg44_1
Type: OpType.PlaceholderType
Arguments: []
Parents: []
Children: []
--------------------MLIR OPS--------------------

====================Graph Node====================
Node: arg45_1
Type: OpType.PlaceholderType
Arguments: []
Parents: []
Children: []
--------------------MLIR OPS--------------------

====================Graph Node====================
Node: arg331_1
Type: OpType.PlaceholderType
Arguments: []
Parents: []
Children: []
--------------------MLIR OPS--------------------

====================Graph Node====================
Node: arg332_1
Type: OpType.PlaceholderType
Arguments: []
Parents: []
Children: []
--------------------MLIR OPS--------------------

====================Graph Node====================
Node: arg333_1
Type: OpType.PlaceholderType
Arguments: []
Parents: []
Children: []
--------------------MLIR OPS--------------------

====================Graph Node====================
Node: arg334_1
Type: OpType.PlaceholderType
Arguments: []
Parents: []
Children: []
--------------------MLIR OPS--------------------

====================Graph Node====================
Node: arg335_1
Type: OpType.PlaceholderType
Arguments: []
Parents: []
Children: []
--------------------MLIR OPS--------------------

====================Graph Node====================
Node: arg336_1
Type: OpType.PlaceholderType
Arguments: []
Parents: []
Children: []
--------------------MLIR OPS--------------------

====================Graph Node====================
Node: arg337_1
Type: OpType.PlaceholderType
Arguments: []
Parents: []
Children: []
--------------------MLIR OPS--------------------

====================Graph Node====================
Node: arg338_1
Type: OpType.PlaceholderType
Arguments: []
Parents: []
Children: []
--------------------MLIR OPS--------------------

====================Graph Node====================
Node: arg339_1
Type: OpType.PlaceholderType
Arguments: []
Parents: []
Children: []
--------------------MLIR OPS--------------------

====================Graph Node====================
Node: arg340_1
Type: OpType.PlaceholderType
Arguments: []
Parents: []
Children: []
--------------------MLIR OPS--------------------

====================Graph Node====================
Node: arg341_1
Type: OpType.PlaceholderType
Arguments: []
Parents: []
Children: []
--------------------MLIR OPS--------------------

====================Graph Node====================
Node: arg342_1
Type: OpType.PlaceholderType
Arguments: []
Parents: []
Children: []
--------------------MLIR OPS--------------------

====================Graph Node====================
Node: arg46_1
Type: OpType.PlaceholderType
Arguments: []
Parents: []
Children: []
--------------------MLIR OPS--------------------

====================Graph Node====================
Node: arg47_1
Type: OpType.PlaceholderType
Arguments: []
Parents: []
Children: []
--------------------MLIR OPS--------------------

====================Graph Node====================
Node: arg343_1
Type: OpType.PlaceholderType
Arguments: []
Parents: []
Children: []
--------------------MLIR OPS--------------------

====================Graph Node====================
Node: arg344_1
Type: OpType.PlaceholderType
Arguments: []
Parents: []
Children: []
--------------------MLIR OPS--------------------

====================Graph Node====================
Node: arg345_1
Type: OpType.PlaceholderType
Arguments: []
Parents: []
Children: []
--------------------MLIR OPS--------------------

====================Graph Node====================
Node: arg346_1
Type: OpType.PlaceholderType
Arguments: []
Parents: []
Children: []
--------------------MLIR OPS--------------------

====================Graph Node====================
Node: arg347_1
Type: OpType.PlaceholderType
Arguments: []
Parents: []
Children: []
--------------------MLIR OPS--------------------

====================Graph Node====================
Node: arg348_1
Type: OpType.PlaceholderType
Arguments: []
Parents: []
Children: []
--------------------MLIR OPS--------------------

====================Graph Node====================
Node: arg349_1
Type: OpType.PlaceholderType
Arguments: []
Parents: []
Children: []
--------------------MLIR OPS--------------------

====================Graph Node====================
Node: arg350_1
Type: OpType.PlaceholderType
Arguments: []
Parents: []
Children: []
--------------------MLIR OPS--------------------

====================Graph Node====================
Node: arg351_1
Type: OpType.PlaceholderType
Arguments: []
Parents: []
Children: []
--------------------MLIR OPS--------------------

====================Graph Node====================
Node: arg352_1
Type: OpType.PlaceholderType
Arguments: []
Parents: []
Children: []
--------------------MLIR OPS--------------------

====================Graph Node====================
Node: arg353_1
Type: OpType.PlaceholderType
Arguments: []
Parents: []
Children: []
--------------------MLIR OPS--------------------

====================Graph Node====================
Node: arg354_1
Type: OpType.PlaceholderType
Arguments: []
Parents: []
Children: []
--------------------MLIR OPS--------------------

====================Graph Node====================
Node: arg48_1
Type: OpType.PlaceholderType
Arguments: []
Parents: []
Children: []
--------------------MLIR OPS--------------------

====================Graph Node====================
Node: arg49_1
Type: OpType.PlaceholderType
Arguments: []
Parents: []
Children: []
--------------------MLIR OPS--------------------

====================Graph Node====================
Node: arg355_1
Type: OpType.PlaceholderType
Arguments: []
Parents: []
Children: []
--------------------MLIR OPS--------------------

====================Graph Node====================
Node: arg356_1
Type: OpType.PlaceholderType
Arguments: []
Parents: []
Children: []
--------------------MLIR OPS--------------------

====================Graph Node====================
Node: arg357_1
Type: OpType.PlaceholderType
Arguments: []
Parents: []
Children: []
--------------------MLIR OPS--------------------

====================Graph Node====================
Node: arg358_1
Type: OpType.PlaceholderType
Arguments: []
Parents: []
Children: []
--------------------MLIR OPS--------------------

====================Graph Node====================
Node: arg359_1
Type: OpType.PlaceholderType
Arguments: []
Parents: []
Children: []
--------------------MLIR OPS--------------------

====================Graph Node====================
Node: arg360_1
Type: OpType.PlaceholderType
Arguments: []
Parents: []
Children: []
--------------------MLIR OPS--------------------

====================Graph Node====================
Node: arg361_1
Type: OpType.PlaceholderType
Arguments: []
Parents: []
Children: []
--------------------MLIR OPS--------------------

====================Graph Node====================
Node: arg362_1
Type: OpType.PlaceholderType
Arguments: []
Parents: []
Children: []
--------------------MLIR OPS--------------------

====================Graph Node====================
Node: arg363_1
Type: OpType.PlaceholderType
Arguments: []
Parents: []
Children: []
--------------------MLIR OPS--------------------

====================Graph Node====================
Node: arg364_1
Type: OpType.PlaceholderType
Arguments: []
Parents: []
Children: []
--------------------MLIR OPS--------------------

====================Graph Node====================
Node: arg365_1
Type: OpType.PlaceholderType
Arguments: []
Parents: []
Children: []
--------------------MLIR OPS--------------------

====================Graph Node====================
Node: arg366_1
Type: OpType.PlaceholderType
Arguments: []
Parents: []
Children: []
--------------------MLIR OPS--------------------

====================Graph Node====================
Node: arg50_1
Type: OpType.PlaceholderType
Arguments: []
Parents: []
Children: []
--------------------MLIR OPS--------------------

====================Graph Node====================
Node: arg51_1
Type: OpType.PlaceholderType
Arguments: []
Parents: []
Children: []
--------------------MLIR OPS--------------------

====================Graph Node====================
Node: arg367_1
Type: OpType.PlaceholderType
Arguments: []
Parents: []
Children: []
--------------------MLIR OPS--------------------

====================Graph Node====================
Node: arg368_1
Type: OpType.PlaceholderType
Arguments: []
Parents: []
Children: []
--------------------MLIR OPS--------------------

====================Graph Node====================
Node: arg369_1
Type: OpType.PlaceholderType
Arguments: []
Parents: []
Children: []
--------------------MLIR OPS--------------------

====================Graph Node====================
Node: arg370_1
Type: OpType.PlaceholderType
Arguments: []
Parents: []
Children: []
--------------------MLIR OPS--------------------

====================Graph Node====================
Node: arg371_1
Type: OpType.PlaceholderType
Arguments: []
Parents: []
Children: []
--------------------MLIR OPS--------------------

====================Graph Node====================
Node: arg372_1
Type: OpType.PlaceholderType
Arguments: []
Parents: []
Children: []
--------------------MLIR OPS--------------------

====================Graph Node====================
Node: arg373_1
Type: OpType.PlaceholderType
Arguments: []
Parents: []
Children: []
--------------------MLIR OPS--------------------

====================Graph Node====================
Node: arg374_1
Type: OpType.PlaceholderType
Arguments: []
Parents: []
Children: []
--------------------MLIR OPS--------------------

====================Graph Node====================
Node: arg375_1
Type: OpType.PlaceholderType
Arguments: []
Parents: []
Children: []
--------------------MLIR OPS--------------------

====================Graph Node====================
Node: arg376_1
Type: OpType.PlaceholderType
Arguments: []
Parents: []
Children: []
--------------------MLIR OPS--------------------

====================Graph Node====================
Node: arg377_1
Type: OpType.PlaceholderType
Arguments: []
Parents: []
Children: []
--------------------MLIR OPS--------------------

====================Graph Node====================
Node: arg378_1
Type: OpType.PlaceholderType
Arguments: []
Parents: []
Children: []
--------------------MLIR OPS--------------------

====================Graph Node====================
Node: arg52_1
Type: OpType.PlaceholderType
Arguments: []
Parents: []
Children: []
--------------------MLIR OPS--------------------

====================Graph Node====================
Node: arg53_1
Type: OpType.PlaceholderType
Arguments: []
Parents: []
Children: []
--------------------MLIR OPS--------------------

====================Graph Node====================
Node: arg379_1
Type: OpType.PlaceholderType
Arguments: []
Parents: []
Children: []
--------------------MLIR OPS--------------------

====================Graph Node====================
Node: arg380_1
Type: OpType.PlaceholderType
Arguments: []
Parents: []
Children: []
--------------------MLIR OPS--------------------

====================Graph Node====================
Node: arg381_1
Type: OpType.PlaceholderType
Arguments: []
Parents: []
Children: []
--------------------MLIR OPS--------------------

====================Graph Node====================
Node: arg382_1
Type: OpType.PlaceholderType
Arguments: []
Parents: []
Children: []
--------------------MLIR OPS--------------------

====================Graph Node====================
Node: arg383_1
Type: OpType.PlaceholderType
Arguments: []
Parents: []
Children: []
--------------------MLIR OPS--------------------

====================Graph Node====================
Node: arg384_1
Type: OpType.PlaceholderType
Arguments: []
Parents: []
Children: []
--------------------MLIR OPS--------------------

====================Graph Node====================
Node: arg385_1
Type: OpType.PlaceholderType
Arguments: []
Parents: []
Children: []
--------------------MLIR OPS--------------------

====================Graph Node====================
Node: arg386_1
Type: OpType.PlaceholderType
Arguments: []
Parents: []
Children: []
--------------------MLIR OPS--------------------

====================Graph Node====================
Node: arg387_1
Type: OpType.PlaceholderType
Arguments: []
Parents: []
Children: []
--------------------MLIR OPS--------------------

====================Graph Node====================
Node: arg388_1
Type: OpType.PlaceholderType
Arguments: []
Parents: []
Children: []
--------------------MLIR OPS--------------------

====================Graph Node====================
Node: arg389_1
Type: OpType.PlaceholderType
Arguments: []
Parents: []
Children: []
--------------------MLIR OPS--------------------

====================Graph Node====================
Node: arg390_1
Type: OpType.PlaceholderType
Arguments: []
Parents: []
Children: []
--------------------MLIR OPS--------------------

====================Graph Node====================
Node: arg54_1
Type: OpType.PlaceholderType
Arguments: []
Parents: []
Children: []
--------------------MLIR OPS--------------------

====================Graph Node====================
Node: arg55_1
Type: OpType.PlaceholderType
Arguments: []
Parents: []
Children: []
--------------------MLIR OPS--------------------

====================Graph Node====================
Node: arg391_1
Type: OpType.PlaceholderType
Arguments: []
Parents: []
Children: []
--------------------MLIR OPS--------------------

====================Graph Node====================
Node: arg392_1
Type: OpType.PlaceholderType
Arguments: []
Parents: []
Children: []
--------------------MLIR OPS--------------------

====================Graph Node====================
Node: arg393_1
Type: OpType.PlaceholderType
Arguments: []
Parents: []
Children: []
--------------------MLIR OPS--------------------

====================Graph Node====================
Node: arg394_1
Type: OpType.PlaceholderType
Arguments: []
Parents: []
Children: []
--------------------MLIR OPS--------------------

====================Graph Node====================
Node: arg395_1
Type: OpType.PlaceholderType
Arguments: []
Parents: []
Children: []
--------------------MLIR OPS--------------------

====================Graph Node====================
Node: arg396_1
Type: OpType.PlaceholderType
Arguments: []
Parents: []
Children: []
--------------------MLIR OPS--------------------

====================Graph Node====================
Node: arg397_1
Type: OpType.PlaceholderType
Arguments: []
Parents: []
Children: []
--------------------MLIR OPS--------------------

====================Graph Node====================
Node: embedding
Type: OpType.ReshapeType
Arguments: ['arg57_1', 'arg56_1']
Parents: ['arg57_1', 'arg56_1']
Children: ['pow_1', 'mul_2', 'add_4']
--------------------MLIR OPS--------------------
%0 = "tosa.cast"(%arg1) : (tensor<1x1xi64>) -> tensor<1x1xi32>
%1 = "tosa.reshape"(%arg0) <{new_shape = array<i64: 1, 151936, 1536>}> : (tensor<151936x1536xf32>) -> tensor<1x151936x1536xf32>
%2 = "tosa.gather"(%1, %0) : (tensor<1x151936x1536xf32>, tensor<1x1xi32>) -> tensor<1x1x1536xf32>

====================Graph Node====================
Node: unsqueeze
Type: OpType.ReshapeType
Arguments: ['arg58_1', 0]
Parents: ['arg58_1']
Children: ['slice_2']
--------------------MLIR OPS--------------------
%3 = "tosa.reshape"(%arg2) <{new_shape = array<i64: 1, 1>}> : (tensor<1xi64>) -> tensor<1x1xi64>

====================Graph Node====================
Node: iota
Type: OpType.PlaceholderType
Arguments: [1024]
Parents: []
Children: ['add']
--------------------MLIR OPS--------------------
%4 = "tosa.const"() <{value = dense<"…"> : tensor<1024xi64>}> : () -> tensor<1024xi64>

====================Graph Node====================
Node: add
Type: OpType.BroadcastType
Arguments: ['iota', 0]
Parents: ['iota']
Children: ['le']
--------------------MLIR OPS--------------------
%5 = "tosa.const"() <{value = dense<0> : tensor<1024xi64>}> : () -> tensor<1024xi64>
%6 = "tosa.add"(%4, %5) : (tensor<1024xi64>, tensor<1024xi64>) -> tensor<1024xi64>

====================Graph Node====================
Node: view
Type: OpType.ReshapeType
Arguments: ['arg58_1', [1, 1]]
Parents: ['arg58_1']
Children: ['le']
--------------------MLIR OPS--------------------
%7 = "tosa.reshape"(%arg2) <{new_shape = array<i64: 1, 1>}> : (tensor<1xi64>) -> tensor<1x1xi64>

====================Graph Node====================
Node: le
Type: OpType.ElementwiseType
Arguments: ['add', 'view']
Parents: ['add', 'view']
Children: ['expand']
--------------------MLIR OPS--------------------
%8 = "tosa.const"() <{value = dense<0> : tensor<1x1024xi64>}> : () -> tensor<1x1024xi64>
%9 = "tosa.reshape"(%6) <{new_shape = array<i64: 1, 1024>}> : (tensor<1024xi64>) -> tensor<1x1024xi64>
%10 = "tosa.add"(%9, %8) : (tensor<1x1024xi64>, tensor<1x1024xi64>) -> tensor<1x1024xi64>
%11 = "tosa.const"() <{value = dense<0> : tensor<1x1024xi64>}> : () -> tensor<1x1024xi64>
%12 = "tosa.add"(%7, %11) : (tensor<1x1xi64>, tensor<1x1024xi64>) -> tensor<1x1024xi64>
%13 = "arith.cmpi"(%10, %12) <{predicate = 7 : i64}> : (tensor<1x1024xi64>, tensor<1x1024xi64>) -> tensor<1x1024xi1>

====================Graph Node====================
Node: expand
Type: OpType.ReshapeType
Arguments: ['le', [1, 1, 1024]]
Parents: ['le']
Children: ['expand_1']
--------------------MLIR OPS--------------------
%14 = "tosa.const"() <{value = dense<false> : tensor<1x1xi1>}> : () -> tensor<1x1xi1>
%15 = "tosa.add"(%13, %14) : (tensor<1x1024xi1>, tensor<1x1xi1>) -> tensor<1x1024xi1>

====================Graph Node====================
Node: expand_1
Type: OpType.ReshapeType
Arguments: ['expand', [1, 1, 1, 1024]]
Parents: ['expand']
Children: ['slice_24', 'slice_47', 'slice_70', 'slice_93', 'slice_116', 'slice_139', 'slice_162', 'slice_185', 'slice_208', 'slice_231', 'slice_254', 'slice_277', 'slice_300', 'slice_323', 'slice_346', 'slice_369', 'slice_392', 'slice_415', 'slice_438', 'slice_461', 'slice_484', 'slice_507', 'slice_530', 'slice_553', 'slice_576', 'slice_599', 'slice_622', 'slice_645']
--------------------MLIR OPS--------------------
%16 = "tosa.const"() <{value = dense<false> : tensor<1x1xi1>}> : () -> tensor<1x1xi1>
%17 = "tosa.add"(%15, %16) : (tensor<1x1024xi1>, tensor<1x1xi1>) -> tensor<1x1024xi1>

====================Graph Node====================
Node: unsqueeze_1
Type: OpType.ReshapeType
Arguments: ['arg59_1', 0]
Parents: ['arg59_1']
Children: ['slice_1']
--------------------MLIR OPS--------------------
%18 = "tosa.reshape"(%arg3) <{new_shape = array<i64: 1, 64>}> : (tensor<64xf32>) -> tensor<1x64xf32>

====================Graph Node====================
Node: slice_1
Type: OpType.ReshapeType
Arguments: ['unsqueeze_1', 1, 0, 9223372036854775807]
Parents: ['unsqueeze_1']
Children: ['unsqueeze_2']
--------------------MLIR OPS--------------------

====================Graph Node====================
Node: unsqueeze_2
Type: OpType.ReshapeType
Arguments: ['slice_1', 2]
Parents: ['slice_1']
Children: ['expand_2']
--------------------MLIR OPS--------------------
%19 = "tosa.reshape"(%18) <{new_shape = array<i64: 1, 64, 1>}> : (tensor<1x64xf32>) -> tensor<1x64x1xf32>

====================Graph Node====================
Node: expand_2
Type: OpType.ReshapeType
Arguments: ['unsqueeze_2', [1, -1, 1]]
Parents: ['unsqueeze_2']
Children: ['expand_3']
--------------------MLIR OPS--------------------

====================Graph Node====================
Node: slice_2
Type: OpType.ReshapeType
Arguments: ['unsqueeze', 0, 0, 9223372036854775807]
Parents: ['unsqueeze']
Children: ['unsqueeze_3']
--------------------MLIR OPS--------------------

====================Graph Node====================
Node: unsqueeze_3
Type: OpType.ReshapeType
Arguments: ['slice_2', 1]
Parents: ['slice_2']
Children: ['slice_3']
--------------------MLIR OPS--------------------
%20 = "tosa.reshape"(%3) <{new_shape = array<i64: 1, 1, 1>}> : (tensor<1x1xi64>) -> tensor<1x1x1xi64>

====================Graph Node====================
Node: slice_3
Type: OpType.ReshapeType
Arguments: ['unsqueeze_3', 2, 0, 9223372036854775807]
Parents: ['unsqueeze_3']
Children: ['convert_element_type']
--------------------MLIR OPS--------------------

====================Graph Node====================
Node: convert_element_type
Type: OpType.ElementwiseType
Arguments: ['slice_3', <TensorDType.Float32: 'float32'>]
Parents: ['slice_3']
Children: ['expand_4']
--------------------MLIR OPS--------------------
%21 = "tosa.cast"(%20) : (tensor<1x1x1xi64>) -> tensor<1x1x1xf32>

====================Graph Node====================
Node: expand_3
Type: OpType.ReshapeType
Arguments: ['expand_2', [1, 64, 1]]
Parents: ['expand_2']
Children: ['view_1']
--------------------MLIR OPS--------------------

====================Graph Node====================
Node: view_1
Type: OpType.ReshapeType
Arguments: ['expand_3', [1, 64, 1]]
Parents: ['expand_3']
Children: ['bmm']
--------------------MLIR OPS--------------------

====================Graph Node====================
Node: expand_4
Type: OpType.ReshapeType
Arguments: ['convert_element_type', [1, 1, 1]]
Parents: ['convert_element_type']
Children: ['view_2']
--------------------MLIR OPS--------------------

====================Graph Node====================
Node: view_2
Type: OpType.ReshapeType
Arguments: ['expand_4', [1, 1, 1]]
Parents: ['expand_4']
Children: ['bmm']
--------------------MLIR OPS--------------------

====================Graph Node====================
Node: bmm
Type: OpType.ReduceType
Arguments: ['view_1', 'view_2']
Parents: ['view_1', 'view_2']
Children: ['view_3']
--------------------MLIR OPS--------------------
%22 = "tosa.matmul"(%19, %21) : (tensor<1x64x1xf32>, tensor<1x1x1xf32>) -> tensor<1x64x1xf32>

====================Graph Node====================
Node: view_3
Type: OpType.ReshapeType
Arguments: ['bmm', [1, 64, 1]]
Parents: ['bmm']
Children: ['permute']
--------------------MLIR OPS--------------------

====================Graph Node====================
Node: permute
Type: OpType.ReshapeType
Arguments: ['view_3', [0, 2, 1]]
Parents: ['view_3']
Children: ['unsqueeze_4']
--------------------MLIR OPS--------------------
%23 = "tosa.const"() <{value = dense<[0, 2, 1]> : tensor<3xi32>}> : () -> tensor<3xi32>
%24 = "tosa.transpose"(%22, %23) : (tensor<1x64x1xf32>, tensor<3xi32>) -> tensor<1x1x64xf32>

====================Graph Node====================
Node: unsqueeze_4
Type: OpType.ReshapeType
Arguments: ['permute', 2]
Parents: ['permute']
Children: ['expand_5']
--------------------MLIR OPS--------------------
%25 = "tosa.reshape"(%24) <{new_shape = array<i64: 1, 1, 1, 64>}> : (tensor<1x1x64xf32>) -> tensor<1x1x1x64xf32>

====================Graph Node====================
Node: expand_5
Type: OpType.ReshapeType
Arguments: ['unsqueeze_4', [1, 1, 2, 64]]
Parents: ['unsqueeze_4']
Children: ['clone']
--------------------MLIR OPS--------------------
%26 = "tosa.const"() <{value = dense<0.000000e+00> : tensor<1x1x2x64xf32>}> : () -> tensor<1x1x2x64xf32>
%27 = "tosa.add"(%25, %26) : (tensor<1x1x1x64xf32>, tensor<1x1x2x64xf32>) -> tensor<1x1x2x64xf32>

====================Graph Node====================
Node: clone
Type: OpType.ReduceType
Arguments: ['expand_5']
Parents: ['expand_5']
Children: ['view_4']
--------------------MLIR OPS--------------------

====================Graph Node====================
Node: view_4
Type: OpType.ReshapeType
Arguments: ['clone', [1, 1, 128]]
Parents: ['clone']
Children: ['clone_1']
--------------------MLIR OPS--------------------
%28 = "tosa.reshape"(%27) <{new_shape = array<i64: 1, 1, 128>}> : (tensor<1x1x2x64xf32>) -> tensor<1x1x128xf32>

====================Graph Node====================
Node: clone_1
Type: OpType.ReduceType
Arguments: ['view_4']
Parents: ['view_4']
Children: ['cos', 'sin']
--------------------MLIR OPS--------------------

====================Graph Node====================
Node: cos
Type: OpType.ElementwiseType
Arguments: ['clone_1']
Parents: ['clone_1']
Children: ['mul']
--------------------MLIR OPS--------------------
%29 = "math.cos"(%28) <{fastmath = #arith.fastmath<none>}> : (tensor<1x1x128xf32>) -> tensor<1x1x128xf32>

====================Graph Node====================
Node: mul
Type: OpType.BroadcastType
Arguments: ['cos', 1.0]
Parents: ['cos']
Children: ['unsqueeze_5', 'unsqueeze_11', 'unsqueeze_17', 'unsqueeze_23', 'unsqueeze_29', 'unsqueeze_35', 'unsqueeze_41', 'unsqueeze_47', 'unsqueeze_53', 'unsqueeze_59', 'unsqueeze_65', 'unsqueeze_71', 'unsqueeze_77', 'unsqueeze_83', 'unsqueeze_89', 'unsqueeze_95', 'unsqueeze_101', 'unsqueeze_107', 'unsqueeze_113', 'unsqueeze_119', 'unsqueeze_125', 'unsqueeze_131', 'unsqueeze_137', 'unsqueeze_143', 'unsqueeze_149', 'unsqueeze_155', 'unsqueeze_161', 'unsqueeze_167']
--------------------MLIR OPS--------------------
%30 = "arith.constant"() <{value = dense<1.000000e+00> : tensor<1xf32>}> : () -> tensor<1xf32>
%31 = "tosa.reshape"(%30) <{new_shape = array<i64: 1, 1, 1>}> : (tensor<1xf32>) -> tensor<1x1x1xf32>
%32 = "tosa.mul"(%29, %31) : (tensor<1x1x128xf32>, tensor<1x1x1xf32>) -> tensor<1x1x128xf32>

====================Graph Node====================
Node: sin
Type: OpType.ElementwiseType
Arguments: ['clone_1']
Parents: ['clone_1']
Children: ['mul_1']
--------------------MLIR OPS--------------------
%33 = "math.sin"(%28) <{fastmath = #arith.fastmath<none>}> : (tensor<1x1x128xf32>) -> tensor<1x1x128xf32>

====================Graph Node====================
Node: mul_1
Type: OpType.BroadcastType
Arguments: ['sin', 1.0]
Parents: ['sin']
Children: ['unsqueeze_6', 'unsqueeze_12', 'unsqueeze_18', 'unsqueeze_24', 'unsqueeze_30', 'unsqueeze_36', 'unsqueeze_42', 'unsqueeze_48', 'unsqueeze_54', 'unsqueeze_60', 'unsqueeze_66', 'unsqueeze_72', 'unsqueeze_78', 'unsqueeze_84', 'unsqueeze_90', 'unsqueeze_96', 'unsqueeze_102', 'unsqueeze_108', 'unsqueeze_114', 'unsqueeze_120', 'unsqueeze_126', 'unsqueeze_132', 'unsqueeze_138', 'unsqueeze_144', 'unsqueeze_150', 'unsqueeze_156', 'unsqueeze_162', 'unsqueeze_168']
--------------------MLIR OPS--------------------
%34 = "arith.constant"() <{value = dense<1.000000e+00> : tensor<1xf32>}> : () -> tensor<1xf32>
%35 = "tosa.reshape"(%34) <{new_shape = array<i64: 1, 1, 1>}> : (tensor<1xf32>) -> tensor<1x1x1xf32>
%36 = "tosa.mul"(%33, %35) : (tensor<1x1x128xf32>, tensor<1x1x1xf32>) -> tensor<1x1x128xf32>

====================Graph Node====================
Node: pow_1
Type: OpType.BroadcastType
Arguments: ['embedding', 2]
Parents: ['embedding']
Children: ['mean']
--------------------MLIR OPS--------------------
%37 = "tensor.empty"() : () -> tensor<1x1x1536xf32>
%38 = "arith.constant"() <{value = 2 : i32}> : () -> i32
%39 = "linalg.generic"(%2, %37) <{indexing_maps = [affine_map<(d0, d1, d2) -> (d0, d1, d2)>, affine_map<(d0, d1, d2) -> (d0, d1, d2)>], iterator_types = [#linalg.iterator_type<parallel>, #linalg.iterator_type<parallel>, #linalg.iterator_type<parallel>], operandSegmentSizes = array<i32: 1, 1>}> ({
^bb0(%arg398: f32, %arg399: f32):
  %40 = "math.fpowi"(%arg398, %38) <{fastmath = #arith.fastmath<none>}> : (f32, i32) -> f32
  "linalg.yield"(%40) : (f32) -> ()
}) : (tensor<1x1x1536xf32>, tensor<1x1x1536xf32>) -> tensor<1x1x1536xf32>

====================Graph Node====================
Node: mean
Type: OpType.ReduceType
Arguments: ['pow_1', [-1], True]
Parents: ['pow_1']
Children: ['add_1']
--------------------MLIR OPS--------------------
%40 = "tosa.reduce_sum"(%39) <{axis = 2 : i32}> : (tensor<1x1x1536xf32>) -> tensor<1x1x1xf32>
%41 = "tosa.const"() <{value = dense<1.536000e+03> : tensor<1xf32>}> : () -> tensor<1xf32>
%42 = "tosa.reciprocal"(%41) : (tensor<1xf32>) -> tensor<1xf32>
%43 = "tosa.reshape"(%42) <{new_shape = array<i64: 1, 1, 1>}> : (tensor<1xf32>) -> tensor<1x1x1xf32>
%44 = "tosa.mul"(%43, %40) : (tensor<1x1x1xf32>, tensor<1x1x1xf32>) -> tensor<1x1x1xf32>

====================Graph Node====================
Node: add_1
Type: OpType.BroadcastType
Arguments: ['mean', 1e-06]
Parents: ['mean']
Children: ['rsqrt']
--------------------MLIR OPS--------------------
%45 = "tosa.const"() <{value = dense<9.99999997E-7> : tensor<1x1x1xf32>}> : () -> tensor<1x1x1xf32>
%46 = "tosa.add"(%44, %45) : (tensor<1x1x1xf32>, tensor<1x1x1xf32>) -> tensor<1x1x1xf32>

====================Graph Node====================
Node: rsqrt
Type: OpType.ElementwiseType
Arguments: ['add_1']
Parents: ['add_1']
Children: ['mul_2']
--------------------MLIR OPS--------------------
%47 = "tosa.rsqrt"(%46) : (tensor<1x1x1xf32>) -> tensor<1x1x1xf32>

====================Graph Node====================
Node: mul_2
Type: OpType.BroadcastType
Arguments: ['embedding', 'rsqrt']
Parents: ['embedding', 'rsqrt']
Children: ['mul_3']
--------------------MLIR OPS--------------------
%48 = "tosa.mul"(%2, %47) : (tensor<1x1x1536xf32>, tensor<1x1x1xf32>) -> tensor<1x1x1536xf32>

====================Graph Node====================
Node: mul_3
Type: OpType.BroadcastType
Arguments: ['arg60_1', 'mul_2']
Parents: ['arg60_1', 'mul_2']
Children: ['view_5', 'view_8', 'view_11']
--------------------MLIR OPS--------------------
%49 = "tosa.reshape"(%arg4) <{new_shape = array<i64: 1, 1, 1536>}> : (tensor<1536xf32>) -> tensor<1x1x1536xf32>
%50 = "tosa.mul"(%49, %48) : (tensor<1x1x1536xf32>, tensor<1x1x1536xf32>) -> tensor<1x1x1536xf32>

====================Graph Node====================
Node: view_5
Type: OpType.ReshapeType
Arguments: ['mul_3', [1, 1536]]
Parents: ['mul_3']
Children: ['addmm']
--------------------MLIR OPS--------------------
%51 = "tosa.reshape"(%50) <{new_shape = array<i64: 1, 1536>}> : (tensor<1x1x1536xf32>) -> tensor<1x1536xf32>

====================Graph Node====================
Node: permute_1
Type: OpType.ReshapeType
Arguments: ['arg61_1', [1, 0]]
Parents: ['arg61_1']
Children: ['addmm']
--------------------MLIR OPS--------------------
%52 = "tosa.const"() <{value = dense<[1, 0]> : tensor<2xi32>}> : () -> tensor<2xi32>
%53 = "tosa.transpose"(%arg5, %52) : (tensor<1536x1536xf32>, tensor<2xi32>) -> tensor<1536x1536xf32>

====================Graph Node====================
Node: addmm
Type: OpType.ReduceType
Arguments: ['arg62_1', 'view_5', 'permute_1']
Parents: ['arg62_1', 'view_5', 'permute_1']
Children: ['view_6']
--------------------MLIR OPS--------------------
%54 = "arith.constant"() <{value = dense<0.000000e+00> : tensor<1x1536xf32>}> : () -> tensor<1x1536xf32>
%55 = "linalg.matmul"(%51, %53, %54) <{cast = #linalg.type_fn<cast_signed>, indexing_maps = [affine_map<(d0, d1, d2) -> (d0, d2)>, affine_map<(d0, d1, d2) -> (d2, d1)>, affine_map<(d0, d1, d2) -> (d0, d1)>], operandSegmentSizes = array<i32: 2, 1>}> ({
^bb0(%arg398: f32, %arg399: f32, %arg400: f32):
  %58 = "arith.mulf"(%arg398, %arg399) <{fastmath = #arith.fastmath<none>}> : (f32, f32) -> f32
  %59 = "arith.addf"(%arg400, %58) <{fastmath = #arith.fastmath<none>}> : (f32, f32) -> f32
  "linalg.yield"(%59) : (f32) -> ()
}) : (tensor<1x1536xf32>, tensor<1536x1536xf32>, tensor<1x1536xf32>) -> tensor<1x1536xf32>
%56 = "tosa.reshape"(%arg6) <{new_shape = array<i64: 1, 1536>}> : (tensor<1536xf32>) -> tensor<1x1536xf32>
%57 = "tosa.add"(%56, %55) : (tensor<1x1536xf32>, tensor<1x1536xf32>) -> tensor<1x1536xf32>

====================Graph Node====================
Node: view_6
Type: OpType.ReshapeType
Arguments: ['addmm', [1, 1, 1536]]
Parents: ['addmm']
Children: ['view_7']
--------------------MLIR OPS--------------------
%58 = "tosa.reshape"(%57) <{new_shape = array<i64: 1, 1, 1536>}> : (tensor<1x1536xf32>) -> tensor<1x1x1536xf32>

====================Graph Node====================
Node: view_7
Type: OpType.ReshapeType
Arguments: ['view_6', [1, 1, -1, 128]]
Parents: ['view_6']
Children: ['permute_2']
--------------------MLIR OPS--------------------
%59 = "tosa.reshape"(%58) <{new_shape = array<i64: 1, 1, 12, 128>}> : (tensor<1x1x1536xf32>) -> tensor<1x1x12x128xf32>

====================Graph Node====================
Node: permute_2
Type: OpType.ReshapeType
Arguments: ['view_7', [0, 2, 1, 3]]
Parents: ['view_7']
Children: ['mul_4', 'slice_4', 'slice_5']
--------------------MLIR OPS--------------------
%60 = "tosa.const"() <{value = dense<[0, 2, 1, 3]> : tensor<4xi32>}> : () -> tensor<4xi32>
%61 = "tosa.transpose"(%59, %60) : (tensor<1x1x12x128xf32>, tensor<4xi32>) -> tensor<1x12x1x128xf32>

====================Graph Node====================
Node: view_8
Type: OpType.ReshapeType
Arguments: ['mul_3', [1, 1536]]
Parents: ['mul_3']
Children: ['addmm_1']
--------------------MLIR OPS--------------------
%62 = "tosa.reshape"(%50) <{new_shape = array<i64: 1, 1536>}> : (tensor<1x1x1536xf32>) -> tensor<1x1536xf32>

====================Graph Node====================
Node: permute_3
Type: OpType.ReshapeType
Arguments: ['arg63_1', [1, 0]]
Parents: ['arg63_1']
Children: ['addmm_1']
--------------------MLIR OPS--------------------
%63 = "tosa.const"() <{value = dense<[1, 0]> : tensor<2xi32>}> : () -> tensor<2xi32>
%64 = "tosa.transpose"(%arg7, %63) : (tensor<256x1536xf32>, tensor<2xi32>) -> tensor<1536x256xf32>

====================Graph Node====================
Node: addmm_1
Type: OpType.ReduceType
Arguments: ['arg64_1', 'view_8', 'permute_3']
Parents: ['arg64_1', 'view_8', 'permute_3']
Children: ['view_9']
--------------------MLIR OPS--------------------
%65 = "arith.constant"() <{value = dense<0.000000e+00> : tensor<1x256xf32>}> : () -> tensor<1x256xf32>
%66 = "linalg.matmul"(%62, %64, %65) <{cast = #linalg.type_fn<cast_signed>, indexing_maps = [affine_map<(d0, d1, d2) -> (d0, d2)>, affine_map<(d0, d1, d2) -> (d2, d1)>, affine_map<(d0, d1, d2) -> (d0, d1)>], operandSegmentSizes = array<i32: 2, 1>}> ({
^bb0(%arg398: f32, %arg399: f32, %arg400: f32):
  %69 = "arith.mulf"(%arg398, %arg399) <{fastmath = #arith.fastmath<none>}> : (f32, f32) -> f32
  %70 = "arith.addf"(%arg400, %69) <{fastmath = #arith.fastmath<none>}> : (f32, f32) -> f32
  "linalg.yield"(%70) : (f32) -> ()
}) : (tensor<1x1536xf32>, tensor<1536x256xf32>, tensor<1x256xf32>) -> tensor<1x256xf32>
%67 = "tosa.reshape"(%arg8) <{new_shape = array<i64: 1, 256>}> : (tensor<256xf32>) -> tensor<1x256xf32>
%68 = "tosa.add"(%67, %66) : (tensor<1x256xf32>, tensor<1x256xf32>) -> tensor<1x256xf32>

====================Graph Node====================
Node: view_9
Type: OpType.ReshapeType
Arguments: ['addmm_1', [1, 1, 256]]
Parents: ['addmm_1']
Children: ['view_10']
--------------------MLIR OPS--------------------
%69 = "tosa.reshape"(%68) <{new_shape = array<i64: 1, 1, 256>}> : (tensor<1x256xf32>) -> tensor<1x1x256xf32>

====================Graph Node====================
Node: view_10
Type: OpType.ReshapeType
Arguments: ['view_9', [1, 1, -1, 128]]
Parents: ['view_9']
Children: ['permute_4']
--------------------MLIR OPS--------------------
%70 = "tosa.reshape"(%69) <{new_shape = array<i64: 1, 1, 2, 128>}> : (tensor<1x1x256xf32>) -> tensor<1x1x2x128xf32>

====================Graph Node====================
Node: permute_4
Type: OpType.ReshapeType
Arguments: ['view_10', [0, 2, 1, 3]]
Parents: ['view_10']
Children: ['mul_6', 'slice_6', 'slice_7']
--------------------MLIR OPS--------------------
%71 = "tosa.const"() <{value = dense<[0, 2, 1, 3]> : tensor<4xi32>}> : () -> tensor<4xi32>
%72 = "tosa.transpose"(%70, %71) : (tensor<1x1x2x128xf32>, tensor<4xi32>) -> tensor<1x2x1x128xf32>

====================Graph Node====================
Node: view_11
Type: OpType.ReshapeType
Arguments: ['mul_3', [1, 1536]]
Parents: ['mul_3']
Children: ['addmm_2']
--------------------MLIR OPS--------------------
%73 = "tosa.reshape"(%50) <{new_shape = array<i64: 1, 1536>}> : (tensor<1x1x1536xf32>) -> tensor<1x1536xf32>

====================Graph Node====================
Node: permute_5
Type: OpType.ReshapeType
Arguments: ['arg65_1', [1, 0]]
Parents: ['arg65_1']
Children: ['addmm_2']
--------------------MLIR OPS--------------------
%74 = "tosa.const"() <{value = dense<[1, 0]> : tensor<2xi32>}> : () -> tensor<2xi32>
%75 = "tosa.transpose"(%arg9, %74) : (tensor<256x1536xf32>, tensor<2xi32>) -> tensor<1536x256xf32>

====================Graph Node====================
Node: addmm_2
Type: OpType.ReduceType
Arguments: ['arg66_1', 'view_11', 'permute_5']
Parents: ['arg66_1', 'view_11', 'permute_5']
Children: ['view_12']
--------------------MLIR OPS--------------------
%76 = "arith.constant"() <{value = dense<0.000000e+00> : tensor<1x256xf32>}> : () -> tensor<1x256xf32>
%77 = "linalg.matmul"(%73, %75, %76) <{cast = #linalg.type_fn<cast_signed>, indexing_maps = [affine_map<(d0, d1, d2) -> (d0, d2)>, affine_map<(d0, d1, d2) -> (d2, d1)>, affine_map<(d0, d1, d2) -> (d0, d1)>], operandSegmentSizes = array<i32: 2, 1>}> ({
^bb0(%arg398: f32, %arg399: f32, %arg400: f32):
  %80 = "arith.mulf"(%arg398, %arg399) <{fastmath = #arith.fastmath<none>}> : (f32, f32) -> f32
  %81 = "arith.addf"(%arg400, %80) <{fastmath = #arith.fastmath<none>}> : (f32, f32) -> f32
  "linalg.yield"(%81) : (f32) -> ()
}) : (tensor<1x1536xf32>, tensor<1536x256xf32>, tensor<1x256xf32>) -> tensor<1x256xf32>
%78 = "tosa.reshape"(%arg10) <{new_shape = array<i64: 1, 256>}> : (tensor<256xf32>) -> tensor<1x256xf32>
%79 = "tosa.add"(%78, %77) : (tensor<1x256xf32>, tensor<1x256xf32>) -> tensor<1x256xf32>

====================Graph Node====================
Node: view_12
Type: OpType.ReshapeType
Arguments: ['addmm_2', [1, 1, 256]]
Parents: ['addmm_2']
Children: ['view_13']
--------------------MLIR OPS--------------------
%80 = "tosa.reshape"(%79) <{new_shape = array<i64: 1, 1, 256>}> : (tensor<1x256xf32>) -> tensor<1x1x256xf32>

====================Graph Node====================
Node: view_13
Type: OpType.ReshapeType
Arguments: ['view_12', [1, 1, -1, 128]]
Parents: ['view_12']
Children: ['permute_6']
--------------------MLIR OPS--------------------
%81 = "tosa.reshape"(%80) <{new_shape = array<i64: 1, 1, 2, 128>}> : (tensor<1x1x256xf32>) -> tensor<1x1x2x128xf32>

====================Graph Node====================
Node: permute_6
Type: OpType.ReshapeType
Arguments: ['view_13', [0, 2, 1, 3]]
Parents: ['view_13']
Children: ['index_put_1']
--------------------MLIR OPS--------------------
%82 = "tosa.const"() <{value = dense<[0, 2, 1, 3]> : tensor<4xi32>}> : () -> tensor<4xi32>
%83 = "tosa.transpose"(%81, %82) : (tensor<1x1x2x128xf32>, tensor<4xi32>) -> tensor<1x2x1x128xf32>

====================Graph Node====================
Node: unsqueeze_5
Type: OpType.ReshapeType
Arguments: ['mul', 1]
Parents: ['mul']
Children: ['mul_4', 'mul_6']
--------------------MLIR OPS--------------------
%84 = "tosa.reshape"(%32) <{new_shape = array<i64: 1, 1, 1, 128>}> : (tensor<1x1x128xf32>) -> tensor<1x1x1x128xf32>

====================Graph Node====================
Node: unsqueeze_6
Type: OpType.ReshapeType
Arguments: ['mul_1', 1]
Parents: ['mul_1']
Children: ['mul_5', 'mul_7']
--------------------MLIR OPS--------------------
%85 = "tosa.reshape"(%36) <{new_shape = array<i64: 1, 1, 1, 128>}> : (tensor<1x1x128xf32>) -> tensor<1x1x1x128xf32>

====================Graph Node====================
Node: mul_4
Type: OpType.BroadcastType
Arguments: ['permute_2', 'unsqueeze_5']
Parents: ['permute_2', 'unsqueeze_5']
Children: ['add_2']
--------------------MLIR OPS--------------------
%86 = "tosa.mul"(%61, %84) : (tensor<1x12x1x128xf32>, tensor<1x1x1x128xf32>) -> tensor<1x12x1x128xf32>

====================Graph Node====================
Node: slice_4
Type: OpType.ReshapeType
Arguments: ['permute_2', 3, 0, 64]
Parents: ['permute_2']
Children: ['cat']
--------------------MLIR OPS--------------------
%87 = "tensor.extract_slice"(%61) <{operandSegmentSizes = array<i32: 1, 0, 0, 0>, static_offsets = array<i64: 0, 0, 0, 0>, static_sizes = array<i64: 1, 12, 1, 64>, static_strides = array<i64: 1, 1, 1, 1>}> : (tensor<1x12x1x128xf32>) -> tensor<1x12x1x64xf32>

====================Graph Node====================
Node: slice_5
Type: OpType.ReshapeType
Arguments: ['permute_2', 3, 64, 9223372036854775807]
Parents: ['permute_2']
Children: ['neg']
--------------------MLIR OPS--------------------
%88 = "tensor.extract_slice"(%61) <{operandSegmentSizes = array<i32: 1, 0, 0, 0>, static_offsets = array<i64: 0, 0, 0, 64>, static_sizes = array<i64: 1, 12, 1, 64>, static_strides = array<i64: 1, 1, 1, 1>}> : (tensor<1x12x1x128xf32>) -> tensor<1x12x1x64xf32>

====================Graph Node====================
Node: neg
Type: OpType.ElementwiseType
Arguments: ['slice_5']
Parents: ['slice_5']
Children: ['cat']
--------------------MLIR OPS--------------------
%89 = "tensor.empty"() : () -> tensor<1x12x1x64xf32>
%90 = "linalg.negf"(%88, %89) <{operandSegmentSizes = array<i32: 1, 1>}> ({
^bb0(%arg398: f32, %arg399: f32):
  %91 = "arith.negf"(%arg398) <{fastmath = #arith.fastmath<none>}> : (f32) -> f32
  "linalg.yield"(%91) : (f32) -> ()
}) : (tensor<1x12x1x64xf32>, tensor<1x12x1x64xf32>) -> tensor<1x12x1x64xf32>

====================Graph Node====================
Node: cat
Type: OpType.ConcatType
Arguments: [[neg, slice_4], -1]
Parents: []
Children: ['mul_5']
--------------------MLIR OPS--------------------
%91 = "tensor.empty"() : () -> tensor<1x12x1x128xf32>
%92 = "tensor.insert_slice"(%90, %91) <{operandSegmentSizes = array<i32: 1, 1, 0, 0, 0>, static_offsets = array<i64: 0, 0, 0, 0>, static_sizes = array<i64: 1, 12, 1, 64>, static_strides = array<i64: 1, 1, 1, 1>}> : (tensor<1x12x1x64xf32>, tensor<1x12x1x128xf32>) -> tensor<1x12x1x128xf32>
%93 = "tensor.insert_slice"(%87, %92) <{operandSegmentSizes = array<i32: 1, 1, 0, 0, 0>, static_offsets = array<i64: 0, 0, 0, 64>, static_sizes = array<i64: 1, 12, 1, 64>, static_strides = array<i64: 1, 1, 1, 1>}> : (tensor<1x12x1x64xf32>, tensor<1x12x1x128xf32>) -> tensor<1x12x1x128xf32>

====================Graph Node====================
Node: mul_5
Type: OpType.BroadcastType
Arguments: ['cat', 'unsqueeze_6']
Parents: ['cat', 'unsqueeze_6']
Children: ['add_2']
--------------------MLIR OPS--------------------
%94 = "tosa.mul"(%93, %85) : (tensor<1x12x1x128xf32>, tensor<1x1x1x128xf32>) -> tensor<1x12x1x128xf32>

====================Graph Node====================
Node: add_2
Type: OpType.BroadcastType
Arguments: ['mul_4', 'mul_5']
Parents: ['mul_4', 'mul_5']
Children: ['_scaled_dot_product_flash_attention_for_cpu']
--------------------MLIR OPS--------------------
%95 = "tosa.add"(%86, %94) : (tensor<1x12x1x128xf32>, tensor<1x12x1x128xf32>) -> tensor<1x12x1x128xf32>

====================Graph Node====================
Node: mul_6
Type: OpType.BroadcastType
Arguments: ['permute_4', 'unsqueeze_5']
Parents: ['permute_4', 'unsqueeze_5']
Children: ['add_3']
--------------------MLIR OPS--------------------
%96 = "tosa.mul"(%72, %84) : (tensor<1x2x1x128xf32>, tensor<1x1x1x128xf32>) -> tensor<1x2x1x128xf32>

====================Graph Node====================
Node: slice_6
Type: OpType.ReshapeType
Arguments: ['permute_4', 3, 0, 64]
Parents: ['permute_4']
Children: ['cat_1']
--------------------MLIR OPS--------------------
%97 = "tensor.extract_slice"(%72) <{operandSegmentSizes = array<i32: 1, 0, 0, 0>, static_offsets = array<i64: 0, 0, 0, 0>, static_sizes = array<i64: 1, 2, 1, 64>, static_strides = array<i64: 1, 1, 1, 1>}> : (tensor<1x2x1x128xf32>) -> tensor<1x2x1x64xf32>

====================Graph Node====================
Node: slice_7
Type: OpType.ReshapeType
Arguments: ['permute_4', 3, 64, 9223372036854775807]
Parents: ['permute_4']
Children: ['neg_1']
--------------------MLIR OPS--------------------
%98 = "tensor.extract_slice"(%72) <{operandSegmentSizes = array<i32: 1, 0, 0, 0>, static_offsets = array<i64: 0, 0, 0, 64>, static_sizes = array<i64: 1, 2, 1, 64>, static_strides = array<i64: 1, 1, 1, 1>}> : (tensor<1x2x1x128xf32>) -> tensor<1x2x1x64xf32>

====================Graph Node====================
Node: neg_1
Type: OpType.ElementwiseType
Arguments: ['slice_7']
Parents: ['slice_7']
Children: ['cat_1']
--------------------MLIR OPS--------------------
%99 = "tensor.empty"() : () -> tensor<1x2x1x64xf32>
%100 = "linalg.negf"(%98, %99) <{operandSegmentSizes = array<i32: 1, 1>}> ({
^bb0(%arg398: f32, %arg399: f32):
  %101 = "arith.negf"(%arg398) <{fastmath = #arith.fastmath<none>}> : (f32) -> f32
  "linalg.yield"(%101) : (f32) -> ()
}) : (tensor<1x2x1x64xf32>, tensor<1x2x1x64xf32>) -> tensor<1x2x1x64xf32>

====================Graph Node====================
Node: cat_1
Type: OpType.ConcatType
Arguments: [[neg_1, slice_6], -1]
Parents: []
Children: ['mul_7']
--------------------MLIR OPS--------------------
%101 = "tensor.empty"() : () -> tensor<1x2x1x128xf32>
%102 = "tensor.insert_slice"(%100, %101) <{operandSegmentSizes = array<i32: 1, 1, 0, 0, 0>, static_offsets = array<i64: 0, 0, 0, 0>, static_sizes = array<i64: 1, 2, 1, 64>, static_strides = array<i64: 1, 1, 1, 1>}> : (tensor<1x2x1x64xf32>, tensor<1x2x1x128xf32>) -> tensor<1x2x1x128xf32>
%103 = "tensor.insert_slice"(%97, %102) <{operandSegmentSizes = array<i32: 1, 1, 0, 0, 0>, static_offsets = array<i64: 0, 0, 0, 64>, static_sizes = array<i64: 1, 2, 1, 64>, static_strides = array<i64: 1, 1, 1, 1>}> : (tensor<1x2x1x64xf32>, tensor<1x2x1x128xf32>) -> tensor<1x2x1x128xf32>

====================Graph Node====================
Node: mul_7
Type: OpType.BroadcastType
Arguments: ['cat_1', 'unsqueeze_6']
Parents: ['cat_1', 'unsqueeze_6']
Children: ['add_3']
--------------------MLIR OPS--------------------
%104 = "tosa.mul"(%103, %85) : (tensor<1x2x1x128xf32>, tensor<1x1x1x128xf32>) -> tensor<1x2x1x128xf32>

====================Graph Node====================
Node: add_3
Type: OpType.BroadcastType
Arguments: ['mul_6', 'mul_7']
Parents: ['mul_6', 'mul_7']
Children: ['index_put']
--------------------MLIR OPS--------------------
%105 = "tosa.add"(%96, %104) : (tensor<1x2x1x128xf32>, tensor<1x2x1x128xf32>) -> tensor<1x2x1x128xf32>

====================Graph Node====================
Node: index_put
Type: OpType.ElementwiseType
Arguments: ['arg0_1', [None, None, arg58_1], 'add_3']
Parents: ['arg0_1', 'add_3']
Children: ['slice_12', 'output']
--------------------MLIR OPS--------------------
%106 = "bufferization.to_memref"(%arg11) : (tensor<1x2x1024x128xf32>) -> memref<1x2x1024x128xf32>
%107 = "bufferization.to_memref"(%arg2) : (tensor<1xi64>) -> memref<1xi64>
%108 = "bufferization.to_memref"(%105) : (tensor<1x2x1x128xf32>) -> memref<1x2x1x128xf32>
%109 = "arith.constant"() <{value = 0 : index}> : () -> index
%110 = "arith.constant"() <{value = 1 : index}> : () -> index
%111 = "arith.constant"() <{value = 1 : index}> : () -> index
%112 = "arith.constant"() <{value = 2 : index}> : () -> index
%113 = "arith.constant"() <{value = 1 : index}> : () -> index
%114 = "arith.constant"() <{value = 128 : index}> : () -> index
"scf.for"(%109, %111, %110) ({
^bb0(%arg398: index):
  "scf.for"(%109, %112, %110) ({
  ^bb0(%arg399: index):
    "scf.for"(%109, %113, %110) ({
    ^bb0(%arg400: index):
      %116 = "memref.load"(%107, %arg400) : (memref<1xi64>, index) -> i64
      %117 = "arith.index_cast"(%116) : (i64) -> index
      "scf.for"(%109, %114, %110) ({
      ^bb0(%arg401: index):
        %118 = "memref.load"(%108, %arg398, %arg399, %arg400, %arg401) : (memref<1x2x1x128xf32>, index, index, index, index) -> f32
        "memref.store"(%118, %106, %arg398, %arg399, %117, %arg401) : (f32, memref<1x2x1024x128xf32>, index, index, index, index) -> ()
        "scf.yield"() : () -> ()
      }) : (index, index, index) -> ()
      "scf.yield"() : () -> ()
    }) : (index, index, index) -> ()
    "scf.yield"() : () -> ()
  }) : (index, index, index) -> ()
  "scf.yield"() : () -> ()
}) : (index, index, index) -> ()
%115 = "bufferization.to_tensor"(%106) <{restrict}> : (memref<1x2x1024x128xf32>) -> tensor<1x2x1024x128xf32>

====================Graph Node====================
Node: index_put_1
Type: OpType.ElementwiseType
Arguments: ['arg1_1', [None, None, arg58_1], 'permute_6']
Parents: ['arg1_1', 'permute_6']
Children: ['slice_20', 'output']
--------------------MLIR OPS--------------------
%116 = "bufferization.to_memref"(%arg12) : (tensor<1x2x1024x128xf32>) -> memref<1x2x1024x128xf32>
%117 = "bufferization.to_memref"(%arg2) : (tensor<1xi64>) -> memref<1xi64>
%118 = "bufferization.to_memref"(%83) : (tensor<1x2x1x128xf32>) -> memref<1x2x1x128xf32>
%119 = "arith.constant"() <{value = 0 : index}> : () -> index
%120 = "arith.constant"() <{value = 1 : index}> : () -> index
%121 = "arith.constant"() <{value = 1 : index}> : () -> index
%122 = "arith.constant"() <{value = 2 : index}> : () -> index
%123 = "arith.constant"() <{value = 1 : index}> : () -> index
%124 = "arith.constant"() <{value = 128 : index}> : () -> index
"scf.for"(%119, %121, %120) ({
^bb0(%arg398: index):
  "scf.for"(%119, %122, %120) ({
  ^bb0(%arg399: index):
    "scf.for"(%119, %123, %120) ({
    ^bb0(%arg400: index):
      %126 = "memref.load"(%117, %arg400) : (memref<1xi64>, index) -> i64
      %127 = "arith.index_cast"(%126) : (i64) -> index
      "scf.for"(%119, %124, %120) ({
      ^bb0(%arg401: index):
        %128 = "memref.load"(%118, %arg398, %arg399, %arg400, %arg401) : (memref<1x2x1x128xf32>, index, index, index, index) -> f32
        "memref.store"(%128, %116, %arg398, %arg399, %127, %arg401) : (f32, memref<1x2x1024x128xf32>, index, index, index, index) -> ()
        "scf.yield"() : () -> ()
      }) : (index, index, index) -> ()
      "scf.yield"() : () -> ()
    }) : (index, index, index) -> ()
    "scf.yield"() : () -> ()
  }) : (index, index, index) -> ()
  "scf.yield"() : () -> ()
}) : (index, index, index) -> ()
%125 = "bufferization.to_tensor"(%116) <{restrict}> : (memref<1x2x1024x128xf32>) -> tensor<1x2x1024x128xf32>

====================Graph Node====================
Node: slice_12
Type: OpType.ReshapeType
Arguments: ['index_put', 0, 0, 9223372036854775807]
Parents: ['index_put']
Children: ['slice_13']
--------------------MLIR OPS--------------------

====================Graph Node====================
Node: slice_13
Type: OpType.ReshapeType
Arguments: ['slice_12', 1, 0, 9223372036854775807]
Parents: ['slice_12']
Children: ['unsqueeze_8']
--------------------MLIR OPS--------------------

====================Graph Node====================
Node: unsqueeze_8
Type: OpType.ReshapeType
Arguments: ['slice_13', 2]
Parents: ['slice_13']
Children: ['slice_14']
--------------------MLIR OPS--------------------
%126 = "tosa.reshape"(%115) <{new_shape = array<i64: 1, 2, 1, 1024, 128>}> : (tensor<1x2x1024x128xf32>) -> tensor<1x2x1x1024x128xf32>

====================Graph Node====================
Node: slice_14
Type: OpType.ReshapeType
Arguments: ['unsqueeze_8', 3, 0, 9223372036854775807]
Parents: ['unsqueeze_8']
Children: ['slice_15']
--------------------MLIR OPS--------------------

====================Graph Node====================
Node: slice_15
Type: OpType.ReshapeType
Arguments: ['slice_14', 4, 0, 9223372036854775807]
Parents: ['slice_14']
Children: ['expand_7']
--------------------MLIR OPS--------------------

====================Graph Node====================
Node: expand_7
Type: OpType.ReshapeType
Arguments: ['slice_15', [1, 2, 6, 1024, 128]]
Parents: ['slice_15']
Children: ['clone_2']
--------------------MLIR OPS--------------------
%127 = "tosa.const"() <{value = dense<0.000000e+00> : tensor<1x2x6x1024x128xf32>}> : () -> tensor<1x2x6x1024x128xf32>
%128 = "tosa.add"(%126, %127) : (tensor<1x2x1x1024x128xf32>, tensor<1x2x6x1024x128xf32>) -> tensor<1x2x6x1024x128xf32>

====================Graph Node====================
Node: clone_2
Type: OpType.ReduceType
Arguments: ['expand_7']
Parents: ['expand_7']
Children: ['view_14']
--------------------MLIR OPS--------------------

====================Graph Node====================
Node: view_14
Type: OpType.ReshapeType
Arguments: ['clone_2', [1, 12, 1024, 128]]
Parents: ['clone_2']
Children: ['_scaled_dot_product_flash_attention_for_cpu']
--------------------MLIR OPS--------------------
%129 = "tosa.reshape"(%128) <{new_shape = array<i64: 1, 12, 1024, 128>}> : (tensor<1x2x6x1024x128xf32>) -> tensor<1x12x1024x128xf32>

====================Graph Node====================
Node: slice_20
Type: OpType.ReshapeType
Arguments: ['index_put_1', 0, 0, 9223372036854775807]
Parents: ['index_put_1']
Children: ['slice_21']
--------------------MLIR OPS--------------------

====================Graph Node====================
Node: slice_21
Type: OpType.ReshapeType
Arguments: ['slice_20', 1, 0, 9223372036854775807]
Parents: ['slice_20']
Children: ['unsqueeze_10']
--------------------MLIR OPS--------------------

====================Graph Node====================
Node: unsqueeze_10
Type: OpType.ReshapeType
Arguments: ['slice_21', 2]
Parents: ['slice_21']
Children: ['slice_22']
--------------------MLIR OPS--------------------
%130 = "tosa.reshape"(%125) <{new_shape = array<i64: 1, 2, 1, 1024, 128>}> : (tensor<1x2x1024x128xf32>) -> tensor<1x2x1x1024x128xf32>

====================Graph Node====================
Node: slice_22
Type: OpType.ReshapeType
Arguments: ['unsqueeze_10', 3, 0, 9223372036854775807]
Parents: ['unsqueeze_10']
Children: ['slice_23']
--------------------MLIR OPS--------------------

====================Graph Node====================
Node: slice_23
Type: OpType.ReshapeType
Arguments: ['slice_22', 4, 0, 9223372036854775807]
Parents: ['slice_22']
Children: ['expand_9']
--------------------MLIR OPS--------------------

====================Graph Node====================
Node: expand_9
Type: OpType.ReshapeType
Arguments: ['slice_23', [1, 2, 6, 1024, 128]]
Parents: ['slice_23']
Children: ['clone_3']
--------------------MLIR OPS--------------------
%131 = "tosa.const"() <{value = dense<0.000000e+00> : tensor<1x2x6x1024x128xf32>}> : () -> tensor<1x2x6x1024x128xf32>
%132 = "tosa.add"(%130, %131) : (tensor<1x2x1x1024x128xf32>, tensor<1x2x6x1024x128xf32>) -> tensor<1x2x6x1024x128xf32>

====================Graph Node====================
Node: clone_3
Type: OpType.ReduceType
Arguments: ['expand_9']
Parents: ['expand_9']
Children: ['view_15']
--------------------MLIR OPS--------------------

====================Graph Node====================
Node: view_15
Type: OpType.ReshapeType
Arguments: ['clone_3', [1, 12, 1024, 128]]
Parents: ['clone_3']
Children: ['_scaled_dot_product_flash_attention_for_cpu']
--------------------MLIR OPS--------------------
%133 = "tosa.reshape"(%132) <{new_shape = array<i64: 1, 12, 1024, 128>}> : (tensor<1x2x6x1024x128xf32>) -> tensor<1x12x1024x128xf32>

====================Graph Node====================
Node: slice_24
Type: OpType.ReshapeType
Arguments: ['expand_1', 0, 0, 9223372036854775807]
Parents: ['expand_1']
Children: ['slice_25']
--------------------MLIR OPS--------------------
%134 = "tosa.reshape"(%17) <{new_shape = array<i64: 1, 1, 1, 1024>}> : (tensor<1x1024xi1>) -> tensor<1x1x1x1024xi1>

====================Graph Node====================
Node: slice_25
Type: OpType.ReshapeType
Arguments: ['slice_24', 1, 0, 9223372036854775807]
Parents: ['slice_24']
Children: ['slice_26']
--------------------MLIR OPS--------------------

====================Graph Node====================
Node: slice_26
Type: OpType.ReshapeType
Arguments: ['slice_25', 2, 0, 9223372036854775807]
Parents: ['slice_25']
Children: ['where']
--------------------MLIR OPS--------------------

====================Graph Node====================
Node: scalar_tensor
Type: OpType.PlaceholderType
Arguments: [-inf]
Parents: []
Children: ['where']
--------------------MLIR OPS--------------------
%135 = "arith.constant"() <{value = 0xFF800000 : f32}> : () -> f32

====================Graph Node====================
Node: scalar_tensor_1
Type: OpType.PlaceholderType
Arguments: [0.0]
Parents: []
Children: ['where']
--------------------MLIR OPS--------------------
%136 = "arith.constant"() <{value = 0.000000e+00 : f32}> : () -> f32

====================Graph Node====================
Node: where
Type: OpType.ElementwiseType
Arguments: ['slice_26', 'scalar_tensor_1', 'scalar_tensor']
Parents: ['slice_26', 'scalar_tensor_1', 'scalar_tensor']
Children: ['_scaled_dot_product_flash_attention_for_cpu']
--------------------MLIR OPS--------------------
%137 = "tensor.empty"() : () -> tensor<1x1x1x1024xf32>
%138 = "tensor.splat"(%136) : (f32) -> tensor<1x1x1x1024xf32>
%139 = "tensor.splat"(%135) : (f32) -> tensor<1x1x1x1024xf32>
%140 = "linalg.generic"(%134, %138, %139, %137) <{indexing_maps = [affine_map<(d0, d1, d2, d3) -> (d0, d1, d2, d3)>, affine_map<(d0, d1, d2, d3) -> (d0, d1, d2, d3)>, affine_map<(d0, d1, d2, d3) -> (d0, d1, d2, d3)>, affine_map<(d0, d1, d2, d3) -> (d0, d1, d2, d3)>], iterator_types = [#linalg.iterator_type<parallel>, #linalg.iterator_type<parallel>, #linalg.iterator_type<parallel>, #linalg.iterator_type<parallel>], operandSegmentSizes = array<i32: 3, 1>}> ({
^bb0(%arg398: i1, %arg399: f32, %arg400: f32, %arg401: f32):
  %141 = "arith.select"(%arg398, %arg399, %arg400) : (i1, f32, f32) -> f32
  "linalg.yield"(%141) : (f32) -> ()
}) : (tensor<1x1x1x1024xi1>, tensor<1x1x1x1024xf32>, tensor<1x1x1x1024xf32>, tensor<1x1x1x1024xf32>) -> tensor<1x1x1x1024xf32>

====================Graph Node====================
Node: _scaled_dot_product_flash_attention_for_cpu
Type: OpType.ElementwiseType
Arguments: ['add_2', 'view_14', 'view_15']
Parents: ['add_2', 'view_14', 'view_15']
Children: ['getitem']
--------------------MLIR OPS--------------------
%141 = "arith.constant"() <{value = 0.000000e+00 : f32}> : () -> f32
%142 = "tensor.splat"(%141) : (f32) -> tensor<1x1024xf32>
%143 = "tosa.reshape"(%140) <{new_shape = array<i64: 1, 1024>}> : (tensor<1x1x1x1024xf32>) -> tensor<1x1024xf32>
%144 = "tosa.add"(%142, %143) : (tensor<1x1024xf32>, tensor<1x1024xf32>) -> tensor<1x1024xf32>
%145 = "tosa.const"() <{value = dense<[0, 1, 3, 2]> : tensor<4xi32>}> : () -> tensor<4xi32>
%146 = "tosa.transpose"(%129, %145) : (tensor<1x12x1024x128xf32>, tensor<4xi32>) -> tensor<1x12x128x1024xf32>
%147 = "tosa.reshape"(%95) <{new_shape = array<i64: 12, 1, 128>}> : (tensor<1x12x1x128xf32>) -> tensor<12x1x128xf32>
%148 = "tosa.reshape"(%146) <{new_shape = array<i64: 12, 128, 1024>}> : (tensor<1x12x128x1024xf32>) -> tensor<12x128x1024xf32>
%149 = "tosa.matmul"(%147, %148) : (tensor<12x1x128xf32>, tensor<12x128x1024xf32>) -> tensor<12x1x1024xf32>
%150 = "arith.constant"() <{value = 0.0883883461 : f32}> : () -> f32
%151 = "tensor.splat"(%150) : (f32) -> tensor<12x1x1024xf32>
%152 = "tosa.mul"(%149, %151) : (tensor<12x1x1024xf32>, tensor<12x1x1024xf32>) -> tensor<12x1x1024xf32>
%153 = "tosa.reshape"(%144) <{new_shape = array<i64: 1, 1, 1024>}> : (tensor<1x1024xf32>) -> tensor<1x1x1024xf32>
%154 = "tosa.add"(%152, %153) : (tensor<12x1x1024xf32>, tensor<1x1x1024xf32>) -> tensor<12x1x1024xf32>
%155 = "tosa.reduce_max"(%154) <{axis = 2 : i32, nan_mode = "PROPAGATE"}> : (tensor<12x1x1024xf32>) -> tensor<12x1x1xf32>
%156 = "tosa.sub"(%154, %155) : (tensor<12x1x1024xf32>, tensor<12x1x1xf32>) -> tensor<12x1x1024xf32>
%157 = "math.exp"(%156) <{fastmath = #arith.fastmath<none>}> : (tensor<12x1x1024xf32>) -> tensor<12x1x1024xf32>
%158 = "tosa.reduce_sum"(%157) <{axis = 2 : i32}> : (tensor<12x1x1024xf32>) -> tensor<12x1x1xf32>
%159 = "tosa.log"(%158) : (tensor<12x1x1xf32>) -> tensor<12x1x1xf32>
%160 = "tosa.add"(%155, %159) : (tensor<12x1x1xf32>, tensor<12x1x1xf32>) -> tensor<12x1x1xf32>
%161 = "tosa.sub"(%154, %160) : (tensor<12x1x1024xf32>, tensor<12x1x1xf32>) -> tensor<12x1x1024xf32>
%162 = "math.exp"(%161) <{fastmath = #arith.fastmath<none>}> : (tensor<12x1x1024xf32>) -> tensor<12x1x1024xf32>
%163 = "tosa.reshape"(%160) <{new_shape = array<i64: 1, 12, 1>}> : (tensor<12x1x1xf32>) -> tensor<1x12x1xf32>
%164 = "tosa.reshape"(%133) <{new_shape = array<i64: 12, 1024, 128>}> : (tensor<1x12x1024x128xf32>) -> tensor<12x1024x128xf32>
%165 = "tosa.matmul"(%162, %164) : (tensor<12x1x1024xf32>, tensor<12x1024x128xf32>) -> tensor<12x1x128xf32>
%166 = "tosa.reshape"(%165) <{new_shape = array<i64: 1, 12, 1, 128>}> : (tensor<12x1x128xf32>) -> tensor<1x12x1x128xf32>

====================Graph Node====================
Node: getitem
Type: OpType.GetItemType
Arguments: ['_scaled_dot_product_flash_attention_for_cpu', 0]
Parents: ['_scaled_dot_product_flash_attention_for_cpu']
Children: ['permute_7']
--------------------MLIR OPS--------------------

====================Graph Node====================
Node: permute_7
Type: OpType.ReshapeType
Arguments: ['getitem', [0, 2, 1, 3]]
Parents: ['getitem']
Children: ['view_16']
--------------------MLIR OPS--------------------
%167 = "tosa.const"() <{value = dense<[0, 2, 1, 3]> : tensor<4xi32>}> : () -> tensor<4xi32>
%168 = "tosa.transpose"(%166, %167) : (tensor<1x12x1x128xf32>, tensor<4xi32>) -> tensor<1x1x12x128xf32>

====================Graph Node====================
Node: view_16
Type: OpType.ReshapeType
Arguments: ['permute_7', [1, 1, -1]]
Parents: ['permute_7']
Children: ['view_17']
--------------------MLIR OPS--------------------
%169 = "tosa.reshape"(%168) <{new_shape = array<i64: 1, 1, 1536>}> : (tensor<1x1x12x128xf32>) -> tensor<1x1x1536xf32>

====================Graph Node====================
Node: permute_8
Type: OpType.ReshapeType
Arguments: ['arg67_1', [1, 0]]
Parents: ['arg67_1']
Children: ['mm']
--------------------MLIR OPS--------------------
%170 = "tosa.const"() <{value = dense<[1, 0]> : tensor<2xi32>}> : () -> tensor<2xi32>
%171 = "tosa.transpose"(%arg13, %170) : (tensor<1536x1536xf32>, tensor<2xi32>) -> tensor<1536x1536xf32>

====================Graph Node====================
Node: view_17
Type: OpType.ReshapeType
Arguments: ['view_16', [1, 1536]]
Parents: ['view_16']
Children: ['mm']
--------------------MLIR OPS--------------------
%172 = "tosa.reshape"(%169) <{new_shape = array<i64: 1, 1536>}> : (tensor<1x1x1536xf32>) -> tensor<1x1536xf32>

====================Graph Node====================
Node: mm
Type: OpType.ReduceType
Arguments: ['view_17', 'permute_8']
Parents: ['view_17', 'permute_8']
Children: ['view_18']
--------------------MLIR OPS--------------------
%173 = "arith.constant"() <{value = dense<0.000000e+00> : tensor<1x1536xf32>}> : () -> tensor<1x1536xf32>
%174 = "linalg.matmul"(%172, %171, %173) <{cast = #linalg.type_fn<cast_signed>, indexing_maps = [affine_map<(d0, d1, d2) -> (d0, d2)>, affine_map<(d0, d1, d2) -> (d2, d1)>, affine_map<(d0, d1, d2) -> (d0, d1)>], operandSegmentSizes = array<i32: 2, 1>}> ({
^bb0(%arg398: f32, %arg399: f32, %arg400: f32):
  %175 = "arith.mulf"(%arg398, %arg399) <{fastmath = #arith.fastmath<none>}> : (f32, f32) -> f32
  %176 = "arith.addf"(%arg400, %175) <{fastmath = #arith.fastmath<none>}> : (f32, f32) -> f32
  "linalg.yield"(%176) : (f32) -> ()
}) : (tensor<1x1536xf32>, tensor<1536x1536xf32>, tensor<1x1536xf32>) -> tensor<1x1536xf32>

====================Graph Node====================
Node: view_18
Type: OpType.ReshapeType
Arguments: ['mm', [1, 1, 1536]]
Parents: ['mm']
Children: ['add_4']
--------------------MLIR OPS--------------------
%175 = "tosa.reshape"(%174) <{new_shape = array<i64: 1, 1, 1536>}> : (tensor<1x1536xf32>) -> tensor<1x1x1536xf32>

====================Graph Node====================
Node: add_4
Type: OpType.BroadcastType
Arguments: ['embedding', 'view_18']
Parents: ['embedding', 'view_18']
Children: ['pow_2', 'mul_8', 'add_6']
--------------------MLIR OPS--------------------
%176 = "tosa.add"(%2, %175) : (tensor<1x1x1536xf32>, tensor<1x1x1536xf32>) -> tensor<1x1x1536xf32>

====================Graph Node====================
Node: pow_2
Type: OpType.BroadcastType
Arguments: ['add_4', 2]
Parents: ['add_4']
Children: ['mean_1']
--------------------MLIR OPS--------------------
%177 = "tensor.empty"() : () -> tensor<1x1x1536xf32>
%178 = "arith.constant"() <{value = 2 : i32}> : () -> i32
%179 = "linalg.generic"(%176, %177) <{indexing_maps = [affine_map<(d0, d1, d2) -> (d0, d1, d2)>, affine_map<(d0, d1, d2) -> (d0, d1, d2)>], iterator_types = [#linalg.iterator_type<parallel>, #linalg.iterator_type<parallel>, #linalg.iterator_type<parallel>], operandSegmentSizes = array<i32: 1, 1>}> ({
^bb0(%arg398: f32, %arg399: f32):
  %180 = "math.fpowi"(%arg398, %178) <{fastmath = #arith.fastmath<none>}> : (f32, i32) -> f32
  "linalg.yield"(%180) : (f32) -> ()
}) : (tensor<1x1x1536xf32>, tensor<1x1x1536xf32>) -> tensor<1x1x1536xf32>

====================Graph Node====================
Node: mean_1
Type: OpType.ReduceType
Arguments: ['pow_2', [-1], True]
Parents: ['pow_2']
Children: ['add_5']
--------------------MLIR OPS--------------------
%180 = "tosa.reduce_sum"(%179) <{axis = 2 : i32}> : (tensor<1x1x1536xf32>) -> tensor<1x1x1xf32>
%181 = "tosa.const"() <{value = dense<1.536000e+03> : tensor<1xf32>}> : () -> tensor<1xf32>
%182 = "tosa.reciprocal"(%181) : (tensor<1xf32>) -> tensor<1xf32>
%183 = "tosa.reshape"(%182) <{new_shape = array<i64: 1, 1, 1>}> : (tensor<1xf32>) -> tensor<1x1x1xf32>
%184 = "tosa.mul"(%183, %180) : (tensor<1x1x1xf32>, tensor<1x1x1xf32>) -> tensor<1x1x1xf32>

====================Graph Node====================
Node: add_5
Type: OpType.BroadcastType
Arguments: ['mean_1', 1e-06]
Parents: ['mean_1']
Children: ['rsqrt_1']
--------------------MLIR OPS--------------------
%185 = "tosa.const"() <{value = dense<9.99999997E-7> : tensor<1x1x1xf32>}> : () -> tensor<1x1x1xf32>
%186 = "tosa.add"(%184, %185) : (tensor<1x1x1xf32>, tensor<1x1x1xf32>) -> tensor<1x1x1xf32>

====================Graph Node====================
Node: rsqrt_1
Type: OpType.ElementwiseType
Arguments: ['add_5']
Parents: ['add_5']
Children: ['mul_8']
--------------------MLIR OPS--------------------
%187 = "tosa.rsqrt"(%186) : (tensor<1x1x1xf32>) -> tensor<1x1x1xf32>

====================Graph Node====================
Node: mul_8
Type: OpType.BroadcastType
Arguments: ['add_4', 'rsqrt_1']
Parents: ['add_4', 'rsqrt_1']
Children: ['mul_9']
--------------------MLIR OPS--------------------
%188 = "tosa.mul"(%176, %187) : (tensor<1x1x1536xf32>, tensor<1x1x1xf32>) -> tensor<1x1x1536xf32>

====================Graph Node====================
Node: mul_9
Type: OpType.BroadcastType
Arguments: ['arg68_1', 'mul_8']
Parents: ['arg68_1', 'mul_8']
Children: ['view_19', 'view_21']
--------------------MLIR OPS--------------------
%189 = "tosa.reshape"(%arg14) <{new_shape = array<i64: 1, 1, 1536>}> : (tensor<1536xf32>) -> tensor<1x1x1536xf32>
%190 = "tosa.mul"(%189, %188) : (tensor<1x1x1536xf32>, tensor<1x1x1536xf32>) -> tensor<1x1x1536xf32>

====================Graph Node====================
Node: permute_9
Type: OpType.ReshapeType
Arguments: ['arg69_1', [1, 0]]
Parents: ['arg69_1']
Children: ['mm_1']
--------------------MLIR OPS--------------------
%191 = "tosa.const"() <{value = dense<[1, 0]> : tensor<2xi32>}> : () -> tensor<2xi32>
%192 = "tosa.transpose"(%arg15, %191) : (tensor<8960x1536xf32>, tensor<2xi32>) -> tensor<1536x8960xf32>

====================Graph Node====================
Node: view_19
Type: OpType.ReshapeType
Arguments: ['mul_9', [1, 1536]]
Parents: ['mul_9']
Children: ['mm_1']
--------------------MLIR OPS--------------------
%193 = "tosa.reshape"(%190) <{new_shape = array<i64: 1, 1536>}> : (tensor<1x1x1536xf32>) -> tensor<1x1536xf32>

====================Graph Node====================
Node: mm_1
Type: OpType.ReduceType
Arguments: ['view_19', 'permute_9']
Parents: ['view_19', 'permute_9']
Children: ['view_20']
--------------------MLIR OPS--------------------
%194 = "arith.constant"() <{value = dense<0.000000e+00> : tensor<1x8960xf32>}> : () -> tensor<1x8960xf32>
%195 = "linalg.matmul"(%193, %192, %194) <{cast = #linalg.type_fn<cast_signed>, indexing_maps = [affine_map<(d0, d1, d2) -> (d0, d2)>, affine_map<(d0, d1, d2) -> (d2, d1)>, affine_map<(d0, d1, d2) -> (d0, d1)>], operandSegmentSizes = array<i32: 2, 1>}> ({
^bb0(%arg398: f32, %arg399: f32, %arg400: f32):
  %196 = "arith.mulf"(%arg398, %arg399) <{fastmath = #arith.fastmath<none>}> : (f32, f32) -> f32
  %197 = "arith.addf"(%arg400, %196) <{fastmath = #arith.fastmath<none>}> : (f32, f32) -> f32
  "linalg.yield"(%197) : (f32) -> ()
}) : (tensor<1x1536xf32>, tensor<1536x8960xf32>, tensor<1x8960xf32>) -> tensor<1x8960xf32>

====================Graph Node====================
Node: view_20
Type: OpType.ReshapeType
Arguments: ['mm_1', [1, 1, 8960]]
Parents: ['mm_1']
Children: ['sigmoid', 'mul_10']
--------------------MLIR OPS--------------------
%196 = "tosa.reshape"(%195) <{new_shape = array<i64: 1, 1, 8960>}> : (tensor<1x8960xf32>) -> tensor<1x1x8960xf32>

====================Graph Node====================
Node: sigmoid
Type: OpType.ElementwiseType
Arguments: ['view_20']
Parents: ['view_20']
Children: ['mul_10']
--------------------MLIR OPS--------------------
%197 = "tosa.sigmoid"(%196) : (tensor<1x1x8960xf32>) -> tensor<1x1x8960xf32>

====================Graph Node====================
Node: mul_10
Type: OpType.BroadcastType
Arguments: ['view_20', 'sigmoid']
Parents: ['view_20', 'sigmoid']
Children: ['mul_11']
--------------------MLIR OPS--------------------
%198 = "tosa.mul"(%196, %197) : (tensor<1x1x8960xf32>, tensor<1x1x8960xf32>) -> tensor<1x1x8960xf32>

====================Graph Node====================
Node: permute_10
Type: OpType.ReshapeType
Arguments: ['arg70_1', [1, 0]]
Parents: ['arg70_1']
Children: ['mm_2']
--------------------MLIR OPS--------------------
%199 = "tosa.const"() <{value = dense<[1, 0]> : tensor<2xi32>}> : () -> tensor<2xi32>
%200 = "tosa.transpose"(%arg16, %199) : (tensor<8960x1536xf32>, tensor<2xi32>) -> tensor<1536x8960xf32>

====================Graph Node====================
Node: view_21
Type: OpType.ReshapeType
Arguments: ['mul_9', [1, 1536]]
Parents: ['mul_9']
Children: ['mm_2']
--------------------MLIR OPS--------------------
%201 = "tosa.reshape"(%190) <{new_shape = array<i64: 1, 1536>}> : (tensor<1x1x1536xf32>) -> tensor<1x1536xf32>

====================Graph Node====================
Node: mm_2
Type: OpType.ReduceType
Arguments: ['view_21', 'permute_10']
Parents: ['view_21', 'permute_10']
Children: ['view_22']
--------------------MLIR OPS--------------------
%202 = "arith.constant"() <{value = dense<0.000000e+00> : tensor<1x8960xf32>}> : () -> tensor<1x8960xf32>
%203 = "linalg.matmul"(%201, %200, %202) <{cast = #linalg.type_fn<cast_signed>, indexing_maps = [affine_map<(d0, d1, d2) -> (d0, d2)>, affine_map<(d0, d1, d2) -> (d2, d1)>, affine_map<(d0, d1, d2) -> (d0, d1)>], operandSegmentSizes = array<i32: 2, 1>}> ({
^bb0(%arg398: f32, %arg399: f32, %arg400: f32):
  %204 = "arith.mulf"(%arg398, %arg399) <{fastmath = #arith.fastmath<none>}> : (f32, f32) -> f32
  %205 = "arith.addf"(%arg400, %204) <{fastmath = #arith.fastmath<none>}> : (f32, f32) -> f32
  "linalg.yield"(%205) : (f32) -> ()
}) : (tensor<1x1536xf32>, tensor<1536x8960xf32>, tensor<1x8960xf32>) -> tensor<1x8960xf32>

====================Graph Node====================
Node: view_22
Type: OpType.ReshapeType
Arguments: ['mm_2', [1, 1, 8960]]
Parents: ['mm_2']
Children: ['mul_11']
--------------------MLIR OPS--------------------
%204 = "tosa.reshape"(%203) <{new_shape = array<i64: 1, 1, 8960>}> : (tensor<1x8960xf32>) -> tensor<1x1x8960xf32>

====================Graph Node====================
Node: mul_11
Type: OpType.BroadcastType
Arguments: ['mul_10', 'view_22']
Parents: ['mul_10', 'view_22']
Children: ['view_23']
--------------------MLIR OPS--------------------
%205 = "tosa.mul"(%198, %204) : (tensor<1x1x8960xf32>, tensor<1x1x8960xf32>) -> tensor<1x1x8960xf32>

====================Graph Node====================
Node: permute_11
Type: OpType.ReshapeType
Arguments: ['arg71_1', [1, 0]]
Parents: ['arg71_1']
Children: ['mm_3']
--------------------MLIR OPS--------------------
%206 = "tosa.const"() <{value = dense<[1, 0]> : tensor<2xi32>}> : () -> tensor<2xi32>
%207 = "tosa.transpose"(%arg17, %206) : (tensor<1536x8960xf32>, tensor<2xi32>) -> tensor<8960x1536xf32>

====================Graph Node====================
Node: view_23
Type: OpType.ReshapeType
Arguments: ['mul_11', [1, 8960]]
Parents: ['mul_11']
Children: ['mm_3']
--------------------MLIR OPS--------------------
%208 = "tosa.reshape"(%205) <{new_shape = array<i64: 1, 8960>}> : (tensor<1x1x8960xf32>) -> tensor<1x8960xf32>

====================Graph Node====================
Node: mm_3
Type: OpType.ReduceType
Arguments: ['view_23', 'permute_11']
Parents: ['view_23', 'permute_11']
Children: ['view_24']
--------------------MLIR OPS--------------------
%209 = "arith.constant"() <{value = dense<0.000000e+00> : tensor<1x1536xf32>}> : () -> tensor<1x1536xf32>
%210 = "linalg.matmul"(%208, %207, %209) <{cast = #linalg.type_fn<cast_signed>, indexing_maps = [affine_map<(d0, d1, d2) -> (d0, d2)>, affine_map<(d0, d1, d2) -> (d2, d1)>, affine_map<(d0, d1, d2) -> (d0, d1)>], operandSegmentSizes = array<i32: 2, 1>}> ({
^bb0(%arg398: f32, %arg399: f32, %arg400: f32):
  %211 = "arith.mulf"(%arg398, %arg399) <{fastmath = #arith.fastmath<none>}> : (f32, f32) -> f32
  %212 = "arith.addf"(%arg400, %211) <{fastmath = #arith.fastmath<none>}> : (f32, f32) -> f32
  "linalg.yield"(%212) : (f32) -> ()
}) : (tensor<1x8960xf32>, tensor<8960x1536xf32>, tensor<1x1536xf32>) -> tensor<1x1536xf32>

====================Graph Node====================
Node: view_24
Type: OpType.ReshapeType
Arguments: ['mm_3', [1, 1, 1536]]
Parents: ['mm_3']
Children: ['add_6']
--------------------MLIR OPS--------------------
%211 = "tosa.reshape"(%210) <{new_shape = array<i64: 1, 1, 1536>}> : (tensor<1x1536xf32>) -> tensor<1x1x1536xf32>

====================Graph Node====================
Node: add_6
Type: OpType.BroadcastType
Arguments: ['add_4', 'view_24']
Parents: ['add_4', 'view_24']
Children: ['pow_3', 'mul_12', 'add_10']
--------------------MLIR OPS--------------------
%212 = "tosa.add"(%176, %211) : (tensor<1x1x1536xf32>, tensor<1x1x1536xf32>) -> tensor<1x1x1536xf32>

====================Graph Node====================
Node: pow_3
Type: OpType.BroadcastType
Arguments: ['add_6', 2]
Parents: ['add_6']
Children: ['mean_2']
--------------------MLIR OPS--------------------
%213 = "tensor.empty"() : () -> tensor<1x1x1536xf32>
%214 = "arith.constant"() <{value = 2 : i32}> : () -> i32
%215 = "linalg.generic"(%212, %213) <{indexing_maps = [affine_map<(d0, d1, d2) -> (d0, d1, d2)>, affine_map<(d0, d1, d2) -> (d0, d1, d2)>], iterator_types = [#linalg.iterator_type<parallel>, #linalg.iterator_type<parallel>, #linalg.iterator_type<parallel>], operandSegmentSizes = array<i32: 1, 1>}> ({
^bb0(%arg398: f32, %arg399: f32):
  %216 = "math.fpowi"(%arg398, %214) <{fastmath = #arith.fastmath<none>}> : (f32, i32) -> f32
  "linalg.yield"(%216) : (f32) -> ()
}) : (tensor<1x1x1536xf32>, tensor<1x1x1536xf32>) -> tensor<1x1x1536xf32>

====================Graph Node====================
Node: mean_2
Type: OpType.ReduceType
Arguments: ['pow_3', [-1], True]
Parents: ['pow_3']
Children: ['add_7']
--------------------MLIR OPS--------------------
%216 = "tosa.reduce_sum"(%215) <{axis = 2 : i32}> : (tensor<1x1x1536xf32>) -> tensor<1x1x1xf32>
%217 = "tosa.const"() <{value = dense<1.536000e+03> : tensor<1xf32>}> : () -> tensor<1xf32>
%218 = "tosa.reciprocal"(%217) : (tensor<1xf32>) -> tensor<1xf32>
%219 = "tosa.reshape"(%218) <{new_shape = array<i64: 1, 1, 1>}> : (tensor<1xf32>) -> tensor<1x1x1xf32>
%220 = "tosa.mul"(%219, %216) : (tensor<1x1x1xf32>, tensor<1x1x1xf32>) -> tensor<1x1x1xf32>

====================Graph Node====================
Node: add_7
Type: OpType.BroadcastType
Arguments: ['mean_2', 1e-06]
Parents: ['mean_2']
Children: ['rsqrt_2']
--------------------MLIR OPS--------------------
%221 = "tosa.const"() <{value = dense<9.99999997E-7> : tensor<1x1x1xf32>}> : () -> tensor<1x1x1xf32>
%222 = "tosa.add"(%220, %221) : (tensor<1x1x1xf32>, tensor<1x1x1xf32>) -> tensor<1x1x1xf32>

====================Graph Node====================
Node: rsqrt_2
Type: OpType.ElementwiseType
Arguments: ['add_7']
Parents: ['add_7']
Children: ['mul_12']
--------------------MLIR OPS--------------------
%223 = "tosa.rsqrt"(%222) : (tensor<1x1x1xf32>) -> tensor<1x1x1xf32>

====================Graph Node====================
Node: mul_12
Type: OpType.BroadcastType
Arguments: ['add_6', 'rsqrt_2']
Parents: ['add_6', 'rsqrt_2']
Children: ['mul_13']
--------------------MLIR OPS--------------------
%224 = "tosa.mul"(%212, %223) : (tensor<1x1x1536xf32>, tensor<1x1x1xf32>) -> tensor<1x1x1536xf32>

====================Graph Node====================
Node: mul_13
Type: OpType.BroadcastType
Arguments: ['arg72_1', 'mul_12']
Parents: ['arg72_1', 'mul_12']
Children: ['view_25', 'view_28', 'view_31']
--------------------MLIR OPS--------------------
%225 = "tosa.reshape"(%arg18) <{new_shape = array<i64: 1, 1, 1536>}> : (tensor<1536xf32>) -> tensor<1x1x1536xf32>
%226 = "tosa.mul"(%225, %224) : (tensor<1x1x1536xf32>, tensor<1x1x1536xf32>) -> tensor<1x1x1536xf32>

====================Graph Node====================
Node: view_25
Type: OpType.ReshapeType
Arguments: ['mul_13', [1, 1536]]
Parents: ['mul_13']
Children: ['addmm_3']
--------------------MLIR OPS--------------------
%227 = "tosa.reshape"(%226) <{new_shape = array<i64: 1, 1536>}> : (tensor<1x1x1536xf32>) -> tensor<1x1536xf32>

====================Graph Node====================
Node: permute_12
Type: OpType.ReshapeType
Arguments: ['arg73_1', [1, 0]]
Parents: ['arg73_1']
Children: ['addmm_3']
--------------------MLIR OPS--------------------
%228 = "tosa.const"() <{value = dense<[1, 0]> : tensor<2xi32>}> : () -> tensor<2xi32>
%229 = "tosa.transpose"(%arg19, %228) : (tensor<1536x1536xf32>, tensor<2xi32>) -> tensor<1536x1536xf32>

====================Graph Node====================
Node: addmm_3
Type: OpType.ReduceType
Arguments: ['arg74_1', 'view_25', 'permute_12']
Parents: ['arg74_1', 'view_25', 'permute_12']
Children: ['view_26']
--------------------MLIR OPS--------------------
%230 = "arith.constant"() <{value = dense<0.000000e+00> : tensor<1x1536xf32>}> : () -> tensor<1x1536xf32>
%231 = "linalg.matmul"(%227, %229, %230) <{cast = #linalg.type_fn<cast_signed>, indexing_maps = [affine_map<(d0, d1, d2) -> (d0, d2)>, affine_map<(d0, d1, d2) -> (d2, d1)>, affine_map<(d0, d1, d2) -> (d0, d1)>], operandSegmentSizes = array<i32: 2, 1>}> ({
^bb0(%arg398: f32, %arg399: f32, %arg400: f32):
  %234 = "arith.mulf"(%arg398, %arg399) <{fastmath = #arith.fastmath<none>}> : (f32, f32) -> f32
  %235 = "arith.addf"(%arg400, %234) <{fastmath = #arith.fastmath<none>}> : (f32, f32) -> f32
  "linalg.yield"(%235) : (f32) -> ()
}) : (tensor<1x1536xf32>, tensor<1536x1536xf32>, tensor<1x1536xf32>) -> tensor<1x1536xf32>
%232 = "tosa.reshape"(%arg20) <{new_shape = array<i64: 1, 1536>}> : (tensor<1536xf32>) -> tensor<1x1536xf32>
%233 = "tosa.add"(%232, %231) : (tensor<1x1536xf32>, tensor<1x1536xf32>) -> tensor<1x1536xf32>

====================Graph Node====================
Node: view_26
Type: OpType.ReshapeType
Arguments: ['addmm_3', [1, 1, 1536]]
Parents: ['addmm_3']
Children: ['view_27']
--------------------MLIR OPS--------------------
%234 = "tosa.reshape"(%233) <{new_shape = array<i64: 1, 1, 1536>}> : (tensor<1x1536xf32>) -> tensor<1x1x1536xf32>

====================Graph Node====================
Node: view_27
Type: OpType.ReshapeType
Arguments: ['view_26', [1, 1, -1, 128]]
Parents: ['view_26']
Children: ['permute_13']
--------------------MLIR OPS--------------------
%235 = "tosa.reshape"(%234) <{new_shape = array<i64: 1, 1, 12, 128>}> : (tensor<1x1x1536xf32>) -> tensor<1x1x12x128xf32>

====================Graph Node====================
Node: permute_13
Type: OpType.ReshapeType
Arguments: ['view_27', [0, 2, 1, 3]]
Parents: ['view_27']
Children: ['mul_14', 'slice_27', 'slice_28']
--------------------MLIR OPS--------------------
%236 = "tosa.const"() <{value = dense<[0, 2, 1, 3]> : tensor<4xi32>}> : () -> tensor<4xi32>
%237 = "tosa.transpose"(%235, %236) : (tensor<1x1x12x128xf32>, tensor<4xi32>) -> tensor<1x12x1x128xf32>

====================Graph Node====================
Node: view_28
Type: OpType.ReshapeType
Arguments: ['mul_13', [1, 1536]]
Parents: ['mul_13']
Children: ['addmm_4']
--------------------MLIR OPS--------------------
%238 = "tosa.reshape"(%226) <{new_shape = array<i64: 1, 1536>}> : (tensor<1x1x1536xf32>) -> tensor<1x1536xf32>

====================Graph Node====================
Node: permute_14
Type: OpType.ReshapeType
Arguments: ['arg75_1', [1, 0]]
Parents: ['arg75_1']
Children: ['addmm_4']
--------------------MLIR OPS--------------------
%239 = "tosa.const"() <{value = dense<[1, 0]> : tensor<2xi32>}> : () -> tensor<2xi32>
%240 = "tosa.transpose"(%arg21, %239) : (tensor<256x1536xf32>, tensor<2xi32>) -> tensor<1536x256xf32>

====================Graph Node====================
Node: addmm_4
Type: OpType.ReduceType
Arguments: ['arg76_1', 'view_28', 'permute_14']
Parents: ['arg76_1', 'view_28', 'permute_14']
Children: ['view_29']
--------------------MLIR OPS--------------------
%241 = "arith.constant"() <{value = dense<0.000000e+00> : tensor<1x256xf32>}> : () -> tensor<1x256xf32>
%242 = "linalg.matmul"(%238, %240, %241) <{cast = #linalg.type_fn<cast_signed>, indexing_maps = [affine_map<(d0, d1, d2) -> (d0, d2)>, affine_map<(d0, d1, d2) -> (d2, d1)>, affine_map<(d0, d1, d2) -> (d0, d1)>], operandSegmentSizes = array<i32: 2, 1>}> ({
^bb0(%arg398: f32, %arg399: f32, %arg400: f32):
  %245 = "arith.mulf"(%arg398, %arg399) <{fastmath = #arith.fastmath<none>}> : (f32, f32) -> f32
  %246 = "arith.addf"(%arg400, %245) <{fastmath = #arith.fastmath<none>}> : (f32, f32) -> f32
  "linalg.yield"(%246) : (f32) -> ()
}) : (tensor<1x1536xf32>, tensor<1536x256xf32>, tensor<1x256xf32>) -> tensor<1x256xf32>
%243 = "tosa.reshape"(%arg22) <{new_shape = array<i64: 1, 256>}> : (tensor<256xf32>) -> tensor<1x256xf32>
%244 = "tosa.add"(%243, %242) : (tensor<1x256xf32>, tensor<1x256xf32>) -> tensor<1x256xf32>

====================Graph Node====================
Node: view_29
Type: OpType.ReshapeType
Arguments: ['addmm_4', [1, 1, 256]]
Parents: ['addmm_4']
Children: ['view_30']
--------------------MLIR OPS--------------------
%245 = "tosa.reshape"(%244) <{new_shape = array<i64: 1, 1, 256>}> : (tensor<1x256xf32>) -> tensor<1x1x256xf32>

====================Graph Node====================
Node: view_30
Type: OpType.ReshapeType
Arguments: ['view_29', [1, 1, -1, 128]]
Parents: ['view_29']
Children: ['permute_15']
--------------------MLIR OPS--------------------
%246 = "tosa.reshape"(%245) <{new_shape = array<i64: 1, 1, 2, 128>}> : (tensor<1x1x256xf32>) -> tensor<1x1x2x128xf32>

====================Graph Node====================
Node: permute_15
Type: OpType.ReshapeType
Arguments: ['view_30', [0, 2, 1, 3]]
Parents: ['view_30']
Children: ['mul_16', 'slice_29', 'slice_30']
--------------------MLIR OPS--------------------
%247 = "tosa.const"() <{value = dense<[0, 2, 1, 3]> : tensor<4xi32>}> : () -> tensor<4xi32>
%248 = "tosa.transpose"(%246, %247) : (tensor<1x1x2x128xf32>, tensor<4xi32>) -> tensor<1x2x1x128xf32>

====================Graph Node====================
Node: view_31
Type: OpType.ReshapeType
Arguments: ['mul_13', [1, 1536]]
Parents: ['mul_13']
Children: ['addmm_5']
--------------------MLIR OPS--------------------
%249 = "tosa.reshape"(%226) <{new_shape = array<i64: 1, 1536>}> : (tensor<1x1x1536xf32>) -> tensor<1x1536xf32>

====================Graph Node====================
Node: permute_16
Type: OpType.ReshapeType
Arguments: ['arg77_1', [1, 0]]
Parents: ['arg77_1']
Children: ['addmm_5']
--------------------MLIR OPS--------------------
%250 = "tosa.const"() <{value = dense<[1, 0]> : tensor<2xi32>}> : () -> tensor<2xi32>
%251 = "tosa.transpose"(%arg23, %250) : (tensor<256x1536xf32>, tensor<2xi32>) -> tensor<1536x256xf32>

====================Graph Node====================
Node: addmm_5
Type: OpType.ReduceType
Arguments: ['arg78_1', 'view_31', 'permute_16']
Parents: ['arg78_1', 'view_31', 'permute_16']
Children: ['view_32']
--------------------MLIR OPS--------------------
%252 = "arith.constant"() <{value = dense<0.000000e+00> : tensor<1x256xf32>}> : () -> tensor<1x256xf32>
%253 = "linalg.matmul"(%249, %251, %252) <{cast = #linalg.type_fn<cast_signed>, indexing_maps = [affine_map<(d0, d1, d2) -> (d0, d2)>, affine_map<(d0, d1, d2) -> (d2, d1)>, affine_map<(d0, d1, d2) -> (d0, d1)>], operandSegmentSizes = array<i32: 2, 1>}> ({
^bb0(%arg398: f32, %arg399: f32, %arg400: f32):
  %256 = "arith.mulf"(%arg398, %arg399) <{fastmath = #arith.fastmath<none>}> : (f32, f32) -> f32
  %257 = "arith.addf"(%arg400, %256) <{fastmath = #arith.fastmath<none>}> : (f32, f32) -> f32
  "linalg.yield"(%257) : (f32) -> ()
}) : (tensor<1x1536xf32>, tensor<1536x256xf32>, tensor<1x256xf32>) -> tensor<1x256xf32>
%254 = "tosa.reshape"(%arg24) <{new_shape = array<i64: 1, 256>}> : (tensor<256xf32>) -> tensor<1x256xf32>
%255 = "tosa.add"(%254, %253) : (tensor<1x256xf32>, tensor<1x256xf32>) -> tensor<1x256xf32>

====================Graph Node====================
Node: view_32
Type: OpType.ReshapeType
Arguments: ['addmm_5', [1, 1, 256]]
Parents: ['addmm_5']
Children: ['view_33']
--------------------MLIR OPS--------------------
%256 = "tosa.reshape"(%255) <{new_shape = array<i64: 1, 1, 256>}> : (tensor<1x256xf32>) -> tensor<1x1x256xf32>

====================Graph Node====================
Node: view_33
Type: OpType.ReshapeType
Arguments: ['view_32', [1, 1, -1, 128]]
Parents: ['view_32']
Children: ['permute_17']
--------------------MLIR OPS--------------------
%257 = "tosa.reshape"(%256) <{new_shape = array<i64: 1, 1, 2, 128>}> : (tensor<1x1x256xf32>) -> tensor<1x1x2x128xf32>

====================Graph Node====================
Node: permute_17
Type: OpType.ReshapeType
Arguments: ['view_33', [0, 2, 1, 3]]
Parents: ['view_33']
Children: ['index_put_3']
--------------------MLIR OPS--------------------
%258 = "tosa.const"() <{value = dense<[0, 2, 1, 3]> : tensor<4xi32>}> : () -> tensor<4xi32>
%259 = "tosa.transpose"(%257, %258) : (tensor<1x1x2x128xf32>, tensor<4xi32>) -> tensor<1x2x1x128xf32>

====================Graph Node====================
Node: unsqueeze_11
Type: OpType.ReshapeType
Arguments: ['mul', 1]
Parents: ['mul']
Children: ['mul_14', 'mul_16']
--------------------MLIR OPS--------------------
%260 = "tosa.reshape"(%32) <{new_shape = array<i64: 1, 1, 1, 128>}> : (tensor<1x1x128xf32>) -> tensor<1x1x1x128xf32>

====================Graph Node====================
Node: unsqueeze_12
Type: OpType.ReshapeType
Arguments: ['mul_1', 1]
Parents: ['mul_1']
Children: ['mul_15', 'mul_17']
--------------------MLIR OPS--------------------
%261 = "tosa.reshape"(%36) <{new_shape = array<i64: 1, 1, 1, 128>}> : (tensor<1x1x128xf32>) -> tensor<1x1x1x128xf32>

====================Graph Node====================
Node: mul_14
Type: OpType.BroadcastType
Arguments: ['permute_13', 'unsqueeze_11']
Parents: ['permute_13', 'unsqueeze_11']
Children: ['add_8']
--------------------MLIR OPS--------------------
%262 = "tosa.mul"(%237, %260) : (tensor<1x12x1x128xf32>, tensor<1x1x1x128xf32>) -> tensor<1x12x1x128xf32>

====================Graph Node====================
Node: slice_27
Type: OpType.ReshapeType
Arguments: ['permute_13', 3, 0, 64]
Parents: ['permute_13']
Children: ['cat_2']
--------------------MLIR OPS--------------------
%263 = "tensor.extract_slice"(%237) <{operandSegmentSizes = array<i32: 1, 0, 0, 0>, static_offsets = array<i64: 0, 0, 0, 0>, static_sizes = array<i64: 1, 12, 1, 64>, static_strides = array<i64: 1, 1, 1, 1>}> : (tensor<1x12x1x128xf32>) -> tensor<1x12x1x64xf32>

====================Graph Node====================
Node: slice_28
Type: OpType.ReshapeType
Arguments: ['permute_13', 3, 64, 9223372036854775807]
Parents: ['permute_13']
Children: ['neg_2']
--------------------MLIR OPS--------------------
%264 = "tensor.extract_slice"(%237) <{operandSegmentSizes = array<i32: 1, 0, 0, 0>, static_offsets = array<i64: 0, 0, 0, 64>, static_sizes = array<i64: 1, 12, 1, 64>, static_strides = array<i64: 1, 1, 1, 1>}> : (tensor<1x12x1x128xf32>) -> tensor<1x12x1x64xf32>

====================Graph Node====================
Node: neg_2
Type: OpType.ElementwiseType
Arguments: ['slice_28']
Parents: ['slice_28']
Children: ['cat_2']
--------------------MLIR OPS--------------------
%265 = "tensor.empty"() : () -> tensor<1x12x1x64xf32>
%266 = "linalg.negf"(%264, %265) <{operandSegmentSizes = array<i32: 1, 1>}> ({
^bb0(%arg398: f32, %arg399: f32):
  %267 = "arith.negf"(%arg398) <{fastmath = #arith.fastmath<none>}> : (f32) -> f32
  "linalg.yield"(%267) : (f32) -> ()
}) : (tensor<1x12x1x64xf32>, tensor<1x12x1x64xf32>) -> tensor<1x12x1x64xf32>

====================Graph Node====================
Node: cat_2
Type: OpType.ConcatType
Arguments: [[neg_2, slice_27], -1]
Parents: []
Children: ['mul_15']
--------------------MLIR OPS--------------------
%267 = "tensor.empty"() : () -> tensor<1x12x1x128xf32>
%268 = "tensor.insert_slice"(%266, %267) <{operandSegmentSizes = array<i32: 1, 1, 0, 0, 0>, static_offsets = array<i64: 0, 0, 0, 0>, static_sizes = array<i64: 1, 12, 1, 64>, static_strides = array<i64: 1, 1, 1, 1>}> : (tensor<1x12x1x64xf32>, tensor<1x12x1x128xf32>) -> tensor<1x12x1x128xf32>
%269 = "tensor.insert_slice"(%263, %268) <{operandSegmentSizes = array<i32: 1, 1, 0, 0, 0>, static_offsets = array<i64: 0, 0, 0, 64>, static_sizes = array<i64: 1, 12, 1, 64>, static_strides = array<i64: 1, 1, 1, 1>}> : (tensor<1x12x1x64xf32>, tensor<1x12x1x128xf32>) -> tensor<1x12x1x128xf32>

====================Graph Node====================
Node: mul_15
Type: OpType.BroadcastType
Arguments: ['cat_2', 'unsqueeze_12']
Parents: ['cat_2', 'unsqueeze_12']
Children: ['add_8']
--------------------MLIR OPS--------------------
%270 = "tosa.mul"(%269, %261) : (tensor<1x12x1x128xf32>, tensor<1x1x1x128xf32>) -> tensor<1x12x1x128xf32>

====================Graph Node====================
Node: add_8
Type: OpType.BroadcastType
Arguments: ['mul_14', 'mul_15']
Parents: ['mul_14', 'mul_15']
Children: ['_scaled_dot_product_flash_attention_for_cpu_1']
--------------------MLIR OPS--------------------
%271 = "tosa.add"(%262, %270) : (tensor<1x12x1x128xf32>, tensor<1x12x1x128xf32>) -> tensor<1x12x1x128xf32>

====================Graph Node====================
Node: mul_16
Type: OpType.BroadcastType
Arguments: ['permute_15', 'unsqueeze_11']
Parents: ['permute_15', 'unsqueeze_11']
Children: ['add_9']
--------------------MLIR OPS--------------------
%272 = "tosa.mul"(%248, %260) : (tensor<1x2x1x128xf32>, tensor<1x1x1x128xf32>) -> tensor<1x2x1x128xf32>

====================Graph Node====================
Node: slice_29
Type: OpType.ReshapeType
Arguments: ['permute_15', 3, 0, 64]
Parents: ['permute_15']
Children: ['cat_3']
--------------------MLIR OPS--------------------
%273 = "tensor.extract_slice"(%248) <{operandSegmentSizes = array<i32: 1, 0, 0, 0>, static_offsets = array<i64: 0, 0, 0, 0>, static_sizes = array<i64: 1, 2, 1, 64>, static_strides = array<i64: 1, 1, 1, 1>}> : (tensor<1x2x1x128xf32>) -> tensor<1x2x1x64xf32>

====================Graph Node====================
Node: slice_30
Type: OpType.ReshapeType
Arguments: ['permute_15', 3, 64, 9223372036854775807]
Parents: ['permute_15']
Children: ['neg_3']
--------------------MLIR OPS--------------------
%274 = "tensor.extract_slice"(%248) <{operandSegmentSizes = array<i32: 1, 0, 0, 0>, static_offsets = array<i64: 0, 0, 0, 64>, static_sizes = array<i64: 1, 2, 1, 64>, static_strides = array<i64: 1, 1, 1, 1>}> : (tensor<1x2x1x128xf32>) -> tensor<1x2x1x64xf32>

====================Graph Node====================
Node: neg_3
Type: OpType.ElementwiseType
Arguments: ['slice_30']
Parents: ['slice_30']
Children: ['cat_3']
--------------------MLIR OPS--------------------
%275 = "tensor.empty"() : () -> tensor<1x2x1x64xf32>
%276 = "linalg.negf"(%274, %275) <{operandSegmentSizes = array<i32: 1, 1>}> ({
^bb0(%arg398: f32, %arg399: f32):
  %277 = "arith.negf"(%arg398) <{fastmath = #arith.fastmath<none>}> : (f32) -> f32
  "linalg.yield"(%277) : (f32) -> ()
}) : (tensor<1x2x1x64xf32>, tensor<1x2x1x64xf32>) -> tensor<1x2x1x64xf32>

…
Parents: ['mean_31']
Children: ['rsqrt_31']
--------------------MLIR OPS--------------------
%2825 = "tosa.const"() <{value = dense<9.99999997E-7> : tensor<1x1x1xf32>}> : () -> tensor<1x1x1xf32>
%2826 = "tosa.add"(%2824, %2825) : (tensor<1x1x1xf32>, tensor<1x1x1xf32>) -> tensor<1x1x1xf32>

====================Graph Node====================
Node: rsqrt_31
Type: OpType.ElementwiseType
Arguments: ['add_95']
Parents: ['add_95']
Children: ['mul_158']
--------------------MLIR OPS--------------------
%2827 = "tosa.rsqrt"(%2826) : (tensor<1x1x1xf32>) -> tensor<1x1x1xf32>

====================Graph Node====================
Node: mul_158
Type: OpType.BroadcastType
Arguments: ['add_94', 'rsqrt_31']
Parents: ['add_94', 'rsqrt_31']
Children: ['mul_159']
--------------------MLIR OPS--------------------
%2828 = "tosa.mul"(%2816, %2827) : (tensor<1x1x1536xf32>, tensor<1x1x1xf32>) -> tensor<1x1x1536xf32>

====================Graph Node====================
Node: mul_159
Type: OpType.BroadcastType
Arguments: ['arg248_1', 'mul_158']
Parents: ['arg248_1', 'mul_158']
Children: ['view_319', 'view_321']
--------------------MLIR OPS--------------------
%2829 = "tosa.reshape"(%arg224) <{new_shape = array<i64: 1, 1, 1536>}> : (tensor<1536xf32>) -> tensor<1x1x1536xf32>
%2830 = "tosa.mul"(%2829, %2828) : (tensor<1x1x1536xf32>, tensor<1x1x1536xf32>) -> tensor<1x1x1536xf32>

====================Graph Node====================
Node: permute_174
Type: OpType.ReshapeType
Arguments: ['arg249_1', [1, 0]]
Parents: ['arg249_1']
Children: ['mm_61']
--------------------MLIR OPS--------------------
%2831 = "tosa.const"() <{value = dense<[1, 0]> : tensor<2xi32>}> : () -> tensor<2xi32>
%2832 = "tosa.transpose"(%arg225, %2831) : (tensor<8960x1536xf32>, tensor<2xi32>) -> tensor<1536x8960xf32>

====================Graph Node====================
Node: view_319
Type: OpType.ReshapeType
Arguments: ['mul_159', [1, 1536]]
Parents: ['mul_159']
Children: ['mm_61']
--------------------MLIR OPS--------------------
%2833 = "tosa.reshape"(%2830) <{new_shape = array<i64: 1, 1536>}> : (tensor<1x1x1536xf32>) -> tensor<1x1536xf32>

====================Graph Node====================
Node: mm_61
Type: OpType.ReduceType
Arguments: ['view_319', 'permute_174']
Parents: ['view_319', 'permute_174']
Children: ['view_320']
--------------------MLIR OPS--------------------
%2834 = "arith.constant"() <{value = dense<0.000000e+00> : tensor<1x8960xf32>}> : () -> tensor<1x8960xf32>
%2835 = "linalg.matmul"(%2833, %2832, %2834) <{cast = #linalg.type_fn<cast_signed>, indexing_maps = [affine_map<(d0, d1, d2) -> (d0, d2)>, affine_map<(d0, d1, d2) -> (d2, d1)>, affine_map<(d0, d1, d2) -> (d0, d1)>], operandSegmentSizes = array<i32: 2, 1>}> ({
^bb0(%arg398: f32, %arg399: f32, %arg400: f32):
  %2836 = "arith.mulf"(%arg398, %arg399) <{fastmath = #arith.fastmath<none>}> : (f32, f32) -> f32
  %2837 = "arith.addf"(%arg400, %2836) <{fastmath = #arith.fastmath<none>}> : (f32, f32) -> f32
  "linalg.yield"(%2837) : (f32) -> ()
}) : (tensor<1x1536xf32>, tensor<1536x8960xf32>, tensor<1x8960xf32>) -> tensor<1x8960xf32>

====================Graph Node====================
Node: view_320
Type: OpType.ReshapeType
Arguments: ['mm_61', [1, 1, 8960]]
Parents: ['mm_61']
Children: ['sigmoid_15', 'mul_160']
--------------------MLIR OPS--------------------
%2836 = "tosa.reshape"(%2835) <{new_shape = array<i64: 1, 1, 8960>}> : (tensor<1x8960xf32>) -> tensor<1x1x8960xf32>

====================Graph Node====================
Node: sigmoid_15
Type: OpType.ElementwiseType
Arguments: ['view_320']
Parents: ['view_320']
Children: ['mul_160']
--------------------MLIR OPS--------------------
%2837 = "tosa.sigmoid"(%2836) : (tensor<1x1x8960xf32>) -> tensor<1x1x8960xf32>

====================Graph Node====================
Node: mul_160
Type: OpType.BroadcastType
Arguments: ['view_320', 'sigmoid_15']
Parents: ['view_320', 'sigmoid_15']
Children: ['mul_161']
--------------------MLIR OPS--------------------
%2838 = "tosa.mul"(%2836, %2837) : (tensor<1x1x8960xf32>, tensor<1x1x8960xf32>) -> tensor<1x1x8960xf32>

====================Graph Node====================
Node: permute_175
Type: OpType.ReshapeType
Arguments: ['arg250_1', [1, 0]]
Parents: ['arg250_1']
Children: ['mm_62']
--------------------MLIR OPS--------------------
%2839 = "tosa.const"() <{value = dense<[1, 0]> : tensor<2xi32>}> : () -> tensor<2xi32>
%2840 = "tosa.transpose"(%arg226, %2839) : (tensor<8960x1536xf32>, tensor<2xi32>) -> tensor<1536x8960xf32>

====================Graph Node====================
Node: view_321
Type: OpType.ReshapeType
Arguments: ['mul_159', [1, 1536]]
Parents: ['mul_159']
Children: ['mm_62']
--------------------MLIR OPS--------------------
%2841 = "tosa.reshape"(%2830) <{new_shape = array<i64: 1, 1536>}> : (tensor<1x1x1536xf32>) -> tensor<1x1536xf32>

====================Graph Node====================
Node: mm_62
Type: OpType.ReduceType
Arguments: ['view_321', 'permute_175']
Parents: ['view_321', 'permute_175']
Children: ['view_322']
--------------------MLIR OPS--------------------
%2842 = "arith.constant"() <{value = dense<0.000000e+00> : tensor<1x8960xf32>}> : () -> tensor<1x8960xf32>
%2843 = "linalg.matmul"(%2841, %2840, %2842) <{cast = #linalg.type_fn<cast_signed>, indexing_maps = [affine_map<(d0, d1, d2) -> (d0, d2)>, affine_map<(d0, d1, d2) -> (d2, d1)>, affine_map<(d0, d1, d2) -> (d0, d1)>], operandSegmentSizes = array<i32: 2, 1>}> ({
^bb0(%arg398: f32, %arg399: f32, %arg400: f32):
  %2844 = "arith.mulf"(%arg398, %arg399) <{fastmath = #arith.fastmath<none>}> : (f32, f32) -> f32
  %2845 = "arith.addf"(%arg400, %2844) <{fastmath = #arith.fastmath<none>}> : (f32, f32) -> f32
  "linalg.yield"(%2845) : (f32) -> ()
}) : (tensor<1x1536xf32>, tensor<1536x8960xf32>, tensor<1x8960xf32>) -> tensor<1x8960xf32>

====================Graph Node====================
Node: view_322
Type: OpType.ReshapeType
Arguments: ['mm_62', [1, 1, 8960]]
Parents: ['mm_62']
Children: ['mul_161']
--------------------MLIR OPS--------------------
%2844 = "tosa.reshape"(%2843) <{new_shape = array<i64: 1, 1, 8960>}> : (tensor<1x8960xf32>) -> tensor<1x1x8960xf32>

====================Graph Node====================
Node: mul_161
Type: OpType.BroadcastType
Arguments: ['mul_160', 'view_322']
Parents: ['mul_160', 'view_322']
Children: ['view_323']
--------------------MLIR OPS--------------------
%2845 = "tosa.mul"(%2838, %2844) : (tensor<1x1x8960xf32>, tensor<1x1x8960xf32>) -> tensor<1x1x8960xf32>

====================Graph Node====================
Node: permute_176
Type: OpType.ReshapeType
Arguments: ['arg251_1', [1, 0]]
Parents: ['arg251_1']
Children: ['mm_63']
--------------------MLIR OPS--------------------
%2846 = "tosa.const"() <{value = dense<[1, 0]> : tensor<2xi32>}> : () -> tensor<2xi32>
%2847 = "tosa.transpose"(%arg227, %2846) : (tensor<1536x8960xf32>, tensor<2xi32>) -> tensor<8960x1536xf32>

====================Graph Node====================
Node: view_323
Type: OpType.ReshapeType
Arguments: ['mul_161', [1, 8960]]
Parents: ['mul_161']
Children: ['mm_63']
--------------------MLIR OPS--------------------
%2848 = "tosa.reshape"(%2845) <{new_shape = array<i64: 1, 8960>}> : (tensor<1x1x8960xf32>) -> tensor<1x8960xf32>

====================Graph Node====================
Node: mm_63
Type: OpType.ReduceType
Arguments: ['view_323', 'permute_176']
Parents: ['view_323', 'permute_176']
Children: ['view_324']
--------------------MLIR OPS--------------------
%2849 = "arith.constant"() <{value = dense<0.000000e+00> : tensor<1x1536xf32>}> : () -> tensor<1x1536xf32>
%2850 = "linalg.matmul"(%2848, %2847, %2849) <{cast = #linalg.type_fn<cast_signed>, indexing_maps = [affine_map<(d0, d1, d2) -> (d0, d2)>, affine_map<(d0, d1, d2) -> (d2, d1)>, affine_map<(d0, d1, d2) -> (d0, d1)>], operandSegmentSizes = array<i32: 2, 1>}> ({
^bb0(%arg398: f32, %arg399: f32, %arg400: f32):
  %2851 = "arith.mulf"(%arg398, %arg399) <{fastmath = #arith.fastmath<none>}> : (f32, f32) -> f32
  %2852 = "arith.addf"(%arg400, %2851) <{fastmath = #arith.fastmath<none>}> : (f32, f32) -> f32
  "linalg.yield"(%2852) : (f32) -> ()
}) : (tensor<1x8960xf32>, tensor<8960x1536xf32>, tensor<1x1536xf32>) -> tensor<1x1536xf32>

====================Graph Node====================
Node: view_324
Type: OpType.ReshapeType
Arguments: ['mm_63', [1, 1, 1536]]
Parents: ['mm_63']
Children: ['add_96']
--------------------MLIR OPS--------------------
%2851 = "tosa.reshape"(%2850) <{new_shape = array<i64: 1, 1, 1536>}> : (tensor<1x1536xf32>) -> tensor<1x1x1536xf32>

====================Graph Node====================
Node: add_96
Type: OpType.BroadcastType
Arguments: ['add_94', 'view_324']
Parents: ['add_94', 'view_324']
Children: ['pow_33', 'mul_162', 'add_100']
--------------------MLIR OPS--------------------
%2852 = "tosa.add"(%2816, %2851) : (tensor<1x1x1536xf32>, tensor<1x1x1536xf32>) -> tensor<1x1x1536xf32>

====================Graph Node====================
Node: pow_33
Type: OpType.BroadcastType
Arguments: ['add_96', 2]
Parents: ['add_96']
Children: ['mean_32']
--------------------MLIR OPS--------------------
%2853 = "tensor.empty"() : () -> tensor<1x1x1536xf32>
%2854 = "arith.constant"() <{value = 2 : i32}> : () -> i32
%2855 = "linalg.generic"(%2852, %2853) <{indexing_maps = [affine_map<(d0, d1, d2) -> (d0, d1, d2)>, affine_map<(d0, d1, d2) -> (d0, d1, d2)>], iterator_types = [#linalg.iterator_type<parallel>, #linalg.iterator_type<parallel>, #linalg.iterator_type<parallel>], operandSegmentSizes = array<i32: 1, 1>}> ({
^bb0(%arg398: f32, %arg399: f32):
  %2856 = "math.fpowi"(%arg398, %2854) <{fastmath = #arith.fastmath<none>}> : (f32, i32) -> f32
  "linalg.yield"(%2856) : (f32) -> ()
}) : (tensor<1x1x1536xf32>, tensor<1x1x1536xf32>) -> tensor<1x1x1536xf32>

====================Graph Node====================
Node: mean_32
Type: OpType.ReduceType
Arguments: ['pow_33', [-1], True]
Parents: ['pow_33']
Children: ['add_97']
--------------------MLIR OPS--------------------
%2856 = "tosa.reduce_sum"(%2855) <{axis = 2 : i32}> : (tensor<1x1x1536xf32>) -> tensor<1x1x1xf32>
%2857 = "tosa.const"() <{value = dense<1.536000e+03> : tensor<1xf32>}> : () -> tensor<1xf32>
%2858 = "tosa.reciprocal"(%2857) : (tensor<1xf32>) -> tensor<1xf32>
%2859 = "tosa.reshape"(%2858) <{new_shape = array<i64: 1, 1, 1>}> : (tensor<1xf32>) -> tensor<1x1x1xf32>
%2860 = "tosa.mul"(%2859, %2856) : (tensor<1x1x1xf32>, tensor<1x1x1xf32>) -> tensor<1x1x1xf32>

====================Graph Node====================
Node: add_97
Type: OpType.BroadcastType
Arguments: ['mean_32', 1e-06]
Parents: ['mean_32']
Children: ['rsqrt_32']
--------------------MLIR OPS--------------------
%2861 = "tosa.const"() <{value = dense<9.99999997E-7> : tensor<1x1x1xf32>}> : () -> tensor<1x1x1xf32>
%2862 = "tosa.add"(%2860, %2861) : (tensor<1x1x1xf32>, tensor<1x1x1xf32>) -> tensor<1x1x1xf32>

====================Graph Node====================
Node: rsqrt_32
Type: OpType.ElementwiseType
Arguments: ['add_97']
Parents: ['add_97']
Children: ['mul_162']
--------------------MLIR OPS--------------------
%2863 = "tosa.rsqrt"(%2862) : (tensor<1x1x1xf32>) -> tensor<1x1x1xf32>

====================Graph Node====================
Node: mul_162
Type: OpType.BroadcastType
Arguments: ['add_96', 'rsqrt_32']
Parents: ['add_96', 'rsqrt_32']
Children: ['mul_163']
--------------------MLIR OPS--------------------
%2864 = "tosa.mul"(%2852, %2863) : (tensor<1x1x1536xf32>, tensor<1x1x1xf32>) -> tensor<1x1x1536xf32>

====================Graph Node====================
Node: mul_163
Type: OpType.BroadcastType
Arguments: ['arg252_1', 'mul_162']
Parents: ['arg252_1', 'mul_162']
Children: ['view_325', 'view_328', 'view_331']
--------------------MLIR OPS--------------------
%2865 = "tosa.reshape"(%arg228) <{new_shape = array<i64: 1, 1, 1536>}> : (tensor<1536xf32>) -> tensor<1x1x1536xf32>
%2866 = "tosa.mul"(%2865, %2864) : (tensor<1x1x1536xf32>, tensor<1x1x1536xf32>) -> tensor<1x1x1536xf32>

====================Graph Node====================
Node: view_325
Type: OpType.ReshapeType
Arguments: ['mul_163', [1, 1536]]
Parents: ['mul_163']
Children: ['addmm_48']
--------------------MLIR OPS--------------------
%2867 = "tosa.reshape"(%2866) <{new_shape = array<i64: 1, 1536>}> : (tensor<1x1x1536xf32>) -> tensor<1x1536xf32>

====================Graph Node====================
Node: permute_177
Type: OpType.ReshapeType
Arguments: ['arg253_1', [1, 0]]
Parents: ['arg253_1']
Children: ['addmm_48']
--------------------MLIR OPS--------------------
%2868 = "tosa.const"() <{value = dense<[1, 0]> : tensor<2xi32>}> : () -> tensor<2xi32>
%2869 = "tosa.transpose"(%arg229, %2868) : (tensor<1536x1536xf32>, tensor<2xi32>) -> tensor<1536x1536xf32>

====================Graph Node====================
Node: addmm_48
Type: OpType.ReduceType
Arguments: ['arg254_1', 'view_325', 'permute_177']
Parents: ['arg254_1', 'view_325', 'permute_177']
Children: ['view_326']
--------------------MLIR OPS--------------------
%2870 = "arith.constant"() <{value = dense<0.000000e+00> : tensor<1x1536xf32>}> : () -> tensor<1x1536xf32>
%2871 = "linalg.matmul"(%2867, %2869, %2870) <{cast = #linalg.type_fn<cast_signed>, indexing_maps = [affine_map<(d0, d1, d2) -> (d0, d2)>, affine_map<(d0, d1, d2) -> (d2, d1)>, affine_map<(d0, d1, d2) -> (d0, d1)>], operandSegmentSizes = array<i32: 2, 1>}> ({
^bb0(%arg398: f32, %arg399: f32, %arg400: f32):
  %2874 = "arith.mulf"(%arg398, %arg399) <{fastmath = #arith.fastmath<none>}> : (f32, f32) -> f32
  %2875 = "arith.addf"(%arg400, %2874) <{fastmath = #arith.fastmath<none>}> : (f32, f32) -> f32
  "linalg.yield"(%2875) : (f32) -> ()
}) : (tensor<1x1536xf32>, tensor<1536x1536xf32>, tensor<1x1536xf32>) -> tensor<1x1536xf32>
%2872 = "tosa.reshape"(%arg230) <{new_shape = array<i64: 1, 1536>}> : (tensor<1536xf32>) -> tensor<1x1536xf32>
%2873 = "tosa.add"(%2872, %2871) : (tensor<1x1536xf32>, tensor<1x1536xf32>) -> tensor<1x1536xf32>

====================Graph Node====================
Node: view_326
Type: OpType.ReshapeType
Arguments: ['addmm_48', [1, 1, 1536]]
Parents: ['addmm_48']
Children: ['view_327']
--------------------MLIR OPS--------------------
%2874 = "tosa.reshape"(%2873) <{new_shape = array<i64: 1, 1, 1536>}> : (tensor<1x1536xf32>) -> tensor<1x1x1536xf32>

====================Graph Node====================
Node: view_327
Type: OpType.ReshapeType
Arguments: ['view_326', [1, 1, -1, 128]]
Parents: ['view_326']
Children: ['permute_178']
--------------------MLIR OPS--------------------
%2875 = "tosa.reshape"(%2874) <{new_shape = array<i64: 1, 1, 12, 128>}> : (tensor<1x1x1536xf32>) -> tensor<1x1x12x128xf32>

====================Graph Node====================
Node: permute_178
Type: OpType.ReshapeType
Arguments: ['view_327', [0, 2, 1, 3]]
Parents: ['view_327']
Children: ['mul_164', 'slice_372', 'slice_373']
--------------------MLIR OPS--------------------
%2876 = "tosa.const"() <{value = dense<[0, 2, 1, 3]> : tensor<4xi32>}> : () -> tensor<4xi32>
%2877 = "tosa.transpose"(%2875, %2876) : (tensor<1x1x12x128xf32>, tensor<4xi32>) -> tensor<1x12x1x128xf32>

====================Graph Node====================
Node: view_328
Type: OpType.ReshapeType
Arguments: ['mul_163', [1, 1536]]
Parents: ['mul_163']
Children: ['addmm_49']
--------------------MLIR OPS--------------------
%2878 = "tosa.reshape"(%2866) <{new_shape = array<i64: 1, 1536>}> : (tensor<1x1x1536xf32>) -> tensor<1x1536xf32>

====================Graph Node====================
Node: permute_179
Type: OpType.ReshapeType
Arguments: ['arg255_1', [1, 0]]
Parents: ['arg255_1']
Children: ['addmm_49']
--------------------MLIR OPS--------------------
%2879 = "tosa.const"() <{value = dense<[1, 0]> : tensor<2xi32>}> : () -> tensor<2xi32>
%2880 = "tosa.transpose"(%arg231, %2879) : (tensor<256x1536xf32>, tensor<2xi32>) -> tensor<1536x256xf32>

====================Graph Node====================
Node: addmm_49
Type: OpType.ReduceType
Arguments: ['arg256_1', 'view_328', 'permute_179']
Parents: ['arg256_1', 'view_328', 'permute_179']
Children: ['view_329']
--------------------MLIR OPS--------------------
%2881 = "arith.constant"() <{value = dense<0.000000e+00> : tensor<1x256xf32>}> : () -> tensor<1x256xf32>
%2882 = "linalg.matmul"(%2878, %2880, %2881) <{cast = #linalg.type_fn<cast_signed>, indexing_maps = [affine_map<(d0, d1, d2) -> (d0, d2)>, affine_map<(d0, d1, d2) -> (d2, d1)>, affine_map<(d0, d1, d2) -> (d0, d1)>], operandSegmentSizes = array<i32: 2, 1>}> ({
^bb0(%arg398: f32, %arg399: f32, %arg400: f32):
  %2885 = "arith.mulf"(%arg398, %arg399) <{fastmath = #arith.fastmath<none>}> : (f32, f32) -> f32
  %2886 = "arith.addf"(%arg400, %2885) <{fastmath = #arith.fastmath<none>}> : (f32, f32) -> f32
  "linalg.yield"(%2886) : (f32) -> ()
}) : (tensor<1x1536xf32>, tensor<1536x256xf32>, tensor<1x256xf32>) -> tensor<1x256xf32>
%2883 = "tosa.reshape"(%arg232) <{new_shape = array<i64: 1, 256>}> : (tensor<256xf32>) -> tensor<1x256xf32>
%2884 = "tosa.add"(%2883, %2882) : (tensor<1x256xf32>, tensor<1x256xf32>) -> tensor<1x256xf32>

====================Graph Node====================
Node: view_329
Type: OpType.ReshapeType
Arguments: ['addmm_49', [1, 1, 256]]
Parents: ['addmm_49']
Children: ['view_330']
--------------------MLIR OPS--------------------
%2885 = "tosa.reshape"(%2884) <{new_shape = array<i64: 1, 1, 256>}> : (tensor<1x256xf32>) -> tensor<1x1x256xf32>

====================Graph Node====================
Node: view_330
Type: OpType.ReshapeType
Arguments: ['view_329', [1, 1, -1, 128]]
Parents: ['view_329']
Children: ['permute_180']
--------------------MLIR OPS--------------------
%2886 = "tosa.reshape"(%2885) <{new_shape = array<i64: 1, 1, 2, 128>}> : (tensor<1x1x256xf32>) -> tensor<1x1x2x128xf32>

====================Graph Node====================
Node: permute_180
Type: OpType.ReshapeType
Arguments: ['view_330', [0, 2, 1, 3]]
Parents: ['view_330']
Children: ['mul_166', 'slice_374', 'slice_375']
--------------------MLIR OPS--------------------
%2887 = "tosa.const"() <{value = dense<[0, 2, 1, 3]> : tensor<4xi32>}> : () -> tensor<4xi32>
%2888 = "tosa.transpose"(%2886, %2887) : (tensor<1x1x2x128xf32>, tensor<4xi32>) -> tensor<1x2x1x128xf32>

====================Graph Node====================
Node: view_331
Type: OpType.ReshapeType
Arguments: ['mul_163', [1, 1536]]
Parents: ['mul_163']
Children: ['addmm_50']
--------------------MLIR OPS--------------------
%2889 = "tosa.reshape"(%2866) <{new_shape = array<i64: 1, 1536>}> : (tensor<1x1x1536xf32>) -> tensor<1x1536xf32>

====================Graph Node====================
Node: permute_181
Type: OpType.ReshapeType
Arguments: ['arg257_1', [1, 0]]
Parents: ['arg257_1']
Children: ['addmm_50']
--------------------MLIR OPS--------------------
%2890 = "tosa.const"() <{value = dense<[1, 0]> : tensor<2xi32>}> : () -> tensor<2xi32>
%2891 = "tosa.transpose"(%arg233, %2890) : (tensor<256x1536xf32>, tensor<2xi32>) -> tensor<1536x256xf32>

====================Graph Node====================
Node: addmm_50
Type: OpType.ReduceType
Arguments: ['arg258_1', 'view_331', 'permute_181']
Parents: ['arg258_1', 'view_331', 'permute_181']
Children: ['view_332']
--------------------MLIR OPS--------------------
%2892 = "arith.constant"() <{value = dense<0.000000e+00> : tensor<1x256xf32>}> : () -> tensor<1x256xf32>
%2893 = "linalg.matmul"(%2889, %2891, %2892) <{cast = #linalg.type_fn<cast_signed>, indexing_maps = [affine_map<(d0, d1, d2) -> (d0, d2)>, affine_map<(d0, d1, d2) -> (d2, d1)>, affine_map<(d0, d1, d2) -> (d0, d1)>], operandSegmentSizes = array<i32: 2, 1>}> ({
^bb0(%arg398: f32, %arg399: f32, %arg400: f32):
  %2896 = "arith.mulf"(%arg398, %arg399) <{fastmath = #arith.fastmath<none>}> : (f32, f32) -> f32
  %2897 = "arith.addf"(%arg400, %2896) <{fastmath = #arith.fastmath<none>}> : (f32, f32) -> f32
  "linalg.yield"(%2897) : (f32) -> ()
}) : (tensor<1x1536xf32>, tensor<1536x256xf32>, tensor<1x256xf32>) -> tensor<1x256xf32>
%2894 = "tosa.reshape"(%arg234) <{new_shape = array<i64: 1, 256>}> : (tensor<256xf32>) -> tensor<1x256xf32>
%2895 = "tosa.add"(%2894, %2893) : (tensor<1x256xf32>, tensor<1x256xf32>) -> tensor<1x256xf32>

====================Graph Node====================
Node: view_332
Type: OpType.ReshapeType
Arguments: ['addmm_50', [1, 1, 256]]
Parents: ['addmm_50']
Children: ['view_333']
--------------------MLIR OPS--------------------
%2896 = "tosa.reshape"(%2895) <{new_shape = array<i64: 1, 1, 256>}> : (tensor<1x256xf32>) -> tensor<1x1x256xf32>

====================Graph Node====================
Node: view_333
Type: OpType.ReshapeType
Arguments: ['view_332', [1, 1, -1, 128]]
Parents: ['view_332']
Children: ['permute_182']
--------------------MLIR OPS--------------------
%2897 = "tosa.reshape"(%2896) <{new_shape = array<i64: 1, 1, 2, 128>}> : (tensor<1x1x256xf32>) -> tensor<1x1x2x128xf32>

====================Graph Node====================
Node: permute_182
Type: OpType.ReshapeType
Arguments: ['view_333', [0, 2, 1, 3]]
Parents: ['view_333']
Children: ['index_put_33']
--------------------MLIR OPS--------------------
%2898 = "tosa.const"() <{value = dense<[0, 2, 1, 3]> : tensor<4xi32>}> : () -> tensor<4xi32>
%2899 = "tosa.transpose"(%2897, %2898) : (tensor<1x1x2x128xf32>, tensor<4xi32>) -> tensor<1x2x1x128xf32>

====================Graph Node====================
Node: unsqueeze_101
Type: OpType.ReshapeType
Arguments: ['mul', 1]
Parents: ['mul']
Children: ['mul_164', 'mul_166']
--------------------MLIR OPS--------------------
%2900 = "tosa.reshape"(%32) <{new_shape = array<i64: 1, 1, 1, 128>}> : (tensor<1x1x128xf32>) -> tensor<1x1x1x128xf32>

====================Graph Node====================
Node: unsqueeze_102
Type: OpType.ReshapeType
Arguments: ['mul_1', 1]
Parents: ['mul_1']
Children: ['mul_165', 'mul_167']
--------------------MLIR OPS--------------------
%2901 = "tosa.reshape"(%36) <{new_shape = array<i64: 1, 1, 1, 128>}> : (tensor<1x1x128xf32>) -> tensor<1x1x1x128xf32>

====================Graph Node====================
Node: mul_164
Type: OpType.BroadcastType
Arguments: ['permute_178', 'unsqueeze_101']
Parents: ['permute_178', 'unsqueeze_101']
Children: ['add_98']
--------------------MLIR OPS--------------------
%2902 = "tosa.mul"(%2877, %2900) : (tensor<1x12x1x128xf32>, tensor<1x1x1x128xf32>) -> tensor<1x12x1x128xf32>

====================Graph Node====================
Node: slice_372
Type: OpType.ReshapeType
Arguments: ['permute_178', 3, 0, 64]
Parents: ['permute_178']
Children: ['cat_32']
--------------------MLIR OPS--------------------
%2903 = "tensor.extract_slice"(%2877) <{operandSegmentSizes = array<i32: 1, 0, 0, 0>, static_offsets = array<i64: 0, 0, 0, 0>, static_sizes = array<i64: 1, 12, 1, 64>, static_strides = array<i64: 1, 1, 1, 1>}> : (tensor<1x12x1x128xf32>) -> tensor<1x12x1x64xf32>

====================Graph Node====================
Node: slice_373
Type: OpType.ReshapeType
Arguments: ['permute_178', 3, 64, 9223372036854775807]
Parents: ['permute_178']
Children: ['neg_32']
--------------------MLIR OPS--------------------
%2904 = "tensor.extract_slice"(%2877) <{operandSegmentSizes = array<i32: 1, 0, 0, 0>, static_offsets = array<i64: 0, 0, 0, 64>, static_sizes = array<i64: 1, 12, 1, 64>, static_strides = array<i64: 1, 1, 1, 1>}> : (tensor<1x12x1x128xf32>) -> tensor<1x12x1x64xf32>

====================Graph Node====================
Node: neg_32
Type: OpType.ElementwiseType
Arguments: ['slice_373']
Parents: ['slice_373']
Children: ['cat_32']
--------------------MLIR OPS--------------------
%2905 = "tensor.empty"() : () -> tensor<1x12x1x64xf32>
%2906 = "linalg.negf"(%2904, %2905) <{operandSegmentSizes = array<i32: 1, 1>}> ({
^bb0(%arg398: f32, %arg399: f32):
  %2907 = "arith.negf"(%arg398) <{fastmath = #arith.fastmath<none>}> : (f32) -> f32
  "linalg.yield"(%2907) : (f32) -> ()
}) : (tensor<1x12x1x64xf32>, tensor<1x12x1x64xf32>) -> tensor<1x12x1x64xf32>

====================Graph Node====================
Node: cat_32
Type: OpType.ConcatType
Arguments: [[neg_32, slice_372], -1]
Parents: []
Children: ['mul_165']
--------------------MLIR OPS--------------------
%2907 = "tensor.empty"() : () -> tensor<1x12x1x128xf32>
%2908 = "tensor.insert_slice"(%2906, %2907) <{operandSegmentSizes = array<i32: 1, 1, 0, 0, 0>, static_offsets = array<i64: 0, 0, 0, 0>, static_sizes = array<i64: 1, 12, 1, 64>, static_strides = array<i64: 1, 1, 1, 1>}> : (tensor<1x12x1x64xf32>, tensor<1x12x1x128xf32>) -> tensor<1x12x1x128xf32>
%2909 = "tensor.insert_slice"(%2903, %2908) <{operandSegmentSizes = array<i32: 1, 1, 0, 0, 0>, static_offsets = array<i64: 0, 0, 0, 64>, static_sizes = array<i64: 1, 12, 1, 64>, static_strides = array<i64: 1, 1, 1, 1>}> : (tensor<1x12x1x64xf32>, tensor<1x12x1x128xf32>) -> tensor<1x12x1x128xf32>

====================Graph Node====================
Node: mul_165
Type: OpType.BroadcastType
Arguments: ['cat_32', 'unsqueeze_102']
Parents: ['cat_32', 'unsqueeze_102']
Children: ['add_98']
--------------------MLIR OPS--------------------
%2910 = "tosa.mul"(%2909, %2901) : (tensor<1x12x1x128xf32>, tensor<1x1x1x128xf32>) -> tensor<1x12x1x128xf32>

====================Graph Node====================
Node: add_98
Type: OpType.BroadcastType
Arguments: ['mul_164', 'mul_165']
Parents: ['mul_164', 'mul_165']
Children: ['_scaled_dot_product_flash_attention_for_cpu_16']
--------------------MLIR OPS--------------------
%2911 = "tosa.add"(%2902, %2910) : (tensor<1x12x1x128xf32>, tensor<1x12x1x128xf32>) -> tensor<1x12x1x128xf32>

====================Graph Node====================
Node: mul_166
Type: OpType.BroadcastType
Arguments: ['permute_180', 'unsqueeze_101']
Parents: ['permute_180', 'unsqueeze_101']
Children: ['add_99']
--------------------MLIR OPS--------------------
%2912 = "tosa.mul"(%2888, %2900) : (tensor<1x2x1x128xf32>, tensor<1x1x1x128xf32>) -> tensor<1x2x1x128xf32>

====================Graph Node====================
Node: slice_374
Type: OpType.ReshapeType
Arguments: ['permute_180', 3, 0, 64]
Parents: ['permute_180']
Children: ['cat_33']
--------------------MLIR OPS--------------------
%2913 = "tensor.extract_slice"(%2888) <{operandSegmentSizes = array<i32: 1, 0, 0, 0>, static_offsets = array<i64: 0, 0, 0, 0>, static_sizes = array<i64: 1, 2, 1, 64>, static_strides = array<i64: 1, 1, 1, 1>}> : (tensor<1x2x1x128xf32>) -> tensor<1x2x1x64xf32>

====================Graph Node====================
Node: slice_375
Type: OpType.ReshapeType
Arguments: ['permute_180', 3, 64, 9223372036854775807]
Parents: ['permute_180']
Children: ['neg_33']
--------------------MLIR OPS--------------------
%2914 = "tensor.extract_slice"(%2888) <{operandSegmentSizes = array<i32: 1, 0, 0, 0>, static_offsets = array<i64: 0, 0, 0, 64>, static_sizes = array<i64: 1, 2, 1, 64>, static_strides = array<i64: 1, 1, 1, 1>}> : (tensor<1x2x1x128xf32>) -> tensor<1x2x1x64xf32>

====================Graph Node====================
Node: neg_33
Type: OpType.ElementwiseType
Arguments: ['slice_375']
Parents: ['slice_375']
Children: ['cat_33']
--------------------MLIR OPS--------------------
%2915 = "tensor.empty"() : () -> tensor<1x2x1x64xf32>
%2916 = "linalg.negf"(%2914, %2915) <{operandSegmentSizes = array<i32: 1, 1>}> ({
^bb0(%arg398: f32, %arg399: f32):
  %2917 = "arith.negf"(%arg398) <{fastmath = #arith.fastmath<none>}> : (f32) -> f32
  "linalg.yield"(%2917) : (f32) -> ()
}) : (tensor<1x2x1x64xf32>, tensor<1x2x1x64xf32>) -> tensor<1x2x1x64xf32>

====================Graph Node====================
Node: cat_33
Type: OpType.ConcatType
Arguments: [[neg_33, slice_374], -1]
Parents: []
Children: ['mul_167']
--------------------MLIR OPS--------------------
%2917 = "tensor.empty"() : () -> tensor<1x2x1x128xf32>
%2918 = "tensor.insert_slice"(%2916, %2917) <{operandSegmentSizes = array<i32: 1, 1, 0, 0, 0>, static_offsets = array<i64: 0, 0, 0, 0>, static_sizes = array<i64: 1, 2, 1, 64>, static_strides = array<i64: 1, 1, 1, 1>}> : (tensor<1x2x1x64xf32>, tensor<1x2x1x128xf32>) -> tensor<1x2x1x128xf32>
%2919 = "tensor.insert_slice"(%2913, %2918) <{operandSegmentSizes = array<i32: 1, 1, 0, 0, 0>, static_offsets = array<i64: 0, 0, 0, 64>, static_sizes = array<i64: 1, 2, 1, 64>, static_strides = array<i64: 1, 1, 1, 1>}> : (tensor<1x2x1x64xf32>, tensor<1x2x1x128xf32>) -> tensor<1x2x1x128xf32>

====================Graph Node====================
Node: mul_167
Type: OpType.BroadcastType
Arguments: ['cat_33', 'unsqueeze_102']
Parents: ['cat_33', 'unsqueeze_102']
Children: ['add_99']
--------------------MLIR OPS--------------------
%2920 = "tosa.mul"(%2919, %2901) : (tensor<1x2x1x128xf32>, tensor<1x1x1x128xf32>) -> tensor<1x2x1x128xf32>

====================Graph Node====================
Node: add_99
Type: OpType.BroadcastType
Arguments: ['mul_166', 'mul_167']
Parents: ['mul_166', 'mul_167']
Children: ['index_put_32']
--------------------MLIR OPS--------------------
%2921 = "tosa.add"(%2912, %2920) : (tensor<1x2x1x128xf32>, tensor<1x2x1x128xf32>) -> tensor<1x2x1x128xf32>

====================Graph Node====================
Node: index_put_32
Type: OpType.ElementwiseType
Arguments: ['arg32_1', [None, None, arg58_1], 'add_99']
Parents: ['arg32_1', 'add_99']
Children: ['slice_380', 'output']
--------------------MLIR OPS--------------------
%2922 = "bufferization.to_memref"(%arg235) : (tensor<1x2x1024x128xf32>) -> memref<1x2x1024x128xf32>
%2923 = "bufferization.to_memref"(%arg2) : (tensor<1xi64>) -> memref<1xi64>
%2924 = "bufferization.to_memref"(%2921) : (tensor<1x2x1x128xf32>) -> memref<1x2x1x128xf32>
%2925 = "arith.constant"() <{value = 0 : index}> : () -> index
%2926 = "arith.constant"() <{value = 1 : index}> : () -> index
%2927 = "arith.constant"() <{value = 1 : index}> : () -> index
%2928 = "arith.constant"() <{value = 2 : index}> : () -> index
%2929 = "arith.constant"() <{value = 1 : index}> : () -> index
%2930 = "arith.constant"() <{value = 128 : index}> : () -> index
"scf.for"(%2925, %2927, %2926) ({
^bb0(%arg398: index):
  "scf.for"(%2925, %2928, %2926) ({
  ^bb0(%arg399: index):
    "scf.for"(%2925, %2929, %2926) ({
    ^bb0(%arg400: index):
      %2932 = "memref.load"(%2923, %arg400) : (memref<1xi64>, index) -> i64
      %2933 = "arith.index_cast"(%2932) : (i64) -> index
      "scf.for"(%2925, %2930, %2926) ({
      ^bb0(%arg401: index):
        %2934 = "memref.load"(%2924, %arg398, %arg399, %arg400, %arg401) : (memref<1x2x1x128xf32>, index, index, index, index) -> f32
        "memref.store"(%2934, %2922, %arg398, %arg399, %2933, %arg401) : (f32, memref<1x2x1024x128xf32>, index, index, index, index) -> ()
        "scf.yield"() : () -> ()
      }) : (index, index, index) -> ()
      "scf.yield"() : () -> ()
    }) : (index, index, index) -> ()
    "scf.yield"() : () -> ()
  }) : (index, index, index) -> ()
  "scf.yield"() : () -> ()
}) : (index, index, index) -> ()
%2931 = "bufferization.to_tensor"(%2922) <{restrict}> : (memref<1x2x1024x128xf32>) -> tensor<1x2x1024x128xf32>

====================Graph Node====================
Node: index_put_33
Type: OpType.ElementwiseType
Arguments: ['arg33_1', [None, None, arg58_1], 'permute_182']
Parents: ['arg33_1', 'permute_182']
Children: ['slice_388', 'output']
--------------------MLIR OPS--------------------
%2932 = "bufferization.to_memref"(%arg236) : (tensor<1x2x1024x128xf32>) -> memref<1x2x1024x128xf32>
%2933 = "bufferization.to_memref"(%arg2) : (tensor<1xi64>) -> memref<1xi64>
%2934 = "bufferization.to_memref"(%2899) : (tensor<1x2x1x128xf32>) -> memref<1x2x1x128xf32>
%2935 = "arith.constant"() <{value = 0 : index}> : () -> index
%2936 = "arith.constant"() <{value = 1 : index}> : () -> index
%2937 = "arith.constant"() <{value = 1 : index}> : () -> index
%2938 = "arith.constant"() <{value = 2 : index}> : () -> index
%2939 = "arith.constant"() <{value = 1 : index}> : () -> index
%2940 = "arith.constant"() <{value = 128 : index}> : () -> index
"scf.for"(%2935, %2937, %2936) ({
^bb0(%arg398: index):
  "scf.for"(%2935, %2938, %2936) ({
  ^bb0(%arg399: index):
    "scf.for"(%2935, %2939, %2936) ({
    ^bb0(%arg400: index):
      %2942 = "memref.load"(%2933, %arg400) : (memref<1xi64>, index) -> i64
      %2943 = "arith.index_cast"(%2942) : (i64) -> index
      "scf.for"(%2935, %2940, %2936) ({
      ^bb0(%arg401: index):
        %2944 = "memref.load"(%2934, %arg398, %arg399, %arg400, %arg401) : (memref<1x2x1x128xf32>, index, index, index, index) -> f32
        "memref.store"(%2944, %2932, %arg398, %arg399, %2943, %arg401) : (f32, memref<1x2x1024x128xf32>, index, index, index, index) -> ()
        "scf.yield"() : () -> ()
      }) : (index, index, index) -> ()
      "scf.yield"() : () -> ()
    }) : (index, index, index) -> ()
    "scf.yield"() : () -> ()
  }) : (index, index, index) -> ()
  "scf.yield"() : () -> ()
}) : (index, index, index) -> ()
%2941 = "bufferization.to_tensor"(%2932) <{restrict}> : (memref<1x2x1024x128xf32>) -> tensor<1x2x1024x128xf32>

====================Graph Node====================
Node: slice_380
Type: OpType.ReshapeType
Arguments: ['index_put_32', 0, 0, 9223372036854775807]
Parents: ['index_put_32']
Children: ['slice_381']
--------------------MLIR OPS--------------------

====================Graph Node====================
Node: slice_381
Type: OpType.ReshapeType
Arguments: ['slice_380', 1, 0, 9223372036854775807]
Parents: ['slice_380']
Children: ['unsqueeze_104']
--------------------MLIR OPS--------------------

====================Graph Node====================
Node: unsqueeze_104
Type: OpType.ReshapeType
Arguments: ['slice_381', 2]
Parents: ['slice_381']
Children: ['slice_382']
--------------------MLIR OPS--------------------
%2942 = "tosa.reshape"(%2931) <{new_shape = array<i64: 1, 2, 1, 1024, 128>}> : (tensor<1x2x1024x128xf32>) -> tensor<1x2x1x1024x128xf32>

====================Graph Node====================
Node: slice_382
Type: OpType.ReshapeType
Arguments: ['unsqueeze_104', 3, 0, 9223372036854775807]
Parents: ['unsqueeze_104']
Children: ['slice_383']
--------------------MLIR OPS--------------------

====================Graph Node====================
Node: slice_383
Type: OpType.ReshapeType
Arguments: ['slice_382', 4, 0, 9223372036854775807]
Parents: ['slice_382']
Children: ['expand_71']
--------------------MLIR OPS--------------------

====================Graph Node====================
Node: expand_71
Type: OpType.ReshapeType
Arguments: ['slice_383', [1, 2, 6, 1024, 128]]
Parents: ['slice_383']
Children: ['clone_34']
--------------------MLIR OPS--------------------
%2943 = "tosa.const"() <{value = dense<0.000000e+00> : tensor<1x2x6x1024x128xf32>}> : () -> tensor<1x2x6x1024x128xf32>
%2944 = "tosa.add"(%2942, %2943) : (tensor<1x2x1x1024x128xf32>, tensor<1x2x6x1024x128xf32>) -> tensor<1x2x6x1024x128xf32>

====================Graph Node====================
Node: clone_34
Type: OpType.ReduceType
Arguments: ['expand_71']
Parents: ['expand_71']
Children: ['view_334']
--------------------MLIR OPS--------------------

====================Graph Node====================
Node: view_334
Type: OpType.ReshapeType
Arguments: ['clone_34', [1, 12, 1024, 128]]
Parents: ['clone_34']
Children: ['_scaled_dot_product_flash_attention_for_cpu_16']
--------------------MLIR OPS--------------------
%2945 = "tosa.reshape"(%2944) <{new_shape = array<i64: 1, 12, 1024, 128>}> : (tensor<1x2x6x1024x128xf32>) -> tensor<1x12x1024x128xf32>

====================Graph Node====================
Node: slice_388
Type: OpType.ReshapeType
Arguments: ['index_put_33', 0, 0, 9223372036854775807]
Parents: ['index_put_33']
Children: ['slice_389']
--------------------MLIR OPS--------------------

====================Graph Node====================
Node: slice_389
Type: OpType.ReshapeType
Arguments: ['slice_388', 1, 0, 9223372036854775807]
Parents: ['slice_388']
Children: ['unsqueeze_106']
--------------------MLIR OPS--------------------

====================Graph Node====================
Node: unsqueeze_106
Type: OpType.ReshapeType
Arguments: ['slice_389', 2]
Parents: ['slice_389']
Children: ['slice_390']
--------------------MLIR OPS--------------------
%2946 = "tosa.reshape"(%2941) <{new_shape = array<i64: 1, 2, 1, 1024, 128>}> : (tensor<1x2x1024x128xf32>) -> tensor<1x2x1x1024x128xf32>

====================Graph Node====================
Node: slice_390
Type: OpType.ReshapeType
Arguments: ['unsqueeze_106', 3, 0, 9223372036854775807]
Parents: ['unsqueeze_106']
Children: ['slice_391']
--------------------MLIR OPS--------------------

====================Graph Node====================
Node: slice_391
Type: OpType.ReshapeType
Arguments: ['slice_390', 4, 0, 9223372036854775807]
Parents: ['slice_390']
Children: ['expand_73']
--------------------MLIR OPS--------------------

====================Graph Node====================
Node: expand_73
Type: OpType.ReshapeType
Arguments: ['slice_391', [1, 2, 6, 1024, 128]]
Parents: ['slice_391']
Children: ['clone_35']
--------------------MLIR OPS--------------------
%2947 = "tosa.const"() <{value = dense<0.000000e+00> : tensor<1x2x6x1024x128xf32>}> : () -> tensor<1x2x6x1024x128xf32>
%2948 = "tosa.add"(%2946, %2947) : (tensor<1x2x1x1024x128xf32>, tensor<1x2x6x1024x128xf32>) -> tensor<1x2x6x1024x128xf32>

====================Graph Node====================
Node: clone_35
Type: OpType.ReduceType
Arguments: ['expand_73']
Parents: ['expand_73']
Children: ['view_335']
--------------------MLIR OPS--------------------

====================Graph Node====================
Node: view_335
Type: OpType.ReshapeType
Arguments: ['clone_35', [1, 12, 1024, 128]]
Parents: ['clone_35']
Children: ['_scaled_dot_product_flash_attention_for_cpu_16']
--------------------MLIR OPS--------------------
%2949 = "tosa.reshape"(%2948) <{new_shape = array<i64: 1, 12, 1024, 128>}> : (tensor<1x2x6x1024x128xf32>) -> tensor<1x12x1024x128xf32>

====================Graph Node====================
Node: slice_392
Type: OpType.ReshapeType
Arguments: ['expand_1', 0, 0, 9223372036854775807]
Parents: ['expand_1']
Children: ['slice_393']
--------------------MLIR OPS--------------------
%2950 = "tosa.reshape"(%17) <{new_shape = array<i64: 1, 1, 1, 1024>}> : (tensor<1x1024xi1>) -> tensor<1x1x1x1024xi1>

====================Graph Node====================
Node: slice_393
Type: OpType.ReshapeType
Arguments: ['slice_392', 1, 0, 9223372036854775807]
Parents: ['slice_392']
Children: ['slice_394']
--------------------MLIR OPS--------------------

====================Graph Node====================
Node: slice_394
Type: OpType.ReshapeType
Arguments: ['slice_393', 2, 0, 9223372036854775807]
Parents: ['slice_393']
Children: ['where_16']
--------------------MLIR OPS--------------------

====================Graph Node====================
Node: scalar_tensor_32
Type: OpType.PlaceholderType
Arguments: [-inf]
Parents: []
Children: ['where_16']
--------------------MLIR OPS--------------------
%2951 = "arith.constant"() <{value = 0xFF800000 : f32}> : () -> f32

====================Graph Node====================
Node: scalar_tensor_33
Type: OpType.PlaceholderType
Arguments: [0.0]
Parents: []
Children: ['where_16']
--------------------MLIR OPS--------------------
%2952 = "arith.constant"() <{value = 0.000000e+00 : f32}> : () -> f32

====================Graph Node====================
Node: where_16
Type: OpType.ElementwiseType
Arguments: ['slice_394', 'scalar_tensor_33', 'scalar_tensor_32']
Parents: ['slice_394', 'scalar_tensor_33', 'scalar_tensor_32']
Children: ['_scaled_dot_product_flash_attention_for_cpu_16']
--------------------MLIR OPS--------------------
%2953 = "tensor.empty"() : () -> tensor<1x1x1x1024xf32>
%2954 = "tensor.splat"(%2952) : (f32) -> tensor<1x1x1x1024xf32>
%2955 = "tensor.splat"(%2951) : (f32) -> tensor<1x1x1x1024xf32>
%2956 = "linalg.generic"(%2950, %2954, %2955, %2953) <{indexing_maps = [affine_map<(d0, d1, d2, d3) -> (d0, d1, d2, d3)>, affine_map<(d0, d1, d2, d3) -> (d0, d1, d2, d3)>, affine_map<(d0, d1, d2, d3) -> (d0, d1, d2, d3)>, affine_map<(d0, d1, d2, d3) -> (d0, d1, d2, d3)>], iterator_types = [#linalg.iterator_type<parallel>, #linalg.iterator_type<parallel>, #linalg.iterator_type<parallel>, #linalg.iterator_type<parallel>], operandSegmentSizes = array<i32: 3, 1>}> ({
^bb0(%arg398: i1, %arg399: f32, %arg400: f32, %arg401: f32):
  %2957 = "arith.select"(%arg398, %arg399, %arg400) : (i1, f32, f32) -> f32
  "linalg.yield"(%2957) : (f32) -> ()
}) : (tensor<1x1x1x1024xi1>, tensor<1x1x1x1024xf32>, tensor<1x1x1x1024xf32>, tensor<1x1x1x1024xf32>) -> tensor<1x1x1x1024xf32>

====================Graph Node====================
Node: _scaled_dot_product_flash_attention_for_cpu_16
Type: OpType.ElementwiseType
Arguments: ['add_98', 'view_334', 'view_335']
Parents: ['add_98', 'view_334', 'view_335']
Children: ['getitem_32']
--------------------MLIR OPS--------------------
%2957 = "arith.constant"() <{value = 0.000000e+00 : f32}> : () -> f32
%2958 = "tensor.splat"(%2957) : (f32) -> tensor<1x1024xf32>
%2959 = "tosa.reshape"(%2956) <{new_shape = array<i64: 1, 1024>}> : (tensor<1x1x1x1024xf32>) -> tensor<1x1024xf32>
%2960 = "tosa.add"(%2958, %2959) : (tensor<1x1024xf32>, tensor<1x1024xf32>) -> tensor<1x1024xf32>
%2961 = "tosa.const"() <{value = dense<[0, 1, 3, 2]> : tensor<4xi32>}> : () -> tensor<4xi32>
%2962 = "tosa.transpose"(%2945, %2961) : (tensor<1x12x1024x128xf32>, tensor<4xi32>) -> tensor<1x12x128x1024xf32>
%2963 = "tosa.reshape"(%2911) <{new_shape = array<i64: 12, 1, 128>}> : (tensor<1x12x1x128xf32>) -> tensor<12x1x128xf32>
%2964 = "tosa.reshape"(%2962) <{new_shape = array<i64: 12, 128, 1024>}> : (tensor<1x12x128x1024xf32>) -> tensor<12x128x1024xf32>
%2965 = "tosa.matmul"(%2963, %2964) : (tensor<12x1x128xf32>, tensor<12x128x1024xf32>) -> tensor<12x1x1024xf32>
%2966 = "arith.constant"() <{value = 0.0883883461 : f32}> : () -> f32
%2967 = "tensor.splat"(%2966) : (f32) -> tensor<12x1x1024xf32>
%2968 = "tosa.mul"(%2965, %2967) : (tensor<12x1x1024xf32>, tensor<12x1x1024xf32>) -> tensor<12x1x1024xf32>
%2969 = "tosa.reshape"(%2960) <{new_shape = array<i64: 1, 1, 1024>}> : (tensor<1x1024xf32>) -> tensor<1x1x1024xf32>
%2970 = "tosa.add"(%2968, %2969) : (tensor<12x1x1024xf32>, tensor<1x1x1024xf32>) -> tensor<12x1x1024xf32>
%2971 = "tosa.reduce_max"(%2970) <{axis = 2 : i32, nan_mode = "PROPAGATE"}> : (tensor<12x1x1024xf32>) -> tensor<12x1x1xf32>
%2972 = "tosa.sub"(%2970, %2971) : (tensor<12x1x1024xf32>, tensor<12x1x1xf32>) -> tensor<12x1x1024xf32>
%2973 = "math.exp"(%2972) <{fastmath = #arith.fastmath<none>}> : (tensor<12x1x1024xf32>) -> tensor<12x1x1024xf32>
%2974 = "tosa.reduce_sum"(%2973) <{axis = 2 : i32}> : (tensor<12x1x1024xf32>) -> tensor<12x1x1xf32>
%2975 = "tosa.log"(%2974) : (tensor<12x1x1xf32>) -> tensor<12x1x1xf32>
%2976 = "tosa.add"(%2971, %2975) : (tensor<12x1x1xf32>, tensor<12x1x1xf32>) -> tensor<12x1x1xf32>
%2977 = "tosa.sub"(%2970, %2976) : (tensor<12x1x1024xf32>, tensor<12x1x1xf32>) -> tensor<12x1x1024xf32>
%2978 = "math.exp"(%2977) <{fastmath = #arith.fastmath<none>}> : (tensor<12x1x1024xf32>) -> tensor<12x1x1024xf32>
%2979 = "tosa.reshape"(%2976) <{new_shape = array<i64: 1, 12, 1>}> : (tensor<12x1x1xf32>) -> tensor<1x12x1xf32>
%2980 = "tosa.reshape"(%2949) <{new_shape = array<i64: 12, 1024, 128>}> : (tensor<1x12x1024x128xf32>) -> tensor<12x1024x128xf32>
%2981 = "tosa.matmul"(%2978, %2980) : (tensor<12x1x1024xf32>, tensor<12x1024x128xf32>) -> tensor<12x1x128xf32>
%2982 = "tosa.reshape"(%2981) <{new_shape = array<i64: 1, 12, 1, 128>}> : (tensor<12x1x128xf32>) -> tensor<1x12x1x128xf32>

====================Graph Node====================
Node: getitem_32
Type: OpType.GetItemType
Arguments: ['_scaled_dot_product_flash_attention_for_cpu_16', 0]
Parents: ['_scaled_dot_product_flash_attention_for_cpu_16']
Children: ['permute_183']
--------------------MLIR OPS--------------------

====================Graph Node====================
Node: permute_183
Type: OpType.ReshapeType
Arguments: ['getitem_32', [0, 2, 1, 3]]
Parents: ['getitem_32']
Children: ['view_336']
--------------------MLIR OPS--------------------
%2983 = "tosa.const"() <{value = dense<[0, 2, 1, 3]> : tensor<4xi32>}> : () -> tensor<4xi32>
%2984 = "tosa.transpose"(%2982, %2983) : (tensor<1x12x1x128xf32>, tensor<4xi32>) -> tensor<1x1x12x128xf32>

====================Graph Node====================
Node: view_336
Type: OpType.ReshapeType
Arguments: ['permute_183', [1, 1, -1]]
Parents: ['permute_183']
Children: ['view_337']
--------------------MLIR OPS--------------------
%2985 = "tosa.reshape"(%2984) <{new_shape = array<i64: 1, 1, 1536>}> : (tensor<1x1x12x128xf32>) -> tensor<1x1x1536xf32>

====================Graph Node====================
Node: permute_184
Type: OpType.ReshapeType
Arguments: ['arg259_1', [1, 0]]
Parents: ['arg259_1']
Children: ['mm_64']
--------------------MLIR OPS--------------------
%2986 = "tosa.const"() <{value = dense<[1, 0]> : tensor<2xi32>}> : () -> tensor<2xi32>
%2987 = "tosa.transpose"(%arg237, %2986) : (tensor<1536x1536xf32>, tensor<2xi32>) -> tensor<1536x1536xf32>

====================Graph Node====================
Node: view_337
Type: OpType.ReshapeType
Arguments: ['view_336', [1, 1536]]
Parents: ['view_336']
Children: ['mm_64']
--------------------MLIR OPS--------------------
%2988 = "tosa.reshape"(%2985) <{new_shape = array<i64: 1, 1536>}> : (tensor<1x1x1536xf32>) -> tensor<1x1536xf32>

====================Graph Node====================
Node: mm_64
Type: OpType.ReduceType
Arguments: ['view_337', 'permute_184']
Parents: ['view_337', 'permute_184']
Children: ['view_338']
--------------------MLIR OPS--------------------
%2989 = "arith.constant"() <{value = dense<0.000000e+00> : tensor<1x1536xf32>}> : () -> tensor<1x1536xf32>
%2990 = "linalg.matmul"(%2988, %2987, %2989) <{cast = #linalg.type_fn<cast_signed>, indexing_maps = [affine_map<(d0, d1, d2) -> (d0, d2)>, affine_map<(d0, d1, d2) -> (d2, d1)>, affine_map<(d0, d1, d2) -> (d0, d1)>], operandSegmentSizes = array<i32: 2, 1>}> ({
^bb0(%arg398: f32, %arg399: f32, %arg400: f32):
  %2991 = "arith.mulf"(%arg398, %arg399) <{fastmath = #arith.fastmath<none>}> : (f32, f32) -> f32
  %2992 = "arith.addf"(%arg400, %2991) <{fastmath = #arith.fastmath<none>}> : (f32, f32) -> f32
  "linalg.yield"(%2992) : (f32) -> ()
}) : (tensor<1x1536xf32>, tensor<1536x1536xf32>, tensor<1x1536xf32>) -> tensor<1x1536xf32>

====================Graph Node====================
Node: view_338
Type: OpType.ReshapeType
Arguments: ['mm_64', [1, 1, 1536]]
Parents: ['mm_64']
Children: ['add_100']
--------------------MLIR OPS--------------------
%2991 = "tosa.reshape"(%2990) <{new_shape = array<i64: 1, 1, 1536>}> : (tensor<1x1536xf32>) -> tensor<1x1x1536xf32>

====================Graph Node====================
Node: add_100
Type: OpType.BroadcastType
Arguments: ['add_96', 'view_338']
Parents: ['add_96', 'view_338']
Children: ['pow_34', 'mul_168', 'add_102']
--------------------MLIR OPS--------------------
%2992 = "tosa.add"(%2852, %2991) : (tensor<1x1x1536xf32>, tensor<1x1x1536xf32>) -> tensor<1x1x1536xf32>

====================Graph Node====================
Node: pow_34
Type: OpType.BroadcastType
Arguments: ['add_100', 2]
Parents: ['add_100']
Children: ['mean_33']
--------------------MLIR OPS--------------------
%2993 = "tensor.empty"() : () -> tensor<1x1x1536xf32>
%2994 = "arith.constant"() <{value = 2 : i32}> : () -> i32
%2995 = "linalg.generic"(%2992, %2993) <{indexing_maps = [affine_map<(d0, d1, d2) -> (d0, d1, d2)>, affine_map<(d0, d1, d2) -> (d0, d1, d2)>], iterator_types = [#linalg.iterator_type<parallel>, #linalg.iterator_type<parallel>, #linalg.iterator_type<parallel>], operandSegmentSizes = array<i32: 1, 1>}> ({
^bb0(%arg398: f32, %arg399: f32):
  %2996 = "math.fpowi"(%arg398, %2994) <{fastmath = #arith.fastmath<none>}> : (f32, i32) -> f32
  "linalg.yield"(%2996) : (f32) -> ()
}) : (tensor<1x1x1536xf32>, tensor<1x1x1536xf32>) -> tensor<1x1x1536xf32>

====================Graph Node====================
Node: mean_33
Type: OpType.ReduceType
Arguments: ['pow_34', [-1], True]
Parents: ['pow_34']
Children: ['add_101']
--------------------MLIR OPS--------------------
%2996 = "tosa.reduce_sum"(%2995) <{axis = 2 : i32}> : (tensor<1x1x1536xf32>) -> tensor<1x1x1xf32>
%2997 = "tosa.const"() <{value = dense<1.536000e+03> : tensor<1xf32>}> : () -> tensor<1xf32>
%2998 = "tosa.reciprocal"(%2997) : (tensor<1xf32>) -> tensor<1xf32>
%2999 = "tosa.reshape"(%2998) <{new_shape = array<i64: 1, 1, 1>}> : (tensor<1xf32>) -> tensor<1x1x1xf32>
%3000 = "tosa.mul"(%2999, %2996) : (tensor<1x1x1xf32>, tensor<1x1x1xf32>) -> tensor<1x1x1xf32>

====================Graph Node====================
Node: add_101
Type: OpType.BroadcastType
Arguments: ['mean_33', 1e-06]
Parents: ['mean_33']
Children: ['rsqrt_33']
--------------------MLIR OPS--------------------
%3001 = "tosa.const"() <{value = dense<9.99999997E-7> : tensor<1x1x1xf32>}> : () -> tensor<1x1x1xf32>
%3002 = "tosa.add"(%3000, %3001) : (tensor<1x1x1xf32>, tensor<1x1x1xf32>) -> tensor<1x1x1xf32>

====================Graph Node====================
Node: rsqrt_33
Type: OpType.ElementwiseType
Arguments: ['add_101']
Parents: ['add_101']
Children: ['mul_168']
--------------------MLIR OPS--------------------
%3003 = "tosa.rsqrt"(%3002) : (tensor<1x1x1xf32>) -> tensor<1x1x1xf32>

====================Graph Node====================
Node: mul_168
Type: OpType.BroadcastType
Arguments: ['add_100', 'rsqrt_33']
Parents: ['add_100', 'rsqrt_33']
Children: ['mul_169']
--------------------MLIR OPS--------------------
%3004 = "tosa.mul"(%2992, %3003) : (tensor<1x1x1536xf32>, tensor<1x1x1xf32>) -> tensor<1x1x1536xf32>

====================Graph Node====================
Node: mul_169
Type: OpType.BroadcastType
Arguments: ['arg260_1', 'mul_168']
Parents: ['arg260_1', 'mul_168']
Children: ['view_339', 'view_341']
--------------------MLIR OPS--------------------
%3005 = "tosa.reshape"(%arg238) <{new_shape = array<i64: 1, 1, 1536>}> : (tensor<1536xf32>) -> tensor<1x1x1536xf32>
%3006 = "tosa.mul"(%3005, %3004) : (tensor<1x1x1536xf32>, tensor<1x1x1536xf32>) -> tensor<1x1x1536xf32>

====================Graph Node====================
Node: permute_185
Type: OpType.ReshapeType
Arguments: ['arg261_1', [1, 0]]
Parents: ['arg261_1']
Children: ['mm_65']
--------------------MLIR OPS--------------------
%3007 = "tosa.const"() <{value = dense<[1, 0]> : tensor<2xi32>}> : () -> tensor<2xi32>