====================Graph Node====================
Node: arg1_1
Type: OpType.PlaceholderType
Arguments: []
Parents: []
Children: []
--------------------MLIR OPS--------------------

====================Graph Node====================
Node: arg0_1
Type: OpType.PlaceholderType
Arguments: []
Parents: []
Children: []
--------------------MLIR OPS--------------------

====================Graph Node====================
Node: arg2_1
Type: OpType.PlaceholderType
Arguments: []
Parents: []
Children: []
--------------------MLIR OPS--------------------

====================Graph Node====================
Node: arg3_1
Type: OpType.PlaceholderType
Arguments: []
Parents: []
Children: []
--------------------MLIR OPS--------------------

====================Graph Node====================
Node: arg4_1
Type: OpType.PlaceholderType
Arguments: []
Parents: []
Children: []
--------------------MLIR OPS--------------------

====================Graph Node====================
Node: arg5_1
Type: OpType.PlaceholderType
Arguments: []
Parents: []
Children: []
--------------------MLIR OPS--------------------

====================Graph Node====================
Node: arg6_1
Type: OpType.PlaceholderType
Arguments: []
Parents: []
Children: []
--------------------MLIR OPS--------------------

====================Graph Node====================
Node: arg7_1
Type: OpType.PlaceholderType
Arguments: []
Parents: []
Children: []
--------------------MLIR OPS--------------------

====================Graph Node====================
Node: arg8_1
Type: OpType.PlaceholderType
Arguments: []
Parents: []
Children: []
--------------------MLIR OPS--------------------

====================Graph Node====================
Node: arg9_1
Type: OpType.PlaceholderType
Arguments: []
Parents: []
Children: []
--------------------MLIR OPS--------------------

====================Graph Node====================
Node: arg10_1
Type: OpType.PlaceholderType
Arguments: []
Parents: []
Children: []
--------------------MLIR OPS--------------------

====================Graph Node====================
Node: arg11_1
Type: OpType.PlaceholderType
Arguments: []
Parents: []
Children: []
--------------------MLIR OPS--------------------

====================Graph Node====================
Node: arg12_1
Type: OpType.PlaceholderType
Arguments: []
Parents: []
Children: []
--------------------MLIR OPS--------------------

====================Graph Node====================
Node: arg13_1
Type: OpType.PlaceholderType
Arguments: []
Parents: []
Children: []
--------------------MLIR OPS--------------------

====================Graph Node====================
Node: arg14_1
Type: OpType.PlaceholderType
Arguments: []
Parents: []
Children: []
--------------------MLIR OPS--------------------

====================Graph Node====================
Node: arg15_1
Type: OpType.PlaceholderType
Arguments: []
Parents: []
Children: []
--------------------MLIR OPS--------------------

====================Graph Node====================
Node: arg16_1
Type: OpType.PlaceholderType
Arguments: []
Parents: []
Children: []
--------------------MLIR OPS--------------------

====================Graph Node====================
Node: arg17_1
Type: OpType.PlaceholderType
Arguments: []
Parents: []
Children: []
--------------------MLIR OPS--------------------

====================Graph Node====================
Node: arg18_1
Type: OpType.PlaceholderType
Arguments: []
Parents: []
Children: []
--------------------MLIR OPS--------------------

====================Graph Node====================
Node: arg19_1
Type: OpType.PlaceholderType
Arguments: []
Parents: []
Children: []
--------------------MLIR OPS--------------------

====================Graph Node====================
Node: arg20_1
Type: OpType.PlaceholderType
Arguments: []
Parents: []
Children: []
--------------------MLIR OPS--------------------

====================Graph Node====================
Node: arg21_1
Type: OpType.PlaceholderType
Arguments: []
Parents: []
Children: []
--------------------MLIR OPS--------------------

====================Graph Node====================
Node: arg22_1
Type: OpType.PlaceholderType
Arguments: []
Parents: []
Children: []
--------------------MLIR OPS--------------------

====================Graph Node====================
Node: arg23_1
Type: OpType.PlaceholderType
Arguments: []
Parents: []
Children: []
--------------------MLIR OPS--------------------

====================Graph Node====================
Node: arg24_1
Type: OpType.PlaceholderType
Arguments: []
Parents: []
Children: []
--------------------MLIR OPS--------------------

====================Graph Node====================
Node: arg25_1
Type: OpType.PlaceholderType
Arguments: []
Parents: []
Children: []
--------------------MLIR OPS--------------------

====================Graph Node====================
Node: arg26_1
Type: OpType.PlaceholderType
Arguments: []
Parents: []
Children: []
--------------------MLIR OPS--------------------

====================Graph Node====================
Node: arg27_1
Type: OpType.PlaceholderType
Arguments: []
Parents: []
Children: []
--------------------MLIR OPS--------------------

====================Graph Node====================
Node: arg28_1
Type: OpType.PlaceholderType
Arguments: []
Parents: []
Children: []
--------------------MLIR OPS--------------------

====================Graph Node====================
Node: arg29_1
Type: OpType.PlaceholderType
Arguments: []
Parents: []
Children: []
--------------------MLIR OPS--------------------

====================Graph Node====================
Node: arg30_1
Type: OpType.PlaceholderType
Arguments: []
Parents: []
Children: []
--------------------MLIR OPS--------------------

====================Graph Node====================
Node: arg31_1
Type: OpType.PlaceholderType
Arguments: []
Parents: []
Children: []
--------------------MLIR OPS--------------------

====================Graph Node====================
Node: arg32_1
Type: OpType.PlaceholderType
Arguments: []
Parents: []
Children: []
--------------------MLIR OPS--------------------

====================Graph Node====================
Node: arg33_1
Type: OpType.PlaceholderType
Arguments: []
Parents: []
Children: []
--------------------MLIR OPS--------------------

====================Graph Node====================
Node: arg34_1
Type: OpType.PlaceholderType
Arguments: []
Parents: []
Children: []
--------------------MLIR OPS--------------------

====================Graph Node====================
Node: arg35_1
Type: OpType.PlaceholderType
Arguments: []
Parents: []
Children: []
--------------------MLIR OPS--------------------

====================Graph Node====================
Node: arg36_1
Type: OpType.PlaceholderType
Arguments: []
Parents: []
Children: []
--------------------MLIR OPS--------------------

====================Graph Node====================
Node: arg37_1
Type: OpType.PlaceholderType
Arguments: []
Parents: []
Children: []
--------------------MLIR OPS--------------------

====================Graph Node====================
Node: arg38_1
Type: OpType.PlaceholderType
Arguments: []
Parents: []
Children: []
--------------------MLIR OPS--------------------

====================Graph Node====================
Node: arg39_1
Type: OpType.PlaceholderType
Arguments: []
Parents: []
Children: []
--------------------MLIR OPS--------------------

====================Graph Node====================
Node: arg40_1
Type: OpType.PlaceholderType
Arguments: []
Parents: []
Children: []
--------------------MLIR OPS--------------------

====================Graph Node====================
Node: arg41_1
Type: OpType.PlaceholderType
Arguments: []
Parents: []
Children: []
--------------------MLIR OPS--------------------

====================Graph Node====================
Node: arg42_1
Type: OpType.PlaceholderType
Arguments: []
Parents: []
Children: []
--------------------MLIR OPS--------------------

====================Graph Node====================
Node: arg43_1
Type: OpType.PlaceholderType
Arguments: []
Parents: []
Children: []
--------------------MLIR OPS--------------------

====================Graph Node====================
Node: arg44_1
Type: OpType.PlaceholderType
Arguments: []
Parents: []
Children: []
--------------------MLIR OPS--------------------

====================Graph Node====================
Node: arg45_1
Type: OpType.PlaceholderType
Arguments: []
Parents: []
Children: []
--------------------MLIR OPS--------------------

====================Graph Node====================
Node: arg46_1
Type: OpType.PlaceholderType
Arguments: []
Parents: []
Children: []
--------------------MLIR OPS--------------------

====================Graph Node====================
Node: arg47_1
Type: OpType.PlaceholderType
Arguments: []
Parents: []
Children: []
--------------------MLIR OPS--------------------

====================Graph Node====================
Node: arg48_1
Type: OpType.PlaceholderType
Arguments: []
Parents: []
Children: []
--------------------MLIR OPS--------------------

====================Graph Node====================
Node: arg49_1
Type: OpType.PlaceholderType
Arguments: []
Parents: []
Children: []
--------------------MLIR OPS--------------------

====================Graph Node====================
Node: arg50_1
Type: OpType.PlaceholderType
Arguments: []
Parents: []
Children: []
--------------------MLIR OPS--------------------

====================Graph Node====================
Node: arg51_1
Type: OpType.PlaceholderType
Arguments: []
Parents: []
Children: []
--------------------MLIR OPS--------------------

====================Graph Node====================
Node: arg52_1
Type: OpType.PlaceholderType
Arguments: []
Parents: []
Children: []
--------------------MLIR OPS--------------------

====================Graph Node====================
Node: arg53_1
Type: OpType.PlaceholderType
Arguments: []
Parents: []
Children: []
--------------------MLIR OPS--------------------

====================Graph Node====================
Node: arg54_1
Type: OpType.PlaceholderType
Arguments: []
Parents: []
Children: []
--------------------MLIR OPS--------------------

====================Graph Node====================
Node: arg55_1
Type: OpType.PlaceholderType
Arguments: []
Parents: []
Children: []
--------------------MLIR OPS--------------------

====================Graph Node====================
Node: arg56_1
Type: OpType.PlaceholderType
Arguments: []
Parents: []
Children: []
--------------------MLIR OPS--------------------

====================Graph Node====================
Node: arg57_1
Type: OpType.PlaceholderType
Arguments: []
Parents: []
Children: []
--------------------MLIR OPS--------------------

====================Graph Node====================
Node: arg58_1
Type: OpType.PlaceholderType
Arguments: []
Parents: []
Children: []
--------------------MLIR OPS--------------------

====================Graph Node====================
Node: arg59_1
Type: OpType.PlaceholderType
Arguments: []
Parents: []
Children: []
--------------------MLIR OPS--------------------

====================Graph Node====================
Node: arg60_1
Type: OpType.PlaceholderType
Arguments: []
Parents: []
Children: []
--------------------MLIR OPS--------------------

====================Graph Node====================
Node: arg61_1
Type: OpType.PlaceholderType
Arguments: []
Parents: []
Children: []
--------------------MLIR OPS--------------------

====================Graph Node====================
Node: arg62_1
Type: OpType.PlaceholderType
Arguments: []
Parents: []
Children: []
--------------------MLIR OPS--------------------

====================Graph Node====================
Node: arg63_1
Type: OpType.PlaceholderType
Arguments: []
Parents: []
Children: []
--------------------MLIR OPS--------------------

====================Graph Node====================
Node: arg64_1
Type: OpType.PlaceholderType
Arguments: []
Parents: []
Children: []
--------------------MLIR OPS--------------------

====================Graph Node====================
Node: arg65_1
Type: OpType.PlaceholderType
Arguments: []
Parents: []
Children: []
--------------------MLIR OPS--------------------

====================Graph Node====================
Node: arg66_1
Type: OpType.PlaceholderType
Arguments: []
Parents: []
Children: []
--------------------MLIR OPS--------------------

====================Graph Node====================
Node: arg67_1
Type: OpType.PlaceholderType
Arguments: []
Parents: []
Children: []
--------------------MLIR OPS--------------------

====================Graph Node====================
Node: arg68_1
Type: OpType.PlaceholderType
Arguments: []
Parents: []
Children: []
--------------------MLIR OPS--------------------

====================Graph Node====================
Node: arg69_1
Type: OpType.PlaceholderType
Arguments: []
Parents: []
Children: []
--------------------MLIR OPS--------------------

====================Graph Node====================
Node: arg70_1
Type: OpType.PlaceholderType
Arguments: []
Parents: []
Children: []
--------------------MLIR OPS--------------------

====================Graph Node====================
Node: arg71_1
Type: OpType.PlaceholderType
Arguments: []
Parents: []
Children: []
--------------------MLIR OPS--------------------

====================Graph Node====================
Node: arg72_1
Type: OpType.PlaceholderType
Arguments: []
Parents: []
Children: []
--------------------MLIR OPS--------------------

====================Graph Node====================
Node: arg73_1
Type: OpType.PlaceholderType
Arguments: []
Parents: []
Children: []
--------------------MLIR OPS--------------------

====================Graph Node====================
Node: arg74_1
Type: OpType.PlaceholderType
Arguments: []
Parents: []
Children: []
--------------------MLIR OPS--------------------

====================Graph Node====================
Node: arg75_1
Type: OpType.PlaceholderType
Arguments: []
Parents: []
Children: []
--------------------MLIR OPS--------------------

====================Graph Node====================
Node: arg76_1
Type: OpType.PlaceholderType
Arguments: []
Parents: []
Children: []
--------------------MLIR OPS--------------------

====================Graph Node====================
Node: arg77_1
Type: OpType.PlaceholderType
Arguments: []
Parents: []
Children: []
--------------------MLIR OPS--------------------

====================Graph Node====================
Node: arg78_1
Type: OpType.PlaceholderType
Arguments: []
Parents: []
Children: []
--------------------MLIR OPS--------------------

====================Graph Node====================
Node: arg79_1
Type: OpType.PlaceholderType
Arguments: []
Parents: []
Children: []
--------------------MLIR OPS--------------------

====================Graph Node====================
Node: arg80_1
Type: OpType.PlaceholderType
Arguments: []
Parents: []
Children: []
--------------------MLIR OPS--------------------

====================Graph Node====================
Node: arg81_1
Type: OpType.PlaceholderType
Arguments: []
Parents: []
Children: []
--------------------MLIR OPS--------------------

====================Graph Node====================
Node: arg82_1
Type: OpType.PlaceholderType
Arguments: []
Parents: []
Children: []
--------------------MLIR OPS--------------------

====================Graph Node====================
Node: arg83_1
Type: OpType.PlaceholderType
Arguments: []
Parents: []
Children: []
--------------------MLIR OPS--------------------

====================Graph Node====================
Node: arg84_1
Type: OpType.PlaceholderType
Arguments: []
Parents: []
Children: []
--------------------MLIR OPS--------------------

====================Graph Node====================
Node: arg85_1
Type: OpType.PlaceholderType
Arguments: []
Parents: []
Children: []
--------------------MLIR OPS--------------------

====================Graph Node====================
Node: arg86_1
Type: OpType.PlaceholderType
Arguments: []
Parents: []
Children: []
--------------------MLIR OPS--------------------

====================Graph Node====================
Node: arg87_1
Type: OpType.PlaceholderType
Arguments: []
Parents: []
Children: []
--------------------MLIR OPS--------------------

====================Graph Node====================
Node: arg88_1
Type: OpType.PlaceholderType
Arguments: []
Parents: []
Children: []
--------------------MLIR OPS--------------------

====================Graph Node====================
Node: arg89_1
Type: OpType.PlaceholderType
Arguments: []
Parents: []
Children: []
--------------------MLIR OPS--------------------

====================Graph Node====================
Node: arg90_1
Type: OpType.PlaceholderType
Arguments: []
Parents: []
Children: []
--------------------MLIR OPS--------------------

====================Graph Node====================
Node: arg91_1
Type: OpType.PlaceholderType
Arguments: []
Parents: []
Children: []
--------------------MLIR OPS--------------------

====================Graph Node====================
Node: arg92_1
Type: OpType.PlaceholderType
Arguments: []
Parents: []
Children: []
--------------------MLIR OPS--------------------

====================Graph Node====================
Node: arg93_1
Type: OpType.PlaceholderType
Arguments: []
Parents: []
Children: []
--------------------MLIR OPS--------------------

====================Graph Node====================
Node: arg94_1
Type: OpType.PlaceholderType
Arguments: []
Parents: []
Children: []
--------------------MLIR OPS--------------------

====================Graph Node====================
Node: arg95_1
Type: OpType.PlaceholderType
Arguments: []
Parents: []
Children: []
--------------------MLIR OPS--------------------

====================Graph Node====================
Node: arg96_1
Type: OpType.PlaceholderType
Arguments: []
Parents: []
Children: []
--------------------MLIR OPS--------------------

====================Graph Node====================
Node: arg97_1
Type: OpType.PlaceholderType
Arguments: []
Parents: []
Children: []
--------------------MLIR OPS--------------------

====================Graph Node====================
Node: arg98_1
Type: OpType.PlaceholderType
Arguments: []
Parents: []
Children: []
--------------------MLIR OPS--------------------

====================Graph Node====================
Node: arg99_1
Type: OpType.PlaceholderType
Arguments: []
Parents: []
Children: []
--------------------MLIR OPS--------------------

====================Graph Node====================
Node: arg100_1
Type: OpType.PlaceholderType
Arguments: []
Parents: []
Children: []
--------------------MLIR OPS--------------------

====================Graph Node====================
Node: arg101_1
Type: OpType.PlaceholderType
Arguments: []
Parents: []
Children: []
--------------------MLIR OPS--------------------

====================Graph Node====================
Node: arg102_1
Type: OpType.PlaceholderType
Arguments: []
Parents: []
Children: []
--------------------MLIR OPS--------------------

====================Graph Node====================
Node: arg103_1
Type: OpType.PlaceholderType
Arguments: []
Parents: []
Children: []
--------------------MLIR OPS--------------------

====================Graph Node====================
Node: arg104_1
Type: OpType.PlaceholderType
Arguments: []
Parents: []
Children: []
--------------------MLIR OPS--------------------

====================Graph Node====================
Node: arg105_1
Type: OpType.PlaceholderType
Arguments: []
Parents: []
Children: []
--------------------MLIR OPS--------------------

====================Graph Node====================
Node: arg106_1
Type: OpType.PlaceholderType
Arguments: []
Parents: []
Children: []
--------------------MLIR OPS--------------------

====================Graph Node====================
Node: arg107_1
Type: OpType.PlaceholderType
Arguments: []
Parents: []
Children: []
--------------------MLIR OPS--------------------

====================Graph Node====================
Node: arg108_1
Type: OpType.PlaceholderType
Arguments: []
Parents: []
Children: []
--------------------MLIR OPS--------------------

====================Graph Node====================
Node: arg109_1
Type: OpType.PlaceholderType
Arguments: []
Parents: []
Children: []
--------------------MLIR OPS--------------------

====================Graph Node====================
Node: arg110_1
Type: OpType.PlaceholderType
Arguments: []
Parents: []
Children: []
--------------------MLIR OPS--------------------

====================Graph Node====================
Node: arg111_1
Type: OpType.PlaceholderType
Arguments: []
Parents: []
Children: []
--------------------MLIR OPS--------------------

====================Graph Node====================
Node: arg112_1
Type: OpType.PlaceholderType
Arguments: []
Parents: []
Children: []
--------------------MLIR OPS--------------------

====================Graph Node====================
Node: arg113_1
Type: OpType.PlaceholderType
Arguments: []
Parents: []
Children: []
--------------------MLIR OPS--------------------

====================Graph Node====================
Node: arg114_1
Type: OpType.PlaceholderType
Arguments: []
Parents: []
Children: []
--------------------MLIR OPS--------------------

====================Graph Node====================
Node: arg115_1
Type: OpType.PlaceholderType
Arguments: []
Parents: []
Children: []
--------------------MLIR OPS--------------------

====================Graph Node====================
Node: arg116_1
Type: OpType.PlaceholderType
Arguments: []
Parents: []
Children: []
--------------------MLIR OPS--------------------

====================Graph Node====================
Node: arg117_1
Type: OpType.PlaceholderType
Arguments: []
Parents: []
Children: []
--------------------MLIR OPS--------------------

====================Graph Node====================
Node: arg118_1
Type: OpType.PlaceholderType
Arguments: []
Parents: []
Children: []
--------------------MLIR OPS--------------------

====================Graph Node====================
Node: arg119_1
Type: OpType.PlaceholderType
Arguments: []
Parents: []
Children: []
--------------------MLIR OPS--------------------

====================Graph Node====================
Node: arg120_1
Type: OpType.PlaceholderType
Arguments: []
Parents: []
Children: []
--------------------MLIR OPS--------------------

====================Graph Node====================
Node: arg121_1
Type: OpType.PlaceholderType
Arguments: []
Parents: []
Children: []
--------------------MLIR OPS--------------------

====================Graph Node====================
Node: arg122_1
Type: OpType.PlaceholderType
Arguments: []
Parents: []
Children: []
--------------------MLIR OPS--------------------

====================Graph Node====================
Node: arg123_1
Type: OpType.PlaceholderType
Arguments: []
Parents: []
Children: []
--------------------MLIR OPS--------------------

====================Graph Node====================
Node: arg124_1
Type: OpType.PlaceholderType
Arguments: []
Parents: []
Children: []
--------------------MLIR OPS--------------------

====================Graph Node====================
Node: arg125_1
Type: OpType.PlaceholderType
Arguments: []
Parents: []
Children: []
--------------------MLIR OPS--------------------

====================Graph Node====================
Node: arg126_1
Type: OpType.PlaceholderType
Arguments: []
Parents: []
Children: []
--------------------MLIR OPS--------------------

====================Graph Node====================
Node: arg127_1
Type: OpType.PlaceholderType
Arguments: []
Parents: []
Children: []
--------------------MLIR OPS--------------------

====================Graph Node====================
Node: arg128_1
Type: OpType.PlaceholderType
Arguments: []
Parents: []
Children: []
--------------------MLIR OPS--------------------

====================Graph Node====================
Node: arg129_1
Type: OpType.PlaceholderType
Arguments: []
Parents: []
Children: []
--------------------MLIR OPS--------------------

====================Graph Node====================
Node: arg130_1
Type: OpType.PlaceholderType
Arguments: []
Parents: []
Children: []
--------------------MLIR OPS--------------------

====================Graph Node====================
Node: arg131_1
Type: OpType.PlaceholderType
Arguments: []
Parents: []
Children: []
--------------------MLIR OPS--------------------

====================Graph Node====================
Node: arg132_1
Type: OpType.PlaceholderType
Arguments: []
Parents: []
Children: []
--------------------MLIR OPS--------------------

====================Graph Node====================
Node: arg133_1
Type: OpType.PlaceholderType
Arguments: []
Parents: []
Children: []
--------------------MLIR OPS--------------------

====================Graph Node====================
Node: arg134_1
Type: OpType.PlaceholderType
Arguments: []
Parents: []
Children: []
--------------------MLIR OPS--------------------

====================Graph Node====================
Node: arg135_1
Type: OpType.PlaceholderType
Arguments: []
Parents: []
Children: []
--------------------MLIR OPS--------------------

====================Graph Node====================
Node: arg136_1
Type: OpType.PlaceholderType
Arguments: []
Parents: []
Children: []
--------------------MLIR OPS--------------------

====================Graph Node====================
Node: arg137_1
Type: OpType.PlaceholderType
Arguments: []
Parents: []
Children: []
--------------------MLIR OPS--------------------

====================Graph Node====================
Node: arg138_1
Type: OpType.PlaceholderType
Arguments: []
Parents: []
Children: []
--------------------MLIR OPS--------------------

====================Graph Node====================
Node: arg139_1
Type: OpType.PlaceholderType
Arguments: []
Parents: []
Children: []
--------------------MLIR OPS--------------------

====================Graph Node====================
Node: arg140_1
Type: OpType.PlaceholderType
Arguments: []
Parents: []
Children: []
--------------------MLIR OPS--------------------

====================Graph Node====================
Node: arg141_1
Type: OpType.PlaceholderType
Arguments: []
Parents: []
Children: []
--------------------MLIR OPS--------------------

====================Graph Node====================
Node: arg142_1
Type: OpType.PlaceholderType
Arguments: []
Parents: []
Children: []
--------------------MLIR OPS--------------------

====================Graph Node====================
Node: arg143_1
Type: OpType.PlaceholderType
Arguments: []
Parents: []
Children: []
--------------------MLIR OPS--------------------

====================Graph Node====================
Node: arg144_1
Type: OpType.PlaceholderType
Arguments: []
Parents: []
Children: []
--------------------MLIR OPS--------------------

====================Graph Node====================
Node: arg145_1
Type: OpType.PlaceholderType
Arguments: []
Parents: []
Children: []
--------------------MLIR OPS--------------------

====================Graph Node====================
Node: arg146_1
Type: OpType.PlaceholderType
Arguments: []
Parents: []
Children: []
--------------------MLIR OPS--------------------

====================Graph Node====================
Node: arg147_1
Type: OpType.PlaceholderType
Arguments: []
Parents: []
Children: []
--------------------MLIR OPS--------------------

====================Graph Node====================
Node: arg148_1
Type: OpType.PlaceholderType
Arguments: []
Parents: []
Children: []
--------------------MLIR OPS--------------------

====================Graph Node====================
Node: arg149_1
Type: OpType.PlaceholderType
Arguments: []
Parents: []
Children: []
--------------------MLIR OPS--------------------

====================Graph Node====================
Node: arg150_1
Type: OpType.PlaceholderType
Arguments: []
Parents: []
Children: []
--------------------MLIR OPS--------------------

====================Graph Node====================
Node: arg151_1
Type: OpType.PlaceholderType
Arguments: []
Parents: []
Children: []
--------------------MLIR OPS--------------------

====================Graph Node====================
Node: arg152_1
Type: OpType.PlaceholderType
Arguments: []
Parents: []
Children: []
--------------------MLIR OPS--------------------

====================Graph Node====================
Node: arg153_1
Type: OpType.PlaceholderType
Arguments: []
Parents: []
Children: []
--------------------MLIR OPS--------------------

====================Graph Node====================
Node: arg154_1
Type: OpType.PlaceholderType
Arguments: []
Parents: []
Children: []
--------------------MLIR OPS--------------------

====================Graph Node====================
Node: arg155_1
Type: OpType.PlaceholderType
Arguments: []
Parents: []
Children: []
--------------------MLIR OPS--------------------

====================Graph Node====================
Node: arg156_1
Type: OpType.PlaceholderType
Arguments: []
Parents: []
Children: []
--------------------MLIR OPS--------------------

====================Graph Node====================
Node: arg157_1
Type: OpType.PlaceholderType
Arguments: []
Parents: []
Children: []
--------------------MLIR OPS--------------------

====================Graph Node====================
Node: arg158_1
Type: OpType.PlaceholderType
Arguments: []
Parents: []
Children: []
--------------------MLIR OPS--------------------

====================Graph Node====================
Node: arg159_1
Type: OpType.PlaceholderType
Arguments: []
Parents: []
Children: []
--------------------MLIR OPS--------------------

====================Graph Node====================
Node: arg160_1
Type: OpType.PlaceholderType
Arguments: []
Parents: []
Children: []
--------------------MLIR OPS--------------------

====================Graph Node====================
Node: arg161_1
Type: OpType.PlaceholderType
Arguments: []
Parents: []
Children: []
--------------------MLIR OPS--------------------

====================Graph Node====================
Node: arg162_1
Type: OpType.PlaceholderType
Arguments: []
Parents: []
Children: []
--------------------MLIR OPS--------------------

====================Graph Node====================
Node: arg163_1
Type: OpType.PlaceholderType
Arguments: []
Parents: []
Children: []
--------------------MLIR OPS--------------------

====================Graph Node====================
Node: arg164_1
Type: OpType.PlaceholderType
Arguments: []
Parents: []
Children: []
--------------------MLIR OPS--------------------

====================Graph Node====================
Node: arg165_1
Type: OpType.PlaceholderType
Arguments: []
Parents: []
Children: []
--------------------MLIR OPS--------------------

====================Graph Node====================
Node: arg166_1
Type: OpType.PlaceholderType
Arguments: []
Parents: []
Children: []
--------------------MLIR OPS--------------------

====================Graph Node====================
Node: arg167_1
Type: OpType.PlaceholderType
Arguments: []
Parents: []
Children: []
--------------------MLIR OPS--------------------

====================Graph Node====================
Node: arg168_1
Type: OpType.PlaceholderType
Arguments: []
Parents: []
Children: []
--------------------MLIR OPS--------------------

====================Graph Node====================
Node: arg169_1
Type: OpType.PlaceholderType
Arguments: []
Parents: []
Children: []
--------------------MLIR OPS--------------------

====================Graph Node====================
Node: arg170_1
Type: OpType.PlaceholderType
Arguments: []
Parents: []
Children: []
--------------------MLIR OPS--------------------

====================Graph Node====================
Node: arg171_1
Type: OpType.PlaceholderType
Arguments: []
Parents: []
Children: []
--------------------MLIR OPS--------------------

====================Graph Node====================
Node: arg172_1
Type: OpType.PlaceholderType
Arguments: []
Parents: []
Children: []
--------------------MLIR OPS--------------------

====================Graph Node====================
Node: arg173_1
Type: OpType.PlaceholderType
Arguments: []
Parents: []
Children: []
--------------------MLIR OPS--------------------

====================Graph Node====================
Node: arg174_1
Type: OpType.PlaceholderType
Arguments: []
Parents: []
Children: []
--------------------MLIR OPS--------------------

====================Graph Node====================
Node: arg175_1
Type: OpType.PlaceholderType
Arguments: []
Parents: []
Children: []
--------------------MLIR OPS--------------------

====================Graph Node====================
Node: arg176_1
Type: OpType.PlaceholderType
Arguments: []
Parents: []
Children: []
--------------------MLIR OPS--------------------

====================Graph Node====================
Node: arg177_1
Type: OpType.PlaceholderType
Arguments: []
Parents: []
Children: []
--------------------MLIR OPS--------------------

====================Graph Node====================
Node: arg178_1
Type: OpType.PlaceholderType
Arguments: []
Parents: []
Children: []
--------------------MLIR OPS--------------------

====================Graph Node====================
Node: arg179_1
Type: OpType.PlaceholderType
Arguments: []
Parents: []
Children: []
--------------------MLIR OPS--------------------

====================Graph Node====================
Node: arg180_1
Type: OpType.PlaceholderType
Arguments: []
Parents: []
Children: []
--------------------MLIR OPS--------------------

====================Graph Node====================
Node: arg181_1
Type: OpType.PlaceholderType
Arguments: []
Parents: []
Children: []
--------------------MLIR OPS--------------------

====================Graph Node====================
Node: arg182_1
Type: OpType.PlaceholderType
Arguments: []
Parents: []
Children: []
--------------------MLIR OPS--------------------

====================Graph Node====================
Node: arg183_1
Type: OpType.PlaceholderType
Arguments: []
Parents: []
Children: []
--------------------MLIR OPS--------------------

====================Graph Node====================
Node: arg184_1
Type: OpType.PlaceholderType
Arguments: []
Parents: []
Children: []
--------------------MLIR OPS--------------------

====================Graph Node====================
Node: arg185_1
Type: OpType.PlaceholderType
Arguments: []
Parents: []
Children: []
--------------------MLIR OPS--------------------

====================Graph Node====================
Node: arg186_1
Type: OpType.PlaceholderType
Arguments: []
Parents: []
Children: []
--------------------MLIR OPS--------------------

====================Graph Node====================
Node: arg187_1
Type: OpType.PlaceholderType
Arguments: []
Parents: []
Children: []
--------------------MLIR OPS--------------------

====================Graph Node====================
Node: arg188_1
Type: OpType.PlaceholderType
Arguments: []
Parents: []
Children: []
--------------------MLIR OPS--------------------

====================Graph Node====================
Node: arg189_1
Type: OpType.PlaceholderType
Arguments: []
Parents: []
Children: []
--------------------MLIR OPS--------------------

====================Graph Node====================
Node: arg190_1
Type: OpType.PlaceholderType
Arguments: []
Parents: []
Children: []
--------------------MLIR OPS--------------------

====================Graph Node====================
Node: arg191_1
Type: OpType.PlaceholderType
Arguments: []
Parents: []
Children: []
--------------------MLIR OPS--------------------

====================Graph Node====================
Node: arg192_1
Type: OpType.PlaceholderType
Arguments: []
Parents: []
Children: []
--------------------MLIR OPS--------------------

====================Graph Node====================
Node: arg193_1
Type: OpType.PlaceholderType
Arguments: []
Parents: []
Children: []
--------------------MLIR OPS--------------------

====================Graph Node====================
Node: arg194_1
Type: OpType.PlaceholderType
Arguments: []
Parents: []
Children: []
--------------------MLIR OPS--------------------

====================Graph Node====================
Node: arg195_1
Type: OpType.PlaceholderType
Arguments: []
Parents: []
Children: []
--------------------MLIR OPS--------------------

====================Graph Node====================
Node: arg196_1
Type: OpType.PlaceholderType
Arguments: []
Parents: []
Children: []
--------------------MLIR OPS--------------------

====================Graph Node====================
Node: arg197_1
Type: OpType.PlaceholderType
Arguments: []
Parents: []
Children: []
--------------------MLIR OPS--------------------

====================Graph Node====================
Node: arg198_1
Type: OpType.PlaceholderType
Arguments: []
Parents: []
Children: []
--------------------MLIR OPS--------------------

====================Graph Node====================
Node: arg199_1
Type: OpType.PlaceholderType
Arguments: []
Parents: []
Children: []
--------------------MLIR OPS--------------------

====================Graph Node====================
Node: arg200_1
Type: OpType.PlaceholderType
Arguments: []
Parents: []
Children: []
--------------------MLIR OPS--------------------

====================Graph Node====================
Node: arg201_1
Type: OpType.PlaceholderType
Arguments: []
Parents: []
Children: []
--------------------MLIR OPS--------------------

====================Graph Node====================
Node: arg202_1
Type: OpType.PlaceholderType
Arguments: []
Parents: []
Children: []
--------------------MLIR OPS--------------------

====================Graph Node====================
Node: arg203_1
Type: OpType.PlaceholderType
Arguments: []
Parents: []
Children: []
--------------------MLIR OPS--------------------

====================Graph Node====================
Node: arg204_1
Type: OpType.PlaceholderType
Arguments: []
Parents: []
Children: []
--------------------MLIR OPS--------------------

====================Graph Node====================
Node: arg205_1
Type: OpType.PlaceholderType
Arguments: []
Parents: []
Children: []
--------------------MLIR OPS--------------------

====================Graph Node====================
Node: arg206_1
Type: OpType.PlaceholderType
Arguments: []
Parents: []
Children: []
--------------------MLIR OPS--------------------

====================Graph Node====================
Node: arg207_1
Type: OpType.PlaceholderType
Arguments: []
Parents: []
Children: []
--------------------MLIR OPS--------------------

====================Graph Node====================
Node: arg208_1
Type: OpType.PlaceholderType
Arguments: []
Parents: []
Children: []
--------------------MLIR OPS--------------------

====================Graph Node====================
Node: arg209_1
Type: OpType.PlaceholderType
Arguments: []
Parents: []
Children: []
--------------------MLIR OPS--------------------

====================Graph Node====================
Node: arg210_1
Type: OpType.PlaceholderType
Arguments: []
Parents: []
Children: []
--------------------MLIR OPS--------------------

====================Graph Node====================
Node: arg211_1
Type: OpType.PlaceholderType
Arguments: []
Parents: []
Children: []
--------------------MLIR OPS--------------------

====================Graph Node====================
Node: arg212_1
Type: OpType.PlaceholderType
Arguments: []
Parents: []
Children: []
--------------------MLIR OPS--------------------

====================Graph Node====================
Node: arg213_1
Type: OpType.PlaceholderType
Arguments: []
Parents: []
Children: []
--------------------MLIR OPS--------------------

====================Graph Node====================
Node: arg214_1
Type: OpType.PlaceholderType
Arguments: []
Parents: []
Children: []
--------------------MLIR OPS--------------------

====================Graph Node====================
Node: arg215_1
Type: OpType.PlaceholderType
Arguments: []
Parents: []
Children: []
--------------------MLIR OPS--------------------

====================Graph Node====================
Node: arg216_1
Type: OpType.PlaceholderType
Arguments: []
Parents: []
Children: []
--------------------MLIR OPS--------------------

====================Graph Node====================
Node: arg217_1
Type: OpType.PlaceholderType
Arguments: []
Parents: []
Children: []
--------------------MLIR OPS--------------------

====================Graph Node====================
Node: arg218_1
Type: OpType.PlaceholderType
Arguments: []
Parents: []
Children: []
--------------------MLIR OPS--------------------

====================Graph Node====================
Node: arg219_1
Type: OpType.PlaceholderType
Arguments: []
Parents: []
Children: []
--------------------MLIR OPS--------------------

====================Graph Node====================
Node: arg220_1
Type: OpType.PlaceholderType
Arguments: []
Parents: []
Children: []
--------------------MLIR OPS--------------------

====================Graph Node====================
Node: arg221_1
Type: OpType.PlaceholderType
Arguments: []
Parents: []
Children: []
--------------------MLIR OPS--------------------

====================Graph Node====================
Node: arg222_1
Type: OpType.PlaceholderType
Arguments: []
Parents: []
Children: []
--------------------MLIR OPS--------------------

====================Graph Node====================
Node: arg223_1
Type: OpType.PlaceholderType
Arguments: []
Parents: []
Children: []
--------------------MLIR OPS--------------------

====================Graph Node====================
Node: arg224_1
Type: OpType.PlaceholderType
Arguments: []
Parents: []
Children: []
--------------------MLIR OPS--------------------

====================Graph Node====================
Node: arg225_1
Type: OpType.PlaceholderType
Arguments: []
Parents: []
Children: []
--------------------MLIR OPS--------------------

====================Graph Node====================
Node: arg226_1
Type: OpType.PlaceholderType
Arguments: []
Parents: []
Children: []
--------------------MLIR OPS--------------------

====================Graph Node====================
Node: arg227_1
Type: OpType.PlaceholderType
Arguments: []
Parents: []
Children: []
--------------------MLIR OPS--------------------

====================Graph Node====================
Node: arg228_1
Type: OpType.PlaceholderType
Arguments: []
Parents: []
Children: []
--------------------MLIR OPS--------------------

====================Graph Node====================
Node: arg229_1
Type: OpType.PlaceholderType
Arguments: []
Parents: []
Children: []
--------------------MLIR OPS--------------------

====================Graph Node====================
Node: arg230_1
Type: OpType.PlaceholderType
Arguments: []
Parents: []
Children: []
--------------------MLIR OPS--------------------

====================Graph Node====================
Node: arg231_1
Type: OpType.PlaceholderType
Arguments: []
Parents: []
Children: []
--------------------MLIR OPS--------------------

====================Graph Node====================
Node: arg232_1
Type: OpType.PlaceholderType
Arguments: []
Parents: []
Children: []
--------------------MLIR OPS--------------------

====================Graph Node====================
Node: arg233_1
Type: OpType.PlaceholderType
Arguments: []
Parents: []
Children: []
--------------------MLIR OPS--------------------

====================Graph Node====================
Node: arg234_1
Type: OpType.PlaceholderType
Arguments: []
Parents: []
Children: []
--------------------MLIR OPS--------------------

====================Graph Node====================
Node: arg235_1
Type: OpType.PlaceholderType
Arguments: []
Parents: []
Children: []
--------------------MLIR OPS--------------------

====================Graph Node====================
Node: arg236_1
Type: OpType.PlaceholderType
Arguments: []
Parents: []
Children: []
--------------------MLIR OPS--------------------

====================Graph Node====================
Node: arg237_1
Type: OpType.PlaceholderType
Arguments: []
Parents: []
Children: []
--------------------MLIR OPS--------------------

====================Graph Node====================
Node: arg238_1
Type: OpType.PlaceholderType
Arguments: []
Parents: []
Children: []
--------------------MLIR OPS--------------------

====================Graph Node====================
Node: arg239_1
Type: OpType.PlaceholderType
Arguments: []
Parents: []
Children: []
--------------------MLIR OPS--------------------

====================Graph Node====================
Node: arg240_1
Type: OpType.PlaceholderType
Arguments: []
Parents: []
Children: []
--------------------MLIR OPS--------------------

====================Graph Node====================
Node: arg241_1
Type: OpType.PlaceholderType
Arguments: []
Parents: []
Children: []
--------------------MLIR OPS--------------------

====================Graph Node====================
Node: arg242_1
Type: OpType.PlaceholderType
Arguments: []
Parents: []
Children: []
--------------------MLIR OPS--------------------

====================Graph Node====================
Node: arg243_1
Type: OpType.PlaceholderType
Arguments: []
Parents: []
Children: []
--------------------MLIR OPS--------------------

====================Graph Node====================
Node: arg244_1
Type: OpType.PlaceholderType
Arguments: []
Parents: []
Children: []
--------------------MLIR OPS--------------------

====================Graph Node====================
Node: arg245_1
Type: OpType.PlaceholderType
Arguments: []
Parents: []
Children: []
--------------------MLIR OPS--------------------

====================Graph Node====================
Node: arg246_1
Type: OpType.PlaceholderType
Arguments: []
Parents: []
Children: []
--------------------MLIR OPS--------------------

====================Graph Node====================
Node: arg247_1
Type: OpType.PlaceholderType
Arguments: []
Parents: []
Children: []
--------------------MLIR OPS--------------------

====================Graph Node====================
Node: arg248_1
Type: OpType.PlaceholderType
Arguments: []
Parents: []
Children: []
--------------------MLIR OPS--------------------

====================Graph Node====================
Node: arg249_1
Type: OpType.PlaceholderType
Arguments: []
Parents: []
Children: []
--------------------MLIR OPS--------------------

====================Graph Node====================
Node: arg250_1
Type: OpType.PlaceholderType
Arguments: []
Parents: []
Children: []
--------------------MLIR OPS--------------------

====================Graph Node====================
Node: arg251_1
Type: OpType.PlaceholderType
Arguments: []
Parents: []
Children: []
--------------------MLIR OPS--------------------

====================Graph Node====================
Node: arg252_1
Type: OpType.PlaceholderType
Arguments: []
Parents: []
Children: []
--------------------MLIR OPS--------------------

====================Graph Node====================
Node: arg253_1
Type: OpType.PlaceholderType
Arguments: []
Parents: []
Children: []
--------------------MLIR OPS--------------------

====================Graph Node====================
Node: arg254_1
Type: OpType.PlaceholderType
Arguments: []
Parents: []
Children: []
--------------------MLIR OPS--------------------

====================Graph Node====================
Node: arg255_1
Type: OpType.PlaceholderType
Arguments: []
Parents: []
Children: []
--------------------MLIR OPS--------------------

====================Graph Node====================
Node: arg256_1
Type: OpType.PlaceholderType
Arguments: []
Parents: []
Children: []
--------------------MLIR OPS--------------------

====================Graph Node====================
Node: arg257_1
Type: OpType.PlaceholderType
Arguments: []
Parents: []
Children: []
--------------------MLIR OPS--------------------

====================Graph Node====================
Node: arg258_1
Type: OpType.PlaceholderType
Arguments: []
Parents: []
Children: []
--------------------MLIR OPS--------------------

====================Graph Node====================
Node: arg259_1
Type: OpType.PlaceholderType
Arguments: []
Parents: []
Children: []
--------------------MLIR OPS--------------------

====================Graph Node====================
Node: arg260_1
Type: OpType.PlaceholderType
Arguments: []
Parents: []
Children: []
--------------------MLIR OPS--------------------

====================Graph Node====================
Node: arg261_1
Type: OpType.PlaceholderType
Arguments: []
Parents: []
Children: []
--------------------MLIR OPS--------------------

====================Graph Node====================
Node: arg262_1
Type: OpType.PlaceholderType
Arguments: []
Parents: []
Children: []
--------------------MLIR OPS--------------------

====================Graph Node====================
Node: arg263_1
Type: OpType.PlaceholderType
Arguments: []
Parents: []
Children: []
--------------------MLIR OPS--------------------

====================Graph Node====================
Node: arg264_1
Type: OpType.PlaceholderType
Arguments: []
Parents: []
Children: []
--------------------MLIR OPS--------------------

====================Graph Node====================
Node: arg265_1
Type: OpType.PlaceholderType
Arguments: []
Parents: []
Children: []
--------------------MLIR OPS--------------------

====================Graph Node====================
Node: arg266_1
Type: OpType.PlaceholderType
Arguments: []
Parents: []
Children: []
--------------------MLIR OPS--------------------

====================Graph Node====================
Node: arg267_1
Type: OpType.PlaceholderType
Arguments: []
Parents: []
Children: []
--------------------MLIR OPS--------------------

====================Graph Node====================
Node: arg268_1
Type: OpType.PlaceholderType
Arguments: []
Parents: []
Children: []
--------------------MLIR OPS--------------------

====================Graph Node====================
Node: arg269_1
Type: OpType.PlaceholderType
Arguments: []
Parents: []
Children: []
--------------------MLIR OPS--------------------

====================Graph Node====================
Node: arg270_1
Type: OpType.PlaceholderType
Arguments: []
Parents: []
Children: []
--------------------MLIR OPS--------------------

====================Graph Node====================
Node: arg271_1
Type: OpType.PlaceholderType
Arguments: []
Parents: []
Children: []
--------------------MLIR OPS--------------------

====================Graph Node====================
Node: arg272_1
Type: OpType.PlaceholderType
Arguments: []
Parents: []
Children: []
--------------------MLIR OPS--------------------

====================Graph Node====================
Node: arg273_1
Type: OpType.PlaceholderType
Arguments: []
Parents: []
Children: []
--------------------MLIR OPS--------------------

====================Graph Node====================
Node: arg274_1
Type: OpType.PlaceholderType
Arguments: []
Parents: []
Children: []
--------------------MLIR OPS--------------------

====================Graph Node====================
Node: arg275_1
Type: OpType.PlaceholderType
Arguments: []
Parents: []
Children: []
--------------------MLIR OPS--------------------

====================Graph Node====================
Node: arg276_1
Type: OpType.PlaceholderType
Arguments: []
Parents: []
Children: []
--------------------MLIR OPS--------------------

====================Graph Node====================
Node: arg277_1
Type: OpType.PlaceholderType
Arguments: []
Parents: []
Children: []
--------------------MLIR OPS--------------------

====================Graph Node====================
Node: arg278_1
Type: OpType.PlaceholderType
Arguments: []
Parents: []
Children: []
--------------------MLIR OPS--------------------

====================Graph Node====================
Node: arg279_1
Type: OpType.PlaceholderType
Arguments: []
Parents: []
Children: []
--------------------MLIR OPS--------------------

====================Graph Node====================
Node: arg280_1
Type: OpType.PlaceholderType
Arguments: []
Parents: []
Children: []
--------------------MLIR OPS--------------------

====================Graph Node====================
Node: arg281_1
Type: OpType.PlaceholderType
Arguments: []
Parents: []
Children: []
--------------------MLIR OPS--------------------

====================Graph Node====================
Node: arg282_1
Type: OpType.PlaceholderType
Arguments: []
Parents: []
Children: []
--------------------MLIR OPS--------------------

====================Graph Node====================
Node: arg283_1
Type: OpType.PlaceholderType
Arguments: []
Parents: []
Children: []
--------------------MLIR OPS--------------------

====================Graph Node====================
Node: arg284_1
Type: OpType.PlaceholderType
Arguments: []
Parents: []
Children: []
--------------------MLIR OPS--------------------

====================Graph Node====================
Node: arg285_1
Type: OpType.PlaceholderType
Arguments: []
Parents: []
Children: []
--------------------MLIR OPS--------------------

====================Graph Node====================
Node: arg286_1
Type: OpType.PlaceholderType
Arguments: []
Parents: []
Children: []
--------------------MLIR OPS--------------------

====================Graph Node====================
Node: arg287_1
Type: OpType.PlaceholderType
Arguments: []
Parents: []
Children: []
--------------------MLIR OPS--------------------

====================Graph Node====================
Node: arg288_1
Type: OpType.PlaceholderType
Arguments: []
Parents: []
Children: []
--------------------MLIR OPS--------------------

====================Graph Node====================
Node: arg289_1
Type: OpType.PlaceholderType
Arguments: []
Parents: []
Children: []
--------------------MLIR OPS--------------------

====================Graph Node====================
Node: arg290_1
Type: OpType.PlaceholderType
Arguments: []
Parents: []
Children: []
--------------------MLIR OPS--------------------

====================Graph Node====================
Node: arg291_1
Type: OpType.PlaceholderType
Arguments: []
Parents: []
Children: []
--------------------MLIR OPS--------------------

====================Graph Node====================
Node: arg292_1
Type: OpType.PlaceholderType
Arguments: []
Parents: []
Children: []
--------------------MLIR OPS--------------------

====================Graph Node====================
Node: arg293_1
Type: OpType.PlaceholderType
Arguments: []
Parents: []
Children: []
--------------------MLIR OPS--------------------

====================Graph Node====================
Node: arg294_1
Type: OpType.PlaceholderType
Arguments: []
Parents: []
Children: []
--------------------MLIR OPS--------------------

====================Graph Node====================
Node: arg295_1
Type: OpType.PlaceholderType
Arguments: []
Parents: []
Children: []
--------------------MLIR OPS--------------------

====================Graph Node====================
Node: arg296_1
Type: OpType.PlaceholderType
Arguments: []
Parents: []
Children: []
--------------------MLIR OPS--------------------

====================Graph Node====================
Node: arg297_1
Type: OpType.PlaceholderType
Arguments: []
Parents: []
Children: []
--------------------MLIR OPS--------------------

====================Graph Node====================
Node: arg298_1
Type: OpType.PlaceholderType
Arguments: []
Parents: []
Children: []
--------------------MLIR OPS--------------------

====================Graph Node====================
Node: arg299_1
Type: OpType.PlaceholderType
Arguments: []
Parents: []
Children: []
--------------------MLIR OPS--------------------

====================Graph Node====================
Node: arg300_1
Type: OpType.PlaceholderType
Arguments: []
Parents: []
Children: []
--------------------MLIR OPS--------------------

====================Graph Node====================
Node: arg301_1
Type: OpType.PlaceholderType
Arguments: []
Parents: []
Children: []
--------------------MLIR OPS--------------------

====================Graph Node====================
Node: arg302_1
Type: OpType.PlaceholderType
Arguments: []
Parents: []
Children: []
--------------------MLIR OPS--------------------

====================Graph Node====================
Node: arg303_1
Type: OpType.PlaceholderType
Arguments: []
Parents: []
Children: []
--------------------MLIR OPS--------------------

====================Graph Node====================
Node: arg304_1
Type: OpType.PlaceholderType
Arguments: []
Parents: []
Children: []
--------------------MLIR OPS--------------------

====================Graph Node====================
Node: arg305_1
Type: OpType.PlaceholderType
Arguments: []
Parents: []
Children: []
--------------------MLIR OPS--------------------

====================Graph Node====================
Node: arg306_1
Type: OpType.PlaceholderType
Arguments: []
Parents: []
Children: []
--------------------MLIR OPS--------------------

====================Graph Node====================
Node: arg307_1
Type: OpType.PlaceholderType
Arguments: []
Parents: []
Children: []
--------------------MLIR OPS--------------------

====================Graph Node====================
Node: arg308_1
Type: OpType.PlaceholderType
Arguments: []
Parents: []
Children: []
--------------------MLIR OPS--------------------

====================Graph Node====================
Node: arg309_1
Type: OpType.PlaceholderType
Arguments: []
Parents: []
Children: []
--------------------MLIR OPS--------------------

====================Graph Node====================
Node: arg310_1
Type: OpType.PlaceholderType
Arguments: []
Parents: []
Children: []
--------------------MLIR OPS--------------------

====================Graph Node====================
Node: arg311_1
Type: OpType.PlaceholderType
Arguments: []
Parents: []
Children: []
--------------------MLIR OPS--------------------

====================Graph Node====================
Node: arg312_1
Type: OpType.PlaceholderType
Arguments: []
Parents: []
Children: []
--------------------MLIR OPS--------------------

====================Graph Node====================
Node: arg313_1
Type: OpType.PlaceholderType
Arguments: []
Parents: []
Children: []
--------------------MLIR OPS--------------------

====================Graph Node====================
Node: arg314_1
Type: OpType.PlaceholderType
Arguments: []
Parents: []
Children: []
--------------------MLIR OPS--------------------

====================Graph Node====================
Node: arg315_1
Type: OpType.PlaceholderType
Arguments: []
Parents: []
Children: []
--------------------MLIR OPS--------------------

====================Graph Node====================
Node: arg316_1
Type: OpType.PlaceholderType
Arguments: []
Parents: []
Children: []
--------------------MLIR OPS--------------------

====================Graph Node====================
Node: arg317_1
Type: OpType.PlaceholderType
Arguments: []
Parents: []
Children: []
--------------------MLIR OPS--------------------

====================Graph Node====================
Node: arg318_1
Type: OpType.PlaceholderType
Arguments: []
Parents: []
Children: []
--------------------MLIR OPS--------------------

====================Graph Node====================
Node: arg319_1
Type: OpType.PlaceholderType
Arguments: []
Parents: []
Children: []
--------------------MLIR OPS--------------------

====================Graph Node====================
Node: arg320_1
Type: OpType.PlaceholderType
Arguments: []
Parents: []
Children: []
--------------------MLIR OPS--------------------

====================Graph Node====================
Node: arg321_1
Type: OpType.PlaceholderType
Arguments: []
Parents: []
Children: []
--------------------MLIR OPS--------------------

====================Graph Node====================
Node: arg322_1
Type: OpType.PlaceholderType
Arguments: []
Parents: []
Children: []
--------------------MLIR OPS--------------------

====================Graph Node====================
Node: arg323_1
Type: OpType.PlaceholderType
Arguments: []
Parents: []
Children: []
--------------------MLIR OPS--------------------

====================Graph Node====================
Node: arg324_1
Type: OpType.PlaceholderType
Arguments: []
Parents: []
Children: []
--------------------MLIR OPS--------------------

====================Graph Node====================
Node: arg325_1
Type: OpType.PlaceholderType
Arguments: []
Parents: []
Children: []
--------------------MLIR OPS--------------------

====================Graph Node====================
Node: arg326_1
Type: OpType.PlaceholderType
Arguments: []
Parents: []
Children: []
--------------------MLIR OPS--------------------

====================Graph Node====================
Node: arg327_1
Type: OpType.PlaceholderType
Arguments: []
Parents: []
Children: []
--------------------MLIR OPS--------------------

====================Graph Node====================
Node: arg328_1
Type: OpType.PlaceholderType
Arguments: []
Parents: []
Children: []
--------------------MLIR OPS--------------------

====================Graph Node====================
Node: arg329_1
Type: OpType.PlaceholderType
Arguments: []
Parents: []
Children: []
--------------------MLIR OPS--------------------

====================Graph Node====================
Node: arg330_1
Type: OpType.PlaceholderType
Arguments: []
Parents: []
Children: []
--------------------MLIR OPS--------------------

====================Graph Node====================
Node: arg331_1
Type: OpType.PlaceholderType
Arguments: []
Parents: []
Children: []
--------------------MLIR OPS--------------------

====================Graph Node====================
Node: arg332_1
Type: OpType.PlaceholderType
Arguments: []
Parents: []
Children: []
--------------------MLIR OPS--------------------

====================Graph Node====================
Node: arg333_1
Type: OpType.PlaceholderType
Arguments: []
Parents: []
Children: []
--------------------MLIR OPS--------------------

====================Graph Node====================
Node: arg334_1
Type: OpType.PlaceholderType
Arguments: []
Parents: []
Children: []
--------------------MLIR OPS--------------------

====================Graph Node====================
Node: arg335_1
Type: OpType.PlaceholderType
Arguments: []
Parents: []
Children: []
--------------------MLIR OPS--------------------

====================Graph Node====================
Node: arg336_1
Type: OpType.PlaceholderType
Arguments: []
Parents: []
Children: []
--------------------MLIR OPS--------------------

====================Graph Node====================
Node: arg337_1
Type: OpType.PlaceholderType
Arguments: []
Parents: []
Children: []
--------------------MLIR OPS--------------------

====================Graph Node====================
Node: arg338_1
Type: OpType.PlaceholderType
Arguments: []
Parents: []
Children: []
--------------------MLIR OPS--------------------

====================Graph Node====================
Node: arg339_1
Type: OpType.PlaceholderType
Arguments: []
Parents: []
Children: []
--------------------MLIR OPS--------------------

====================Graph Node====================
Node: arg340_1
Type: OpType.PlaceholderType
Arguments: []
Parents: []
Children: []
--------------------MLIR OPS--------------------

====================Graph Node====================
Node: embedding
Type: OpType.ReshapeType
Arguments: ['arg1_1', 'arg0_1']
Parents: ['arg1_1', 'arg0_1']
Children: ['pow_1', 'mul_2', 'add_4']
--------------------MLIR OPS--------------------
%0 = "tosa.cast"(%arg1) : (tensor<1x1024xi64>) -> tensor<1x1024xi32>
%1 = "tosa.reshape"(%arg0) <{new_shape = array<i64: 1, 151936, 1536>}> : (tensor<151936x1536xf32>) -> tensor<1x151936x1536xf32>
%2 = "tosa.gather"(%1, %0) : (tensor<1x151936x1536xf32>, tensor<1x1024xi32>) -> tensor<1x1024x1536xf32>

====================Graph Node====================
Node: iota
Type: OpType.PlaceholderType
Arguments: [1024]
Parents: []
Children: ['unsqueeze', 'view']
--------------------MLIR OPS--------------------
%3 = "tosa.const"() <{value = dense<"…"> : tensor<1024xi64>}> : () -> tensor<1024xi64>

====================Graph Node====================
Node: unsqueeze
Type: OpType.ReshapeType
Arguments: ['iota', 0]
Parents: ['iota']
Children: ['slice_2']
--------------------MLIR OPS--------------------
%4 = "tosa.reshape"(%3) <{new_shape = array<i64: 1, 1024>}> : (tensor<1024xi64>) -> tensor<1x1024xi64>

====================Graph Node====================
Node: iota_1
Type: OpType.PlaceholderType
Arguments: [1024]
Parents: []
Children: ['add']
--------------------MLIR OPS--------------------
%5 = "tosa.const"() <{value = dense<"…"> : tensor<1024xi64>}> : () -> tensor<1024xi64>

====================Graph Node====================
Node: add
Type: OpType.BroadcastType
Arguments: ['iota_1', 0]
Parents: ['iota_1']
Children: ['le']
--------------------MLIR OPS--------------------
%6 = "tosa.const"() <{value = dense<0> : tensor<1024xi64>}> : () -> tensor<1024xi64>
%7 = "tosa.add"(%5, %6) : (tensor<1024xi64>, tensor<1024xi64>) -> tensor<1024xi64>

====================Graph Node====================
Node: view
Type: OpType.ReshapeType
Arguments: ['iota', [1024, 1]]
Parents: ['iota']
Children: ['le']
--------------------MLIR OPS--------------------
%8 = "tosa.reshape"(%3) <{new_shape = array<i64: 1024, 1>}> : (tensor<1024xi64>) -> tensor<1024x1xi64>

====================Graph Node====================
Node: le
Type: OpType.ElementwiseType
Arguments: ['add', 'view']
Parents: ['add', 'view']
Children: ['expand']
--------------------MLIR OPS--------------------
%9 = "tosa.const"() <{value = dense<0> : tensor<1024x1024xi64>}> : () -> tensor<1024x1024xi64>
%10 = "tosa.reshape"(%7) <{new_shape = array<i64: 1, 1024>}> : (tensor<1024xi64>) -> tensor<1x1024xi64>
%11 = "tosa.add"(%10, %9) : (tensor<1x1024xi64>, tensor<1024x1024xi64>) -> tensor<1024x1024xi64>
%12 = "tosa.const"() <{value = dense<0> : tensor<1024x1024xi64>}> : () -> tensor<1024x1024xi64>
%13 = "tosa.add"(%8, %12) : (tensor<1024x1xi64>, tensor<1024x1024xi64>) -> tensor<1024x1024xi64>
%14 = "arith.cmpi"(%11, %13) <{predicate = 7 : i64}> : (tensor<1024x1024xi64>, tensor<1024x1024xi64>) -> tensor<1024x1024xi1>

====================Graph Node====================
Node: expand
Type: OpType.ReshapeType
Arguments: ['le', [1, 1024, 1024]]
Parents: ['le']
Children: ['expand_1']
--------------------MLIR OPS--------------------
%15 = "tosa.const"() <{value = dense<false> : tensor<1x1024xi1>}> : () -> tensor<1x1024xi1>
%16 = "tosa.add"(%14, %15) : (tensor<1024x1024xi1>, tensor<1x1024xi1>) -> tensor<1024x1024xi1>

====================Graph Node====================
Node: expand_1
Type: OpType.ReshapeType
Arguments: ['expand', [1, 1, 1024, 1024]]
Parents: ['expand']
Children: ['slice_16', 'slice_31', 'slice_46', 'slice_61', 'slice_76', 'slice_91', 'slice_106', 'slice_121', 'slice_136', 'slice_151', 'slice_166', 'slice_181', 'slice_196', 'slice_211', 'slice_226', 'slice_241', 'slice_256', 'slice_271', 'slice_286', 'slice_301', 'slice_316', 'slice_331', 'slice_346', 'slice_361', 'slice_376', 'slice_391', 'slice_406', 'slice_421']
--------------------MLIR OPS--------------------
%17 = "tosa.const"() <{value = dense<false> : tensor<1x1xi1>}> : () -> tensor<1x1xi1>
%18 = "tosa.add"(%16, %17) : (tensor<1024x1024xi1>, tensor<1x1xi1>) -> tensor<1024x1024xi1>

====================Graph Node====================
Node: unsqueeze_1
Type: OpType.ReshapeType
Arguments: ['arg2_1', 0]
Parents: ['arg2_1']
Children: ['slice_1']
--------------------MLIR OPS--------------------
%19 = "tosa.reshape"(%arg2) <{new_shape = array<i64: 1, 64>}> : (tensor<64xf32>) -> tensor<1x64xf32>

====================Graph Node====================
Node: slice_1
Type: OpType.ReshapeType
Arguments: ['unsqueeze_1', 1, 0, 9223372036854775807]
Parents: ['unsqueeze_1']
Children: ['unsqueeze_2']
--------------------MLIR OPS--------------------

====================Graph Node====================
Node: unsqueeze_2
Type: OpType.ReshapeType
Arguments: ['slice_1', 2]
Parents: ['slice_1']
Children: ['expand_2']
--------------------MLIR OPS--------------------
%20 = "tosa.reshape"(%19) <{new_shape = array<i64: 1, 64, 1>}> : (tensor<1x64xf32>) -> tensor<1x64x1xf32>

====================Graph Node====================
Node: expand_2
Type: OpType.ReshapeType
Arguments: ['unsqueeze_2', [1, -1, 1]]
Parents: ['unsqueeze_2']
Children: ['expand_3']
--------------------MLIR OPS--------------------

====================Graph Node====================
Node: slice_2
Type: OpType.ReshapeType
Arguments: ['unsqueeze', 0, 0, 9223372036854775807]
Parents: ['unsqueeze']
Children: ['unsqueeze_3']
--------------------MLIR OPS--------------------

====================Graph Node====================
Node: unsqueeze_3
Type: OpType.ReshapeType
Arguments: ['slice_2', 1]
Parents: ['slice_2']
Children: ['slice_3']
--------------------MLIR OPS--------------------
%21 = "tosa.reshape"(%4) <{new_shape = array<i64: 1, 1, 1024>}> : (tensor<1x1024xi64>) -> tensor<1x1x1024xi64>

====================Graph Node====================
Node: slice_3
Type: OpType.ReshapeType
Arguments: ['unsqueeze_3', 2, 0, 9223372036854775807]
Parents: ['unsqueeze_3']
Children: ['convert_element_type']
--------------------MLIR OPS--------------------

====================Graph Node====================
Node: convert_element_type
Type: OpType.ElementwiseType
Arguments: ['slice_3', <TensorDType.Float32: 'float32'>]
Parents: ['slice_3']
Children: ['expand_4']
--------------------MLIR OPS--------------------
%22 = "tosa.cast"(%21) : (tensor<1x1x1024xi64>) -> tensor<1x1x1024xf32>

====================Graph Node====================
Node: expand_3
Type: OpType.ReshapeType
Arguments: ['expand_2', [1, 64, 1]]
Parents: ['expand_2']
Children: ['view_1']
--------------------MLIR OPS--------------------

====================Graph Node====================
Node: view_1
Type: OpType.ReshapeType
Arguments: ['expand_3', [1, 64, 1]]
Parents: ['expand_3']
Children: ['bmm']
--------------------MLIR OPS--------------------

====================Graph Node====================
Node: expand_4
Type: OpType.ReshapeType
Arguments: ['convert_element_type', [1, 1, 1024]]
Parents: ['convert_element_type']
Children: ['view_2']
--------------------MLIR OPS--------------------

====================Graph Node====================
Node: view_2
Type: OpType.ReshapeType
Arguments: ['expand_4', [1, 1, 1024]]
Parents: ['expand_4']
Children: ['bmm']
--------------------MLIR OPS--------------------

====================Graph Node====================
Node: bmm
Type: OpType.ReduceType
Arguments: ['view_1', 'view_2']
Parents: ['view_1', 'view_2']
Children: ['view_3']
--------------------MLIR OPS--------------------
%23 = "tosa.matmul"(%20, %22) : (tensor<1x64x1xf32>, tensor<1x1x1024xf32>) -> tensor<1x64x1024xf32>

====================Graph Node====================
Node: view_3
Type: OpType.ReshapeType
Arguments: ['bmm', [1, 64, 1024]]
Parents: ['bmm']
Children: ['permute']
--------------------MLIR OPS--------------------

====================Graph Node====================
Node: permute
Type: OpType.ReshapeType
Arguments: ['view_3', [0, 2, 1]]
Parents: ['view_3']
Children: ['unsqueeze_4']
--------------------MLIR OPS--------------------
%24 = "tosa.const"() <{value = dense<[0, 2, 1]> : tensor<3xi32>}> : () -> tensor<3xi32>
%25 = "tosa.transpose"(%23, %24) : (tensor<1x64x1024xf32>, tensor<3xi32>) -> tensor<1x1024x64xf32>

====================Graph Node====================
Node: unsqueeze_4
Type: OpType.ReshapeType
Arguments: ['permute', 2]
Parents: ['permute']
Children: ['expand_5']
--------------------MLIR OPS--------------------
%26 = "tosa.reshape"(%25) <{new_shape = array<i64: 1, 1024, 1, 64>}> : (tensor<1x1024x64xf32>) -> tensor<1x1024x1x64xf32>

====================Graph Node====================
Node: expand_5
Type: OpType.ReshapeType
Arguments: ['unsqueeze_4', [1, 1024, 2, 64]]
Parents: ['unsqueeze_4']
Children: ['clone']
--------------------MLIR OPS--------------------
%27 = "tosa.const"() <{value = dense<0.000000e+00> : tensor<1x1024x2x64xf32>}> : () -> tensor<1x1024x2x64xf32>
%28 = "tosa.add"(%26, %27) : (tensor<1x1024x1x64xf32>, tensor<1x1024x2x64xf32>) -> tensor<1x1024x2x64xf32>

====================Graph Node====================
Node: clone
Type: OpType.ReduceType
Arguments: ['expand_5']
Parents: ['expand_5']
Children: ['view_4']
--------------------MLIR OPS--------------------

====================Graph Node====================
Node: view_4
Type: OpType.ReshapeType
Arguments: ['clone', [1, 1024, 128]]
Parents: ['clone']
Children: ['clone_1']
--------------------MLIR OPS--------------------
%29 = "tosa.reshape"(%28) <{new_shape = array<i64: 1, 1024, 128>}> : (tensor<1x1024x2x64xf32>) -> tensor<1x1024x128xf32>

====================Graph Node====================
Node: clone_1
Type: OpType.ReduceType
Arguments: ['view_4']
Parents: ['view_4']
Children: ['cos', 'sin']
--------------------MLIR OPS--------------------

====================Graph Node====================
Node: cos
Type: OpType.ElementwiseType
Arguments: ['clone_1']
Parents: ['clone_1']
Children: ['mul']
--------------------MLIR OPS--------------------
%30 = "math.cos"(%29) <{fastmath = #arith.fastmath<none>}> : (tensor<1x1024x128xf32>) -> tensor<1x1024x128xf32>

====================Graph Node====================
Node: mul
Type: OpType.BroadcastType
Arguments: ['cos', 1.0]
Parents: ['cos']
Children: ['unsqueeze_5', 'unsqueeze_9', 'unsqueeze_13', 'unsqueeze_17', 'unsqueeze_21', 'unsqueeze_25', 'unsqueeze_29', 'unsqueeze_33', 'unsqueeze_37', 'unsqueeze_41', 'unsqueeze_45', 'unsqueeze_49', 'unsqueeze_53', 'unsqueeze_57', 'unsqueeze_61', 'unsqueeze_65', 'unsqueeze_69', 'unsqueeze_73', 'unsqueeze_77', 'unsqueeze_81', 'unsqueeze_85', 'unsqueeze_89', 'unsqueeze_93', 'unsqueeze_97', 'unsqueeze_101', 'unsqueeze_105', 'unsqueeze_109', 'unsqueeze_113']
--------------------MLIR OPS--------------------
%31 = "arith.constant"() <{value = dense<1.000000e+00> : tensor<1xf32>}> : () -> tensor<1xf32>
%32 = "tosa.reshape"(%31) <{new_shape = array<i64: 1, 1, 1>}> : (tensor<1xf32>) -> tensor<1x1x1xf32>
%33 = "tosa.mul"(%30, %32) : (tensor<1x1024x128xf32>, tensor<1x1x1xf32>) -> tensor<1x1024x128xf32>

====================Graph Node====================
Node: sin
Type: OpType.ElementwiseType
Arguments: ['clone_1']
Parents: ['clone_1']
Children: ['mul_1']
--------------------MLIR OPS--------------------
%34 = "math.sin"(%29) <{fastmath = #arith.fastmath<none>}> : (tensor<1x1024x128xf32>) -> tensor<1x1024x128xf32>

====================Graph Node====================
Node: mul_1
Type: OpType.BroadcastType
Arguments: ['sin', 1.0]
Parents: ['sin']
Children: ['unsqueeze_6', 'unsqueeze_10', 'unsqueeze_14', 'unsqueeze_18', 'unsqueeze_22', 'unsqueeze_26', 'unsqueeze_30', 'unsqueeze_34', 'unsqueeze_38', 'unsqueeze_42', 'unsqueeze_46', 'unsqueeze_50', 'unsqueeze_54', 'unsqueeze_58', 'unsqueeze_62', 'unsqueeze_66', 'unsqueeze_70', 'unsqueeze_74', 'unsqueeze_78', 'unsqueeze_82', 'unsqueeze_86', 'unsqueeze_90', 'unsqueeze_94', 'unsqueeze_98', 'unsqueeze_102', 'unsqueeze_106', 'unsqueeze_110', 'unsqueeze_114']
--------------------MLIR OPS--------------------
%35 = "arith.constant"() <{value = dense<1.000000e+00> : tensor<1xf32>}> : () -> tensor<1xf32>
%36 = "tosa.reshape"(%35) <{new_shape = array<i64: 1, 1, 1>}> : (tensor<1xf32>) -> tensor<1x1x1xf32>
%37 = "tosa.mul"(%34, %36) : (tensor<1x1024x128xf32>, tensor<1x1x1xf32>) -> tensor<1x1024x128xf32>

====================Graph Node====================
Node: pow_1
Type: OpType.BroadcastType
Arguments: ['embedding', 2]
Parents: ['embedding']
Children: ['mean']
--------------------MLIR OPS--------------------
%38 = "tensor.empty"() : () -> tensor<1x1024x1536xf32>
%39 = "arith.constant"() <{value = 2 : i32}> : () -> i32
%40 = "linalg.generic"(%2, %38) <{indexing_maps = [affine_map<(d0, d1, d2) -> (d0, d1, d2)>, affine_map<(d0, d1, d2) -> (d0, d1, d2)>], iterator_types = [#linalg.iterator_type<parallel>, #linalg.iterator_type<parallel>, #linalg.iterator_type<parallel>], operandSegmentSizes = array<i32: 1, 1>}> ({
^bb0(%arg341: f32, %arg342: f32):
  %41 = "math.fpowi"(%arg341, %39) <{fastmath = #arith.fastmath<none>}> : (f32, i32) -> f32
  "linalg.yield"(%41) : (f32) -> ()
}) : (tensor<1x1024x1536xf32>, tensor<1x1024x1536xf32>) -> tensor<1x1024x1536xf32>

====================Graph Node====================
Node: mean
Type: OpType.ReduceType
Arguments: ['pow_1', [-1], True]
Parents: ['pow_1']
Children: ['add_1']
--------------------MLIR OPS--------------------
%41 = "tosa.reduce_sum"(%40) <{axis = 2 : i32}> : (tensor<1x1024x1536xf32>) -> tensor<1x1024x1xf32>
%42 = "tosa.const"() <{value = dense<1.536000e+03> : tensor<1xf32>}> : () -> tensor<1xf32>
%43 = "tosa.reciprocal"(%42) : (tensor<1xf32>) -> tensor<1xf32>
%44 = "tosa.reshape"(%43) <{new_shape = array<i64: 1, 1, 1>}> : (tensor<1xf32>) -> tensor<1x1x1xf32>
%45 = "tosa.mul"(%44, %41) : (tensor<1x1x1xf32>, tensor<1x1024x1xf32>) -> tensor<1x1024x1xf32>

====================Graph Node====================
Node: add_1
Type: OpType.BroadcastType
Arguments: ['mean', 1e-06]
Parents: ['mean']
Children: ['rsqrt']
--------------------MLIR OPS--------------------
%46 = "tosa.const"() <{value = dense<9.99999997E-7> : tensor<1x1024x1xf32>}> : () -> tensor<1x1024x1xf32>
%47 = "tosa.add"(%45, %46) : (tensor<1x1024x1xf32>, tensor<1x1024x1xf32>) -> tensor<1x1024x1xf32>

====================Graph Node====================
Node: rsqrt
Type: OpType.ElementwiseType
Arguments: ['add_1']
Parents: ['add_1']
Children: ['mul_2']
--------------------MLIR OPS--------------------
%48 = "tosa.rsqrt"(%47) : (tensor<1x1024x1xf32>) -> tensor<1x1024x1xf32>

====================Graph Node====================
Node: mul_2
Type: OpType.BroadcastType
Arguments: ['embedding', 'rsqrt']
Parents: ['embedding', 'rsqrt']
Children: ['mul_3']
--------------------MLIR OPS--------------------
%49 = "tosa.mul"(%2, %48) : (tensor<1x1024x1536xf32>, tensor<1x1024x1xf32>) -> tensor<1x1024x1536xf32>

====================Graph Node====================
Node: mul_3
Type: OpType.BroadcastType
Arguments: ['arg3_1', 'mul_2']
Parents: ['arg3_1', 'mul_2']
Children: ['view_5', 'view_8', 'view_11']
--------------------MLIR OPS--------------------
%50 = "tosa.reshape"(%arg3) <{new_shape = array<i64: 1, 1, 1536>}> : (tensor<1536xf32>) -> tensor<1x1x1536xf32>
%51 = "tosa.mul"(%50, %49) : (tensor<1x1x1536xf32>, tensor<1x1024x1536xf32>) -> tensor<1x1024x1536xf32>

====================Graph Node====================
Node: view_5
Type: OpType.ReshapeType
Arguments: ['mul_3', [1024, 1536]]
Parents: ['mul_3']
Children: ['addmm']
--------------------MLIR OPS--------------------
%52 = "tosa.reshape"(%51) <{new_shape = array<i64: 1024, 1536>}> : (tensor<1x1024x1536xf32>) -> tensor<1024x1536xf32>

====================Graph Node====================
Node: permute_1
Type: OpType.ReshapeType
Arguments: ['arg4_1', [1, 0]]
Parents: ['arg4_1']
Children: ['addmm']
--------------------MLIR OPS--------------------
%53 = "tosa.const"() <{value = dense<[1, 0]> : tensor<2xi32>}> : () -> tensor<2xi32>
%54 = "tosa.transpose"(%arg4, %53) : (tensor<1536x1536xf32>, tensor<2xi32>) -> tensor<1536x1536xf32>

====================Graph Node====================
Node: addmm
Type: OpType.ReduceType
Arguments: ['arg5_1', 'view_5', 'permute_1']
Parents: ['arg5_1', 'view_5', 'permute_1']
Children: ['view_6']
--------------------MLIR OPS--------------------
%55 = "arith.constant"() <{value = dense<0.000000e+00> : tensor<1024x1536xf32>}> : () -> tensor<1024x1536xf32>
%56 = "linalg.matmul"(%52, %54, %55) <{cast = #linalg.type_fn<cast_signed>, indexing_maps = [affine_map<(d0, d1, d2) -> (d0, d2)>, affine_map<(d0, d1, d2) -> (d2, d1)>, affine_map<(d0, d1, d2) -> (d0, d1)>], operandSegmentSizes = array<i32: 2, 1>}> ({
^bb0(%arg341: f32, %arg342: f32, %arg343: f32):
  %59 = "arith.mulf"(%arg341, %arg342) <{fastmath = #arith.fastmath<none>}> : (f32, f32) -> f32
  %60 = "arith.addf"(%arg343, %59) <{fastmath = #arith.fastmath<none>}> : (f32, f32) -> f32
  "linalg.yield"(%60) : (f32) -> ()
}) : (tensor<1024x1536xf32>, tensor<1536x1536xf32>, tensor<1024x1536xf32>) -> tensor<1024x1536xf32>
%57 = "tosa.reshape"(%arg5) <{new_shape = array<i64: 1, 1536>}> : (tensor<1536xf32>) -> tensor<1x1536xf32>
%58 = "tosa.add"(%57, %56) : (tensor<1x1536xf32>, tensor<1024x1536xf32>) -> tensor<1024x1536xf32>

====================Graph Node====================
Node: view_6
Type: OpType.ReshapeType
Arguments: ['addmm', [1, 1024, 1536]]
Parents: ['addmm']
Children: ['view_7']
--------------------MLIR OPS--------------------
%59 = "tosa.reshape"(%58) <{new_shape = array<i64: 1, 1024, 1536>}> : (tensor<1024x1536xf32>) -> tensor<1x1024x1536xf32>

====================Graph Node====================
Node: view_7
Type: OpType.ReshapeType
Arguments: ['view_6', [1, 1024, -1, 128]]
Parents: ['view_6']
Children: ['permute_2']
--------------------MLIR OPS--------------------
%60 = "tosa.reshape"(%59) <{new_shape = array<i64: 1, 1024, 12, 128>}> : (tensor<1x1024x1536xf32>) -> tensor<1x1024x12x128xf32>

====================Graph Node====================
Node: permute_2
Type: OpType.ReshapeType
Arguments: ['view_7', [0, 2, 1, 3]]
Parents: ['view_7']
Children: ['mul_4', 'slice_4', 'slice_5']
--------------------MLIR OPS--------------------
%61 = "tosa.const"() <{value = dense<[0, 2, 1, 3]> : tensor<4xi32>}> : () -> tensor<4xi32>
%62 = "tosa.transpose"(%60, %61) : (tensor<1x1024x12x128xf32>, tensor<4xi32>) -> tensor<1x12x1024x128xf32>

====================Graph Node====================
Node: view_8
Type: OpType.ReshapeType
Arguments: ['mul_3', [1024, 1536]]
Parents: ['mul_3']
Children: ['addmm_1']
--------------------MLIR OPS--------------------
%63 = "tosa.reshape"(%51) <{new_shape = array<i64: 1024, 1536>}> : (tensor<1x1024x1536xf32>) -> tensor<1024x1536xf32>

====================Graph Node====================
Node: permute_3
Type: OpType.ReshapeType
Arguments: ['arg6_1', [1, 0]]
Parents: ['arg6_1']
Children: ['addmm_1']
--------------------MLIR OPS--------------------
%64 = "tosa.const"() <{value = dense<[1, 0]> : tensor<2xi32>}> : () -> tensor<2xi32>
%65 = "tosa.transpose"(%arg6, %64) : (tensor<256x1536xf32>, tensor<2xi32>) -> tensor<1536x256xf32>

====================Graph Node====================
Node: addmm_1
Type: OpType.ReduceType
Arguments: ['arg7_1', 'view_8', 'permute_3']
Parents: ['arg7_1', 'view_8', 'permute_3']
Children: ['view_9']
--------------------MLIR OPS--------------------
%66 = "arith.constant"() <{value = dense<0.000000e+00> : tensor<1024x256xf32>}> : () -> tensor<1024x256xf32>
%67 = "linalg.matmul"(%63, %65, %66) <{cast = #linalg.type_fn<cast_signed>, indexing_maps = [affine_map<(d0, d1, d2) -> (d0, d2)>, affine_map<(d0, d1, d2) -> (d2, d1)>, affine_map<(d0, d1, d2) -> (d0, d1)>], operandSegmentSizes = array<i32: 2, 1>}> ({
^bb0(%arg341: f32, %arg342: f32, %arg343: f32):
  %70 = "arith.mulf"(%arg341, %arg342) <{fastmath = #arith.fastmath<none>}> : (f32, f32) -> f32
  %71 = "arith.addf"(%arg343, %70) <{fastmath = #arith.fastmath<none>}> : (f32, f32) -> f32
  "linalg.yield"(%71) : (f32) -> ()
}) : (tensor<1024x1536xf32>, tensor<1536x256xf32>, tensor<1024x256xf32>) -> tensor<1024x256xf32>
%68 = "tosa.reshape"(%arg7) <{new_shape = array<i64: 1, 256>}> : (tensor<256xf32>) -> tensor<1x256xf32>
%69 = "tosa.add"(%68, %67) : (tensor<1x256xf32>, tensor<1024x256xf32>) -> tensor<1024x256xf32>

====================Graph Node====================
Node: view_9
Type: OpType.ReshapeType
Arguments: ['addmm_1', [1, 1024, 256]]
Parents: ['addmm_1']
Children: ['view_10']
--------------------MLIR OPS--------------------
%70 = "tosa.reshape"(%69) <{new_shape = array<i64: 1, 1024, 256>}> : (tensor<1024x256xf32>) -> tensor<1x1024x256xf32>

====================Graph Node====================
Node: view_10
Type: OpType.ReshapeType
Arguments: ['view_9', [1, 1024, -1, 128]]
Parents: ['view_9']
Children: ['permute_4']
--------------------MLIR OPS--------------------
%71 = "tosa.reshape"(%70) <{new_shape = array<i64: 1, 1024, 2, 128>}> : (tensor<1x1024x256xf32>) -> tensor<1x1024x2x128xf32>

====================Graph Node====================
Node: permute_4
Type: OpType.ReshapeType
Arguments: ['view_10', [0, 2, 1, 3]]
Parents: ['view_10']
Children: ['mul_6', 'slice_6', 'slice_7']
--------------------MLIR OPS--------------------
%72 = "tosa.const"() <{value = dense<[0, 2, 1, 3]> : tensor<4xi32>}> : () -> tensor<4xi32>
%73 = "tosa.transpose"(%71, %72) : (tensor<1x1024x2x128xf32>, tensor<4xi32>) -> tensor<1x2x1024x128xf32>

====================Graph Node====================
Node: view_11
Type: OpType.ReshapeType
Arguments: ['mul_3', [1024, 1536]]
Parents: ['mul_3']
Children: ['addmm_2']
--------------------MLIR OPS--------------------
%74 = "tosa.reshape"(%51) <{new_shape = array<i64: 1024, 1536>}> : (tensor<1x1024x1536xf32>) -> tensor<1024x1536xf32>

====================Graph Node====================
Node: permute_5
Type: OpType.ReshapeType
Arguments: ['arg8_1', [1, 0]]
Parents: ['arg8_1']
Children: ['addmm_2']
--------------------MLIR OPS--------------------
%75 = "tosa.const"() <{value = dense<[1, 0]> : tensor<2xi32>}> : () -> tensor<2xi32>
%76 = "tosa.transpose"(%arg8, %75) : (tensor<256x1536xf32>, tensor<2xi32>) -> tensor<1536x256xf32>

====================Graph Node====================
Node: addmm_2
Type: OpType.ReduceType
Arguments: ['arg9_1', 'view_11', 'permute_5']
Parents: ['arg9_1', 'view_11', 'permute_5']
Children: ['view_12']
--------------------MLIR OPS--------------------
%77 = "arith.constant"() <{value = dense<0.000000e+00> : tensor<1024x256xf32>}> : () -> tensor<1024x256xf32>
%78 = "linalg.matmul"(%74, %76, %77) <{cast = #linalg.type_fn<cast_signed>, indexing_maps = [affine_map<(d0, d1, d2) -> (d0, d2)>, affine_map<(d0, d1, d2) -> (d2, d1)>, affine_map<(d0, d1, d2) -> (d0, d1)>], operandSegmentSizes = array<i32: 2, 1>}> ({
^bb0(%arg341: f32, %arg342: f32, %arg343: f32):
  %81 = "arith.mulf"(%arg341, %arg342) <{fastmath = #arith.fastmath<none>}> : (f32, f32) -> f32
  %82 = "arith.addf"(%arg343, %81) <{fastmath = #arith.fastmath<none>}> : (f32, f32) -> f32
  "linalg.yield"(%82) : (f32) -> ()
}) : (tensor<1024x1536xf32>, tensor<1536x256xf32>, tensor<1024x256xf32>) -> tensor<1024x256xf32>
%79 = "tosa.reshape"(%arg9) <{new_shape = array<i64: 1, 256>}> : (tensor<256xf32>) -> tensor<1x256xf32>
%80 = "tosa.add"(%79, %78) : (tensor<1x256xf32>, tensor<1024x256xf32>) -> tensor<1024x256xf32>

====================Graph Node====================
Node: view_12
Type: OpType.ReshapeType
Arguments: ['addmm_2', [1, 1024, 256]]
Parents: ['addmm_2']
Children: ['view_13']
--------------------MLIR OPS--------------------
%81 = "tosa.reshape"(%80) <{new_shape = array<i64: 1, 1024, 256>}> : (tensor<1024x256xf32>) -> tensor<1x1024x256xf32>

====================Graph Node====================
Node: view_13
Type: OpType.ReshapeType
Arguments: ['view_12', [1, 1024, -1, 128]]
Parents: ['view_12']
Children: ['permute_6']
--------------------MLIR OPS--------------------
%82 = "tosa.reshape"(%81) <{new_shape = array<i64: 1, 1024, 2, 128>}> : (tensor<1x1024x256xf32>) -> tensor<1x1024x2x128xf32>

====================Graph Node====================
Node: permute_6
Type: OpType.ReshapeType
Arguments: ['view_13', [0, 2, 1, 3]]
Parents: ['view_13']
Children: ['clone_3']
--------------------MLIR OPS--------------------
%83 = "tosa.const"() <{value = dense<[0, 2, 1, 3]> : tensor<4xi32>}> : () -> tensor<4xi32>
%84 = "tosa.transpose"(%82, %83) : (tensor<1x1024x2x128xf32>, tensor<4xi32>) -> tensor<1x2x1024x128xf32>

====================Graph Node====================
Node: unsqueeze_5
Type: OpType.ReshapeType
Arguments: ['mul', 1]
Parents: ['mul']
Children: ['mul_4', 'mul_6']
--------------------MLIR OPS--------------------
%85 = "tosa.reshape"(%33) <{new_shape = array<i64: 1, 1, 1024, 128>}> : (tensor<1x1024x128xf32>) -> tensor<1x1x1024x128xf32>

====================Graph Node====================
Node: unsqueeze_6
Type: OpType.ReshapeType
Arguments: ['mul_1', 1]
Parents: ['mul_1']
Children: ['mul_5', 'mul_7']
--------------------MLIR OPS--------------------
%86 = "tosa.reshape"(%37) <{new_shape = array<i64: 1, 1, 1024, 128>}> : (tensor<1x1024x128xf32>) -> tensor<1x1x1024x128xf32>

====================Graph Node====================
Node: mul_4
Type: OpType.BroadcastType
Arguments: ['permute_2', 'unsqueeze_5']
Parents: ['permute_2', 'unsqueeze_5']
Children: ['add_2']
--------------------MLIR OPS--------------------
%87 = "tosa.mul"(%62, %85) : (tensor<1x12x1024x128xf32>, tensor<1x1x1024x128xf32>) -> tensor<1x12x1024x128xf32>

====================Graph Node====================
Node: slice_4
Type: OpType.ReshapeType
Arguments: ['permute_2', 3, 0, 64]
Parents: ['permute_2']
Children: ['cat']
--------------------MLIR OPS--------------------
%88 = "tensor.extract_slice"(%62) <{operandSegmentSizes = array<i32: 1, 0, 0, 0>, static_offsets = array<i64: 0, 0, 0, 0>, static_sizes = array<i64: 1, 12, 1024, 64>, static_strides = array<i64: 1, 1, 1, 1>}> : (tensor<1x12x1024x128xf32>) -> tensor<1x12x1024x64xf32>

====================Graph Node====================
Node: slice_5
Type: OpType.ReshapeType
Arguments: ['permute_2', 3, 64, 9223372036854775807]
Parents: ['permute_2']
Children: ['neg']
--------------------MLIR OPS--------------------
%89 = "tensor.extract_slice"(%62) <{operandSegmentSizes = array<i32: 1, 0, 0, 0>, static_offsets = array<i64: 0, 0, 0, 64>, static_sizes = array<i64: 1, 12, 1024, 64>, static_strides = array<i64: 1, 1, 1, 1>}> : (tensor<1x12x1024x128xf32>) -> tensor<1x12x1024x64xf32>

====================Graph Node====================
Node: neg
Type: OpType.ElementwiseType
Arguments: ['slice_5']
Parents: ['slice_5']
Children: ['cat']
--------------------MLIR OPS--------------------
%90 = "tensor.empty"() : () -> tensor<1x12x1024x64xf32>
%91 = "linalg.negf"(%89, %90) <{operandSegmentSizes = array<i32: 1, 1>}> ({
^bb0(%arg341: f32, %arg342: f32):
  %92 = "arith.negf"(%arg341) <{fastmath = #arith.fastmath<none>}> : (f32) -> f32
  "linalg.yield"(%92) : (f32) -> ()
}) : (tensor<1x12x1024x64xf32>, tensor<1x12x1024x64xf32>) -> tensor<1x12x1024x64xf32>

====================Graph Node====================
Node: cat
Type: OpType.ConcatType
Arguments: [[neg, slice_4], -1]
Parents: []
Children: ['mul_5']
--------------------MLIR OPS--------------------
%92 = "tensor.empty"() : () -> tensor<1x12x1024x128xf32>
%93 = "tensor.insert_slice"(%91, %92) <{operandSegmentSizes = array<i32: 1, 1, 0, 0, 0>, static_offsets = array<i64: 0, 0, 0, 0>, static_sizes = array<i64: 1, 12, 1024, 64>, static_strides = array<i64: 1, 1, 1, 1>}> : (tensor<1x12x1024x64xf32>, tensor<1x12x1024x128xf32>) -> tensor<1x12x1024x128xf32>
%94 = "tensor.insert_slice"(%88, %93) <{operandSegmentSizes = array<i32: 1, 1, 0, 0, 0>, static_offsets = array<i64: 0, 0, 0, 64>, static_sizes = array<i64: 1, 12, 1024, 64>, static_strides = array<i64: 1, 1, 1, 1>}> : (tensor<1x12x1024x64xf32>, tensor<1x12x1024x128xf32>) -> tensor<1x12x1024x128xf32>

====================Graph Node====================
Node: mul_5
Type: OpType.BroadcastType
Arguments: ['cat', 'unsqueeze_6']
Parents: ['cat', 'unsqueeze_6']
Children: ['add_2']
--------------------MLIR OPS--------------------
%95 = "tosa.mul"(%94, %86) : (tensor<1x12x1024x128xf32>, tensor<1x1x1024x128xf32>) -> tensor<1x12x1024x128xf32>

====================Graph Node====================
Node: add_2
Type: OpType.BroadcastType
Arguments: ['mul_4', 'mul_5']
Parents: ['mul_4', 'mul_5']
Children: ['_scaled_dot_product_flash_attention_for_cpu']
--------------------MLIR OPS--------------------
%96 = "tosa.add"(%87, %95) : (tensor<1x12x1024x128xf32>, tensor<1x12x1024x128xf32>) -> tensor<1x12x1024x128xf32>

====================Graph Node====================
Node: mul_6
Type: OpType.BroadcastType
Arguments: ['permute_4', 'unsqueeze_5']
Parents: ['permute_4', 'unsqueeze_5']
Children: ['add_3']
--------------------MLIR OPS--------------------
%97 = "tosa.mul"(%73, %85) : (tensor<1x2x1024x128xf32>, tensor<1x1x1024x128xf32>) -> tensor<1x2x1024x128xf32>

====================Graph Node====================
Node: slice_6
Type: OpType.ReshapeType
Arguments: ['permute_4', 3, 0, 64]
Parents: ['permute_4']
Children: ['cat_1']
--------------------MLIR OPS--------------------
%98 = "tensor.extract_slice"(%73) <{operandSegmentSizes = array<i32: 1, 0, 0, 0>, static_offsets = array<i64: 0, 0, 0, 0>, static_sizes = array<i64: 1, 2, 1024, 64>, static_strides = array<i64: 1, 1, 1, 1>}> : (tensor<1x2x1024x128xf32>) -> tensor<1x2x1024x64xf32>

====================Graph Node====================
Node: slice_7
Type: OpType.ReshapeType
Arguments: ['permute_4', 3, 64, 9223372036854775807]
Parents: ['permute_4']
Children: ['neg_1']
--------------------MLIR OPS--------------------
%99 = "tensor.extract_slice"(%73) <{operandSegmentSizes = array<i32: 1, 0, 0, 0>, static_offsets = array<i64: 0, 0, 0, 64>, static_sizes = array<i64: 1, 2, 1024, 64>, static_strides = array<i64: 1, 1, 1, 1>}> : (tensor<1x2x1024x128xf32>) -> tensor<1x2x1024x64xf32>

====================Graph Node====================
Node: neg_1
Type: OpType.ElementwiseType
Arguments: ['slice_7']
Parents: ['slice_7']
Children: ['cat_1']
--------------------MLIR OPS--------------------
%100 = "tensor.empty"() : () -> tensor<1x2x1024x64xf32>
%101 = "linalg.negf"(%99, %100) <{operandSegmentSizes = array<i32: 1, 1>}> ({
^bb0(%arg341: f32, %arg342: f32):
  %102 = "arith.negf"(%arg341) <{fastmath = #arith.fastmath<none>}> : (f32) -> f32
  "linalg.yield"(%102) : (f32) -> ()
}) : (tensor<1x2x1024x64xf32>, tensor<1x2x1024x64xf32>) -> tensor<1x2x1024x64xf32>

====================Graph Node====================
Node: cat_1
Type: OpType.ConcatType
Arguments: [[neg_1, slice_6], -1]
Parents: []
Children: ['mul_7']
--------------------MLIR OPS--------------------
%102 = "tensor.empty"() : () -> tensor<1x2x1024x128xf32>
%103 = "tensor.insert_slice"(%101, %102) <{operandSegmentSizes = array<i32: 1, 1, 0, 0, 0>, static_offsets = array<i64: 0, 0, 0, 0>, static_sizes = array<i64: 1, 2, 1024, 64>, static_strides = array<i64: 1, 1, 1, 1>}> : (tensor<1x2x1024x64xf32>, tensor<1x2x1024x128xf32>) -> tensor<1x2x1024x128xf32>
%104 = "tensor.insert_slice"(%98, %103) <{operandSegmentSizes = array<i32: 1, 1, 0, 0, 0>, static_offsets = array<i64: 0, 0, 0, 64>, static_sizes = array<i64: 1, 2, 1024, 64>, static_strides = array<i64: 1, 1, 1, 1>}> : (tensor<1x2x1024x64xf32>, tensor<1x2x1024x128xf32>) -> tensor<1x2x1024x128xf32>

====================Graph Node====================
Node: mul_7
Type: OpType.BroadcastType
Arguments: ['cat_1', 'unsqueeze_6']
Parents: ['cat_1', 'unsqueeze_6']
Children: ['add_3']
--------------------MLIR OPS--------------------
%105 = "tosa.mul"(%104, %86) : (tensor<1x2x1024x128xf32>, tensor<1x1x1024x128xf32>) -> tensor<1x2x1024x128xf32>

====================Graph Node====================
Node: add_3
Type: OpType.BroadcastType
Arguments: ['mul_6', 'mul_7']
Parents: ['mul_6', 'mul_7']
Children: ['clone_2']
--------------------MLIR OPS--------------------
%106 = "tosa.add"(%97, %105) : (tensor<1x2x1024x128xf32>, tensor<1x2x1024x128xf32>) -> tensor<1x2x1024x128xf32>

====================Graph Node====================
Node: clone_2
Type: OpType.ReduceType
Arguments: ['add_3']
Parents: ['add_3']
Children: ['slice_8', 'output']
--------------------MLIR OPS--------------------

====================Graph Node====================
Node: clone_3
Type: OpType.ReduceType
Arguments: ['permute_6']
Parents: ['permute_6']
Children: ['slice_12', 'output']
--------------------MLIR OPS--------------------

====================Graph Node====================
Node: slice_8
Type: OpType.ReshapeType
Arguments: ['clone_2', 0, 0, 9223372036854775807]
Parents: ['clone_2']
Children: ['slice_9']
--------------------MLIR OPS--------------------

====================Graph Node====================
Node: slice_9
Type: OpType.ReshapeType
Arguments: ['slice_8', 1, 0, 9223372036854775807]
Parents: ['slice_8']
Children: ['unsqueeze_7']
--------------------MLIR OPS--------------------
                                                                                                              
====================Graph Node====================
Node: view_14
Type: OpType.ReshapeType
Arguments: ['clone_4', [1, 12, 1024, 128]]
Parents: ['clone_4']
Children: ['_scaled_dot_product_flash_attention_for_cpu']
--------------------MLIR OPS--------------------
%110 = "tosa.reshape"(%109) <{new_shape = array<i64: 1, 12, 1024, 128>}> : (tensor<1x2x6x1024x128xf32>) -> tensor<1x12x1024x128xf32>

====================Graph Node====================
Node: unsqueeze_7
Type: OpType.ReshapeType
Arguments: ['slice_9', 2]
Parents: ['slice_9']
Children: ['slice_10']
--------------------MLIR OPS--------------------
%107 = "tosa.reshape"(%106) <{new_shape = array<i64: 1, 2, 1, 1024, 128>}> : (tensor<1x2x1024x128xf32>) -> tensor<1x2x1x1024x128xf32>

====================Graph Node====================
Node: slice_10
Type: OpType.ReshapeType
Arguments: ['unsqueeze_7', 3, 0, 9223372036854775807]
Parents: ['unsqueeze_7']
Children: ['slice_11']
--------------------MLIR OPS--------------------

====================Graph Node====================
Node: slice_11
Type: OpType.ReshapeType
Arguments: ['slice_10', 4, 0, 9223372036854775807]
Parents: ['slice_10']
Children: ['expand_6']
--------------------MLIR OPS--------------------

====================Graph Node====================
Node: expand_6
Type: OpType.ReshapeType
Arguments: ['slice_11', [1, 2, 6, 1024, 128]] [1, 2, 6, 1024, 128]
Parents: ['slice_11']
Children: ['clone_4']
--------------------MLIR OPS--------------------
%108 = "tosa.const"() <{value = dense<0.000000e+00> : tensor<1x2x6x1024x128xf32>}> : () -> tensor<1x2x6x1024x128xf32>
%109 = "tosa.add"(%107, %108) : (tensor<1x2x1x1024x128xf32>, tensor<1x2x6x1024x128xf32>) -> tensor<1x2x6x1024x128xf32>

====================Graph Node====================
Node: clone_4
Type: OpType.ReduceType
Arguments: ['expand_6']
Parents: ['expand_6']
Children: ['view_14']
--------------------MLIR OPS--------------------

====================Graph Node====================
Node: view_14
Type: OpType.ReshapeType
Arguments: ['clone_4', [1, 12, 1024, 128]]
Parents: ['clone_4']
Children: ['_scaled_dot_product_flash_attention_for_cpu']
--------------------MLIR OPS--------------------
%110 = "tosa.reshape"(%109) <{new_shape = array<i64: 1, 12, 1024, 128>}> : (tensor<1x2x6x1024x128xf32>) -> tensor<1x12x1024x128xf32>

====================Graph Node====================
Node: slice_12
Type: OpType.ReshapeType
Arguments: ['clone_3', 0, 0, 9223372036854775807]
Parents: ['clone_3']
Children: ['slice_13']
--------------------MLIR OPS--------------------

====================Graph Node====================
Node: slice_13
Type: OpType.ReshapeType
Arguments: ['slice_12', 1, 0, 9223372036854775807]
Parents: ['slice_12']
Children: ['unsqueeze_8']
--------------------MLIR OPS--------------------

====================Graph Node====================
Node: unsqueeze_8
Type: OpType.ReshapeType
Arguments: ['slice_13', 2]
Parents: ['slice_13']
Children: ['slice_14']
--------------------MLIR OPS--------------------
%111 = "tosa.reshape"(%84) <{new_shape = array<i64: 1, 2, 1, 1024, 128>}> : (tensor<1x2x1024x128xf32>) -> tensor<1x2x1x1024x128xf32>

====================Graph Node====================
Node: slice_14
Type: OpType.ReshapeType
Arguments: ['unsqueeze_8', 3, 0, 9223372036854775807]
Parents: ['unsqueeze_8']
Children: ['slice_15']
--------------------MLIR OPS--------------------

====================Graph Node====================
Node: slice_15
Type: OpType.ReshapeType
Arguments: ['slice_14', 4, 0, 9223372036854775807]
Parents: ['slice_14']
Children: ['expand_7']
--------------------MLIR OPS--------------------

====================Graph Node====================
Node: expand_7
Type: OpType.ReshapeType
Arguments: ['slice_15', [1, 2, 6, 1024, 128]]
Parents: ['slice_15']
Children: ['clone_5']
--------------------MLIR OPS--------------------
%112 = "tosa.const"() <{value = dense<0.000000e+00> : tensor<1x2x6x1024x128xf32>}> : () -> tensor<1x2x6x1024x128xf32>
%113 = "tosa.add"(%111, %112) : (tensor<1x2x1x1024x128xf32>, tensor<1x2x6x1024x128xf32>) -> tensor<1x2x6x1024x128xf32>

====================Graph Node====================
Node: clone_5
Type: OpType.ReduceType
Arguments: ['expand_7']
Parents: ['expand_7']
Children: ['view_15']
--------------------MLIR OPS--------------------

====================Graph Node====================
Node: view_15
Type: OpType.ReshapeType
Arguments: ['clone_5', [1, 12, 1024, 128]]
Parents: ['clone_5']
Children: ['_scaled_dot_product_flash_attention_for_cpu']
--------------------MLIR OPS--------------------
%114 = "tosa.reshape"(%113) <{new_shape = array<i64: 1, 12, 1024, 128>}> : (tensor<1x2x6x1024x128xf32>) -> tensor<1x12x1024x128xf32>

====================Graph Node====================
Node: slice_16
Type: OpType.ReshapeType
Arguments: ['expand_1', 0, 0, 9223372036854775807]
Parents: ['expand_1']
Children: ['slice_17']
--------------------MLIR OPS--------------------
%115 = "tosa.reshape"(%18) <{new_shape = array<i64: 1, 1, 1024, 1024>}> : (tensor<1024x1024xi1>) -> tensor<1x1x1024x1024xi1>

====================Graph Node====================
Node: slice_17
Type: OpType.ReshapeType
Arguments: ['slice_16', 1, 0, 9223372036854775807]
Parents: ['slice_16']
Children: ['slice_18']
--------------------MLIR OPS--------------------

====================Graph Node====================
Node: slice_18
Type: OpType.ReshapeType
Arguments: ['slice_17', 2, 0, 9223372036854775807]
Parents: ['slice_17']
Children: ['where']
--------------------MLIR OPS--------------------

====================Graph Node====================
Node: scalar_tensor
Type: OpType.PlaceholderType
Arguments: [-inf]
Parents: []
Children: ['where']
--------------------MLIR OPS--------------------
%116 = "arith.constant"() <{value = 0xFF800000 : f32}> : () -> f32

====================Graph Node====================
Node: scalar_tensor_1
Type: OpType.PlaceholderType
Arguments: [0.0]
Parents: []
Children: ['where']
--------------------MLIR OPS--------------------
%117 = "arith.constant"() <{value = 0.000000e+00 : f32}> : () -> f32

====================Graph Node====================
Node: where
Type: OpType.ElementwiseType
Arguments: ['slice_18', 'scalar_tensor_1', 'scalar_tensor']
Parents: ['slice_18', 'scalar_tensor_1', 'scalar_tensor']
Children: ['_scaled_dot_product_flash_attention_for_cpu']
--------------------MLIR OPS--------------------
%118 = "tensor.empty"() : () -> tensor<1x1x1024x1024xf32>
%119 = "tensor.splat"(%117) : (f32) -> tensor<1x1x1024x1024xf32>
%120 = "tensor.splat"(%116) : (f32) -> tensor<1x1x1024x1024xf32>
%121 = "linalg.generic"(%115, %119, %120, %118) <{indexing_maps = [affine_map<(d0, d1, d2, d3) -> (d0, d1, d2, d3)>, affine_map<(d0, d1, d2, d3) -> (d0, d1, d2, d3)>, affine_map<(d0, d1, d2, d3) -> (d0, d1, d2, d3)>, affine_map<(d0, d1, d2, d3) -> (d0, d1, d2, d3)>], iterator_types = [#linalg.iterator_type<parallel>, #linalg.iterator_type<parallel>, #linalg.iterator_type<parallel>, #linalg.iterator_type<parallel>], operandSegmentSizes = array<i32: 3, 1>}> ({
^bb0(%arg341: i1, %arg342: f32, %arg343: f32, %arg344: f32):
  %122 = "arith.select"(%arg341, %arg342, %arg343) : (i1, f32, f32) -> f32
  "linalg.yield"(%122) : (f32) -> ()
}) : (tensor<1x1x1024x1024xi1>, tensor<1x1x1024x1024xf32>, tensor<1x1x1024x1024xf32>, tensor<1x1x1024x1024xf32>) -> tensor<1x1x1024x1024xf32>

====================Graph Node====================
Node: _scaled_dot_product_flash_attention_for_cpu
Type: OpType.ElementwiseType
Arguments: ['add_2', 'view_14', 'view_15']
Parents: ['add_2', 'view_14', 'view_15']
Children: ['getitem']
--------------------MLIR OPS--------------------
%122 = "arith.constant"() <{value = 0.000000e+00 : f32}> : () -> f32
%123 = "tensor.splat"(%122) : (f32) -> tensor<1024x1024xf32>
%124 = "tosa.reshape"(%121) <{new_shape = array<i64: 1024, 1024>}> : (tensor<1x1x1024x1024xf32>) -> tensor<1024x1024xf32>
%125 = "tosa.add"(%123, %124) : (tensor<1024x1024xf32>, tensor<1024x1024xf32>) -> tensor<1024x1024xf32>
%126 = "tosa.const"() <{value = dense<[0, 1, 3, 2]> : tensor<4xi32>}> : () -> tensor<4xi32>
%127 = "tosa.transpose"(%110, %126) : (tensor<1x12x1024x128xf32>, tensor<4xi32>) -> tensor<1x12x128x1024xf32>
%128 = "tosa.reshape"(%96) <{new_shape = array<i64: 12, 1024, 128>}> : (tensor<1x12x1024x128xf32>) -> tensor<12x1024x128xf32>
%129 = "tosa.reshape"(%127) <{new_shape = array<i64: 12, 128, 1024>}> : (tensor<1x12x128x1024xf32>) -> tensor<12x128x1024xf32>
%130 = "tosa.matmul"(%128, %129) : (tensor<12x1024x128xf32>, tensor<12x128x1024xf32>) -> tensor<12x1024x1024xf32>
%131 = "arith.constant"() <{value = 0.0883883461 : f32}> : () -> f32
%132 = "tensor.splat"(%131) : (f32) -> tensor<12x1024x1024xf32>
%133 = "tosa.mul"(%130, %132) : (tensor<12x1024x1024xf32>, tensor<12x1024x1024xf32>) -> tensor<12x1024x1024xf32>
%134 = "tosa.reshape"(%125) <{new_shape = array<i64: 1, 1024, 1024>}> : (tensor<1024x1024xf32>) -> tensor<1x1024x1024xf32>
%135 = "tosa.add"(%133, %134) : (tensor<12x1024x1024xf32>, tensor<1x1024x1024xf32>) -> tensor<12x1024x1024xf32>
%136 = "tosa.reduce_max"(%135) <{axis = 2 : i32, nan_mode = "PROPAGATE"}> : (tensor<12x1024x1024xf32>) -> tensor<12x1024x1xf32>
%137 = "tosa.sub"(%135, %136) : (tensor<12x1024x1024xf32>, tensor<12x1024x1xf32>) -> tensor<12x1024x1024xf32>
%138 = "math.exp"(%137) <{fastmath = #arith.fastmath<none>}> : (tensor<12x1024x1024xf32>) -> tensor<12x1024x1024xf32>
%139 = "tosa.reduce_sum"(%138) <{axis = 2 : i32}> : (tensor<12x1024x1024xf32>) -> tensor<12x1024x1xf32>
%140 = "tosa.log"(%139) : (tensor<12x1024x1xf32>) -> tensor<12x1024x1xf32>
%141 = "tosa.add"(%136, %140) : (tensor<12x1024x1xf32>, tensor<12x1024x1xf32>) -> tensor<12x1024x1xf32>
%142 = "tosa.sub"(%135, %141) : (tensor<12x1024x1024xf32>, tensor<12x1024x1xf32>) -> tensor<12x1024x1024xf32>
%143 = "math.exp"(%142) <{fastmath = #arith.fastmath<none>}> : (tensor<12x1024x1024xf32>) -> tensor<12x1024x1024xf32>
%144 = "tosa.reshape"(%141) <{new_shape = array<i64: 1, 12, 1024>}> : (tensor<12x1024x1xf32>) -> tensor<1x12x1024xf32>
%145 = "tosa.reshape"(%114) <{new_shape = array<i64: 12, 1024, 128>}> : (tensor<1x12x1024x128xf32>) -> tensor<12x1024x128xf32>
%146 = "tosa.matmul"(%143, %145) : (tensor<12x1024x1024xf32>, tensor<12x1024x128xf32>) -> tensor<12x1024x128xf32>
%147 = "tosa.reshape"(%146) <{new_shape = array<i64: 1, 12, 1024, 128>}> : (tensor<12x1024x128xf32>) -> tensor<1x12x1024x128xf32>

====================Graph Node====================
Node: getitem
Type: OpType.GetItemType
Arguments: ['_scaled_dot_product_flash_attention_for_cpu', 0]
Parents: ['_scaled_dot_product_flash_attention_for_cpu']
Children: ['permute_7']
--------------------MLIR OPS--------------------

====================Graph Node====================
Node: permute_7
Type: OpType.ReshapeType
Arguments: ['getitem', [0, 2, 1, 3]]
Parents: ['getitem']
Children: ['view_16']
--------------------MLIR OPS--------------------
%148 = "tosa.const"() <{value = dense<[0, 2, 1, 3]> : tensor<4xi32>}> : () -> tensor<4xi32>
%149 = "tosa.transpose"(%147, %148) : (tensor<1x12x1024x128xf32>, tensor<4xi32>) -> tensor<1x1024x12x128xf32>

====================Graph Node====================
Node: view_16
Type: OpType.ReshapeType
Arguments: ['permute_7', [1, 1024, -1]]
Parents: ['permute_7']
Children: ['view_17']
--------------------MLIR OPS--------------------
%150 = "tosa.reshape"(%149) <{new_shape = array<i64: 1, 1024, 1536>}> : (tensor<1x1024x12x128xf32>) -> tensor<1x1024x1536xf32>

====================Graph Node====================
Node: permute_8
Type: OpType.ReshapeType
Arguments: ['arg10_1', [1, 0]]
Parents: ['arg10_1']
Children: ['mm']
--------------------MLIR OPS--------------------
%151 = "tosa.const"() <{value = dense<[1, 0]> : tensor<2xi32>}> : () -> tensor<2xi32>
%152 = "tosa.transpose"(%arg10, %151) : (tensor<1536x1536xf32>, tensor<2xi32>) -> tensor<1536x1536xf32>

====================Graph Node====================
Node: view_17
Type: OpType.ReshapeType
Arguments: ['view_16', [1024, 1536]]
Parents: ['view_16']
Children: ['mm']
--------------------MLIR OPS--------------------
%153 = "tosa.reshape"(%150) <{new_shape = array<i64: 1024, 1536>}> : (tensor<1x1024x1536xf32>) -> tensor<1024x1536xf32>

====================Graph Node====================
Node: mm
Type: OpType.ReduceType
Arguments: ['view_17', 'permute_8']
Parents: ['view_17', 'permute_8']
Children: ['view_18']
--------------------MLIR OPS--------------------
%154 = "arith.constant"() <{value = dense<0.000000e+00> : tensor<1024x1536xf32>}> : () -> tensor<1024x1536xf32>
%155 = "linalg.matmul"(%153, %152, %154) <{cast = #linalg.type_fn<cast_signed>, indexing_maps = [affine_map<(d0, d1, d2) -> (d0, d2)>, affine_map<(d0, d1, d2) -> (d2, d1)>, affine_map<(d0, d1, d2) -> (d0, d1)>], operandSegmentSizes = array<i32: 2, 1>}> ({
^bb0(%arg341: f32, %arg342: f32, %arg343: f32):
  %156 = "arith.mulf"(%arg341, %arg342) <{fastmath = #arith.fastmath<none>}> : (f32, f32) -> f32
  %157 = "arith.addf"(%arg343, %156) <{fastmath = #arith.fastmath<none>}> : (f32, f32) -> f32
  "linalg.yield"(%157) : (f32) -> ()
}) : (tensor<1024x1536xf32>, tensor<1536x1536xf32>, tensor<1024x1536xf32>) -> tensor<1024x1536xf32>

====================Graph Node====================
Node: view_18
Type: OpType.ReshapeType
Arguments: ['mm', [1, 1024, 1536]]
Parents: ['mm']
Children: ['add_4']
--------------------MLIR OPS--------------------
%156 = "tosa.reshape"(%155) <{new_shape = array<i64: 1, 1024, 1536>}> : (tensor<1024x1536xf32>) -> tensor<1x1024x1536xf32>

====================Graph Node====================
Node: add_4
Type: OpType.BroadcastType
Arguments: ['embedding', 'view_18']
Parents: ['embedding', 'view_18']
Children: ['pow_2', 'mul_8', 'add_6']
--------------------MLIR OPS--------------------
%157 = "tosa.add"(%2, %156) : (tensor<1x1024x1536xf32>, tensor<1x1024x1536xf32>) -> tensor<1x1024x1536xf32>

====================Graph Node====================
Node: pow_2
Type: OpType.BroadcastType
Arguments: ['add_4', 2]
Parents: ['add_4']
Children: ['mean_1']
--------------------MLIR OPS--------------------
%158 = "tensor.empty"() : () -> tensor<1x1024x1536xf32>
%159 = "arith.constant"() <{value = 2 : i32}> : () -> i32
%160 = "linalg.generic"(%157, %158) <{indexing_maps = [affine_map<(d0, d1, d2) -> (d0, d1, d2)>, affine_map<(d0, d1, d2) -> (d0, d1, d2)>], iterator_types = [#linalg.iterator_type<parallel>, #linalg.iterator_type<parallel>, #linalg.iterator_type<parallel>], operandSegmentSizes = array<i32: 1, 1>}> ({
^bb0(%arg341: f32, %arg342: f32):
  %161 = "math.fpowi"(%arg341, %159) <{fastmath = #arith.fastmath<none>}> : (f32, i32) -> f32
  "linalg.yield"(%161) : (f32) -> ()
}) : (tensor<1x1024x1536xf32>, tensor<1x1024x1536xf32>) -> tensor<1x1024x1536xf32>

====================Graph Node====================
Node: mean_1
Type: OpType.ReduceType
Arguments: ['pow_2', [-1], True]
Parents: ['pow_2']
Children: ['add_5']
--------------------MLIR OPS--------------------
%161 = "tosa.reduce_sum"(%160) <{axis = 2 : i32}> : (tensor<1x1024x1536xf32>) -> tensor<1x1024x1xf32>
%162 = "tosa.const"() <{value = dense<1.536000e+03> : tensor<1xf32>}> : () -> tensor<1xf32>
%163 = "tosa.reciprocal"(%162) : (tensor<1xf32>) -> tensor<1xf32>
%164 = "tosa.reshape"(%163) <{new_shape = array<i64: 1, 1, 1>}> : (tensor<1xf32>) -> tensor<1x1x1xf32>
%165 = "tosa.mul"(%164, %161) : (tensor<1x1x1xf32>, tensor<1x1024x1xf32>) -> tensor<1x1024x1xf32>

====================Graph Node====================
Node: add_5
Type: OpType.BroadcastType
Arguments: ['mean_1', 1e-06]
Parents: ['mean_1']
Children: ['rsqrt_1']
--------------------MLIR OPS--------------------
%166 = "tosa.const"() <{value = dense<9.99999997E-7> : tensor<1x1024x1xf32>}> : () -> tensor<1x1024x1xf32>
%167 = "tosa.add"(%165, %166) : (tensor<1x1024x1xf32>, tensor<1x1024x1xf32>) -> tensor<1x1024x1xf32>

====================Graph Node====================
Node: rsqrt_1
Type: OpType.ElementwiseType
Arguments: ['add_5']
Parents: ['add_5']
Children: ['mul_8']
--------------------MLIR OPS--------------------
%168 = "tosa.rsqrt"(%167) : (tensor<1x1024x1xf32>) -> tensor<1x1024x1xf32>

====================Graph Node====================
Node: mul_8
Type: OpType.BroadcastType
Arguments: ['add_4', 'rsqrt_1']
Parents: ['add_4', 'rsqrt_1']
Children: ['mul_9']
--------------------MLIR OPS--------------------
%169 = "tosa.mul"(%157, %168) : (tensor<1x1024x1536xf32>, tensor<1x1024x1xf32>) -> tensor<1x1024x1536xf32>

====================Graph Node====================
Node: mul_9
Type: OpType.BroadcastType
Arguments: ['arg11_1', 'mul_8']
Parents: ['arg11_1', 'mul_8']
Children: ['view_19', 'view_21']
--------------------MLIR OPS--------------------
%170 = "tosa.reshape"(%arg11) <{new_shape = array<i64: 1, 1, 1536>}> : (tensor<1536xf32>) -> tensor<1x1x1536xf32>
%171 = "tosa.mul"(%170, %169) : (tensor<1x1x1536xf32>, tensor<1x1024x1536xf32>) -> tensor<1x1024x1536xf32>

====================Graph Node====================
Node: permute_9
Type: OpType.ReshapeType
Arguments: ['arg12_1', [1, 0]]
Parents: ['arg12_1']
Children: ['mm_1']
--------------------MLIR OPS--------------------
%172 = "tosa.const"() <{value = dense<[1, 0]> : tensor<2xi32>}> : () -> tensor<2xi32>
%173 = "tosa.transpose"(%arg12, %172) : (tensor<8960x1536xf32>, tensor<2xi32>) -> tensor<1536x8960xf32>

====================Graph Node====================
Node: view_19
Type: OpType.ReshapeType
Arguments: ['mul_9', [1024, 1536]]
Parents: ['mul_9']
Children: ['mm_1']
--------------------MLIR OPS--------------------
%174 = "tosa.reshape"(%171) <{new_shape = array<i64: 1024, 1536>}> : (tensor<1x1024x1536xf32>) -> tensor<1024x1536xf32>

====================Graph Node====================
Node: mm_1
Type: OpType.ReduceType
Arguments: ['view_19', 'permute_9']
Parents: ['view_19', 'permute_9']
Children: ['view_20']
--------------------MLIR OPS--------------------
%175 = "arith.constant"() <{value = dense<0.000000e+00> : tensor<1024x8960xf32>}> : () -> tensor<1024x8960xf32>
%176 = "linalg.matmul"(%174, %173, %175) <{cast = #linalg.type_fn<cast_signed>, indexing_maps = [affine_map<(d0, d1, d2) -> (d0, d2)>, affine_map<(d0, d1, d2) -> (d2, d1)>, affine_map<(d0, d1, d2) -> (d0, d1)>], operandSegmentSizes = array<i32: 2, 1>}> ({
^bb0(%arg341: f32, %arg342: f32, %arg343: f32):
  %177 = "arith.mulf"(%arg341, %arg342) <{fastmath = #arith.fastmath<none>}> : (f32, f32) -> f32
  %178 = "arith.addf"(%arg343, %177) <{fastmath = #arith.fastmath<none>}> : (f32, f32) -> f32
  "linalg.yield"(%178) : (f32) -> ()
}) : (tensor<1024x1536xf32>, tensor<1536x8960xf32>, tensor<1024x8960xf32>) -> tensor<1024x8960xf32>

====================Graph Node====================
Node: view_20
Type: OpType.ReshapeType
Arguments: ['mm_1', [1, 1024, 8960]]
Parents: ['mm_1']
Children: ['sigmoid', 'mul_10']
--------------------MLIR OPS--------------------
%177 = "tosa.reshape"(%176) <{new_shape = array<i64: 1, 1024, 8960>}> : (tensor<1024x8960xf32>) -> tensor<1x1024x8960xf32>

====================Graph Node====================
Node: sigmoid
Type: OpType.ElementwiseType
Arguments: ['view_20']
Parents: ['view_20']
Children: ['mul_10']
--------------------MLIR OPS--------------------
%178 = "tosa.sigmoid"(%177) : (tensor<1x1024x8960xf32>) -> tensor<1x1024x8960xf32>

====================Graph Node====================
Node: mul_10
Type: OpType.BroadcastType
Arguments: ['view_20', 'sigmoid']
Parents: ['view_20', 'sigmoid']
Children: ['mul_11']
--------------------MLIR OPS--------------------
%179 = "tosa.mul"(%177, %178) : (tensor<1x1024x8960xf32>, tensor<1x1024x8960xf32>) -> tensor<1x1024x8960xf32>

====================Graph Node====================
Node: permute_10
Type: OpType.ReshapeType
Arguments: ['arg13_1', [1, 0]]
Parents: ['arg13_1']
Children: ['mm_2']
--------------------MLIR OPS--------------------
%180 = "tosa.const"() <{value = dense<[1, 0]> : tensor<2xi32>}> : () -> tensor<2xi32>
%181 = "tosa.transpose"(%arg13, %180) : (tensor<8960x1536xf32>, tensor<2xi32>) -> tensor<1536x8960xf32>

====================Graph Node====================
Node: view_21
Type: OpType.ReshapeType
Arguments: ['mul_9', [1024, 1536]]
Parents: ['mul_9']
Children: ['mm_2']
--------------------MLIR OPS--------------------
%182 = "tosa.reshape"(%171) <{new_shape = array<i64: 1024, 1536>}> : (tensor<1x1024x1536xf32>) -> tensor<1024x1536xf32>

====================Graph Node====================
Node: mm_2
Type: OpType.ReduceType
Arguments: ['view_21', 'permute_10']
Parents: ['view_21', 'permute_10']
Children: ['view_22']
--------------------MLIR OPS--------------------
%183 = "arith.constant"() <{value = dense<0.000000e+00> : tensor<1024x8960xf32>}> : () -> tensor<1024x8960xf32>
%184 = "linalg.matmul"(%182, %181, %183) <{cast = #linalg.type_fn<cast_signed>, indexing_maps = [affine_map<(d0, d1, d2) -> (d0, d2)>, affine_map<(d0, d1, d2) -> (d2, d1)>, affine_map<(d0, d1, d2) -> (d0, d1)>], operandSegmentSizes = array<i32: 2, 1>}> ({
^bb0(%arg341: f32, %arg342: f32, %arg343: f32):
  %185 = "arith.mulf"(%arg341, %arg342) <{fastmath = #arith.fastmath<none>}> : (f32, f32) -> f32
  %186 = "arith.addf"(%arg343, %185) <{fastmath = #arith.fastmath<none>}> : (f32, f32) -> f32
  "linalg.yield"(%186) : (f32) -> ()
}) : (tensor<1024x1536xf32>, tensor<1536x8960xf32>, tensor<1024x8960xf32>) -> tensor<1024x8960xf32>

====================Graph Node====================
Node: view_22
Type: OpType.ReshapeType
Arguments: ['mm_2', [1, 1024, 8960]]
Parents: ['mm_2']
Children: ['mul_11']
--------------------MLIR OPS--------------------
%185 = "tosa.reshape"(%184) <{new_shape = array<i64: 1, 1024, 8960>}> : (tensor<1024x8960xf32>) -> tensor<1x1024x8960xf32>

====================Graph Node====================
Node: mul_11
Type: OpType.BroadcastType
Arguments: ['mul_10', 'view_22']
Parents: ['mul_10', 'view_22']
Children: ['view_23']
--------------------MLIR OPS--------------------
%186 = "tosa.mul"(%179, %185) : (tensor<1x1024x8960xf32>, tensor<1x1024x8960xf32>) -> tensor<1x1024x8960xf32>

====================Graph Node====================
Node: permute_11
Type: OpType.ReshapeType
Arguments: ['arg14_1', [1, 0]]
Parents: ['arg14_1']
Children: ['mm_3']
--------------------MLIR OPS--------------------
%187 = "tosa.const"() <{value = dense<[1, 0]> : tensor<2xi32>}> : () -> tensor<2xi32>
%188 = "tosa.transpose"(%arg14, %187) : (tensor<1536x8960xf32>, tensor<2xi32>) -> tensor<8960x1536xf32>

====================Graph Node====================
Node: view_23
Type: OpType.ReshapeType
Arguments: ['mul_11', [1024, 8960]]
Parents: ['mul_11']
Children: ['mm_3']
--------------------MLIR OPS--------------------
%189 = "tosa.reshape"(%186) <{new_shape = array<i64: 1024, 8960>}> : (tensor<1x1024x8960xf32>) -> tensor<1024x8960xf32>

====================Graph Node====================
Node: mm_3
Type: OpType.ReduceType
Arguments: ['view_23', 'permute_11']
Parents: ['view_23', 'permute_11']
Children: ['view_24']
--------------------MLIR OPS--------------------
%190 = "arith.constant"() <{value = dense<0.000000e+00> : tensor<1024x1536xf32>}> : () -> tensor<1024x1536xf32>
%191 = "linalg.matmul"(%189, %188, %190) <{cast = #linalg.type_fn<cast_signed>, indexing_maps = [affine_map<(d0, d1, d2) -> (d0, d2)>, affine_map<(d0, d1, d2) -> (d2, d1)>, affine_map<(d0, d1, d2) -> (d0, d1)>], operandSegmentSizes = array<i32: 2, 1>}> ({
^bb0(%arg341: f32, %arg342: f32, %arg343: f32):
  %192 = "arith.mulf"(%arg341, %arg342) <{fastmath = #arith.fastmath<none>}> : (f32, f32) -> f32
  %193 = "arith.addf"(%arg343, %192) <{fastmath = #arith.fastmath<none>}> : (f32, f32) -> f32
  "linalg.yield"(%193) : (f32) -> ()
}) : (tensor<1024x8960xf32>, tensor<8960x1536xf32>, tensor<1024x1536xf32>) -> tensor<1024x1536xf32>

====================Graph Node====================
Node: view_24
Type: OpType.ReshapeType
Arguments: ['mm_3', [1, 1024, 1536]]
Parents: ['mm_3']
Children: ['add_6']
--------------------MLIR OPS--------------------
%192 = "tosa.reshape"(%191) <{new_shape = array<i64: 1, 1024, 1536>}> : (tensor<1024x1536xf32>) -> tensor<1x1024x1536xf32>

====================Graph Node====================
Node: add_6
Type: OpType.BroadcastType
Arguments: ['add_4', 'view_24']
Parents: ['add_4', 'view_24']
Children: ['pow_3', 'mul_12', 'add_10']
--------------------MLIR OPS--------------------
%193 = "tosa.add"(%157, %192) : (tensor<1x1024x1536xf32>, tensor<1x1024x1536xf32>) -> tensor<1x1024x1536xf32>

====================Graph Node====================
Node: pow_3
Type: OpType.BroadcastType
Arguments: ['add_6', 2]
Parents: ['add_6']
Children: ['mean_2']
--------------------MLIR OPS--------------------
%194 = "tensor.empty"() : () -> tensor<1x1024x1536xf32>
%195 = "arith.constant"() <{value = 2 : i32}> : () -> i32
%196 = "linalg.generic"(%193, %194) <{indexing_maps = [affine_map<(d0, d1, d2) -> (d0, d1, d2)>, affine_map<(d0, d1, d2) -> (d0, d1, d2)>], iterator_types = [#linalg.iterator_type<parallel>, #linalg.iterator_type<parallel>, #linalg.iterator_type<parallel>], operandSegmentSizes = array<i32: 1, 1>}> ({
^bb0(%arg341: f32, %arg342: f32):
  %197 = "math.fpowi"(%arg341, %195) <{fastmath = #arith.fastmath<none>}> : (f32, i32) -> f32
  "linalg.yield"(%197) : (f32) -> ()
}) : (tensor<1x1024x1536xf32>, tensor<1x1024x1536xf32>) -> tensor<1x1024x1536xf32>

====================Graph Node====================
Node: mean_2
Type: OpType.ReduceType
Arguments: ['pow_3', [-1], True]
Parents: ['pow_3']
Children: ['add_7']
--------------------MLIR OPS--------------------
%197 = "tosa.reduce_sum"(%196) <{axis = 2 : i32}> : (tensor<1x1024x1536xf32>) -> tensor<1x1024x1xf32>
%198 = "tosa.const"() <{value = dense<1.536000e+03> : tensor<1xf32>}> : () -> tensor<1xf32>
%199 = "tosa.reciprocal"(%198) : (tensor<1xf32>) -> tensor<1xf32>
%200 = "tosa.reshape"(%199) <{new_shape = array<i64: 1, 1, 1>}> : (tensor<1xf32>) -> tensor<1x1x1xf32>
%201 = "tosa.mul"(%200, %197) : (tensor<1x1x1xf32>, tensor<1x1024x1xf32>) -> tensor<1x1024x1xf32>

====================Graph Node====================
Node: add_7
Type: OpType.BroadcastType
Arguments: ['mean_2', 1e-06]
Parents: ['mean_2']
Children: ['rsqrt_2']
--------------------MLIR OPS--------------------
%202 = "tosa.const"() <{value = dense<9.99999997E-7> : tensor<1x1024x1xf32>}> : () -> tensor<1x1024x1xf32>
%203 = "tosa.add"(%201, %202) : (tensor<1x1024x1xf32>, tensor<1x1024x1xf32>) -> tensor<1x1024x1xf32>

====================Graph Node====================
Node: rsqrt_2
Type: OpType.ElementwiseType
Arguments: ['add_7']
Parents: ['add_7']
Children: ['mul_12']
--------------------MLIR OPS--------------------
%204 = "tosa.rsqrt"(%203) : (tensor<1x1024x1xf32>) -> tensor<1x1024x1xf32>

====================Graph Node====================
Node: mul_12
Type: OpType.BroadcastType
Arguments: ['add_6', 'rsqrt_2']
Parents: ['add_6', 'rsqrt_2']
Children: ['mul_13']
--------------------MLIR OPS--------------------
%205 = "tosa.mul"(%193, %204) : (tensor<1x1024x1536xf32>, tensor<1x1024x1xf32>) -> tensor<1x1024x1536xf32>

====================Graph Node====================
Node: mul_13
Type: OpType.BroadcastType
Arguments: ['arg15_1', 'mul_12']
Parents: ['arg15_1', 'mul_12']
Children: ['view_25', 'view_28', 'view_31']
--------------------MLIR OPS--------------------
%206 = "tosa.reshape"(%arg15) <{new_shape = array<i64: 1, 1, 1536>}> : (tensor<1536xf32>) -> tensor<1x1x1536xf32>
%207 = "tosa.mul"(%206, %205) : (tensor<1x1x1536xf32>, tensor<1x1024x1536xf32>) -> tensor<1x1024x1536xf32>

====================Graph Node====================
Node: view_25
Type: OpType.ReshapeType
Arguments: ['mul_13', [1024, 1536]]
Parents: ['mul_13']
Children: ['addmm_3']
--------------------MLIR OPS--------------------
%208 = "tosa.reshape"(%207) <{new_shape = array<i64: 1024, 1536>}> : (tensor<1x1024x1536xf32>) -> tensor<1024x1536xf32>

====================Graph Node====================
Node: permute_12
Type: OpType.ReshapeType
Arguments: ['arg16_1', [1, 0]]
Parents: ['arg16_1']
Children: ['addmm_3']
--------------------MLIR OPS--------------------
%209 = "tosa.const"() <{value = dense<[1, 0]> : tensor<2xi32>}> : () -> tensor<2xi32>
%210 = "tosa.transpose"(%arg16, %209) : (tensor<1536x1536xf32>, tensor<2xi32>) -> tensor<1536x1536xf32>

====================Graph Node====================
Node: addmm_3
Type: OpType.ReduceType
Arguments: ['arg17_1', 'view_25', 'permute_12']
Parents: ['arg17_1', 'view_25', 'permute_12']
Children: ['view_26']
--------------------MLIR OPS--------------------
%211 = "arith.constant"() <{value = dense<0.000000e+00> : tensor<1024x1536xf32>}> : () -> tensor<1024x1536xf32>
%212 = "linalg.matmul"(%208, %210, %211) <{cast = #linalg.type_fn<cast_signed>, indexing_maps = [affine_map<(d0, d1, d2) -> (d0, d2)>, affine_map<(d0, d1, d2) -> (d2, d1)>, affine_map<(d0, d1, d2) -> (d0, d1)>], operandSegmentSizes = array<i32: 2, 1>}> ({
^bb0(%arg341: f32, %arg342: f32, %arg343: f32):
  %215 = "arith.mulf"(%arg341, %arg342) <{fastmath = #arith.fastmath<none>}> : (f32, f32) -> f32
  %216 = "arith.addf"(%arg343, %215) <{fastmath = #arith.fastmath<none>}> : (f32, f32) -> f32
  "linalg.yield"(%216) : (f32) -> ()
}) : (tensor<1024x1536xf32>, tensor<1536x1536xf32>, tensor<1024x1536xf32>) -> tensor<1024x1536xf32>
%213 = "tosa.reshape"(%arg17) <{new_shape = array<i64: 1, 1536>}> : (tensor<1536xf32>) -> tensor<1x1536xf32>
%214 = "tosa.add"(%213, %212) : (tensor<1x1536xf32>, tensor<1024x1536xf32>) -> tensor<1024x1536xf32>

====================Graph Node====================
Node: view_26
Type: OpType.ReshapeType
Arguments: ['addmm_3', [1, 1024, 1536]]
Parents: ['addmm_3']
Children: ['view_27']
--------------------MLIR OPS--------------------
%215 = "tosa.reshape"(%214) <{new_shape = array<i64: 1, 1024, 1536>}> : (tensor<1024x1536xf32>) -> tensor<1x1024x1536xf32>

====================Graph Node====================
Node: view_27
Type: OpType.ReshapeType
Arguments: ['view_26', [1, 1024, -1, 128]]
Parents: ['view_26']
Children: ['permute_13']
--------------------MLIR OPS--------------------
%216 = "tosa.reshape"(%215) <{new_shape = array<i64: 1, 1024, 12, 128>}> : (tensor<1x1024x1536xf32>) -> tensor<1x1024x12x128xf32>

====================Graph Node====================
Node: permute_13
Type: OpType.ReshapeType
Arguments: ['view_27', [0, 2, 1, 3]]
Parents: ['view_27']
Children: ['mul_14', 'slice_19', 'slice_20']
--------------------MLIR OPS--------------------
%217 = "tosa.const"() <{value = dense<[0, 2, 1, 3]> : tensor<4xi32>}> : () -> tensor<4xi32>
%218 = "tosa.transpose"(%216, %217) : (tensor<1x1024x12x128xf32>, tensor<4xi32>) -> tensor<1x12x1024x128xf32>

====================Graph Node====================
Node: view_28
Type: OpType.ReshapeType
Arguments: ['mul_13', [1024, 1536]]
Parents: ['mul_13']
Children: ['addmm_4']
--------------------MLIR OPS--------------------
%219 = "tosa.reshape"(%207) <{new_shape = array<i64: 1024, 1536>}> : (tensor<1x1024x1536xf32>) -> tensor<1024x1536xf32>

====================Graph Node====================
Node: permute_14
Type: OpType.ReshapeType
Arguments: ['arg18_1', [1, 0]]
Parents: ['arg18_1']
Children: ['addmm_4']
--------------------MLIR OPS--------------------
%220 = "tosa.const"() <{value = dense<[1, 0]> : tensor<2xi32>}> : () -> tensor<2xi32>
%221 = "tosa.transpose"(%arg18, %220) : (tensor<256x1536xf32>, tensor<2xi32>) -> tensor<1536x256xf32>

====================Graph Node====================
Node: addmm_4
Type: OpType.ReduceType
Arguments: ['arg19_1', 'view_28', 'permute_14']
Parents: ['arg19_1', 'view_28', 'permute_14']
Children: ['view_29']
--------------------MLIR OPS--------------------
%222 = "arith.constant"() <{value = dense<0.000000e+00> : tensor<1024x256xf32>}> : () -> tensor<1024x256xf32>
%223 = "linalg.matmul"(%219, %221, %222) <{cast = #linalg.type_fn<cast_signed>, indexing_maps = [affine_map<(d0, d1, d2) -> (d0, d2)>, affine_map<(d0, d1, d2) -> (d2, d1)>, affine_map<(d0, d1, d2) -> (d0, d1)>], operandSegmentSizes = array<i32: 2, 1>}> ({
^bb0(%arg341: f32, %arg342: f32, %arg343: f32):
  %226 = "arith.mulf"(%arg341, %arg342) <{fastmath = #arith.fastmath<none>}> : (f32, f32) -> f32
  %227 = "arith.addf"(%arg343, %226) <{fastmath = #arith.fastmath<none>}> : (f32, f32) -> f32
  "linalg.yield"(%227) : (f32) -> ()
}) : (tensor<1024x1536xf32>, tensor<1536x256xf32>, tensor<1024x256xf32>) -> tensor<1024x256xf32>
%224 = "tosa.reshape"(%arg19) <{new_shape = array<i64: 1, 256>}> : (tensor<256xf32>) -> tensor<1x256xf32>
%225 = "tosa.add"(%224, %223) : (tensor<1x256xf32>, tensor<1024x256xf32>) -> tensor<1024x256xf32>

====================Graph Node====================
Node: view_29
Type: OpType.ReshapeType
Arguments: ['addmm_4', [1, 1024, 256]]
Parents: ['addmm_4']
Children: ['view_30']
--------------------MLIR OPS--------------------
%226 = "tosa.reshape"(%225) <{new_shape = array<i64: 1, 1024, 256>}> : (tensor<1024x256xf32>) -> tensor<1x1024x256xf32>

====================Graph Node====================
Node: view_30
Type: OpType.ReshapeType
Arguments: ['view_29', [1, 1024, -1, 128]]
Parents: ['view_29']
Children: ['permute_15']
--------------------MLIR OPS--------------------
%227 = "tosa.reshape"(%226) <{new_shape = array<i64: 1, 1024, 2, 128>}> : (tensor<1x1024x256xf32>) -> tensor<1x1024x2x128xf32>

====================Graph Node====================
Node: permute_15
Type: OpType.ReshapeType
Arguments: ['view_30', [0, 2, 1, 3]]
Parents: ['view_30']
Children: ['mul_16', 'slice_21', 'slice_22']
--------------------MLIR OPS--------------------
%228 = "tosa.const"() <{value = dense<[0, 2, 1, 3]> : tensor<4xi32>}> : () -> tensor<4xi32>
%229 = "tosa.transpose"(%227, %228) : (tensor<1x1024x2x128xf32>, tensor<4xi32>) -> tensor<1x2x1024x128xf32>

====================Graph Node====================
Node: view_31
Type: OpType.ReshapeType
Arguments: ['mul_13', [1024, 1536]]
Parents: ['mul_13']
Children: ['addmm_5']
--------------------MLIR OPS--------------------
%230 = "tosa.reshape"(%207) <{new_shape = array<i64: 1024, 1536>}> : (tensor<1x1024x1536xf32>) -> tensor<1024x1536xf32>

====================Graph Node====================
Node: permute_16
Type: OpType.ReshapeType
Arguments: ['arg20_1', [1, 0]]
Parents: ['arg20_1']
Children: ['addmm_5']
--------------------MLIR OPS--------------------
%231 = "tosa.const"() <{value = dense<[1, 0]> : tensor<2xi32>}> : () -> tensor<2xi32>
%232 = "tosa.transpose"(%arg20, %231) : (tensor<256x1536xf32>, tensor<2xi32>) -> tensor<1536x256xf32>

====================Graph Node====================
Node: addmm_5
Type: OpType.ReduceType
Arguments: ['arg21_1', 'view_31', 'permute_16']
Parents: ['arg21_1', 'view_31', 'permute_16']
Children: ['view_32']
--------------------MLIR OPS--------------------
%233 = "arith.constant"() <{value = dense<0.000000e+00> : tensor<1024x256xf32>}> : () -> tensor<1024x256xf32>
%234 = "linalg.matmul"(%230, %232, %233) <{cast = #linalg.type_fn<cast_signed>, indexing_maps = [affine_map<(d0, d1, d2) -> (d0, d2)>, affine_map<(d0, d1, d2) -> (d2, d1)>, affine_map<(d0, d1, d2) -> (d0, d1)>], operandSegmentSizes = array<i32: 2, 1>}> ({
^bb0(%arg341: f32, %arg342: f32, %arg343: f32):
  %237 = "arith.mulf"(%arg341, %arg342) <{fastmath = #arith.fastmath<none>}> : (f32, f32) -> f32
  %238 = "arith.addf"(%arg343, %237) <{fastmath = #arith.fastmath<none>}> : (f32, f32) -> f32
  "linalg.yield"(%238) : (f32) -> ()
}) : (tensor<1024x1536xf32>, tensor<1536x256xf32>, tensor<1024x256xf32>) -> tensor<1024x256xf32>
%235 = "tosa.reshape"(%arg21) <{new_shape = array<i64: 1, 256>}> : (tensor<256xf32>) -> tensor<1x256xf32>
%236 = "tosa.add"(%235, %234) : (tensor<1x256xf32>, tensor<1024x256xf32>) -> tensor<1024x256xf32>

====================Graph Node====================
Node: view_32
Type: OpType.ReshapeType
Arguments: ['addmm_5', [1, 1024, 256]]
Parents: ['addmm_5']
Children: ['view_33']
--------------------MLIR OPS--------------------
%237 = "tosa.reshape"(%236) <{new_shape = array<i64: 1, 1024, 256>}> : (tensor<1024x256xf32>) -> tensor<1x1024x256xf32>

====================Graph Node====================
Node: view_33
Type: OpType.ReshapeType
Arguments: ['view_32', [1, 1024, -1, 128]]
Parents: ['view_32']
Children: ['permute_17']
--------------------MLIR OPS--------------------
%238 = "tosa.reshape"(%237) <{new_shape = array<i64: 1, 1024, 2, 128>}> : (tensor<1x1024x256xf32>) -> tensor<1x1024x2x128xf32>

====================Graph Node====================
Node: permute_17
Type: OpType.ReshapeType
Arguments: ['view_33', [0, 2, 1, 3]]
Parents: ['view_33']
Children: ['clone_7']
--------------------MLIR OPS--------------------
%239 = "tosa.const"() <{value = dense<[0, 2, 1, 3]> : tensor<4xi32>}> : () -> tensor<4xi32>
%240 = "tosa.transpose"(%238, %239) : (tensor<1x1024x2x128xf32>, tensor<4xi32>) -> tensor<1x2x1024x128xf32>

====================Graph Node====================
Node: unsqueeze_9
Type: OpType.ReshapeType
Arguments: ['mul', 1]
Parents: ['mul']
Children: ['mul_14', 'mul_16']
--------------------MLIR OPS--------------------
%241 = "tosa.reshape"(%33) <{new_shape = array<i64: 1, 1, 1024, 128>}> : (tensor<1x1024x128xf32>) -> tensor<1x1x1024x128xf32>

====================Graph Node====================
Node: unsqueeze_10
Type: OpType.ReshapeType
Arguments: ['mul_1', 1]
Parents: ['mul_1']
Children: ['mul_15', 'mul_17']
--------------------MLIR OPS--------------------
%242 = "tosa.reshape"(%37) <{new_shape = array<i64: 1, 1, 1024, 128>}> : (tensor<1x1024x128xf32>) -> tensor<1x1x1024x128xf32>

====================Graph Node====================
Node: mul_14
Type: OpType.BroadcastType
Arguments: ['permute_13', 'unsqueeze_9']
Parents: ['permute_13', 'unsqueeze_9']
Children: ['add_8']
--------------------MLIR OPS--------------------
%243 = "tosa.mul"(%218, %241) : (tensor<1x12x1024x128xf32>, tensor<1x1x1024x128xf32>) -> tensor<1x12x1024x128xf32>

====================Graph Node====================
Node: slice_19
Type: OpType.ReshapeType
Arguments: ['permute_13', 3, 0, 64]
Parents: ['permute_13']
Children: ['cat_2']
--------------------MLIR OPS--------------------
%244 = "tensor.extract_slice"(%218) <{operandSegmentSizes = array<i32: 1, 0, 0, 0>, static_offsets = array<i64: 0, 0, 0, 0>, static_sizes = array<i64: 1, 12, 1024, 64>, static_strides = array<i64: 1, 1, 1, 1>}> : (tensor<1x12x1024x128xf32>) -> tensor<1x12x1024x64xf32>

====================Graph Node====================
Node: slice_20
Type: OpType.ReshapeType
Arguments: ['permute_13', 3, 64, 9223372036854775807]
Parents: ['permute_13']
Children: ['neg_2']
--------------------MLIR OPS--------------------
%245 = "tensor.extract_slice"(%218) <{operandSegmentSizes = array<i32: 1, 0, 0, 0>, static_offsets = array<i64: 0, 0, 0, 64>, static_sizes = array<i64: 1, 12, 1024, 64>, static_strides = array<i64: 1, 1, 1, 1>}> : (tensor<1x12x1024x128xf32>) -> tensor<1x12x1024x64xf32>

====================Graph Node====================
Node: neg_2
Type: OpType.ElementwiseType
Arguments: ['slice_20']
Parents: ['slice_20']
Children: ['cat_2']
--------------------MLIR OPS--------------------
%246 = "tensor.empty"() : () -> tensor<1x12x1024x64xf32>
%247 = "linalg.negf"(%245, %246) <{operandSegmentSizes = array<i32: 1, 1>}> ({
^bb0(%arg341: f32, %arg342: f32):
  %248 = "arith.negf"(%arg341) <{fastmath = #arith.fastmath<none>}> : (f32) -> f32
  "linalg.yield"(%248) : (f32) -> ()
}) : (tensor<1x12x1024x64xf32>, tensor<1x12x1024x64xf32>) -> tensor<1x12x1024x64xf32>

====================Graph Node====================
Node: cat_2
Type: OpType.ConcatType
Arguments: [[neg_2, slice_19], -1]
Parents: []
Children: ['mul_15']
--------------------MLIR OPS--------------------
%248 = "tensor.empty"() : () -> tensor<1x12x1024x128xf32>
%249 = "tensor.insert_slice"(%247, %248) <{operandSegmentSizes = array<i32: 1, 1, 0, 0, 0>, static_offsets = array<i64: 0, 0, 0, 0>, static_sizes = array<i64: 1, 12, 1024, 64>, static_strides = array<i64: 1, 1, 1, 1>}> : (tensor<1x12x1024x64xf32>, tensor<1x12x1024x128xf32>) -> tensor<1x12x1024x128xf32>
%250 = "tensor.insert_slice"(%244, %249) <{operandSegmentSizes = array<i32: 1, 1, 0, 0, 0>, static_offsets = array<i64: 0, 0, 0, 64>, static_sizes = array<i64: 1, 12, 1024, 64>, static_strides = array<i64: 1, 1, 1, 1>}> : (tensor<1x12x1024x64xf32>, tensor<1x12x1024x128xf32>) -> tensor<1x12x1024x128xf32>

====================Graph Node====================
Node: mul_15
Type: OpType.BroadcastType
Arguments: ['cat_2', 'unsqueeze_10']
Parents: ['cat_2', 'unsqueeze_10']
Children: ['add_8']
--------------------MLIR OPS--------------------
%251 = "tosa.mul"(%250, %242) : (tensor<1x12x1024x128xf32>, tensor<1x1x1024x128xf32>) -> tensor<1x12x1024x128xf32>

====================Graph Node====================
Node: add_8
Type: OpType.BroadcastType
Arguments: ['mul_14', 'mul_15']
Parents: ['mul_14', 'mul_15']
Children: ['_scaled_dot_product_flash_attention_for_cpu_1']
--------------------MLIR OPS--------------------
%252 = "tosa.add"(%243, %251) : (tensor<1x12x1024x128xf32>, tensor<1x12x1024x128xf32>) -> tensor<1x12x1024x128xf32>

====================Graph Node====================
Node: mul_16
Type: OpType.BroadcastType
Arguments: ['permute_15', 'unsqueeze_9']
Parents: ['permute_15', 'unsqueeze_9']
Children: ['add_9']
--------------------MLIR OPS--------------------
%253 = "tosa.mul"(%229, %241) : (tensor<1x2x1024x128xf32>, tensor<1x1x1024x128xf32>) -> tensor<1x2x1024x128xf32>

====================Graph Node====================
Node: slice_21
Type: OpType.ReshapeType
Arguments: ['permute_15', 3, 0, 64]
Parents: ['permute_15']
Children: ['cat_3']
--------------------MLIR OPS--------------------
%254 = "tensor.extract_slice"(%229) <{operandSegmentSizes = array<i32: 1, 0, 0, 0>, static_offsets = array<i64: 0, 0, 0, 0>, static_sizes = array<i64: 1, 2, 1024, 64>, static_strides = array<i64: 1, 1, 1, 1>}> : (tensor<1x2x1024x128xf32>) -> tensor<1x2x1024x64xf32>

====================Graph Node====================
Node: slice_22
Type: OpType.ReshapeType
Arguments: ['permute_15', 3, 64, 9223372036854775807]
Parents: ['permute_15']
Children: ['neg_3']
--------------------MLIR OPS--------------------
%255 = "tensor.extract_slice"(%229) <{operandSegmentSizes = array<i32: 1, 0, 0, 0>, static_offsets = array<i64: 0, 0, 0, 64>, static_sizes = array<i64: 1, 2, 1024, 64>, static_strides = array<i64: 1, 1, 1, 1>}> : (tensor<1x2x1024x128xf32>) -> tensor<1x2x1024x64xf32>

====================Graph Node====================
Node: neg_3
Type: OpType.ElementwiseType
Arguments: ['slice_22']
Parents: ['slice_22']
Children: ['cat_3']
--------------------MLIR OPS--------------------
%256 = "tensor.empty"() : () -> tensor<1x2x1024x64xf32>
%257 = "linalg.negf"(%255, %256) <{operandSegmentSizes = array<i32: 1, 1>}> ({
^bb0(%arg341: f32, %arg342: f32):
  %258 = "arith.negf"(%arg341) <{fastmath = #arith.fastmath<none>}> : (f32) -> f32
  "linalg.yield"(%258) : (f32) -> ()
}) : (tensor<1x2x1024x64xf32>, tensor<1x2x1024x64xf32>) -> tensor<1x2x1024x64xf32>

====================Graph Node====================
Node: cat_3
Type: OpType.ConcatType
Arguments: [[neg_3, slice_21], -1]
Parents: []
Children: ['mul_17']
--------------------MLIR OPS--------------------
%258 = "tensor.empty"() : () -> tensor<1x2x1024x128xf32>
%259 = "tensor.insert_slice"(%257, %258) <{operandSegmentSizes = array<i32: 1, 1, 0, 0, 0>, static_offsets = array<i64: 0, 0, 0, 0>, static_sizes = array<i64: 1, 2, 1024, 64>, static_strides = array<i64: 1, 1, 1, 1>}> : (tensor<1x2x1024x64xf32>, tensor<1x2x1024x128xf32>) -> tensor<1x2x1024x128xf32>
%260 = "tensor.insert_slice"(%254, %259) <{operandSegmentSizes = array<i32: 1, 1, 0, 0, 0>, static_offsets = array<i64: 0, 0, 0, 64>, static_sizes = array<i64: 1, 2, 1024, 64>, static_strides = array<i64: 1, 1, 1, 1>}> : (tensor<1x2x1024x64xf32>, tensor<1x2x1024x128xf32>) -> tensor<1x2x1024x128xf32>

====================Graph Node====================
Node: mul_17
Type: OpType.BroadcastType
Arguments: ['cat_3', 'unsqueeze_10']
Parents: ['cat_3', 'unsqueeze_10']
Children: ['add_9']
--------------------MLIR OPS--------------------
%261 = "tosa.mul"(%260, %242) : (tensor<1x2x1024x128xf32>, tensor<1x1x1024x128xf32>) -> tensor<1x2x1024x128xf32>

====================Graph Node====================
Node: add_9
Type: OpType.BroadcastType
Arguments: ['mul_16', 'mul_17']
Parents: ['mul_16', 'mul_17']
Children: ['clone_6']
--------------------MLIR OPS--------------------
%262 = "tosa.add"(%253, %261) : (tensor<1x2x1024x128xf32>, tensor<1x2x1024x128xf32>) -> tensor<1x2x1024x128xf32>

====================Graph Node====================
Node: clone_6
Type: OpType.ReduceType
Arguments: ['add_9']
Parents: ['add_9']
Children: ['slice_23', 'output']
--------------------MLIR OPS--------------------

====================Graph Node====================
Node: clone_7
Type: OpType.ReduceType
Arguments: ['permute_17']
Parents: ['permute_17']
Children: ['slice_27', 'output']
--------------------MLIR OPS--------------------

====================Graph Node====================
Node: slice_23
Type: OpType.ReshapeType
Arguments: ['clone_6', 0, 0, 9223372036854775807]
Parents: ['clone_6']
Children: ['slice_24']
--------------------MLIR OPS--------------------

====================Graph Node====================
Node: slice_24
Type: OpType.ReshapeType
Arguments: ['slice_23', 1, 0, 9223372036854775807]
Parents: ['slice_23']
Children: ['unsqueeze_11']
--------------------MLIR OPS--------------------

====================Graph Node====================
Node: unsqueeze_11
Type: OpType.ReshapeType
Arguments: ['slice_24', 2]
Parents: ['slice_24']
Children: ['slice_25']
--------------------MLIR OPS--------------------
%263 = "tosa.reshape"(%262) <{new_shape = array<i64: 1, 2, 1, 1024, 128>}> : (tensor<1x2x1024x128xf32>) -> tensor<1x2x1x1024x128xf32>

====================Graph Node====================
Node: slice_25
Type: OpType.ReshapeType
Arguments: ['unsqueeze_11', 3, 0, 9223372036854775807]
Parents: ['unsqueeze_11']
Children: ['slice_26']
--------------------MLIR OPS--------------------

====================Graph Node====================
Node: slice_26
Type: OpType.ReshapeType
Arguments: ['slice_25', 4, 0, 9223372036854775807]
Parents: ['slice_25']
Children: ['expand_8']
--------------------MLIR OPS--------------------

====================Graph Node====================
Node: expand_8
Type: OpType.ReshapeType
Arguments: ['slice_26', [1, 2, 6, 1024, 128]]
Parents: ['slice_26']
Children: ['clone_8']
--------------------MLIR OPS--------------------
%264 = "tosa.const"() <{value = dense<0.000000e+00> : tensor<1x2x6x1024x128xf32>}> : () -> tensor<1x2x6x1024x128xf32>
%265 = "tosa.add"(%263, %264) : (tensor<1x2x1x1024x128xf32>, tensor<1x2x6x1024x128xf32>) -> tensor<1x2x6x1024x128xf32>

====================Graph Node====================
Node: clone_8
Type: OpType.ReduceType
Arguments: ['expand_8']
Parents: ['expand_8']
Children: ['view_34']
--------------------MLIR OPS--------------------

====================Graph Node====================
Node: view_34
Type: OpType.ReshapeType
Arguments: ['clone_8', [1, 12, 1024, 128]]
Parents: ['clone_8']
Children: ['_scaled_dot_product_flash_attention_for_cpu_1']
--------------------MLIR OPS--------------------
%266 = "tosa.reshape"(%265) <{new_shape = array<i64: 1, 12, 1024, 128>}> : (tensor<1x2x6x1024x128xf32>) -> tensor<1x12x1024x128xf32>

====================Graph Node====================
Node: slice_27
Type: OpType.ReshapeType
Arguments: ['clone_7', 0, 0, 9223372036854775807]
Parents: ['clone_7']
Children: ['slice_28']
--------------------MLIR OPS--------------------

====================Graph Node====================
Node: slice_28
Type: OpType.ReshapeType
Arguments: ['slice_27', 1, 0, 9223372036854775807]
Parents: ['slice_27']
Children: ['unsqueeze_12']
--------------------MLIR OPS--------------------

====================Graph Node====================
Node: unsqueeze_12
Type: OpType.ReshapeType
Arguments: ['slice_28', 2]
Parents: ['slice_28']
Children: ['slice_29']
--------------------MLIR OPS--------------------
%267 = "tosa.reshape"(%240) <{new_shape = array<i64: 1, 2, 1, 1024, 128>}> : (tensor<1x2x1024x128xf32>) -> tensor<1x2x1x1024x128xf32>

====================Graph Node====================
Node: slice_29
Type: OpType.ReshapeType
Arguments: ['unsqueeze_12', 3, 0, 9223372036854775807]
Parents: ['unsqueeze_12']
Children: ['slice_30']
--------------------MLIR OPS--------------------

====================Graph Node====================
Node: slice_30
Type: OpType.ReshapeType
Arguments: ['slice_29', 4, 0, 9223372036854775807]
Parents: ['slice_29']
Children: ['expand_9']
--------------------MLIR OPS--------------------

====================Graph Node====================
Node: expand_9
Type: OpType.ReshapeType
Arguments: ['slice_30', [1, 2, 6, 1024, 128]]
Parents: ['slice_30']
Children: ['clone_9']
--------------------MLIR OPS--------------------
%268 = "tosa.const"() <{value = dense<0.000000e+00> : tensor<1x2x6x1024x128xf32>}> : () -> tensor<1x2x6x1024x128xf32>
%269 = "tosa.add"(%267, %268) : (tensor<1x2x1x1024x128xf32>, tensor<1x2x6x1024x128xf32>) -> tensor<1x2x6x1024x128xf32>

====================Graph Node====================
Node: clone_9
Type: OpType.ReduceType
Arguments: ['expand_9']
Parents: ['expand_9']
Children: ['view_35']
--------------------MLIR OPS--------------------

====================Graph Node====================
Node: view_35
Type: OpType.ReshapeType
Arguments: ['clone_9', [1, 12, 1024, 128]]
Parents: ['clone_9']
Children: ['_scaled_dot_product_flash_attention_for_cpu_1']
--------------------MLIR OPS--------------------
%270 = "tosa.reshape"(%269) <{new_shape = array<i64: 1, 12, 1024, 128>}> : (tensor<1x2x6x1024x128xf32>) -> tensor<1x12x1024x128xf32>

====================Graph Node====================
Node: slice_31
Type: OpType.ReshapeType
Arguments: ['expand_1', 0, 0, 9223372036854775807]
Parents: ['expand_1']
Children: ['slice_32']
--------------------MLIR OPS--------------------
%271 = "tosa.reshape"(%18) <{new_shape = array<i64: 1, 1, 1024, 1024>}> : (tensor<1024x1024xi1>) -> tensor<1x1x1024x1024xi1>

====================Graph Node====================
Node: slice_32
Type: OpType.ReshapeType
Arguments: ['slice_31', 1, 0, 9223372036854775807]
Parents: ['slice_31']
Children: ['slice_33']
--------------------MLIR OPS--------------------

====================Graph Node====================
Node: slice_33
Type: OpType.ReshapeType
Arguments: ['slice_32', 2, 0, 9223372036854775807]
Parents: ['slice_32']
Children: ['where_1']
--------------------MLIR OPS--------------------

====================Graph Node====================
Node: scalar_tensor_2
Type: OpType.PlaceholderType
Arguments: [-inf]
Parents: []
Children: ['where_1']
--------------------MLIR OPS--------------------
%272 = "arith.constant"() <{value = 0xFF800000 : f32}> : () -> f32

====================Graph Node====================
Node: scalar_tensor_3
Type: OpType.PlaceholderType
Arguments: [0.0]
Parents: []
Children: ['where_1']
--------------------MLIR OPS--------------------
%273 = "arith.constant"() <{value = 0.000000e+00 : f32}> : () -> f32

====================Graph Node====================
Node: where_1
Type: OpType.ElementwiseType
Arguments: ['slice_33', 'scalar_tensor_3', 'scalar_tensor_2']
Parents: ['slice_33', 'scalar_tensor_3', 'scalar_tensor_2']
Children: ['_scaled_dot_product_flash_attention_for_cpu_1']
--------------------MLIR OPS--------------------
%274 = "tensor.empty"() : () -> tensor<1x1x1024x1024xf32>
%275 = "tensor.splat"(%273) : (f32) -> tensor<1x1x1024x1024xf32>
%276 = "tensor.splat"(%272) : (f32) -> tensor<1x1x1024x1024xf32>
%277 = "linalg.generic"(%271, %275, %276, %274) <{indexing_maps = [affine_map<(d0, d1, d2, d3) -> (d0, d1, d2, d3)>, affine_map<(d0, d1, d2, d3) -> (d0, d1, d2, d3)>, affine_map<(d0, d1, d2, d3) -> (d0, d1, d2, d3)>, affine_map<(d0, d1, d2, d3) -> (d0, d1, d2, d3)>], iterator_types = [#linalg.iterator_type<parallel>, #linalg.iterator_type<parallel>, #linalg.iterator_type<parallel>, #linalg.iterator_type<parallel>], operandSegmentSizes = array<i32: 3, 1>}> ({
^bb0(%arg341: i1, %arg342: f32, %arg343: f32, %arg344: f32):
  %278 = "arith.select"(%arg341, %arg342, %arg343) : (i1, f32, f32) -> f32
  "linalg.yield"(%278) : (f32) -> ()
}) : (tensor<1x1x1024x1024xi1>, tensor<1x1x1024x1024xf32>, tensor<1x1x1024x1024xf32>, tensor<1x1x1024x1024xf32>) -> tensor<1x1x1024x1024xf32>

====================Graph Node====================
Node: _scaled_dot_product_flash_attention_for_cpu_1
Type: OpType.ElementwiseType
Arguments: ['add_8', 'view_34', 'view_35']
Parents: ['add_8', 'view_34', 'view_35']
Children: ['getitem_2']
--------------------MLIR OPS--------------------
%278 = "arith.constant"() <{value = 0.000000e+00 : f32}> : () -> f32
%279 = "tensor.splat"(%278) : (f32) -> tensor<1024x1024xf32>
%280 = "tosa.reshape"(%277) <{new_shape = array<i64: 1024, 1024>}> : (tensor<1x1x1024x1024xf32>) -> tensor<1024x1024xf32>
%281 = "tosa.add"(%279, %280) : (tensor<1024x1024xf32>, tensor<1024x1024xf32>) -> tensor<1024x1024xf32>
%282 = "tosa.const"() <{value = dense<[0, 1, 3, 2]> : tensor<4xi32>}> : () -> tensor<4xi32>
%283 = "tosa.transpose"(%266, %282) : (tensor<1x12x1024x128xf32>, tensor<4xi32>) -> tensor<1x12x128x1024xf32>
%284 = "tosa.reshape"(%252) <{new_shape = array<i64: 12, 1024, 128>}> : (tensor<1x12x1024x128xf32>) -> tensor<12x1024x128xf32>
%285 = "tosa.reshape"(%283) <{new_shape = array<i64: 12, 128, 1024>}> : (tensor<1x12x128x1024xf32>) -> tensor<12x128x1024xf32>
%286 = "tosa.matmul"(%284, %285) : (tensor<12x1024x128xf32>, tensor<12x128x1024xf32>) -> tensor<12x1024x1024xf32>
%287 = "arith.constant"() <{value = 0.0883883461 : f32}> : () -> f32
%288 = "tensor.splat"(%287) : (f32) -> tensor<12x1024x1024xf32>
%289 = "tosa.mul"(%286, %288) : (tensor<12x1024x1024xf32>, tensor<12x1024x1024xf32>) -> tensor<12x1024x1024xf32>
%290 = "tosa.reshape"(%281) <{new_shape = array<i64: 1, 1024, 1024>}> : (tensor<1024x1024xf32>) -> tensor<1x1024x1024xf32>
%291 = "tosa.add"(%289, %290) : (tensor<12x1024x1024xf32>, tensor<1x1024x1024xf32>) -> tensor<12x1024x1024xf32>
%292 = "tosa.reduce_max"(%291) <{axis = 2 : i32, nan_mode = "PROPAGATE"}> : (tensor<12x1024x1024xf32>) -> tensor<12x1024x1xf32>
%293 = "tosa.sub"(%291, %292) : (tensor<12x1024x1024xf32>, tensor<12x1024x1xf32>) -> tensor<12x1024x1024xf32>
%294 = "math.exp"(%293) <{fastmath = #arith.fastmath<none>}> : (tensor<12x1024x1024xf32>) -> tensor<12x1024x1024xf32>
%295 = "tosa.reduce_sum"(%294) <{axis = 2 : i32}> : (tensor<12x1024x1024xf32>) -> tensor<12x1024x1xf32>
%296 = "tosa.log"(%295) : (tensor<12x1024x1xf32>) -> tensor<12x1024x1xf32>
…
--------------------MLIR OPS--------------------
%4267 = "arith.constant"() <{value = dense<0.000000e+00> : tensor<1024x1536xf32>}> : () -> tensor<1024x1536xf32>
%4268 = "linalg.matmul"(%4264, %4266, %4267) <{cast = #linalg.type_fn<cast_signed>, indexing_maps = [affine_map<(d0, d1, d2) -> (d0, d2)>, affine_map<(d0, d1, d2) -> (d2, d1)>, affine_map<(d0, d1, d2) -> (d0, d1)>], operandSegmentSizes = array<i32: 2, 1>}> ({
^bb0(%arg341: f32, %arg342: f32, %arg343: f32):
  %4271 = "arith.mulf"(%arg341, %arg342) <{fastmath = #arith.fastmath<none>}> : (f32, f32) -> f32
  %4272 = "arith.addf"(%arg343, %4271) <{fastmath = #arith.fastmath<none>}> : (f32, f32) -> f32
  "linalg.yield"(%4272) : (f32) -> ()
}) : (tensor<1024x1536xf32>, tensor<1536x1536xf32>, tensor<1024x1536xf32>) -> tensor<1024x1536xf32>
%4269 = "tosa.reshape"(%arg329) <{new_shape = array<i64: 1, 1536>}> : (tensor<1536xf32>) -> tensor<1x1536xf32>
%4270 = "tosa.add"(%4269, %4268) : (tensor<1x1536xf32>, tensor<1024x1536xf32>) -> tensor<1024x1536xf32>

====================Graph Node====================
Node: view_546
Type: OpType.ReshapeType
Arguments: ['addmm_81', [1, 1024, 1536]]
Parents: ['addmm_81']
Children: ['view_547']
--------------------MLIR OPS--------------------
%4271 = "tosa.reshape"(%4270) <{new_shape = array<i64: 1, 1024, 1536>}> : (tensor<1024x1536xf32>) -> tensor<1x1024x1536xf32>

====================Graph Node====================
Node: view_547
Type: OpType.ReshapeType
Arguments: ['view_546', [1, 1024, -1, 128]]
Parents: ['view_546']
Children: ['permute_299']
--------------------MLIR OPS--------------------
%4272 = "tosa.reshape"(%4271) <{new_shape = array<i64: 1, 1024, 12, 128>}> : (tensor<1x1024x1536xf32>) -> tensor<1x1024x12x128xf32>

====================Graph Node====================
Node: permute_299
Type: OpType.ReshapeType
Arguments: ['view_547', [0, 2, 1, 3]]
Parents: ['view_547']
Children: ['mul_274', 'slice_409', 'slice_410']
--------------------MLIR OPS--------------------
%4273 = "tosa.const"() <{value = dense<[0, 2, 1, 3]> : tensor<4xi32>}> : () -> tensor<4xi32>
%4274 = "tosa.transpose"(%4272, %4273) : (tensor<1x1024x12x128xf32>, tensor<4xi32>) -> tensor<1x12x1024x128xf32>

====================Graph Node====================
Node: view_548
Type: OpType.ReshapeType
Arguments: ['mul_273', [1024, 1536]]
Parents: ['mul_273']
Children: ['addmm_82']
--------------------MLIR OPS--------------------
%4275 = "tosa.reshape"(%4263) <{new_shape = array<i64: 1024, 1536>}> : (tensor<1x1024x1536xf32>) -> tensor<1024x1536xf32>

====================Graph Node====================
Node: permute_300
Type: OpType.ReshapeType
Arguments: ['arg330_1', [1, 0]]
Parents: ['arg330_1']
Children: ['addmm_82']
--------------------MLIR OPS--------------------
%4276 = "tosa.const"() <{value = dense<[1, 0]> : tensor<2xi32>}> : () -> tensor<2xi32>
%4277 = "tosa.transpose"(%arg330, %4276) : (tensor<256x1536xf32>, tensor<2xi32>) -> tensor<1536x256xf32>

====================Graph Node====================
Node: addmm_82
Type: OpType.ReduceType
Arguments: ['arg331_1', 'view_548', 'permute_300']
Parents: ['arg331_1', 'view_548', 'permute_300']
Children: ['view_549']
--------------------MLIR OPS--------------------
%4278 = "arith.constant"() <{value = dense<0.000000e+00> : tensor<1024x256xf32>}> : () -> tensor<1024x256xf32>
%4279 = "linalg.matmul"(%4275, %4277, %4278) <{cast = #linalg.type_fn<cast_signed>, indexing_maps = [affine_map<(d0, d1, d2) -> (d0, d2)>, affine_map<(d0, d1, d2) -> (d2, d1)>, affine_map<(d0, d1, d2) -> (d0, d1)>], operandSegmentSizes = array<i32: 2, 1>}> ({
^bb0(%arg341: f32, %arg342: f32, %arg343: f32):
  %4282 = "arith.mulf"(%arg341, %arg342) <{fastmath = #arith.fastmath<none>}> : (f32, f32) -> f32
  %4283 = "arith.addf"(%arg343, %4282) <{fastmath = #arith.fastmath<none>}> : (f32, f32) -> f32
  "linalg.yield"(%4283) : (f32) -> ()
}) : (tensor<1024x1536xf32>, tensor<1536x256xf32>, tensor<1024x256xf32>) -> tensor<1024x256xf32>
%4280 = "tosa.reshape"(%arg331) <{new_shape = array<i64: 1, 256>}> : (tensor<256xf32>) -> tensor<1x256xf32>
%4281 = "tosa.add"(%4280, %4279) : (tensor<1x256xf32>, tensor<1024x256xf32>) -> tensor<1024x256xf32>

====================Graph Node====================
Node: view_549
Type: OpType.ReshapeType
Arguments: ['addmm_82', [1, 1024, 256]]
Parents: ['addmm_82']
Children: ['view_550']
--------------------MLIR OPS--------------------
%4282 = "tosa.reshape"(%4281) <{new_shape = array<i64: 1, 1024, 256>}> : (tensor<1024x256xf32>) -> tensor<1x1024x256xf32>

====================Graph Node====================
Node: view_550
Type: OpType.ReshapeType
Arguments: ['view_549', [1, 1024, -1, 128]]
Parents: ['view_549']
Children: ['permute_301']
--------------------MLIR OPS--------------------
%4283 = "tosa.reshape"(%4282) <{new_shape = array<i64: 1, 1024, 2, 128>}> : (tensor<1x1024x256xf32>) -> tensor<1x1024x2x128xf32>

====================Graph Node====================
Node: permute_301
Type: OpType.ReshapeType
Arguments: ['view_550', [0, 2, 1, 3]]
Parents: ['view_550']
Children: ['mul_276', 'slice_411', 'slice_412']
--------------------MLIR OPS--------------------
%4284 = "tosa.const"() <{value = dense<[0, 2, 1, 3]> : tensor<4xi32>}> : () -> tensor<4xi32>
%4285 = "tosa.transpose"(%4283, %4284) : (tensor<1x1024x2x128xf32>, tensor<4xi32>) -> tensor<1x2x1024x128xf32>

====================Graph Node====================
Node: view_551
Type: OpType.ReshapeType
Arguments: ['mul_273', [1024, 1536]]
Parents: ['mul_273']
Children: ['addmm_83']
--------------------MLIR OPS--------------------
%4286 = "tosa.reshape"(%4263) <{new_shape = array<i64: 1024, 1536>}> : (tensor<1x1024x1536xf32>) -> tensor<1024x1536xf32>

====================Graph Node====================
Node: permute_302
Type: OpType.ReshapeType
Arguments: ['arg332_1', [1, 0]]
Parents: ['arg332_1']
Children: ['addmm_83']
--------------------MLIR OPS--------------------
%4287 = "tosa.const"() <{value = dense<[1, 0]> : tensor<2xi32>}> : () -> tensor<2xi32>
%4288 = "tosa.transpose"(%arg332, %4287) : (tensor<256x1536xf32>, tensor<2xi32>) -> tensor<1536x256xf32>

====================Graph Node====================
Node: addmm_83
Type: OpType.ReduceType
Arguments: ['arg333_1', 'view_551', 'permute_302']
Parents: ['arg333_1', 'view_551', 'permute_302']
Children: ['view_552']
--------------------MLIR OPS--------------------
%4289 = "arith.constant"() <{value = dense<0.000000e+00> : tensor<1024x256xf32>}> : () -> tensor<1024x256xf32>
%4290 = "linalg.matmul"(%4286, %4288, %4289) <{cast = #linalg.type_fn<cast_signed>, indexing_maps = [affine_map<(d0, d1, d2) -> (d0, d2)>, affine_map<(d0, d1, d2) -> (d2, d1)>, affine_map<(d0, d1, d2) -> (d0, d1)>], operandSegmentSizes = array<i32: 2, 1>}> ({
^bb0(%arg341: f32, %arg342: f32, %arg343: f32):
  %4293 = "arith.mulf"(%arg341, %arg342) <{fastmath = #arith.fastmath<none>}> : (f32, f32) -> f32
  %4294 = "arith.addf"(%arg343, %4293) <{fastmath = #arith.fastmath<none>}> : (f32, f32) -> f32
  "linalg.yield"(%4294) : (f32) -> ()
}) : (tensor<1024x1536xf32>, tensor<1536x256xf32>, tensor<1024x256xf32>) -> tensor<1024x256xf32>
%4291 = "tosa.reshape"(%arg333) <{new_shape = array<i64: 1, 256>}> : (tensor<256xf32>) -> tensor<1x256xf32>
%4292 = "tosa.add"(%4291, %4290) : (tensor<1x256xf32>, tensor<1024x256xf32>) -> tensor<1024x256xf32>

====================Graph Node====================
Node: view_552
Type: OpType.ReshapeType
Arguments: ['addmm_83', [1, 1024, 256]]
Parents: ['addmm_83']
Children: ['view_553']
--------------------MLIR OPS--------------------
%4293 = "tosa.reshape"(%4292) <{new_shape = array<i64: 1, 1024, 256>}> : (tensor<1024x256xf32>) -> tensor<1x1024x256xf32>

====================Graph Node====================
Node: view_553
Type: OpType.ReshapeType
Arguments: ['view_552', [1, 1024, -1, 128]]
Parents: ['view_552']
Children: ['permute_303']
--------------------MLIR OPS--------------------
%4294 = "tosa.reshape"(%4293) <{new_shape = array<i64: 1, 1024, 2, 128>}> : (tensor<1x1024x256xf32>) -> tensor<1x1024x2x128xf32>

====================Graph Node====================
Node: permute_303
Type: OpType.ReshapeType
Arguments: ['view_553', [0, 2, 1, 3]]
Parents: ['view_553']
Children: ['clone_111']
--------------------MLIR OPS--------------------
%4295 = "tosa.const"() <{value = dense<[0, 2, 1, 3]> : tensor<4xi32>}> : () -> tensor<4xi32>
%4296 = "tosa.transpose"(%4294, %4295) : (tensor<1x1024x2x128xf32>, tensor<4xi32>) -> tensor<1x2x1024x128xf32>

====================Graph Node====================
Node: unsqueeze_113
Type: OpType.ReshapeType
Arguments: ['mul', 1]
Parents: ['mul']
Children: ['mul_274', 'mul_276']
--------------------MLIR OPS--------------------
%4297 = "tosa.reshape"(%33) <{new_shape = array<i64: 1, 1, 1024, 128>}> : (tensor<1x1024x128xf32>) -> tensor<1x1x1024x128xf32>

====================Graph Node====================
Node: unsqueeze_114
Type: OpType.ReshapeType
Arguments: ['mul_1', 1]
Parents: ['mul_1']
Children: ['mul_275', 'mul_277']
--------------------MLIR OPS--------------------
%4298 = "tosa.reshape"(%37) <{new_shape = array<i64: 1, 1, 1024, 128>}> : (tensor<1x1024x128xf32>) -> tensor<1x1x1024x128xf32>

====================Graph Node====================
Node: mul_274
Type: OpType.BroadcastType
Arguments: ['permute_299', 'unsqueeze_113']
Parents: ['permute_299', 'unsqueeze_113']
Children: ['add_164']
--------------------MLIR OPS--------------------
%4299 = "tosa.mul"(%4274, %4297) : (tensor<1x12x1024x128xf32>, tensor<1x1x1024x128xf32>) -> tensor<1x12x1024x128xf32>

====================Graph Node====================
Node: slice_409
Type: OpType.ReshapeType
Arguments: ['permute_299', 3, 0, 64]
Parents: ['permute_299']
Children: ['cat_54']
--------------------MLIR OPS--------------------
%4300 = "tensor.extract_slice"(%4274) <{operandSegmentSizes = array<i32: 1, 0, 0, 0>, static_offsets = array<i64: 0, 0, 0, 0>, static_sizes = array<i64: 1, 12, 1024, 64>, static_strides = array<i64: 1, 1, 1, 1>}> : (tensor<1x12x1024x128xf32>) -> tensor<1x12x1024x64xf32>

====================Graph Node====================
Node: slice_410
Type: OpType.ReshapeType
Arguments: ['permute_299', 3, 64, 9223372036854775807]
Parents: ['permute_299']
Children: ['neg_54']
--------------------MLIR OPS--------------------
%4301 = "tensor.extract_slice"(%4274) <{operandSegmentSizes = array<i32: 1, 0, 0, 0>, static_offsets = array<i64: 0, 0, 0, 64>, static_sizes = array<i64: 1, 12, 1024, 64>, static_strides = array<i64: 1, 1, 1, 1>}> : (tensor<1x12x1024x128xf32>) -> tensor<1x12x1024x64xf32>

====================Graph Node====================
Node: neg_54
Type: OpType.ElementwiseType
Arguments: ['slice_410']
Parents: ['slice_410']
Children: ['cat_54']
--------------------MLIR OPS--------------------
%4302 = "tensor.empty"() : () -> tensor<1x12x1024x64xf32>
%4303 = "linalg.negf"(%4301, %4302) <{operandSegmentSizes = array<i32: 1, 1>}> ({
^bb0(%arg341: f32, %arg342: f32):
  %4304 = "arith.negf"(%arg341) <{fastmath = #arith.fastmath<none>}> : (f32) -> f32
  "linalg.yield"(%4304) : (f32) -> ()
}) : (tensor<1x12x1024x64xf32>, tensor<1x12x1024x64xf32>) -> tensor<1x12x1024x64xf32>

====================Graph Node====================
Node: cat_54
Type: OpType.ConcatType
Arguments: [[neg_54, slice_409], -1]
Parents: []
Children: ['mul_275']
--------------------MLIR OPS--------------------
%4304 = "tensor.empty"() : () -> tensor<1x12x1024x128xf32>
%4305 = "tensor.insert_slice"(%4303, %4304) <{operandSegmentSizes = array<i32: 1, 1, 0, 0, 0>, static_offsets = array<i64: 0, 0, 0, 0>, static_sizes = array<i64: 1, 12, 1024, 64>, static_strides = array<i64: 1, 1, 1, 1>}> : (tensor<1x12x1024x64xf32>, tensor<1x12x1024x128xf32>) -> tensor<1x12x1024x128xf32>
%4306 = "tensor.insert_slice"(%4300, %4305) <{operandSegmentSizes = array<i32: 1, 1, 0, 0, 0>, static_offsets = array<i64: 0, 0, 0, 64>, static_sizes = array<i64: 1, 12, 1024, 64>, static_strides = array<i64: 1, 1, 1, 1>}> : (tensor<1x12x1024x64xf32>, tensor<1x12x1024x128xf32>) -> tensor<1x12x1024x128xf32>

====================Graph Node====================
Node: mul_275
Type: OpType.BroadcastType
Arguments: ['cat_54', 'unsqueeze_114']
Parents: ['cat_54', 'unsqueeze_114']
Children: ['add_164']
--------------------MLIR OPS--------------------
%4307 = "tosa.mul"(%4306, %4298) : (tensor<1x12x1024x128xf32>, tensor<1x1x1024x128xf32>) -> tensor<1x12x1024x128xf32>

====================Graph Node====================
Node: add_164
Type: OpType.BroadcastType
Arguments: ['mul_274', 'mul_275']
Parents: ['mul_274', 'mul_275']
Children: ['_scaled_dot_product_flash_attention_for_cpu_27']
--------------------MLIR OPS--------------------
%4308 = "tosa.add"(%4299, %4307) : (tensor<1x12x1024x128xf32>, tensor<1x12x1024x128xf32>) -> tensor<1x12x1024x128xf32>

====================Graph Node====================
Node: mul_276
Type: OpType.BroadcastType
Arguments: ['permute_301', 'unsqueeze_113']
Parents: ['permute_301', 'unsqueeze_113']
Children: ['add_165']
--------------------MLIR OPS--------------------
%4309 = "tosa.mul"(%4285, %4297) : (tensor<1x2x1024x128xf32>, tensor<1x1x1024x128xf32>) -> tensor<1x2x1024x128xf32>

====================Graph Node====================
Node: slice_411
Type: OpType.ReshapeType
Arguments: ['permute_301', 3, 0, 64]
Parents: ['permute_301']
Children: ['cat_55']
--------------------MLIR OPS--------------------
%4310 = "tensor.extract_slice"(%4285) <{operandSegmentSizes = array<i32: 1, 0, 0, 0>, static_offsets = array<i64: 0, 0, 0, 0>, static_sizes = array<i64: 1, 2, 1024, 64>, static_strides = array<i64: 1, 1, 1, 1>}> : (tensor<1x2x1024x128xf32>) -> tensor<1x2x1024x64xf32>

====================Graph Node====================
Node: slice_412
Type: OpType.ReshapeType
Arguments: ['permute_301', 3, 64, 9223372036854775807]
Parents: ['permute_301']
Children: ['neg_55']
--------------------MLIR OPS--------------------
%4311 = "tensor.extract_slice"(%4285) <{operandSegmentSizes = array<i32: 1, 0, 0, 0>, static_offsets = array<i64: 0, 0, 0, 64>, static_sizes = array<i64: 1, 2, 1024, 64>, static_strides = array<i64: 1, 1, 1, 1>}> : (tensor<1x2x1024x128xf32>) -> tensor<1x2x1024x64xf32>

====================Graph Node====================
Node: neg_55
Type: OpType.ElementwiseType
Arguments: ['slice_412']
Parents: ['slice_412']
Children: ['cat_55']
--------------------MLIR OPS--------------------
%4312 = "tensor.empty"() : () -> tensor<1x2x1024x64xf32>
%4313 = "linalg.negf"(%4311, %4312) <{operandSegmentSizes = array<i32: 1, 1>}> ({
^bb0(%arg341: f32, %arg342: f32):
  %4314 = "arith.negf"(%arg341) <{fastmath = #arith.fastmath<none>}> : (f32) -> f32
  "linalg.yield"(%4314) : (f32) -> ()
}) : (tensor<1x2x1024x64xf32>, tensor<1x2x1024x64xf32>) -> tensor<1x2x1024x64xf32>

====================Graph Node====================
Node: cat_55
Type: OpType.ConcatType
Arguments: [[neg_55, slice_411], -1]
Parents: []
Children: ['mul_277']
--------------------MLIR OPS--------------------
%4314 = "tensor.empty"() : () -> tensor<1x2x1024x128xf32>
%4315 = "tensor.insert_slice"(%4313, %4314) <{operandSegmentSizes = array<i32: 1, 1, 0, 0, 0>, static_offsets = array<i64: 0, 0, 0, 0>, static_sizes = array<i64: 1, 2, 1024, 64>, static_strides = array<i64: 1, 1, 1, 1>}> : (tensor<1x2x1024x64xf32>, tensor<1x2x1024x128xf32>) -> tensor<1x2x1024x128xf32>
%4316 = "tensor.insert_slice"(%4310, %4315) <{operandSegmentSizes = array<i32: 1, 1, 0, 0, 0>, static_offsets = array<i64: 0, 0, 0, 64>, static_sizes = array<i64: 1, 2, 1024, 64>, static_strides = array<i64: 1, 1, 1, 1>}> : (tensor<1x2x1024x64xf32>, tensor<1x2x1024x128xf32>) -> tensor<1x2x1024x128xf32>

====================Graph Node====================
Node: mul_277
Type: OpType.BroadcastType
Arguments: ['cat_55', 'unsqueeze_114']
Parents: ['cat_55', 'unsqueeze_114']
Children: ['add_165']
--------------------MLIR OPS--------------------
%4317 = "tosa.mul"(%4316, %4298) : (tensor<1x2x1024x128xf32>, tensor<1x1x1024x128xf32>) -> tensor<1x2x1024x128xf32>

====================Graph Node====================
Node: add_165
Type: OpType.BroadcastType
Arguments: ['mul_276', 'mul_277']
Parents: ['mul_276', 'mul_277']
Children: ['clone_110']
--------------------MLIR OPS--------------------
%4318 = "tosa.add"(%4309, %4317) : (tensor<1x2x1024x128xf32>, tensor<1x2x1024x128xf32>) -> tensor<1x2x1024x128xf32>

====================Graph Node====================
Node: clone_110
Type: OpType.ReduceType
Arguments: ['add_165']
Parents: ['add_165']
Children: ['slice_413', 'output']
--------------------MLIR OPS--------------------

====================Graph Node====================
Node: clone_111
Type: OpType.ReduceType
Arguments: ['permute_303']
Parents: ['permute_303']
Children: ['slice_417', 'output']
--------------------MLIR OPS--------------------

====================Graph Node====================
Node: slice_413
Type: OpType.ReshapeType
Arguments: ['clone_110', 0, 0, 9223372036854775807]
Parents: ['clone_110']
Children: ['slice_414']
--------------------MLIR OPS--------------------

====================Graph Node====================
Node: slice_414
Type: OpType.ReshapeType
Arguments: ['slice_413', 1, 0, 9223372036854775807]
Parents: ['slice_413']
Children: ['unsqueeze_115']
--------------------MLIR OPS--------------------

====================Graph Node====================
Node: unsqueeze_115
Type: OpType.ReshapeType
Arguments: ['slice_414', 2]
Parents: ['slice_414']
Children: ['slice_415']
--------------------MLIR OPS--------------------
%4319 = "tosa.reshape"(%4318) <{new_shape = array<i64: 1, 2, 1, 1024, 128>}> : (tensor<1x2x1024x128xf32>) -> tensor<1x2x1x1024x128xf32>

====================Graph Node====================
Node: slice_415
Type: OpType.ReshapeType
Arguments: ['unsqueeze_115', 3, 0, 9223372036854775807]
Parents: ['unsqueeze_115']
Children: ['slice_416']
--------------------MLIR OPS--------------------

====================Graph Node====================
Node: slice_416
Type: OpType.ReshapeType
Arguments: ['slice_415', 4, 0, 9223372036854775807]
Parents: ['slice_415']
Children: ['expand_60']
--------------------MLIR OPS--------------------

====================Graph Node====================
Node: expand_60
Type: OpType.ReshapeType
Arguments: ['slice_416', [1, 2, 6, 1024, 128]]
Parents: ['slice_416']
Children: ['clone_112']
--------------------MLIR OPS--------------------
%4320 = "tosa.const"() <{value = dense<0.000000e+00> : tensor<1x2x6x1024x128xf32>}> : () -> tensor<1x2x6x1024x128xf32>
%4321 = "tosa.add"(%4319, %4320) : (tensor<1x2x1x1024x128xf32>, tensor<1x2x6x1024x128xf32>) -> tensor<1x2x6x1024x128xf32>

====================Graph Node====================
Node: clone_112
Type: OpType.ReduceType
Arguments: ['expand_60']
Parents: ['expand_60']
Children: ['view_554']
--------------------MLIR OPS--------------------

====================Graph Node====================
Node: view_554
Type: OpType.ReshapeType
Arguments: ['clone_112', [1, 12, 1024, 128]]
Parents: ['clone_112']
Children: ['_scaled_dot_product_flash_attention_for_cpu_27']
--------------------MLIR OPS--------------------
%4322 = "tosa.reshape"(%4321) <{new_shape = array<i64: 1, 12, 1024, 128>}> : (tensor<1x2x6x1024x128xf32>) -> tensor<1x12x1024x128xf32>

====================Graph Node====================
Node: slice_417
Type: OpType.ReshapeType
Arguments: ['clone_111', 0, 0, 9223372036854775807]
Parents: ['clone_111']
Children: ['slice_418']
--------------------MLIR OPS--------------------

====================Graph Node====================
Node: slice_418
Type: OpType.ReshapeType
Arguments: ['slice_417', 1, 0, 9223372036854775807]
Parents: ['slice_417']
Children: ['unsqueeze_116']
--------------------MLIR OPS--------------------

====================Graph Node====================
Node: unsqueeze_116
Type: OpType.ReshapeType
Arguments: ['slice_418', 2]
Parents: ['slice_418']
Children: ['slice_419']
--------------------MLIR OPS--------------------
%4323 = "tosa.reshape"(%4296) <{new_shape = array<i64: 1, 2, 1, 1024, 128>}> : (tensor<1x2x1024x128xf32>) -> tensor<1x2x1x1024x128xf32>

====================Graph Node====================
Node: slice_419
Type: OpType.ReshapeType
Arguments: ['unsqueeze_116', 3, 0, 9223372036854775807]
Parents: ['unsqueeze_116']
Children: ['slice_420']
--------------------MLIR OPS--------------------

====================Graph Node====================
Node: slice_420
Type: OpType.ReshapeType
Arguments: ['slice_419', 4, 0, 9223372036854775807]
Parents: ['slice_419']
Children: ['expand_61']
--------------------MLIR OPS--------------------

====================Graph Node====================
Node: expand_61
Type: OpType.ReshapeType
Arguments: ['slice_420', [1, 2, 6, 1024, 128]]
Parents: ['slice_420']
Children: ['clone_113']
--------------------MLIR OPS--------------------
%4324 = "tosa.const"() <{value = dense<0.000000e+00> : tensor<1x2x6x1024x128xf32>}> : () -> tensor<1x2x6x1024x128xf32>
%4325 = "tosa.add"(%4323, %4324) : (tensor<1x2x1x1024x128xf32>, tensor<1x2x6x1024x128xf32>) -> tensor<1x2x6x1024x128xf32>

====================Graph Node====================
Node: clone_113
Type: OpType.ReduceType
Arguments: ['expand_61']
Parents: ['expand_61']
Children: ['view_555']
--------------------MLIR OPS--------------------

====================Graph Node====================
Node: view_555
Type: OpType.ReshapeType
Arguments: ['clone_113', [1, 12, 1024, 128]]
Parents: ['clone_113']
Children: ['_scaled_dot_product_flash_attention_for_cpu_27']
--------------------MLIR OPS--------------------
%4326 = "tosa.reshape"(%4325) <{new_shape = array<i64: 1, 12, 1024, 128>}> : (tensor<1x2x6x1024x128xf32>) -> tensor<1x12x1024x128xf32>

====================Graph Node====================
Node: slice_421
Type: OpType.ReshapeType
Arguments: ['expand_1', 0, 0, 9223372036854775807]
Parents: ['expand_1']
Children: ['slice_422']
--------------------MLIR OPS--------------------
%4327 = "tosa.reshape"(%18) <{new_shape = array<i64: 1, 1, 1024, 1024>}> : (tensor<1024x1024xi1>) -> tensor<1x1x1024x1024xi1>

====================Graph Node====================
Node: slice_422
Type: OpType.ReshapeType
Arguments: ['slice_421', 1, 0, 9223372036854775807]
Parents: ['slice_421']
Children: ['slice_423']
--------------------MLIR OPS--------------------

====================Graph Node====================
Node: slice_423
Type: OpType.ReshapeType
Arguments: ['slice_422', 2, 0, 9223372036854775807]
Parents: ['slice_422']
Children: ['where_27']
--------------------MLIR OPS--------------------

====================Graph Node====================
Node: scalar_tensor_54
Type: OpType.PlaceholderType
Arguments: [-inf]
Parents: []
Children: ['where_27']
--------------------MLIR OPS--------------------
%4328 = "arith.constant"() <{value = 0xFF800000 : f32}> : () -> f32

====================Graph Node====================
Node: scalar_tensor_55
Type: OpType.PlaceholderType
Arguments: [0.0]
Parents: []
Children: ['where_27']
--------------------MLIR OPS--------------------
%4329 = "arith.constant"() <{value = 0.000000e+00 : f32}> : () -> f32

====================Graph Node====================
Node: where_27
Type: OpType.ElementwiseType
Arguments: ['slice_423', 'scalar_tensor_55', 'scalar_tensor_54']
Parents: ['slice_423', 'scalar_tensor_55', 'scalar_tensor_54']
Children: ['_scaled_dot_product_flash_attention_for_cpu_27']
--------------------MLIR OPS--------------------
%4330 = "tensor.empty"() : () -> tensor<1x1x1024x1024xf32>
%4331 = "tensor.splat"(%4329) : (f32) -> tensor<1x1x1024x1024xf32>
%4332 = "tensor.splat"(%4328) : (f32) -> tensor<1x1x1024x1024xf32>
%4333 = "linalg.generic"(%4327, %4331, %4332, %4330) <{indexing_maps = [affine_map<(d0, d1, d2, d3) -> (d0, d1, d2, d3)>, affine_map<(d0, d1, d2, d3) -> (d0, d1, d2, d3)>, affine_map<(d0, d1, d2, d3) -> (d0, d1, d2, d3)>, affine_map<(d0, d1, d2, d3) -> (d0, d1, d2, d3)>], iterator_types = [#linalg.iterator_type<parallel>, #linalg.iterator_type<parallel>, #linalg.iterator_type<parallel>, #linalg.iterator_type<parallel>], operandSegmentSizes = array<i32: 3, 1>}> ({
^bb0(%arg341: i1, %arg342: f32, %arg343: f32, %arg344: f32):
  %4334 = "arith.select"(%arg341, %arg342, %arg343) : (i1, f32, f32) -> f32
  "linalg.yield"(%4334) : (f32) -> ()
}) : (tensor<1x1x1024x1024xi1>, tensor<1x1x1024x1024xf32>, tensor<1x1x1024x1024xf32>, tensor<1x1x1024x1024xf32>) -> tensor<1x1x1024x1024xf32>

====================Graph Node====================
Node: _scaled_dot_product_flash_attention_for_cpu_27
Type: OpType.ElementwiseType
Arguments: ['add_164', 'view_554', 'view_555']
Parents: ['add_164', 'view_554', 'view_555']
Children: ['getitem_54']
--------------------MLIR OPS--------------------
%4334 = "arith.constant"() <{value = 0.000000e+00 : f32}> : () -> f32
%4335 = "tensor.splat"(%4334) : (f32) -> tensor<1024x1024xf32>
%4336 = "tosa.reshape"(%4333) <{new_shape = array<i64: 1024, 1024>}> : (tensor<1x1x1024x1024xf32>) -> tensor<1024x1024xf32>
%4337 = "tosa.add"(%4335, %4336) : (tensor<1024x1024xf32>, tensor<1024x1024xf32>) -> tensor<1024x1024xf32>
%4338 = "tosa.const"() <{value = dense<[0, 1, 3, 2]> : tensor<4xi32>}> : () -> tensor<4xi32>
%4339 = "tosa.transpose"(%4322, %4338) : (tensor<1x12x1024x128xf32>, tensor<4xi32>) -> tensor<1x12x128x1024xf32>
%4340 = "tosa.reshape"(%4308) <{new_shape = array<i64: 12, 1024, 128>}> : (tensor<1x12x1024x128xf32>) -> tensor<12x1024x128xf32>
%4341 = "tosa.reshape"(%4339) <{new_shape = array<i64: 12, 128, 1024>}> : (tensor<1x12x128x1024xf32>) -> tensor<12x128x1024xf32>
%4342 = "tosa.matmul"(%4340, %4341) : (tensor<12x1024x128xf32>, tensor<12x128x1024xf32>) -> tensor<12x1024x1024xf32>
%4343 = "arith.constant"() <{value = 0.0883883461 : f32}> : () -> f32
%4344 = "tensor.splat"(%4343) : (f32) -> tensor<12x1024x1024xf32>
%4345 = "tosa.mul"(%4342, %4344) : (tensor<12x1024x1024xf32>, tensor<12x1024x1024xf32>) -> tensor<12x1024x1024xf32>
%4346 = "tosa.reshape"(%4337) <{new_shape = array<i64: 1, 1024, 1024>}> : (tensor<1024x1024xf32>) -> tensor<1x1024x1024xf32>
%4347 = "tosa.add"(%4345, %4346) : (tensor<12x1024x1024xf32>, tensor<1x1024x1024xf32>) -> tensor<12x1024x1024xf32>
%4348 = "tosa.reduce_max"(%4347) <{axis = 2 : i32, nan_mode = "PROPAGATE"}> : (tensor<12x1024x1024xf32>) -> tensor<12x1024x1xf32>
%4349 = "tosa.sub"(%4347, %4348) : (tensor<12x1024x1024xf32>, tensor<12x1024x1xf32>) -> tensor<12x1024x1024xf32>
%4350 = "math.exp"(%4349) <{fastmath = #arith.fastmath<none>}> : (tensor<12x1024x1024xf32>) -> tensor<12x1024x1024xf32>
%4351 = "tosa.reduce_sum"(%4350) <{axis = 2 : i32}> : (tensor<12x1024x1024xf32>) -> tensor<12x1024x1xf32>
%4352 = "tosa.log"(%4351) : (tensor<12x1024x1xf32>) -> tensor<12x1024x1xf32>
%4353 = "tosa.add"(%4348, %4352) : (tensor<12x1024x1xf32>, tensor<12x1024x1xf32>) -> tensor<12x1024x1xf32>
%4354 = "tosa.sub"(%4347, %4353) : (tensor<12x1024x1024xf32>, tensor<12x1024x1xf32>) -> tensor<12x1024x1024xf32>
%4355 = "math.exp"(%4354) <{fastmath = #arith.fastmath<none>}> : (tensor<12x1024x1024xf32>) -> tensor<12x1024x1024xf32>
%4356 = "tosa.reshape"(%4353) <{new_shape = array<i64: 1, 12, 1024>}> : (tensor<12x1024x1xf32>) -> tensor<1x12x1024xf32>
%4357 = "tosa.reshape"(%4326) <{new_shape = array<i64: 12, 1024, 128>}> : (tensor<1x12x1024x128xf32>) -> tensor<12x1024x128xf32>
%4358 = "tosa.matmul"(%4355, %4357) : (tensor<12x1024x1024xf32>, tensor<12x1024x128xf32>) -> tensor<12x1024x128xf32>
%4359 = "tosa.reshape"(%4358) <{new_shape = array<i64: 1, 12, 1024, 128>}> : (tensor<12x1024x128xf32>) -> tensor<1x12x1024x128xf32>

====================Graph Node====================
Node: getitem_54
Type: OpType.GetItemType
Arguments: ['_scaled_dot_product_flash_attention_for_cpu_27', 0]
Parents: ['_scaled_dot_product_flash_attention_for_cpu_27']
Children: ['permute_304']
--------------------MLIR OPS--------------------

====================Graph Node====================
Node: permute_304
Type: OpType.ReshapeType
Arguments: ['getitem_54', [0, 2, 1, 3]]
Parents: ['getitem_54']
Children: ['view_556']
--------------------MLIR OPS--------------------
%4360 = "tosa.const"() <{value = dense<[0, 2, 1, 3]> : tensor<4xi32>}> : () -> tensor<4xi32>
%4361 = "tosa.transpose"(%4359, %4360) : (tensor<1x12x1024x128xf32>, tensor<4xi32>) -> tensor<1x1024x12x128xf32>

====================Graph Node====================
Node: view_556
Type: OpType.ReshapeType
Arguments: ['permute_304', [1, 1024, -1]]
Parents: ['permute_304']
Children: ['view_557']
--------------------MLIR OPS--------------------
%4362 = "tosa.reshape"(%4361) <{new_shape = array<i64: 1, 1024, 1536>}> : (tensor<1x1024x12x128xf32>) -> tensor<1x1024x1536xf32>

====================Graph Node====================
Node: permute_305
Type: OpType.ReshapeType
Arguments: ['arg334_1', [1, 0]]
Parents: ['arg334_1']
Children: ['mm_108']
--------------------MLIR OPS--------------------
%4363 = "tosa.const"() <{value = dense<[1, 0]> : tensor<2xi32>}> : () -> tensor<2xi32>
%4364 = "tosa.transpose"(%arg334, %4363) : (tensor<1536x1536xf32>, tensor<2xi32>) -> tensor<1536x1536xf32>

====================Graph Node====================
Node: view_557
Type: OpType.ReshapeType
Arguments: ['view_556', [1024, 1536]]
Parents: ['view_556']
Children: ['mm_108']
--------------------MLIR OPS--------------------
%4365 = "tosa.reshape"(%4362) <{new_shape = array<i64: 1024, 1536>}> : (tensor<1x1024x1536xf32>) -> tensor<1024x1536xf32>

====================Graph Node====================
Node: mm_108
Type: OpType.ReduceType
Arguments: ['view_557', 'permute_305']
Parents: ['view_557', 'permute_305']
Children: ['view_558']
--------------------MLIR OPS--------------------
%4366 = "arith.constant"() <{value = dense<0.000000e+00> : tensor<1024x1536xf32>}> : () -> tensor<1024x1536xf32>
%4367 = "linalg.matmul"(%4365, %4364, %4366) <{cast = #linalg.type_fn<cast_signed>, indexing_maps = [affine_map<(d0, d1, d2) -> (d0, d2)>, affine_map<(d0, d1, d2) -> (d2, d1)>, affine_map<(d0, d1, d2) -> (d0, d1)>], operandSegmentSizes = array<i32: 2, 1>}> ({
^bb0(%arg341: f32, %arg342: f32, %arg343: f32):
  %4368 = "arith.mulf"(%arg341, %arg342) <{fastmath = #arith.fastmath<none>}> : (f32, f32) -> f32
  %4369 = "arith.addf"(%arg343, %4368) <{fastmath = #arith.fastmath<none>}> : (f32, f32) -> f32
  "linalg.yield"(%4369) : (f32) -> ()
}) : (tensor<1024x1536xf32>, tensor<1536x1536xf32>, tensor<1024x1536xf32>) -> tensor<1024x1536xf32>

====================Graph Node====================
Node: view_558
Type: OpType.ReshapeType
Arguments: ['mm_108', [1, 1024, 1536]]
Parents: ['mm_108']
Children: ['add_166']
--------------------MLIR OPS--------------------
%4368 = "tosa.reshape"(%4367) <{new_shape = array<i64: 1, 1024, 1536>}> : (tensor<1024x1536xf32>) -> tensor<1x1024x1536xf32>

====================Graph Node====================
Node: add_166
Type: OpType.BroadcastType
Arguments: ['add_162', 'view_558']
Parents: ['add_162', 'view_558']
Children: ['pow_56', 'mul_278', 'add_168']
--------------------MLIR OPS--------------------
%4369 = "tosa.add"(%4249, %4368) : (tensor<1x1024x1536xf32>, tensor<1x1024x1536xf32>) -> tensor<1x1024x1536xf32>

====================Graph Node====================
Node: pow_56
Type: OpType.BroadcastType
Arguments: ['add_166', 2]
Parents: ['add_166']
Children: ['mean_55']
--------------------MLIR OPS--------------------
%4370 = "tensor.empty"() : () -> tensor<1x1024x1536xf32>
%4371 = "arith.constant"() <{value = 2 : i32}> : () -> i32
%4372 = "linalg.generic"(%4369, %4370) <{indexing_maps = [affine_map<(d0, d1, d2) -> (d0, d1, d2)>, affine_map<(d0, d1, d2) -> (d0, d1, d2)>], iterator_types = [#linalg.iterator_type<parallel>, #linalg.iterator_type<parallel>, #linalg.iterator_type<parallel>], operandSegmentSizes = array<i32: 1, 1>}> ({
^bb0(%arg341: f32, %arg342: f32):
  %4373 = "math.fpowi"(%arg341, %4371) <{fastmath = #arith.fastmath<none>}> : (f32, i32) -> f32
  "linalg.yield"(%4373) : (f32) -> ()
}) : (tensor<1x1024x1536xf32>, tensor<1x1024x1536xf32>) -> tensor<1x1024x1536xf32>

====================Graph Node====================
Node: mean_55
Type: OpType.ReduceType
Arguments: ['pow_56', [-1], True]
Parents: ['pow_56']
Children: ['add_167']
--------------------MLIR OPS--------------------
%4373 = "tosa.reduce_sum"(%4372) <{axis = 2 : i32}> : (tensor<1x1024x1536xf32>) -> tensor<1x1024x1xf32>
%4374 = "tosa.const"() <{value = dense<1.536000e+03> : tensor<1xf32>}> : () -> tensor<1xf32>
%4375 = "tosa.reciprocal"(%4374) : (tensor<1xf32>) -> tensor<1xf32>
%4376 = "tosa.reshape"(%4375) <{new_shape = array<i64: 1, 1, 1>}> : (tensor<1xf32>) -> tensor<1x1x1xf32>
%4377 = "tosa.mul"(%4376, %4373) : (tensor<1x1x1xf32>, tensor<1x1024x1xf32>) -> tensor<1x1024x1xf32>

====================Graph Node====================
Node: add_167
Type: OpType.BroadcastType
Arguments: ['mean_55', 1e-06]
Parents: ['mean_55']
Children: ['rsqrt_55']
--------------------MLIR OPS--------------------
%4378 = "tosa.const"() <{value = dense<9.99999997E-7> : tensor<1x1024x1xf32>}> : () -> tensor<1x1024x1xf32>
%4379 = "tosa.add"(%4377, %4378) : (tensor<1x1024x1xf32>, tensor<1x1024x1xf32>) -> tensor<1x1024x1xf32>

====================Graph Node====================
Node: rsqrt_55
Type: OpType.ElementwiseType
Arguments: ['add_167']
Parents: ['add_167']
Children: ['mul_278']
--------------------MLIR OPS--------------------
%4380 = "tosa.rsqrt"(%4379) : (tensor<1x1024x1xf32>) -> tensor<1x1024x1xf32>

====================Graph Node====================
Node: mul_278
Type: OpType.BroadcastType
Arguments: ['add_166', 'rsqrt_55']
Parents: ['add_166', 'rsqrt_55']
Children: ['mul_279']
--------------------MLIR OPS--------------------
%4381 = "tosa.mul"(%4369, %4380) : (tensor<1x1024x1536xf32>, tensor<1x1024x1xf32>) -> tensor<1x1024x1536xf32>

====================Graph Node====================
Node: mul_279
Type: OpType.BroadcastType
Arguments: ['arg335_1', 'mul_278']
Parents: ['arg335_1', 'mul_278']
Children: ['view_559', 'view_561']
--------------------MLIR OPS--------------------
%4382 = "tosa.reshape"(%arg335) <{new_shape = array<i64: 1, 1, 1536>}> : (tensor<1536xf32>) -> tensor<1x1x1536xf32>
%4383 = "tosa.mul"(%4382, %4381) : (tensor<1x1x1536xf32>, tensor<1x1024x1536xf32>) -> tensor<1x1024x1536xf32>

====================Graph Node====================
Node: permute_306
Type: OpType.ReshapeType
Arguments: ['arg336_1', [1, 0]]
Parents: ['arg336_1']
Children: ['mm_109']
--------------------MLIR OPS--------------------
%4384 = "tosa.const"() <{value = dense<[1, 0]> : tensor<2xi32>}> : () -> tensor<2xi32>
%4385 = "tosa.transpose"(%arg336, %4384) : (tensor<8960x1536xf32>, tensor<2xi32>) -> tensor<1536x8960xf32>

====================Graph Node====================
Node: view_559
Type: OpType.ReshapeType
Arguments: ['mul_279', [1024, 1536]]
Parents: ['mul_279']
Children: ['mm_109']
--------------------MLIR OPS--------------------
%4386 = "tosa.reshape"(%4383) <{new_shape = array<i64: 1024, 1536>}> : (tensor<1x1024x1536xf32>) -> tensor<1024x1536xf32>

====================Graph Node====================
Node: mm_109
Type: OpType.ReduceType
Arguments: ['view_559', 'permute_306']
Parents: ['view_559', 'permute_306']
Children: ['view_560']
--------------------MLIR OPS--------------------
%4387 = "arith.constant"() <{value = dense<0.000000e+00> : tensor<1024x8960xf32>}> : () -> tensor<1024x8960xf32>
%4388 = "linalg.matmul"(%4386, %4385, %4387) <{cast = #linalg.type_fn<cast_signed>, indexing_maps = [affine_map<(d0, d1, d2) -> (d0, d2)>, affine_map<(d0, d1, d2) -> (d2, d1)>, affine_map<(d0, d1, d2) -> (d0, d1)>], operandSegmentSizes = array<i32: 2, 1>}> ({
^bb0(%arg341: f32, %arg342: f32, %arg343: f32):
  %4389 = "arith.mulf"(%arg341, %arg342) <{fastmath = #arith.fastmath<none>}> : (f32, f32) -> f32
  %4390 = "arith.addf"(%arg343, %4389) <{fastmath = #arith.fastmath<none>}> : (f32, f32) -> f32
  "linalg.yield"(%4390) : (f32) -> ()
}) : (tensor<1024x1536xf32>, tensor<1536x8960xf32>, tensor<1024x8960xf32>) -> tensor<1024x8960xf32>

====================Graph Node====================
Node: view_560
Type: OpType.ReshapeType
Arguments: ['mm_109', [1, 1024, 8960]]
Parents: ['mm_109']
Children: ['sigmoid_27', 'mul_280']
--------------------MLIR OPS--------------------
%4389 = "tosa.reshape"(%4388) <{new_shape = array<i64: 1, 1024, 8960>}> : (tensor<1024x8960xf32>) -> tensor<1x1024x8960xf32>

====================Graph Node====================
Node: sigmoid_27
Type: OpType.ElementwiseType
Arguments: ['view_560']
Parents: ['view_560']
Children: ['mul_280']
--------------------MLIR OPS--------------------
%4390 = "tosa.sigmoid"(%4389) : (tensor<1x1024x8960xf32>) -> tensor<1x1024x8960xf32>

====================Graph Node====================
Node: mul_280
Type: OpType.BroadcastType
Arguments: ['view_560', 'sigmoid_27']
Parents: ['view_560', 'sigmoid_27']
Children: ['mul_281']
--------------------MLIR OPS--------------------
%4391 = "tosa.mul"(%4389, %4390) : (tensor<1x1024x8960xf32>, tensor<1x1024x8960xf32>) -> tensor<1x1024x8960xf32>

====================Graph Node====================
Node: permute_307
Type: OpType.ReshapeType
Arguments: ['arg337_1', [1, 0]]
Parents: ['arg337_1']
Children: ['mm_110']
--------------------MLIR OPS--------------------
%4392 = "tosa.const"() <{value = dense<[1, 0]> : tensor<2xi32>}> : () -> tensor<2xi32>
%4393 = "tosa.transpose"(%arg337, %4392) : (tensor<8960x1536xf32>, tensor<2xi32>) -> tensor<1536x8960xf32>

====================Graph Node====================
Node: view_561
Type: OpType.ReshapeType
Arguments: ['mul_279', [1024, 1536]]
Parents: ['mul_279']
Children: ['mm_110']
--------------------MLIR OPS--------------------
%4394 = "tosa.reshape"(%4383) <{new_shape = array<i64: 1024, 1536>}> : (tensor<1x1024x1536xf32>) -> tensor<1024x1536xf32>

====================Graph Node====================
Node: mm_110
Type: OpType.ReduceType
Arguments: ['view_561', 'permute_307']
Parents: ['view_561', 'permute_307']
Children: ['view_562']
--------------------MLIR OPS--------------------
%4395 = "arith.constant"() <{value = dense<0.000000e+00> : tensor<1024x8960xf32>}> : () -> tensor<1024x8960xf32>
%4396 = "linalg.matmul"(%4394, %4393, %4395) <{cast = #linalg.type_fn<cast_signed>, indexing_maps = [affine_map<(d0, d1, d2) -> (d0, d2)>, affine_map<(d0, d1, d2) -> (d2, d1)>, affine_map<(d0, d1, d2) -> (d0, d1)>], operandSegmentSizes = array<i32: 2, 1>}> ({
^bb0(%arg341: f32, %arg342: f32, %arg343: f32):
  %4397 = "arith.mulf"(%arg341, %arg342) <{fastmath = #arith.fastmath<none>}> : (f32, f32) -> f32
  %4398 = "arith.addf"(%arg343, %4397) <{fastmath = #arith.fastmath<none>}> : (f32, f32) -> f32
  "linalg.yield"(%4398) : (f32) -> ()
}) : (tensor<1024x1536xf32>, tensor<1536x8960xf32>, tensor<1024x8960xf32>) -> tensor<1024x8960xf32>

====================Graph Node====================
Node: view_562
Type: OpType.ReshapeType
Arguments: ['mm_110', [1, 1024, 8960]]
Parents: ['mm_110']
Children: ['mul_281']
--------------------MLIR OPS--------------------
%4397 = "tosa.reshape"(%4396) <{new_shape = array<i64: 1, 1024, 8960>}> : (tensor<1024x8960xf32>) -> tensor<1x1024x8960xf32>

====================Graph Node====================
Node: mul_281
Type: OpType.BroadcastType
Arguments: ['mul_280', 'view_562']
Parents: ['mul_280', 'view_562']
Children: ['view_563']
--------------------MLIR OPS--------------------
%4398 = "tosa.mul"(%4391, %4397) : (tensor<1x1024x8960xf32>, tensor<1x1024x8960xf32>) -> tensor<1x1024x8960xf32>

====================Graph Node====================
Node: permute_308
Type: OpType.ReshapeType
Arguments: ['arg338_1', [1, 0]]
Parents: ['arg338_1']
Children: ['mm_111']
--------------------MLIR OPS--------------------
%4399 = "tosa.const"() <{value = dense<[1, 0]> : tensor<2xi32>}> : () -> tensor<2xi32>
%4400 = "tosa.transpose"(%arg338, %4399) : (tensor<1536x8960xf32>, tensor<2xi32>) -> tensor<8960x1536xf32>

====================Graph Node====================
Node: view_563
Type: OpType.ReshapeType
Arguments: ['mul_281', [1024, 8960]]
Parents: ['mul_281']
Children: ['mm_111']
--------------------MLIR OPS--------------------
%4401 = "tosa.reshape"(%4398) <{new_shape = array<i64: 1024, 8960>}> : (tensor<1x1024x8960xf32>) -> tensor<1024x8960xf32>

====================Graph Node====================
Node: mm_111
Type: OpType.ReduceType
Arguments: ['view_563', 'permute_308']
Parents: ['view_563', 'permute_308']
Children: ['view_564']
--------------------MLIR OPS--------------------
%4402 = "arith.constant"() <{value = dense<0.000000e+00> : tensor<1024x1536xf32>}> : () -> tensor<1024x1536xf32>
%4403 = "linalg.matmul"(%4401, %4400, %4402) <{cast = #linalg.type_fn<cast_signed>, indexing_maps = [affine_map<(d0, d1, d2) -> (d0, d2)>, affine_map<(d0, d1, d2) -> (d2, d1)>, affine_map<(d0, d1, d2) -> (d0, d1)>], operandSegmentSizes = array<i32: 2, 1>}> ({
^bb0(%arg341: f32, %arg342: f32, %arg343: f32):
  %4404 = "arith.mulf"(%arg341, %arg342) <{fastmath = #arith.fastmath<none>}> : (f32, f32) -> f32
  %4405 = "arith.addf"(%arg343, %4404) <{fastmath = #arith.fastmath<none>}> : (f32, f32) -> f32
  "linalg.yield"(%4405) : (f32) -> ()
}) : (tensor<1024x8960xf32>, tensor<8960x1536xf32>, tensor<1024x1536xf32>) -> tensor<1024x1536xf32>

====================Graph Node====================
Node: view_564
Type: OpType.ReshapeType
Arguments: ['mm_111', [1, 1024, 1536]]
Parents: ['mm_111']
Children: ['add_168']
--------------------MLIR OPS--------------------
%4404 = "tosa.reshape"(%4403) <{new_shape = array<i64: 1, 1024, 1536>}> : (tensor<1024x1536xf32>) -> tensor<1x1024x1536xf32>

====================Graph Node====================
Node: add_168
Type: OpType.BroadcastType
Arguments: ['add_166', 'view_564']
Parents: ['add_166', 'view_564']
Children: ['pow_57', 'mul_282']
--------------------MLIR OPS--------------------
%4405 = "tosa.add"(%4369, %4404) : (tensor<1x1024x1536xf32>, tensor<1x1024x1536xf32>) -> tensor<1x1024x1536xf32>

====================Graph Node====================
Node: pow_57
Type: OpType.BroadcastType
Arguments: ['add_168', 2]
Parents: ['add_168']
Children: ['mean_56']
--------------------MLIR OPS--------------------
%4406 = "tensor.empty"() : () -> tensor<1x1024x1536xf32>
%4407 = "arith.constant"() <{value = 2 : i32}> : () -> i32
%4408 = "linalg.generic"(%4405, %4406) <{indexing_maps = [affine_map<(d0, d1, d2) -> (d0, d1, d2)>, affine_map<(d0, d1, d2) -> (d0, d1, d2)>], iterator_types = [#linalg.iterator_type<parallel>, #linalg.iterator_type<parallel>, #linalg.iterator_type<parallel>], operandSegmentSizes = array<i32: 1, 1>}> ({
^bb0(%arg341: f32, %arg342: f32):
  %4409 = "math.fpowi"(%arg341, %4407) <{fastmath = #arith.fastmath<none>}> : (f32, i32) -> f32
  "linalg.yield"(%4409) : (f32) -> ()
}) : (tensor<1x1024x1536xf32>, tensor<1x1024x1536xf32>) -> tensor<1x1024x1536xf32>

====================Graph Node====================
Node: mean_56
Type: OpType.ReduceType
Arguments: ['pow_57', [-1], True]
Parents: ['pow_57']
Children: ['add_169']
--------------------MLIR OPS--------------------
%4409 = "tosa.reduce_sum"(%4408) <{axis = 2 : i32}> : (tensor<1x1024x1536xf32>) -> tensor<1x1024x1xf32>
%4410 = "tosa.const"() <{value = dense<1.536000e+03> : tensor<1xf32>}> : () -> tensor<1xf32>
%4411 = "tosa.reciprocal"(%4410) : (tensor<1xf32>) -> tensor<1xf32>
%4412 = "tosa.reshape"(%4411) <{new_shape = array<i64: 1, 1, 1>}> : (tensor<1xf32>) -> tensor<1x1x1xf32>
%4413 = "tosa.mul"(%4412, %4409) : (tensor<1x1x1xf32>, tensor<1x1024x1xf32>) -> tensor<1x1024x1xf32>

====================Graph Node====================
Node: add_169
Type: OpType.BroadcastType
Arguments: ['mean_56', 1e-06]
Parents: ['mean_56']
Children: ['rsqrt_56']
--------------------MLIR OPS--------------------
%4414 = "tosa.const"() <{value = dense<9.99999997E-7> : tensor<1x1024x1xf32>}> : () -> tensor<1x1024x1xf32>
%4415 = "tosa.add"(%4413, %4414) : (tensor<1x1024x1xf32>, tensor<1x1024x1xf32>) -> tensor<1x1024x1xf32>

====================Graph Node====================
Node: rsqrt_56
Type: OpType.ElementwiseType
Arguments: ['add_169']
Parents: ['add_169']
Children: ['mul_282']
--------------------MLIR OPS--------------------
%4416 = "tosa.rsqrt"(%4415) : (tensor<1x1024x1xf32>) -> tensor<1x1024x1xf32>

====================Graph Node====================
Node: mul_282
Type: OpType.BroadcastType
Arguments: ['add_168', 'rsqrt_56']
Parents: ['add_168', 'rsqrt_56']
Children: ['mul_283']
--------------------MLIR OPS--------------------
%4417 = "tosa.mul"(%4405, %4416) : (tensor<1x1024x1536xf32>, tensor<1x1024x1xf32>) -> tensor<1x1024x1536xf32>

====================Graph Node====================
Node: mul_283
Type: OpType.BroadcastType
Arguments: ['arg339_1', 'mul_282']
Parents: ['arg339_1', 'mul_282']
Children: ['slice_424']
--------------------MLIR OPS--------------------
%4418 = "tosa.reshape"(%arg339) <{new_shape = array<i64: 1, 1, 1536>}> : (tensor<1536xf32>) -> tensor<1x1x1536xf32>
%4419 = "tosa.mul"(%4418, %4417) : (tensor<1x1x1536xf32>, tensor<1x1024x1536xf32>) -> tensor<1x1024x1536xf32>

====================Graph Node====================
Node: slice_424
Type: OpType.ReshapeType
Arguments: ['mul_283', 0, 0, 9223372036854775807]
Parents: ['mul_283']
Children: ['slice_425']
--------------------MLIR OPS--------------------

====================Graph Node====================
Node: slice_425
Type: OpType.ReshapeType
Arguments: ['slice_424', 1, 0, 9223372036854775807]
Parents: ['slice_424']
Children: ['slice_426']
--------------------MLIR OPS--------------------

====================Graph Node====================
Node: slice_426
Type: OpType.ReshapeType
Arguments: ['slice_425', 2, 0, 9223372036854775807]
Parents: ['slice_425']
Children: ['view_565']
--------------------MLIR OPS--------------------

====================Graph Node====================
Node: permute_309
Type: OpType.ReshapeType
Arguments: ['arg340_1', [1, 0]]
Parents: ['arg340_1']
Children: ['mm_112']
--------------------MLIR OPS--------------------
%4420 = "tosa.const"() <{value = dense<[1, 0]> : tensor<2xi32>}> : () -> tensor<2xi32>
%4421 = "tosa.transpose"(%arg340, %4420) : (tensor<151936x1536xf32>, tensor<2xi32>) -> tensor<1536x151936xf32>

====================Graph Node====================
Node: view_565
Type: OpType.ReshapeType
Arguments: ['slice_426', [1024, 1536]]
Parents: ['slice_426']
Children: ['mm_112']
--------------------MLIR OPS--------------------
%4422 = "tosa.reshape"(%4419) <{new_shape = array<i64: 1024, 1536>}> : (tensor<1x1024x1536xf32>) -> tensor<1024x1536xf32>

====================Graph Node====================
Node: mm_112
Type: OpType.ReduceType
Arguments: ['view_565', 'permute_309']
Parents: ['view_565', 'permute_309']
Children: ['view_566']
--------------------MLIR OPS--------------------
%4423 = "arith.constant"() <{value = dense<0.000000e+00> : tensor<1024x151936xf32>}> : () -> tensor<1024x151936xf32>
%4424 = "linalg.matmul"(%4422, %4421, %4423) <{cast = #linalg.type_fn<cast_signed>, indexing_maps = [affine_map<(d0, d1, d2) -> (d0, d2)>, affine_map<(d0, d1, d2) -> (d2, d1)>, affine_map<(d0, d1, d2) -> (d0, d1)>], operandSegmentSizes = array<i32: 2, 1>}> ({
^bb0(%arg341: f32, %arg342: f32, %arg343: f32):
  %4425 = "arith.mulf"(%arg341, %arg342) <{fastmath = #arith.fastmath<none>}> : (f32, f32) -> f32
  %4426 = "arith.addf"(%arg343, %4425) <{fastmath = #arith.fastmath<none>}> : (f32, f32) -> f32
  "linalg.yield"(%4426) : (f32) -> ()
}) : (tensor<1024x1536xf32>, tensor<1536x151936xf32>, tensor<1024x151936xf32>) -> tensor<1024x151936xf32>

====================Graph Node====================
Node: view_566
Type: OpType.ReshapeType
Arguments: ['mm_112', [1, 1024, 151936]]
Parents: ['mm_112']
Children: ['output']
--------------------MLIR OPS--------------------
%4425 = "tosa.reshape"(%4424) <{new_shape = array<i64: 1, 1024, 151936>}> : (tensor<1024x151936xf32>) -> tensor<1x1024x151936xf32>

====================Graph Node====================
Node: output
Type: OpType.GetItemType
Arguments: ['clone_3', 'clone_2', 'clone_7', 'clone_6', 'clone_11', 'clone_10', 'clone_15', 'clone_14', 'clone_19', 'clone_18', 'clone_23', 'clone_22', 'clone_27', 'clone_26', 'clone_31', 'clone_30', 'clone_35', 'clone_34', 'clone_39', 'clone_38', 'clone_43', 'clone_42', 'clone_47', 'clone_46', 'clone_51', 'clone_50', 'clone_55', 'clone_54', 'clone_59', 'clone_58', 'clone_63', 'clone_62', 'clone_67', 'clone_66', 'clone_71', 'clone_70', 'clone_75', 'clone_74', 'clone_79', 'clone_78', 'clone_83', 'clone_82', 'clone_87', 'clone_86', 'clone_91', 'clone_90', 'clone_95', 'clone_94', 'clone_99', 'clone_98', 'clone_103', 'clone_102', 'clone_107', 'clone_106', 'clone_111', 'clone_110', 'view_566']
Parents: []
Children: []
--------------------MLIR OPS--------------------

====================Graph Node====================
Node: output
Type: OpType.GetItemType
Arguments: ['clone_2', 'clone_3', 'clone_6', 'clone_7', 'clone_10', 'clone_11', 'clone_14', 'clone_15', 'clone_18', 'clone_19', 'clone_22', 'clone_23', 'clone_26', 'clone_27', 'clone_30', 'clone_31', 'clone_34', 'clone_35', 'clone_38', 'clone_39', 'clone_42', 'clone_43', 'clone_46', 'clone_47', 'clone_50', 'clone_51', 'clone_54', 'clone_55', 'clone_58', 'clone_59', 'clone_62', 'clone_63', 'clone_66', 'clone_67', 'clone_70', 'clone_71', 'clone_74', 'clone_75', 'clone_78', 'clone_79', 'clone_82', 'clone_83', 'clone_86', 'clone_87', 'clone_90', 'clone_91', 'clone_94', 'clone_95', 'clone_98', 'clone_99', 'clone_102', 'clone_103', 'clone_106', 'clone_107', 'clone_110', 'clone_111', 'view_566']
Parents: ['clone_2', 'clone_3', 'clone_6', 'clone_7', 'clone_10', 'clone_11', 'clone_14', 'clone_15', 'clone_18', 'clone_19', 'clone_22', 'clone_23', 'clone_26', 'clone_27', 'clone_30', 'clone_31', 'clone_34', 'clone_35', 'clone_38', 'clone_39', 'clone_42', 'clone_43', 'clone_46', 'clone_47', 'clone_50', 'clone_51', 'clone_54', 'clone_55', 'clone_58', 'clone_59', 'clone_62', 'clone_63', 'clone_66', 'clone_67', 'clone_70', 'clone_71', 'clone_74', 'clone_75', 'clone_78', 'clone_79', 'clone_82', 'clone_83', 'clone_86', 'clone_87', 'clone_90', 'clone_91', 'clone_94', 'clone_95', 'clone_98', 'clone_99', 'clone_102', 'clone_103', 'clone_106', 'clone_107', 'clone_110', 'clone_111', 'view_566']
Children: []
--------------------MLIR OPS--------------------

