#map = affine_map<(d0, d1, d2) -> (d0, d1, d2)>
#map1 = affine_map<(d0, d1, d2, d3) -> (d0, d1, d2, d3)>
module {
  func.func @subgraph0_prefill(%arg0: tensor<151936x1536xf32>, //embedding 表
  %arg1: tensor<1x1024xi64>, //输入数据
  %arg2: tensor<64xf32>, ////# RoPE旋转位置编码的频率因子
  
  %arg3: tensor<1536xf32>, 

  %arg4: tensor<1536x1536xf32>, 
  %arg5: tensor<1536xf32>, 
  %arg6: tensor<256x1536xf32>, 
  %arg7: tensor<256xf32>, 
  %arg8: tensor<256x1536xf32>, 
  %arg9: tensor<256xf32>, 
  %arg10: tensor<1536x1536xf32>, 
  %arg11: tensor<1536xf32>, 
  %arg12: tensor<8960x1536xf32>, 
  %arg13: tensor<8960x1536xf32>, 
  %arg14: tensor<1536x8960xf32>, 
  
  %arg15: tensor<1536xf32>, %arg16: tensor<1536x1536xf32>, %arg17: tensor<1536xf32>, %arg18: tensor<256x1536xf32>, %arg19: tensor<256xf32>, %arg20: tensor<256x1536xf32>, %arg21: tensor<256xf32>, %arg22: tensor<1536x1536xf32>, %arg23: tensor<1536xf32>, %arg24: tensor<8960x1536xf32>, %arg25: tensor<8960x1536xf32>, %arg26: tensor<1536x8960xf32>, 
  %arg27: tensor<1536xf32>, %arg28: tensor<1536x1536xf32>, %arg29: tensor<1536xf32>, %arg30: tensor<256x1536xf32>, %arg31: tensor<256xf32>, %arg32: tensor<256x1536xf32>, %arg33: tensor<256xf32>, %arg34: tensor<1536x1536xf32>, %arg35: tensor<1536xf32>, %arg36: tensor<8960x1536xf32>, %arg37: tensor<8960x1536xf32>, %arg38: tensor<1536x8960xf32>, 
  %arg39: tensor<1536xf32>, %arg40: tensor<1536x1536xf32>, %arg41: tensor<1536xf32>, %arg42: tensor<256x1536xf32>, %arg43: tensor<256xf32>, %arg44: tensor<256x1536xf32>, %arg45: tensor<256xf32>, %arg46: tensor<1536x1536xf32>, %arg47: tensor<1536xf32>, %arg48: tensor<8960x1536xf32>, %arg49: tensor<8960x1536xf32>, %arg50: tensor<1536x8960xf32>, 
  %arg51: tensor<1536xf32>, %arg52: tensor<1536x1536xf32>, %arg53: tensor<1536xf32>, %arg54: tensor<256x1536xf32>, %arg55: tensor<256xf32>, %arg56: tensor<256x1536xf32>, %arg57: tensor<256xf32>, %arg58: tensor<1536x1536xf32>, %arg59: tensor<1536xf32>, %arg60: tensor<8960x1536xf32>, %arg61: tensor<8960x1536xf32>, %arg62: tensor<1536x8960xf32>, 
  %arg63: tensor<1536xf32>, %arg64: tensor<1536x1536xf32>, %arg65: tensor<1536xf32>, %arg66: tensor<256x1536xf32>, %arg67: tensor<256xf32>, %arg68: tensor<256x1536xf32>, %arg69: tensor<256xf32>, %arg70: tensor<1536x1536xf32>, %arg71: tensor<1536xf32>, %arg72: tensor<8960x1536xf32>, %arg73: tensor<8960x1536xf32>, %arg74: tensor<1536x8960xf32>, 
  %arg75: tensor<1536xf32>, %arg76: tensor<1536x1536xf32>, %arg77: tensor<1536xf32>, %arg78: tensor<256x1536xf32>, %arg79: tensor<256xf32>, %arg80: tensor<256x1536xf32>, %arg81: tensor<256xf32>, %arg82: tensor<1536x1536xf32>, %arg83: tensor<1536xf32>, %arg84: tensor<8960x1536xf32>, %arg85: tensor<8960x1536xf32>, %arg86: tensor<1536x8960xf32>, 
  %arg87: tensor<1536xf32>, %arg88: tensor<1536x1536xf32>, %arg89: tensor<1536xf32>, %arg90: tensor<256x1536xf32>, %arg91: tensor<256xf32>, %arg92: tensor<256x1536xf32>, %arg93: tensor<256xf32>, %arg94: tensor<1536x1536xf32>, %arg95: tensor<1536xf32>, %arg96: tensor<8960x1536xf32>, %arg97: tensor<8960x1536xf32>, %arg98: tensor<1536x8960xf32>, 
  %arg99: tensor<1536xf32>, %arg100: tensor<1536x1536xf32>, %arg101: tensor<1536xf32>, %arg102: tensor<256x1536xf32>, %arg103: tensor<256xf32>, %arg104: tensor<256x1536xf32>, %arg105: tensor<256xf32>, %arg106: tensor<1536x1536xf32>, %arg107: tensor<1536xf32>, %arg108: tensor<8960x1536xf32>, %arg109: tensor<8960x1536xf32>, %arg110: tensor<1536x8960xf32>, 
  %arg111: tensor<1536xf32>, %arg112: tensor<1536x1536xf32>, %arg113: tensor<1536xf32>, %arg114: tensor<256x1536xf32>, %arg115: tensor<256xf32>, %arg116: tensor<256x1536xf32>, %arg117: tensor<256xf32>, %arg118: tensor<1536x1536xf32>, %arg119: tensor<1536xf32>, %arg120: tensor<8960x1536xf32>, %arg121: tensor<8960x1536xf32>, %arg122: tensor<1536x8960xf32>, 
  %arg123: tensor<1536xf32>, %arg124: tensor<1536x1536xf32>, %arg125: tensor<1536xf32>, %arg126: tensor<256x1536xf32>, %arg127: tensor<256xf32>, %arg128: tensor<256x1536xf32>, %arg129: tensor<256xf32>, %arg130: tensor<1536x1536xf32>, %arg131: tensor<1536xf32>, %arg132: tensor<8960x1536xf32>, %arg133: tensor<8960x1536xf32>, %arg134: tensor<1536x8960xf32>, 
  %arg135: tensor<1536xf32>, %arg136: tensor<1536x1536xf32>, %arg137: tensor<1536xf32>, %arg138: tensor<256x1536xf32>, %arg139: tensor<256xf32>, %arg140: tensor<256x1536xf32>, %arg141: tensor<256xf32>, %arg142: tensor<1536x1536xf32>, %arg143: tensor<1536xf32>, %arg144: tensor<8960x1536xf32>, %arg145: tensor<8960x1536xf32>, %arg146: tensor<1536x8960xf32>, 
  %arg147: tensor<1536xf32>, %arg148: tensor<1536x1536xf32>, %arg149: tensor<1536xf32>, %arg150: tensor<256x1536xf32>, %arg151: tensor<256xf32>, %arg152: tensor<256x1536xf32>, %arg153: tensor<256xf32>, %arg154: tensor<1536x1536xf32>, %arg155: tensor<1536xf32>, %arg156: tensor<8960x1536xf32>, %arg157: tensor<8960x1536xf32>, %arg158: tensor<1536x8960xf32>, 
  %arg159: tensor<1536xf32>, %arg160: tensor<1536x1536xf32>, %arg161: tensor<1536xf32>, %arg162: tensor<256x1536xf32>, %arg163: tensor<256xf32>, %arg164: tensor<256x1536xf32>, %arg165: tensor<256xf32>, %arg166: tensor<1536x1536xf32>, %arg167: tensor<1536xf32>, %arg168: tensor<8960x1536xf32>, %arg169: tensor<8960x1536xf32>, %arg170: tensor<1536x8960xf32>, 
  %arg171: tensor<1536xf32>, %arg172: tensor<1536x1536xf32>, %arg173: tensor<1536xf32>, %arg174: tensor<256x1536xf32>, %arg175: tensor<256xf32>, %arg176: tensor<256x1536xf32>, %arg177: tensor<256xf32>, %arg178: tensor<1536x1536xf32>, %arg179: tensor<1536xf32>, %arg180: tensor<8960x1536xf32>, %arg181: tensor<8960x1536xf32>, %arg182: tensor<1536x8960xf32>, 
  %arg183: tensor<1536xf32>, %arg184: tensor<1536x1536xf32>, %arg185: tensor<1536xf32>, %arg186: tensor<256x1536xf32>, %arg187: tensor<256xf32>, %arg188: tensor<256x1536xf32>, %arg189: tensor<256xf32>, %arg190: tensor<1536x1536xf32>, %arg191: tensor<1536xf32>, %arg192: tensor<8960x1536xf32>, %arg193: tensor<8960x1536xf32>, %arg194: tensor<1536x8960xf32>, 
  %arg195: tensor<1536xf32>, %arg196: tensor<1536x1536xf32>, %arg197: tensor<1536xf32>, %arg198: tensor<256x1536xf32>, %arg199: tensor<256xf32>, %arg200: tensor<256x1536xf32>, %arg201: tensor<256xf32>, %arg202: tensor<1536x1536xf32>, %arg203: tensor<1536xf32>, %arg204: tensor<8960x1536xf32>, %arg205: tensor<8960x1536xf32>, %arg206: tensor<1536x8960xf32>, 
  %arg207: tensor<1536xf32>, %arg208: tensor<1536x1536xf32>, %arg209: tensor<1536xf32>, %arg210: tensor<256x1536xf32>, %arg211: tensor<256xf32>, %arg212: tensor<256x1536xf32>, %arg213: tensor<256xf32>, %arg214: tensor<1536x1536xf32>, %arg215: tensor<1536xf32>, %arg216: tensor<8960x1536xf32>, %arg217: tensor<8960x1536xf32>, %arg218: tensor<1536x8960xf32>, 
  %arg219: tensor<1536xf32>, %arg220: tensor<1536x1536xf32>, %arg221: tensor<1536xf32>, %arg222: tensor<256x1536xf32>, %arg223: tensor<256xf32>, %arg224: tensor<256x1536xf32>, %arg225: tensor<256xf32>, %arg226: tensor<1536x1536xf32>, %arg227: tensor<1536xf32>, %arg228: tensor<8960x1536xf32>, %arg229: tensor<8960x1536xf32>, %arg230: tensor<1536x8960xf32>, 
  %arg231: tensor<1536xf32>, %arg232: tensor<1536x1536xf32>, %arg233: tensor<1536xf32>, %arg234: tensor<256x1536xf32>, %arg235: tensor<256xf32>, %arg236: tensor<256x1536xf32>, %arg237: tensor<256xf32>, %arg238: tensor<1536x1536xf32>, %arg239: tensor<1536xf32>, %arg240: tensor<8960x1536xf32>, %arg241: tensor<8960x1536xf32>, %arg242: tensor<1536x8960xf32>, 
  %arg243: tensor<1536xf32>, %arg244: tensor<1536x1536xf32>, %arg245: tensor<1536xf32>, %arg246: tensor<256x1536xf32>, %arg247: tensor<256xf32>, %arg248: tensor<256x1536xf32>, %arg249: tensor<256xf32>, %arg250: tensor<1536x1536xf32>, %arg251: tensor<1536xf32>, %arg252: tensor<8960x1536xf32>, %arg253: tensor<8960x1536xf32>, %arg254: tensor<1536x8960xf32>, 
  %arg255: tensor<1536xf32>, %arg256: tensor<1536x1536xf32>, %arg257: tensor<1536xf32>, %arg258: tensor<256x1536xf32>, %arg259: tensor<256xf32>, %arg260: tensor<256x1536xf32>, %arg261: tensor<256xf32>, %arg262: tensor<1536x1536xf32>, %arg263: tensor<1536xf32>, %arg264: tensor<8960x1536xf32>, %arg265: tensor<8960x1536xf32>, %arg266: tensor<1536x8960xf32>, 
  %arg267: tensor<1536xf32>, %arg268: tensor<1536x1536xf32>, %arg269: tensor<1536xf32>, %arg270: tensor<256x1536xf32>, %arg271: tensor<256xf32>, %arg272: tensor<256x1536xf32>, %arg273: tensor<256xf32>, %arg274: tensor<1536x1536xf32>, %arg275: tensor<1536xf32>, %arg276: tensor<8960x1536xf32>, %arg277: tensor<8960x1536xf32>, %arg278: tensor<1536x8960xf32>, 
  %arg279: tensor<1536xf32>, %arg280: tensor<1536x1536xf32>, %arg281: tensor<1536xf32>, %arg282: tensor<256x1536xf32>, %arg283: tensor<256xf32>, %arg284: tensor<256x1536xf32>, %arg285: tensor<256xf32>, %arg286: tensor<1536x1536xf32>, %arg287: tensor<1536xf32>, %arg288: tensor<8960x1536xf32>, %arg289: tensor<8960x1536xf32>, %arg290: tensor<1536x8960xf32>, 
  %arg291: tensor<1536xf32>, %arg292: tensor<1536x1536xf32>, %arg293: tensor<1536xf32>, %arg294: tensor<256x1536xf32>, %arg295: tensor<256xf32>, %arg296: tensor<256x1536xf32>, %arg297: tensor<256xf32>, %arg298: tensor<1536x1536xf32>, %arg299: tensor<1536xf32>, %arg300: tensor<8960x1536xf32>, %arg301: tensor<8960x1536xf32>, %arg302: tensor<1536x8960xf32>, 
  %arg303: tensor<1536xf32>, %arg304: tensor<1536x1536xf32>, %arg305: tensor<1536xf32>, %arg306: tensor<256x1536xf32>, %arg307: tensor<256xf32>, %arg308: tensor<256x1536xf32>, %arg309: tensor<256xf32>, %arg310: tensor<1536x1536xf32>, %arg311: tensor<1536xf32>, %arg312: tensor<8960x1536xf32>, %arg313: tensor<8960x1536xf32>, %arg314: tensor<1536x8960xf32>, 
  %arg315: tensor<1536xf32>, %arg316: tensor<1536x1536xf32>, %arg317: tensor<1536xf32>, %arg318: tensor<256x1536xf32>, %arg319: tensor<256xf32>, %arg320: tensor<256x1536xf32>, %arg321: tensor<256xf32>, %arg322: tensor<1536x1536xf32>, %arg323: tensor<1536xf32>, %arg324: tensor<8960x1536xf32>, %arg325: tensor<8960x1536xf32>, %arg326: tensor<1536x8960xf32>, 
  %arg327: tensor<1536xf32>, %arg328: tensor<1536x1536xf32>, %arg329: tensor<1536xf32>, %arg330: tensor<256x1536xf32>, %arg331: tensor<256xf32>, %arg332: tensor<256x1536xf32>, %arg333: tensor<256xf32>, %arg334: tensor<1536x1536xf32>, %arg335: tensor<1536xf32>, %arg336: tensor<8960x1536xf32>, %arg337: tensor<8960x1536xf32>, %arg338: tensor<1536x8960xf32>, 
  
  %arg339: tensor<1536xf32>, %arg340: tensor<151936x1536xf32>) 
  
  -> (tensor<1x2x1024x128xf32>, tensor<1x2x1024x128xf32>, 
  tensor<1x2x1024x128xf32>, tensor<1x2x1024x128xf32>, 
  tensor<1x2x1024x128xf32>, tensor<1x2x1024x128xf32>, 
  tensor<1x2x1024x128xf32>, tensor<1x2x1024x128xf32>, 
  tensor<1x2x1024x128xf32>, tensor<1x2x1024x128xf32>, 
  tensor<1x2x1024x128xf32>, tensor<1x2x1024x128xf32>, 
  tensor<1x2x1024x128xf32>, tensor<1x2x1024x128xf32>, 
  tensor<1x2x1024x128xf32>, tensor<1x2x1024x128xf32>, 
  tensor<1x2x1024x128xf32>, tensor<1x2x1024x128xf32>, 
  tensor<1x2x1024x128xf32>, tensor<1x2x1024x128xf32>, 
  tensor<1x2x1024x128xf32>, tensor<1x2x1024x128xf32>, 
  tensor<1x2x1024x128xf32>, tensor<1x2x1024x128xf32>, 
  tensor<1x2x1024x128xf32>, tensor<1x2x1024x128xf32>, 
  tensor<1x2x1024x128xf32>, tensor<1x2x1024x128xf32>, 
  tensor<1x2x1024x128xf32>, tensor<1x2x1024x128xf32>, 
  tensor<1x2x1024x128xf32>, tensor<1x2x1024x128xf32>, 
  tensor<1x2x1024x128xf32>, tensor<1x2x1024x128xf32>, 
  tensor<1x2x1024x128xf32>, tensor<1x2x1024x128xf32>, 
  tensor<1x2x1024x128xf32>, tensor<1x2x1024x128xf32>, 
  tensor<1x2x1024x128xf32>, tensor<1x2x1024x128xf32>, 
  tensor<1x2x1024x128xf32>, tensor<1x2x1024x128xf32>, 
  tensor<1x2x1024x128xf32>, tensor<1x2x1024x128xf32>, 
  tensor<1x2x1024x128xf32>, tensor<1x2x1024x128xf32>, 
  tensor<1x2x1024x128xf32>, tensor<1x2x1024x128xf32>, 
  tensor<1x2x1024x128xf32>, tensor<1x2x1024x128xf32>, 
  tensor<1x2x1024x128xf32>, tensor<1x2x1024x128xf32>, 
  tensor<1x2x1024x128xf32>, tensor<1x2x1024x128xf32>, 
  tensor<1x2x1024x128xf32>, tensor<1x2x1024x128xf32>, 
  tensor<1x1024x151936xf32>) {
    // ===========================================
    // 1. TOKEN EMBEDDING LAYER
    // ===========================================
    // Input: %arg1 (1x40xi64) - token IDs for sequence of length 40
    // Embedding weights: %arg0 (151936x1536) - vocabulary_size x hidden_dim
    // Output: token embeddings (1x40x1536)
    //1 Node: embedding Type: OpType.ReshapeType EmbeddingOp
    %0 = tosa.cast %arg1 : (tensor<1x1024xi64>) -> tensor<1x1024xi32>
    %1 = tosa.reshape %arg0 {new_shape = array<i64: 1, 151936, 1536>} : (tensor<151936x1536xf32>) -> tensor<1x151936x1536xf32>
    %2 = tosa.gather %1, %0 : (tensor<1x151936x1536xf32>, tensor<1x1024xi32>) -> tensor<1x1024x1536xf32>
    // 2. POSITIONAL ENCODING/mask
    // 2Node: iota unsqueeze iota_1 add view Node: expand_1 
    %3 = "tosa.const"() <{value = dense<"…"> : tensor<1024xi64>}> : () -> tensor<1024xi64>
    %4 = tosa.reshape %3 {new_shape = array<i64: 1, 1024>} : (tensor<1024xi64>) -> tensor<1x1024xi64>
    %5 = "tosa.const"() <{value = dense<"…"> : tensor<1024xi64>}> : () -> tensor<1024xi64>
    %6 = "tosa.const"() <{value = dense<0> : tensor<1024xi64>}> : () -> tensor<1024xi64>
    %7 = tosa.add %5, %6 : (tensor<1024xi64>, tensor<1024xi64>) -> tensor<1024xi64>
    %8 = tosa.reshape %3 {new_shape = array<i64: 1024, 1>} : (tensor<1024xi64>) -> tensor<1024x1xi64>
    %9 = "tosa.const"() <{value = dense<0> : tensor<1024x1024xi64>}> : () -> tensor<1024x1024xi64>
    %10 = tosa.reshape %7 {new_shape = array<i64: 1, 1024>} : (tensor<1024xi64>) -> tensor<1x1024xi64>
    %11 = tosa.add %10, %9 : (tensor<1x1024xi64>, tensor<1024x1024xi64>) -> tensor<1024x1024xi64>
    %12 = "tosa.const"() <{value = dense<0> : tensor<1024x1024xi64>}> : () -> tensor<1024x1024xi64>
    %13 = tosa.add %8, %12 : (tensor<1024x1xi64>, tensor<1024x1024xi64>) -> tensor<1024x1024xi64>
    %14 = arith.cmpi ule, %11, %13 : tensor<1024x1024xi64>
    %15 = "tosa.const"() <{value = dense<false> : tensor<1x1024xi1>}> : () -> tensor<1x1024xi1>
    %16 = tosa.add %14, %15 : (tensor<1024x1024xi1>, tensor<1x1024xi1>) -> tensor<1024x1024xi1>
    %17 = "tosa.const"() <{value = dense<false> : tensor<1x1xi1>}> : () -> tensor<1x1xi1>
    %18 = tosa.add %16, %17 : (tensor<1024x1024xi1>, tensor<1x1xi1>) -> tensor<1024x1024xi1>
    
    // Generate Rotary Position Embedding (RoPE)
    // %arg3 contains the rotary embedding frequencies (64 dimensions)
    // unsqueeze_1 --- mul_1
    %19 = tosa.reshape %arg2 {new_shape = array<i64: 1, 64>} : (tensor<64xf32>) -> tensor<1x64xf32>
    %20 = tosa.reshape %19 {new_shape = array<i64: 1, 64, 1>} : (tensor<1x64xf32>) -> tensor<1x64x1xf32>
    %21 = tosa.reshape %4 {new_shape = array<i64: 1, 1, 1024>} : (tensor<1x1024xi64>) -> tensor<1x1x1024xi64>
    %22 = tosa.cast %21 : (tensor<1x1x1024xi64>) -> tensor<1x1x1024xf32>
    %23 = tosa.matmul %20, %22 : (tensor<1x64x1xf32>, tensor<1x1x1024xf32>) -> tensor<1x64x1024xf32>
    %24 = "tosa.const"() <{value = dense<[0, 2, 1]> : tensor<3xi32>}> : () -> tensor<3xi32>
    %25 = tosa.transpose %23, %24 : (tensor<1x64x1024xf32>, tensor<3xi32>) -> tensor<1x1024x64xf32>
    %26 = tosa.reshape %25 {new_shape = array<i64: 1, 1024, 1, 64>} : (tensor<1x1024x64xf32>) -> tensor<1x1024x1x64xf32>
    %27 = "tosa.const"() <{value = dense<0.000000e+00> : tensor<1x1024x2x64xf32>}> : () -> tensor<1x1024x2x64xf32>
    %28 = tosa.add %26, %27 : (tensor<1x1024x1x64xf32>, tensor<1x1024x2x64xf32>) -> tensor<1x1024x2x64xf32>
    %29 = tosa.reshape %28 {new_shape = array<i64: 1, 1024, 128>} : (tensor<1x1024x2x64xf32>) -> tensor<1x1024x128xf32>
    %30 = math.cos %29 : tensor<1x1024x128xf32>
    %cst = arith.constant dense<1.000000e+00> : tensor<1xf32>
    %31 = tosa.reshape %cst {new_shape = array<i64: 1, 1, 1>} : (tensor<1xf32>) -> tensor<1x1x1xf32>
    %32 = tosa.mul %30, %31 : (tensor<1x1024x128xf32>, tensor<1x1x1xf32>) -> tensor<1x1024x128xf32>
    %33 = math.sin %29 : tensor<1x1024x128xf32>
    %cst_0 = arith.constant dense<1.000000e+00> : tensor<1xf32>
    %34 = tosa.reshape %cst_0 {new_shape = array<i64: 1, 1, 1>} : (tensor<1xf32>) -> tensor<1x1x1xf32>
    %35 = tosa.mul %33, %34 : (tensor<1x1024x128xf32>, tensor<1x1x1xf32>) -> tensor<1x1024x128xf32>
    
    // ===========================================
    // 3. LAYER NORMALIZATION (Pre-Attention)
    // ===========================================
    // Apply layer normalization before attention mechanism
    // Weights: %arg4 (1536xf32) - layer norm scale
    // Bias: %arg6 (1536xf32) - layer norm bias
    //pow_1 --- mul_3(含pow 6个)
    %36 = tensor.empty() : tensor<1x1024x1536xf32>
    %c2_i32 = arith.constant 2 : i32
    %37 = linalg.generic {indexing_maps = [#map, #map], iterator_types = ["parallel", "parallel", "parallel"]} ins(%2 : tensor<1x1024x1536xf32>) outs(%36 : tensor<1x1024x1536xf32>) {
    ^bb0(%in: f32, %out: f32):
      %3722 = math.fpowi %in, %c2_i32 : f32, i32
      linalg.yield %3722 : f32
    } -> tensor<1x1024x1536xf32>
    %38 = tosa.reduce_sum %37 {axis = 2 : i32} : (tensor<1x1024x1536xf32>) -> tensor<1x1024x1xf32>
    %39 = "tosa.const"() <{value = dense<1.536000e+03> : tensor<1xf32>}> : () -> tensor<1xf32>
    %40 = tosa.reciprocal %39 : (tensor<1xf32>) -> tensor<1xf32>
    %41 = tosa.reshape %40 {new_shape = array<i64: 1, 1, 1>} : (tensor<1xf32>) -> tensor<1x1x1xf32>
    %42 = tosa.mul %41, %38 : (tensor<1x1x1xf32>, tensor<1x1024x1xf32>) -> tensor<1x1024x1xf32>
    %43 = "tosa.const"() <{value = dense<9.99999997E-7> : tensor<1x1024x1xf32>}> : () -> tensor<1x1024x1xf32>
    %44 = tosa.add %42, %43 : (tensor<1x1024x1xf32>, tensor<1x1024x1xf32>) -> tensor<1x1024x1xf32>
    %45 = tosa.rsqrt %44 : (tensor<1x1024x1xf32>) -> tensor<1x1024x1xf32>
    %46 = tosa.mul %2, %45 : (tensor<1x1024x1536xf32>, tensor<1x1024x1xf32>) -> tensor<1x1024x1536xf32>
    %47 = tosa.reshape %arg3 {new_shape = array<i64: 1, 1, 1536>} : (tensor<1536xf32>) -> tensor<1x1x1536xf32>
    %48 = tosa.mul %47, %46 : (tensor<1x1x1536xf32>, tensor<1x1024x1536xf32>) -> tensor<1x1024x1536xf32>

    // ===========================================
    // 4. MULTI-HEAD ATTENTION MECHANISM
    // ===========================================
    // Generate Query, Key, Value projections for attention
    // Model has 12 attention heads, 128 dimensions per head
    
    //view_5 ---- permute_2 6个
    // Query Projection: %arg7 (256x1536) -> Q weights
    %49 = tosa.reshape %48 {new_shape = array<i64: 1024, 1536>} : (tensor<1x1024x1536xf32>) -> tensor<1024x1536xf32>
    %50 = "tosa.const"() <{value = dense<[1, 0]> : tensor<2xi32>}> : () -> tensor<2xi32>
    %51 = tosa.transpose %arg4, %50 : (tensor<1536x1536xf32>, tensor<2xi32>) -> tensor<1536x1536xf32>
    %cst_1 = arith.constant dense<0.000000e+00> : tensor<1024x1536xf32>
    %52 = linalg.matmul {cast = #linalg.type_fn<cast_signed>} ins(%49, %51 : tensor<1024x1536xf32>, tensor<1536x1536xf32>) outs(%cst_1 : tensor<1024x1536xf32>) -> tensor<1024x1536xf32>
    %53 = tosa.reshape %arg5 {new_shape = array<i64: 1, 1536>} : (tensor<1536xf32>) -> tensor<1x1536xf32>
    %54 = tosa.add %53, %52 : (tensor<1x1536xf32>, tensor<1024x1536xf32>) -> tensor<1024x1536xf32>
   //view_6出错 //解决
    %55 = tosa.reshape %54 {new_shape = array<i64: 1, 1024, 1536>} : (tensor<1024x1536xf32>) -> tensor<1x1024x1536xf32>
    
    %56 = tosa.reshape %55 {new_shape = array<i64: 1, 1024, 12, 128>} : (tensor<1x1024x1536xf32>) -> tensor<1x1024x12x128xf32>
    %57 = "tosa.const"() <{value = dense<[0, 2, 1, 3]> : tensor<4xi32>}> : () -> tensor<4xi32>
    %58 = tosa.transpose %56, %57 : (tensor<1x1024x12x128xf32>, tensor<4xi32>) -> tensor<1x12x1024x128xf32>
    
    //view_8 --- permute_4 6个
    // Key Projection: %arg9 (256x1536) -> K weights
    %59 = tosa.reshape %48 {new_shape = array<i64: 1024, 1536>} : (tensor<1x1024x1536xf32>) -> tensor<1024x1536xf32>
    %60 = "tosa.const"() <{value = dense<[1, 0]> : tensor<2xi32>}> : () -> tensor<2xi32>
    %61 = tosa.transpose %arg6, %60 : (tensor<256x1536xf32>, tensor<2xi32>) -> tensor<1536x256xf32>
    %cst_2 = arith.constant dense<0.000000e+00> : tensor<1024x256xf32>
    %62 = linalg.matmul {cast = #linalg.type_fn<cast_signed>} ins(%59, %61 : tensor<1024x1536xf32>, tensor<1536x256xf32>) outs(%cst_2 : tensor<1024x256xf32>) -> tensor<1024x256xf32>
    // addmm_1 正确%62 = linalg.matmul {cast = #linalg.type_fn<cast_signed>} ins(%59, %61 : tensor<1024x1536xf32>, tensor<1536x256xf32>) outs(%cst_2 : tensor<1024x256xf32>) -> tensor<1024x128xf32>
    //view_9 出错 应该是128
    %63 = tosa.reshape %arg7 {new_shape = array<i64: 1, 256>} : (tensor<256xf32>) -> tensor<1x256xf32>
    %64 = tosa.add %63, %62 : (tensor<1x256xf32>, tensor<1024x256xf32>) -> tensor<1024x256xf32>
    %65 = tosa.reshape %64 {new_shape = array<i64: 1, 1024, 256>} : (tensor<1024x256xf32>) -> tensor<1x1024x256xf32>
    %66 = tosa.reshape %65 {new_shape = array<i64: 1, 1024, 2, 128>} : (tensor<1x1024x256xf32>) -> tensor<1x1024x2x128xf32>
    %67 = "tosa.const"() <{value = dense<[0, 2, 1, 3]> : tensor<4xi32>}> : () -> tensor<4xi32>
    %68 = tosa.transpose %66, %67 : (tensor<1x1024x2x128xf32>, tensor<4xi32>) -> tensor<1x2x1024x128xf32>
    
    // view_11 --- permute_6 6个
    //v %78 v cache
    %69 = tosa.reshape %48 {new_shape = array<i64: 1024, 1536>} : (tensor<1x1024x1536xf32>) -> tensor<1024x1536xf32>
    %70 = "tosa.const"() <{value = dense<[1, 0]> : tensor<2xi32>}> : () -> tensor<2xi32>
    %71 = tosa.transpose %arg8, %70 : (tensor<256x1536xf32>, tensor<2xi32>) -> tensor<1536x256xf32>
    %cst_3 = arith.constant dense<0.000000e+00> : tensor<1024x256xf32>
    %72 = linalg.matmul {cast = #linalg.type_fn<cast_signed>} ins(%69, %71 : tensor<1024x1536xf32>, tensor<1536x256xf32>) outs(%cst_3 : tensor<1024x256xf32>) -> tensor<1024x256xf32>
    %73 = tosa.reshape %arg9 {new_shape = array<i64: 1, 256>} : (tensor<256xf32>) -> tensor<1x256xf32>
    %74 = tosa.add %73, %72 : (tensor<1x256xf32>, tensor<1024x256xf32>) -> tensor<1024x256xf32>
    %75 = tosa.reshape %74 {new_shape = array<i64: 1, 1024, 256>} : (tensor<1024x256xf32>) -> tensor<1x1024x256xf32>
    %76 = tosa.reshape %75 {new_shape = array<i64: 1, 1024, 2, 128>} : (tensor<1x1024x256xf32>) -> tensor<1x1024x2x128xf32>
    %77 = "tosa.const"() <{value = dense<[0, 2, 1, 3]> : tensor<4xi32>}> : () -> tensor<4xi32>
    %78 = tosa.transpose %76, %77 : (tensor<1x1024x2x128xf32>, tensor<4xi32>) -> tensor<1x2x1024x128xf32>
    
    //unsqueeze_5 unsqueeze_6 2  下面 位置编码依赖这里 可以并行计算（多线程？）
    // Apply RoPE (Rotary Position Embedding) to Q, K vectors
    %79 = tosa.reshape %32 {new_shape = array<i64: 1, 1, 1024, 128>} : (tensor<1x1024x128xf32>) -> tensor<1x1x1024x128xf32>
    %80 = tosa.reshape %35 {new_shape = array<i64: 1, 1, 1024, 128>} : (tensor<1x1024x128xf32>) -> tensor<1x1x1024x128xf32>
    //Q mul_4--- add_2 7 后面直到attention依赖这里
    %81 = tosa.mul %58, %79 : (tensor<1x12x1024x128xf32>, tensor<1x1x1024x128xf32>) -> tensor<1x12x1024x128xf32>
    %extracted_slice = tensor.extract_slice %58[0, 0, 0, 0] [1, 12, 1024, 64] [1, 1, 1, 1] : tensor<1x12x1024x128xf32> to tensor<1x12x1024x64xf32>
    %extracted_slice_4 = tensor.extract_slice %58[0, 0, 0, 64] [1, 12, 1024, 64] [1, 1, 1, 1] : tensor<1x12x1024x128xf32> to tensor<1x12x1024x64xf32>
    %82 = tensor.empty() : tensor<1x12x1024x64xf32>
    %83 = linalg.negf ins(%extracted_slice_4 : tensor<1x12x1024x64xf32>) outs(%82 : tensor<1x12x1024x64xf32>) -> tensor<1x12x1024x64xf32>
    %84 = tensor.empty() : tensor<1x12x1024x128xf32>
    %inserted_slice = tensor.insert_slice %83 into %84[0, 0, 0, 0] [1, 12, 1024, 64] [1, 1, 1, 1] : tensor<1x12x1024x64xf32> into tensor<1x12x1024x128xf32>
    %inserted_slice_5 = tensor.insert_slice %extracted_slice into %inserted_slice[0, 0, 0, 64] [1, 12, 1024, 64] [1, 1, 1, 1] : tensor<1x12x1024x64xf32> into tensor<1x12x1024x128xf32>
    %85 = tosa.mul %inserted_slice_5, %80 : (tensor<1x12x1024x128xf32>, tensor<1x1x1024x128xf32>) -> tensor<1x12x1024x128xf32>
    %86 = tosa.add %81, %85 : (tensor<1x12x1024x128xf32>, tensor<1x12x1024x128xf32>) -> tensor<1x12x1024x128xf32>
    //K %92 k chache mul_6 --- add_3 7 后面直到attention依赖这里
    %87 = tosa.mul %68, %79 : (tensor<1x2x1024x128xf32>, tensor<1x1x1024x128xf32>) -> tensor<1x2x1024x128xf32>
    %extracted_slice_6 = tensor.extract_slice %68[0, 0, 0, 0] [1, 2, 1024, 64] [1, 1, 1, 1] : tensor<1x2x1024x128xf32> to tensor<1x2x1024x64xf32>
    %extracted_slice_7 = tensor.extract_slice %68[0, 0, 0, 64] [1, 2, 1024, 64] [1, 1, 1, 1] : tensor<1x2x1024x128xf32> to tensor<1x2x1024x64xf32>
    %88 = tensor.empty() : tensor<1x2x1024x64xf32>
    %89 = linalg.negf ins(%extracted_slice_7 : tensor<1x2x1024x64xf32>) outs(%88 : tensor<1x2x1024x64xf32>) -> tensor<1x2x1024x64xf32>
    %90 = tensor.empty() : tensor<1x2x1024x128xf32>
    %inserted_slice_8 = tensor.insert_slice %89 into %90[0, 0, 0, 0] [1, 2, 1024, 64] [1, 1, 1, 1] : tensor<1x2x1024x64xf32> into tensor<1x2x1024x128xf32>
    %inserted_slice_9 = tensor.insert_slice %extracted_slice_6 into %inserted_slice_8[0, 0, 0, 64] [1, 2, 1024, 64] [1, 1, 1, 1] : tensor<1x2x1024x64xf32> into tensor<1x2x1024x128xf32>
    %91 = tosa.mul %inserted_slice_9, %80 : (tensor<1x2x1024x128xf32>, tensor<1x1x1024x128xf32>) -> tensor<1x2x1024x128xf32>
    %92 = tosa.add %87, %91 : (tensor<1x2x1024x128xf32>, tensor<1x2x1024x128xf32>) -> tensor<1x2x1024x128xf32>
    
    //logits = (Q K^T) / sqrt(d_head) + mask%18
    //clone_2 -- slice_9 4个没有任何mlir unsqueeze_7 --- view_15 14 后面依赖attention
    %93 = tosa.reshape %92 {new_shape = array<i64: 1, 2, 1, 1024, 128>} : (tensor<1x2x1024x128xf32>) -> tensor<1x2x1x1024x128xf32> 
    %94 = "tosa.const"() <{value = dense<0.000000e+00> : tensor<1x2x6x1024x128xf32>}> : () -> tensor<1x2x6x1024x128xf32> 
    %95 = tosa.add %93, %94 : (tensor<1x2x1x1024x128xf32>, tensor<1x2x6x1024x128xf32>) -> tensor<1x2x6x1024x128xf32>
    
    %96 = tosa.reshape %95 {new_shape = array<i64: 1, 12, 1024, 128>} : (tensor<1x2x6x1024x128xf32>) -> tensor<1x12x1024x128xf32>   
    
    %97 = tosa.reshape %78 {new_shape = array<i64: 1, 2, 1, 1024, 128>} : (tensor<1x2x1024x128xf32>) -> tensor<1x2x1x1024x128xf32>
    %98 = "tosa.const"() <{value = dense<0.000000e+00> : tensor<1x2x6x1024x128xf32>}> : () -> tensor<1x2x6x1024x128xf32>
    %99 = tosa.add %97, %98 : (tensor<1x2x1x1024x128xf32>, tensor<1x2x6x1024x128xf32>) -> tensor<1x2x6x1024x128xf32>
    %100 = tosa.reshape %99 {new_shape = array<i64: 1, 12, 1024, 128>} : (tensor<1x2x6x1024x128xf32>) -> tensor<1x12x1024x128xf32>
    
    //logits = (Q K^T) / sqrt(d_head) + mask%18  slice_16 --- where 6个
    %101 = tosa.reshape %18 {new_shape = array<i64: 1, 1, 1024, 1024>} : (tensor<1024x1024xi1>) -> tensor<1x1x1024x1024xi1>
    %cst_10 = arith.constant 0xFF800000 : f32
    %cst_11 = arith.constant 0.000000e+00 : f32
    %102 = tensor.empty() : tensor<1x1x1024x1024xf32>
    %splat = tensor.splat %cst_11 : tensor<1x1x1024x1024xf32>
    %splat_12 = tensor.splat %cst_10 : tensor<1x1x1024x1024xf32>
    %103 = linalg.generic {indexing_maps = [#map1, #map1, #map1, #map1], iterator_types = ["parallel", "parallel", "parallel", "parallel"]} ins(%101, %splat, %splat_12 : tensor<1x1x1024x1024xi1>, tensor<1x1x1024x1024xf32>, tensor<1x1x1024x1024xf32>) outs(%102 : tensor<1x1x1024x1024xf32>) {
    ^bb0(%in: i1, %in_699: f32, %in_700: f32, %out: f32):
      %3722 = arith.select %in, %in_699, %in_700 : f32
      linalg.yield %3722 : f32
    } -> tensor<1x1x1024x1024xf32>
    
    // attention  一个算子
    %cst_13 = arith.constant 0.000000e+00 : f32
    %splat_14 = tensor.splat %cst_13 : tensor<1024x1024xf32>
    %104 = tosa.reshape %103 {new_shape = array<i64: 1024, 1024>} : (tensor<1x1x1024x1024xf32>) -> tensor<1024x1024xf32>
    %105 = tosa.add %splat_14, %104 : (tensor<1024x1024xf32>, tensor<1024x1024xf32>) -> tensor<1024x1024xf32>
    //Q·K^T
    %106 = "tosa.const"() <{value = dense<[0, 1, 3, 2]> : tensor<4xi32>}> : () -> tensor<4xi32>
    %107 = tosa.transpose %96, %106 : (tensor<1x12x1024x128xf32>, tensor<4xi32>) -> tensor<1x12x128x1024xf32>
    %108 = tosa.reshape %86 {new_shape = array<i64: 12, 1024, 128>} : (tensor<1x12x1024x128xf32>) -> tensor<12x1024x128xf32>
    %109 = tosa.reshape %107 {new_shape = array<i64: 12, 128, 1024>} : (tensor<1x12x128x1024xf32>) -> tensor<12x128x1024xf32>
    %110 = tosa.matmul %108, %109 : (tensor<12x1024x128xf32>, tensor<12x128x1024xf32>) -> tensor<12x1024x1024xf32>
    %cst_15 = arith.constant 0.0883883461 : f32
    %splat_16 = tensor.splat %cst_15 : tensor<12x1024x1024xf32>
    %111 = tosa.mul %110, %splat_16 : (tensor<12x1024x1024xf32>, tensor<12x1024x1024xf32>) -> tensor<12x1024x1024xf32>
    %112 = tosa.reshape %105 {new_shape = array<i64: 1, 1024, 1024>} : (tensor<1024x1024xf32>) -> tensor<1x1024x1024xf32>
    %113 = tosa.add %111, %112 : (tensor<12x1024x1024xf32>, tensor<1x1024x1024xf32>) -> tensor<12x1024x1024xf32>
    // Apply softmax with numerical stability (log-sum-exp trick)
    %114 = tosa.reduce_max %113 {axis = 2 : i32} : (tensor<12x1024x1024xf32>) -> tensor<12x1024x1xf32>
    %115 = tosa.sub %113, %114 : (tensor<12x1024x1024xf32>, tensor<12x1024x1xf32>) -> tensor<12x1024x1024xf32>
    %116 = math.exp %115 : tensor<12x1024x1024xf32>
    %117 = tosa.reduce_sum %116 {axis = 2 : i32} : (tensor<12x1024x1024xf32>) -> tensor<12x1024x1xf32>
    %118 = tosa.log %117 : (tensor<12x1024x1xf32>) -> tensor<12x1024x1xf32>
    %119 = tosa.add %114, %118 : (tensor<12x1024x1xf32>, tensor<12x1024x1xf32>) -> tensor<12x1024x1xf32>
    %120 = tosa.sub %113, %119 : (tensor<12x1024x1024xf32>, tensor<12x1024x1xf32>) -> tensor<12x1024x1024xf32>
    %121 = math.exp %120 : tensor<12x1024x1024xf32>
    %122 = tosa.reshape %119 {new_shape = array<i64: 1, 12, 1024>} : (tensor<12x1024x1xf32>) -> tensor<1x12x1024xf32>
    %123 = tosa.reshape %100 {new_shape = array<i64: 12, 1024, 128>} : (tensor<1x12x1024x128xf32>) -> tensor<12x1024x128xf32>
    %124 = tosa.matmul %121, %123 : (tensor<12x1024x1024xf32>, tensor<12x1024x128xf32>) -> tensor<12x1024x128xf32>
    %125 = tosa.reshape %124 {new_shape = array<i64: 1, 12, 1024, 128>} : (tensor<12x1024x128xf32>) -> tensor<1x12x1024x128xf32>
    
    // ===========================================
    // 6. OUTPUT PROJECTION & RESIDUAL CONNECTION
    // ===========================================
    // Project attention output back to hidden dimension
    // Add residual connection (attention output + input) 
    //getitem --- add_4 6+2个
    %126 = "tosa.const"() <{value = dense<[0, 2, 1, 3]> : tensor<4xi32>}> : () -> tensor<4xi32>
    %127 = tosa.transpose %125, %126 : (tensor<1x12x1024x128xf32>, tensor<4xi32>) -> tensor<1x1024x12x128xf32>
    %128 = tosa.reshape %127 {new_shape = array<i64: 1, 1024, 1536>} : (tensor<1x1024x12x128xf32>) -> tensor<1x1024x1536xf32>
    %129 = "tosa.const"() <{value = dense<[1, 0]> : tensor<2xi32>}> : () -> tensor<2xi32>
    %130 = tosa.transpose %arg10, %129 : (tensor<1536x1536xf32>, tensor<2xi32>) -> tensor<1536x1536xf32>
    %131 = tosa.reshape %128 {new_shape = array<i64: 1024, 1536>} : (tensor<1x1024x1536xf32>) -> tensor<1024x1536xf32>
    %cst_17 = arith.constant dense<0.000000e+00> : tensor<1024x1536xf32>
    %132 = linalg.matmul {cast = #linalg.type_fn<cast_signed>} ins(%131, %130 : tensor<1024x1536xf32>, tensor<1536x1536xf32>) outs(%cst_17 : tensor<1024x1536xf32>) -> tensor<1024x1536xf32>
    // 残差连接
    %133 = tosa.reshape %132 {new_shape = array<i64: 1, 1024, 1536>} : (tensor<1024x1536xf32>) -> tensor<1x1024x1536xf32>
    %134 = tosa.add %2, %133 : (tensor<1x1024x1536xf32>, tensor<1x1024x1536xf32>) -> tensor<1x1024x1536xf32>
 
    // ===========================================
    // 7. LAYER NORMALIZATION (Pre-FFN)
    // ===========================================
    // Apply layer normalization before feed-forward network    
    // pow_2 --- mul_9 6个
    %135 = tensor.empty() : tensor<1x1024x1536xf32>
    %c2_i32_18 = arith.constant 2 : i32
    %136 = linalg.generic {indexing_maps = [#map, #map], iterator_types = ["parallel", "parallel", "parallel"]} ins(%134 : tensor<1x1024x1536xf32>) outs(%135 : tensor<1x1024x1536xf32>) {
    ^bb0(%in: f32, %out: f32):
      %3722 = math.fpowi %in, %c2_i32_18 : f32, i32
      linalg.yield %3722 : f32
    } -> tensor<1x1024x1536xf32>
    %137 = tosa.reduce_sum %136 {axis = 2 : i32} : (tensor<1x1024x1536xf32>) -> tensor<1x1024x1xf32>
    %138 = "tosa.const"() <{value = dense<1.536000e+03> : tensor<1xf32>}> : () -> tensor<1xf32>
    %139 = tosa.reciprocal %138 : (tensor<1xf32>) -> tensor<1xf32>
    %140 = tosa.reshape %139 {new_shape = array<i64: 1, 1, 1>} : (tensor<1xf32>) -> tensor<1x1x1xf32>
    %141 = tosa.mul %140, %137 : (tensor<1x1x1xf32>, tensor<1x1024x1xf32>) -> tensor<1x1024x1xf32>
    %142 = "tosa.const"() <{value = dense<9.99999997E-7> : tensor<1x1024x1xf32>}> : () -> tensor<1x1024x1xf32>
    %143 = tosa.add %141, %142 : (tensor<1x1024x1xf32>, tensor<1x1024x1xf32>) -> tensor<1x1024x1xf32>
    %144 = tosa.rsqrt %143 : (tensor<1x1024x1xf32>) -> tensor<1x1024x1xf32>
    %145 = tosa.mul %134, %144 : (tensor<1x1024x1536xf32>, tensor<1x1024x1xf32>) -> tensor<1x1024x1536xf32>
    %146 = tosa.reshape %arg11 {new_shape = array<i64: 1, 1, 1536>} : (tensor<1536xf32>) -> tensor<1x1x1536xf32>
    %147 = tosa.mul %146, %145 : (tensor<1x1x1536xf32>, tensor<1x1024x1536xf32>) -> tensor<1x1024x1536xf32>
    
    // ===========================================
    // 8. FEED-FORWARD NETWORK (FFN)
    // ===========================================
    // DeepSeek uses SwiGLU activation: x * sigmoid(x) * gate
    // FFN expansion ratio: 1536 -> 8960 -> 1536
    // permute_9 --- mm_3 14个
    %148 = "tosa.const"() <{value = dense<[1, 0]> : tensor<2xi32>}> : () -> tensor<2xi32>
    %149 = tosa.transpose %arg12, %148 : (tensor<8960x1536xf32>, tensor<2xi32>) -> tensor<1536x8960xf32>
    %150 = tosa.reshape %147 {new_shape = array<i64: 1024, 1536>} : (tensor<1x1024x1536xf32>) -> tensor<1024x1536xf32>
    %cst_19 = arith.constant dense<0.000000e+00> : tensor<1024x8960xf32>
    %151 = linalg.matmul {cast = #linalg.type_fn<cast_signed>} ins(%150, %149 : tensor<1024x1536xf32>, tensor<1536x8960xf32>) outs(%cst_19 : tensor<1024x8960xf32>) -> tensor<1024x8960xf32>
    %152 = tosa.reshape %151 {new_shape = array<i64: 1, 1024, 8960>} : (tensor<1024x8960xf32>) -> tensor<1x1024x8960xf32>
    %153 = tosa.sigmoid %152 : (tensor<1x1024x8960xf32>) -> tensor<1x1024x8960xf32>
    %154 = tosa.mul %152, %153 : (tensor<1x1024x8960xf32>, tensor<1x1024x8960xf32>) -> tensor<1x1024x8960xf32>
    %155 = "tosa.const"() <{value = dense<[1, 0]> : tensor<2xi32>}> : () -> tensor<2xi32>
    %156 = tosa.transpose %arg13, %155 : (tensor<8960x1536xf32>, tensor<2xi32>) -> tensor<1536x8960xf32>
    %157 = tosa.reshape %147 {new_shape = array<i64: 1024, 1536>} : (tensor<1x1024x1536xf32>) -> tensor<1024x1536xf32>
    %cst_20 = arith.constant dense<0.000000e+00> : tensor<1024x8960xf32>
    %158 = linalg.matmul {cast = #linalg.type_fn<cast_signed>} ins(%157, %156 : tensor<1024x1536xf32>, tensor<1536x8960xf32>) outs(%cst_20 : tensor<1024x8960xf32>) -> tensor<1024x8960xf32>
    %159 = tosa.reshap() <{value = dense<[1, 0]> : tensor<2xi32>}> : () -> tensor<2xi32>
    %162 = tosa.transpoe %158 {new_shape = array<i64: 1, 1024, 8960>} : (tensor<1024x8960xf32>) -> tensor<1x1024x8960xf32>
    %160 = tosa.mul %154, %159 : (tensor<1x1024x8960xf32>, tensor<1x1024x8960xf32>) -> tensor<1x1024x8960xf32>
    %161 = "tosa.const"se %arg14, %161 : (tensor<1536x8960xf32>, tensor<2xi32>) -> tensor<8960x1536xf32>
    %163 = tosa.reshape %160 {new_shape = array<i64: 1024, 8960>} : (tensor<1x1024x8960xf32>) -> tensor<1024x8960xf32>
    %cst_21 = arith.constant dense<0.000000e+00> : tensor<1024x1536xf32>
    %164 = linalg.matmul {cast = #linalg.type_fn<cast_signed>} ins(%163, %162 : tensor<1024x8960xf32>, tensor<8960x1536xf32>) outs(%cst_21 : tensor<1024x1536xf32>) -> tensor<1024x1536xf32>
    // view_24 --- add_6 2
    %165 = tosa.reshape %164 {new_shape = array<i64: 1, 1024, 1536>} : (tensor<1024x1536xf32>) -> tensor<1x1024x1536xf32>
    %166 = tosa.add %134, %165 : (tensor<1x1024x1536xf32>, tensor<1x1024x1536xf32>) -> tensor<1x1024x1536xf32>
    
    
    //pow_3
    %167 = tensor.empty() : tensor<1x1024x1536xf32>
    %c2_i32_22 = arith.constant 2 : i32
    %168 = linalg.generic {indexing_maps = [#map, #map], iterator_types = ["parallel", "parallel", "parallel"]} ins(%166 : tensor<1x1024x1536xf32>) outs(%167 : tensor<1x1024x1536xf32>) {
    ^bb0(%in: f32, %out: f32):
      %3722 = math.fpowi %in, %c2_i32_22 : f32, i32
      linalg.yield %3722 : f32
    } -> tensor<1x1024x1536xf32>
    %169 = tosa.reduce_sum %168 {axis = 2 : i32} : (tensor<1x1024x1536xf32>) -> tensor<1x1024x1xf32>
    %170 = "tosa.const"() <{value = dense<1.536000e+03> : tensor<1xf32>}> : () -> tensor<1xf32>
    %171 = tosa.reciprocal %170 : (tensor<1xf32>) -> tensor<1xf32>
    %172 = tosa.reshape %171 {new_shape = array<i64: 1, 1, 1>} : (tensor<1xf32>) -> tensor<1x1x1xf32>
    %173 = tosa.mul %172, %169 : (tensor<1x1x1xf32>, tensor<1x1024x1xf32>) -> tensor<1x1024x1xf32>
    %174 = "tosa.const"() <{value = dense<9.99999997E-7> : tensor<1x1024x1xf32>}> : () -> tensor<1x1024x1xf32>
    %175 = tosa.add %173, %174 : (tensor<1x1024x1xf32>, tensor<1x1024x1xf32>) -> tensor<1x1024x1xf32>    
    %176 = tosa.rsqrt %175 : (tensor<1x1024x1xf32>) -> tensor<1x1024x1xf32>
    %177 = tosa.mul %166, %176 : (tensor<1x1024x1536xf32>, tensor<1x1024x1xf32>) -> tensor<1x1024x1536xf32>  
    %178 = tosa.reshape %arg15 {new_shape = array<i64: 1, 1, 1536>} : (tensor<1536xf32>) -> tensor<1x1x1536xf32>
    %179 = tosa.mul %178, %177 : (tensor<1x1x1536xf32>, tensor<1x1024x1536xf32>) -> tensor<1x1024x1536xf32>
    %180 = tosa.reshape %179 {new_shape = array<i64: 1024, 1536>} : (tensor<1x1024x1536xf32>) -> tensor<1024x1536xf32>
    %181 = "tosa.const"() <{value = dense<[1, 0]> : tensor<2xi32>}> : () -> tensor<2xi32>
    %182 = tosa.transpose %arg16, %181 : (tensor<1536x1536xf32>, tensor<2xi32>) -> tensor<1536x1536xf32>
    %cst_23 = arith.constant dense<0.000000e+00> : tensor<1024x1536xf32>
    %183 = linalg.matmul {cast = #linalg.type_fn<cast_signed>} ins(%180, %182 : tensor<1024x1536xf32>, tensor<1536x1536xf32>) outs(%cst_23 : tensor<1024x1536xf32>) -> tensor<1024x1536xf32>
    
    
    %184 = tosa.reshape %arg17 {new_shape = array<i64: 1, 1536>} : (tensor<1536xf32>) -> tensor<1x1536xf32>
    %185 = tosa.add %184, %183 : (tensor<1x1536xf32>, tensor<1024x1536xf32>) -> tensor<1024x1536xf32>
    %186 = tosa.reshape %185 {new_shape = array<i64: 1, 1024, 1536>} : (tensor<1024x1536xf32>) -> tensor<1x1024x1536xf32>
    %187 = tosa.reshape %186 {new_shape = array<i64: 1, 1024, 12, 128>} : (tensor<1x1024x1536xf32>) -> tensor<1x1024x12x128xf32>
    %188 = "tosa.const"() <{value = dense<[0, 2, 1, 3]> : tensor<4xi32>}> : () -> tensor<4xi32>
    %189 = tosa.transpose %187, %188 : (tensor<1x1024x12x128xf32>, tensor<4xi32>) -> tensor<1x12x1024x128xf32>
    %190 = tosa.reshape %179 {new_shape = array<i64: 1024, 1536>} : (tensor<1x1024x1536xf32>) -> tensor<1024x1536xf32>
    %191 = "tosa.const"() <{value = dense<[1, 0]> : tensor<2xi32>}> : () -> tensor<2xi32>
    %192 = tosa.transpose %arg18, %191 : (tensor<256x1536xf32>, tensor<2xi32>) -> tensor<1536x256xf32>
    %cst_24 = arith.constant dense<0.000000e+00> : tensor<1024x256xf32>
    %193 = linalg.matmul {cast = #linalg.type_fn<cast_signed>} ins(%190, %192 : tensor<1024x1536xf32>, tensor<1536x256xf32>) outs(%cst_24 : tensor<1024x256xf32>) -> tensor<1024x256xf32>
    %194 = tosa.reshape %arg19 {new_shape = array<i64: 1, 256>} : (tensor<256xf32>) -> tensor<1x256xf32>
    %195 = tosa.add %194, %193 : (tensor<1x256xf32>, tensor<1024x256xf32>) -> tensor<1024x256xf32>
    %196 = tosa.reshape %195 {new_shape = array<i64: 1, 1024, 256>} : (tensor<1024x256xf32>) -> tensor<1x1024x256xf32>
    %197 = tosa.reshape %196 {new_shape = array<i64: 1, 1024, 2, 128>} : (tensor<1x1024x256xf32>) -> tensor<1x1024x2x128xf32>
    %198 = "tosa.const"() <{value = dense<[0, 2, 1, 3]> : tensor<4xi32>}> : () -> tensor<4xi32>
    %199 = tosa.transpose %197, %198 : (tensor<1x1024x2x128xf32>, tensor<4xi32>) -> tensor<1x2x1024x128xf32>
    %200 = tosa.reshape %179 {new_shape = array<i64: 1024, 1536>} : (tensor<1x1024x1536xf32>) -> tensor<1024x1536xf32>
    %201 = "tosa.const"() <{value = dense<[1, 0]> : tensor<2xi32>}> : () -> tensor<2xi32>
    %202 = tosa.transpose %arg20, %201 : (tensor<256x1536xf32>, tensor<2xi32>) -> tensor<1536x256xf32>
    %cst_25 = arith.constant dense<0.000000e+00> : tensor<1024x256xf32>
    %203 = linalg.matmul {cast = #linalg.type_fn<cast_signed>} ins(%200, %202 : tensor<1024x1536xf32>, tensor<1536x256xf32>) outs(%cst_25 : tensor<1024x256xf32>) -> tensor<1024x256xf32>
    %204 = tosa.reshape %arg21 {new_shape = array<i64: 1, 256>} : (tensor<256xf32>) -> tensor<1x256xf32>
    %205 = tosa.add %204, %203 : (tensor<1x256xf32>, tensor<1024x256xf32>) -> tensor<1024x256xf32>
    %206 = tosa.reshape %205 {new_shape = array<i64: 1, 1024, 256>} : (tensor<1024x256xf32>) -> tensor<1x1024x256xf32>
    %207 = tosa.reshape %206 {new_shape = array<i64: 1, 1024, 2, 128>} : (tensor<1x1024x256xf32>) -> tensor<1x1024x2x128xf32>
    %208 = "tosa.const"() <{value = dense<[0, 2, 1, 3]> : tensor<4xi32>}> : () -> tensor<4xi32>
    %209 = tosa.transpose %207, %208 : (tensor<1x1024x2x128xf32>, tensor<4xi32>) -> tensor<1x2x1024x128xf32>
    %210 = tosa.reshape %32 {new_shape = array<i64: 1, 1, 1024, 128>} : (tensor<1x1024x128xf32>) -> tensor<1x1x1024x128xf32>
    %211 = tosa.reshape %35 {new_shape = array<i64: 1, 1, 1024, 128>} : (tensor<1x1024x128xf32>) -> tensor<1x1x1024x128xf32>
    %212 = tosa.mul %189, %210 : (tensor<1x12x1024x128xf32>, tensor<1x1x1024x128xf32>) -> tensor<1x12x1024x128xf32>
    %extracted_slice_26 = tensor.extract_slice %189[0, 0, 0, 0] [1, 12, 1024, 64] [1, 1, 1, 1] : tensor<1x12x1024x128xf32> to tensor<1x12x1024x64xf32>
    %extracted_slice_27 = tensor.extract_slice %189[0, 0, 0, 64] [1, 12, 1024, 64] [1, 1, 1, 1] : tensor<1x12x1024x128xf32> to tensor<1x12x1024x64xf32>
    %213 = tensor.empty() : tensor<1x12x1024x64xf32>
    %214 = linalg.negf ins(%extracted_slice_27 : tensor<1x12x1024x64xf32>) outs(%213 : tensor<1x12x1024x64xf32>) -> tensor<1x12x1024x64xf32>
    %215 = tensor.empty() : tensor<1x12x1024x128xf32>
    %inserted_slice_28 = tensor.insert_slice %214 into %215[0, 0, 0, 0] [1, 12, 1024, 64] [1, 1, 1, 1] : tensor<1x12x1024x64xf32> into tensor<1x12x1024x128xf32>
    %inserted_slice_29 = tensor.insert_slice %extracted_slice_26 into %inserted_slice_28[0, 0, 0, 64] [1, 12, 1024, 64] [1, 1, 1, 1] : tensor<1x12x1024x64xf32> into tensor<1x12x1024x128xf32>
    %216 = tosa.mul %inserted_slice_29, %211 : (tensor<1x12x1024x128xf32>, tensor<1x1x1024x128xf32>) -> tensor<1x12x1024x128xf32>
    %217 = tosa.add %212, %216 : (tensor<1x12x1024x128xf32>, tensor<1x12x1024x128xf32>) -> tensor<1x12x1024x128xf32>
    %218 = tosa.mul %199, %210 : (tensor<1x2x1024x128xf32>, tensor<1x1x1024x128xf32>) -> tensor<1x2x1024x128xf32>
    %extracted_slice_30 = tensor.extract_slice %199[0, 0, 0, 0] [1, 2, 1024, 64] [1, 1, 1, 1] : tensor<1x2x1024x128xf32> to tensor<1x2x1024x64xf32>
    %extracted_slice_31 = tensor.extract_slice %199[0, 0, 0, 64] [1, 2, 1024, 64] [1, 1, 1, 1] : tensor<1x2x1024x128xf32> to tensor<1x2x1024x64xf32>
    %219 = tensor.empty() : tensor<1x2x1024x64xf32>
    %220 = linalg.negf ins(%extracted_slice_31 : tensor<1x2x1024x64xf32>) outs(%219 : tensor<1x2x1024x64xf32>) -> tensor<1x2x1024x64xf32>
    %221 = tensor.empty() : tensor<1x2x1024x128xf32>
    %inserted_slice_32 = tensor.insert_slice %220 into %221[0, 0, 0, 0] [1, 2, 1024, 64] [1, 1, 1, 1] : tensor<1x2x1024x64xf32> into tensor<1x2x1024x128xf32>
    %inserted_slice_33 = tensor.insert_slice %extracted_slice_30 into %inserted_slice_32[0, 0, 0, 64] [1, 2, 1024, 64] [1, 1, 1, 1] : tensor<1x2x1024x64xf32> into tensor<1x2x1024x128xf32>
    %222 = tosa.mul %inserted_slice_33, %211 : (tensor<1x2x1024x128xf32>, tensor<1x1x1024x128xf32>) -> tensor<1x2x1024x128xf32>
    %223 = tosa.add %218, %222 : (tensor<1x2x1024x128xf32>, tensor<1x2x1024x128xf32>) -> tensor<1x2x1024x128xf32>
    %224 = tosa.reshape %223 {new_shape = array<i64: 1, 2, 1, 1024, 128>} : (tensor<1x2x1024x128xf32>) -> tensor<1x2x1x1024x128xf32>
    %225 = "tosa.const"() <{value = dense<0.000000e+00> : tensor<1x2x6x1024x128xf32>}> : () -> tensor<1x2x6x1024x128xf32>
    %226 = tosa.add %224, %225 : (tensor<1x2x1x1024x128xf32>, tensor<1x2x6x1024x128xf32>) -> tensor<1x2x6x1024x128xf32>
    %227 = tosa.reshape %226 {new_shape = array<i64: 1, 12, 1024, 128>} : (tensor<1x2x6x1024x128xf32>) -> tensor<1x12x1024x128xf32>
    %228 = tosa.reshape %209 {new_shape = array<i64: 1, 2, 1, 1024, 128>} : (tensor<1x2x1024x128xf32>) -> tensor<1x2x1x1024x128xf32>
    %229 = "tosa.const"() <{value = dense<0.000000e+00> : tensor<1x2x6x1024x128xf32>}> : () -> tensor<1x2x6x1024x128xf32>
    %230 = tosa.add %228, %229 : (tensor<1x2x1x1024x128xf32>, tensor<1x2x6x1024x128xf32>) -> tensor<1x2x6x1024x128xf32>
    %231 = tosa.reshape %230 {new_shape = array<i64: 1, 12, 1024, 128>} : (tensor<1x2x6x1024x128xf32>) -> tensor<1x12x1024x128xf32>
    %232 = tosa.reshape %18 {new_shape = array<i64: 1, 1, 1024, 1024>} : (tensor<1024x1024xi1>) -> tensor<1x1x1024x1024xi1>
    %cst_34 = arith.constant 0xFF800000 : f32
    %cst_35 = arith.constant 0.000000e+00 : f32
    %233 = tensor.empty() : tensor<1x1x1024x1024xf32>
    %splat_36 = tensor.splat %cst_35 : tensor<1x1x1024x1024xf32>
    %splat_37 = tensor.splat %cst_34 : tensor<1x1x1024x1024xf32>
    %234 = linalg.generic {indexing_maps = [#map1, #map1, #map1, #map1], iterator_types = ["parallel", "parallel", "parallel", "parallel"]} ins(%232, %splat_36, %splat_37 : tensor<1x1x1024x1024xi1>, tensor<1x1x1024x1024xf32>, tensor<1x1x1024x1024xf32>) outs(%233 : tensor<1x1x1024x1024xf32>) {
    ^bb0(%in: i1, %in_699: f32, %in_700: f32, %out: f32):
      %3722 = arith.select %in, %in_699, %in_700 : f32
      linalg.yield %3722 : f32
    } -> tensor<1x1x1024x1024xf32>
    %cst_38 = arith.constant 0.000000e+00 : f32
    %splat_39 = tensor.splat %cst_38 : tensor<1024x1024xf32>
    %235 = tosa.reshape %234 {new_shape = array<i64: 1024, 1024>} : (tensor<1x1x1024x1024xf32>) -> tensor<1024x1024xf32>
    %236 = tosa.add %splat_39, %235 : (tensor<1024x1024xf32>, tensor<1024x1024xf32>) -> tensor<1024x1024xf32>
    %237 = "tosa.const"() <{value = dense<[0, 1, 3, 2]> : tensor<4xi32>}> : () -> tensor<4xi32>
    %238 = tosa.transpose %227, %237 : (tensor<1x12x1024x128xf32>, tensor<4xi32>) -> tensor<1x12x128x1024xf32>
    %239 = tosa.reshape %217 {new_shape = array<i64: 12, 1024, 128>} : (tensor<1x12x1024x128xf32>) -> tensor<12x1024x128xf32>
    %240 = tosa.reshape %238 {new_shape = array<i64: 12, 128, 1024>} : (tensor<1x12x128x1024xf32>) -> tensor<12x128x1024xf32>
    %241 = tosa.matmul %239, %240 : (tensor<12x1024x128xf32>, tensor<12x128x1024xf32>) -> tensor<12x1024x1024xf32>
    %cst_40 = arith.constant 0.0883883461 : f32
    %splat_41 = tensor.splat %cst_40 : tensor<12x1024x1024xf32>
    %242 = tosa.mul %241, %splat_41 : (tensor<12x1024x1024xf32>, tensor<12x1024x1024xf32>) -> tensor<12x1024x1024xf32>
    %243 = tosa.reshape %236 {new_shape = array<i64: 1, 1024, 1024>} : (tensor<1024x1024xf32>) -> tensor<1x1024x1024xf32>
    %244 = tosa.add %242, %243 : (tensor<12x1024x1024xf32>, tensor<1x1024x1024xf32>) -> tensor<12x1024x1024xf32>
    %245 = tosa.reduce_max %244 {axis = 2 : i32} : (tensor<12x1024x1024xf32>) -> tensor<12x1024x1xf32>
    %246 = tosa.sub %244, %245 : (tensor<12x1024x1024xf32>, tensor<12x1024x1xf32>) -> tensor<12x1024x1024xf32>
    %247 = math.exp %246 : tensor<12x1024x1024xf32>
    %248 = tosa.reduce_sum %247 {axis = 2 : i32} : (tensor<12x1024x1024xf32>) -> tensor<12x1024x1xf32>
    %249 = tosa.log %248 : (tensor<12x1024x1xf32>) -> tensor<12x1024x1xf32>
    %250 = tosa.add %245, %249 : (tensor<12x1024x1xf32>, tensor<12x1024x1xf32>) -> tensor<12x1024x1xf32>
    %251 = tosa.sub %244, %250 : (tensor<12x1024x1024xf32>, tensor<12x1024x1xf32>) -> tensor<12x1024x1024xf32>
    %252 = math.exp %251 : tensor<12x1024x1024xf32>
    %253 = tosa.reshape %250 {new_shape = array<i64: 1, 12, 1024>} : (tensor<12x1024x1xf32>) -> tensor<1x12x1024xf32>
    %254 = tosa.reshape %231 {new_shape = array<i64: 12, 1024, 128>} : (tensor<1x12x1024x128xf32>) -> tensor<12x1024x128xf32>
    %255 = tosa.matmul %252, %254 : (tensor<12x1024x1024xf32>, tensor<12x1024x128xf32>) -> tensor<12x1024x128xf32>
    %256 = tosa.reshape %255 {new_shape = array<i64: 1, 12, 1024, 128>} : (tensor<12x1024x128xf32>) -> tensor<1x12x1024x128xf32>
    %257 = "tosa.const"() <{value = dense<[0, 2, 1, 3]> : tensor<4xi32>}> : () -> tensor<4xi32>
    %258 = tosa.transpose %256, %257 : (tensor<1x12x1024x128xf32>, tensor<4xi32>) -> tensor<1x1024x12x128xf32>
    %259 = tosa.reshape %258 {new_shape = array<i64: 1, 1024, 1536>} : (tensor<1x1024x12x128xf32>) -> tensor<1x1024x1536xf32>
    %260 = "tosa.const"() <{value = dense<[1, 0]> : tensor<2xi32>}> : () -> tensor<2xi32>
    %261 = tosa.transpose %arg22, %260 : (tensor<1536x1536xf32>, tensor<2xi32>) -> tensor<1536x1536xf32>
    %262 = tosa.reshape %259 {new_shape = array<i64: 1024, 1536>} : (tensor<1x1024x1536xf32>) -> tensor<1024x1536xf32>
    %cst_42 = arith.constant dense<0.000000e+00> : tensor<1024x1536xf32>
    %263 = linalg.matmul {cast = #linalg.type_fn<cast_signed>} ins(%262, %261 : tensor<1024x1536xf32>, tensor<1536x1536xf32>) outs(%cst_42 : tensor<1024x1536xf32>) -> tensor<1024x1536xf32>
    %264 = tosa.reshape %263 {new_shape = array<i64: 1, 1024, 1536>} : (tensor<1024x1536xf32>) -> tensor<1x1024x1536xf32>
    %265 = tosa.add %166, %264 : (tensor<1x1024x1536xf32>, tensor<1x1024x1536xf32>) -> tensor<1x1024x1536xf32>
    %266 = tensor.empty() : tensor<1x1024x1536xf32>
    %c2_i32_43 = arith.constant 2 : i32
    %267 = linalg.generic {indexing_maps = [#map, #map], iterator_types = ["parallel", "parallel", "parallel"]} ins(%265 : tensor<1x1024x1536xf32>) outs(%266 : tensor<1x1024x1536xf32>) {
    ^bb0(%in: f32, %out: f32):
      %3722 = math.fpowi %in, %c2_i32_43 : f32, i32
      linalg.yield %3722 : f32
    } -> tensor<1x1024x1536xf32>
    %268 = tosa.reduce_sum %267 {axis = 2 : i32} : (tensor<1x1024x1536xf32>) -> tensor<1x1024x1xf32>
    %269 = "tosa.const"() <{value = dense<1.536000e+03> : tensor<1xf32>}> : () -> tensor<1xf32>
    %270 = tosa.reciprocal %269 : (tensor<1xf32>) -> tensor<1xf32>
    %271 = tosa.reshape %270 {new_shape = array<i64: 1, 1, 1>} : (tensor<1xf32>) -> tensor<1x1x1xf32>
    %272 = tosa.mul %271, %268 : (tensor<1x1x1xf32>, tensor<1x1024x1xf32>) -> tensor<1x1024x1xf32>
    %273 = "tosa.const"() <{value = dense<9.99999997E-7> : tensor<1x1024x1xf32>}> : () -> tensor<1x1024x1xf32>
    %274 = tosa.add %272, %273 : (tensor<1x1024x1xf32>, tensor<1x1024x1xf32>) -> tensor<1x1024x1xf32>
    %275 = tosa.rsqrt %274 : (tensor<1x1024x1xf32>) -> tensor<1x1024x1xf32>
    %276 = tosa.mul %265, %275 : (tensor<1x1024x1536xf32>, tensor<1x1024x1xf32>) -> tensor<1x1024x1536xf32>
    %277 = tosa.reshape %arg23 {new_shape = array<i64: 1, 1, 1536>} : (tensor<1536xf32>) -> tensor<1x1x1536xf32>
    %278 = tosa.mul %277, %276 : (tensor<1x1x1536xf32>, tensor<1x1024x1536xf32>) -> tensor<1x1024x1536xf32>
    %279 = "tosa.const"() <{value = dense<[1, 0]> : tensor<2xi32>}> : () -> tensor<2xi32>
    %280 = tosa.transpose %arg24, %279 : (tensor<8960x1536xf32>, tensor<2xi32>) -> tensor<1536x8960xf32>
    %281 = tosa.reshape %278 {new_shape = array<i64: 1024, 1536>} : (tensor<1x1024x1536xf32>) -> tensor<1024x1536xf32>
    %cst_44 = arith.constant dense<0.000000e+00> : tensor<1024x8960xf32>
    %282 = linalg.matmul {cast = #linalg.type_fn<cast_signed>} ins(%281, %280 : tensor<1024x1536xf32>, tensor<1536x8960xf32>) outs(%cst_44 : tensor<1024x8960xf32>) -> tensor<1024x8960xf32>
    %283 = tosa.reshape %282 {new_shape = array<i64: 1, 1024, 8960>} : (tensor<1024x8960xf32>) -> tensor<1x1024x8960xf32>
    %284 = tosa.sigmoid %283 : (tensor<1x1024x8960xf32>) -> tensor<1x1024x8960xf32>
    %285 = tosa.mul %283, %284 : (tensor<1x1024x8960xf32>, tensor<1x1024x8960xf32>) -> tensor<1x1024x8960xf32>
    %286 = "tosa.const"() <{value = dense<[1, 0]> : tensor<2xi32>}> : () -> tensor<2xi32>
    %287 = tosa.transpose %arg25, %286 : (tensor<8960x1536xf32>, tensor<2xi32>) -> tensor<1536x8960xf32>
    %288 = tosa.reshape %278 {new_shape = array<i64: 1024, 1536>} : (tensor<1x1024x1536xf32>) -> tensor<1024x1536xf32>
    %cst_45 = arith.constant dense<0.000000e+00> : tensor<1024x8960xf32>
    %289 = linalg.matmul {cast = #linalg.type_fn<cast_signed>} ins(%288, %287 : tensor<1024x1536xf32>, tensor<1536x8960xf32>) outs(%cst_45 : tensor<1024x8960xf32>) -> tensor<1024x8960xf32>
    %290 = tosa.reshape %289 {new_shape = array<i64: 1, 1024, 8960>} : (tensor<1024x8960xf32>) -> tensor<1x1024x8960xf32>
    %291 = tosa.mul %285, %290 : (tensor<1x1024x8960xf32>, tensor<1x1024x8960xf32>) -> tensor<1x1024x8960xf32>
    %292 = "tosa.const"() <{value = dense<[1, 0]> : tensor<2xi32>}> : () -> tensor<2xi32>
    %293 = tosa.transpose %arg26, %292 : (tensor<1536x8960xf32>, tensor<2xi32>) -> tensor<8960x1536xf32>
    %294 = tosa.reshape %291 {new_shape = array<i64: 1024, 8960>} : (tensor<1x1024x8960xf32>) -> tensor<1024x8960xf32>
    %cst_46 = arith.constant dense<0.000000e+00> : tensor<1024x1536xf32>
    %295 = linalg.matmul {cast = #linalg.type_fn<cast_signed>} ins(%294, %293 : tensor<1024x8960xf32>, tensor<8960x1536xf32>) outs(%cst_46 : tensor<1024x1536xf32>) -> tensor<1024x1536xf32>
    %296 = tosa.reshape %295 {new_shape = array<i64: 1, 1024, 1536>} : (tensor<1024x1536xf32>) -> tensor<1x1024x1536xf32>
    %297 = tosa.add %265, %296 : (tensor<1x1024x1536xf32>, tensor<1x1024x1536xf32>) -> tensor<1x1024x1536xf32>
    %298 = tensor.empty() : tensor<1x1024x1536xf32>
    %c2_i32_47 = arith.constant 2 : i32
    %299 = linalg.generic {indexing_maps = [#map, #map], iterator_types = ["parallel", "parallel", "parallel"]} ins(%297 : tensor<1x1024x1536xf32>) outs(%298 : tensor<1x1024x1536xf32>) {
    ^bb0(%in: f32, %out: f32):
      %3722 = math.fpowi %in, %c2_i32_47 : f32, i32
      linalg.yield %3722 : f32
    } -> tensor<1x1024x1536xf32>
    %300 = tosa.reduce_sum %299 {axis = 2 : i32} : (tensor<1x1024x1536xf32>) -> tensor<1x1024x1xf32>
    %301 = "tosa.const"() <{value = dense<1.536000e+03> : tensor<1xf32>}> : () -> tensor<1xf32>
    %302 = tosa.reciprocal %301 : (tensor<1xf32>) -> tensor<1xf32>
    %303 = tosa.reshape %302 {new_shape = array<i64: 1, 1, 1>} : (tensor<1xf32>) -> tensor<1x1x1xf32>
    %304 = tosa.mul %303, %300 : (tensor<1x1x1xf32>, tensor<1x1024x1xf32>) -> tensor<1x1024x1xf32>
    %305 = "tosa.const"() <{value = dense<9.99999997E-7> : tensor<1x1024x1xf32>}> : () -> tensor<1x1024x1xf32>
    %306 = tosa.add %304, %305 : (tensor<1x1024x1xf32>, tensor<1x1024x1xf32>) -> tensor<1x1024x1xf32>
    %307 = tosa.rsqrt %306 : (tensor<1x1024x1xf32>) -> tensor<1x1024x1xf32>
    %308 = tosa.mul %297, %307 : (tensor<1x1024x1536xf32>, tensor<1x1024x1xf32>) -> tensor<1x1024x1536xf32>
    %309 = tosa.reshape %arg27 {new_shape = array<i64: 1, 1, 1536>} : (tensor<1536xf32>) -> tensor<1x1x1536xf32>
    %310 = tosa.mul %309, %308 : (tensor<1x1x1536xf32>, tensor<1x1024x1536xf32>) -> tensor<1x1024x1536xf32>
    %311 = tosa.reshape %310 {new_shape = array<i64: 1024, 1536>} : (tensor<1x1024x1536xf32>) -> tensor<1024x1536xf32>
    %312 = "tosa.const"() <{value = dense<[1, 0]> : tensor<2xi32>}> : () -> tensor<2xi32>
    %313 = tosa.transpose %arg28, %312 : (tensor<1536x1536xf32>, tensor<2xi32>) -> tensor<1536x1536xf32>
    %cst_48 = arith.constant dense<0.000000e+00> : tensor<1024x1536xf32>
    %314 = linalg.matmul {cast = #linalg.type_fn<cast_signed>} ins(%311, %313 : tensor<1024x1536xf32>, tensor<1536x1536xf32>) outs(%cst_48 : tensor<1024x1536xf32>) -> tensor<1024x1536xf32>
    %315 = tosa.reshape %arg29 {new_shape = array<i64: 1, 1536>} : (tensor<1536xf32>) -> tensor<1x1536xf32>
    %316 = tosa.add %315, %314 : (tensor<1x1536xf32>, tensor<1024x1536xf32>) -> tensor<1024x1536xf32>
    %317 = tosa.reshape %316 {new_shape = array<i64: 1, 1024, 1536>} : (tensor<1024x1536xf32>) -> tensor<1x1024x1536xf32>
    %318 = tosa.reshape %317 {new_shape = array<i64: 1, 1024, 12, 128>} : (tensor<1x1024x1536xf32>) -> tensor<1x1024x12x128xf32>
    %319 = "tosa.const"() <{value = dense<[0, 2, 1, 3]> : tensor<4xi32>}> : () -> tensor<4xi32>
    %320 = tosa.transpose %318, %319 : (tensor<1x1024x12x128xf32>, tensor<4xi32>) -> tensor<1x12x1024x128xf32>
    %321 = tosa.reshape %310 {new_shape = array<i64: 1024, 1536>} : (tensor<1x1024x1536xf32>) -> tensor<1024x1536xf32>
    %322 = "tosa.const"() <{value = dense<[1, 0]> : tensor<2xi32>}> : () -> tensor<2xi32>
    %323 = tosa.transpose %arg30, %322 : (tensor<256x1536xf32>, tensor<2xi32>) -> tensor<1536x256xf32>
    %cst_49 = arith.constant dense<0.000000e+00> : tensor<1024x256xf32>
    %324 = linalg.matmul {cast = #linalg.type_fn<cast_signed>} ins(%321, %323 : tensor<1024x1536xf32>, tensor<1536x256xf32>) outs(%cst_49 : tensor<1024x256xf32>) -> tensor<1024x256xf32>
    %325 = tosa.reshape %arg31 {new_shape = array<i64: 1, 256>} : (tensor<256xf32>) -> tensor<1x256xf32>
    %326 = tosa.add %325, %324 : (tensor<1x256xf32>, tensor<1024x256xf32>) -> tensor<1024x256xf32>
    %327 = tosa.reshape %326 {new_shape = array<i64: 1, 1024, 256>} : (tensor<1024x256xf32>) -> tensor<1x1024x256xf32>
    %328 = tosa.reshape %327 {new_shape = array<i64: 1, 1024, 2, 128>} : (tensor<1x1024x256xf32>) -> tensor<1x1024x2x128xf32>
    %329 = "tosa.const"() <{value = dense<[0, 2, 1, 3]> : tensor<4xi32>}> : () -> tensor<4xi32>
    %330 = tosa.transpose %328, %329 : (tensor<1x1024x2x128xf32>, tensor<4xi32>) -> tensor<1x2x1024x128xf32>
    %331 = tosa.reshape %310 {new_shape = array<i64: 1024, 1536>} : (tensor<1x1024x1536xf32>) -> tensor<1024x1536xf32>
    %332 = "tosa.const"() <{value = dense<[1, 0]> : tensor<2xi32>}> : () -> tensor<2xi32>
    %333 = tosa.transpose %arg32, %332 : (tensor<256x1536xf32>, tensor<2xi32>) -> tensor<1536x256xf32>
    %cst_50 = arith.constant dense<0.000000e+00> : tensor<1024x256xf32>
    %334 = linalg.matmul {cast = #linalg.type_fn<cast_signed>} ins(%331, %333 : tensor<1024x1536xf32>, tensor<1536x256xf32>) outs(%cst_50 : tensor<1024x256xf32>) -> tensor<1024x256xf32>
    %335 = tosa.reshape %arg33 {new_shape = array<i64: 1, 256>} : (tensor<256xf32>) -> tensor<1x256xf32>
    %336 = tosa.add %335, %334 : (tensor<1x256xf32>, tensor<1024x256xf32>) -> tensor<1024x256xf32>
    %337 = tosa.reshape %336 {new_shape = array<i64: 1, 1024, 256>} : (tensor<1024x256xf32>) -> tensor<1x1024x256xf32>
    %338 = tosa.reshape %337 {new_shape = array<i64: 1, 1024, 2, 128>} : (tensor<1x1024x256xf32>) -> tensor<1x1024x2x128xf32>
    %339 = "tosa.const"() <{value = dense<[0, 2, 1, 3]> : tensor<4xi32>}> : () -> tensor<4xi32>
    %340 = tosa.transpose %338, %339 : (tensor<1x1024x2x128xf32>, tensor<4xi32>) -> tensor<1x2x1024x128xf32>
    %341 = tosa.reshape %32 {new_shape = array<i64: 1, 1, 1024, 128>} : (tensor<1x1024x128xf32>) -> tensor<1x1x1024x128xf32>
    %342 = tosa.reshape %35 {new_shape = array<i64: 1, 1, 1024, 128>} : (tensor<1x1024x128xf32>) -> tensor<1x1x1024x128xf32>
    %343 = tosa.mul %320, %341 : (tensor<1x12x1024x128xf32>, tensor<1x1x1024x128xf32>) -> tensor<1x12x1024x128xf32>
    %extracted_slice_51 = tensor.extract_slice %320[0, 0, 0, 0] [1, 12, 1024, 64] [1, 1, 1, 1] : tensor<1x12x1024x128xf32> to tensor<1x12x1024x64xf32>
    %extracted_slice_52 = tensor.extract_slice %320[0, 0, 0, 64] [1, 12, 1024, 64] [1, 1, 1, 1] : tensor<1x12x1024x128xf32> to tensor<1x12x1024x64xf32>
    %344 = tensor.empty() : tensor<1x12x1024x64xf32>
    %345 = linalg.negf ins(%extracted_slice_52 : tensor<1x12x1024x64xf32>) outs(%344 : tensor<1x12x1024x64xf32>) -> tensor<1x12x1024x64xf32>
    %346 = tensor.empty() : tensor<1x12x1024x128xf32>
    %inserted_slice_53 = tensor.insert_slice %345 into %346[0, 0, 0, 0] [1, 12, 1024, 64] [1, 1, 1, 1] : tensor<1x12x1024x64xf32> into tensor<1x12x1024x128xf32>
    %inserted_slice_54 = tensor.insert_slice %extracted_slice_51 into %inserted_slice_53[0, 0, 0, 64] [1, 12, 1024, 64] [1, 1, 1, 1] : tensor<1x12x1024x64xf32> into tensor<1x12x1024x128xf32>
    %347 = tosa.mul %inserted_slice_54, %342 : (tensor<1x12x1024x128xf32>, tensor<1x1x1024x128xf32>) -> tensor<1x12x1024x128xf32>
    %348 = tosa.add %343, %347 : (tensor<1x12x1024x128xf32>, tensor<1x12x1024x128xf32>) -> tensor<1x12x1024x128xf32>
    %349 = tosa.mul %330, %341 : (tensor<1x2x1024x128xf32>, tensor<1x1x1024x128xf32>) -> tensor<1x2x1024x128xf32>
    %extracted_slice_55 = tensor.extract_slice %330[0, 0, 0, 0] [1, 2, 1024, 64] [1, 1, 1, 1] : tensor<1x2x1024x128xf32> to tensor<1x2x1024x64xf32>
    %extracted_slice_56 = tensor.extract_slice %330[0, 0, 0, 64] [1, 2, 1024, 64] [1, 1, 1, 1] : tensor<1x2x1024x128xf32> to tensor<1x2x1024x64xf32>
    %350 = tensor.empty() : tensor<1x2x1024x64xf32>
    %351 = linalg.negf ins(%extracted_slice_56 : tensor<1x2x1024x64xf32>) outs(%350 : tensor<1x2x1024x64xf32>) -> tensor<1x2x1024x64xf32>
    %352 = tensor.empty() : tensor<1x2x1024x128xf32>
    %inserted_slice_57 = tensor.insert_slice %351 into %352[0, 0, 0, 0] [1, 2, 1024, 64] [1, 1, 1, 1] : tensor<1x2x1024x64xf32> into tensor<1x2x1024x128xf32>
    %inserted_slice_58 = tensor.insert_slice %extracted_slice_55 into %inserted_slice_57[0, 0, 0, 64] [1, 2, 1024, 64] [1, 1, 1, 1] : tensor<1x2x1024x64xf32> into tensor<1x2x1024x128xf32>
    %353 = tosa.mul %inserted_slice_58, %342 : (tensor<1x2x1024x128xf32>, tensor<1x1x1024x128xf32>) -> tensor<1x2x1024x128xf32>
    %354 = tosa.add %349, %353 : (tensor<1x2x1024x128xf32>, tensor<1x2x1024x128xf32>) -> tensor<1x2x1024x128xf32>
    %355 = tosa.reshape %354 {new_shape = array<i64: 1, 2, 1, 1024, 128>} : (tensor<1x2x1024x128xf32>) -> tensor<1x2x1x1024x128xf32>
    %356 = "tosa.const"() <{value = dense<0.000000e+00> : tensor<1x2x6x1024x128xf32>}> : () -> tensor<1x2x6x1024x128xf32>
    %357 = tosa.add %355, %356 : (tensor<1x2x1x1024x128xf32>, tensor<1x2x6x1024x128xf32>) -> tensor<1x2x6x1024x128xf32>
    %358 = tosa.reshape %357 {new_shape = array<i64: 1, 12, 1024, 128>} : (tensor<1x2x6x1024x128xf32>) -> tensor<1x12x1024x128xf32>
    %359 = tosa.reshape %340 {new_shape = array<i64: 1, 2, 1, 1024, 128>} : (tensor<1x2x1024x128xf32>) -> tensor<1x2x1x1024x128xf32>
    %360 = "tosa.const"() <{value = dense<0.000000e+00> : tensor<1x2x6x1024x128xf32>}> : () -> tensor<1x2x6x1024x128xf32>
    %361 = tosa.add %359, %360 : (tensor<1x2x1x1024x128xf32>, tensor<1x2x6x1024x128xf32>) -> tensor<1x2x6x1024x128xf32>
    %362 = tosa.reshape %361 {new_shape = array<i64: 1, 12, 1024, 128>} : (tensor<1x2x6x1024x128xf32>) -> tensor<1x12x1024x128xf32>
    %363 = tosa.reshape %18 {new_shape = array<i64: 1, 1, 1024, 1024>} : (tensor<1024x1024xi1>) -> tensor<1x1x1024x1024xi1>
    %cst_59 = arith.constant 0xFF800000 : f32
    %cst_60 = arith.constant 0.000000e+00 : f32
    %364 = tensor.empty() : tensor<1x1x1024x1024xf32>
    %splat_61 = tensor.splat %cst_60 : tensor<1x1x1024x1024xf32>
    %splat_62 = tensor.splat %cst_59 : tensor<1x1x1024x1024xf32>
    %365 = linalg.generic {indexing_maps = [#map1, #map1, #map1, #map1], iterator_types = ["parallel", "parallel", "parallel", "parallel"]} ins(%363, %splat_61, %splat_62 : tensor<1x1x1024x1024xi1>, tensor<1x1x1024x1024xf32>, tensor<1x1x1024x1024xf32>) outs(%364 : tensor<1x1x1024x1024xf32>) {
    ^bb0(%in: i1, %in_699: f32, %in_700: f32, %out: f32):
      %3722 = arith.select %in, %in_699, %in_700 : f32
      linalg.yield %3722 : f32
    } -> tensor<1x1x1024x1024xf32>
    %cst_63 = arith.constant 0.000000e+00 : f32
    %splat_64 = tensor.splat %cst_63 : tensor<1024x1024xf32>
    %366 = tosa.reshape %365 {new_shape = array<i64: 1024, 1024>} : (tensor<1x1x1024x1024xf32>) -> tensor<1024x1024xf32>
    %367 = tosa.add %splat_64, %366 : (tensor<1024x1024xf32>, tensor<1024x1024xf32>) -> tensor<1024x1024xf32>
    %368 = "tosa.const"() <{value = dense<[0, 1, 3, 2]> : tensor<4xi32>}> : () -> tensor<4xi32>
    %369 = tosa.transpose %358, %368 : (tensor<1x12x1024x128xf32>, tensor<4xi32>) -> tensor<1x12x128x1024xf32>
    %370 = tosa.reshape %348 {new_shape = array<i64: 12, 1024, 128>} : (tensor<1x12x1024x128xf32>) -> tensor<12x1024x128xf32>
    %371 = tosa.reshape %369 {new_shape = array<i64: 12, 128, 1024>} : (tensor<1x12x128x1024xf32>) -> tensor<12x128x1024xf32>
    %372 = tosa.matmul %370, %371 : (tensor<12x1024x128xf32>, tensor<12x128x1024xf32>) -> tensor<12x1024x1024xf32>
    %cst_65 = arith.constant 0.0883883461 : f32
    %splat_66 = tensor.splat %cst_65 : tensor<12x1024x1024xf32>
    %373 = tosa.mul %372, %splat_66 : (tensor<12x1024x1024xf32>, tensor<12x1024x1024xf32>) -> tensor<12x1024x1024xf32>
    %374 = tosa.reshape %367 {new_shape = array<i64: 1, 1024, 1024>} : (tensor<1024x1024xf32>) -> tensor<1x1024x1024xf32>
    %375 = tosa.add %373, %374 : (tensor<12x1024x1024xf32>, tensor<1x1024x1024xf32>) -> tensor<12x1024x1024xf32>
    %376 = tosa.reduce_max %375 {axis = 2 : i32} : (tensor<12x1024x1024xf32>) -> tensor<12x1024x1xf32>
    %377 = tosa.sub %375, %376 : (tensor<12x1024x1024xf32>, tensor<12x1024x1xf32>) -> tensor<12x1024x1024xf32>
    %378 = math.exp %377 : tensor<12x1024x1024xf32>
    %379 = tosa.reduce_sum %378 {axis = 2 : i32} : (tensor<12x1024x1024xf32>) -> tensor<12x1024x1xf32>
    %380 = tosa.log %379 : (tensor<12x1024x1xf32>) -> tensor<12x1024x1xf32>
    %381 = tosa.add %376, %380 : (tensor<12x1024x1xf32>, tensor<12x1024x1xf32>) -> tensor<12x1024x1xf32>
    %382 = tosa.sub %375, %381 : (tensor<12x1024x1024xf32>, tensor<12x1024x1xf32>) -> tensor<12x1024x1024xf32>
    %383 = math.exp %382 : tensor<12x1024x1024xf32>
    %384 = tosa.reshape %381 {new_shape = array<i64: 1, 12, 1024>} : (tensor<12x1024x1xf32>) -> tensor<1x12x1024xf32>
    %385 = tosa.reshape %362 {new_shape = array<i64: 12, 1024, 128>} : (tensor<1x12x1024x128xf32>) -> tensor<12x1024x128xf32>
    %386 = tosa.matmul %383, %385 : (tensor<12x1024x1024xf32>, tensor<12x1024x128xf32>) -> tensor<12x1024x128xf32>
    %387 = tosa.reshape %386 {new_shape = array<i64: 1, 12, 1024, 128>} : (tensor<12x1024x128xf32>) -> tensor<1x12x1024x128xf32>
    %388 = "tosa.const"() <{value = dense<[0, 2, 1, 3]> : tensor<4xi32>}> : () -> tensor<4xi32>
    %389 = tosa.transpose %387, %388 : (tensor<1x12x1024x128xf32>, tensor<4xi32>) -> tensor<1x1024x12x128xf32>
    %390 = tosa.reshape %389 {new_shape = array<i64: 1, 1024, 1536>} : (tensor<1x1024x12x128xf32>) -> tensor<1x1024x1536xf32>
    %391 = "tosa.const"() <{value = dense<[1, 0]> : tensor<2xi32>}> : () -> tensor<2xi32>
    %392 = tosa.transpose %arg34, %391 : (tensor<1536x1536xf32>, tensor<2xi32>) -> tensor<1536x1536xf32>
    %393 = tosa.reshape %390 {new_shape = array<i64: 1024, 1536>} : (tensor<1x1024x1536xf32>) -> tensor<1024x1536xf32>
    %cst_67 = arith.constant dense<0.000000e+00> : tensor<1024x1536xf32>
    %394 = linalg.matmul {cast = #linalg.type_fn<cast_signed>} ins(%393, %392 : tensor<1024x1536xf32>, tensor<1536x1536xf32>) outs(%cst_67 : tensor<1024x1536xf32>) -> tensor<1024x1536xf32>
    %395 = tosa.reshape %394 {new_shape = array<i64: 1, 1024, 1536>} : (tensor<1024x1536xf32>) -> tensor<1x1024x1536xf32>
    %396 = tosa.add %297, %395 : (tensor<1x1024x1536xf32>, tensor<1x1024x1536xf32>) -> tensor<1x1024x1536xf32>
    %397 = tensor.empty() : tensor<1x1024x1536xf32>
    %c2_i32_68 = arith.constant 2 : i32
    %398 = linalg.generic {indexing_maps = [#map, #map], iterator_types = ["parallel", "parallel", "parallel"]} ins(%396 : tensor<1x1024x1536xf32>) outs(%397 : tensor<1x1024x1536xf32>) {
    ^bb0(%in: f32, %out: f32):
      %3722 = math.fpowi %in, %c2_i32_68 : f32, i32
      linalg.yield %3722 : f32
    } -> tensor<1x1024x1536xf32>
    %399 = tosa.reduce_sum %398 {axis = 2 : i32} : (tensor<1x1024x1536xf32>) -> tensor<1x1024x1xf32>
    %400 = "tosa.const"() <{value = dense<1.536000e+03> : tensor<1xf32>}> : () -> tensor<1xf32>
    %401 = tosa.reciprocal %400 : (tensor<1xf32>) -> tensor<1xf32>
    %402 = tosa.reshape %401 {new_shape = array<i64: 1, 1, 1>} : (tensor<1xf32>) -> tensor<1x1x1xf32>
    %403 = tosa.mul %402, %399 : (tensor<1x1x1xf32>, tensor<1x1024x1xf32>) -> tensor<1x1024x1xf32>
    %404 = "tosa.const"() <{value = dense<9.99999997E-7> : tensor<1x1024x1xf32>}> : () -> tensor<1x1024x1xf32>
    %405 = tosa.add %403, %404 : (tensor<1x1024x1xf32>, tensor<1x1024x1xf32>) -> tensor<1x1024x1xf32>
    %406 = tosa.rsqrt %405 : (tensor<1x1024x1xf32>) -> tensor<1x1024x1xf32>
    %407 = tosa.mul %396, %406 : (tensor<1x1024x1536xf32>, tensor<1x1024x1xf32>) -> tensor<1x1024x1536xf32>
    %408 = tosa.reshape %arg35 {new_shape = array<i64: 1, 1, 1536>} : (tensor<1536xf32>) -> tensor<1x1x1536xf32>
    %409 = tosa.mul %408, %407 : (tensor<1x1x1536xf32>, tensor<1x1024x1536xf32>) -> tensor<1x1024x1536xf32>
    %410 = "tosa.const"() <{value = dense<[1, 0]> : tensor<2xi32>}> : () -> tensor<2xi32>
    %411 = tosa.transpose %arg36, %410 : (tensor<8960x1536xf32>, tensor<2xi32>) -> tensor<1536x8960xf32>
    %412 = tosa.reshape %409 {new_shape = array<i64: 1024, 1536>} : (tensor<1x1024x1536xf32>) -> tensor<1024x1536xf32>
    %cst_69 = arith.constant dense<0.000000e+00> : tensor<1024x8960xf32>
    %413 = linalg.matmul {cast = #linalg.type_fn<cast_signed>} ins(%412, %411 : tensor<1024x1536xf32>, tensor<1536x8960xf32>) outs(%cst_69 : tensor<1024x8960xf32>) -> tensor<1024x8960xf32>
    %414 = tosa.reshape %413 {new_shape = array<i64: 1, 1024, 8960>} : (tensor<1024x8960xf32>) -> tensor<1x1024x8960xf32>
    %415 = tosa.sigmoid %414 : (tensor<1x1024x8960xf32>) -> tensor<1x1024x8960xf32>
    %416 = tosa.mul %414, %415 : (tensor<1x1024x8960xf32>, tensor<1x1024x8960xf32>) -> tensor<1x1024x8960xf32>
    %417 = "tosa.const"() <{value = dense<[1, 0]> : tensor<2xi32>}> : () -> tensor<2xi32>
    %418 = tosa.transpose %arg37, %417 : (tensor<8960x1536xf32>, tensor<2xi32>) -> tensor<1536x8960xf32>
    %419 = tosa.reshape %409 {new_shape = array<i64: 1024, 1536>} : (tensor<1x1024x1536xf32>) -> tensor<1024x1536xf32>
    %cst_70 = arith.constant dense<0.000000e+00> : tensor<1024x8960xf32>
    %420 = linalg.matmul {cast = #linalg.type_fn<cast_signed>} ins(%419, %418 : tensor<1024x1536xf32>, tensor<1536x8960xf32>) outs(%cst_70 : tensor<1024x8960xf32>) -> tensor<1024x8960xf32>
    %421 = tosa.reshape %420 {new_shape = array<i64: 1, 1024, 8960>} : (tensor<1024x8960xf32>) -> tensor<1x1024x8960xf32>
    %422 = tosa.mul %416, %421 : (tensor<1x1024x8960xf32>, tensor<1x1024x8960xf32>) -> tensor<1x1024x8960xf32>
    %423 = "tosa.const"() <{value = dense<[1, 0]> : tensor<2xi32>}> : () -> tensor<2xi32>
    %424 = tosa.transpose %arg38, %423 : (tensor<1536x8960xf32>, tensor<2xi32>) -> tensor<8960x1536xf32>
    %425 = tosa.reshape %422 {new_shape = array<i64: 1024, 8960>} : (tensor<1x1024x8960xf32>) -> tensor<1024x8960xf32>
    %cst_71 = arith.constant dense<0.000000e+00> : tensor<1024x1536xf32>
    %426 = linalg.matmul {cast = #linalg.type_fn<cast_signed>} ins(%425, %424 : tensor<1024x8960xf32>, tensor<8960x1536xf32>) outs(%cst_71 : tensor<1024x1536xf32>) -> tensor<1024x1536xf32>
    %427 = tosa.reshape %426 {new_shape = array<i64: 1, 1024, 1536>} : (tensor<1024x1536xf32>) -> tensor<1x1024x1536xf32>
    %428 = tosa.add %396, %427 : (tensor<1x1024x1536xf32>, tensor<1x1024x1536xf32>) -> tensor<1x1024x1536xf32>
    %429 = tensor.empty() : tensor<1x1024x1536xf32>
    %c2_i32_72 = arith.constant 2 : i32
    %430 = linalg.generic {indexing_maps = [#map, #map], iterator_types = ["parallel", "parallel", "parallel"]} ins(%428 : tensor<1x1024x1536xf32>) outs(%429 : tensor<1x1024x1536xf32>) {
    ^bb0(%in: f32, %out: f32):
      %3722 = math.fpowi %in, %c2_i32_72 : f32, i32
      linalg.yield %3722 : f32
    } -> tensor<1x1024x1536xf32>
    %431 = tosa.reduce_sum %430 {axis = 2 : i32} : (tensor<1x1024x1536xf32>) -> tensor<1x1024x1xf32>
    %432 = "tosa.const"() <{value = dense<1.536000e+03> : tensor<1xf32>}> : () -> tensor<1xf32>
    %433 = tosa.reciprocal %432 : (tensor<1xf32>) -> tensor<1xf32>
    %434 = tosa.reshape %433 {new_shape = array<i64: 1, 1, 1>} : (tensor<1xf32>) -> tensor<1x1x1xf32>
    %435 = tosa.mul %434, %431 : (tensor<1x1x1xf32>, tensor<1x1024x1xf32>) -> tensor<1x1024x1xf32>
    %436 = "tosa.const"() <{value = dense<9.99999997E-7> : tensor<1x1024x1xf32>}> : () -> tensor<1x1024x1xf32>
    %437 = tosa.add %435, %436 : (tensor<1x1024x1xf32>, tensor<1x1024x1xf32>) -> tensor<1x1024x1xf32>
    %438 = tosa.rsqrt %437 : (tensor<1x1024x1xf32>) -> tensor<1x1024x1xf32>
    %439 = tosa.mul %428, %438 : (tensor<1x1024x1536xf32>, tensor<1x1024x1xf32>) -> tensor<1x1024x1536xf32>
    %440 = tosa.reshape %arg39 {new_shape = array<i64: 1, 1, 1536>} : (tensor<1536xf32>) -> tensor<1x1x1536xf32>
    %441 = tosa.mul %440, %439 : (tensor<1x1x1536xf32>, tensor<1x1024x1536xf32>) -> tensor<1x1024x1536xf32>
    %442 = tosa.reshape %441 {new_shape = array<i64: 1024, 1536>} : (tensor<1x1024x1536xf32>) -> tensor<1024x1536xf32>
    %443 = "tosa.const"() <{value = dense<[1, 0]> : tensor<2xi32>}> : () -> tensor<2xi32>
    %444 = tosa.transpose %arg40, %443 : (tensor<1536x1536xf32>, tensor<2xi32>) -> tensor<1536x1536xf32>
    %cst_73 = arith.constant dense<0.000000e+00> : tensor<1024x1536xf32>
    %445 = linalg.matmul {cast = #linalg.type_fn<cast_signed>} ins(%442, %444 : tensor<1024x1536xf32>, tensor<1536x1536xf32>) outs(%cst_73 : tensor<1024x1536xf32>) -> tensor<1024x1536xf32>
    %446 = tosa.reshape %arg41 {new_shape = array<i64: 1, 1536>} : (tensor<1536xf32>) -> tensor<1x1536xf32>
    %447 = tosa.add %446, %445 : (tensor<1x1536xf32>, tensor<1024x1536xf32>) -> tensor<1024x1536xf32>
    %448 = tosa.reshape %447 {new_shape = array<i64: 1, 1024, 1536>} : (tensor<1024x1536xf32>) -> tensor<1x1024x1536xf32>
    %449 = tosa.reshape %448 {new_shape = array<i64: 1, 1024, 12, 128>} : (tensor<1x1024x1536xf32>) -> tensor<1x1024x12x128xf32>
    %450 = "tosa.const"() <{value = dense<[0, 2, 1, 3]> : tensor<4xi32>}> : () -> tensor<4xi32>
    %451 = tosa.transpose %449, %450 : (tensor<1x1024x12x128xf32>, tensor<4xi32>) -> tensor<1x12x1024x128xf32>
    %452 = tosa.reshape %441 {new_shape = array<i64: 1024, 1536>} : (tensor<1x1024x1536xf32>) -> tensor<1024x1536xf32>
    %453 = "tosa.const"() <{value = dense<[1, 0]> : tensor<2xi32>}> : () -> tensor<2xi32>
    %454 = tosa.transpose %arg42, %453 : (tensor<256x1536xf32>, tensor<2xi32>) -> tensor<1536x256xf32>
    %cst_74 = arith.constant dense<0.000000e+00> : tensor<1024x256xf32>
    %455 = linalg.matmul {cast = #linalg.type_fn<cast_signed>} ins(%452, %454 : tensor<1024x1536xf32>, tensor<1536x256xf32>) outs(%cst_74 : tensor<1024x256xf32>) -> tensor<1024x256xf32>
    %456 = tosa.reshape %arg43 {new_shape = array<i64: 1, 256>} : (tensor<256xf32>) -> tensor<1x256xf32>
    %457 = tosa.add %456, %455 : (tensor<1x256xf32>, tensor<1024x256xf32>) -> tensor<1024x256xf32>
    %458 = tosa.reshape %457 {new_shape = array<i64: 1, 1024, 256>} : (tensor<1024x256xf32>) -> tensor<1x1024x256xf32>
    %459 = tosa.reshape %458 {new_shape = array<i64: 1, 1024, 2, 128>} : (tensor<1x1024x256xf32>) -> tensor<1x1024x2x128xf32>
    %460 = "tosa.const"() <{value = dense<[0, 2, 1, 3]> : tensor<4xi32>}> : () -> tensor<4xi32>
    %461 = tosa.transpose %459, %460 : (tensor<1x1024x2x128xf32>, tensor<4xi32>) -> tensor<1x2x1024x128xf32>
    %462 = tosa.reshape %441 {new_shape = array<i64: 1024, 1536>} : (tensor<1x1024x1536xf32>) -> tensor<1024x1536xf32>
    %463 = "tosa.const"() <{value = dense<[1, 0]> : tensor<2xi32>}> : () -> tensor<2xi32>
    %464 = tosa.transpose %arg44, %463 : (tensor<256x1536xf32>, tensor<2xi32>) -> tensor<1536x256xf32>
    %cst_75 = arith.constant dense<0.000000e+00> : tensor<1024x256xf32>
    %465 = linalg.matmul {cast = #linalg.type_fn<cast_signed>} ins(%462, %464 : tensor<1024x1536xf32>, tensor<1536x256xf32>) outs(%cst_75 : tensor<1024x256xf32>) -> tensor<1024x256xf32>
    %466 = tosa.reshape %arg45 {new_shape = array<i64: 1, 256>} : (tensor<256xf32>) -> tensor<1x256xf32>
    %467 = tosa.add %466, %465 : (tensor<1x256xf32>, tensor<1024x256xf32>) -> tensor<1024x256xf32>
    %468 = tosa.reshape %467 {new_shape = array<i64: 1, 1024, 256>} : (tensor<1024x256xf32>) -> tensor<1x1024x256xf32>
    %469 = tosa.reshape %468 {new_shape = array<i64: 1, 1024, 2, 128>} : (tensor<1x1024x256xf32>) -> tensor<1x1024x2x128xf32>
    %470 = "tosa.const"() <{value = dense<[0, 2, 1, 3]> : tensor<4xi32>}> : () -> tensor<4xi32>
    %471 = tosa.transpose %469, %470 : (tensor<1x1024x2x128xf32>, tensor<4xi32>) -> tensor<1x2x1024x128xf32>
    %472 = tosa.reshape %32 {new_shape = array<i64: 1, 1, 1024, 128>} : (tensor<1x1024x128xf32>) -> tensor<1x1x1024x128xf32>
    %473 = tosa.reshape %35 {new_shape = array<i64: 1, 1, 1024, 128>} : (tensor<1x1024x128xf32>) -> tensor<1x1x1024x128xf32>
    %474 = tosa.mul %451, %472 : (tensor<1x12x1024x128xf32>, tensor<1x1x1024x128xf32>) -> tensor<1x12x1024x128xf32>
    %extracted_slice_76 = tensor.extract_slice %451[0, 0, 0, 0] [1, 12, 1024, 64] [1, 1, 1, 1] : tensor<1x12x1024x128xf32> to tensor<1x12x1024x64xf32>
    %extracted_slice_77 = tensor.extract_slice %451[0, 0, 0, 64] [1, 12, 1024, 64] [1, 1, 1, 1] : tensor<1x12x1024x128xf32> to tensor<1x12x1024x64xf32>
    %475 = tensor.empty() : tensor<1x12x1024x64xf32>
    %476 = linalg.negf ins(%extracted_slice_77 : tensor<1x12x1024x64xf32>) outs(%475 : tensor<1x12x1024x64xf32>) -> tensor<1x12x1024x64xf32>
    %477 = tensor.empty() : tensor<1x12x1024x128xf32>
    %inserted_slice_78 = tensor.insert_slice %476 into %477[0, 0, 0, 0] [1, 12, 1024, 64] [1, 1, 1, 1] : tensor<1x12x1024x64xf32> into tensor<1x12x1024x128xf32>
    %inserted_slice_79 = tensor.insert_slice %extracted_slice_76 into %inserted_slice_78[0, 0, 0, 64] [1, 12, 1024, 64] [1, 1, 1, 1] : tensor<1x12x1024x64xf32> into tensor<1x12x1024x128xf32>
    %478 = tosa.mul %inserted_slice_79, %473 : (tensor<1x12x1024x128xf32>, tensor<1x1x1024x128xf32>) -> tensor<1x12x1024x128xf32>
    %479 = tosa.add %474, %478 : (tensor<1x12x1024x128xf32>, tensor<1x12x1024x128xf32>) -> tensor<1x12x1024x128xf32>
    %480 = tosa.mul %461, %472 : (tensor<1x2x1024x128xf32>, tensor<1x1x1024x128xf32>) -> tensor<1x2x1024x128xf32>
    %extracted_slice_80 = tensor.extract_slice %461[0, 0, 0, 0] [1, 2, 1024, 64] [1, 1, 1, 1] : tensor<1x2x1024x128xf32> to tensor<1x2x1024x64xf32>
    %extracted_slice_81 = tensor.extract_slice %461[0, 0, 0, 64] [1, 2, 1024, 64] [1, 1, 1, 1] : tensor<1x2x1024x128xf32> to tensor<1x2x1024x64xf32>
    %481 = tensor.empty() : tensor<1x2x1024x64xf32>
    %482 = linalg.negf ins(%extracted_slice_81 : tensor<1x2x1024x64xf32>) outs(%481 : tensor<1x2x1024x64xf32>) -> tensor<1x2x1024x64xf32>
    %483 = tensor.empty() : tensor<1x2x1024x128xf32>
    %inserted_slice_82 = tensor.insert_slice %482 into %483[0, 0, 0, 0] [1, 2, 1024, 64] [1, 1, 1, 1] : tensor<1x2x1024x64xf32> into tensor<1x2x1024x128xf32>
    %inserted_slice_83 = tensor.insert_slice %extracted_slice_80 into %inserted_slice_82[0, 0, 0, 64] [1, 2, 1024, 64] [1, 1, 1, 1] : tensor<1x2x1024x64xf32> into tensor<1x2x1024x128xf32>
    %484 = tosa.mul %inserted_slice_83, %473 : (tensor<1x2x1024x128xf32>, tensor<1x1x1024x128xf32>) -> tensor<1x2x1024x128xf32>
    %485 = tosa.add %480, %484 : (tensor<1x2x1024x128xf32>, tensor<1x2x1024x128xf32>) -> tensor<1x2x1024x128xf32>
    %486 = tosa.reshape %485 {new_shape = array<i64: 1, 2, 1, 1024, 128>} : (tensor<1x2x1024x128xf32>) -> tensor<1x2x1x1024x128xf32>
    %487 = "tosa.const"() <{value = dense<0.000000e+00> : tensor<1x2x6x1024x128xf32>}> : () -> tensor<1x2x6x1024x128xf32>
    %488 = tosa.add %486, %487 : (tensor<1x2x1x1024x128xf32>, tensor<1x2x6x1024x128xf32>) -> tensor<1x2x6x1024x128xf32>
    %489 = tosa.reshape %488 {new_shape = array<i64: 1, 12, 1024, 128>} : (tensor<1x2x6x1024x128xf32>) -> tensor<1x12x1024x128xf32>
    %490 = tosa.reshape %471 {new_shape = array<i64: 1, 2, 1, 1024, 128>} : (tensor<1x2x1024x128xf32>) -> tensor<1x2x1x1024x128xf32>
    %491 = "tosa.const"() <{value = dense<0.000000e+00> : tensor<1x2x6x1024x128xf32>}> : () -> tensor<1x2x6x1024x128xf32>
    %492 = tosa.add %490, %491 : (tensor<1x2x1x1024x128xf32>, tensor<1x2x6x1024x128xf32>) -> tensor<1x2x6x1024x128xf32>
    %493 = tosa.reshape %492 {new_shape = array<i64: 1, 12, 1024, 128>} : (tensor<1x2x6x1024x128xf32>) -> tensor<1x12x1024x128xf32>
    %494 = tosa.reshape %18 {new_shape = array<i64: 1, 1, 1024, 1024>} : (tensor<1024x1024xi1>) -> tensor<1x1x1024x1024xi1>
    %cst_84 = arith.constant 0xFF800000 : f32
    %cst_85 = arith.constant 0.000000e+00 : f32
    %495 = tensor.empty() : tensor<1x1x1024x1024xf32>
    %splat_86 = tensor.splat %cst_85 : tensor<1x1x1024x1024xf32>
    %splat_87 = tensor.splat %cst_84 : tensor<1x1x1024x1024xf32>
    %496 = linalg.generic {indexing_maps = [#map1, #map1, #map1, #map1], iterator_types = ["parallel", "parallel", "parallel", "parallel"]} ins(%494, %splat_86, %splat_87 : tensor<1x1x1024x1024xi1>, tensor<1x1x1024x1024xf32>, tensor<1x1x1024x1024xf32>) outs(%495 : tensor<1x1x1024x1024xf32>) {
    ^bb0(%in: i1, %in_699: f32, %in_700: f32, %out: f32):
      %3722 = arith.select %in, %in_699, %in_700 : f32
      linalg.yield %3722 : f32
    } -> tensor<1x1x1024x1024xf32>
    %cst_88 = arith.constant 0.000000e+00 : f32
    %splat_89 = tensor.splat %cst_88 : tensor<1024x1024xf32>
    %497 = tosa.reshape %496 {new_shape = array<i64: 1024, 1024>} : (tensor<1x1x1024x1024xf32>) -> tensor<1024x1024xf32>
    %498 = tosa.add %splat_89, %497 : (tensor<1024x1024xf32>, tensor<1024x1024xf32>) -> tensor<1024x1024xf32>
    %499 = "tosa.const"() <{value = dense<[0, 1, 3, 2]> : tensor<4xi32>}> : () -> tensor<4xi32>
    %500 = tosa.transpose %489, %499 : (tensor<1x12x1024x128xf32>, tensor<4xi32>) -> tensor<1x12x128x1024xf32>
    %501 = tosa.reshape %479 {new_shape = array<i64: 12, 1024, 128>} : (tensor<1x12x1024x128xf32>) -> tensor<12x1024x128xf32>
    %502 = tosa.reshape %500 {new_shape = array<i64: 12, 128, 1024>} : (tensor<1x12x128x1024xf32>) -> tensor<12x128x1024xf32>
    %503 = tosa.matmul %501, %502 : (tensor<12x1024x128xf32>, tensor<12x128x1024xf32>) -> tensor<12x1024x1024xf32>
    %cst_90 = arith.constant 0.0883883461 : f32
    %splat_91 = tensor.splat %cst_90 : tensor<12x1024x1024xf32>
    %504 = tosa.mul %503, %splat_91 : (tensor<12x1024x1024xf32>, tensor<12x1024x1024xf32>) -> tensor<12x1024x1024xf32>
    %505 = tosa.reshape %498 {new_shape = array<i64: 1, 1024, 1024>} : (tensor<1024x1024xf32>) -> tensor<1x1024x1024xf32>
    %506 = tosa.add %504, %505 : (tensor<12x1024x1024xf32>, tensor<1x1024x1024xf32>) -> tensor<12x1024x1024xf32>
    %507 = tosa.reduce_max %506 {axis = 2 : i32} : (tensor<12x1024x1024xf32>) -> tensor<12x1024x1xf32>
    %508 = tosa.sub %506, %507 : (tensor<12x1024x1024xf32>, tensor<12x1024x1xf32>) -> tensor<12x1024x1024xf32>
    %509 = math.exp %508 : tensor<12x1024x1024xf32>
    %510 = tosa.reduce_sum %509 {axis = 2 : i32} : (tensor<12x1024x1024xf32>) -> tensor<12x1024x1xf32>
    %511 = tosa.log %510 : (tensor<12x1024x1xf32>) -> tensor<12x1024x1xf32>
    %512 = tosa.add %507, %511 : (tensor<12x1024x1xf32>, tensor<12x1024x1xf32>) -> tensor<12x1024x1xf32>
    %513 = tosa.sub %506, %512 : (tensor<12x1024x1024xf32>, tensor<12x1024x1xf32>) -> tensor<12x1024x1024xf32>
    %514 = math.exp %513 : tensor<12x1024x1024xf32>
    %515 = tosa.reshape %512 {new_shape = array<i64: 1, 12, 1024>} : (tensor<12x1024x1xf32>) -> tensor<1x12x1024xf32>
    %516 = tosa.reshape %493 {new_shape = array<i64: 12, 1024, 128>} : (tensor<1x12x1024x128xf32>) -> tensor<12x1024x128xf32>
    %517 = tosa.matmul %514, %516 : (tensor<12x1024x1024xf32>, tensor<12x1024x128xf32>) -> tensor<12x1024x128xf32>
    %518 = tosa.reshape %517 {new_shape = array<i64: 1, 12, 1024, 128>} : (tensor<12x1024x128xf32>) -> tensor<1x12x1024x128xf32>
    %519 = "tosa.const"() <{value = dense<[0, 2, 1, 3]> : tensor<4xi32>}> : () -> tensor<4xi32>
    %520 = tosa.transpose %518, %519 : (tensor<1x12x1024x128xf32>, tensor<4xi32>) -> tensor<1x1024x12x128xf32>
    %521 = tosa.reshape %520 {new_shape = array<i64: 1, 1024, 1536>} : (tensor<1x1024x12x128xf32>) -> tensor<1x1024x1536xf32>
    %522 = "tosa.const"() <{value = dense<[1, 0]> : tensor<2xi32>}> : () -> tensor<2xi32>
    %523 = tosa.transpose %arg46, %522 : (tensor<1536x1536xf32>, tensor<2xi32>) -> tensor<1536x1536xf32>
    %524 = tosa.reshape %521 {new_shape = array<i64: 1024, 1536>} : (tensor<1x1024x1536xf32>) -> tensor<1024x1536xf32>
    %cst_92 = arith.constant dense<0.000000e+00> : tensor<1024x1536xf32>
    %525 = linalg.matmul {cast = #linalg.type_fn<cast_signed>} ins(%524, %523 : tensor<1024x1536xf32>, tensor<1536x1536xf32>) outs(%cst_92 : tensor<1024x1536xf32>) -> tensor<1024x1536xf32>
    %526 = tosa.reshape %525 {new_shape = array<i64: 1, 1024, 1536>} : (tensor<1024x1536xf32>) -> tensor<1x1024x1536xf32>
    %527 = tosa.add %428, %526 : (tensor<1x1024x1536xf32>, tensor<1x1024x1536xf32>) -> tensor<1x1024x1536xf32>
    %528 = tensor.empty() : tensor<1x1024x1536xf32>
    %c2_i32_93 = arith.constant 2 : i32
    %529 = linalg.generic {indexing_maps = [#map, #map], iterator_types = ["parallel", "parallel", "parallel"]} ins(%527 : tensor<1x1024x1536xf32>) outs(%528 : tensor<1x1024x1536xf32>) {
    ^bb0(%in: f32, %out: f32):
      %3722 = math.fpowi %in, %c2_i32_93 : f32, i32
      linalg.yield %3722 : f32
    } -> tensor<1x1024x1536xf32>
    %530 = tosa.reduce_sum %529 {axis = 2 : i32} : (tensor<1x1024x1536xf32>) -> tensor<1x1024x1xf32>
    %531 = "tosa.const"() <{value = dense<1.536000e+03> : tensor<1xf32>}> : () -> tensor<1xf32>
    %532 = tosa.reciprocal %531 : (tensor<1xf32>) -> tensor<1xf32>
    %533 = tosa.reshape %532 {new_shape = array<i64: 1, 1, 1>} : (tensor<1xf32>) -> tensor<1x1x1xf32>
    %534 = tosa.mul %533, %530 : (tensor<1x1x1xf32>, tensor<1x1024x1xf32>) -> tensor<1x1024x1xf32>
    %535 = "tosa.const"() <{value = dense<9.99999997E-7> : tensor<1x1024x1xf32>}> : () -> tensor<1x1024x1xf32>
    %536 = tosa.add %534, %535 : (tensor<1x1024x1xf32>, tensor<1x1024x1xf32>) -> tensor<1x1024x1xf32>
    %537 = tosa.rsqrt %536 : (tensor<1x1024x1xf32>) -> tensor<1x1024x1xf32>
    %538 = tosa.mul %527, %537 : (tensor<1x1024x1536xf32>, tensor<1x1024x1xf32>) -> tensor<1x1024x1536xf32>
    %539 = tosa.reshape %arg47 {new_shape = array<i64: 1, 1, 1536>} : (tensor<1536xf32>) -> tensor<1x1x1536xf32>
    %540 = tosa.mul %539, %538 : (tensor<1x1x1536xf32>, tensor<1x1024x1536xf32>) -> tensor<1x1024x1536xf32>
    %541 = "tosa.const"() <{value = dense<[1, 0]> : tensor<2xi32>}> : () -> tensor<2xi32>
    %542 = tosa.transpose %arg48, %541 : (tensor<8960x1536xf32>, tensor<2xi32>) -> tensor<1536x8960xf32>
    %543 = tosa.reshape %540 {new_shape = array<i64: 1024, 1536>} : (tensor<1x1024x1536xf32>) -> tensor<1024x1536xf32>
    %cst_94 = arith.constant dense<0.000000e+00> : tensor<1024x8960xf32>
    %544 = linalg.matmul {cast = #linalg.type_fn<cast_signed>} ins(%543, %542 : tensor<1024x1536xf32>, tensor<1536x8960xf32>) outs(%cst_94 : tensor<1024x8960xf32>) -> tensor<1024x8960xf32>
    %545 = tosa.reshape %544 {new_shape = array<i64: 1, 1024, 8960>} : (tensor<1024x8960xf32>) -> tensor<1x1024x8960xf32>
    %546 = tosa.sigmoid %545 : (tensor<1x1024x8960xf32>) -> tensor<1x1024x8960xf32>
    %547 = tosa.mul %545, %546 : (tensor<1x1024x8960xf32>, tensor<1x1024x8960xf32>) -> tensor<1x1024x8960xf32>
    %548 = "tosa.const"() <{value = dense<[1, 0]> : tensor<2xi32>}> : () -> tensor<2xi32>
    %549 = tosa.transpose %arg49, %548 : (tensor<8960x1536xf32>, tensor<2xi32>) -> tensor<1536x8960xf32>
    %550 = tosa.reshape %540 {new_shape = array<i64: 1024, 1536>} : (tensor<1x1024x1536xf32>) -> tensor<1024x1536xf32>
    %cst_95 = arith.constant dense<0.000000e+00> : tensor<1024x8960xf32>
    %551 = linalg.matmul {cast = #linalg.type_fn<cast_signed>} ins(%550, %549 : tensor<1024x1536xf32>, tensor<1536x8960xf32>) outs(%cst_95 : tensor<1024x8960xf32>) -> tensor<1024x8960xf32>
    %552 = tosa.reshape %551 {new_shape = array<i64: 1, 1024, 8960>} : (tensor<1024x8960xf32>) -> tensor<1x1024x8960xf32>
    %553 = tosa.mul %547, %552 : (tensor<1x1024x8960xf32>, tensor<1x1024x8960xf32>) -> tensor<1x1024x8960xf32>
    %554 = "tosa.const"() <{value = dense<[1, 0]> : tensor<2xi32>}> : () -> tensor<2xi32>
    %555 = tosa.transpose %arg50, %554 : (tensor<1536x8960xf32>, tensor<2xi32>) -> tensor<8960x1536xf32>
    %556 = tosa.reshape %553 {new_shape = array<i64: 1024, 8960>} : (tensor<1x1024x8960xf32>) -> tensor<1024x8960xf32>
    %cst_96 = arith.constant dense<0.000000e+00> : tensor<1024x1536xf32>
    %557 = linalg.matmul {cast = #linalg.type_fn<cast_signed>} ins(%556, %555 : tensor<1024x8960xf32>, tensor<8960x1536xf32>) outs(%cst_96 : tensor<1024x1536xf32>) -> tensor<1024x1536xf32>
    %558 = tosa.reshape %557 {new_shape = array<i64: 1, 1024, 1536>} : (tensor<1024x1536xf32>) -> tensor<1x1024x1536xf32>
    %559 = tosa.add %527, %558 : (tensor<1x1024x1536xf32>, tensor<1x1024x1536xf32>) -> tensor<1x1024x1536xf32>
    %560 = tensor.empty() : tensor<1x1024x1536xf32>
    %c2_i32_97 = arith.constant 2 : i32
    %561 = linalg.generic {indexing_maps = [#map, #map], iterator_types = ["parallel", "parallel", "parallel"]} ins(%559 : tensor<1x1024x1536xf32>) outs(%560 : tensor<1x1024x1536xf32>) {
    ^bb0(%in: f32, %out: f32):
      %3722 = math.fpowi %in, %c2_i32_97 : f32, i32
      linalg.yield %3722 : f32
    } -> tensor<1x1024x1536xf32>
    %562 = tosa.reduce_sum %561 {axis = 2 : i32} : (tensor<1x1024x1536xf32>) -> tensor<1x1024x1xf32>
    %563 = "tosa.const"() <{value = dense<1.536000e+03> : tensor<1xf32>}> : () -> tensor<1xf32>
    %564 = tosa.reciprocal %563 : (tensor<1xf32>) -> tensor<1xf32>
    %565 = tosa.reshape %564 {new_shape = array<i64: 1, 1, 1>} : (tensor<1xf32>) -> tensor<1x1x1xf32>
    %566 = tosa.mul %565, %562 : (tensor<1x1x1xf32>, tensor<1x1024x1xf32>) -> tensor<1x1024x1xf32>
    %567 = "tosa.const"() <{value = dense<9.99999997E-7> : tensor<1x1024x1xf32>}> : () -> tensor<1x1024x1xf32>
    %568 = tosa.add %566, %567 : (tensor<1x1024x1xf32>, tensor<1x1024x1xf32>) -> tensor<1x1024x1xf32>
    %569 = tosa.rsqrt %568 : (tensor<1x1024x1xf32>) -> tensor<1x1024x1xf32>
    %570 = tosa.mul %559, %569 : (tensor<1x1024x1536xf32>, tensor<1x1024x1xf32>) -> tensor<1x1024x1536xf32>
    %571 = tosa.reshape %arg51 {new_shape = array<i64: 1, 1, 1536>} : (tensor<1536xf32>) -> tensor<1x1x1536xf32>
    %572 = tosa.mul %571, %570 : (tensor<1x1x1536xf32>, tensor<1x1024x1536xf32>) -> tensor<1x1024x1536xf32>
    %573 = tosa.reshape %572 {new_shape = array<i64: 1024, 1536>} : (tensor<1x1024x1536xf32>) -> tensor<1024x1536xf32>
    %574 = "tosa.const"() <{value = dense<[1, 0]> : tensor<2xi32>}> : () -> tensor<2xi32>
    %575 = tosa.transpose %arg52, %574 : (tensor<1536x1536xf32>, tensor<2xi32>) -> tensor<1536x1536xf32>
    %cst_98 = arith.constant dense<0.000000e+00> : tensor<1024x1536xf32>
    %576 = linalg.matmul {cast = #linalg.type_fn<cast_signed>} ins(%573, %575 : tensor<1024x1536xf32>, tensor<1536x1536xf32>) outs(%cst_98 : tensor<1024x1536xf32>) -> tensor<1024x1536xf32>
    %577 = tosa.reshape %arg53 {new_shape = array<i64: 1, 1536>} : (tensor<1536xf32>) -> tensor<1x1536xf32>
    %578 = tosa.add %577, %576 : (tensor<1x1536xf32>, tensor<1024x1536xf32>) -> tensor<1024x1536xf32>
    %579 = tosa.reshape %578 {new_shape = array<i64: 1, 1024, 1536>} : (tensor<1024x1536xf32>) -> tensor<1x1024x1536xf32>
    %580 = tosa.reshape %579 {new_shape = array<i64: 1, 1024, 12, 128>} : (tensor<1x1024x1536xf32>) -> tensor<1x1024x12x128xf32>
    %581 = "tosa.const"() <{value = dense<[0, 2, 1, 3]> : tensor<4xi32>}> : () -> tensor<4xi32>
    %582 = tosa.transpose %580, %581 : (tensor<1x1024x12x128xf32>, tensor<4xi32>) -> tensor<1x12x1024x128xf32>
    %583 = tosa.reshape %572 {new_shape = array<i64: 1024, 1536>} : (tensor<1x1024x1536xf32>) -> tensor<1024x1536xf32>
    %584 = "tosa.const"() <{value = dense<[1, 0]> : tensor<2xi32>}> : () -> tensor<2xi32>
    %585 = tosa.transpose %arg54, %584 : (tensor<256x1536xf32>, tensor<2xi32>) -> tensor<1536x256xf32>
    %cst_99 = arith.constant dense<0.000000e+00> : tensor<1024x256xf32>
    %586 = linalg.matmul {cast = #linalg.type_fn<cast_signed>} ins(%583, %585 : tensor<1024x1536xf32>, tensor<1536x256xf32>) outs(%cst_99 : tensor<1024x256xf32>) -> tensor<1024x256xf32>
    %587 = tosa.reshape %arg55 {new_shape = array<i64: 1, 256>} : (tensor<256xf32>) -> tensor<1x256xf32>
    %588 = tosa.add %587, %586 : (tensor<1x256xf32>, tensor<1024x256xf32>) -> tensor<1024x256xf32>
    %589 = tosa.reshape %588 {new_shape = array<i64: 1, 1024, 256>} : (tensor<1024x256xf32>) -> tensor<1x1024x256xf32>
    %590 = tosa.reshape %589 {new_shape = array<i64: 1, 1024, 2, 128>} : (tensor<1x1024x256xf32>) -> tensor<1x1024x2x128xf32>
    %591 = "tosa.const"() <{value = dense<[0, 2, 1, 3]> : tensor<4xi32>}> : () -> tensor<4xi32>
    %592 = tosa.transpose %590, %591 : (tensor<1x1024x2x128xf32>, tensor<4xi32>) -> tensor<1x2x1024x128xf32>
    %593 = tosa.reshape %572 {new_shape = array<i64: 1024, 1536>} : (tensor<1x1024x1536xf32>) -> tensor<1024x1536xf32>
    %594 = "tosa.const"() <{value = dense<[1, 0]> : tensor<2xi32>}> : () -> tensor<2xi32>
    %595 = tosa.transpose %arg56, %594 : (tensor<256x1536xf32>, tensor<2xi32>) -> tensor<1536x256xf32>
    %cst_100 = arith.constant dense<0.000000e+00> : tensor<1024x256xf32>
    %596 = linalg.matmul {cast = #linalg.type_fn<cast_signed>} ins(%593, %595 : tensor<1024x1536xf32>, tensor<1536x256xf32>) outs(%cst_100 : tensor<1024x256xf32>) -> tensor<1024x256xf32>
    %597 = tosa.reshape %arg57 {new_shape = array<i64: 1, 256>} : (tensor<256xf32>) -> tensor<1x256xf32>
    %598 = tosa.add %597, %596 : (tensor<1x256xf32>, tensor<1024x256xf32>) -> tensor<1024x256xf32>
    %599 = tosa.reshape %598 {new_shape = array<i64: 1, 1024, 256>} : (tensor<1024x256xf32>) -> tensor<1x1024x256xf32>
    %600 = tosa.reshape %599 {new_shape = array<i64: 1, 1024, 2, 128>} : (tensor<1x1024x256xf32>) -> tensor<1x1024x2x128xf32>
    %601 = "tosa.const"() <{value = dense<[0, 2, 1, 3]> : tensor<4xi32>}> : () -> tensor<4xi32>
    %602 = tosa.transpose %600, %601 : (tensor<1x1024x2x128xf32>, tensor<4xi32>) -> tensor<1x2x1024x128xf32>
    %603 = tosa.reshape %32 {new_shape = array<i64: 1, 1, 1024, 128>} : (tensor<1x1024x128xf32>) -> tensor<1x1x1024x128xf32>
    %604 = tosa.reshape %35 {new_shape = array<i64: 1, 1, 1024, 128>} : (tensor<1x1024x128xf32>) -> tensor<1x1x1024x128xf32>
    %605 = tosa.mul %582, %603 : (tensor<1x12x1024x128xf32>, tensor<1x1x1024x128xf32>) -> tensor<1x12x1024x128xf32>
    %extracted_slice_101 = tensor.extract_slice %582[0, 0, 0, 0] [1, 12, 1024, 64] [1, 1, 1, 1] : tensor<1x12x1024x128xf32> to tensor<1x12x1024x64xf32>
    %extracted_slice_102 = tensor.extract_slice %582[0, 0, 0, 64] [1, 12, 1024, 64] [1, 1, 1, 1] : tensor<1x12x1024x128xf32> to tensor<1x12x1024x64xf32>
    %606 = tensor.empty() : tensor<1x12x1024x64xf32>
    %607 = linalg.negf ins(%extracted_slice_102 : tensor<1x12x1024x64xf32>) outs(%606 : tensor<1x12x1024x64xf32>) -> tensor<1x12x1024x64xf32>
    %608 = tensor.empty() : tensor<1x12x1024x128xf32>
    %inserted_slice_103 = tensor.insert_slice %607 into %608[0, 0, 0, 0] [1, 12, 1024, 64] [1, 1, 1, 1] : tensor<1x12x1024x64xf32> into tensor<1x12x1024x128xf32>
    %inserted_slice_104 = tensor.insert_slice %extracted_slice_101 into %inserted_slice_103[0, 0, 0, 64] [1, 12, 1024, 64] [1, 1, 1, 1] : tensor<1x12x1024x64xf32> into tensor<1x12x1024x128xf32>
    %609 = tosa.mul %inserted_slice_104, %604 : (tensor<1x12x1024x128xf32>, tensor<1x1x1024x128xf32>) -> tensor<1x12x1024x128xf32>
    %610 = tosa.add %605, %609 : (tensor<1x12x1024x128xf32>, tensor<1x12x1024x128xf32>) -> tensor<1x12x1024x128xf32>
    %611 = tosa.mul %592, %603 : (tensor<1x2x1024x128xf32>, tensor<1x1x1024x128xf32>) -> tensor<1x2x1024x128xf32>
    %extracted_slice_105 = tensor.extract_slice %592[0, 0, 0, 0] [1, 2, 1024, 64] [1, 1, 1, 1] : tensor<1x2x1024x128xf32> to tensor<1x2x1024x64xf32>
    %extracted_slice_106 = tensor.extract_slice %592[0, 0, 0, 64] [1, 2, 1024, 64] [1, 1, 1, 1] : tensor<1x2x1024x128xf32> to tensor<1x2x1024x64xf32>
    %612 = tensor.empty() : tensor<1x2x1024x64xf32>
    %613 = linalg.negf ins(%extracted_slice_106 : tensor<1x2x1024x64xf32>) outs(%612 : tensor<1x2x1024x64xf32>) -> tensor<1x2x1024x64xf32>
    %614 = tensor.empty() : tensor<1x2x1024x128xf32>
    %inserted_slice_107 = tensor.insert_slice %613 into %614[0, 0, 0, 0] [1, 2, 1024, 64] [1, 1, 1, 1] : tensor<1x2x1024x64xf32> into tensor<1x2x1024x128xf32>
    %inserted_slice_108 = tensor.insert_slice %extracted_slice_105 into %inserted_slice_107[0, 0, 0, 64] [1, 2, 1024, 64] [1, 1, 1, 1] : tensor<1x2x1024x64xf32> into tensor<1x2x1024x128xf32>
    %615 = tosa.mul %inserted_slice_108, %604 : (tensor<1x2x1024x128xf32>, tensor<1x1x1024x128xf32>) -> tensor<1x2x1024x128xf32>
    %616 = tosa.add %611, %615 : (tensor<1x2x1024x128xf32>, tensor<1x2x1024x128xf32>) -> tensor<1x2x1024x128xf32>
    %617 = tosa.reshape %616 {new_shape = array<i64: 1, 2, 1, 1024, 128>} : (tensor<1x2x1024x128xf32>) -> tensor<1x2x1x1024x128xf32>
    %618 = "tosa.const"() <{value = dense<0.000000e+00> : tensor<1x2x6x1024x128xf32>}> : () -> tensor<1x2x6x1024x128xf32>
    %619 = tosa.add %617, %618 : (tensor<1x2x1x1024x128xf32>, tensor<1x2x6x1024x128xf32>) -> tensor<1x2x6x1024x128xf32>
    %620 = tosa.reshape %619 {new_shape = array<i64: 1, 12, 1024, 128>} : (tensor<1x2x6x1024x128xf32>) -> tensor<1x12x1024x128xf32>
    %621 = tosa.reshape %602 {new_shape = array<i64: 1, 2, 1, 1024, 128>} : (tensor<1x2x1024x128xf32>) -> tensor<1x2x1x1024x128xf32>
    %622 = "tosa.const"() <{value = dense<0.000000e+00> : tensor<1x2x6x1024x128xf32>}> : () -> tensor<1x2x6x1024x128xf32>
    %623 = tosa.add %621, %622 : (tensor<1x2x1x1024x128xf32>, tensor<1x2x6x1024x128xf32>) -> tensor<1x2x6x1024x128xf32>
    %624 = tosa.reshape %623 {new_shape = array<i64: 1, 12, 1024, 128>} : (tensor<1x2x6x1024x128xf32>) -> tensor<1x12x1024x128xf32>
    %625 = tosa.reshape %18 {new_shape = array<i64: 1, 1, 1024, 1024>} : (tensor<1024x1024xi1>) -> tensor<1x1x1024x1024xi1>
    %cst_109 = arith.constant 0xFF800000 : f32
    %cst_110 = arith.constant 0.000000e+00 : f32
    %626 = tensor.empty() : tensor<1x1x1024x1024xf32>
    %splat_111 = tensor.splat %cst_110 : tensor<1x1x1024x1024xf32>
    %splat_112 = tensor.splat %cst_109 : tensor<1x1x1024x1024xf32>
    %627 = linalg.generic {indexing_maps = [#map1, #map1, #map1, #map1], iterator_types = ["parallel", "parallel", "parallel", "parallel"]} ins(%625, %splat_111, %splat_112 : tensor<1x1x1024x1024xi1>, tensor<1x1x1024x1024xf32>, tensor<1x1x1024x1024xf32>) outs(%626 : tensor<1x1x1024x1024xf32>) {
    ^bb0(%in: i1, %in_699: f32, %in_700: f32, %out: f32):
      %3722 = arith.select %in, %in_699, %in_700 : f32
      linalg.yield %3722 : f32
    } -> tensor<1x1x1024x1024xf32>
    %cst_113 = arith.constant 0.000000e+00 : f32
    %splat_114 = tensor.splat %cst_113 : tensor<1024x1024xf32>
    %628 = tosa.reshape %627 {new_shape = array<i64: 1024, 1024>} : (tensor<1x1x1024x1024xf32>) -> tensor<1024x1024xf32>
    %629 = tosa.add %splat_114, %628 : (tensor<1024x1024xf32>, tensor<1024x1024xf32>) -> tensor<1024x1024xf32>
    %630 = "tosa.const"() <{value = dense<[0, 1, 3, 2]> : tensor<4xi32>}> : () -> tensor<4xi32>
    %631 = tosa.transpose %620, %630 : (tensor<1x12x1024x128xf32>, tensor<4xi32>) -> tensor<1x12x128x1024xf32>
    %632 = tosa.reshape %610 {new_shape = array<i64: 12, 1024, 128>} : (tensor<1x12x1024x128xf32>) -> tensor<12x1024x128xf32>
    %633 = tosa.reshape %631 {new_shape = array<i64: 12, 128, 1024>} : (tensor<1x12x128x1024xf32>) -> tensor<12x128x1024xf32>
    %634 = tosa.matmul %632, %633 : (tensor<12x1024x128xf32>, tensor<12x128x1024xf32>) -> tensor<12x1024x1024xf32>
    %cst_115 = arith.constant 0.0883883461 : f32
    %splat_116 = tensor.splat %cst_115 : tensor<12x1024x1024xf32>
    %635 = tosa.mul %634, %splat_116 : (tensor<12x1024x1024xf32>, tensor<12x1024x1024xf32>) -> tensor<12x1024x1024xf32>
    %636 = tosa.reshape %629 {new_shape = array<i64: 1, 1024, 1024>} : (tensor<1024x1024xf32>) -> tensor<1x1024x1024xf32>
    %637 = tosa.add %635, %636 : (tensor<12x1024x1024xf32>, tensor<1x1024x1024xf32>) -> tensor<12x1024x1024xf32>
    %638 = tosa.reduce_max %637 {axis = 2 : i32} : (tensor<12x1024x1024xf32>) -> tensor<12x1024x1xf32>
    %639 = tosa.sub %637, %638 : (tensor<12x1024x1024xf32>, tensor<12x1024x1xf32>) -> tensor<12x1024x1024xf32>
    %640 = math.exp %639 : tensor<12x1024x1024xf32>
    %641 = tosa.reduce_sum %640 {axis = 2 : i32} : (tensor<12x1024x1024xf32>) -> tensor<12x1024x1xf32>
    %642 = tosa.log %641 : (tensor<12x1024x1xf32>) -> tensor<12x1024x1xf32>
    %643 = tosa.add %638, %642 : (tensor<12x1024x1xf32>, tensor<12x1024x1xf32>) -> tensor<12x1024x1xf32>
    %644 = tosa.sub %637, %643 : (tensor<12x1024x1024xf32>, tensor<12x1024x1xf32>) -> tensor<12x1024x1024xf32>
    %645 = math.exp %644 : tensor<12x1024x1024xf32>
    %646 = tosa.reshape %643 {new_shape = array<i64: 1, 12, 1024>} : (tensor<12x1024x1xf32>) -> tensor<1x12x1024xf32>
    %647 = tosa.reshape %624 {new_shape = array<i64: 12, 1024, 128>} : (tensor<1x12x1024x128xf32>) -> tensor<12x1024x128xf32>
    %648 = tosa.matmul %645, %647 : (tensor<12x1024x1024xf32>, tensor<12x1024x128xf32>) -> tensor<12x1024x128xf32>
    %649 = tosa.reshape %648 {new_shape = array<i64: 1, 12, 1024, 128>} : (tensor<12x1024x128xf32>) -> tensor<1x12x1024x128xf32>
    %650 = "tosa.const"() <{value = dense<[0, 2, 1, 3]> : tensor<4xi32>}> : () -> tensor<4xi32>
    %651 = tosa.transpose %649, %650 : (tensor<1x12x1024x128xf32>, tensor<4xi32>) -> tensor<1x1024x12x128xf32>
    %652 = tosa.reshape %651 {new_shape = array<i64: 1, 1024, 1536>} : (tensor<1x1024x12x128xf32>) -> tensor<1x1024x1536xf32>
    %653 = "tosa.const"() <{value = dense<[1, 0]> : tensor<2xi32>}> : () -> tensor<2xi32>
    %654 = tosa.transpose %arg58, %653 : (tensor<1536x1536xf32>, tensor<2xi32>) -> tensor<1536x1536xf32>
    %655 = tosa.reshape %652 {new_shape = array<i64: 1024, 1536>} : (tensor<1x1024x1536xf32>) -> tensor<1024x1536xf32>
    %cst_117 = arith.constant dense<0.000000e+00> : tensor<1024x1536xf32>
    %656 = linalg.matmul {cast = #linalg.type_fn<cast_signed>} ins(%655, %654 : tensor<1024x1536xf32>, tensor<1536x1536xf32>) outs(%cst_117 : tensor<1024x1536xf32>) -> tensor<1024x1536xf32>
    %657 = tosa.reshape %656 {new_shape = array<i64: 1, 1024, 1536>} : (tensor<1024x1536xf32>) -> tensor<1x1024x1536xf32>
    %658 = tosa.add %559, %657 : (tensor<1x1024x1536xf32>, tensor<1x1024x1536xf32>) -> tensor<1x1024x1536xf32>
    %659 = tensor.empty() : tensor<1x1024x1536xf32>
    %c2_i32_118 = arith.constant 2 : i32
    %660 = linalg.generic {indexing_maps = [#map, #map], iterator_types = ["parallel", "parallel", "parallel"]} ins(%658 : tensor<1x1024x1536xf32>) outs(%659 : tensor<1x1024x1536xf32>) {
    ^bb0(%in: f32, %out: f32):
      %3722 = math.fpowi %in, %c2_i32_118 : f32, i32
      linalg.yield %3722 : f32
    } -> tensor<1x1024x1536xf32>
    %661 = tosa.reduce_sum %660 {axis = 2 : i32} : (tensor<1x1024x1536xf32>) -> tensor<1x1024x1xf32>
    %662 = "tosa.const"() <{value = dense<1.536000e+03> : tensor<1xf32>}> : () -> tensor<1xf32>
    %663 = tosa.reciprocal %662 : (tensor<1xf32>) -> tensor<1xf32>
    %664 = tosa.reshape %663 {new_shape = array<i64: 1, 1, 1>} : (tensor<1xf32>) -> tensor<1x1x1xf32>
    %665 = tosa.mul %664, %661 : (tensor<1x1x1xf32>, tensor<1x1024x1xf32>) -> tensor<1x1024x1xf32>
    %666 = "tosa.const"() <{value = dense<9.99999997E-7> : tensor<1x1024x1xf32>}> : () -> tensor<1x1024x1xf32>
    %667 = tosa.add %665, %666 : (tensor<1x1024x1xf32>, tensor<1x1024x1xf32>) -> tensor<1x1024x1xf32>
    %668 = tosa.rsqrt %667 : (tensor<1x1024x1xf32>) -> tensor<1x1024x1xf32>
    %669 = tosa.mul %658, %668 : (tensor<1x1024x1536xf32>, tensor<1x1024x1xf32>) -> tensor<1x1024x1536xf32>
    %670 = tosa.reshape %arg59 {new_shape = array<i64: 1, 1, 1536>} : (tensor<1536xf32>) -> tensor<1x1x1536xf32>
    %671 = tosa.mul %670, %669 : (tensor<1x1x1536xf32>, tensor<1x1024x1536xf32>) -> tensor<1x1024x1536xf32>
    %672 = "tosa.const"() <{value = dense<[1, 0]> : tensor<2xi32>}> : () -> tensor<2xi32>
    %673 = tosa.transpose %arg60, %672 : (tensor<8960x1536xf32>, tensor<2xi32>) -> tensor<1536x8960xf32>
    %674 = tosa.reshape %671 {new_shape = array<i64: 1024, 1536>} : (tensor<1x1024x1536xf32>) -> tensor<1024x1536xf32>
    %cst_119 = arith.constant dense<0.000000e+00> : tensor<1024x8960xf32>
    %675 = linalg.matmul {cast = #linalg.type_fn<cast_signed>} ins(%674, %673 : tensor<1024x1536xf32>, tensor<1536x8960xf32>) outs(%cst_119 : tensor<1024x8960xf32>) -> tensor<1024x8960xf32>
    %676 = tosa.reshape %675 {new_shape = array<i64: 1, 1024, 8960>} : (tensor<1024x8960xf32>) -> tensor<1x1024x8960xf32>
    %677 = tosa.sigmoid %676 : (tensor<1x1024x8960xf32>) -> tensor<1x1024x8960xf32>
    %678 = tosa.mul %676, %677 : (tensor<1x1024x8960xf32>, tensor<1x1024x8960xf32>) -> tensor<1x1024x8960xf32>
    %679 = "tosa.const"() <{value = dense<[1, 0]> : tensor<2xi32>}> : () -> tensor<2xi32>
    %680 = tosa.transpose %arg61, %679 : (tensor<8960x1536xf32>, tensor<2xi32>) -> tensor<1536x8960xf32>
    %681 = tosa.reshape %671 {new_shape = array<i64: 1024, 1536>} : (tensor<1x1024x1536xf32>) -> tensor<1024x1536xf32>
    %cst_120 = arith.constant dense<0.000000e+00> : tensor<1024x8960xf32>
    %682 = linalg.matmul {cast = #linalg.type_fn<cast_signed>} ins(%681, %680 : tensor<1024x1536xf32>, tensor<1536x8960xf32>) outs(%cst_120 : tensor<1024x8960xf32>) -> tensor<1024x8960xf32>
    %683 = tosa.reshape %682 {new_shape = array<i64: 1, 1024, 8960>} : (tensor<1024x8960xf32>) -> tensor<1x1024x8960xf32>
    %684 = tosa.mul %678, %683 : (tensor<1x1024x8960xf32>, tensor<1x1024x8960xf32>) -> tensor<1x1024x8960xf32>
    %685 = "tosa.const"() <{value = dense<[1, 0]> : tensor<2xi32>}> : () -> tensor<2xi32>
    %686 = tosa.transpose %arg62, %685 : (tensor<1536x8960xf32>, tensor<2xi32>) -> tensor<8960x1536xf32>
    %687 = tosa.reshape %684 {new_shape = array<i64: 1024, 8960>} : (tensor<1x1024x8960xf32>) -> tensor<1024x8960xf32>
    %cst_121 = arith.constant dense<0.000000e+00> : tensor<1024x1536xf32>
    %688 = linalg.matmul {cast = #linalg.type_fn<cast_signed>} ins(%687, %686 : tensor<1024x8960xf32>, tensor<8960x1536xf32>) outs(%cst_121 : tensor<1024x1536xf32>) -> tensor<1024x1536xf32>
    %689 = tosa.reshape %688 {new_shape = array<i64: 1, 1024, 1536>} : (tensor<1024x1536xf32>) -> tensor<1x1024x1536xf32>
    %690 = tosa.add %658, %689 : (tensor<1x1024x1536xf32>, tensor<1x1024x1536xf32>) -> tensor<1x1024x1536xf32>
    %691 = tensor.empty() : tensor<1x1024x1536xf32>
    %c2_i32_122 = arith.constant 2 : i32
    %692 = linalg.generic {indexing_maps = [#map, #map], iterator_types = ["parallel", "parallel", "parallel"]} ins(%690 : tensor<1x1024x1536xf32>) outs(%691 : tensor<1x1024x1536xf32>) {
    ^bb0(%in: f32, %out: f32):
      %3722 = math.fpowi %in, %c2_i32_122 : f32, i32
      linalg.yield %3722 : f32
    } -> tensor<1x1024x1536xf32>
    %693 = tosa.reduce_sum %692 {axis = 2 : i32} : (tensor<1x1024x1536xf32>) -> tensor<1x1024x1xf32>
    %694 = "tosa.const"() <{value = dense<1.536000e+03> : tensor<1xf32>}> : () -> tensor<1xf32>
    %695 = tosa.reciprocal %694 : (tensor<1xf32>) -> tensor<1xf32>
    %696 = tosa.reshape %695 {new_shape = array<i64: 1, 1, 1>} : (tensor<1xf32>) -> tensor<1x1x1xf32>
    %697 = tosa.mul %696, %693 : (tensor<1x1x1xf32>, tensor<1x1024x1xf32>) -> tensor<1x1024x1xf32>
    %698 = "tosa.const"() <{value = dense<9.99999997E-7> : tensor<1x1024x1xf32>}> : () -> tensor<1x1024x1xf32>
    %699 = tosa.add %697, %698 : (tensor<1x1024x1xf32>, tensor<1x1024x1xf32>) -> tensor<1x1024x1xf32>
    %700 = tosa.rsqrt %699 : (tensor<1x1024x1xf32>) -> tensor<1x1024x1xf32>
    %701 = tosa.mul %690, %700 : (tensor<1x1024x1536xf32>, tensor<1x1024x1xf32>) -> tensor<1x1024x1536xf32>
    %702 = tosa.reshape %arg63 {new_shape = array<i64: 1, 1, 1536>} : (tensor<1536xf32>) -> tensor<1x1x1536xf32>
    %703 = tosa.mul %702, %701 : (tensor<1x1x1536xf32>, tensor<1x1024x1536xf32>) -> tensor<1x1024x1536xf32>
    %704 = tosa.reshape %703 {new_shape = array<i64: 1024, 1536>} : (tensor<1x1024x1536xf32>) -> tensor<1024x1536xf32>
    %705 = "tosa.const"() <{value = dense<[1, 0]> : tensor<2xi32>}> : () -> tensor<2xi32>
    %706 = tosa.transpose %arg64, %705 : (tensor<1536x1536xf32>, tensor<2xi32>) -> tensor<1536x1536xf32>
    %cst_123 = arith.constant dense<0.000000e+00> : tensor<1024x1536xf32>
    %707 = linalg.matmul {cast = #linalg.type_fn<cast_signed>} ins(%704, %706 : tensor<1024x1536xf32>, tensor<1536x1536xf32>) outs(%cst_123 : tensor<1024x1536xf32>) -> tensor<1024x1536xf32>
    %708 = tosa.reshape %arg65 {new_shape = array<i64: 1, 1536>} : (tensor<1536xf32>) -> tensor<1x1536xf32>
    %709 = tosa.add %708, %707 : (tensor<1x1536xf32>, tensor<1024x1536xf32>) -> tensor<1024x1536xf32>
    %710 = tosa.reshape %709 {new_shape = array<i64: 1, 1024, 1536>} : (tensor<1024x1536xf32>) -> tensor<1x1024x1536xf32>
    %711 = tosa.reshape %710 {new_shape = array<i64: 1, 1024, 12, 128>} : (tensor<1x1024x1536xf32>) -> tensor<1x1024x12x128xf32>
    %712 = "tosa.const"() <{value = dense<[0, 2, 1, 3]> : tensor<4xi32>}> : () -> tensor<4xi32>
    %713 = tosa.transpose %711, %712 : (tensor<1x1024x12x128xf32>, tensor<4xi32>) -> tensor<1x12x1024x128xf32>
    %714 = tosa.reshape %703 {new_shape = array<i64: 1024, 1536>} : (tensor<1x1024x1536xf32>) -> tensor<1024x1536xf32>
    %715 = "tosa.const"() <{value = dense<[1, 0]> : tensor<2xi32>}> : () -> tensor<2xi32>
    %716 = tosa.transpose %arg66, %715 : (tensor<256x1536xf32>, tensor<2xi32>) -> tensor<1536x256xf32>
    %cst_124 = arith.constant dense<0.000000e+00> : tensor<1024x256xf32>
    %717 = linalg.matmul {cast = #linalg.type_fn<cast_signed>} ins(%714, %716 : tensor<1024x1536xf32>, tensor<1536x256xf32>) outs(%cst_124 : tensor<1024x256xf32>) -> tensor<1024x256xf32>
    %718 = tosa.reshape %arg67 {new_shape = array<i64: 1, 256>} : (tensor<256xf32>) -> tensor<1x256xf32>
    %719 = tosa.add %718, %717 : (tensor<1x256xf32>, tensor<1024x256xf32>) -> tensor<1024x256xf32>
    %720 = tosa.reshape %719 {new_shape = array<i64: 1, 1024, 256>} : (tensor<1024x256xf32>) -> tensor<1x1024x256xf32>
    %721 = tosa.reshape %720 {new_shape = array<i64: 1, 1024, 2, 128>} : (tensor<1x1024x256xf32>) -> tensor<1x1024x2x128xf32>
    %722 = "tosa.const"() <{value = dense<[0, 2, 1, 3]> : tensor<4xi32>}> : () -> tensor<4xi32>
    %723 = tosa.transpose %721, %722 : (tensor<1x1024x2x128xf32>, tensor<4xi32>) -> tensor<1x2x1024x128xf32>
    %724 = tosa.reshape %703 {new_shape = array<i64: 1024, 1536>} : (tensor<1x1024x1536xf32>) -> tensor<1024x1536xf32>
    %725 = "tosa.const"() <{value = dense<[1, 0]> : tensor<2xi32>}> : () -> tensor<2xi32>
    %726 = tosa.transpose %arg68, %725 : (tensor<256x1536xf32>, tensor<2xi32>) -> tensor<1536x256xf32>
    %cst_125 = arith.constant dense<0.000000e+00> : tensor<1024x256xf32>
    %727 = linalg.matmul {cast = #linalg.type_fn<cast_signed>} ins(%724, %726 : tensor<1024x1536xf32>, tensor<1536x256xf32>) outs(%cst_125 : tensor<1024x256xf32>) -> tensor<1024x256xf32>
    %728 = tosa.reshape %arg69 {new_shape = array<i64: 1, 256>} : (tensor<256xf32>) -> tensor<1x256xf32>
    %729 = tosa.add %728, %727 : (tensor<1x256xf32>, tensor<1024x256xf32>) -> tensor<1024x256xf32>
    %730 = tosa.reshape %729 {new_shape = array<i64: 1, 1024, 256>} : (tensor<1024x256xf32>) -> tensor<1x1024x256xf32>
    %731 = tosa.reshape %730 {new_shape = array<i64: 1, 1024, 2, 128>} : (tensor<1x1024x256xf32>) -> tensor<1x1024x2x128xf32>
    %732 = "tosa.const"() <{value = dense<[0, 2, 1, 3]> : tensor<4xi32>}> : () -> tensor<4xi32>
    %733 = tosa.transpose %731, %732 : (tensor<1x1024x2x128xf32>, tensor<4xi32>) -> tensor<1x2x1024x128xf32>
    %734 = tosa.reshape %32 {new_shape = array<i64: 1, 1, 1024, 128>} : (tensor<1x1024x128xf32>) -> tensor<1x1x1024x128xf32>
    %735 = tosa.reshape %35 {new_shape = array<i64: 1, 1, 1024, 128>} : (tensor<1x1024x128xf32>) -> tensor<1x1x1024x128xf32>
    %736 = tosa.mul %713, %734 : (tensor<1x12x1024x128xf32>, tensor<1x1x1024x128xf32>) -> tensor<1x12x1024x128xf32>
    %extracted_slice_126 = tensor.extract_slice %713[0, 0, 0, 0] [1, 12, 1024, 64] [1, 1, 1, 1] : tensor<1x12x1024x128xf32> to tensor<1x12x1024x64xf32>
    %extracted_slice_127 = tensor.extract_slice %713[0, 0, 0, 64] [1, 12, 1024, 64] [1, 1, 1, 1] : tensor<1x12x1024x128xf32> to tensor<1x12x1024x64xf32>
    %737 = tensor.empty() : tensor<1x12x1024x64xf32>
    %738 = linalg.negf ins(%extracted_slice_127 : tensor<1x12x1024x64xf32>) outs(%737 : tensor<1x12x1024x64xf32>) -> tensor<1x12x1024x64xf32>
    %739 = tensor.empty() : tensor<1x12x1024x128xf32>
    %inserted_slice_128 = tensor.insert_slice %738 into %739[0, 0, 0, 0] [1, 12, 1024, 64] [1, 1, 1, 1] : tensor<1x12x1024x64xf32> into tensor<1x12x1024x128xf32>
    %inserted_slice_129 = tensor.insert_slice %extracted_slice_126 into %inserted_slice_128[0, 0, 0, 64] [1, 12, 1024, 64] [1, 1, 1, 1] : tensor<1x12x1024x64xf32> into tensor<1x12x1024x128xf32>
    %740 = tosa.mul %inserted_slice_129, %735 : (tensor<1x12x1024x128xf32>, tensor<1x1x1024x128xf32>) -> tensor<1x12x1024x128xf32>
    %741 = tosa.add %736, %740 : (tensor<1x12x1024x128xf32>, tensor<1x12x1024x128xf32>) -> tensor<1x12x1024x128xf32>
    %742 = tosa.mul %723, %734 : (tensor<1x2x1024x128xf32>, tensor<1x1x1024x128xf32>) -> tensor<1x2x1024x128xf32>
    %extracted_slice_130 = tensor.extract_slice %723[0, 0, 0, 0] [1, 2, 1024, 64] [1, 1, 1, 1] : tensor<1x2x1024x128xf32> to tensor<1x2x1024x64xf32>
    %extracted_slice_131 = tensor.extract_slice %723[0, 0, 0, 64] [1, 2, 1024, 64] [1, 1, 1, 1] : tensor<1x2x1024x128xf32> to tensor<1x2x1024x64xf32>
    %743 = tensor.empty() : tensor<1x2x1024x64xf32>
    %744 = linalg.negf ins(%extracted_slice_131 : tensor<1x2x1024x64xf32>) outs(%743 : tensor<1x2x1024x64xf32>) -> tensor<1x2x1024x64xf32>
    %745 = tensor.empty() : tensor<1x2x1024x128xf32>
    %inserted_slice_132 = tensor.insert_slice %744 into %745[0, 0, 0, 0] [1, 2, 1024, 64] [1, 1, 1, 1] : tensor<1x2x1024x64xf32> into tensor<1x2x1024x128xf32>
    %inserted_slice_133 = tensor.insert_slice %extracted_slice_130 into %inserted_slice_132[0, 0, 0, 64] [1, 2, 1024, 64] [1, 1, 1, 1] : tensor<1x2x1024x64xf32> into tensor<1x2x1024x128xf32>
    %746 = tosa.mul %inserted_slice_133, %735 : (tensor<1x2x1024x128xf32>, tensor<1x1x1024x128xf32>) -> tensor<1x2x1024x128xf32>
    %747 = tosa.add %742, %746 : (tensor<1x2x1024x128xf32>, tensor<1x2x1024x128xf32>) -> tensor<1x2x1024x128xf32>
    %748 = tosa.reshape %747 {new_shape = array<i64: 1, 2, 1, 1024, 128>} : (tensor<1x2x1024x128xf32>) -> tensor<1x2x1x1024x128xf32>
    %749 = "tosa.const"() <{value = dense<0.000000e+00> : tensor<1x2x6x1024x128xf32>}> : () -> tensor<1x2x6x1024x128xf32>
    %750 = tosa.add %748, %749 : (tensor<1x2x1x1024x128xf32>, tensor<1x2x6x1024x128xf32>) -> tensor<1x2x6x1024x128xf32>
    %751 = tosa.reshape %750 {new_shape = array<i64: 1, 12, 1024, 128>} : (tensor<1x2x6x1024x128xf32>) -> tensor<1x12x1024x128xf32>
    %752 = tosa.reshape %733 {new_shape = array<i64: 1, 2, 1, 1024, 128>} : (tensor<1x2x1024x128xf32>) -> tensor<1x2x1x1024x128xf32>
    %753 = "tosa.const"() <{value = dense<0.000000e+00> : tensor<1x2x6x1024x128xf32>}> : () -> tensor<1x2x6x1024x128xf32>
    %754 = tosa.add %752, %753 : (tensor<1x2x1x1024x128xf32>, tensor<1x2x6x1024x128xf32>) -> tensor<1x2x6x1024x128xf32>
    %755 = tosa.reshape %754 {new_shape = array<i64: 1, 12, 1024, 128>} : (tensor<1x2x6x1024x128xf32>) -> tensor<1x12x1024x128xf32>
    %756 = tosa.reshape %18 {new_shape = array<i64: 1, 1, 1024, 1024>} : (tensor<1024x1024xi1>) -> tensor<1x1x1024x1024xi1>
    %cst_134 = arith.constant 0xFF800000 : f32
    %cst_135 = arith.constant 0.000000e+00 : f32
    %757 = tensor.empty() : tensor<1x1x1024x1024xf32>
    %splat_136 = tensor.splat %cst_135 : tensor<1x1x1024x1024xf32>
    %splat_137 = tensor.splat %cst_134 : tensor<1x1x1024x1024xf32>
    %758 = linalg.generic {indexing_maps = [#map1, #map1, #map1, #map1], iterator_types = ["parallel", "parallel", "parallel", "parallel"]} ins(%756, %splat_136, %splat_137 : tensor<1x1x1024x1024xi1>, tensor<1x1x1024x1024xf32>, tensor<1x1x1024x1024xf32>) outs(%757 : tensor<1x1x1024x1024xf32>) {
    ^bb0(%in: i1, %in_699: f32, %in_700: f32, %out: f32):
      %3722 = arith.select %in, %in_699, %in_700 : f32
      linalg.yield %3722 : f32
    } -> tensor<1x1x1024x1024xf32>
    %cst_138 = arith.constant 0.000000e+00 : f32
    %splat_139 = tensor.splat %cst_138 : tensor<1024x1024xf32>
    %759 = tosa.reshape %758 {new_shape = array<i64: 1024, 1024>} : (tensor<1x1x1024x1024xf32>) -> tensor<1024x1024xf32>
    %760 = tosa.add %splat_139, %759 : (tensor<1024x1024xf32>, tensor<1024x1024xf32>) -> tensor<1024x1024xf32>
    %761 = "tosa.const"() <{value = dense<[0, 1, 3, 2]> : tensor<4xi32>}> : () -> tensor<4xi32>
    %762 = tosa.transpose %751, %761 : (tensor<1x12x1024x128xf32>, tensor<4xi32>) -> tensor<1x12x128x1024xf32>
    %763 = tosa.reshape %741 {new_shape = array<i64: 12, 1024, 128>} : (tensor<1x12x1024x128xf32>) -> tensor<12x1024x128xf32>
    %764 = tosa.reshape %762 {new_shape = array<i64: 12, 128, 1024>} : (tensor<1x12x128x1024xf32>) -> tensor<12x128x1024xf32>
    %765 = tosa.matmul %763, %764 : (tensor<12x1024x128xf32>, tensor<12x128x1024xf32>) -> tensor<12x1024x1024xf32>
    %cst_140 = arith.constant 0.0883883461 : f32
    %splat_141 = tensor.splat %cst_140 : tensor<12x1024x1024xf32>
    %766 = tosa.mul %765, %splat_141 : (tensor<12x1024x1024xf32>, tensor<12x1024x1024xf32>) -> tensor<12x1024x1024xf32>
    %767 = tosa.reshape %760 {new_shape = array<i64: 1, 1024, 1024>} : (tensor<1024x1024xf32>) -> tensor<1x1024x1024xf32>
    %768 = tosa.add %766, %767 : (tensor<12x1024x1024xf32>, tensor<1x1024x1024xf32>) -> tensor<12x1024x1024xf32>
    %769 = tosa.reduce_max %768 {axis = 2 : i32} : (tensor<12x1024x1024xf32>) -> tensor<12x1024x1xf32>
    %770 = tosa.sub %768, %769 : (tensor<12x1024x1024xf32>, tensor<12x1024x1xf32>) -> tensor<12x1024x1024xf32>
    %771 = math.exp %770 : tensor<12x1024x1024xf32>
    %772 = tosa.reduce_sum %771 {axis = 2 : i32} : (tensor<12x1024x1024xf32>) -> tensor<12x1024x1xf32>
    %773 = tosa.log %772 : (tensor<12x1024x1xf32>) -> tensor<12x1024x1xf32>
    %774 = tosa.add %769, %773 : (tensor<12x1024x1xf32>, tensor<12x1024x1xf32>) -> tensor<12x1024x1xf32>
    %775 = tosa.sub %768, %774 : (tensor<12x1024x1024xf32>, tensor<12x1024x1xf32>) -> tensor<12x1024x1024xf32>
    %776 = math.exp %775 : tensor<12x1024x1024xf32>
    %777 = tosa.reshape %774 {new_shape = array<i64: 1, 12, 1024>} : (tensor<12x1024x1xf32>) -> tensor<1x12x1024xf32>
    %778 = tosa.reshape %755 {new_shape = array<i64: 12, 1024, 128>} : (tensor<1x12x1024x128xf32>) -> tensor<12x1024x128xf32>
    %779 = tosa.matmul %776, %778 : (tensor<12x1024x1024xf32>, tensor<12x1024x128xf32>) -> tensor<12x1024x128xf32>
    %780 = tosa.reshape %779 {new_shape = array<i64: 1, 12, 1024, 128>} : (tensor<12x1024x128xf32>) -> tensor<1x12x1024x128xf32>
    %781 = "tosa.const"() <{value = dense<[0, 2, 1, 3]> : tensor<4xi32>}> : () -> tensor<4xi32>
    %782 = tosa.transpose %780, %781 : (tensor<1x12x1024x128xf32>, tensor<4xi32>) -> tensor<1x1024x12x128xf32>
    %783 = tosa.reshape %782 {new_shape = array<i64: 1, 1024, 1536>} : (tensor<1x1024x12x128xf32>) -> tensor<1x1024x1536xf32>
    %784 = "tosa.const"() <{value = dense<[1, 0]> : tensor<2xi32>}> : () -> tensor<2xi32>
    %785 = tosa.transpose %arg70, %784 : (tensor<1536x1536xf32>, tensor<2xi32>) -> tensor<1536x1536xf32>
    %786 = tosa.reshape %783 {new_shape = array<i64: 1024, 1536>} : (tensor<1x1024x1536xf32>) -> tensor<1024x1536xf32>
    %cst_142 = arith.constant dense<0.000000e+00> : tensor<1024x1536xf32>
    %787 = linalg.matmul {cast = #linalg.type_fn<cast_signed>} ins(%786, %785 : tensor<1024x1536xf32>, tensor<1536x1536xf32>) outs(%cst_142 : tensor<1024x1536xf32>) -> tensor<1024x1536xf32>
    %788 = tosa.reshape %787 {new_shape = array<i64: 1, 1024, 1536>} : (tensor<1024x1536xf32>) -> tensor<1x1024x1536xf32>
    %789 = tosa.add %690, %788 : (tensor<1x1024x1536xf32>, tensor<1x1024x1536xf32>) -> tensor<1x1024x1536xf32>
    %790 = tensor.empty() : tensor<1x1024x1536xf32>
    %c2_i32_143 = arith.constant 2 : i32
    %791 = linalg.generic {indexing_maps = [#map, #map], iterator_types = ["parallel", "parallel", "parallel"]} ins(%789 : tensor<1x1024x1536xf32>) outs(%790 : tensor<1x1024x1536xf32>) {
    ^bb0(%in: f32, %out: f32):
      %3722 = math.fpowi %in, %c2_i32_143 : f32, i32
      linalg.yield %3722 : f32
    } -> tensor<1x1024x1536xf32>
    %792 = tosa.reduce_sum %791 {axis = 2 : i32} : (tensor<1x1024x1536xf32>) -> tensor<1x1024x1xf32>
    %793 = "tosa.const"() <{value = dense<1.536000e+03> : tensor<1xf32>}> : () -> tensor<1xf32>
    %794 = tosa.reciprocal %793 : (tensor<1xf32>) -> tensor<1xf32>
    %795 = tosa.reshape %794 {new_shape = array<i64: 1, 1, 1>} : (tensor<1xf32>) -> tensor<1x1x1xf32>
    %796 = tosa.mul %795, %792 : (tensor<1x1x1xf32>, tensor<1x1024x1xf32>) -> tensor<1x1024x1xf32>
    %797 = "tosa.const"() <{value = dense<9.99999997E-7> : tensor<1x1024x1xf32>}> : () -> tensor<1x1024x1xf32>
    %798 = tosa.add %796, %797 : (tensor<1x1024x1xf32>, tensor<1x1024x1xf32>) -> tensor<1x1024x1xf32>
    %799 = tosa.rsqrt %798 : (tensor<1x1024x1xf32>) -> tensor<1x1024x1xf32>
    %800 = tosa.mul %789, %799 : (tensor<1x1024x1536xf32>, tensor<1x1024x1xf32>) -> tensor<1x1024x1536xf32>
    %801 = tosa.reshape %arg71 {new_shape = array<i64: 1, 1, 1536>} : (tensor<1536xf32>) -> tensor<1x1x1536xf32>
    %802 = tosa.mul %801, %800 : (tensor<1x1x1536xf32>, tensor<1x1024x1536xf32>) -> tensor<1x1024x1536xf32>
    %803 = "tosa.const"() <{value = dense<[1, 0]> : tensor<2xi32>}> : () -> tensor<2xi32>
    %804 = tosa.transpose %arg72, %803 : (tensor<8960x1536xf32>, tensor<2xi32>) -> tensor<1536x8960xf32>
    %805 = tosa.reshape %802 {new_shape = array<i64: 1024, 1536>} : (tensor<1x1024x1536xf32>) -> tensor<1024x1536xf32>
    %cst_144 = arith.constant dense<0.000000e+00> : tensor<1024x8960xf32>
    %806 = linalg.matmul {cast = #linalg.type_fn<cast_signed>} ins(%805, %804 : tensor<1024x1536xf32>, tensor<1536x8960xf32>) outs(%cst_144 : tensor<1024x8960xf32>) -> tensor<1024x8960xf32>
    %807 = tosa.reshape %806 {new_shape = array<i64: 1, 1024, 8960>} : (tensor<1024x8960xf32>) -> tensor<1x1024x8960xf32>
    %808 = tosa.sigmoid %807 : (tensor<1x1024x8960xf32>) -> tensor<1x1024x8960xf32>
    %809 = tosa.mul %807, %808 : (tensor<1x1024x8960xf32>, tensor<1x1024x8960xf32>) -> tensor<1x1024x8960xf32>
    %810 = "tosa.const"() <{value = dense<[1, 0]> : tensor<2xi32>}> : () -> tensor<2xi32>
    %811 = tosa.transpose %arg73, %810 : (tensor<8960x1536xf32>, tensor<2xi32>) -> tensor<1536x8960xf32>
    %812 = tosa.reshape %802 {new_shape = array<i64: 1024, 1536>} : (tensor<1x1024x1536xf32>) -> tensor<1024x1536xf32>
    %cst_145 = arith.constant dense<0.000000e+00> : tensor<1024x8960xf32>
    %813 = linalg.matmul {cast = #linalg.type_fn<cast_signed>} ins(%812, %811 : tensor<1024x1536xf32>, tensor<1536x8960xf32>) outs(%cst_145 : tensor<1024x8960xf32>) -> tensor<1024x8960xf32>
    %814 = tosa.reshape %813 {new_shape = array<i64: 1, 1024, 8960>} : (tensor<1024x8960xf32>) -> tensor<1x1024x8960xf32>
    %815 = tosa.mul %809, %814 : (tensor<1x1024x8960xf32>, tensor<1x1024x8960xf32>) -> tensor<1x1024x8960xf32>
    %816 = "tosa.const"() <{value = dense<[1, 0]> : tensor<2xi32>}> : () -> tensor<2xi32>
    %817 = tosa.transpose %arg74, %816 : (tensor<1536x8960xf32>, tensor<2xi32>) -> tensor<8960x1536xf32>
    %818 = tosa.reshape %815 {new_shape = array<i64: 1024, 8960>} : (tensor<1x1024x8960xf32>) -> tensor<1024x8960xf32>
    %cst_146 = arith.constant dense<0.000000e+00> : tensor<1024x1536xf32>
    %819 = linalg.matmul {cast = #linalg.type_fn<cast_signed>} ins(%818, %817 : tensor<1024x8960xf32>, tensor<8960x1536xf32>) outs(%cst_146 : tensor<1024x1536xf32>) -> tensor<1024x1536xf32>
    %820 = tosa.reshape %819 {new_shape = array<i64: 1, 1024, 1536>} : (tensor<1024x1536xf32>) -> tensor<1x1024x1536xf32>
    %821 = tosa.add %789, %820 : (tensor<1x1024x1536xf32>, tensor<1x1024x1536xf32>) -> tensor<1x1024x1536xf32>
    %822 = tensor.empty() : tensor<1x1024x1536xf32>
    %c2_i32_147 = arith.constant 2 : i32
    %823 = linalg.generic {indexing_maps = [#map, #map], iterator_types = ["parallel", "parallel", "parallel"]} ins(%821 : tensor<1x1024x1536xf32>) outs(%822 : tensor<1x1024x1536xf32>) {
    ^bb0(%in: f32, %out: f32):
      %3722 = math.fpowi %in, %c2_i32_147 : f32, i32
      linalg.yield %3722 : f32
    } -> tensor<1x1024x1536xf32>
    %824 = tosa.reduce_sum %823 {axis = 2 : i32} : (tensor<1x1024x1536xf32>) -> tensor<1x1024x1xf32>
    %825 = "tosa.const"() <{value = dense<1.536000e+03> : tensor<1xf32>}> : () -> tensor<1xf32>
    %826 = tosa.reciprocal %825 : (tensor<1xf32>) -> tensor<1xf32>
    %827 = tosa.reshape %826 {new_shape = array<i64: 1, 1, 1>} : (tensor<1xf32>) -> tensor<1x1x1xf32>
    %828 = tosa.mul %827, %824 : (tensor<1x1x1xf32>, tensor<1x1024x1xf32>) -> tensor<1x1024x1xf32>
    %829 = "tosa.const"() <{value = dense<9.99999997E-7> : tensor<1x1024x1xf32>}> : () -> tensor<1x1024x1xf32>
    %830 = tosa.add %828, %829 : (tensor<1x1024x1xf32>, tensor<1x1024x1xf32>) -> tensor<1x1024x1xf32>
    %831 = tosa.rsqrt %830 : (tensor<1x1024x1xf32>) -> tensor<1x1024x1xf32>
    %832 = tosa.mul %821, %831 : (tensor<1x1024x1536xf32>, tensor<1x1024x1xf32>) -> tensor<1x1024x1536xf32>
    %833 = tosa.reshape %arg75 {new_shape = array<i64: 1, 1, 1536>} : (tensor<1536xf32>) -> tensor<1x1x1536xf32>
    %834 = tosa.mul %833, %832 : (tensor<1x1x1536xf32>, tensor<1x1024x1536xf32>) -> tensor<1x1024x1536xf32>
    %835 = tosa.reshape %834 {new_shape = array<i64: 1024, 1536>} : (tensor<1x1024x1536xf32>) -> tensor<1024x1536xf32>
    %836 = "tosa.const"() <{value = dense<[1, 0]> : tensor<2xi32>}> : () -> tensor<2xi32>
    %837 = tosa.transpose %arg76, %836 : (tensor<1536x1536xf32>, tensor<2xi32>) -> tensor<1536x1536xf32>
    %cst_148 = arith.constant dense<0.000000e+00> : tensor<1024x1536xf32>
    %838 = linalg.matmul {cast = #linalg.type_fn<cast_signed>} ins(%835, %837 : tensor<1024x1536xf32>, tensor<1536x1536xf32>) outs(%cst_148 : tensor<1024x1536xf32>) -> tensor<1024x1536xf32>
    %839 = tosa.reshape %arg77 {new_shape = array<i64: 1, 1536>} : (tensor<1536xf32>) -> tensor<1x1536xf32>
    %840 = tosa.add %839, %838 : (tensor<1x1536xf32>, tensor<1024x1536xf32>) -> tensor<1024x1536xf32>
    %841 = tosa.reshape %840 {new_shape = array<i64: 1, 1024, 1536>} : (tensor<1024x1536xf32>) -> tensor<1x1024x1536xf32>
    %842 = tosa.reshape %841 {new_shape = array<i64: 1, 1024, 12, 128>} : (tensor<1x1024x1536xf32>) -> tensor<1x1024x12x128xf32>
    %843 = "tosa.const"() <{value = dense<[0, 2, 1, 3]> : tensor<4xi32>}> : () -> tensor<4xi32>
    %844 = tosa.transpose %842, %843 : (tensor<1x1024x12x128xf32>, tensor<4xi32>) -> tensor<1x12x1024x128xf32>
    %845 = tosa.reshape %834 {new_shape = array<i64: 1024, 1536>} : (tensor<1x1024x1536xf32>) -> tensor<1024x1536xf32>
    %846 = "tosa.const"() <{value = dense<[1, 0]> : tensor<2xi32>}> : () -> tensor<2xi32>
    %847 = tosa.transpose %arg78, %846 : (tensor<256x1536xf32>, tensor<2xi32>) -> tensor<1536x256xf32>
    %cst_149 = arith.constant dense<0.000000e+00> : tensor<1024x256xf32>
    %848 = linalg.matmul {cast = #linalg.type_fn<cast_signed>} ins(%845, %847 : tensor<1024x1536xf32>, tensor<1536x256xf32>) outs(%cst_149 : tensor<1024x256xf32>) -> tensor<1024x256xf32>
    %849 = tosa.reshape %arg79 {new_shape = array<i64: 1, 256>} : (tensor<256xf32>) -> tensor<1x256xf32>
    %850 = tosa.add %849, %848 : (tensor<1x256xf32>, tensor<1024x256xf32>) -> tensor<1024x256xf32>
    %851 = tosa.reshape %850 {new_shape = array<i64: 1, 1024, 256>} : (tensor<1024x256xf32>) -> tensor<1x1024x256xf32>
    %852 = tosa.reshape %851 {new_shape = array<i64: 1, 1024, 2, 128>} : (tensor<1x1024x256xf32>) -> tensor<1x1024x2x128xf32>
    %853 = "tosa.const"() <{value = dense<[0, 2, 1, 3]> : tensor<4xi32>}> : () -> tensor<4xi32>
    %854 = tosa.transpose %852, %853 : (tensor<1x1024x2x128xf32>, tensor<4xi32>) -> tensor<1x2x1024x128xf32>
    %855 = tosa.reshape %834 {new_shape = array<i64: 1024, 1536>} : (tensor<1x1024x1536xf32>) -> tensor<1024x1536xf32>
    %856 = "tosa.const"() <{value = dense<[1, 0]> : tensor<2xi32>}> : () -> tensor<2xi32>
    %857 = tosa.transpose %arg80, %856 : (tensor<256x1536xf32>, tensor<2xi32>) -> tensor<1536x256xf32>
    %cst_150 = arith.constant dense<0.000000e+00> : tensor<1024x256xf32>
    %858 = linalg.matmul {cast = #linalg.type_fn<cast_signed>} ins(%855, %857 : tensor<1024x1536xf32>, tensor<1536x256xf32>) outs(%cst_150 : tensor<1024x256xf32>) -> tensor<1024x256xf32>
    %859 = tosa.reshape %arg81 {new_shape = array<i64: 1, 256>} : (tensor<256xf32>) -> tensor<1x256xf32>
    %860 = tosa.add %859, %858 : (tensor<1x256xf32>, tensor<1024x256xf32>) -> tensor<1024x256xf32>
    %861 = tosa.reshape %860 {new_shape = array<i64: 1, 1024, 256>} : (tensor<1024x256xf32>) -> tensor<1x1024x256xf32>
    %862 = tosa.reshape %861 {new_shape = array<i64: 1, 1024, 2, 128>} : (tensor<1x1024x256xf32>) -> tensor<1x1024x2x128xf32>
    %863 = "tosa.const"() <{value = dense<[0, 2, 1, 3]> : tensor<4xi32>}> : () -> tensor<4xi32>
    %864 = tosa.transpose %862, %863 : (tensor<1x1024x2x128xf32>, tensor<4xi32>) -> tensor<1x2x1024x128xf32>
    %865 = tosa.reshape %32 {new_shape = array<i64: 1, 1, 1024, 128>} : (tensor<1x1024x128xf32>) -> tensor<1x1x1024x128xf32>
    %866 = tosa.reshape %35 {new_shape = array<i64: 1, 1, 1024, 128>} : (tensor<1x1024x128xf32>) -> tensor<1x1x1024x128xf32>
    %867 = tosa.mul %844, %865 : (tensor<1x12x1024x128xf32>, tensor<1x1x1024x128xf32>) -> tensor<1x12x1024x128xf32>
    %extracted_slice_151 = tensor.extract_slice %844[0, 0, 0, 0] [1, 12, 1024, 64] [1, 1, 1, 1] : tensor<1x12x1024x128xf32> to tensor<1x12x1024x64xf32>
    %extracted_slice_152 = tensor.extract_slice %844[0, 0, 0, 64] [1, 12, 1024, 64] [1, 1, 1, 1] : tensor<1x12x1024x128xf32> to tensor<1x12x1024x64xf32>
    %868 = tensor.empty() : tensor<1x12x1024x64xf32>
    %869 = linalg.negf ins(%extracted_slice_152 : tensor<1x12x1024x64xf32>) outs(%868 : tensor<1x12x1024x64xf32>) -> tensor<1x12x1024x64xf32>
    %870 = tensor.empty() : tensor<1x12x1024x128xf32>
    %inserted_slice_153 = tensor.insert_slice %869 into %870[0, 0, 0, 0] [1, 12, 1024, 64] [1, 1, 1, 1] : tensor<1x12x1024x64xf32> into tensor<1x12x1024x128xf32>
    %inserted_slice_154 = tensor.insert_slice %extracted_slice_151 into %inserted_slice_153[0, 0, 0, 64] [1, 12, 1024, 64] [1, 1, 1, 1] : tensor<1x12x1024x64xf32> into tensor<1x12x1024x128xf32>
    %871 = tosa.mul %inserted_slice_154, %866 : (tensor<1x12x1024x128xf32>, tensor<1x1x1024x128xf32>) -> tensor<1x12x1024x128xf32>
    %872 = tosa.add %867, %871 : (tensor<1x12x1024x128xf32>, tensor<1x12x1024x128xf32>) -> tensor<1x12x1024x128xf32>
    %873 = tosa.mul %854, %865 : (tensor<1x2x1024x128xf32>, tensor<1x1x1024x128xf32>) -> tensor<1x2x1024x128xf32>
    %extracted_slice_155 = tensor.extract_slice %854[0, 0, 0, 0] [1, 2, 1024, 64] [1, 1, 1, 1] : tensor<1x2x1024x128xf32> to tensor<1x2x1024x64xf32>
    %extracted_slice_156 = tensor.extract_slice %854[0, 0, 0, 64] [1, 2, 1024, 64] [1, 1, 1, 1] : tensor<1x2x1024x128xf32> to tensor<1x2x1024x64xf32>
    %874 = tensor.empty() : tensor<1x2x1024x64xf32>
    %875 = linalg.negf ins(%extracted_slice_156 : tensor<1x2x1024x64xf32>) outs(%874 : tensor<1x2x1024x64xf32>) -> tensor<1x2x1024x64xf32>
    %876 = tensor.empty() : tensor<1x2x1024x128xf32>
    %inserted_slice_157 = tensor.insert_slice %875 into %876[0, 0, 0, 0] [1, 2, 1024, 64] [1, 1, 1, 1] : tensor<1x2x1024x64xf32> into tensor<1x2x1024x128xf32>
    %inserted_slice_158 = tensor.insert_slice %extracted_slice_155 into %inserted_slice_157[0, 0, 0, 64] [1, 2, 1024, 64] [1, 1, 1, 1] : tensor<1x2x1024x64xf32> into tensor<1x2x1024x128xf32>
    %877 = tosa.mul %inserted_slice_158, %866 : (tensor<1x2x1024x128xf32>, tensor<1x1x1024x128xf32>) -> tensor<1x2x1024x128xf32>
    %878 = tosa.add %873, %877 : (tensor<1x2x1024x128xf32>, tensor<1x2x1024x128xf32>) -> tensor<1x2x1024x128xf32>
    %879 = tosa.reshape %878 {new_shape = array<i64: 1, 2, 1, 1024, 128>} : (tensor<1x2x1024x128xf32>) -> tensor<1x2x1x1024x128xf32>
    %880 = "tosa.const"() <{value = dense<0.000000e+00> : tensor<1x2x6x1024x128xf32>}> : () -> tensor<1x2x6x1024x128xf32>
    %881 = tosa.add %879, %880 : (tensor<1x2x1x1024x128xf32>, tensor<1x2x6x1024x128xf32>) -> tensor<1x2x6x1024x128xf32>
    %882 = tosa.reshape %881 {new_shape = array<i64: 1, 12, 1024, 128>} : (tensor<1x2x6x1024x128xf32>) -> tensor<1x12x1024x128xf32>
    %883 = tosa.reshape %864 {new_shape = array<i64: 1, 2, 1, 1024, 128>} : (tensor<1x2x1024x128xf32>) -> tensor<1x2x1x1024x128xf32>
    %884 = "tosa.const"() <{value = dense<0.000000e+00> : tensor<1x2x6x1024x128xf32>}> : () -> tensor<1x2x6x1024x128xf32>
    %885 = tosa.add %883, %884 : (tensor<1x2x1x1024x128xf32>, tensor<1x2x6x1024x128xf32>) -> tensor<1x2x6x1024x128xf32>
    %886 = tosa.reshape %885 {new_shape = array<i64: 1, 12, 1024, 128>} : (tensor<1x2x6x1024x128xf32>) -> tensor<1x12x1024x128xf32>
    %887 = tosa.reshape %18 {new_shape = array<i64: 1, 1, 1024, 1024>} : (tensor<1024x1024xi1>) -> tensor<1x1x1024x1024xi1>
    %cst_159 = arith.constant 0xFF800000 : f32
    %cst_160 = arith.constant 0.000000e+00 : f32
    %888 = tensor.empty() : tensor<1x1x1024x1024xf32>
    %splat_161 = tensor.splat %cst_160 : tensor<1x1x1024x1024xf32>
    %splat_162 = tensor.splat %cst_159 : tensor<1x1x1024x1024xf32>
    %889 = linalg.generic {indexing_maps = [#map1, #map1, #map1, #map1], iterator_types = ["parallel", "parallel", "parallel", "parallel"]} ins(%887, %splat_161, %splat_162 : tensor<1x1x1024x1024xi1>, tensor<1x1x1024x1024xf32>, tensor<1x1x1024x1024xf32>) outs(%888 : tensor<1x1x1024x1024xf32>) {
    ^bb0(%in: i1, %in_699: f32, %in_700: f32, %out: f32):
      %3722 = arith.select %in, %in_699, %in_700 : f32
      linalg.yield %3722 : f32
    } -> tensor<1x1x1024x1024xf32>
    %cst_163 = arith.constant 0.000000e+00 : f32
    %splat_164 = tensor.splat %cst_163 : tensor<1024x1024xf32>
    %890 = tosa.reshape %889 {new_shape = array<i64: 1024, 1024>} : (tensor<1x1x1024x1024xf32>) -> tensor<1024x1024xf32>
    %891 = tosa.add %splat_164, %890 : (tensor<1024x1024xf32>, tensor<1024x1024xf32>) -> tensor<1024x1024xf32>
    %892 = "tosa.const"() <{value = dense<[0, 1, 3, 2]> : tensor<4xi32>}> : () -> tensor<4xi32>
    %893 = tosa.transpose %882, %892 : (tensor<1x12x1024x128xf32>, tensor<4xi32>) -> tensor<1x12x128x1024xf32>
    %894 = tosa.reshape %872 {new_shape = array<i64: 12, 1024, 128>} : (tensor<1x12x1024x128xf32>) -> tensor<12x1024x128xf32>
    %895 = tosa.reshape %893 {new_shape = array<i64: 12, 128, 1024>} : (tensor<1x12x128x1024xf32>) -> tensor<12x128x1024xf32>
    %896 = tosa.matmul %894, %895 : (tensor<12x1024x128xf32>, tensor<12x128x1024xf32>) -> tensor<12x1024x1024xf32>
    %cst_165 = arith.constant 0.0883883461 : f32
    %splat_166 = tensor.splat %cst_165 : tensor<12x1024x1024xf32>
    %897 = tosa.mul %896, %splat_166 : (tensor<12x1024x1024xf32>, tensor<12x1024x1024xf32>) -> tensor<12x1024x1024xf32>
    %898 = tosa.reshape %891 {new_shape = array<i64: 1, 1024, 1024>} : (tensor<1024x1024xf32>) -> tensor<1x1024x1024xf32>
    %899 = tosa.add %897, %898 : (tensor<12x1024x1024xf32>, tensor<1x1024x1024xf32>) -> tensor<12x1024x1024xf32>
    %900 = tosa.reduce_max %899 {axis = 2 : i32} : (tensor<12x1024x1024xf32>) -> tensor<12x1024x1xf32>
    %901 = tosa.sub %899, %900 : (tensor<12x1024x1024xf32>, tensor<12x1024x1xf32>) -> tensor<12x1024x1024xf32>
    %902 = math.exp %901 : tensor<12x1024x1024xf32>
    %903 = tosa.reduce_sum %902 {axis = 2 : i32} : (tensor<12x1024x1024xf32>) -> tensor<12x1024x1xf32>
    %904 = tosa.log %903 : (tensor<12x1024x1xf32>) -> tensor<12x1024x1xf32>
    %905 = tosa.add %900, %904 : (tensor<12x1024x1xf32>, tensor<12x1024x1xf32>) -> tensor<12x1024x1xf32>
    %906 = tosa.sub %899, %905 : (tensor<12x1024x1024xf32>, tensor<12x1024x1xf32>) -> tensor<12x1024x1024xf32>
    %907 = math.exp %906 : tensor<12x1024x1024xf32>
    %908 = tosa.reshape %905 {new_shape = array<i64: 1, 12, 1024>} : (tensor<12x1024x1xf32>) -> tensor<1x12x1024xf32>
    %909 = tosa.reshape %886 {new_shape = array<i64: 12, 1024, 128>} : (tensor<1x12x1024x128xf32>) -> tensor<12x1024x128xf32>
    %910 = tosa.matmul %907, %909 : (tensor<12x1024x1024xf32>, tensor<12x1024x128xf32>) -> tensor<12x1024x128xf32>
    %911 = tosa.reshape %910 {new_shape = array<i64: 1, 12, 1024, 128>} : (tensor<12x1024x128xf32>) -> tensor<1x12x1024x128xf32>
    %912 = "tosa.const"() <{value = dense<[0, 2, 1, 3]> : tensor<4xi32>}> : () -> tensor<4xi32>
    %913 = tosa.transpose %911, %912 : (tensor<1x12x1024x128xf32>, tensor<4xi32>) -> tensor<1x1024x12x128xf32>
    %914 = tosa.reshape %913 {new_shape = array<i64: 1, 1024, 1536>} : (tensor<1x1024x12x128xf32>) -> tensor<1x1024x1536xf32>
    %915 = "tosa.const"() <{value = dense<[1, 0]> : tensor<2xi32>}> : () -> tensor<2xi32>
    %916 = tosa.transpose %arg82, %915 : (tensor<1536x1536xf32>, tensor<2xi32>) -> tensor<1536x1536xf32>
    %917 = tosa.reshape %914 {new_shape = array<i64: 1024, 1536>} : (tensor<1x1024x1536xf32>) -> tensor<1024x1536xf32>
    %cst_167 = arith.constant dense<0.000000e+00> : tensor<1024x1536xf32>
    %918 = linalg.matmul {cast = #linalg.type_fn<cast_signed>} ins(%917, %916 : tensor<1024x1536xf32>, tensor<1536x1536xf32>) outs(%cst_167 : tensor<1024x1536xf32>) -> tensor<1024x1536xf32>
    %919 = tosa.reshape %918 {new_shape = array<i64: 1, 1024, 1536>} : (tensor<1024x1536xf32>) -> tensor<1x1024x1536xf32>
    %920 = tosa.add %821, %919 : (tensor<1x1024x1536xf32>, tensor<1x1024x1536xf32>) -> tensor<1x1024x1536xf32>
    %921 = tensor.empty() : tensor<1x1024x1536xf32>
    %c2_i32_168 = arith.constant 2 : i32
    %922 = linalg.generic {indexing_maps = [#map, #map], iterator_types = ["parallel", "parallel", "parallel"]} ins(%920 : tensor<1x1024x1536xf32>) outs(%921 : tensor<1x1024x1536xf32>) {
    ^bb0(%in: f32, %out: f32):
      %3722 = math.fpowi %in, %c2_i32_168 : f32, i32
      linalg.yield %3722 : f32
    } -> tensor<1x1024x1536xf32>
    %923 = tosa.reduce_sum %922 {axis = 2 : i32} : (tensor<1x1024x1536xf32>) -> tensor<1x1024x1xf32>
    %924 = "tosa.const"() <{value = dense<1.536000e+03> : tensor<1xf32>}> : () -> tensor<1xf32>
    %925 = tosa.reciprocal %924 : (tensor<1xf32>) -> tensor<1xf32>
    %926 = tosa.reshape %925 {new_shape = array<i64: 1, 1, 1>} : (tensor<1xf32>) -> tensor<1x1x1xf32>
    %927 = tosa.mul %926, %923 : (tensor<1x1x1xf32>, tensor<1x1024x1xf32>) -> tensor<1x1024x1xf32>
    %928 = "tosa.const"() <{value = dense<9.99999997E-7> : tensor<1x1024x1xf32>}> : () -> tensor<1x1024x1xf32>
    %929 = tosa.add %927, %928 : (tensor<1x1024x1xf32>, tensor<1x1024x1xf32>) -> tensor<1x1024x1xf32>
    %930 = tosa.rsqrt %929 : (tensor<1x1024x1xf32>) -> tensor<1x1024x1xf32>
    %931 = tosa.mul %920, %930 : (tensor<1x1024x1536xf32>, tensor<1x1024x1xf32>) -> tensor<1x1024x1536xf32>
    %932 = tosa.reshape %arg83 {new_shape = array<i64: 1, 1, 1536>} : (tensor<1536xf32>) -> tensor<1x1x1536xf32>
    %933 = tosa.mul %932, %931 : (tensor<1x1x1536xf32>, tensor<1x1024x1536xf32>) -> tensor<1x1024x1536xf32>
    %934 = "tosa.const"() <{value = dense<[1, 0]> : tensor<2xi32>}> : () -> tensor<2xi32>
    %935 = tosa.transpose %arg84, %934 : (tensor<8960x1536xf32>, tensor<2xi32>) -> tensor<1536x8960xf32>
    %936 = tosa.reshape %933 {new_shape = array<i64: 1024, 1536>} : (tensor<1x1024x1536xf32>) -> tensor<1024x1536xf32>
    %cst_169 = arith.constant dense<0.000000e+00> : tensor<1024x8960xf32>
    %937 = linalg.matmul {cast = #linalg.type_fn<cast_signed>} ins(%936, %935 : tensor<1024x1536xf32>, tensor<1536x8960xf32>) outs(%cst_169 : tensor<1024x8960xf32>) -> tensor<1024x8960xf32>
    %938 = tosa.reshape %937 {new_shape = array<i64: 1, 1024, 8960>} : (tensor<1024x8960xf32>) -> tensor<1x1024x8960xf32>
    %939 = tosa.sigmoid %938 : (tensor<1x1024x8960xf32>) -> tensor<1x1024x8960xf32>
    %940 = tosa.mul %938, %939 : (tensor<1x1024x8960xf32>, tensor<1x1024x8960xf32>) -> tensor<1x1024x8960xf32>
    %941 = "tosa.const"() <{value = dense<[1, 0]> : tensor<2xi32>}> : () -> tensor<2xi32>
    %942 = tosa.transpose %arg85, %941 : (tensor<8960x1536xf32>, tensor<2xi32>) -> tensor<1536x8960xf32>
    %943 = tosa.reshape %933 {new_shape = array<i64: 1024, 1536>} : (tensor<1x1024x1536xf32>) -> tensor<1024x1536xf32>
    %cst_170 = arith.constant dense<0.000000e+00> : tensor<1024x8960xf32>
    %944 = linalg.matmul {cast = #linalg.type_fn<cast_signed>} ins(%943, %942 : tensor<1024x1536xf32>, tensor<1536x8960xf32>) outs(%cst_170 : tensor<1024x8960xf32>) -> tensor<1024x8960xf32>
    %945 = tosa.reshape %944 {new_shape = array<i64: 1, 1024, 8960>} : (tensor<1024x8960xf32>) -> tensor<1x1024x8960xf32>
    %946 = tosa.mul %940, %945 : (tensor<1x1024x8960xf32>, tensor<1x1024x8960xf32>) -> tensor<1x1024x8960xf32>
    %947 = "tosa.const"() <{value = dense<[1, 0]> : tensor<2xi32>}> : () -> tensor<2xi32>
    %948 = tosa.transpose %arg86, %947 : (tensor<1536x8960xf32>, tensor<2xi32>) -> tensor<8960x1536xf32>
    %949 = tosa.reshape %946 {new_shape = array<i64: 1024, 8960>} : (tensor<1x1024x8960xf32>) -> tensor<1024x8960xf32>
    %cst_171 = arith.constant dense<0.000000e+00> : tensor<1024x1536xf32>
    %950 = linalg.matmul {cast = #linalg.type_fn<cast_signed>} ins(%949, %948 : tensor<1024x8960xf32>, tensor<8960x1536xf32>) outs(%cst_171 : tensor<1024x1536xf32>) -> tensor<1024x1536xf32>
    %951 = tosa.reshape %950 {new_shape = array<i64: 1, 1024, 1536>} : (tensor<1024x1536xf32>) -> tensor<1x1024x1536xf32>
    %952 = tosa.add %920, %951 : (tensor<1x1024x1536xf32>, tensor<1x1024x1536xf32>) -> tensor<1x1024x1536xf32>
    %953 = tensor.empty() : tensor<1x1024x1536xf32>
    %c2_i32_172 = arith.constant 2 : i32
    %954 = linalg.generic {indexing_maps = [#map, #map], iterator_types = ["parallel", "parallel", "parallel"]} ins(%952 : tensor<1x1024x1536xf32>) outs(%953 : tensor<1x1024x1536xf32>) {
    ^bb0(%in: f32, %out: f32):
      %3722 = math.fpowi %in, %c2_i32_172 : f32, i32
      linalg.yield %3722 : f32
    } -> tensor<1x1024x1536xf32>
    %955 = tosa.reduce_sum %954 {axis = 2 : i32} : (tensor<1x1024x1536xf32>) -> tensor<1x1024x1xf32>
    %956 = "tosa.const"() <{value = dense<1.536000e+03> : tensor<1xf32>}> : () -> tensor<1xf32>
    %957 = tosa.reciprocal %956 : (tensor<1xf32>) -> tensor<1xf32>
    %958 = tosa.reshape %957 {new_shape = array<i64: 1, 1, 1>} : (tensor<1xf32>) -> tensor<1x1x1xf32>
    %959 = tosa.mul %958, %955 : (tensor<1x1x1xf32>, tensor<1x1024x1xf32>) -> tensor<1x1024x1xf32>
    %960 = "tosa.const"() <{value = dense<9.99999997E-7> : tensor<1x1024x1xf32>}> : () -> tensor<1x1024x1xf32>
    %961 = tosa.add %959, %960 : (tensor<1x1024x1xf32>, tensor<1x1024x1xf32>) -> tensor<1x1024x1xf32>
    %962 = tosa.rsqrt %961 : (tensor<1x1024x1xf32>) -> tensor<1x1024x1xf32>
    %963 = tosa.mul %952, %962 : (tensor<1x1024x1536xf32>, tensor<1x1024x1xf32>) -> tensor<1x1024x1536xf32>
    %964 = tosa.reshape %arg87 {new_shape = array<i64: 1, 1, 1536>} : (tensor<1536xf32>) -> tensor<1x1x1536xf32>
    %965 = tosa.mul %964, %963 : (tensor<1x1x1536xf32>, tensor<1x1024x1536xf32>) -> tensor<1x1024x1536xf32>
    %966 = tosa.reshape %965 {new_shape = array<i64: 1024, 1536>} : (tensor<1x1024x1536xf32>) -> tensor<1024x1536xf32>
    %967 = "tosa.const"() <{value = dense<[1, 0]> : tensor<2xi32>}> : () -> tensor<2xi32>
    %968 = tosa.transpose %arg88, %967 : (tensor<1536x1536xf32>, tensor<2xi32>) -> tensor<1536x1536xf32>
    %cst_173 = arith.constant dense<0.000000e+00> : tensor<1024x1536xf32>
    %969 = linalg.matmul {cast = #linalg.type_fn<cast_signed>} ins(%966, %968 : tensor<1024x1536xf32>, tensor<1536x1536xf32>) outs(%cst_173 : tensor<1024x1536xf32>) -> tensor<1024x1536xf32>
    %970 = tosa.reshape %arg89 {new_shape = array<i64: 1, 1536>} : (tensor<1536xf32>) -> tensor<1x1536xf32>
    %971 = tosa.add %970, %969 : (tensor<1x1536xf32>, tensor<1024x1536xf32>) -> tensor<1024x1536xf32>
    %972 = tosa.reshape %971 {new_shape = array<i64: 1, 1024, 1536>} : (tensor<1024x1536xf32>) -> tensor<1x1024x1536xf32>
    %973 = tosa.reshape %972 {new_shape = array<i64: 1, 1024, 12, 128>} : (tensor<1x1024x1536xf32>) -> tensor<1x1024x12x128xf32>
    %974 = "tosa.const"() <{value = dense<[0, 2, 1, 3]> : tensor<4xi32>}> : () -> tensor<4xi32>
    %975 = tosa.transpose %973, %974 : (tensor<1x1024x12x128xf32>, tensor<4xi32>) -> tensor<1x12x1024x128xf32>
    %976 = tosa.reshape %965 {new_shape = array<i64: 1024, 1536>} : (tensor<1x1024x1536xf32>) -> tensor<1024x1536xf32>
    %977 = "tosa.const"() <{value = dense<[1, 0]> : tensor<2xi32>}> : () -> tensor<2xi32>
    %978 = tosa.transpose %arg90, %977 : (tensor<256x1536xf32>, tensor<2xi32>) -> tensor<1536x256xf32>
    %cst_174 = arith.constant dense<0.000000e+00> : tensor<1024x256xf32>
    %979 = linalg.matmul {cast = #linalg.type_fn<cast_signed>} ins(%976, %978 : tensor<1024x1536xf32>, tensor<1536x256xf32>) outs(%cst_174 : tensor<1024x256xf32>) -> tensor<1024x256xf32>
    %980 = tosa.reshape %arg91 {new_shape = array<i64: 1, 256>} : (tensor<256xf32>) -> tensor<1x256xf32>
    %981 = tosa.add %980, %979 : (tensor<1x256xf32>, tensor<1024x256xf32>) -> tensor<1024x256xf32>
    %982 = tosa.reshape %981 {new_shape = array<i64: 1, 1024, 256>} : (tensor<1024x256xf32>) -> tensor<1x1024x256xf32>
    %983 = tosa.reshape %982 {new_shape = array<i64: 1, 1024, 2, 128>} : (tensor<1x1024x256xf32>) -> tensor<1x1024x2x128xf32>
    %984 = "tosa.const"() <{value = dense<[0, 2, 1, 3]> : tensor<4xi32>}> : () -> tensor<4xi32>
    %985 = tosa.transpose %983, %984 : (tensor<1x1024x2x128xf32>, tensor<4xi32>) -> tensor<1x2x1024x128xf32>
    %986 = tosa.reshape %965 {new_shape = array<i64: 1024, 1536>} : (tensor<1x1024x1536xf32>) -> tensor<1024x1536xf32>
    %987 = "tosa.const"() <{value = dense<[1, 0]> : tensor<2xi32>}> : () -> tensor<2xi32>
    %988 = tosa.transpose %arg92, %987 : (tensor<256x1536xf32>, tensor<2xi32>) -> tensor<1536x256xf32>
    %cst_175 = arith.constant dense<0.000000e+00> : tensor<1024x256xf32>
    %989 = linalg.matmul {cast = #linalg.type_fn<cast_signed>} ins(%986, %988 : tensor<1024x1536xf32>, tensor<1536x256xf32>) outs(%cst_175 : tensor<1024x256xf32>) -> tensor<1024x256xf32>
    %990 = tosa.reshape %arg93 {new_shape = array<i64: 1, 256>} : (tensor<256xf32>) -> tensor<1x256xf32>
    %991 = tosa.add %990, %989 : (tensor<1x256xf32>, tensor<1024x256xf32>) -> tensor<1024x256xf32>
    %992 = tosa.reshape %991 {new_shape = array<i64: 1, 1024, 256>} : (tensor<1024x256xf32>) -> tensor<1x1024x256xf32>
    %993 = tosa.reshape %992 {new_shape = array<i64: 1, 1024, 2, 128>} : (tensor<1x1024x256xf32>) -> tensor<1x1024x2x128xf32>
    %994 = "tosa.const"() <{value = dense<[0, 2, 1, 3]> : tensor<4xi32>}> : () -> tensor<4xi32>
    %995 = tosa.transpose %993, %994 : (tensor<1x1024x2x128xf32>, tensor<4xi32>) -> tensor<1x2x1024x128xf32>
    %996 = tosa.reshape %32 {new_shape = array<i64: 1, 1, 1024, 128>} : (tensor<1x1024x128xf32>) -> tensor<1x1x1024x128xf32>
    %997 = tosa.reshape %35 {new_shape = array<i64: 1, 1, 1024, 128>} : (tensor<1x1024x128xf32>) -> tensor<1x1x1024x128xf32>
    %998 = tosa.mul %975, %996 : (tensor<1x12x1024x128xf32>, tensor<1x1x1024x128xf32>) -> tensor<1x12x1024x128xf32>
    %extracted_slice_176 = tensor.extract_slice %975[0, 0, 0, 0] [1, 12, 1024, 64] [1, 1, 1, 1] : tensor<1x12x1024x128xf32> to tensor<1x12x1024x64xf32>
    %extracted_slice_177 = tensor.extract_slice %975[0, 0, 0, 64] [1, 12, 1024, 64] [1, 1, 1, 1] : tensor<1x12x1024x128xf32> to tensor<1x12x1024x64xf32>
    %999 = tensor.empty() : tensor<1x12x1024x64xf32>
    %1000 = linalg.negf ins(%extracted_slice_177 : tensor<1x12x1024x64xf32>) outs(%999 : tensor<1x12x1024x64xf32>) -> tensor<1x12x1024x64xf32>
    %1001 = tensor.empty() : tensor<1x12x1024x128xf32>
    %inserted_slice_178 = tensor.insert_slice %1000 into %1001[0, 0, 0, 0] [1, 12, 1024, 64] [1, 1, 1, 1] : tensor<1x12x1024x64xf32> into tensor<1x12x1024x128xf32>
    %inserted_slice_179 = tensor.insert_slice %extracted_slice_176 into %inserted_slice_178[0, 0, 0, 64] [1, 12, 1024, 64] [1, 1, 1, 1] : tensor<1x12x1024x64xf32> into tensor<1x12x1024x128xf32>
    %1002 = tosa.mul %inserted_slice_179, %997 : (tensor<1x12x1024x128xf32>, tensor<1x1x1024x128xf32>) -> tensor<1x12x1024x128xf32>
    %1003 = tosa.add %998, %1002 : (tensor<1x12x1024x128xf32>, tensor<1x12x1024x128xf32>) -> tensor<1x12x1024x128xf32>
    %1004 = tosa.mul %985, %996 : (tensor<1x2x1024x128xf32>, tensor<1x1x1024x128xf32>) -> tensor<1x2x1024x128xf32>
    %extracted_slice_180 = tensor.extract_slice %985[0, 0, 0, 0] [1, 2, 1024, 64] [1, 1, 1, 1] : tensor<1x2x1024x128xf32> to tensor<1x2x1024x64xf32>
    %extracted_slice_181 = tensor.extract_slice %985[0, 0, 0, 64] [1, 2, 1024, 64] [1, 1, 1, 1] : tensor<1x2x1024x128xf32> to tensor<1x2x1024x64xf32>
    %1005 = tensor.empty() : tensor<1x2x1024x64xf32>
    %1006 = linalg.negf ins(%extracted_slice_181 : tensor<1x2x1024x64xf32>) outs(%1005 : tensor<1x2x1024x64xf32>) -> tensor<1x2x1024x64xf32>
    %1007 = tensor.empty() : tensor<1x2x1024x128xf32>
    %inserted_slice_182 = tensor.insert_slice %1006 into %1007[0, 0, 0, 0] [1, 2, 1024, 64] [1, 1, 1, 1] : tensor<1x2x1024x64xf32> into tensor<1x2x1024x128xf32>
    %inserted_slice_183 = tensor.insert_slice %extracted_slice_180 into %inserted_slice_182[0, 0, 0, 64] [1, 2, 1024, 64] [1, 1, 1, 1] : tensor<1x2x1024x64xf32> into tensor<1x2x1024x128xf32>
    %1008 = tosa.mul %inserted_slice_183, %997 : (tensor<1x2x1024x128xf32>, tensor<1x1x1024x128xf32>) -> tensor<1x2x1024x128xf32>
    %1009 = tosa.add %1004, %1008 : (tensor<1x2x1024x128xf32>, tensor<1x2x1024x128xf32>) -> tensor<1x2x1024x128xf32>
    %1010 = tosa.reshape %1009 {new_shape = array<i64: 1, 2, 1, 1024, 128>} : (tensor<1x2x1024x128xf32>) -> tensor<1x2x1x1024x128xf32>
    %1011 = "tosa.const"() <{value = dense<0.000000e+00> : tensor<1x2x6x1024x128xf32>}> : () -> tensor<1x2x6x1024x128xf32>
…
    %3370 = tosa.add %3368, %3369 : (tensor<1x2x1x1024x128xf32>, tensor<1x2x6x1024x128xf32>) -> tensor<1x2x6x1024x128xf32>
    %3371 = tosa.reshape %3370 {new_shape = array<i64: 1, 12, 1024, 128>} : (tensor<1x2x6x1024x128xf32>) -> tensor<1x12x1024x128xf32>
    %3372 = tosa.reshape %3353 {new_shape = array<i64: 1, 2, 1, 1024, 128>} : (tensor<1x2x1024x128xf32>) -> tensor<1x2x1x1024x128xf32>
    %3373 = "tosa.const"() <{value = dense<0.000000e+00> : tensor<1x2x6x1024x128xf32>}> : () -> tensor<1x2x6x1024x128xf32>
    %3374 = tosa.add %3372, %3373 : (tensor<1x2x1x1024x128xf32>, tensor<1x2x6x1024x128xf32>) -> tensor<1x2x6x1024x128xf32>
    %3375 = tosa.reshape %3374 {new_shape = array<i64: 1, 12, 1024, 128>} : (tensor<1x2x6x1024x128xf32>) -> tensor<1x12x1024x128xf32>
    %3376 = tosa.reshape %18 {new_shape = array<i64: 1, 1, 1024, 1024>} : (tensor<1024x1024xi1>) -> tensor<1x1x1024x1024xi1>
    %cst_634 = arith.constant 0xFF800000 : f32
    %cst_635 = arith.constant 0.000000e+00 : f32
    %3377 = tensor.empty() : tensor<1x1x1024x1024xf32>
    %splat_636 = tensor.splat %cst_635 : tensor<1x1x1024x1024xf32>
    %splat_637 = tensor.splat %cst_634 : tensor<1x1x1024x1024xf32>
    %3378 = linalg.generic {indexing_maps = [#map1, #map1, #map1, #map1], iterator_types = ["parallel", "parallel", "parallel", "parallel"]} ins(%3376, %splat_636, %splat_637 : tensor<1x1x1024x1024xi1>, tensor<1x1x1024x1024xf32>, tensor<1x1x1024x1024xf32>) outs(%3377 : tensor<1x1x1024x1024xf32>) {
    ^bb0(%in: i1, %in_699: f32, %in_700: f32, %out: f32):
      %3722 = arith.select %in, %in_699, %in_700 : f32
      linalg.yield %3722 : f32
    } -> tensor<1x1x1024x1024xf32>
    %cst_638 = arith.constant 0.000000e+00 : f32
    %splat_639 = tensor.splat %cst_638 : tensor<1024x1024xf32>
    %3379 = tosa.reshape %3378 {new_shape = array<i64: 1024, 1024>} : (tensor<1x1x1024x1024xf32>) -> tensor<1024x1024xf32>
    %3380 = tosa.add %splat_639, %3379 : (tensor<1024x1024xf32>, tensor<1024x1024xf32>) -> tensor<1024x1024xf32>
    %3381 = "tosa.const"() <{value = dense<[0, 1, 3, 2]> : tensor<4xi32>}> : () -> tensor<4xi32>
    %3382 = tosa.transpose %3371, %3381 : (tensor<1x12x1024x128xf32>, tensor<4xi32>) -> tensor<1x12x128x1024xf32>
    %3383 = tosa.reshape %3361 {new_shape = array<i64: 12, 1024, 128>} : (tensor<1x12x1024x128xf32>) -> tensor<12x1024x128xf32>
    %3384 = tosa.reshape %3382 {new_shape = array<i64: 12, 128, 1024>} : (tensor<1x12x128x1024xf32>) -> tensor<12x128x1024xf32>
    %3385 = tosa.matmul %3383, %3384 : (tensor<12x1024x128xf32>, tensor<12x128x1024xf32>) -> tensor<12x1024x1024xf32>
    %cst_640 = arith.constant 0.0883883461 : f32
    %splat_641 = tensor.splat %cst_640 : tensor<12x1024x1024xf32>
    %3386 = tosa.mul %3385, %splat_641 : (tensor<12x1024x1024xf32>, tensor<12x1024x1024xf32>) -> tensor<12x1024x1024xf32>
    %3387 = tosa.reshape %3380 {new_shape = array<i64: 1, 1024, 1024>} : (tensor<1024x1024xf32>) -> tensor<1x1024x1024xf32>
    %3388 = tosa.add %3386, %3387 : (tensor<12x1024x1024xf32>, tensor<1x1024x1024xf32>) -> tensor<12x1024x1024xf32>
    %3389 = tosa.reduce_max %3388 {axis = 2 : i32} : (tensor<12x1024x1024xf32>) -> tensor<12x1024x1xf32>
    %3390 = tosa.sub %3388, %3389 : (tensor<12x1024x1024xf32>, tensor<12x1024x1xf32>) -> tensor<12x1024x1024xf32>
    %3391 = math.exp %3390 : tensor<12x1024x1024xf32>
    %3392 = tosa.reduce_sum %3391 {axis = 2 : i32} : (tensor<12x1024x1024xf32>) -> tensor<12x1024x1xf32>
    %3393 = tosa.log %3392 : (tensor<12x1024x1xf32>) -> tensor<12x1024x1xf32>
    %3394 = tosa.add %3389, %3393 : (tensor<12x1024x1xf32>, tensor<12x1024x1xf32>) -> tensor<12x1024x1xf32>
    %3395 = tosa.sub %3388, %3394 : (tensor<12x1024x1024xf32>, tensor<12x1024x1xf32>) -> tensor<12x1024x1024xf32>
    %3396 = math.exp %3395 : tensor<12x1024x1024xf32>
    %3397 = tosa.reshape %3394 {new_shape = array<i64: 1, 12, 1024>} : (tensor<12x1024x1xf32>) -> tensor<1x12x1024xf32>
    %3398 = tosa.reshape %3375 {new_shape = array<i64: 12, 1024, 128>} : (tensor<1x12x1024x128xf32>) -> tensor<12x1024x128xf32>
    %3399 = tosa.matmul %3396, %3398 : (tensor<12x1024x1024xf32>, tensor<12x1024x128xf32>) -> tensor<12x1024x128xf32>
    %3400 = tosa.reshape %3399 {new_shape = array<i64: 1, 12, 1024, 128>} : (tensor<12x1024x128xf32>) -> tensor<1x12x1024x128xf32>
    %3401 = "tosa.const"() <{value = dense<[0, 2, 1, 3]> : tensor<4xi32>}> : () -> tensor<4xi32>
    %3402 = tosa.transpose %3400, %3401 : (tensor<1x12x1024x128xf32>, tensor<4xi32>) -> tensor<1x1024x12x128xf32>
    %3403 = tosa.reshape %3402 {new_shape = array<i64: 1, 1024, 1536>} : (tensor<1x1024x12x128xf32>) -> tensor<1x1024x1536xf32>
    %3404 = "tosa.const"() <{value = dense<[1, 0]> : tensor<2xi32>}> : () -> tensor<2xi32>
    %3405 = tosa.transpose %arg310, %3404 : (tensor<1536x1536xf32>, tensor<2xi32>) -> tensor<1536x1536xf32>
    %3406 = tosa.reshape %3403 {new_shape = array<i64: 1024, 1536>} : (tensor<1x1024x1536xf32>) -> tensor<1024x1536xf32>
    %cst_642 = arith.constant dense<0.000000e+00> : tensor<1024x1536xf32>
    %3407 = linalg.matmul {cast = #linalg.type_fn<cast_signed>} ins(%3406, %3405 : tensor<1024x1536xf32>, tensor<1536x1536xf32>) outs(%cst_642 : tensor<1024x1536xf32>) -> tensor<1024x1536xf32>
    %3408 = tosa.reshape %3407 {new_shape = array<i64: 1, 1024, 1536>} : (tensor<1024x1536xf32>) -> tensor<1x1024x1536xf32>
    %3409 = tosa.add %3310, %3408 : (tensor<1x1024x1536xf32>, tensor<1x1024x1536xf32>) -> tensor<1x1024x1536xf32>
    %3410 = tensor.empty() : tensor<1x1024x1536xf32>
    %c2_i32_643 = arith.constant 2 : i32
    %3411 = linalg.generic {indexing_maps = [#map, #map], iterator_types = ["parallel", "parallel", "parallel"]} ins(%3409 : tensor<1x1024x1536xf32>) outs(%3410 : tensor<1x1024x1536xf32>) {
    ^bb0(%in: f32, %out: f32):
      %3722 = math.fpowi %in, %c2_i32_643 : f32, i32
      linalg.yield %3722 : f32
    } -> tensor<1x1024x1536xf32>
    %3412 = tosa.reduce_sum %3411 {axis = 2 : i32} : (tensor<1x1024x1536xf32>) -> tensor<1x1024x1xf32>
    %3413 = "tosa.const"() <{value = dense<1.536000e+03> : tensor<1xf32>}> : () -> tensor<1xf32>
    %3414 = tosa.reciprocal %3413 : (tensor<1xf32>) -> tensor<1xf32>
    %3415 = tosa.reshape %3414 {new_shape = array<i64: 1, 1, 1>} : (tensor<1xf32>) -> tensor<1x1x1xf32>
    %3416 = tosa.mul %3415, %3412 : (tensor<1x1x1xf32>, tensor<1x1024x1xf32>) -> tensor<1x1024x1xf32>
    %3417 = "tosa.const"() <{value = dense<9.99999997E-7> : tensor<1x1024x1xf32>}> : () -> tensor<1x1024x1xf32>
    %3418 = tosa.add %3416, %3417 : (tensor<1x1024x1xf32>, tensor<1x1024x1xf32>) -> tensor<1x1024x1xf32>
    %3419 = tosa.rsqrt %3418 : (tensor<1x1024x1xf32>) -> tensor<1x1024x1xf32>
    %3420 = tosa.mul %3409, %3419 : (tensor<1x1024x1536xf32>, tensor<1x1024x1xf32>) -> tensor<1x1024x1536xf32>
    %3421 = tosa.reshape %arg311 {new_shape = array<i64: 1, 1, 1536>} : (tensor<1536xf32>) -> tensor<1x1x1536xf32>
    %3422 = tosa.mul %3421, %3420 : (tensor<1x1x1536xf32>, tensor<1x1024x1536xf32>) -> tensor<1x1024x1536xf32>
    %3423 = "tosa.const"() <{value = dense<[1, 0]> : tensor<2xi32>}> : () -> tensor<2xi32>
    %3424 = tosa.transpose %arg312, %3423 : (tensor<8960x1536xf32>, tensor<2xi32>) -> tensor<1536x8960xf32>
    %3425 = tosa.reshape %3422 {new_shape = array<i64: 1024, 1536>} : (tensor<1x1024x1536xf32>) -> tensor<1024x1536xf32>
    %cst_644 = arith.constant dense<0.000000e+00> : tensor<1024x8960xf32>
    %3426 = linalg.matmul {cast = #linalg.type_fn<cast_signed>} ins(%3425, %3424 : tensor<1024x1536xf32>, tensor<1536x8960xf32>) outs(%cst_644 : tensor<1024x8960xf32>) -> tensor<1024x8960xf32>
    %3427 = tosa.reshape %3426 {new_shape = array<i64: 1, 1024, 8960>} : (tensor<1024x8960xf32>) -> tensor<1x1024x8960xf32>
    %3428 = tosa.sigmoid %3427 : (tensor<1x1024x8960xf32>) -> tensor<1x1024x8960xf32>
    %3429 = tosa.mul %3427, %3428 : (tensor<1x1024x8960xf32>, tensor<1x1024x8960xf32>) -> tensor<1x1024x8960xf32>
    %3430 = "tosa.const"() <{value = dense<[1, 0]> : tensor<2xi32>}> : () -> tensor<2xi32>
    %3431 = tosa.transpose %arg313, %3430 : (tensor<8960x1536xf32>, tensor<2xi32>) -> tensor<1536x8960xf32>
    %3432 = tosa.reshape %3422 {new_shape = array<i64: 1024, 1536>} : (tensor<1x1024x1536xf32>) -> tensor<1024x1536xf32>
    %cst_645 = arith.constant dense<0.000000e+00> : tensor<1024x8960xf32>
    %3433 = linalg.matmul {cast = #linalg.type_fn<cast_signed>} ins(%3432, %3431 : tensor<1024x1536xf32>, tensor<1536x8960xf32>) outs(%cst_645 : tensor<1024x8960xf32>) -> tensor<1024x8960xf32>
    %3434 = tosa.reshape %3433 {new_shape = array<i64: 1, 1024, 8960>} : (tensor<1024x8960xf32>) -> tensor<1x1024x8960xf32>
    %3435 = tosa.mul %3429, %3434 : (tensor<1x1024x8960xf32>, tensor<1x1024x8960xf32>) -> tensor<1x1024x8960xf32>
    %3436 = "tosa.const"() <{value = dense<[1, 0]> : tensor<2xi32>}> : () -> tensor<2xi32>
    %3437 = tosa.transpose %arg314, %3436 : (tensor<1536x8960xf32>, tensor<2xi32>) -> tensor<8960x1536xf32>
    %3438 = tosa.reshape %3435 {new_shape = array<i64: 1024, 8960>} : (tensor<1x1024x8960xf32>) -> tensor<1024x8960xf32>
    %cst_646 = arith.constant dense<0.000000e+00> : tensor<1024x1536xf32>
    %3439 = linalg.matmul {cast = #linalg.type_fn<cast_signed>} ins(%3438, %3437 : tensor<1024x8960xf32>, tensor<8960x1536xf32>) outs(%cst_646 : tensor<1024x1536xf32>) -> tensor<1024x1536xf32>
    %3440 = tosa.reshape %3439 {new_shape = array<i64: 1, 1024, 1536>} : (tensor<1024x1536xf32>) -> tensor<1x1024x1536xf32>
    %3441 = tosa.add %3409, %3440 : (tensor<1x1024x1536xf32>, tensor<1x1024x1536xf32>) -> tensor<1x1024x1536xf32>
    %3442 = tensor.empty() : tensor<1x1024x1536xf32>
    %c2_i32_647 = arith.constant 2 : i32
    %3443 = linalg.generic {indexing_maps = [#map, #map], iterator_types = ["parallel", "parallel", "parallel"]} ins(%3441 : tensor<1x1024x1536xf32>) outs(%3442 : tensor<1x1024x1536xf32>) {
    ^bb0(%in: f32, %out: f32):
      %3722 = math.fpowi %in, %c2_i32_647 : f32, i32
      linalg.yield %3722 : f32
    } -> tensor<1x1024x1536xf32>
    %3444 = tosa.reduce_sum %3443 {axis = 2 : i32} : (tensor<1x1024x1536xf32>) -> tensor<1x1024x1xf32>
    %3445 = "tosa.const"() <{value = dense<1.536000e+03> : tensor<1xf32>}> : () -> tensor<1xf32>
    %3446 = tosa.reciprocal %3445 : (tensor<1xf32>) -> tensor<1xf32>
    %3447 = tosa.reshape %3446 {new_shape = array<i64: 1, 1, 1>} : (tensor<1xf32>) -> tensor<1x1x1xf32>
    %3448 = tosa.mul %3447, %3444 : (tensor<1x1x1xf32>, tensor<1x1024x1xf32>) -> tensor<1x1024x1xf32>
    %3449 = "tosa.const"() <{value = dense<9.99999997E-7> : tensor<1x1024x1xf32>}> : () -> tensor<1x1024x1xf32>
    %3450 = tosa.add %3448, %3449 : (tensor<1x1024x1xf32>, tensor<1x1024x1xf32>) -> tensor<1x1024x1xf32>
    %3451 = tosa.rsqrt %3450 : (tensor<1x1024x1xf32>) -> tensor<1x1024x1xf32>
    %3452 = tosa.mul %3441, %3451 : (tensor<1x1024x1536xf32>, tensor<1x1024x1xf32>) -> tensor<1x1024x1536xf32>
    %3453 = tosa.reshape %arg315 {new_shape = array<i64: 1, 1, 1536>} : (tensor<1536xf32>) -> tensor<1x1x1536xf32>
    %3454 = tosa.mul %3453, %3452 : (tensor<1x1x1536xf32>, tensor<1x1024x1536xf32>) -> tensor<1x1024x1536xf32>
    %3455 = tosa.reshape %3454 {new_shape = array<i64: 1024, 1536>} : (tensor<1x1024x1536xf32>) -> tensor<1024x1536xf32>
    %3456 = "tosa.const"() <{value = dense<[1, 0]> : tensor<2xi32>}> : () -> tensor<2xi32>
    %3457 = tosa.transpose %arg316, %3456 : (tensor<1536x1536xf32>, tensor<2xi32>) -> tensor<1536x1536xf32>
    %cst_648 = arith.constant dense<0.000000e+00> : tensor<1024x1536xf32>
    %3458 = linalg.matmul {cast = #linalg.type_fn<cast_signed>} ins(%3455, %3457 : tensor<1024x1536xf32>, tensor<1536x1536xf32>) outs(%cst_648 : tensor<1024x1536xf32>) -> tensor<1024x1536xf32>
    %3459 = tosa.reshape %arg317 {new_shape = array<i64: 1, 1536>} : (tensor<1536xf32>) -> tensor<1x1536xf32>
    %3460 = tosa.add %3459, %3458 : (tensor<1x1536xf32>, tensor<1024x1536xf32>) -> tensor<1024x1536xf32>
    %3461 = tosa.reshape %3460 {new_shape = array<i64: 1, 1024, 1536>} : (tensor<1024x1536xf32>) -> tensor<1x1024x1536xf32>
    %3462 = tosa.reshape %3461 {new_shape = array<i64: 1, 1024, 12, 128>} : (tensor<1x1024x1536xf32>) -> tensor<1x1024x12x128xf32>
    %3463 = "tosa.const"() <{value = dense<[0, 2, 1, 3]> : tensor<4xi32>}> : () -> tensor<4xi32>
    %3464 = tosa.transpose %3462, %3463 : (tensor<1x1024x12x128xf32>, tensor<4xi32>) -> tensor<1x12x1024x128xf32>
    %3465 = tosa.reshape %3454 {new_shape = array<i64: 1024, 1536>} : (tensor<1x1024x1536xf32>) -> tensor<1024x1536xf32>
    %3466 = "tosa.const"() <{value = dense<[1, 0]> : tensor<2xi32>}> : () -> tensor<2xi32>
    %3467 = tosa.transpose %arg318, %3466 : (tensor<256x1536xf32>, tensor<2xi32>) -> tensor<1536x256xf32>
    %cst_649 = arith.constant dense<0.000000e+00> : tensor<1024x256xf32>
    %3468 = linalg.matmul {cast = #linalg.type_fn<cast_signed>} ins(%3465, %3467 : tensor<1024x1536xf32>, tensor<1536x256xf32>) outs(%cst_649 : tensor<1024x256xf32>) -> tensor<1024x256xf32>
    %3469 = tosa.reshape %arg319 {new_shape = array<i64: 1, 256>} : (tensor<256xf32>) -> tensor<1x256xf32>
    %3470 = tosa.add %3469, %3468 : (tensor<1x256xf32>, tensor<1024x256xf32>) -> tensor<1024x256xf32>
    %3471 = tosa.reshape %3470 {new_shape = array<i64: 1, 1024, 256>} : (tensor<1024x256xf32>) -> tensor<1x1024x256xf32>
    %3472 = tosa.reshape %3471 {new_shape = array<i64: 1, 1024, 2, 128>} : (tensor<1x1024x256xf32>) -> tensor<1x1024x2x128xf32>
    %3473 = "tosa.const"() <{value = dense<[0, 2, 1, 3]> : tensor<4xi32>}> : () -> tensor<4xi32>
    %3474 = tosa.transpose %3472, %3473 : (tensor<1x1024x2x128xf32>, tensor<4xi32>) -> tensor<1x2x1024x128xf32>
    %3475 = tosa.reshape %3454 {new_shape = array<i64: 1024, 1536>} : (tensor<1x1024x1536xf32>) -> tensor<1024x1536xf32>
    %3476 = "tosa.const"() <{value = dense<[1, 0]> : tensor<2xi32>}> : () -> tensor<2xi32>
    %3477 = tosa.transpose %arg320, %3476 : (tensor<256x1536xf32>, tensor<2xi32>) -> tensor<1536x256xf32>
    %cst_650 = arith.constant dense<0.000000e+00> : tensor<1024x256xf32>
    %3478 = linalg.matmul {cast = #linalg.type_fn<cast_signed>} ins(%3475, %3477 : tensor<1024x1536xf32>, tensor<1536x256xf32>) outs(%cst_650 : tensor<1024x256xf32>) -> tensor<1024x256xf32>
    %3479 = tosa.reshape %arg321 {new_shape = array<i64: 1, 256>} : (tensor<256xf32>) -> tensor<1x256xf32>
    %3480 = tosa.add %3479, %3478 : (tensor<1x256xf32>, tensor<1024x256xf32>) -> tensor<1024x256xf32>
    %3481 = tosa.reshape %3480 {new_shape = array<i64: 1, 1024, 256>} : (tensor<1024x256xf32>) -> tensor<1x1024x256xf32>
    %3482 = tosa.reshape %3481 {new_shape = array<i64: 1, 1024, 2, 128>} : (tensor<1x1024x256xf32>) -> tensor<1x1024x2x128xf32>
    %3483 = "tosa.const"() <{value = dense<[0, 2, 1, 3]> : tensor<4xi32>}> : () -> tensor<4xi32>
    %3484 = tosa.transpose %3482, %3483 : (tensor<1x1024x2x128xf32>, tensor<4xi32>) -> tensor<1x2x1024x128xf32>
    %3485 = tosa.reshape %32 {new_shape = array<i64: 1, 1, 1024, 128>} : (tensor<1x1024x128xf32>) -> tensor<1x1x1024x128xf32>
    %3486 = tosa.reshape %35 {new_shape = array<i64: 1, 1, 1024, 128>} : (tensor<1x1024x128xf32>) -> tensor<1x1x1024x128xf32>
    %3487 = tosa.mul %3464, %3485 : (tensor<1x12x1024x128xf32>, tensor<1x1x1024x128xf32>) -> tensor<1x12x1024x128xf32>
    %extracted_slice_651 = tensor.extract_slice %3464[0, 0, 0, 0] [1, 12, 1024, 64] [1, 1, 1, 1] : tensor<1x12x1024x128xf32> to tensor<1x12x1024x64xf32>
    %extracted_slice_652 = tensor.extract_slice %3464[0, 0, 0, 64] [1, 12, 1024, 64] [1, 1, 1, 1] : tensor<1x12x1024x128xf32> to tensor<1x12x1024x64xf32>
    %3488 = tensor.empty() : tensor<1x12x1024x64xf32>
    %3489 = linalg.negf ins(%extracted_slice_652 : tensor<1x12x1024x64xf32>) outs(%3488 : tensor<1x12x1024x64xf32>) -> tensor<1x12x1024x64xf32>
    %3490 = tensor.empty() : tensor<1x12x1024x128xf32>
    %inserted_slice_653 = tensor.insert_slice %3489 into %3490[0, 0, 0, 0] [1, 12, 1024, 64] [1, 1, 1, 1] : tensor<1x12x1024x64xf32> into tensor<1x12x1024x128xf32>
    %inserted_slice_654 = tensor.insert_slice %extracted_slice_651 into %inserted_slice_653[0, 0, 0, 64] [1, 12, 1024, 64] [1, 1, 1, 1] : tensor<1x12x1024x64xf32> into tensor<1x12x1024x128xf32>
    %3491 = tosa.mul %inserted_slice_654, %3486 : (tensor<1x12x1024x128xf32>, tensor<1x1x1024x128xf32>) -> tensor<1x12x1024x128xf32>
    %3492 = tosa.add %3487, %3491 : (tensor<1x12x1024x128xf32>, tensor<1x12x1024x128xf32>) -> tensor<1x12x1024x128xf32>
    %3493 = tosa.mul %3474, %3485 : (tensor<1x2x1024x128xf32>, tensor<1x1x1024x128xf32>) -> tensor<1x2x1024x128xf32>
    %extracted_slice_655 = tensor.extract_slice %3474[0, 0, 0, 0] [1, 2, 1024, 64] [1, 1, 1, 1] : tensor<1x2x1024x128xf32> to tensor<1x2x1024x64xf32>
    %extracted_slice_656 = tensor.extract_slice %3474[0, 0, 0, 64] [1, 2, 1024, 64] [1, 1, 1, 1] : tensor<1x2x1024x128xf32> to tensor<1x2x1024x64xf32>
    %3494 = tensor.empty() : tensor<1x2x1024x64xf32>
    %3495 = linalg.negf ins(%extracted_slice_656 : tensor<1x2x1024x64xf32>) outs(%3494 : tensor<1x2x1024x64xf32>) -> tensor<1x2x1024x64xf32>
    %3496 = tensor.empty() : tensor<1x2x1024x128xf32>
    %inserted_slice_657 = tensor.insert_slice %3495 into %3496[0, 0, 0, 0] [1, 2, 1024, 64] [1, 1, 1, 1] : tensor<1x2x1024x64xf32> into tensor<1x2x1024x128xf32>
    %inserted_slice_658 = tensor.insert_slice %extracted_slice_655 into %inserted_slice_657[0, 0, 0, 64] [1, 2, 1024, 64] [1, 1, 1, 1] : tensor<1x2x1024x64xf32> into tensor<1x2x1024x128xf32>
    %3497 = tosa.mul %inserted_slice_658, %3486 : (tensor<1x2x1024x128xf32>, tensor<1x1x1024x128xf32>) -> tensor<1x2x1024x128xf32>
    %3498 = tosa.add %3493, %3497 : (tensor<1x2x1024x128xf32>, tensor<1x2x1024x128xf32>) -> tensor<1x2x1024x128xf32>
    %3499 = tosa.reshape %3498 {new_shape = array<i64: 1, 2, 1, 1024, 128>} : (tensor<1x2x1024x128xf32>) -> tensor<1x2x1x1024x128xf32>
    %3500 = "tosa.const"() <{value = dense<0.000000e+00> : tensor<1x2x6x1024x128xf32>}> : () -> tensor<1x2x6x1024x128xf32>
    %3501 = tosa.add %3499, %3500 : (tensor<1x2x1x1024x128xf32>, tensor<1x2x6x1024x128xf32>) -> tensor<1x2x6x1024x128xf32>
    %3502 = tosa.reshape %3501 {new_shape = array<i64: 1, 12, 1024, 128>} : (tensor<1x2x6x1024x128xf32>) -> tensor<1x12x1024x128xf32>
    %3503 = tosa.reshape %3484 {new_shape = array<i64: 1, 2, 1, 1024, 128>} : (tensor<1x2x1024x128xf32>) -> tensor<1x2x1x1024x128xf32>
    %3504 = "tosa.const"() <{value = dense<0.000000e+00> : tensor<1x2x6x1024x128xf32>}> : () -> tensor<1x2x6x1024x128xf32>
    %3505 = tosa.add %3503, %3504 : (tensor<1x2x1x1024x128xf32>, tensor<1x2x6x1024x128xf32>) -> tensor<1x2x6x1024x128xf32>
    %3506 = tosa.reshape %3505 {new_shape = array<i64: 1, 12, 1024, 128>} : (tensor<1x2x6x1024x128xf32>) -> tensor<1x12x1024x128xf32>
    %3507 = tosa.reshape %18 {new_shape = array<i64: 1, 1, 1024, 1024>} : (tensor<1024x1024xi1>) -> tensor<1x1x1024x1024xi1>
    %cst_659 = arith.constant 0xFF800000 : f32
    %cst_660 = arith.constant 0.000000e+00 : f32
    %3508 = tensor.empty() : tensor<1x1x1024x1024xf32>
    %splat_661 = tensor.splat %cst_660 : tensor<1x1x1024x1024xf32>
    %splat_662 = tensor.splat %cst_659 : tensor<1x1x1024x1024xf32>
    %3509 = linalg.generic {indexing_maps = [#map1, #map1, #map1, #map1], iterator_types = ["parallel", "parallel", "parallel", "parallel"]} ins(%3507, %splat_661, %splat_662 : tensor<1x1x1024x1024xi1>, tensor<1x1x1024x1024xf32>, tensor<1x1x1024x1024xf32>) outs(%3508 : tensor<1x1x1024x1024xf32>) {
    ^bb0(%in: i1, %in_699: f32, %in_700: f32, %out: f32):
      %3722 = arith.select %in, %in_699, %in_700 : f32
      linalg.yield %3722 : f32
    } -> tensor<1x1x1024x1024xf32>
    %cst_663 = arith.constant 0.000000e+00 : f32
    %splat_664 = tensor.splat %cst_663 : tensor<1024x1024xf32>
    %3510 = tosa.reshape %3509 {new_shape = array<i64: 1024, 1024>} : (tensor<1x1x1024x1024xf32>) -> tensor<1024x1024xf32>
    %3511 = tosa.add %splat_664, %3510 : (tensor<1024x1024xf32>, tensor<1024x1024xf32>) -> tensor<1024x1024xf32>
    %3512 = "tosa.const"() <{value = dense<[0, 1, 3, 2]> : tensor<4xi32>}> : () -> tensor<4xi32>
    %3513 = tosa.transpose %3502, %3512 : (tensor<1x12x1024x128xf32>, tensor<4xi32>) -> tensor<1x12x128x1024xf32>
    %3514 = tosa.reshape %3492 {new_shape = array<i64: 12, 1024, 128>} : (tensor<1x12x1024x128xf32>) -> tensor<12x1024x128xf32>
    %3515 = tosa.reshape %3513 {new_shape = array<i64: 12, 128, 1024>} : (tensor<1x12x128x1024xf32>) -> tensor<12x128x1024xf32>
    %3516 = tosa.matmul %3514, %3515 : (tensor<12x1024x128xf32>, tensor<12x128x1024xf32>) -> tensor<12x1024x1024xf32>
    %cst_665 = arith.constant 0.0883883461 : f32
    %splat_666 = tensor.splat %cst_665 : tensor<12x1024x1024xf32>
    %3517 = tosa.mul %3516, %splat_666 : (tensor<12x1024x1024xf32>, tensor<12x1024x1024xf32>) -> tensor<12x1024x1024xf32>
    %3518 = tosa.reshape %3511 {new_shape = array<i64: 1, 1024, 1024>} : (tensor<1024x1024xf32>) -> tensor<1x1024x1024xf32>
    %3519 = tosa.add %3517, %3518 : (tensor<12x1024x1024xf32>, tensor<1x1024x1024xf32>) -> tensor<12x1024x1024xf32>
    %3520 = tosa.reduce_max %3519 {axis = 2 : i32} : (tensor<12x1024x1024xf32>) -> tensor<12x1024x1xf32>
    %3521 = tosa.sub %3519, %3520 : (tensor<12x1024x1024xf32>, tensor<12x1024x1xf32>) -> tensor<12x1024x1024xf32>
    %3522 = math.exp %3521 : tensor<12x1024x1024xf32>
    %3523 = tosa.reduce_sum %3522 {axis = 2 : i32} : (tensor<12x1024x1024xf32>) -> tensor<12x1024x1xf32>
    %3524 = tosa.log %3523 : (tensor<12x1024x1xf32>) -> tensor<12x1024x1xf32>
    %3525 = tosa.add %3520, %3524 : (tensor<12x1024x1xf32>, tensor<12x1024x1xf32>) -> tensor<12x1024x1xf32>
    %3526 = tosa.sub %3519, %3525 : (tensor<12x1024x1024xf32>, tensor<12x1024x1xf32>) -> tensor<12x1024x1024xf32>
    %3527 = math.exp %3526 : tensor<12x1024x1024xf32>
    %3528 = tosa.reshape %3525 {new_shape = array<i64: 1, 12, 1024>} : (tensor<12x1024x1xf32>) -> tensor<1x12x1024xf32>
    %3529 = tosa.reshape %3506 {new_shape = array<i64: 12, 1024, 128>} : (tensor<1x12x1024x128xf32>) -> tensor<12x1024x128xf32>
    %3530 = tosa.matmul %3527, %3529 : (tensor<12x1024x1024xf32>, tensor<12x1024x128xf32>) -> tensor<12x1024x128xf32>
    %3531 = tosa.reshape %3530 {new_shape = array<i64: 1, 12, 1024, 128>} : (tensor<12x1024x128xf32>) -> tensor<1x12x1024x128xf32>
    %3532 = "tosa.const"() <{value = dense<[0, 2, 1, 3]> : tensor<4xi32>}> : () -> tensor<4xi32>
    %3533 = tosa.transpose %3531, %3532 : (tensor<1x12x1024x128xf32>, tensor<4xi32>) -> tensor<1x1024x12x128xf32>
    %3534 = tosa.reshape %3533 {new_shape = array<i64: 1, 1024, 1536>} : (tensor<1x1024x12x128xf32>) -> tensor<1x1024x1536xf32>
    %3535 = "tosa.const"() <{value = dense<[1, 0]> : tensor<2xi32>}> : () -> tensor<2xi32>
    %3536 = tosa.transpose %arg322, %3535 : (tensor<1536x1536xf32>, tensor<2xi32>) -> tensor<1536x1536xf32>
    %3537 = tosa.reshape %3534 {new_shape = array<i64: 1024, 1536>} : (tensor<1x1024x1536xf32>) -> tensor<1024x1536xf32>
    %cst_667 = arith.constant dense<0.000000e+00> : tensor<1024x1536xf32>
    %3538 = linalg.matmul {cast = #linalg.type_fn<cast_signed>} ins(%3537, %3536 : tensor<1024x1536xf32>, tensor<1536x1536xf32>) outs(%cst_667 : tensor<1024x1536xf32>) -> tensor<1024x1536xf32>
    %3539 = tosa.reshape %3538 {new_shape = array<i64: 1, 1024, 1536>} : (tensor<1024x1536xf32>) -> tensor<1x1024x1536xf32>
    %3540 = tosa.add %3441, %3539 : (tensor<1x1024x1536xf32>, tensor<1x1024x1536xf32>) -> tensor<1x1024x1536xf32>
    %3541 = tensor.empty() : tensor<1x1024x1536xf32>
    %c2_i32_668 = arith.constant 2 : i32
    %3542 = linalg.generic {indexing_maps = [#map, #map], iterator_types = ["parallel", "parallel", "parallel"]} ins(%3540 : tensor<1x1024x1536xf32>) outs(%3541 : tensor<1x1024x1536xf32>) {
    ^bb0(%in: f32, %out: f32):
      %3722 = math.fpowi %in, %c2_i32_668 : f32, i32
      linalg.yield %3722 : f32
    } -> tensor<1x1024x1536xf32>
    %3543 = tosa.reduce_sum %3542 {axis = 2 : i32} : (tensor<1x1024x1536xf32>) -> tensor<1x1024x1xf32>
    %3544 = "tosa.const"() <{value = dense<1.536000e+03> : tensor<1xf32>}> : () -> tensor<1xf32>
    %3545 = tosa.reciprocal %3544 : (tensor<1xf32>) -> tensor<1xf32>
    %3546 = tosa.reshape %3545 {new_shape = array<i64: 1, 1, 1>} : (tensor<1xf32>) -> tensor<1x1x1xf32>
    %3547 = tosa.mul %3546, %3543 : (tensor<1x1x1xf32>, tensor<1x1024x1xf32>) -> tensor<1x1024x1xf32>
    %3548 = "tosa.const"() <{value = dense<9.99999997E-7> : tensor<1x1024x1xf32>}> : () -> tensor<1x1024x1xf32>
    %3549 = tosa.add %3547, %3548 : (tensor<1x1024x1xf32>, tensor<1x1024x1xf32>) -> tensor<1x1024x1xf32>
    %3550 = tosa.rsqrt %3549 : (tensor<1x1024x1xf32>) -> tensor<1x1024x1xf32>
    %3551 = tosa.mul %3540, %3550 : (tensor<1x1024x1536xf32>, tensor<1x1024x1xf32>) -> tensor<1x1024x1536xf32>
    %3552 = tosa.reshape %arg323 {new_shape = array<i64: 1, 1, 1536>} : (tensor<1536xf32>) -> tensor<1x1x1536xf32>
    %3553 = tosa.mul %3552, %3551 : (tensor<1x1x1536xf32>, tensor<1x1024x1536xf32>) -> tensor<1x1024x1536xf32>
    %3554 = "tosa.const"() <{value = dense<[1, 0]> : tensor<2xi32>}> : () -> tensor<2xi32>
    %3555 = tosa.transpose %arg324, %3554 : (tensor<8960x1536xf32>, tensor<2xi32>) -> tensor<1536x8960xf32>
    %3556 = tosa.reshape %3553 {new_shape = array<i64: 1024, 1536>} : (tensor<1x1024x1536xf32>) -> tensor<1024x1536xf32>
    %cst_669 = arith.constant dense<0.000000e+00> : tensor<1024x8960xf32>
    %3557 = linalg.matmul {cast = #linalg.type_fn<cast_signed>} ins(%3556, %3555 : tensor<1024x1536xf32>, tensor<1536x8960xf32>) outs(%cst_669 : tensor<1024x8960xf32>) -> tensor<1024x8960xf32>
    %3558 = tosa.reshape %3557 {new_shape = array<i64: 1, 1024, 8960>} : (tensor<1024x8960xf32>) -> tensor<1x1024x8960xf32>
    %3559 = tosa.sigmoid %3558 : (tensor<1x1024x8960xf32>) -> tensor<1x1024x8960xf32>
    %3560 = tosa.mul %3558, %3559 : (tensor<1x1024x8960xf32>, tensor<1x1024x8960xf32>) -> tensor<1x1024x8960xf32>
    %3561 = "tosa.const"() <{value = dense<[1, 0]> : tensor<2xi32>}> : () -> tensor<2xi32>
    %3562 = tosa.transpose %arg325, %3561 : (tensor<8960x1536xf32>, tensor<2xi32>) -> tensor<1536x8960xf32>
    %3563 = tosa.reshape %3553 {new_shape = array<i64: 1024, 1536>} : (tensor<1x1024x1536xf32>) -> tensor<1024x1536xf32>
    %cst_670 = arith.constant dense<0.000000e+00> : tensor<1024x8960xf32>
    %3564 = linalg.matmul {cast = #linalg.type_fn<cast_signed>} ins(%3563, %3562 : tensor<1024x1536xf32>, tensor<1536x8960xf32>) outs(%cst_670 : tensor<1024x8960xf32>) -> tensor<1024x8960xf32>
    %3565 = tosa.reshape %3564 {new_shape = array<i64: 1, 1024, 8960>} : (tensor<1024x8960xf32>) -> tensor<1x1024x8960xf32>
    %3566 = tosa.mul %3560, %3565 : (tensor<1x1024x8960xf32>, tensor<1x1024x8960xf32>) -> tensor<1x1024x8960xf32>
    %3567 = "tosa.const"() <{value = dense<[1, 0]> : tensor<2xi32>}> : () -> tensor<2xi32>
    %3568 = tosa.transpose %arg326, %3567 : (tensor<1536x8960xf32>, tensor<2xi32>) -> tensor<8960x1536xf32>
    %3569 = tosa.reshape %3566 {new_shape = array<i64: 1024, 8960>} : (tensor<1x1024x8960xf32>) -> tensor<1024x8960xf32>
    %cst_671 = arith.constant dense<0.000000e+00> : tensor<1024x1536xf32>
    %3570 = linalg.matmul {cast = #linalg.type_fn<cast_signed>} ins(%3569, %3568 : tensor<1024x8960xf32>, tensor<8960x1536xf32>) outs(%cst_671 : tensor<1024x1536xf32>) -> tensor<1024x1536xf32>
    %3571 = tosa.reshape %3570 {new_shape = array<i64: 1, 1024, 1536>} : (tensor<1024x1536xf32>) -> tensor<1x1024x1536xf32>
    %3572 = tosa.add %3540, %3571 : (tensor<1x1024x1536xf32>, tensor<1x1024x1536xf32>) -> tensor<1x1024x1536xf32>
    %3573 = tensor.empty() : tensor<1x1024x1536xf32>
    %c2_i32_672 = arith.constant 2 : i32
    %3574 = linalg.generic {indexing_maps = [#map, #map], iterator_types = ["parallel", "parallel", "parallel"]} ins(%3572 : tensor<1x1024x1536xf32>) outs(%3573 : tensor<1x1024x1536xf32>) {
    ^bb0(%in: f32, %out: f32):
      %3722 = math.fpowi %in, %c2_i32_672 : f32, i32
      linalg.yield %3722 : f32
    } -> tensor<1x1024x1536xf32>
    %3575 = tosa.reduce_sum %3574 {axis = 2 : i32} : (tensor<1x1024x1536xf32>) -> tensor<1x1024x1xf32>
    %3576 = "tosa.const"() <{value = dense<1.536000e+03> : tensor<1xf32>}> : () -> tensor<1xf32>
    %3577 = tosa.reciprocal %3576 : (tensor<1xf32>) -> tensor<1xf32>
    %3578 = tosa.reshape %3577 {new_shape = array<i64: 1, 1, 1>} : (tensor<1xf32>) -> tensor<1x1x1xf32>
    %3579 = tosa.mul %3578, %3575 : (tensor<1x1x1xf32>, tensor<1x1024x1xf32>) -> tensor<1x1024x1xf32>
    %3580 = "tosa.const"() <{value = dense<9.99999997E-7> : tensor<1x1024x1xf32>}> : () -> tensor<1x1024x1xf32>
    %3581 = tosa.add %3579, %3580 : (tensor<1x1024x1xf32>, tensor<1x1024x1xf32>) -> tensor<1x1024x1xf32>
    %3582 = tosa.rsqrt %3581 : (tensor<1x1024x1xf32>) -> tensor<1x1024x1xf32>
    %3583 = tosa.mul %3572, %3582 : (tensor<1x1024x1536xf32>, tensor<1x1024x1xf32>) -> tensor<1x1024x1536xf32>
    %3584 = tosa.reshape %arg327 {new_shape = array<i64: 1, 1, 1536>} : (tensor<1536xf32>) -> tensor<1x1x1536xf32>
    %3585 = tosa.mul %3584, %3583 : (tensor<1x1x1536xf32>, tensor<1x1024x1536xf32>) -> tensor<1x1024x1536xf32>
    %3586 = tosa.reshape %3585 {new_shape = array<i64: 1024, 1536>} : (tensor<1x1024x1536xf32>) -> tensor<1024x1536xf32>
    %3587 = "tosa.const"() <{value = dense<[1, 0]> : tensor<2xi32>}> : () -> tensor<2xi32>
    %3588 = tosa.transpose %arg328, %3587 : (tensor<1536x1536xf32>, tensor<2xi32>) -> tensor<1536x1536xf32>
    %cst_673 = arith.constant dense<0.000000e+00> : tensor<1024x1536xf32>
    %3589 = linalg.matmul {cast = #linalg.type_fn<cast_signed>} ins(%3586, %3588 : tensor<1024x1536xf32>, tensor<1536x1536xf32>) outs(%cst_673 : tensor<1024x1536xf32>) -> tensor<1024x1536xf32>
    %3590 = tosa.reshape %arg329 {new_shape = array<i64: 1, 1536>} : (tensor<1536xf32>) -> tensor<1x1536xf32>
    %3591 = tosa.add %3590, %3589 : (tensor<1x1536xf32>, tensor<1024x1536xf32>) -> tensor<1024x1536xf32>
    %3592 = tosa.reshape %3591 {new_shape = array<i64: 1, 1024, 1536>} : (tensor<1024x1536xf32>) -> tensor<1x1024x1536xf32>
    %3593 = tosa.reshape %3592 {new_shape = array<i64: 1, 1024, 12, 128>} : (tensor<1x1024x1536xf32>) -> tensor<1x1024x12x128xf32>
    %3594 = "tosa.const"() <{value = dense<[0, 2, 1, 3]> : tensor<4xi32>}> : () -> tensor<4xi32>
    %3595 = tosa.transpose %3593, %3594 : (tensor<1x1024x12x128xf32>, tensor<4xi32>) -> tensor<1x12x1024x128xf32>
    %3596 = tosa.reshape %3585 {new_shape = array<i64: 1024, 1536>} : (tensor<1x1024x1536xf32>) -> tensor<1024x1536xf32>
    %3597 = "tosa.const"() <{value = dense<[1, 0]> : tensor<2xi32>}> : () -> tensor<2xi32>
    %3598 = tosa.transpose %arg330, %3597 : (tensor<256x1536xf32>, tensor<2xi32>) -> tensor<1536x256xf32>
    %cst_674 = arith.constant dense<0.000000e+00> : tensor<1024x256xf32>
    %3599 = linalg.matmul {cast = #linalg.type_fn<cast_signed>} ins(%3596, %3598 : tensor<1024x1536xf32>, tensor<1536x256xf32>) outs(%cst_674 : tensor<1024x256xf32>) -> tensor<1024x256xf32>
    %3600 = tosa.reshape %arg331 {new_shape = array<i64: 1, 256>} : (tensor<256xf32>) -> tensor<1x256xf32>
    %3601 = tosa.add %3600, %3599 : (tensor<1x256xf32>, tensor<1024x256xf32>) -> tensor<1024x256xf32>
    %3602 = tosa.reshape %3601 {new_shape = array<i64: 1, 1024, 256>} : (tensor<1024x256xf32>) -> tensor<1x1024x256xf32>
    %3603 = tosa.reshape %3602 {new_shape = array<i64: 1, 1024, 2, 128>} : (tensor<1x1024x256xf32>) -> tensor<1x1024x2x128xf32>
    %3604 = "tosa.const"() <{value = dense<[0, 2, 1, 3]> : tensor<4xi32>}> : () -> tensor<4xi32>
    %3605 = tosa.transpose %3603, %3604 : (tensor<1x1024x2x128xf32>, tensor<4xi32>) -> tensor<1x2x1024x128xf32>
    %3606 = tosa.reshape %3585 {new_shape = array<i64: 1024, 1536>} : (tensor<1x1024x1536xf32>) -> tensor<1024x1536xf32>
    %3607 = "tosa.const"() <{value = dense<[1, 0]> : tensor<2xi32>}> : () -> tensor<2xi32>
    %3608 = tosa.transpose %arg332, %3607 : (tensor<256x1536xf32>, tensor<2xi32>) -> tensor<1536x256xf32>
    %cst_675 = arith.constant dense<0.000000e+00> : tensor<1024x256xf32>
    %3609 = linalg.matmul {cast = #linalg.type_fn<cast_signed>} ins(%3606, %3608 : tensor<1024x1536xf32>, tensor<1536x256xf32>) outs(%cst_675 : tensor<1024x256xf32>) -> tensor<1024x256xf32>
    %3610 = tosa.reshape %arg333 {new_shape = array<i64: 1, 256>} : (tensor<256xf32>) -> tensor<1x256xf32>
    %3611 = tosa.add %3610, %3609 : (tensor<1x256xf32>, tensor<1024x256xf32>) -> tensor<1024x256xf32>
    %3612 = tosa.reshape %3611 {new_shape = array<i64: 1, 1024, 256>} : (tensor<1024x256xf32>) -> tensor<1x1024x256xf32>
    %3613 = tosa.reshape %3612 {new_shape = array<i64: 1, 1024, 2, 128>} : (tensor<1x1024x256xf32>) -> tensor<1x1024x2x128xf32>
    %3614 = "tosa.const"() <{value = dense<[0, 2, 1, 3]> : tensor<4xi32>}> : () -> tensor<4xi32>
    %3615 = tosa.transpose %3613, %3614 : (tensor<1x1024x2x128xf32>, tensor<4xi32>) -> tensor<1x2x1024x128xf32>
    %3616 = tosa.reshape %32 {new_shape = array<i64: 1, 1, 1024, 128>} : (tensor<1x1024x128xf32>) -> tensor<1x1x1024x128xf32>
    %3617 = tosa.reshape %35 {new_shape = array<i64: 1, 1, 1024, 128>} : (tensor<1x1024x128xf32>) -> tensor<1x1x1024x128xf32>
    %3618 = tosa.mul %3595, %3616 : (tensor<1x12x1024x128xf32>, tensor<1x1x1024x128xf32>) -> tensor<1x12x1024x128xf32>
    %extracted_slice_676 = tensor.extract_slice %3595[0, 0, 0, 0] [1, 12, 1024, 64] [1, 1, 1, 1] : tensor<1x12x1024x128xf32> to tensor<1x12x1024x64xf32>
    %extracted_slice_677 = tensor.extract_slice %3595[0, 0, 0, 64] [1, 12, 1024, 64] [1, 1, 1, 1] : tensor<1x12x1024x128xf32> to tensor<1x12x1024x64xf32>
    %3619 = tensor.empty() : tensor<1x12x1024x64xf32>
    %3620 = linalg.negf ins(%extracted_slice_677 : tensor<1x12x1024x64xf32>) outs(%3619 : tensor<1x12x1024x64xf32>) -> tensor<1x12x1024x64xf32>
    %3621 = tensor.empty() : tensor<1x12x1024x128xf32>
    %inserted_slice_678 = tensor.insert_slice %3620 into %3621[0, 0, 0, 0] [1, 12, 1024, 64] [1, 1, 1, 1] : tensor<1x12x1024x64xf32> into tensor<1x12x1024x128xf32>
    %inserted_slice_679 = tensor.insert_slice %extracted_slice_676 into %inserted_slice_678[0, 0, 0, 64] [1, 12, 1024, 64] [1, 1, 1, 1] : tensor<1x12x1024x64xf32> into tensor<1x12x1024x128xf32>
    %3622 = tosa.mul %inserted_slice_679, %3617 : (tensor<1x12x1024x128xf32>, tensor<1x1x1024x128xf32>) -> tensor<1x12x1024x128xf32>
    %3623 = tosa.add %3618, %3622 : (tensor<1x12x1024x128xf32>, tensor<1x12x1024x128xf32>) -> tensor<1x12x1024x128xf32>
    %3624 = tosa.mul %3605, %3616 : (tensor<1x2x1024x128xf32>, tensor<1x1x1024x128xf32>) -> tensor<1x2x1024x128xf32>
    %extracted_slice_680 = tensor.extract_slice %3605[0, 0, 0, 0] [1, 2, 1024, 64] [1, 1, 1, 1] : tensor<1x2x1024x128xf32> to tensor<1x2x1024x64xf32>
    %extracted_slice_681 = tensor.extract_slice %3605[0, 0, 0, 64] [1, 2, 1024, 64] [1, 1, 1, 1] : tensor<1x2x1024x128xf32> to tensor<1x2x1024x64xf32>
    %3625 = tensor.empty() : tensor<1x2x1024x64xf32>
    %3626 = linalg.negf ins(%extracted_slice_681 : tensor<1x2x1024x64xf32>) outs(%3625 : tensor<1x2x1024x64xf32>) -> tensor<1x2x1024x64xf32>
    %3627 = tensor.empty() : tensor<1x2x1024x128xf32>
    %inserted_slice_682 = tensor.insert_slice %3626 into %3627[0, 0, 0, 0] [1, 2, 1024, 64] [1, 1, 1, 1] : tensor<1x2x1024x64xf32> into tensor<1x2x1024x128xf32>
    %inserted_slice_683 = tensor.insert_slice %extracted_slice_680 into %inserted_slice_682[0, 0, 0, 64] [1, 2, 1024, 64] [1, 1, 1, 1] : tensor<1x2x1024x64xf32> into tensor<1x2x1024x128xf32>
    %3628 = tosa.mul %inserted_slice_683, %3617 : (tensor<1x2x1024x128xf32>, tensor<1x1x1024x128xf32>) -> tensor<1x2x1024x128xf32>
    %3629 = tosa.add %3624, %3628 : (tensor<1x2x1024x128xf32>, tensor<1x2x1024x128xf32>) -> tensor<1x2x1024x128xf32>
    %3630 = tosa.reshape %3629 {new_shape = array<i64: 1, 2, 1, 1024, 128>} : (tensor<1x2x1024x128xf32>) -> tensor<1x2x1x1024x128xf32>
    %3631 = "tosa.const"() <{value = dense<0.000000e+00> : tensor<1x2x6x1024x128xf32>}> : () -> tensor<1x2x6x1024x128xf32>
    %3632 = tosa.add %3630, %3631 : (tensor<1x2x1x1024x128xf32>, tensor<1x2x6x1024x128xf32>) -> tensor<1x2x6x1024x128xf32>
    %3633 = tosa.reshape %3632 {new_shape = array<i64: 1, 12, 1024, 128>} : (tensor<1x2x6x1024x128xf32>) -> tensor<1x12x1024x128xf32>
    %3634 = tosa.reshape %3615 {new_shape = array<i64: 1, 2, 1, 1024, 128>} : (tensor<1x2x1024x128xf32>) -> tensor<1x2x1x1024x128xf32>
    %3635 = "tosa.const"() <{value = dense<0.000000e+00> : tensor<1x2x6x1024x128xf32>}> : () -> tensor<1x2x6x1024x128xf32>
    %3636 = tosa.add %3634, %3635 : (tensor<1x2x1x1024x128xf32>, tensor<1x2x6x1024x128xf32>) -> tensor<1x2x6x1024x128xf32>
    %3637 = tosa.reshape %3636 {new_shape = array<i64: 1, 12, 1024, 128>} : (tensor<1x2x6x1024x128xf32>) -> tensor<1x12x1024x128xf32>
    %3638 = tosa.reshape %18 {new_shape = array<i64: 1, 1, 1024, 1024>} : (tensor<1024x1024xi1>) -> tensor<1x1x1024x1024xi1>
    %cst_684 = arith.constant 0xFF800000 : f32
    %cst_685 = arith.constant 0.000000e+00 : f32
    %3639 = tensor.empty() : tensor<1x1x1024x1024xf32>
    %splat_686 = tensor.splat %cst_685 : tensor<1x1x1024x1024xf32>
    %splat_687 = tensor.splat %cst_684 : tensor<1x1x1024x1024xf32>
    %3640 = linalg.generic {indexing_maps = [#map1, #map1, #map1, #map1], iterator_types = ["parallel", "parallel", "parallel", "parallel"]} ins(%3638, %splat_686, %splat_687 : tensor<1x1x1024x1024xi1>, tensor<1x1x1024x1024xf32>, tensor<1x1x1024x1024xf32>) outs(%3639 : tensor<1x1x1024x1024xf32>) {
    ^bb0(%in: i1, %in_699: f32, %in_700: f32, %out: f32):
      %3722 = arith.select %in, %in_699, %in_700 : f32
      linalg.yield %3722 : f32
    } -> tensor<1x1x1024x1024xf32>
    %cst_688 = arith.constant 0.000000e+00 : f32
    %splat_689 = tensor.splat %cst_688 : tensor<1024x1024xf32>
    %3641 = tosa.reshape %3640 {new_shape = array<i64: 1024, 1024>} : (tensor<1x1x1024x1024xf32>) -> tensor<1024x1024xf32>
    %3642 = tosa.add %splat_689, %3641 : (tensor<1024x1024xf32>, tensor<1024x1024xf32>) -> tensor<1024x1024xf32>
    %3643 = "tosa.const"() <{value = dense<[0, 1, 3, 2]> : tensor<4xi32>}> : () -> tensor<4xi32>
    %3644 = tosa.transpose %3633, %3643 : (tensor<1x12x1024x128xf32>, tensor<4xi32>) -> tensor<1x12x128x1024xf32>
    %3645 = tosa.reshape %3623 {new_shape = array<i64: 12, 1024, 128>} : (tensor<1x12x1024x128xf32>) -> tensor<12x1024x128xf32>
    %3646 = tosa.reshape %3644 {new_shape = array<i64: 12, 128, 1024>} : (tensor<1x12x128x1024xf32>) -> tensor<12x128x1024xf32>
    %3647 = tosa.matmul %3645, %3646 : (tensor<12x1024x128xf32>, tensor<12x128x1024xf32>) -> tensor<12x1024x1024xf32>
    %cst_690 = arith.constant 0.0883883461 : f32
    %splat_691 = tensor.splat %cst_690 : tensor<12x1024x1024xf32>
    %3648 = tosa.mul %3647, %splat_691 : (tensor<12x1024x1024xf32>, tensor<12x1024x1024xf32>) -> tensor<12x1024x1024xf32>
    %3649 = tosa.reshape %3642 {new_shape = array<i64: 1, 1024, 1024>} : (tensor<1024x1024xf32>) -> tensor<1x1024x1024xf32>
    %3650 = tosa.add %3648, %3649 : (tensor<12x1024x1024xf32>, tensor<1x1024x1024xf32>) -> tensor<12x1024x1024xf32>
    %3651 = tosa.reduce_max %3650 {axis = 2 : i32} : (tensor<12x1024x1024xf32>) -> tensor<12x1024x1xf32>
    %3652 = tosa.sub %3650, %3651 : (tensor<12x1024x1024xf32>, tensor<12x1024x1xf32>) -> tensor<12x1024x1024xf32>
    %3653 = math.exp %3652 : tensor<12x1024x1024xf32>
    %3654 = tosa.reduce_sum %3653 {axis = 2 : i32} : (tensor<12x1024x1024xf32>) -> tensor<12x1024x1xf32>
    %3655 = tosa.log %3654 : (tensor<12x1024x1xf32>) -> tensor<12x1024x1xf32>
    %3656 = tosa.add %3651, %3655 : (tensor<12x1024x1xf32>, tensor<12x1024x1xf32>) -> tensor<12x1024x1xf32>
    %3657 = tosa.sub %3650, %3656 : (tensor<12x1024x1024xf32>, tensor<12x1024x1xf32>) -> tensor<12x1024x1024xf32>
    %3658 = math.exp %3657 : tensor<12x1024x1024xf32>
    %3659 = tosa.reshape %3656 {new_shape = array<i64: 1, 12, 1024>} : (tensor<12x1024x1xf32>) -> tensor<1x12x1024xf32>
    %3660 = tosa.reshape %3637 {new_shape = array<i64: 12, 1024, 128>} : (tensor<1x12x1024x128xf32>) -> tensor<12x1024x128xf32>
    %3661 = tosa.matmul %3658, %3660 : (tensor<12x1024x1024xf32>, tensor<12x1024x128xf32>) -> tensor<12x1024x128xf32>
    %3662 = tosa.reshape %3661 {new_shape = array<i64: 1, 12, 1024, 128>} : (tensor<12x1024x128xf32>) -> tensor<1x12x1024x128xf32>
    %3663 = "tosa.const"() <{value = dense<[0, 2, 1, 3]> : tensor<4xi32>}> : () -> tensor<4xi32>
    %3664 = tosa.transpose %3662, %3663 : (tensor<1x12x1024x128xf32>, tensor<4xi32>) -> tensor<1x1024x12x128xf32>
    %3665 = tosa.reshape %3664 {new_shape = array<i64: 1, 1024, 1536>} : (tensor<1x1024x12x128xf32>) -> tensor<1x1024x1536xf32>
    %3666 = "tosa.const"() <{value = dense<[1, 0]> : tensor<2xi32>}> : () -> tensor<2xi32>
    %3667 = tosa.transpose %arg334, %3666 : (tensor<1536x1536xf32>, tensor<2xi32>) -> tensor<1536x1536xf32>
    %3668 = tosa.reshape %3665 {new_shape = array<i64: 1024, 1536>} : (tensor<1x1024x1536xf32>) -> tensor<1024x1536xf32>
    %cst_692 = arith.constant dense<0.000000e+00> : tensor<1024x1536xf32>
    %3669 = linalg.matmul {cast = #linalg.type_fn<cast_signed>} ins(%3668, %3667 : tensor<1024x1536xf32>, tensor<1536x1536xf32>) outs(%cst_692 : tensor<1024x1536xf32>) -> tensor<1024x1536xf32>
    %3670 = tosa.reshape %3669 {new_shape = array<i64: 1, 1024, 1536>} : (tensor<1024x1536xf32>) -> tensor<1x1024x1536xf32>
    %3671 = tosa.add %3572, %3670 : (tensor<1x1024x1536xf32>, tensor<1x1024x1536xf32>) -> tensor<1x1024x1536xf32>
    %3672 = tensor.empty() : tensor<1x1024x1536xf32>
    %c2_i32_693 = arith.constant 2 : i32
    %3673 = linalg.generic {indexing_maps = [#map, #map], iterator_types = ["parallel", "parallel", "parallel"]} ins(%3671 : tensor<1x1024x1536xf32>) outs(%3672 : tensor<1x1024x1536xf32>) {
    ^bb0(%in: f32, %out: f32):
      %3722 = math.fpowi %in, %c2_i32_693 : f32, i32
      linalg.yield %3722 : f32
    } -> tensor<1x1024x1536xf32>
    %3674 = tosa.reduce_sum %3673 {axis = 2 : i32} : (tensor<1x1024x1536xf32>) -> tensor<1x1024x1xf32>
    %3675 = "tosa.const"() <{value = dense<1.536000e+03> : tensor<1xf32>}> : () -> tensor<1xf32>
    %3676 = tosa.reciprocal %3675 : (tensor<1xf32>) -> tensor<1xf32>
    %3677 = tosa.reshape %3676 {new_shape = array<i64: 1, 1, 1>} : (tensor<1xf32>) -> tensor<1x1x1xf32>
    %3678 = tosa.mul %3677, %3674 : (tensor<1x1x1xf32>, tensor<1x1024x1xf32>) -> tensor<1x1024x1xf32>
    %3679 = "tosa.const"() <{value = dense<9.99999997E-7> : tensor<1x1024x1xf32>}> : () -> tensor<1x1024x1xf32>
    %3680 = tosa.add %3678, %3679 : (tensor<1x1024x1xf32>, tensor<1x1024x1xf32>) -> tensor<1x1024x1xf32>
    %3681 = tosa.rsqrt %3680 : (tensor<1x1024x1xf32>) -> tensor<1x1024x1xf32>
    %3682 = tosa.mul %3671, %3681 : (tensor<1x1024x1536xf32>, tensor<1x1024x1xf32>) -> tensor<1x1024x1536xf32>
    %3683 = tosa.reshape %arg335 {new_shape = array<i64: 1, 1, 1536>} : (tensor<1536xf32>) -> tensor<1x1x1536xf32>
    %3684 = tosa.mul %3683, %3682 : (tensor<1x1x1536xf32>, tensor<1x1024x1536xf32>) -> tensor<1x1024x1536xf32>
    %3685 = "tosa.const"() <{value = dense<[1, 0]> : tensor<2xi32>}> : () -> tensor<2xi32>
    %3686 = tosa.transpose %arg336, %3685 : (tensor<8960x1536xf32>, tensor<2xi32>) -> tensor<1536x8960xf32>
    %3687 = tosa.reshape %3684 {new_shape = array<i64: 1024, 1536>} : (tensor<1x1024x1536xf32>) -> tensor<1024x1536xf32>
    %cst_694 = arith.constant dense<0.000000e+00> : tensor<1024x8960xf32>
    %3688 = linalg.matmul {cast = #linalg.type_fn<cast_signed>} ins(%3687, %3686 : tensor<1024x1536xf32>, tensor<1536x8960xf32>) outs(%cst_694 : tensor<1024x8960xf32>) -> tensor<1024x8960xf32>
    %3689 = tosa.reshape %3688 {new_shape = array<i64: 1, 1024, 8960>} : (tensor<1024x8960xf32>) -> tensor<1x1024x8960xf32>
    %3690 = tosa.sigmoid %3689 : (tensor<1x1024x8960xf32>) -> tensor<1x1024x8960xf32>
    %3691 = tosa.mul %3689, %3690 : (tensor<1x1024x8960xf32>, tensor<1x1024x8960xf32>) -> tensor<1x1024x8960xf32>
    %3692 = "tosa.const"() <{value = dense<[1, 0]> : tensor<2xi32>}> : () -> tensor<2xi32>
    %3693 = tosa.transpose %arg337, %3692 : (tensor<8960x1536xf32>, tensor<2xi32>) -> tensor<1536x8960xf32>
    %3694 = tosa.reshape %3684 {new_shape = array<i64: 1024, 1536>} : (tensor<1x1024x1536xf32>) -> tensor<1024x1536xf32>
    %cst_695 = arith.constant dense<0.000000e+00> : tensor<1024x8960xf32>
    %3695 = linalg.matmul {cast = #linalg.type_fn<cast_signed>} ins(%3694, %3693 : tensor<1024x1536xf32>, tensor<1536x8960xf32>) outs(%cst_695 : tensor<1024x8960xf32>) -> tensor<1024x8960xf32>
    %3696 = tosa.reshape %3695 {new_shape = array<i64: 1, 1024, 8960>} : (tensor<1024x8960xf32>) -> tensor<1x1024x8960xf32>
    %3697 = tosa.mul %3691, %3696 : (tensor<1x1024x8960xf32>, tensor<1x1024x8960xf32>) -> tensor<1x1024x8960xf32>
    %3698 = "tosa.const"() <{value = dense<[1, 0]> : tensor<2xi32>}> : () -> tensor<2xi32>
    %3699 = tosa.transpose %arg338, %3698 : (tensor<1536x8960xf32>, tensor<2xi32>) -> tensor<8960x1536xf32>
    %3700 = tosa.reshape %3697 {new_shape = array<i64: 1024, 8960>} : (tensor<1x1024x8960xf32>) -> tensor<1024x8960xf32>
    %cst_696 = arith.constant dense<0.000000e+00> : tensor<1024x1536xf32>
    %3701 = linalg.matmul {cast = #linalg.type_fn<cast_signed>} ins(%3700, %3699 : tensor<1024x8960xf32>, tensor<8960x1536xf32>) outs(%cst_696 : tensor<1024x1536xf32>) -> tensor<1024x1536xf32>
    %3702 = tosa.reshape %3701 {new_shape = array<i64: 1, 1024, 1536>} : (tensor<1024x1536xf32>) -> tensor<1x1024x1536xf32>
    %3703 = tosa.add %3671, %3702 : (tensor<1x1024x1536xf32>, tensor<1x1024x1536xf32>) -> tensor<1x1024x1536xf32>
    
    //rms norm
    // pow_57 --- mul_283 6个
    %3704 = tensor.empty() : tensor<1x1024x1536xf32>
    %c2_i32_697 = arith.constant 2 : i32
    %3705 = linalg.generic {indexing_maps = [#map, #map], iterator_types = ["parallel", "parallel", "parallel"]} ins(%3703 : tensor<1x1024x1536xf32>) outs(%3704 : tensor<1x1024x1536xf32>) {
    ^bb0(%in: f32, %out: f32):
      %3722 = math.fpowi %in, %c2_i32_697 : f32, i32
      linalg.yield %3722 : f32
    } -> tensor<1x1024x1536xf32>
    %3706 = tosa.reduce_sum %3705 {axis = 2 : i32} : (tensor<1x1024x1536xf32>) -> tensor<1x1024x1xf32>
    %3707 = "tosa.const"() <{value = dense<1.536000e+03> : tensor<1xf32>}> : () -> tensor<1xf32>
    %3708 = tosa.reciprocal %3707 : (tensor<1xf32>) -> tensor<1xf32>
    %3709 = tosa.reshape %3708 {new_shape = array<i64: 1, 1, 1>} : (tensor<1xf32>) -> tensor<1x1x1xf32>
    %3710 = tosa.mul %3709, %3706 : (tensor<1x1x1xf32>, tensor<1x1024x1xf32>) -> tensor<1x1024x1xf32>
    %3711 = "tosa.const"() <{value = dense<9.99999997E-7> : tensor<1x1024x1xf32>}> : () -> tensor<1x1024x1xf32>
    %3712 = tosa.add %3710, %3711 : (tensor<1x1024x1xf32>, tensor<1x1024x1xf32>) -> tensor<1x1024x1xf32>
    %3713 = tosa.rsqrt %3712 : (tensor<1x1024x1xf32>) -> tensor<1x1024x1xf32>
    %3714 = tosa.mul %3703, %3713 : (tensor<1x1024x1536xf32>, tensor<1x1024x1xf32>) -> tensor<1x1024x1536xf32>
    %3715 = tosa.reshape %arg339 {new_shape = array<i64: 1, 1, 1536>} : (tensor<1536xf32>) -> tensor<1x1x1536xf32>
    %3716 = tosa.mul %3715, %3714 : (tensor<1x1x1536xf32>, tensor<1x1024x1536xf32>) -> tensor<1x1024x1536xf32>
    // ===========================================
    // 10. FINAL OUTPUT PROJECTION LAYER
    // ===========================================
    // Project the final hidden states back to vocabulary space
    // Input: Final hidden states (1x40x1536) from last transformer layer
    // Weights: %arg341 (151936x1536) - vocabulary_size x hidden_dim
    // Output: Logits (1x40x151936) - probabilities over vocabulary
   //slice_424  slice_426 2 permute_309 --- view_566 4
    %3717 = "tosa.const"() <{value = dense<[1, 0]> : tensor<2xi32>}> : () -> tensor<2xi32>
    %3718 = tosa.transpose %arg340, %3717 : (tensor<151936x1536xf32>, tensor<2xi32>) -> tensor<1536x151936xf32>
    %3719 = tosa.reshape %3716 {new_shape = array<i64: 1024, 1536>} : (tensor<1x1024x1536xf32>) -> tensor<1024x1536xf32>
    %cst_698 = arith.constant dense<0.000000e+00> : tensor<1024x151936xf32>
    %3720 = linalg.matmul {cast = #linalg.type_fn<cast_signed>} ins(%3719, %3718 : tensor<1024x1536xf32>, tensor<1536x151936xf32>) outs(%cst_698 : tensor<1024x151936xf32>) -> tensor<1024x151936xf32>
    %3721 = tosa.reshape %3720 {new_shape = array<i64: 1, 1024, 151936>} : (tensor<1024x151936xf32>) -> tensor<1x1024x151936xf32>
    return %92, %78, %223, %209, %354, %340, %485, %471, %616, %602, %747, %733, %878, %864, %1009, %995, %1140, %1126, %1271, %1257, %1402, %1388, %1533, %1519, %1664, %1650, %1795, %1781, %1926, %1912, %2057, %2043, %2188, %2174, %2319, %2305, %2450, %2436, %2581, %2567, %2712, %2698, %2843, %2829, %2974, %2960, %3105, %3091, %3236, %3222, %3367, %3353, %3498, %3484, %3629, %3615, %3721 : 
    tensor<1x2x1024x128xf32>, tensor<1x2x1024x128xf32>, tensor<1x2x1024x128xf32>, tensor<1x2x1024x128xf32>, tensor<1x2x1024x128xf32>, tensor<1x2x1024x128xf32>, tensor<1x2x1024x128xf32>, tensor<1x2x1024x128xf32>, tensor<1x2x1024x128xf32>, tensor<1x2x1024x128xf32>, tensor<1x2x1024x128xf32>, tensor<1x2x1024x128xf32>, tensor<1x2x1024x128xf32>, tensor<1x2x1024x128xf32>, tensor<1x2x1024x128xf32>, tensor<1x2x1024x128xf32>, tensor<1x2x1024x128xf32>, tensor<1x2x1024x128xf32>, tensor<1x2x1024x128xf32>, tensor<1x2x1024x128xf32>, tensor<1x2x1024x128xf32>, tensor<1x2x1024x128xf32>, tensor<1x2x1024x128xf32>, tensor<1x2x1024x128xf32>, tensor<1x2x1024x128xf32>, tensor<1x2x1024x128xf32>, tensor<1x2x1024x128xf32>, tensor<1x2x1024x128xf32>, tensor<1x2x1024x128xf32>, tensor<1x2x1024x128xf32>, tensor<1x2x1024x128xf32>, tensor<1x2x1024x128xf32>, tensor<1x2x1024x128xf32>, tensor<1x2x1024x128xf32>, tensor<1x2x1024x128xf32>, tensor<1x2x1024x128xf32>, tensor<1x2x1024x128xf32>, tensor<1x2x1024x128xf32>, tensor<1x2x1024x128xf32>, tensor<1x2x1024x128xf32>, tensor<1x2x1024x128xf32>, tensor<1x2x1024x128xf32>, tensor<1x2x1024x128xf32>, tensor<1x2x1024x128xf32>, tensor<1x2x1024x128xf32>, tensor<1x2x1024x128xf32>, tensor<1x2x1024x128xf32>, tensor<1x2x1024x128xf32>, tensor<1x2x1024x128xf32>, tensor<1x2x1024x128xf32>, tensor<1x2x1024x128xf32>, tensor<1x2x1024x128xf32>, tensor<1x2x1024x128xf32>, tensor<1x2x1024x128xf32>, tensor<1x2x1024x128xf32>, tensor<1x2x1024x128xf32>, tensor<1x1024x151936xf32>
  }
}

