#map = affine_map<(d0, d1, d2) -> (d0, d1, d2)>
#map1 = affine_map<(d0, d1, d2, d3) -> (d0, d1, d2, d3)>
module {
  func.func @subgraph0_decode(%arg0: tensor<151936x1536xf32>, 
  %arg1: tensor<1x1xi64>, //输入的数据
  %arg2: tensor<1xi64>,  //和下面是用一个，没用上
  %arg3: tensor<1xi64>,  //位置IDs 掩码
  %arg4: tensor<64xf32>,  // RoPE旋转位置编码的频率因子
  
  %arg5: tensor<1536xf32>, 
  %arg6: tensor<1536x1536xf32>, 
  %arg7: tensor<1536xf32>, 
  %arg8: tensor<256x1536xf32>, 
  %arg9: tensor<256xf32>, 
  %arg10: tensor<256x1536xf32>, 
  %arg11: tensor<256xf32>, 
  %arg12: tensor<1x2x1024x128xf32>, //v cache
  %arg13: tensor<1x2x1024x128xf32>, //k cache
  %arg14: tensor<1536x1536xf32>, 
  
  %arg15: tensor<1536xf32>, 
  %arg16: tensor<8960x1536xf32>, 
  %arg17: tensor<8960x1536xf32>, 
  %arg18: tensor<1536x8960xf32>, 
  
  %arg19: tensor<1536xf32>, %arg20: tensor<1536x1536xf32>, %arg21: tensor<1536xf32>, %arg22: tensor<256x1536xf32>, %arg23: tensor<256xf32>, %arg24: tensor<256x1536xf32>, %arg25: tensor<256xf32>, %arg26: tensor<1x2x1024x128xf32>, %arg27: tensor<1x2x1024x128xf32>, %arg28: tensor<1536x1536xf32>, %arg29: tensor<1536xf32>, %arg30: tensor<8960x1536xf32>, %arg31: tensor<8960x1536xf32>, %arg32: tensor<1536x8960xf32>, 
  %arg33: tensor<1536xf32>, %arg34: tensor<1536x1536xf32>, %arg35: tensor<1536xf32>, %arg36: tensor<256x1536xf32>, %arg37: tensor<256xf32>, %arg38: tensor<256x1536xf32>, %arg39: tensor<256xf32>, %arg40: tensor<1x2x1024x128xf32>, %arg41: tensor<1x2x1024x128xf32>, %arg42: tensor<1536x1536xf32>, %arg43: tensor<1536xf32>, %arg44: tensor<8960x1536xf32>, %arg45: tensor<8960x1536xf32>, %arg46: tensor<1536x8960xf32>, 
  %arg47: tensor<1536xf32>, %arg48: tensor<1536x1536xf32>, %arg49: tensor<1536xf32>, %arg50: tensor<256x1536xf32>, %arg51: tensor<256xf32>, %arg52: tensor<256x1536xf32>, %arg53: tensor<256xf32>, %arg54: tensor<1x2x1024x128xf32>, %arg55: tensor<1x2x1024x128xf32>, %arg56: tensor<1536x1536xf32>, %arg57: tensor<1536xf32>, %arg58: tensor<8960x1536xf32>, %arg59: tensor<8960x1536xf32>, %arg60: tensor<1536x8960xf32>, 
  %arg61: tensor<1536xf32>, %arg62: tensor<1536x1536xf32>, %arg63: tensor<1536xf32>, %arg64: tensor<256x1536xf32>, %arg65: tensor<256xf32>, %arg66: tensor<256x1536xf32>, %arg67: tensor<256xf32>, %arg68: tensor<1x2x1024x128xf32>, %arg69: tensor<1x2x1024x128xf32>, %arg70: tensor<1536x1536xf32>, %arg71: tensor<1536xf32>, %arg72: tensor<8960x1536xf32>, %arg73: tensor<8960x1536xf32>, %arg74: tensor<1536x8960xf32>, 
  %arg75: tensor<1536xf32>, %arg76: tensor<1536x1536xf32>, %arg77: tensor<1536xf32>, %arg78: tensor<256x1536xf32>, %arg79: tensor<256xf32>, %arg80: tensor<256x1536xf32>, %arg81: tensor<256xf32>, %arg82: tensor<1x2x1024x128xf32>, %arg83: tensor<1x2x1024x128xf32>, %arg84: tensor<1536x1536xf32>, %arg85: tensor<1536xf32>, %arg86: tensor<8960x1536xf32>, %arg87: tensor<8960x1536xf32>, %arg88: tensor<1536x8960xf32>, 
  %arg89: tensor<1536xf32>, %arg90: tensor<1536x1536xf32>, %arg91: tensor<1536xf32>, %arg92: tensor<256x1536xf32>, %arg93: tensor<256xf32>, %arg94: tensor<256x1536xf32>, %arg95: tensor<256xf32>, %arg96: tensor<1x2x1024x128xf32>, %arg97: tensor<1x2x1024x128xf32>, %arg98: tensor<1536x1536xf32>, %arg99: tensor<1536xf32>, %arg100: tensor<8960x1536xf32>, %arg101: tensor<8960x1536xf32>, %arg102: tensor<1536x8960xf32>, 
  %arg103: tensor<1536xf32>, %arg104: tensor<1536x1536xf32>, %arg105: tensor<1536xf32>, %arg106: tensor<256x1536xf32>, %arg107: tensor<256xf32>, %arg108: tensor<256x1536xf32>, %arg109: tensor<256xf32>, %arg110: tensor<1x2x1024x128xf32>, %arg111: tensor<1x2x1024x128xf32>, %arg112: tensor<1536x1536xf32>, %arg113: tensor<1536xf32>, %arg114: tensor<8960x1536xf32>, %arg115: tensor<8960x1536xf32>, %arg116: tensor<1536x8960xf32>, 
  %arg117: tensor<1536xf32>, %arg118: tensor<1536x1536xf32>, %arg119: tensor<1536xf32>, %arg120: tensor<256x1536xf32>, %arg121: tensor<256xf32>, %arg122: tensor<256x1536xf32>, %arg123: tensor<256xf32>, %arg124: tensor<1x2x1024x128xf32>, %arg125: tensor<1x2x1024x128xf32>, %arg126: tensor<1536x1536xf32>, %arg127: tensor<1536xf32>, %arg128: tensor<8960x1536xf32>, %arg129: tensor<8960x1536xf32>, %arg130: tensor<1536x8960xf32>, 
  %arg131: tensor<1536xf32>, %arg132: tensor<1536x1536xf32>, %arg133: tensor<1536xf32>, %arg134: tensor<256x1536xf32>, %arg135: tensor<256xf32>, %arg136: tensor<256x1536xf32>, %arg137: tensor<256xf32>, %arg138: tensor<1x2x1024x128xf32>, %arg139: tensor<1x2x1024x128xf32>, %arg140: tensor<1536x1536xf32>, %arg141: tensor<1536xf32>, %arg142: tensor<8960x1536xf32>, %arg143: tensor<8960x1536xf32>, %arg144: tensor<1536x8960xf32>, 
  %arg145: tensor<1536xf32>, %arg146: tensor<1536x1536xf32>, %arg147: tensor<1536xf32>, %arg148: tensor<256x1536xf32>, %arg149: tensor<256xf32>, %arg150: tensor<256x1536xf32>, %arg151: tensor<256xf32>, %arg152: tensor<1x2x1024x128xf32>, %arg153: tensor<1x2x1024x128xf32>, %arg154: tensor<1536x1536xf32>, %arg155: tensor<1536xf32>, %arg156: tensor<8960x1536xf32>, %arg157: tensor<8960x1536xf32>, %arg158: tensor<1536x8960xf32>, 
  %arg159: tensor<1536xf32>, %arg160: tensor<1536x1536xf32>, %arg161: tensor<1536xf32>, %arg162: tensor<256x1536xf32>, %arg163: tensor<256xf32>, %arg164: tensor<256x1536xf32>, %arg165: tensor<256xf32>, %arg166: tensor<1x2x1024x128xf32>, %arg167: tensor<1x2x1024x128xf32>, %arg168: tensor<1536x1536xf32>, %arg169: tensor<1536xf32>, %arg170: tensor<8960x1536xf32>, %arg171: tensor<8960x1536xf32>, %arg172: tensor<1536x8960xf32>, 
  %arg173: tensor<1536xf32>, %arg174: tensor<1536x1536xf32>, %arg175: tensor<1536xf32>, %arg176: tensor<256x1536xf32>, %arg177: tensor<256xf32>, %arg178: tensor<256x1536xf32>, %arg179: tensor<256xf32>, %arg180: tensor<1x2x1024x128xf32>, %arg181: tensor<1x2x1024x128xf32>, %arg182: tensor<1536x1536xf32>, %arg183: tensor<1536xf32>, %arg184: tensor<8960x1536xf32>, %arg185: tensor<8960x1536xf32>, %arg186: tensor<1536x8960xf32>, 
  %arg187: tensor<1536xf32>, %arg188: tensor<1536x1536xf32>, %arg189: tensor<1536xf32>, %arg190: tensor<256x1536xf32>, %arg191: tensor<256xf32>, %arg192: tensor<256x1536xf32>, %arg193: tensor<256xf32>, %arg194: tensor<1x2x1024x128xf32>, %arg195: tensor<1x2x1024x128xf32>, %arg196: tensor<1536x1536xf32>, %arg197: tensor<1536xf32>, %arg198: tensor<8960x1536xf32>, %arg199: tensor<8960x1536xf32>, %arg200: tensor<1536x8960xf32>, 
  %arg201: tensor<1536xf32>, %arg202: tensor<1536x1536xf32>, %arg203: tensor<1536xf32>, %arg204: tensor<256x1536xf32>, %arg205: tensor<256xf32>, %arg206: tensor<256x1536xf32>, %arg207: tensor<256xf32>, %arg208: tensor<1x2x1024x128xf32>, %arg209: tensor<1x2x1024x128xf32>, %arg210: tensor<1536x1536xf32>, %arg211: tensor<1536xf32>, %arg212: tensor<8960x1536xf32>, %arg213: tensor<8960x1536xf32>, %arg214: tensor<1536x8960xf32>, 
  %arg215: tensor<1536xf32>, %arg216: tensor<1536x1536xf32>, %arg217: tensor<1536xf32>, %arg218: tensor<256x1536xf32>, %arg219: tensor<256xf32>, %arg220: tensor<256x1536xf32>, %arg221: tensor<256xf32>, %arg222: tensor<1x2x1024x128xf32>, %arg223: tensor<1x2x1024x128xf32>, %arg224: tensor<1536x1536xf32>, %arg225: tensor<1536xf32>, %arg226: tensor<8960x1536xf32>, %arg227: tensor<8960x1536xf32>, %arg228: tensor<1536x8960xf32>, 
  %arg229: tensor<1536xf32>, %arg230: tensor<1536x1536xf32>, %arg231: tensor<1536xf32>, %arg232: tensor<256x1536xf32>, %arg233: tensor<256xf32>, %arg234: tensor<256x1536xf32>, %arg235: tensor<256xf32>, %arg236: tensor<1x2x1024x128xf32>, %arg237: tensor<1x2x1024x128xf32>, %arg238: tensor<1536x1536xf32>, %arg239: tensor<1536xf32>, %arg240: tensor<8960x1536xf32>, %arg241: tensor<8960x1536xf32>, %arg242: tensor<1536x8960xf32>, 
  %arg243: tensor<1536xf32>, %arg244: tensor<1536x1536xf32>, %arg245: tensor<1536xf32>, %arg246: tensor<256x1536xf32>, %arg247: tensor<256xf32>, %arg248: tensor<256x1536xf32>, %arg249: tensor<256xf32>, %arg250: tensor<1x2x1024x128xf32>, %arg251: tensor<1x2x1024x128xf32>, %arg252: tensor<1536x1536xf32>, %arg253: tensor<1536xf32>, %arg254: tensor<8960x1536xf32>, %arg255: tensor<8960x1536xf32>, %arg256: tensor<1536x8960xf32>, 
  %arg257: tensor<1536xf32>, %arg258: tensor<1536x1536xf32>, %arg259: tensor<1536xf32>, %arg260: tensor<256x1536xf32>, %arg261: tensor<256xf32>, %arg262: tensor<256x1536xf32>, %arg263: tensor<256xf32>, %arg264: tensor<1x2x1024x128xf32>, %arg265: tensor<1x2x1024x128xf32>, %arg266: tensor<1536x1536xf32>, %arg267: tensor<1536xf32>, %arg268: tensor<8960x1536xf32>, %arg269: tensor<8960x1536xf32>, %arg270: tensor<1536x8960xf32>, 
  %arg271: tensor<1536xf32>, %arg272: tensor<1536x1536xf32>, %arg273: tensor<1536xf32>, %arg274: tensor<256x1536xf32>, %arg275: tensor<256xf32>, %arg276: tensor<256x1536xf32>, %arg277: tensor<256xf32>, %arg278: tensor<1x2x1024x128xf32>, %arg279: tensor<1x2x1024x128xf32>, %arg280: tensor<1536x1536xf32>, %arg281: tensor<1536xf32>, %arg282: tensor<8960x1536xf32>, %arg283: tensor<8960x1536xf32>, %arg284: tensor<1536x8960xf32>, 
  %arg285: tensor<1536xf32>, %arg286: tensor<1536x1536xf32>, %arg287: tensor<1536xf32>, %arg288: tensor<256x1536xf32>, %arg289: tensor<256xf32>, %arg290: tensor<256x1536xf32>, %arg291: tensor<256xf32>, %arg292: tensor<1x2x1024x128xf32>, %arg293: tensor<1x2x1024x128xf32>, %arg294: tensor<1536x1536xf32>, %arg295: tensor<1536xf32>, %arg296: tensor<8960x1536xf32>, %arg297: tensor<8960x1536xf32>, %arg298: tensor<1536x8960xf32>, 
  %arg299: tensor<1536xf32>, %arg300: tensor<1536x1536xf32>, %arg301: tensor<1536xf32>, %arg302: tensor<256x1536xf32>, %arg303: tensor<256xf32>, %arg304: tensor<256x1536xf32>, %arg305: tensor<256xf32>, %arg306: tensor<1x2x1024x128xf32>, %arg307: tensor<1x2x1024x128xf32>, %arg308: tensor<1536x1536xf32>, %arg309: tensor<1536xf32>, %arg310: tensor<8960x1536xf32>, %arg311: tensor<8960x1536xf32>, %arg312: tensor<1536x8960xf32>, 
  %arg313: tensor<1536xf32>, %arg314: tensor<1536x1536xf32>, %arg315: tensor<1536xf32>, %arg316: tensor<256x1536xf32>, %arg317: tensor<256xf32>, %arg318: tensor<256x1536xf32>, %arg319: tensor<256xf32>, %arg320: tensor<1x2x1024x128xf32>, %arg321: tensor<1x2x1024x128xf32>, %arg322: tensor<1536x1536xf32>, %arg323: tensor<1536xf32>, %arg324: tensor<8960x1536xf32>, %arg325: tensor<8960x1536xf32>, %arg326: tensor<1536x8960xf32>, 
  %arg327: tensor<1536xf32>, %arg328: tensor<1536x1536xf32>, %arg329: tensor<1536xf32>, %arg330: tensor<256x1536xf32>, %arg331: tensor<256xf32>, %arg332: tensor<256x1536xf32>, %arg333: tensor<256xf32>, %arg334: tensor<1x2x1024x128xf32>, %arg335: tensor<1x2x1024x128xf32>, %arg336: tensor<1536x1536xf32>, %arg337: tensor<1536xf32>, %arg338: tensor<8960x1536xf32>, %arg339: tensor<8960x1536xf32>, %arg340: tensor<1536x8960xf32>, 
  %arg341: tensor<1536xf32>, %arg342: tensor<1536x1536xf32>, %arg343: tensor<1536xf32>, %arg344: tensor<256x1536xf32>, %arg345: tensor<256xf32>, %arg346: tensor<256x1536xf32>, %arg347: tensor<256xf32>, %arg348: tensor<1x2x1024x128xf32>, %arg349: tensor<1x2x1024x128xf32>, %arg350: tensor<1536x1536xf32>, %arg351: tensor<1536xf32>, %arg352: tensor<8960x1536xf32>, %arg353: tensor<8960x1536xf32>, %arg354: tensor<1536x8960xf32>, 
  %arg355: tensor<1536xf32>, %arg356: tensor<1536x1536xf32>, %arg357: tensor<1536xf32>, %arg358: tensor<256x1536xf32>, %arg359: tensor<256xf32>, %arg360: tensor<256x1536xf32>, %arg361: tensor<256xf32>, %arg362: tensor<1x2x1024x128xf32>, %arg363: tensor<1x2x1024x128xf32>, %arg364: tensor<1536x1536xf32>, %arg365: tensor<1536xf32>, %arg366: tensor<8960x1536xf32>, %arg367: tensor<8960x1536xf32>, %arg368: tensor<1536x8960xf32>, 
  %arg369: tensor<1536xf32>, %arg370: tensor<1536x1536xf32>, %arg371: tensor<1536xf32>, %arg372: tensor<256x1536xf32>, %arg373: tensor<256xf32>, %arg374: tensor<256x1536xf32>, %arg375: tensor<256xf32>, %arg376: tensor<1x2x1024x128xf32>, %arg377: tensor<1x2x1024x128xf32>, %arg378: tensor<1536x1536xf32>, %arg379: tensor<1536xf32>, %arg380: tensor<8960x1536xf32>, %arg381: tensor<8960x1536xf32>, %arg382: tensor<1536x8960xf32>, 
  %arg383: tensor<1536xf32>, %arg384: tensor<1536x1536xf32>, %arg385: tensor<1536xf32>, %arg386: tensor<256x1536xf32>, %arg387: tensor<256xf32>, %arg388: tensor<256x1536xf32>, %arg389: tensor<256xf32>, %arg390: tensor<1x2x1024x128xf32>, %arg391: tensor<1x2x1024x128xf32>, %arg392: tensor<1536x1536xf32>, %arg393: tensor<1536xf32>, %arg394: tensor<8960x1536xf32>, %arg395: tensor<8960x1536xf32>, %arg396: tensor<1536x8960xf32>, 
  
  %arg397: tensor<1536xf32>, %arg398: tensor<151936x1536xf32>)
  -> (tensor<1x2x1024x128xf32>, tensor<1x2x1024x128xf32>, 
  tensor<1x2x1024x128xf32>, tensor<1x2x1024x128xf32>, 
  tensor<1x2x1024x128xf32>, tensor<1x2x1024x128xf32>, 
  tensor<1x2x1024x128xf32>, tensor<1x2x1024x128xf32>, 
  tensor<1x2x1024x128xf32>, tensor<1x2x1024x128xf32>, 
  tensor<1x2x1024x128xf32>, tensor<1x2x1024x128xf32>, 
  tensor<1x2x1024x128xf32>, tensor<1x2x1024x128xf32>, 
  tensor<1x2x1024x128xf32>, tensor<1x2x1024x128xf32>, 
  tensor<1x2x1024x128xf32>, tensor<1x2x1024x128xf32>, 
  tensor<1x2x1024x128xf32>, tensor<1x2x1024x128xf32>, 
  tensor<1x2x1024x128xf32>, tensor<1x2x1024x128xf32>, 
  tensor<1x2x1024x128xf32>, tensor<1x2x1024x128xf32>, 
  tensor<1x2x1024x128xf32>, tensor<1x2x1024x128xf32>, 
  tensor<1x2x1024x128xf32>, tensor<1x2x1024x128xf32>, 
  tensor<1x2x1024x128xf32>, tensor<1x2x1024x128xf32>, 
  tensor<1x2x1024x128xf32>, tensor<1x2x1024x128xf32>, 
  tensor<1x2x1024x128xf32>, tensor<1x2x1024x128xf32>, 
  tensor<1x2x1024x128xf32>, tensor<1x2x1024x128xf32>, 
  tensor<1x2x1024x128xf32>, tensor<1x2x1024x128xf32>, 
  tensor<1x2x1024x128xf32>, tensor<1x2x1024x128xf32>, 
  tensor<1x2x1024x128xf32>, tensor<1x2x1024x128xf32>, 
  tensor<1x2x1024x128xf32>, tensor<1x2x1024x128xf32>, 
  tensor<1x2x1024x128xf32>, tensor<1x2x1024x128xf32>, 
  tensor<1x2x1024x128xf32>, tensor<1x2x1024x128xf32>, 
  tensor<1x2x1024x128xf32>, tensor<1x2x1024x128xf32>, 
  tensor<1x2x1024x128xf32>, tensor<1x2x1024x128xf32>, 
  tensor<1x2x1024x128xf32>, tensor<1x2x1024x128xf32>, 
  tensor<1x2x1024x128xf32>, tensor<1x2x1024x128xf32>, 
  tensor<1x1x151936xf32>) {
    // ===========================================
    // 1. TOKEN EMBEDDING LAYER
    // ===========================================
    // Input: %arg1 (1x40xi64) - token IDs for sequence of length 40
    // Embedding weights: %arg0 (151936x1536) - vocabulary_size x hidden_dim
    // Output: token embeddings (1x40x1536)
    //embedding
    %0 = tosa.cast %arg1 : (tensor<1x1xi64>) -> tensor<1x1xi32>
    %1 = tosa.reshape %arg0 {new_shape = array<i64: 1, 151936, 1536>} : (tensor<151936x1536xf32>) -> tensor<1x151936x1536xf32>
    %2 = tosa.gather %1, %0 : (tensor<1x151936x1536xf32>, tensor<1x1xi32>) -> tensor<1x1x1536xf32>
    // 2. POSITIONAL ENCODING/mask
    // unsqueeze -- expand_1
    %3 = tosa.reshape %arg3 {new_shape = array<i64: 1, 1>} : (tensor<1xi64>) -> tensor<1x1xi64>
    %4 = "tosa.const"() <{value = dense<"…"> : tensor<1024xi64>}> : () -> tensor<1024xi64>
    %5 = "tosa.const"() <{value = dense<0> : tensor<1024xi64>}> : () -> tensor<1024xi64>
    %6 = tosa.add %4, %5 : (tensor<1024xi64>, tensor<1024xi64>) -> tensor<1024xi64>
    %7 = tosa.reshape %arg3 {new_shape = array<i64: 1, 1>} : (tensor<1xi64>) -> tensor<1x1xi64>
    %8 = "tosa.const"() <{value = dense<0> : tensor<1x1024xi64>}> : () -> tensor<1x1024xi64>
    %9 = tosa.reshape %6 {new_shape = array<i64: 1, 1024>} : (tensor<1024xi64>) -> tensor<1x1024xi64>
    %10 = tosa.add %9, %8 : (tensor<1x1024xi64>, tensor<1x1024xi64>) -> tensor<1x1024xi64>
    %11 = "tosa.const"() <{value = dense<0> : tensor<1x1024xi64>}> : () -> tensor<1x1024xi64>
    %12 = tosa.add %7, %11 : (tensor<1x1xi64>, tensor<1x1024xi64>) -> tensor<1x1024xi64>
    %13 = arith.cmpi ule, %10, %12 : tensor<1x1024xi64>
    %14 = "tosa.const"() <{value = dense<false> : tensor<1x1xi1>}> : () -> tensor<1x1xi1>
    %15 = tosa.add %13, %14 : (tensor<1x1024xi1>, tensor<1x1xi1>) -> tensor<1x1024xi1>
    %16 = "tosa.const"() <{value = dense<false> : tensor<1x1xi1>}> : () -> tensor<1x1xi1>
    %17 = tosa.add %15, %16 : (tensor<1x1024xi1>, tensor<1x1xi1>) -> tensor<1x1024xi1>
    
    // Generate Rotary Position Embedding (RoPE)
    // %arg3 contains the rotary embedding frequencies (64 dimensions)
    // unsqueeze_1 -- mul_1
    %18 = tosa.reshape %arg4 {new_shape = array<i64: 1, 64>} : (tensor<64xf32>) -> tensor<1x64xf32>
    %19 = tosa.reshape %18 {new_shape = array<i64: 1, 64, 1>} : (tensor<1x64xf32>) -> tensor<1x64x1xf32>
    %20 = tosa.reshape %3 {new_shape = array<i64: 1, 1, 1>} : (tensor<1x1xi64>) -> tensor<1x1x1xi64>
    %21 = tosa.cast %20 : (tensor<1x1x1xi64>) -> tensor<1x1x1xf32>
    %22 = tosa.matmul %19, %21 : (tensor<1x64x1xf32>, tensor<1x1x1xf32>) -> tensor<1x64x1xf32>
    %23 = "tosa.const"() <{value = dense<[0, 2, 1]> : tensor<3xi32>}> : () -> tensor<3xi32>
    %24 = tosa.transpose %22, %23 : (tensor<1x64x1xf32>, tensor<3xi32>) -> tensor<1x1x64xf32>
    %25 = tosa.reshape %24 {new_shape = array<i64: 1, 1, 1, 64>} : (tensor<1x1x64xf32>) -> tensor<1x1x1x64xf32>
    %26 = "tosa.const"() <{value = dense<0.000000e+00> : tensor<1x1x2x64xf32>}> : () -> tensor<1x1x2x64xf32>
    %27 = tosa.add %25, %26 : (tensor<1x1x1x64xf32>, tensor<1x1x2x64xf32>) -> tensor<1x1x2x64xf32>
    %28 = tosa.reshape %27 {new_shape = array<i64: 1, 1, 128>} : (tensor<1x1x2x64xf32>) -> tensor<1x1x128xf32>
    %29 = math.cos %28 : tensor<1x1x128xf32>
    %cst = arith.constant dense<1.000000e+00> : tensor<1xf32>
    %30 = tosa.reshape %cst {new_shape = array<i64: 1, 1, 1>} : (tensor<1xf32>) -> tensor<1x1x1xf32>
    %31 = tosa.mul %29, %30 : (tensor<1x1x128xf32>, tensor<1x1x1xf32>) -> tensor<1x1x128xf32>
    %32 = math.sin %28 : tensor<1x1x128xf32>
    %cst_0 = arith.constant dense<1.000000e+00> : tensor<1xf32>
    %33 = tosa.reshape %cst_0 {new_shape = array<i64: 1, 1, 1>} : (tensor<1xf32>) -> tensor<1x1x1xf32>
    %34 = tosa.mul %32, %33 : (tensor<1x1x128xf32>, tensor<1x1x1xf32>) -> tensor<1x1x128xf32>
    
    // ===========================================
    // 3. LAYER NORMALIZATION (Pre-Attention)
    // ===========================================
    // Apply layer normalization before attention mechanism
    // Weights: %arg4 (1536xf32) - layer norm scale
    // Bias: %arg6 (1536xf32) - layer norm bias
    // pow_1 -- mul_3 6个
    %35 = tensor.empty() : tensor<1x1x1536xf32>
    %c2_i32 = arith.constant 2 : i32
    %36 = linalg.generic {indexing_maps = [#map, #map], iterator_types = ["parallel", "parallel", "parallel"]} ins(%2 : tensor<1x1x1536xf32>) outs(%35 : tensor<1x1x1536xf32>) {
    ^bb0(%in: f32, %out: f32):
      %3945 = math.fpowi %in, %c2_i32 : f32, i32
      linalg.yield %3945 : f32
    } -> tensor<1x1x1536xf32>
    %37 = tosa.reduce_sum %36 {axis = 2 : i32} : (tensor<1x1x1536xf32>) -> tensor<1x1x1xf32>
    %38 = "tosa.const"() <{value = dense<1.536000e+03> : tensor<1xf32>}> : () -> tensor<1xf32>
    %39 = tosa.reciprocal %38 : (tensor<1xf32>) -> tensor<1xf32>
    %40 = tosa.reshape %39 {new_shape = array<i64: 1, 1, 1>} : (tensor<1xf32>) -> tensor<1x1x1xf32>
    %41 = tosa.mul %40, %37 : (tensor<1x1x1xf32>, tensor<1x1x1xf32>) -> tensor<1x1x1xf32>
    %42 = "tosa.const"() <{value = dense<9.99999997E-7> : tensor<1x1x1xf32>}> : () -> tensor<1x1x1xf32>
    %43 = tosa.add %41, %42 : (tensor<1x1x1xf32>, tensor<1x1x1xf32>) -> tensor<1x1x1xf32>
    %44 = tosa.rsqrt %43 : (tensor<1x1x1xf32>) -> tensor<1x1x1xf32>
    %45 = tosa.mul %2, %44 : (tensor<1x1x1536xf32>, tensor<1x1x1xf32>) -> tensor<1x1x1536xf32>
    %46 = tosa.reshape %arg5 {new_shape = array<i64: 1, 1, 1536>} : (tensor<1536xf32>) -> tensor<1x1x1536xf32>
    %47 = tosa.mul %46, %45 : (tensor<1x1x1536xf32>, tensor<1x1x1536xf32>) -> tensor<1x1x1536xf32>
    
    // ===========================================
    // 4. MULTI-HEAD ATTENTION MECHANISM
    // ===========================================
    // Generate Query, Key, Value projections for attention
    // Model has 12 attention heads, 128 dimensions per head

    // Query Projection: %arg7 (256x1536) -> Q weights
    // view_5 -- permute_2 6个
    %48 = tosa.reshape %47 {new_shape = array<i64: 1, 1536>} : (tensor<1x1x1536xf32>) -> tensor<1x1536xf32>
    %49 = "tosa.const"() <{value = dense<[1, 0]> : tensor<2xi32>}> : () -> tensor<2xi32>
    %50 = tosa.transpose %arg6, %49 : (tensor<1536x1536xf32>, tensor<2xi32>) -> tensor<1536x1536xf32>
    %cst_1 = arith.constant dense<0.000000e+00> : tensor<1x1536xf32>
    %51 = linalg.matmul {cast = #linalg.type_fn<cast_signed>} ins(%48, %50 : tensor<1x1536xf32>, tensor<1536x1536xf32>) outs(%cst_1 : tensor<1x1536xf32>) -> tensor<1x1536xf32>
    %52 = tosa.reshape %arg7 {new_shape = array<i64: 1, 1536>} : (tensor<1536xf32>) -> tensor<1x1536xf32>
    %53 = tosa.add %52, %51 : (tensor<1x1536xf32>, tensor<1x1536xf32>) -> tensor<1x1536xf32>
    %54 = tosa.reshape %53 {new_shape = array<i64: 1, 1, 1536>} : (tensor<1x1536xf32>) -> tensor<1x1x1536xf32>
    %55 = tosa.reshape %54 {new_shape = array<i64: 1, 1, 12, 128>} : (tensor<1x1x1536xf32>) -> tensor<1x1x12x128xf32>
    %56 = "tosa.const"() <{value = dense<[0, 2, 1, 3]> : tensor<4xi32>}> : () -> tensor<4xi32>
    %57 = tosa.transpose %55, %56 : (tensor<1x1x12x128xf32>, tensor<4xi32>) -> tensor<1x12x1x128xf32>
    
    // Key Projection: %arg9 (256x1536) -> K weights
    // view_8 -- permute_4 6个
    %58 = tosa.reshape %47 {new_shape = array<i64: 1, 1536>} : (tensor<1x1x1536xf32>) -> tensor<1x1536xf32>
    %59 = "tosa.const"() <{value = dense<[1, 0]> : tensor<2xi32>}> : () -> tensor<2xi32>
    %60 = tosa.transpose %arg8, %59 : (tensor<256x1536xf32>, tensor<2xi32>) -> tensor<1536x256xf32>
    %cst_2 = arith.constant dense<0.000000e+00> : tensor<1x256xf32>
    %61 = linalg.matmul {cast = #linalg.type_fn<cast_signed>} ins(%58, %60 : tensor<1x1536xf32>, tensor<1536x256xf32>) outs(%cst_2 : tensor<1x256xf32>) -> tensor<1x256xf32>
    %62 = tosa.reshape %arg9 {new_shape = array<i64: 1, 256>} : (tensor<256xf32>) -> tensor<1x256xf32>
    %63 = tosa.add %62, %61 : (tensor<1x256xf32>, tensor<1x256xf32>) -> tensor<1x256xf32>
    %64 = tosa.reshape %63 {new_shape = array<i64: 1, 1, 256>} : (tensor<1x256xf32>) -> tensor<1x1x256xf32>
    %65 = tosa.reshape %64 {new_shape = array<i64: 1, 1, 2, 128>} : (tensor<1x1x256xf32>) -> tensor<1x1x2x128xf32>
    %66 = "tosa.const"() <{value = dense<[0, 2, 1, 3]> : tensor<4xi32>}> : () -> tensor<4xi32>
    %67 = tosa.transpose %65, %66 : (tensor<1x1x2x128xf32>, tensor<4xi32>) -> tensor<1x2x1x128xf32>
    
    //v %95 v cache
    // view_11 --- permute_6 6个
    %68 = tosa.reshape %47 {new_shape = array<i64: 1, 1536>} : (tensor<1x1x1536xf32>) -> tensor<1x1536xf32>
    %69 = "tosa.const"() <{value = dense<[1, 0]> : tensor<2xi32>}> : () -> tensor<2xi32>
    %70 = tosa.transpose %arg10, %69 : (tensor<256x1536xf32>, tensor<2xi32>) -> tensor<1536x256xf32>
    %cst_3 = arith.constant dense<0.000000e+00> : tensor<1x256xf32>
    %71 = linalg.matmul {cast = #linalg.type_fn<cast_signed>} ins(%68, %70 : tensor<1x1536xf32>, tensor<1536x256xf32>) outs(%cst_3 : tensor<1x256xf32>) -> tensor<1x256xf32>
    %72 = tosa.reshape %arg11 {new_shape = array<i64: 1, 256>} : (tensor<256xf32>) -> tensor<1x256xf32>
    %73 = tosa.add %72, %71 : (tensor<1x256xf32>, tensor<1x256xf32>) -> tensor<1x256xf32>
    %74 = tosa.reshape %73 {new_shape = array<i64: 1, 1, 256>} : (tensor<1x256xf32>) -> tensor<1x1x256xf32>
    %75 = tosa.reshape %74 {new_shape = array<i64: 1, 1, 2, 128>} : (tensor<1x1x256xf32>) -> tensor<1x1x2x128xf32>
    %76 = "tosa.const"() <{value = dense<[0, 2, 1, 3]> : tensor<4xi32>}> : () -> tensor<4xi32>
    %77 = tosa.transpose %75, %76 : (tensor<1x1x2x128xf32>, tensor<4xi32>) -> tensor<1x2x1x128xf32>
    
    // Apply RoPE (Rotary Position Embedding) to Q, K vectors
    //unsqueeze_5 -- unsqueeze_6 2
    %78 = tosa.reshape %31 {new_shape = array<i64: 1, 1, 1, 128>} : (tensor<1x1x128xf32>) -> tensor<1x1x1x128xf32>
    %79 = tosa.reshape %34 {new_shape = array<i64: 1, 1, 1, 128>} : (tensor<1x1x128xf32>) -> tensor<1x1x1x128xf32>
    //Q
    // mul_4 -- add_2 7个 Children: attention
    %80 = tosa.mul %57, %78 : (tensor<1x12x1x128xf32>, tensor<1x1x1x128xf32>) -> tensor<1x12x1x128xf32>
    %extracted_slice = tensor.extract_slice %57[0, 0, 0, 0] [1, 12, 1, 64] [1, 1, 1, 1] : tensor<1x12x1x128xf32> to tensor<1x12x1x64xf32>
    %extracted_slice_4 = tensor.extract_slice %57[0, 0, 0, 64] [1, 12, 1, 64] [1, 1, 1, 1] : tensor<1x12x1x128xf32> to tensor<1x12x1x64xf32>
    %81 = tensor.empty() : tensor<1x12x1x64xf32>
    %82 = linalg.negf ins(%extracted_slice_4 : tensor<1x12x1x64xf32>) outs(%81 : tensor<1x12x1x64xf32>) -> tensor<1x12x1x64xf32>
    %83 = tensor.empty() : tensor<1x12x1x128xf32>
    %inserted_slice = tensor.insert_slice %82 into %83[0, 0, 0, 0] [1, 12, 1, 64] [1, 1, 1, 1] : tensor<1x12x1x64xf32> into tensor<1x12x1x128xf32>
    %inserted_slice_5 = tensor.insert_slice %extracted_slice into %inserted_slice[0, 0, 0, 64] [1, 12, 1, 64] [1, 1, 1, 1] : tensor<1x12x1x64xf32> into tensor<1x12x1x128xf32>
    %84 = tosa.mul %inserted_slice_5, %79 : (tensor<1x12x1x128xf32>, tensor<1x1x1x128xf32>) -> tensor<1x12x1x128xf32>
    %85 = tosa.add %80, %84 : (tensor<1x12x1x128xf32>, tensor<1x12x1x128xf32>) -> tensor<1x12x1x128xf32>
    //K %99 k chache 
  // mul_6 -- add3 7个 Children: ['index_put']
    %86 = tosa.mul %67, %78 : (tensor<1x2x1x128xf32>, tensor<1x1x1x128xf32>) -> tensor<1x2x1x128xf32>
    %extracted_slice_6 = tensor.extract_slice %67[0, 0, 0, 0] [1, 2, 1, 64] [1, 1, 1, 1] : tensor<1x2x1x128xf32> to tensor<1x2x1x64xf32>
    %extracted_slice_7 = tensor.extract_slice %67[0, 0, 0, 64] [1, 2, 1, 64] [1, 1, 1, 1] : tensor<1x2x1x128xf32> to tensor<1x2x1x64xf32>
    %87 = tensor.empty() : tensor<1x2x1x64xf32>
    %88 = linalg.negf ins(%extracted_slice_7 : tensor<1x2x1x64xf32>) outs(%87 : tensor<1x2x1x64xf32>) -> tensor<1x2x1x64xf32>
    %89 = tensor.empty() : tensor<1x2x1x128xf32>
    %inserted_slice_8 = tensor.insert_slice %88 into %89[0, 0, 0, 0] [1, 2, 1, 64] [1, 1, 1, 1] : tensor<1x2x1x64xf32> into tensor<1x2x1x128xf32>
    %inserted_slice_9 = tensor.insert_slice %extracted_slice_6 into %inserted_slice_8[0, 0, 0, 64] [1, 2, 1, 64] [1, 1, 1, 1] : tensor<1x2x1x64xf32> into tensor<1x2x1x128xf32>
    %90 = tosa.mul %inserted_slice_9, %79 : (tensor<1x2x1x128xf32>, tensor<1x1x1x128xf32>) -> tensor<1x2x1x128xf32>
    %91 = tosa.add %86, %90 : (tensor<1x2x1x128xf32>, tensor<1x2x1x128xf32>) -> tensor<1x2x1x128xf32>
    
    // index_put -- Children: ['slice_12', 'output'] 1
    //更新k cache : 把这一步生成的 K 向量，放入全局 K cache 的正确位置
    // %95 传到下一个的cache
    %92 = bufferization.to_memref %arg12 : tensor<1x2x1024x128xf32> to memref<1x2x1024x128xf32>
    %93 = bufferization.to_memref %arg3 : tensor<1xi64> to memref<1xi64>
    %94 = bufferization.to_memref %91 : tensor<1x2x1x128xf32> to memref<1x2x1x128xf32>
    %c0 = arith.constant 0 : index
    %c1 = arith.constant 1 : index
    %c1_10 = arith.constant 1 : index
    %c2 = arith.constant 2 : index
    %c1_11 = arith.constant 1 : index
    %c128 = arith.constant 128 : index
    scf.for %arg399 = %c0 to %c1_10 step %c1 {
      scf.for %arg400 = %c0 to %c2 step %c1 {
        scf.for %arg401 = %c0 to %c1_11 step %c1 {
          %3945 = memref.load %93[%arg401] : memref<1xi64>
          %3946 = arith.index_cast %3945 : i64 to index
          scf.for %arg402 = %c0 to %c128 step %c1 {
            %3947 = memref.load %94[%arg399, %arg400, %arg401, %arg402] : memref<1x2x1x128xf32>
            memref.store %3947, %92[%arg399, %arg400, %3946, %arg402] : memref<1x2x1024x128xf32>
          }
        }
      }
    }
    %95 = bufferization.to_tensor %92 restrict : memref<1x2x1024x128xf32> to tensor<1x2x1024x128xf32>
    
    //更新v cache
// index_put_1 -- Children: ['slice_20', 'output'] 1
    %96 = bufferization.to_memref %arg13 : tensor<1x2x1024x128xf32> to memref<1x2x1024x128xf32>
    %97 = bufferization.to_memref %arg3 : tensor<1xi64> to memref<1xi64>
    %98 = bufferization.to_memref %77 : tensor<1x2x1x128xf32> to memref<1x2x1x128xf32>
    %c0_12 = arith.constant 0 : index
    %c1_13 = arith.constant 1 : index
    %c1_14 = arith.constant 1 : index
    %c2_15 = arith.constant 2 : index
    %c1_16 = arith.constant 1 : index
    %c128_17 = arith.constant 128 : index
    scf.for %arg399 = %c0_12 to %c1_14 step %c1_13 {
      scf.for %arg400 = %c0_12 to %c2_15 step %c1_13 {
        scf.for %arg401 = %c0_12 to %c1_16 step %c1_13 {
          %3945 = memref.load %97[%arg401] : memref<1xi64>
          %3946 = arith.index_cast %3945 : i64 to index
          scf.for %arg402 = %c0_12 to %c128_17 step %c1_13 {
            %3947 = memref.load %98[%arg399, %arg400, %arg401, %arg402] : memref<1x2x1x128xf32>
            memref.store %3947, %96[%arg399, %arg400, %3946, %arg402] : memref<1x2x1024x128xf32>
          }
        }
      }
    }
    %99 = bufferization.to_tensor %96 restrict : memref<1x2x1024x128xf32> to tensor<1x2x1024x128xf32>
    //logits = (Q K^T) / sqrt(d_head) + mask%17
    // slice_12 -- view_15 Children: ['_scaled_dot_product_flash_attention_for_cpu'] 16
    %100 = tosa.reshape %95 {new_shape = array<i64: 1, 2, 1, 1024, 128>} : (tensor<1x2x1024x128xf32>) -> tensor<1x2x1x1024x128xf32>
    %101 = "tosa.const"() <{value = dense<0.000000e+00> : tensor<1x2x6x1024x128xf32>}> : () -> tensor<1x2x6x1024x128xf32>
    %102 = tosa.add %100, %101 : (tensor<1x2x1x1024x128xf32>, tensor<1x2x6x1024x128xf32>) -> tensor<1x2x6x1024x128xf32>
    %103 = tosa.reshape %102 {new_shape = array<i64: 1, 12, 1024, 128>} : (tensor<1x2x6x1024x128xf32>) -> tensor<1x12x1024x128xf32>
    %104 = tosa.reshape %99 {new_shape = array<i64: 1, 2, 1, 1024, 128>} : (tensor<1x2x1024x128xf32>) -> tensor<1x2x1x1024x128xf32>
    %105 = "tosa.const"() <{value = dense<0.000000e+00> : tensor<1x2x6x1024x128xf32>}> : () -> tensor<1x2x6x1024x128xf32>
    %106 = tosa.add %104, %105 : (tensor<1x2x1x1024x128xf32>, tensor<1x2x6x1024x128xf32>) -> tensor<1x2x6x1024x128xf32>
    %107 = tosa.reshape %106 {new_shape = array<i64: 1, 12, 1024, 128>} : (tensor<1x2x6x1024x128xf32>) -> tensor<1x12x1024x128xf32>
    //生成 Mask
    // slice_24 -- where 6 
    %108 = tosa.reshape %17 {new_shape = array<i64: 1, 1, 1, 1024>} : (tensor<1x1024xi1>) -> tensor<1x1x1x1024xi1>
    %cst_18 = arith.constant 0xFF800000 : f32
    %cst_19 = arith.constant 0.000000e+00 : f32
    %109 = tensor.empty() : tensor<1x1x1x1024xf32>
    %splat = tensor.splat %cst_19 : tensor<1x1x1x1024xf32>
    %splat_20 = tensor.splat %cst_18 : tensor<1x1x1x1024xf32>
    %110 = linalg.generic {indexing_maps = [#map1, #map1, #map1, #map1], iterator_types = ["parallel", "parallel", "parallel", "parallel"]} ins(%108, %splat, %splat_20 : tensor<1x1x1x1024xi1>, tensor<1x1x1x1024xf32>, tensor<1x1x1x1024xf32>) outs(%109 : tensor<1x1x1x1024xf32>) {
    ^bb0(%in: i1, %in_1031: f32, %in_1032: f32, %out: f32):
      %3945 = arith.select %in, %in_1031, %in_1032 : f32
      linalg.yield %3945 : f32
    } -> tensor<1x1x1x1024xf32>
    
    // attention  一个算子
    %cst_21 = arith.constant 0.000000e+00 : f32
    %splat_22 = tensor.splat %cst_21 : tensor<1x1024xf32>
    %111 = tosa.reshape %110 {new_shape = array<i64: 1, 1024>} : (tensor<1x1x1x1024xf32>) -> tensor<1x1024xf32>
    %112 = tosa.add %splat_22, %111 : (tensor<1x1024xf32>, tensor<1x1024xf32>) -> tensor<1x1024xf32>
    //Q·K^T
    %113 = "tosa.const"() <{value = dense<[0, 1, 3, 2]> : tensor<4xi32>}> : () -> tensor<4xi32>
    %114 = tosa.transpose %103, %113 : (tensor<1x12x1024x128xf32>, tensor<4xi32>) -> tensor<1x12x128x1024xf32>
    %115 = tosa.reshape %85 {new_shape = array<i64: 12, 1, 128>} : (tensor<1x12x1x128xf32>) -> tensor<12x1x128xf32>
    %116 = tosa.reshape %114 {new_shape = array<i64: 12, 128, 1024>} : (tensor<1x12x128x1024xf32>) -> tensor<12x128x1024xf32>
    %117 = tosa.matmul %115, %116 : (tensor<12x1x128xf32>, tensor<12x128x1024xf32>) -> tensor<12x1x1024xf32>
    %cst_23 = arith.constant 0.0883883461 : f32
    %splat_24 = tensor.splat %cst_23 : tensor<12x1x1024xf32>
    %118 = tosa.mul %117, %splat_24 : (tensor<12x1x1024xf32>, tensor<12x1x1024xf32>) -> tensor<12x1x1024xf32>
    %119 = tosa.reshape %112 {new_shape = array<i64: 1, 1, 1024>} : (tensor<1x1024xf32>) -> tensor<1x1x1024xf32>
    %120 = tosa.add %118, %119 : (tensor<12x1x1024xf32>, tensor<1x1x1024xf32>) -> tensor<12x1x1024xf32>
    
    // Apply softmax with numerical stability (log-sum-exp trick)
    %121 = tosa.reduce_max %120 {axis = 2 : i32} : (tensor<12x1x1024xf32>) -> tensor<12x1x1xf32>
    %122 = tosa.sub %120, %121 : (tensor<12x1x1024xf32>, tensor<12x1x1xf32>) -> tensor<12x1x1024xf32>
    %123 = math.exp %122 : tensor<12x1x1024xf32>
    %124 = tosa.reduce_sum %123 {axis = 2 : i32} : (tensor<12x1x1024xf32>) -> tensor<12x1x1xf32>
    %125 = tosa.log %124 : (tensor<12x1x1xf32>) -> tensor<12x1x1xf32>
    %126 = tosa.add %121, %125 : (tensor<12x1x1xf32>, tensor<12x1x1xf32>) -> tensor<12x1x1xf32>
    %127 = tosa.sub %120, %126 : (tensor<12x1x1024xf32>, tensor<12x1x1xf32>) -> tensor<12x1x1024xf32>
    %128 = math.exp %127 : tensor<12x1x1024xf32>
    %129 = tosa.reshape %126 {new_shape = array<i64: 1, 12, 1>} : (tensor<12x1x1xf32>) -> tensor<1x12x1xf32>
    %130 = tosa.reshape %107 {new_shape = array<i64: 12, 1024, 128>} : (tensor<1x12x1024x128xf32>) -> tensor<12x1024x128xf32>
    %131 = tosa.matmul %128, %130 : (tensor<12x1x1024xf32>, tensor<12x1024x128xf32>) -> tensor<12x1x128xf32>
    %132 = tosa.reshape %131 {new_shape = array<i64: 1, 12, 1, 128>} : (tensor<12x1x128xf32>) -> tensor<1x12x1x128xf32>
    
    
    // ===========================================
    // 6. OUTPUT PROJECTION & RESIDUAL CONNECTION
    // ===========================================
    // Project attention output back to hidden dimension
    // Add residual connection (attention output + input) 
    // getitem -- add_4 //6+2个
    %133 = "tosa.const"() <{value = dense<[0, 2, 1, 3]> : tensor<4xi32>}> : () -> tensor<4xi32>
    %134 = tosa.transpose %132, %133 : (tensor<1x12x1x128xf32>, tensor<4xi32>) -> tensor<1x1x12x128xf32>
    %135 = tosa.reshape %134 {new_shape = array<i64: 1, 1, 1536>} : (tensor<1x1x12x128xf32>) -> tensor<1x1x1536xf32>
    %136 = "tosa.const"() <{value = dense<[1, 0]> : tensor<2xi32>}> : () -> tensor<2xi32>
    %137 = tosa.transpose %arg14, %136 : (tensor<1536x1536xf32>, tensor<2xi32>) -> tensor<1536x1536xf32>
    %138 = tosa.reshape %135 {new_shape = array<i64: 1, 1536>} : (tensor<1x1x1536xf32>) -> tensor<1x1536xf32>
    %cst_25 = arith.constant dense<0.000000e+00> : tensor<1x1536xf32>
    %139 = linalg.matmul {cast = #linalg.type_fn<cast_signed>} ins(%138, %137 : tensor<1x1536xf32>, tensor<1536x1536xf32>) outs(%cst_25 : tensor<1x1536xf32>) -> tensor<1x1536xf32>
    
    // 残差连接 2
    %140 = tosa.reshape %139 {new_shape = array<i64: 1, 1, 1536>} : (tensor<1x1536xf32>) -> tensor<1x1x1536xf32>
    %141 = tosa.add %2, %140 : (tensor<1x1x1536xf32>, tensor<1x1x1536xf32>) -> tensor<1x1x1536xf32>

    // ===========================================
    // 7. LAYER NORMALIZATION (Pre-FFN)
    // ===========================================
    // Apply layer normalization before feed-forward network    
    // pow_2 -- mul_9 6
    %142 = tensor.empty() : tensor<1x1x1536xf32>
    %c2_i32_26 = arith.constant 2 : i32
    %143 = linalg.generic {indexing_maps = [#map, #map], iterator_types = ["parallel", "parallel", "parallel"]} ins(%141 : tensor<1x1x1536xf32>) outs(%142 : tensor<1x1x1536xf32>) {
    ^bb0(%in: f32, %out: f32):
      %3945 = math.fpowi %in, %c2_i32_26 : f32, i32
      linalg.yield %3945 : f32
    } -> tensor<1x1x1536xf32>
    %144 = tosa.reduce_sum %143 {axis = 2 : i32} : (tensor<1x1x1536xf32>) -> tensor<1x1x1xf32>
    %145 = "tosa.const"() <{value = dense<1.536000e+03> : tensor<1xf32>}> : () -> tensor<1xf32>
    %146 = tosa.reciprocal %145 : (tensor<1xf32>) -> tensor<1xf32>
    %147 = tosa.reshape %146 {new_shape = array<i64: 1, 1, 1>} : (tensor<1xf32>) -> tensor<1x1x1xf32>
    %148 = tosa.mul %147, %144 : (tensor<1x1x1xf32>, tensor<1x1x1xf32>) -> tensor<1x1x1xf32>
    %149 = "tosa.const"() <{value = dense<9.99999997E-7> : tensor<1x1x1xf32>}> : () -> tensor<1x1x1xf32>
    %150 = tosa.add %148, %149 : (tensor<1x1x1xf32>, tensor<1x1x1xf32>) -> tensor<1x1x1xf32>
    %151 = tosa.rsqrt %150 : (tensor<1x1x1xf32>) -> tensor<1x1x1xf32>
    %152 = tosa.mul %141, %151 : (tensor<1x1x1536xf32>, tensor<1x1x1xf32>) -> tensor<1x1x1536xf32>
    %153 = tosa.reshape %arg15 {new_shape = array<i64: 1, 1, 1536>} : (tensor<1536xf32>) -> tensor<1x1x1536xf32>
    %154 = tosa.mul %153, %152 : (tensor<1x1x1536xf32>, tensor<1x1x1536xf32>) -> tensor<1x1x1536xf32>
    
    // ===========================================
    // 8. FEED-FORWARD NETWORK (FFN)
    // ===========================================
    // DeepSeek uses SwiGLU activation: x * sigmoid(x) * gate
    // FFN expansion ratio: 1536 -> 8960 -> 1536    
    // permute_9 -- mm_3 14
    %155 = "tosa.const"() <{value = dense<[1, 0]> : tensor<2xi32>}> : () -> tensor<2xi32>
    %156 = tosa.transpose %arg16, %155 : (tensor<8960x1536xf32>, tensor<2xi32>) -> tensor<1536x8960xf32>
    %157 = tosa.reshape %154 {new_shape = array<i64: 1, 1536>} : (tensor<1x1x1536xf32>) -> tensor<1x1536xf32>
    %cst_27 = arith.constant dense<0.000000e+00> : tensor<1x8960xf32>
    %158 = linalg.matmul {cast = #linalg.type_fn<cast_signed>} ins(%157, %156 : tensor<1x1536xf32>, tensor<1536x8960xf32>) outs(%cst_27 : tensor<1x8960xf32>) -> tensor<1x8960xf32>
    %159 = tosa.reshape %158 {new_shape = array<i64: 1, 1, 8960>} : (tensor<1x8960xf32>) -> tensor<1x1x8960xf32>
    %160 = tosa.sigmoid %159 : (tensor<1x1x8960xf32>) -> tensor<1x1x8960xf32>
    %161 = tosa.mul %159, %160 : (tensor<1x1x8960xf32>, tensor<1x1x8960xf32>) -> tensor<1x1x8960xf32>
    %162 = "tosa.const"() <{value = dense<[1, 0]> : tensor<2xi32>}> : () -> tensor<2xi32>
    %163 = tosa.transpose %arg17, %162 : (tensor<8960x1536xf32>, tensor<2xi32>) -> tensor<1536x8960xf32>
    %164 = tosa.reshape %154 {new_shape = array<i64: 1, 1536>} : (tensor<1x1x1536xf32>) -> tensor<1x1536xf32>
    %cst_28 = arith.constant dense<0.000000e+00> : tensor<1x8960xf32>
    %165 = linalg.matmul {cast = #linalg.type_fn<cast_signed>} ins(%164, %163 : tensor<1x1536xf32>, tensor<1536x8960xf32>) outs(%cst_28 : tensor<1x8960xf32>) -> tensor<1x8960xf32>
    %166 = tosa.reshape %165 {new_shape = array<i64: 1, 1, 8960>} : (tensor<1x8960xf32>) -> tensor<1x1x8960xf32>
    %167 = tosa.mul %161, %166 : (tensor<1x1x8960xf32>, tensor<1x1x8960xf32>) -> tensor<1x1x8960xf32>
    %168 = "tosa.const"() <{value = dense<[1, 0]> : tensor<2xi32>}> : () -> tensor<2xi32>
    %169 = tosa.transpose %arg18, %168 : (tensor<1536x8960xf32>, tensor<2xi32>) -> tensor<8960x1536xf32>
    %170 = tosa.reshape %167 {new_shape = array<i64: 1, 8960>} : (tensor<1x1x8960xf32>) -> tensor<1x8960xf32>
    %cst_29 = arith.constant dense<0.000000e+00> : tensor<1x1536xf32>
    %171 = linalg.matmul {cast = #linalg.type_fn<cast_signed>} ins(%170, %169 : tensor<1x8960xf32>, tensor<8960x1536xf32>) outs(%cst_29 : tensor<1x1536xf32>) -> tensor<1x1536xf32>
    // view_24 -- add_6 2
    %172 = tosa.reshape %171 {new_shape = array<i64: 1, 1, 1536>} : (tensor<1x1536xf32>) -> tensor<1x1x1536xf32>
    %173 = tosa.add %141, %172 : (tensor<1x1x1536xf32>, tensor<1x1x1536xf32>) -> tensor<1x1x1536xf32>
    
    
    
    %174 = tensor.empty() : tensor<1x1x1536xf32>
    %c2_i32_30 = arith.constant 2 : i32
    %175 = linalg.generic {indexing_maps = [#map, #map], iterator_types = ["parallel", "parallel", "parallel"]} ins(%173 : tensor<1x1x1536xf32>) outs(%174 : tensor<1x1x1536xf32>) {
    ^bb0(%in: f32, %out: f32):
      %3945 = math.fpowi %in, %c2_i32_30 : f32, i32
      linalg.yield %3945 : f32
    } -> tensor<1x1x1536xf32>
    %176 = tosa.reduce_sum %175 {axis = 2 : i32} : (tensor<1x1x1536xf32>) -> tensor<1x1x1xf32>
    %177 = "tosa.const"() <{value = dense<1.536000e+03> : tensor<1xf32>}> : () -> tensor<1xf32>
    %178 = tosa.reciprocal %177 : (tensor<1xf32>) -> tensor<1xf32>
    %179 = tosa.reshape %178 {new_shape = array<i64: 1, 1, 1>} : (tensor<1xf32>) -> tensor<1x1x1xf32>
    %180 = tosa.mul %179, %176 : (tensor<1x1x1xf32>, tensor<1x1x1xf32>) -> tensor<1x1x1xf32>
    %181 = "tosa.const"() <{value = dense<9.99999997E-7> : tensor<1x1x1xf32>}> : () -> tensor<1x1x1xf32>
    %182 = tosa.add %180, %181 : (tensor<1x1x1xf32>, tensor<1x1x1xf32>) -> tensor<1x1x1xf32>
    %183 = tosa.rsqrt %182 : (tensor<1x1x1xf32>) -> tensor<1x1x1xf32>
    %184 = tosa.mul %173, %183 : (tensor<1x1x1536xf32>, tensor<1x1x1xf32>) -> tensor<1x1x1536xf32>
    %185 = tosa.reshape %arg19 {new_shape = array<i64: 1, 1, 1536>} : (tensor<1536xf32>) -> tensor<1x1x1536xf32>
    %186 = tosa.mul %185, %184 : (tensor<1x1x1536xf32>, tensor<1x1x1536xf32>) -> tensor<1x1x1536xf32>
    %187 = tosa.reshape %186 {new_shape = array<i64: 1, 1536>} : (tensor<1x1x1536xf32>) -> tensor<1x1536xf32>
    %188 = "tosa.const"() <{value = dense<[1, 0]> : tensor<2xi32>}> : () -> tensor<2xi32>
    %189 = tosa.transpose %arg20, %188 : (tensor<1536x1536xf32>, tensor<2xi32>) -> tensor<1536x1536xf32>
    %cst_31 = arith.constant dense<0.000000e+00> : tensor<1x1536xf32>
    %190 = linalg.matmul {cast = #linalg.type_fn<cast_signed>} ins(%187, %189 : tensor<1x1536xf32>, tensor<1536x1536xf32>) outs(%cst_31 : tensor<1x1536xf32>) -> tensor<1x1536xf32>
    %191 = tosa.reshape %arg21 {new_shape = array<i64: 1, 1536>} : (tensor<1536xf32>) -> tensor<1x1536xf32>
    %192 = tosa.add %191, %190 : (tensor<1x1536xf32>, tensor<1x1536xf32>) -> tensor<1x1536xf32>
    %193 = tosa.reshape %192 {new_shape = array<i64: 1, 1, 1536>} : (tensor<1x1536xf32>) -> tensor<1x1x1536xf32>
    %194 = tosa.reshape %193 {new_shape = array<i64: 1, 1, 12, 128>} : (tensor<1x1x1536xf32>) -> tensor<1x1x12x128xf32>
    %195 = "tosa.const"() <{value = dense<[0, 2, 1, 3]> : tensor<4xi32>}> : () -> tensor<4xi32>
    %196 = tosa.transpose %194, %195 : (tensor<1x1x12x128xf32>, tensor<4xi32>) -> tensor<1x12x1x128xf32>
    %197 = tosa.reshape %186 {new_shape = array<i64: 1, 1536>} : (tensor<1x1x1536xf32>) -> tensor<1x1536xf32>
    %198 = "tosa.const"() <{value = dense<[1, 0]> : tensor<2xi32>}> : () -> tensor<2xi32>
    %199 = tosa.transpose %arg22, %198 : (tensor<256x1536xf32>, tensor<2xi32>) -> tensor<1536x256xf32>
    %cst_32 = arith.constant dense<0.000000e+00> : tensor<1x256xf32>
    %200 = linalg.matmul {cast = #linalg.type_fn<cast_signed>} ins(%197, %199 : tensor<1x1536xf32>, tensor<1536x256xf32>) outs(%cst_32 : tensor<1x256xf32>) -> tensor<1x256xf32>
    %201 = tosa.reshape %arg23 {new_shape = array<i64: 1, 256>} : (tensor<256xf32>) -> tensor<1x256xf32>
    %202 = tosa.add %201, %200 : (tensor<1x256xf32>, tensor<1x256xf32>) -> tensor<1x256xf32>
    %203 = tosa.reshape %202 {new_shape = array<i64: 1, 1, 256>} : (tensor<1x256xf32>) -> tensor<1x1x256xf32>
    %204 = tosa.reshape %203 {new_shape = array<i64: 1, 1, 2, 128>} : (tensor<1x1x256xf32>) -> tensor<1x1x2x128xf32>
    %205 = "tosa.const"() <{value = dense<[0, 2, 1, 3]> : tensor<4xi32>}> : () -> tensor<4xi32>
    %206 = tosa.transpose %204, %205 : (tensor<1x1x2x128xf32>, tensor<4xi32>) -> tensor<1x2x1x128xf32>
    %207 = tosa.reshape %186 {new_shape = array<i64: 1, 1536>} : (tensor<1x1x1536xf32>) -> tensor<1x1536xf32>
    %208 = "tosa.const"() <{value = dense<[1, 0]> : tensor<2xi32>}> : () -> tensor<2xi32>
    %209 = tosa.transpose %arg24, %208 : (tensor<256x1536xf32>, tensor<2xi32>) -> tensor<1536x256xf32>
    %cst_33 = arith.constant dense<0.000000e+00> : tensor<1x256xf32>
    %210 = linalg.matmul {cast = #linalg.type_fn<cast_signed>} ins(%207, %209 : tensor<1x1536xf32>, tensor<1536x256xf32>) outs(%cst_33 : tensor<1x256xf32>) -> tensor<1x256xf32>
    %211 = tosa.reshape %arg25 {new_shape = array<i64: 1, 256>} : (tensor<256xf32>) -> tensor<1x256xf32>
    %212 = tosa.add %211, %210 : (tensor<1x256xf32>, tensor<1x256xf32>) -> tensor<1x256xf32>
    %213 = tosa.reshape %212 {new_shape = array<i64: 1, 1, 256>} : (tensor<1x256xf32>) -> tensor<1x1x256xf32>
    %214 = tosa.reshape %213 {new_shape = array<i64: 1, 1, 2, 128>} : (tensor<1x1x256xf32>) -> tensor<1x1x2x128xf32>
    %215 = "tosa.const"() <{value = dense<[0, 2, 1, 3]> : tensor<4xi32>}> : () -> tensor<4xi32>
    %216 = tosa.transpose %214, %215 : (tensor<1x1x2x128xf32>, tensor<4xi32>) -> tensor<1x2x1x128xf32>
    %217 = tosa.reshape %31 {new_shape = array<i64: 1, 1, 1, 128>} : (tensor<1x1x128xf32>) -> tensor<1x1x1x128xf32>
    %218 = tosa.reshape %34 {new_shape = array<i64: 1, 1, 1, 128>} : (tensor<1x1x128xf32>) -> tensor<1x1x1x128xf32>
    %219 = tosa.mul %196, %217 : (tensor<1x12x1x128xf32>, tensor<1x1x1x128xf32>) -> tensor<1x12x1x128xf32>
    %extracted_slice_34 = tensor.extract_slice %196[0, 0, 0, 0] [1, 12, 1, 64] [1, 1, 1, 1] : tensor<1x12x1x128xf32> to tensor<1x12x1x64xf32>
    %extracted_slice_35 = tensor.extract_slice %196[0, 0, 0, 64] [1, 12, 1, 64] [1, 1, 1, 1] : tensor<1x12x1x128xf32> to tensor<1x12x1x64xf32>
    %220 = tensor.empty() : tensor<1x12x1x64xf32>
    %221 = linalg.negf ins(%extracted_slice_35 : tensor<1x12x1x64xf32>) outs(%220 : tensor<1x12x1x64xf32>) -> tensor<1x12x1x64xf32>
    %222 = tensor.empty() : tensor<1x12x1x128xf32>
    %inserted_slice_36 = tensor.insert_slice %221 into %222[0, 0, 0, 0] [1, 12, 1, 64] [1, 1, 1, 1] : tensor<1x12x1x64xf32> into tensor<1x12x1x128xf32>
    %inserted_slice_37 = tensor.insert_slice %extracted_slice_34 into %inserted_slice_36[0, 0, 0, 64] [1, 12, 1, 64] [1, 1, 1, 1] : tensor<1x12x1x64xf32> into tensor<1x12x1x128xf32>
    %223 = tosa.mul %inserted_slice_37, %218 : (tensor<1x12x1x128xf32>, tensor<1x1x1x128xf32>) -> tensor<1x12x1x128xf32>
    %224 = tosa.add %219, %223 : (tensor<1x12x1x128xf32>, tensor<1x12x1x128xf32>) -> tensor<1x12x1x128xf32>
    %225 = tosa.mul %206, %217 : (tensor<1x2x1x128xf32>, tensor<1x1x1x128xf32>) -> tensor<1x2x1x128xf32>
    %extracted_slice_38 = tensor.extract_slice %206[0, 0, 0, 0] [1, 2, 1, 64] [1, 1, 1, 1] : tensor<1x2x1x128xf32> to tensor<1x2x1x64xf32>
    %extracted_slice_39 = tensor.extract_slice %206[0, 0, 0, 64] [1, 2, 1, 64] [1, 1, 1, 1] : tensor<1x2x1x128xf32> to tensor<1x2x1x64xf32>
    %226 = tensor.empty() : tensor<1x2x1x64xf32>
    %227 = linalg.negf ins(%extracted_slice_39 : tensor<1x2x1x64xf32>) outs(%226 : tensor<1x2x1x64xf32>) -> tensor<1x2x1x64xf32>
    %228 = tensor.empty() : tensor<1x2x1x128xf32>
    %inserted_slice_40 = tensor.insert_slice %227 into %228[0, 0, 0, 0] [1, 2, 1, 64] [1, 1, 1, 1] : tensor<1x2x1x64xf32> into tensor<1x2x1x128xf32>
    %inserted_slice_41 = tensor.insert_slice %extracted_slice_38 into %inserted_slice_40[0, 0, 0, 64] [1, 2, 1, 64] [1, 1, 1, 1] : tensor<1x2x1x64xf32> into tensor<1x2x1x128xf32>
    %229 = tosa.mul %inserted_slice_41, %218 : (tensor<1x2x1x128xf32>, tensor<1x1x1x128xf32>) -> tensor<1x2x1x128xf32>
    %230 = tosa.add %225, %229 : (tensor<1x2x1x128xf32>, tensor<1x2x1x128xf32>) -> tensor<1x2x1x128xf32>
    %231 = bufferization.to_memref %arg26 : tensor<1x2x1024x128xf32> to memref<1x2x1024x128xf32>
    %232 = bufferization.to_memref %arg3 : tensor<1xi64> to memref<1xi64>
    %233 = bufferization.to_memref %230 : tensor<1x2x1x128xf32> to memref<1x2x1x128xf32>
    %c0_42 = arith.constant 0 : index
    %c1_43 = arith.constant 1 : index
    %c1_44 = arith.constant 1 : index
    %c2_45 = arith.constant 2 : index
    %c1_46 = arith.constant 1 : index
    %c128_47 = arith.constant 128 : index
    scf.for %arg399 = %c0_42 to %c1_44 step %c1_43 {
      scf.for %arg400 = %c0_42 to %c2_45 step %c1_43 {
        scf.for %arg401 = %c0_42 to %c1_46 step %c1_43 {
          %3945 = memref.load %232[%arg401] : memref<1xi64>
          %3946 = arith.index_cast %3945 : i64 to index
          scf.for %arg402 = %c0_42 to %c128_47 step %c1_43 {
            %3947 = memref.load %233[%arg399, %arg400, %arg401, %arg402] : memref<1x2x1x128xf32>
            memref.store %3947, %231[%arg399, %arg400, %3946, %arg402] : memref<1x2x1024x128xf32>
          }
        }
      }
    }
    %234 = bufferization.to_tensor %231 restrict : memref<1x2x1024x128xf32> to tensor<1x2x1024x128xf32>
    %235 = bufferization.to_memref %arg27 : tensor<1x2x1024x128xf32> to memref<1x2x1024x128xf32>
    %236 = bufferization.to_memref %arg3 : tensor<1xi64> to memref<1xi64>
    %237 = bufferization.to_memref %216 : tensor<1x2x1x128xf32> to memref<1x2x1x128xf32>
    %c0_48 = arith.constant 0 : index
    %c1_49 = arith.constant 1 : index
    %c1_50 = arith.constant 1 : index
    %c2_51 = arith.constant 2 : index
    %c1_52 = arith.constant 1 : index
    %c128_53 = arith.constant 128 : index
    scf.for %arg399 = %c0_48 to %c1_50 step %c1_49 {
      scf.for %arg400 = %c0_48 to %c2_51 step %c1_49 {
        scf.for %arg401 = %c0_48 to %c1_52 step %c1_49 {
          %3945 = memref.load %236[%arg401] : memref<1xi64>
          %3946 = arith.index_cast %3945 : i64 to index
          scf.for %arg402 = %c0_48 to %c128_53 step %c1_49 {
            %3947 = memref.load %237[%arg399, %arg400, %arg401, %arg402] : memref<1x2x1x128xf32>
            memref.store %3947, %235[%arg399, %arg400, %3946, %arg402] : memref<1x2x1024x128xf32>
          }
        }
      }
    }
    %238 = bufferization.to_tensor %235 restrict : memref<1x2x1024x128xf32> to tensor<1x2x1024x128xf32>
    %239 = tosa.reshape %234 {new_shape = array<i64: 1, 2, 1, 1024, 128>} : (tensor<1x2x1024x128xf32>) -> tensor<1x2x1x1024x128xf32>
    %240 = "tosa.const"() <{value = dense<0.000000e+00> : tensor<1x2x6x1024x128xf32>}> : () -> tensor<1x2x6x1024x128xf32>
    %241 = tosa.add %239, %240 : (tensor<1x2x1x1024x128xf32>, tensor<1x2x6x1024x128xf32>) -> tensor<1x2x6x1024x128xf32>
    %242 = tosa.reshape %241 {new_shape = array<i64: 1, 12, 1024, 128>} : (tensor<1x2x6x1024x128xf32>) -> tensor<1x12x1024x128xf32>
    %243 = tosa.reshape %238 {new_shape = array<i64: 1, 2, 1, 1024, 128>} : (tensor<1x2x1024x128xf32>) -> tensor<1x2x1x1024x128xf32>
    %244 = "tosa.const"() <{value = dense<0.000000e+00> : tensor<1x2x6x1024x128xf32>}> : () -> tensor<1x2x6x1024x128xf32>
    %245 = tosa.add %243, %244 : (tensor<1x2x1x1024x128xf32>, tensor<1x2x6x1024x128xf32>) -> tensor<1x2x6x1024x128xf32>
    %246 = tosa.reshape %245 {new_shape = array<i64: 1, 12, 1024, 128>} : (tensor<1x2x6x1024x128xf32>) -> tensor<1x12x1024x128xf32>
    %247 = tosa.reshape %17 {new_shape = array<i64: 1, 1, 1, 1024>} : (tensor<1x1024xi1>) -> tensor<1x1x1x1024xi1>
    %cst_54 = arith.constant 0xFF800000 : f32
    %cst_55 = arith.constant 0.000000e+00 : f32
    %248 = tensor.empty() : tensor<1x1x1x1024xf32>
    %splat_56 = tensor.splat %cst_55 : tensor<1x1x1x1024xf32>
    %splat_57 = tensor.splat %cst_54 : tensor<1x1x1x1024xf32>
    %249 = linalg.generic {indexing_maps = [#map1, #map1, #map1, #map1], iterator_types = ["parallel", "parallel", "parallel", "parallel"]} ins(%247, %splat_56, %splat_57 : tensor<1x1x1x1024xi1>, tensor<1x1x1x1024xf32>, tensor<1x1x1x1024xf32>) outs(%248 : tensor<1x1x1x1024xf32>) {
    ^bb0(%in: i1, %in_1031: f32, %in_1032: f32, %out: f32):
      %3945 = arith.select %in, %in_1031, %in_1032 : f32
      linalg.yield %3945 : f32
    } -> tensor<1x1x1x1024xf32>
    %cst_58 = arith.constant 0.000000e+00 : f32
    %splat_59 = tensor.splat %cst_58 : tensor<1x1024xf32>
    %250 = tosa.reshape %249 {new_shape = array<i64: 1, 1024>} : (tensor<1x1x1x1024xf32>) -> tensor<1x1024xf32>
    %251 = tosa.add %splat_59, %250 : (tensor<1x1024xf32>, tensor<1x1024xf32>) -> tensor<1x1024xf32>
    %252 = "tosa.const"() <{value = dense<[0, 1, 3, 2]> : tensor<4xi32>}> : () -> tensor<4xi32>
    %253 = tosa.transpose %242, %252 : (tensor<1x12x1024x128xf32>, tensor<4xi32>) -> tensor<1x12x128x1024xf32>
    %254 = tosa.reshape %224 {new_shape = array<i64: 12, 1, 128>} : (tensor<1x12x1x128xf32>) -> tensor<12x1x128xf32>
    %255 = tosa.reshape %253 {new_shape = array<i64: 12, 128, 1024>} : (tensor<1x12x128x1024xf32>) -> tensor<12x128x1024xf32>
    %256 = tosa.matmul %254, %255 : (tensor<12x1x128xf32>, tensor<12x128x1024xf32>) -> tensor<12x1x1024xf32>
    %cst_60 = arith.constant 0.0883883461 : f32
    %splat_61 = tensor.splat %cst_60 : tensor<12x1x1024xf32>
    %257 = tosa.mul %256, %splat_61 : (tensor<12x1x1024xf32>, tensor<12x1x1024xf32>) -> tensor<12x1x1024xf32>
    %258 = tosa.reshape %251 {new_shape = array<i64: 1, 1, 1024>} : (tensor<1x1024xf32>) -> tensor<1x1x1024xf32>
    %259 = tosa.add %257, %258 : (tensor<12x1x1024xf32>, tensor<1x1x1024xf32>) -> tensor<12x1x1024xf32>
    %260 = tosa.reduce_max %259 {axis = 2 : i32} : (tensor<12x1x1024xf32>) -> tensor<12x1x1xf32>
    %261 = tosa.sub %259, %260 : (tensor<12x1x1024xf32>, tensor<12x1x1xf32>) -> tensor<12x1x1024xf32>
    %262 = math.exp %261 : tensor<12x1x1024xf32>
    %263 = tosa.reduce_sum %262 {axis = 2 : i32} : (tensor<12x1x1024xf32>) -> tensor<12x1x1xf32>
    %264 = tosa.log %263 : (tensor<12x1x1xf32>) -> tensor<12x1x1xf32>
    %265 = tosa.add %260, %264 : (tensor<12x1x1xf32>, tensor<12x1x1xf32>) -> tensor<12x1x1xf32>
    %266 = tosa.sub %259, %265 : (tensor<12x1x1024xf32>, tensor<12x1x1xf32>) -> tensor<12x1x1024xf32>
    %267 = math.exp %266 : tensor<12x1x1024xf32>
    %268 = tosa.reshape %265 {new_shape = array<i64: 1, 12, 1>} : (tensor<12x1x1xf32>) -> tensor<1x12x1xf32>
    %269 = tosa.reshape %246 {new_shape = array<i64: 12, 1024, 128>} : (tensor<1x12x1024x128xf32>) -> tensor<12x1024x128xf32>
    %270 = tosa.matmul %267, %269 : (tensor<12x1x1024xf32>, tensor<12x1024x128xf32>) -> tensor<12x1x128xf32>
    %271 = tosa.reshape %270 {new_shape = array<i64: 1, 12, 1, 128>} : (tensor<12x1x128xf32>) -> tensor<1x12x1x128xf32>
    %272 = "tosa.const"() <{value = dense<[0, 2, 1, 3]> : tensor<4xi32>}> : () -> tensor<4xi32>
    %273 = tosa.transpose %271, %272 : (tensor<1x12x1x128xf32>, tensor<4xi32>) -> tensor<1x1x12x128xf32>
    %274 = tosa.reshape %273 {new_shape = array<i64: 1, 1, 1536>} : (tensor<1x1x12x128xf32>) -> tensor<1x1x1536xf32>
    %275 = "tosa.const"() <{value = dense<[1, 0]> : tensor<2xi32>}> : () -> tensor<2xi32>
    %276 = tosa.transpose %arg28, %275 : (tensor<1536x1536xf32>, tensor<2xi32>) -> tensor<1536x1536xf32>
    %277 = tosa.reshape %274 {new_shape = array<i64: 1, 1536>} : (tensor<1x1x1536xf32>) -> tensor<1x1536xf32>
    %cst_62 = arith.constant dense<0.000000e+00> : tensor<1x1536xf32>
    %278 = linalg.matmul {cast = #linalg.type_fn<cast_signed>} ins(%277, %276 : tensor<1x1536xf32>, tensor<1536x1536xf32>) outs(%cst_62 : tensor<1x1536xf32>) -> tensor<1x1536xf32>
    %279 = tosa.reshape %278 {new_shape = array<i64: 1, 1, 1536>} : (tensor<1x1536xf32>) -> tensor<1x1x1536xf32>
    %280 = tosa.add %173, %279 : (tensor<1x1x1536xf32>, tensor<1x1x1536xf32>) -> tensor<1x1x1536xf32>
    %281 = tensor.empty() : tensor<1x1x1536xf32>
    %c2_i32_63 = arith.constant 2 : i32
    %282 = linalg.generic {indexing_maps = [#map, #map], iterator_types = ["parallel", "parallel", "parallel"]} ins(%280 : tensor<1x1x1536xf32>) outs(%281 : tensor<1x1x1536xf32>) {
    ^bb0(%in: f32, %out: f32):
      %3945 = math.fpowi %in, %c2_i32_63 : f32, i32
      linalg.yield %3945 : f32
    } -> tensor<1x1x1536xf32>
    %283 = tosa.reduce_sum %282 {axis = 2 : i32} : (tensor<1x1x1536xf32>) -> tensor<1x1x1xf32>
    %284 = "tosa.const"() <{value = dense<1.536000e+03> : tensor<1xf32>}> : () -> tensor<1xf32>
    %285 = tosa.reciprocal %284 : (tensor<1xf32>) -> tensor<1xf32>
    %286 = tosa.reshape %285 {new_shape = array<i64: 1, 1, 1>} : (tensor<1xf32>) -> tensor<1x1x1xf32>
    %287 = tosa.mul %286, %283 : (tensor<1x1x1xf32>, tensor<1x1x1xf32>) -> tensor<1x1x1xf32>
    %288 = "tosa.const"() <{value = dense<9.99999997E-7> : tensor<1x1x1xf32>}> : () -> tensor<1x1x1xf32>
    %289 = tosa.add %287, %288 : (tensor<1x1x1xf32>, tensor<1x1x1xf32>) -> tensor<1x1x1xf32>
    %290 = tosa.rsqrt %289 : (tensor<1x1x1xf32>) -> tensor<1x1x1xf32>
    %291 = tosa.mul %280, %290 : (tensor<1x1x1536xf32>, tensor<1x1x1xf32>) -> tensor<1x1x1536xf32>
    %292 = tosa.reshape %arg29 {new_shape = array<i64: 1, 1, 1536>} : (tensor<1536xf32>) -> tensor<1x1x1536xf32>
    %293 = tosa.mul %292, %291 : (tensor<1x1x1536xf32>, tensor<1x1x1536xf32>) -> tensor<1x1x1536xf32>
    %294 = "tosa.const"() <{value = dense<[1, 0]> : tensor<2xi32>}> : () -> tensor<2xi32>
    %295 = tosa.transpose %arg30, %294 : (tensor<8960x1536xf32>, tensor<2xi32>) -> tensor<1536x8960xf32>
    %296 = tosa.reshape %293 {new_shape = array<i64: 1, 1536>} : (tensor<1x1x1536xf32>) -> tensor<1x1536xf32>
    %cst_64 = arith.constant dense<0.000000e+00> : tensor<1x8960xf32>
    %297 = linalg.matmul {cast = #linalg.type_fn<cast_signed>} ins(%296, %295 : tensor<1x1536xf32>, tensor<1536x8960xf32>) outs(%cst_64 : tensor<1x8960xf32>) -> tensor<1x8960xf32>
    %298 = tosa.reshape %297 {new_shape = array<i64: 1, 1, 8960>} : (tensor<1x8960xf32>) -> tensor<1x1x8960xf32>
    %299 = tosa.sigmoid %298 : (tensor<1x1x8960xf32>) -> tensor<1x1x8960xf32>
    %300 = tosa.mul %298, %299 : (tensor<1x1x8960xf32>, tensor<1x1x8960xf32>) -> tensor<1x1x8960xf32>
    %301 = "tosa.const"() <{value = dense<[1, 0]> : tensor<2xi32>}> : () -> tensor<2xi32>
    %302 = tosa.transpose %arg31, %301 : (tensor<8960x1536xf32>, tensor<2xi32>) -> tensor<1536x8960xf32>
    %303 = tosa.reshape %293 {new_shape = array<i64: 1, 1536>} : (tensor<1x1x1536xf32>) -> tensor<1x1536xf32>
    %cst_65 = arith.constant dense<0.000000e+00> : tensor<1x8960xf32>
    %304 = linalg.matmul {cast = #linalg.type_fn<cast_signed>} ins(%303, %302 : tensor<1x1536xf32>, tensor<1536x8960xf32>) outs(%cst_65 : tensor<1x8960xf32>) -> tensor<1x8960xf32>
    %305 = tosa.reshape %304 {new_shape = array<i64: 1, 1, 8960>} : (tensor<1x8960xf32>) -> tensor<1x1x8960xf32>
    %306 = tosa.mul %300, %305 : (tensor<1x1x8960xf32>, tensor<1x1x8960xf32>) -> tensor<1x1x8960xf32>
    %307 = "tosa.const"() <{value = dense<[1, 0]> : tensor<2xi32>}> : () -> tensor<2xi32>
    %308 = tosa.transpose %arg32, %307 : (tensor<1536x8960xf32>, tensor<2xi32>) -> tensor<8960x1536xf32>
    %309 = tosa.reshape %306 {new_shape = array<i64: 1, 8960>} : (tensor<1x1x8960xf32>) -> tensor<1x8960xf32>
    %cst_66 = arith.constant dense<0.000000e+00> : tensor<1x1536xf32>
    %310 = linalg.matmul {cast = #linalg.type_fn<cast_signed>} ins(%309, %308 : tensor<1x8960xf32>, tensor<8960x1536xf32>) outs(%cst_66 : tensor<1x1536xf32>) -> tensor<1x1536xf32>
    %311 = tosa.reshape %310 {new_shape = array<i64: 1, 1, 1536>} : (tensor<1x1536xf32>) -> tensor<1x1x1536xf32>
    %312 = tosa.add %280, %311 : (tensor<1x1x1536xf32>, tensor<1x1x1536xf32>) -> tensor<1x1x1536xf32>
    %313 = tensor.empty() : tensor<1x1x1536xf32>
    %c2_i32_67 = arith.constant 2 : i32
    %314 = linalg.generic {indexing_maps = [#map, #map], iterator_types = ["parallel", "parallel", "parallel"]} ins(%312 : tensor<1x1x1536xf32>) outs(%313 : tensor<1x1x1536xf32>) {
    ^bb0(%in: f32, %out: f32):
      %3945 = math.fpowi %in, %c2_i32_67 : f32, i32
      linalg.yield %3945 : f32
    } -> tensor<1x1x1536xf32>
    %315 = tosa.reduce_sum %314 {axis = 2 : i32} : (tensor<1x1x1536xf32>) -> tensor<1x1x1xf32>
    %316 = "tosa.const"() <{value = dense<1.536000e+03> : tensor<1xf32>}> : () -> tensor<1xf32>
    %317 = tosa.reciprocal %316 : (tensor<1xf32>) -> tensor<1xf32>
    %318 = tosa.reshape %317 {new_shape = array<i64: 1, 1, 1>} : (tensor<1xf32>) -> tensor<1x1x1xf32>
    %319 = tosa.mul %318, %315 : (tensor<1x1x1xf32>, tensor<1x1x1xf32>) -> tensor<1x1x1xf32>
    %320 = "tosa.const"() <{value = dense<9.99999997E-7> : tensor<1x1x1xf32>}> : () -> tensor<1x1x1xf32>
    %321 = tosa.add %319, %320 : (tensor<1x1x1xf32>, tensor<1x1x1xf32>) -> tensor<1x1x1xf32>
    %322 = tosa.rsqrt %321 : (tensor<1x1x1xf32>) -> tensor<1x1x1xf32>
    %323 = tosa.mul %312, %322 : (tensor<1x1x1536xf32>, tensor<1x1x1xf32>) -> tensor<1x1x1536xf32>
    %324 = tosa.reshape %arg33 {new_shape = array<i64: 1, 1, 1536>} : (tensor<1536xf32>) -> tensor<1x1x1536xf32>
    %325 = tosa.mul %324, %323 : (tensor<1x1x1536xf32>, tensor<1x1x1536xf32>) -> tensor<1x1x1536xf32>
    %326 = tosa.reshape %325 {new_shape = array<i64: 1, 1536>} : (tensor<1x1x1536xf32>) -> tensor<1x1536xf32>
    %327 = "tosa.const"() <{value = dense<[1, 0]> : tensor<2xi32>}> : () -> tensor<2xi32>
    %328 = tosa.transpose %arg34, %327 : (tensor<1536x1536xf32>, tensor<2xi32>) -> tensor<1536x1536xf32>
    %cst_68 = arith.constant dense<0.000000e+00> : tensor<1x1536xf32>
    %329 = linalg.matmul {cast = #linalg.type_fn<cast_signed>} ins(%326, %328 : tensor<1x1536xf32>, tensor<1536x1536xf32>) outs(%cst_68 : tensor<1x1536xf32>) -> tensor<1x1536xf32>
    %330 = tosa.reshape %arg35 {new_shape = array<i64: 1, 1536>} : (tensor<1536xf32>) -> tensor<1x1536xf32>
    %331 = tosa.add %330, %329 : (tensor<1x1536xf32>, tensor<1x1536xf32>) -> tensor<1x1536xf32>
    %332 = tosa.reshape %331 {new_shape = array<i64: 1, 1, 1536>} : (tensor<1x1536xf32>) -> tensor<1x1x1536xf32>
    %333 = tosa.reshape %332 {new_shape = array<i64: 1, 1, 12, 128>} : (tensor<1x1x1536xf32>) -> tensor<1x1x12x128xf32>
    %334 = "tosa.const"() <{value = dense<[0, 2, 1, 3]> : tensor<4xi32>}> : () -> tensor<4xi32>
    %335 = tosa.transpose %333, %334 : (tensor<1x1x12x128xf32>, tensor<4xi32>) -> tensor<1x12x1x128xf32>
    %336 = tosa.reshape %325 {new_shape = array<i64: 1, 1536>} : (tensor<1x1x1536xf32>) -> tensor<1x1536xf32>
    %337 = "tosa.const"() <{value = dense<[1, 0]> : tensor<2xi32>}> : () -> tensor<2xi32>
    %338 = tosa.transpose %arg36, %337 : (tensor<256x1536xf32>, tensor<2xi32>) -> tensor<1536x256xf32>
    %cst_69 = arith.constant dense<0.000000e+00> : tensor<1x256xf32>
    %339 = linalg.matmul {cast = #linalg.type_fn<cast_signed>} ins(%336, %338 : tensor<1x1536xf32>, tensor<1536x256xf32>) outs(%cst_69 : tensor<1x256xf32>) -> tensor<1x256xf32>
    %340 = tosa.reshape %arg37 {new_shape = array<i64: 1, 256>} : (tensor<256xf32>) -> tensor<1x256xf32>
    %341 = tosa.add %340, %339 : (tensor<1x256xf32>, tensor<1x256xf32>) -> tensor<1x256xf32>
    %342 = tosa.reshape %341 {new_shape = array<i64: 1, 1, 256>} : (tensor<1x256xf32>) -> tensor<1x1x256xf32>
    %343 = tosa.reshape %342 {new_shape = array<i64: 1, 1, 2, 128>} : (tensor<1x1x256xf32>) -> tensor<1x1x2x128xf32>
    %344 = "tosa.const"() <{value = dense<[0, 2, 1, 3]> : tensor<4xi32>}> : () -> tensor<4xi32>
    %345 = tosa.transpose %343, %344 : (tensor<1x1x2x128xf32>, tensor<4xi32>) -> tensor<1x2x1x128xf32>
    %346 = tosa.reshape %325 {new_shape = array<i64: 1, 1536>} : (tensor<1x1x1536xf32>) -> tensor<1x1536xf32>
    %347 = "tosa.const"() <{value = dense<[1, 0]> : tensor<2xi32>}> : () -> tensor<2xi32>
    %348 = tosa.transpose %arg38, %347 : (tensor<256x1536xf32>, tensor<2xi32>) -> tensor<1536x256xf32>
    %cst_70 = arith.constant dense<0.000000e+00> : tensor<1x256xf32>
    %349 = linalg.matmul {cast = #linalg.type_fn<cast_signed>} ins(%346, %348 : tensor<1x1536xf32>, tensor<1536x256xf32>) outs(%cst_70 : tensor<1x256xf32>) -> tensor<1x256xf32>
    %350 = tosa.reshape %arg39 {new_shape = array<i64: 1, 256>} : (tensor<256xf32>) -> tensor<1x256xf32>
    %351 = tosa.add %350, %349 : (tensor<1x256xf32>, tensor<1x256xf32>) -> tensor<1x256xf32>
    %352 = tosa.reshape %351 {new_shape = array<i64: 1, 1, 256>} : (tensor<1x256xf32>) -> tensor<1x1x256xf32>
    %353 = tosa.reshape %352 {new_shape = array<i64: 1, 1, 2, 128>} : (tensor<1x1x256xf32>) -> tensor<1x1x2x128xf32>
    %354 = "tosa.const"() <{value = dense<[0, 2, 1, 3]> : tensor<4xi32>}> : () -> tensor<4xi32>
    %355 = tosa.transpose %353, %354 : (tensor<1x1x2x128xf32>, tensor<4xi32>) -> tensor<1x2x1x128xf32>
    %356 = tosa.reshape %31 {new_shape = array<i64: 1, 1, 1, 128>} : (tensor<1x1x128xf32>) -> tensor<1x1x1x128xf32>
    %357 = tosa.reshape %34 {new_shape = array<i64: 1, 1, 1, 128>} : (tensor<1x1x128xf32>) -> tensor<1x1x1x128xf32>
    %358 = tosa.mul %335, %356 : (tensor<1x12x1x128xf32>, tensor<1x1x1x128xf32>) -> tensor<1x12x1x128xf32>
    %extracted_slice_71 = tensor.extract_slice %335[0, 0, 0, 0] [1, 12, 1, 64] [1, 1, 1, 1] : tensor<1x12x1x128xf32> to tensor<1x12x1x64xf32>
    %extracted_slice_72 = tensor.extract_slice %335[0, 0, 0, 64] [1, 12, 1, 64] [1, 1, 1, 1] : tensor<1x12x1x128xf32> to tensor<1x12x1x64xf32>
    %359 = tensor.empty() : tensor<1x12x1x64xf32>
    %360 = linalg.negf ins(%extracted_slice_72 : tensor<1x12x1x64xf32>) outs(%359 : tensor<1x12x1x64xf32>) -> tensor<1x12x1x64xf32>
    %361 = tensor.empty() : tensor<1x12x1x128xf32>
    %inserted_slice_73 = tensor.insert_slice %360 into %361[0, 0, 0, 0] [1, 12, 1, 64] [1, 1, 1, 1] : tensor<1x12x1x64xf32> into tensor<1x12x1x128xf32>
    %inserted_slice_74 = tensor.insert_slice %extracted_slice_71 into %inserted_slice_73[0, 0, 0, 64] [1, 12, 1, 64] [1, 1, 1, 1] : tensor<1x12x1x64xf32> into tensor<1x12x1x128xf32>
    %362 = tosa.mul %inserted_slice_74, %357 : (tensor<1x12x1x128xf32>, tensor<1x1x1x128xf32>) -> tensor<1x12x1x128xf32>
    %363 = tosa.add %358, %362 : (tensor<1x12x1x128xf32>, tensor<1x12x1x128xf32>) -> tensor<1x12x1x128xf32>
    %364 = tosa.mul %345, %356 : (tensor<1x2x1x128xf32>, tensor<1x1x1x128xf32>) -> tensor<1x2x1x128xf32>
    %extracted_slice_75 = tensor.extract_slice %345[0, 0, 0, 0] [1, 2, 1, 64] [1, 1, 1, 1] : tensor<1x2x1x128xf32> to tensor<1x2x1x64xf32>
    %extracted_slice_76 = tensor.extract_slice %345[0, 0, 0, 64] [1, 2, 1, 64] [1, 1, 1, 1] : tensor<1x2x1x128xf32> to tensor<1x2x1x64xf32>
    %365 = tensor.empty() : tensor<1x2x1x64xf32>
    %366 = linalg.negf ins(%extracted_slice_76 : tensor<1x2x1x64xf32>) outs(%365 : tensor<1x2x1x64xf32>) -> tensor<1x2x1x64xf32>
    %367 = tensor.empty() : tensor<1x2x1x128xf32>
    %inserted_slice_77 = tensor.insert_slice %366 into %367[0, 0, 0, 0] [1, 2, 1, 64] [1, 1, 1, 1] : tensor<1x2x1x64xf32> into tensor<1x2x1x128xf32>
    %inserted_slice_78 = tensor.insert_slice %extracted_slice_75 into %inserted_slice_77[0, 0, 0, 64] [1, 2, 1, 64] [1, 1, 1, 1] : tensor<1x2x1x64xf32> into tensor<1x2x1x128xf32>
    %368 = tosa.mul %inserted_slice_78, %357 : (tensor<1x2x1x128xf32>, tensor<1x1x1x128xf32>) -> tensor<1x2x1x128xf32>
    %369 = tosa.add %364, %368 : (tensor<1x2x1x128xf32>, tensor<1x2x1x128xf32>) -> tensor<1x2x1x128xf32>
    %370 = bufferization.to_memref %arg40 : tensor<1x2x1024x128xf32> to memref<1x2x1024x128xf32>
    %371 = bufferization.to_memref %arg3 : tensor<1xi64> to memref<1xi64>
    %372 = bufferization.to_memref %369 : tensor<1x2x1x128xf32> to memref<1x2x1x128xf32>
    %c0_79 = arith.constant 0 : index
    %c1_80 = arith.constant 1 : index
    %c1_81 = arith.constant 1 : index
    %c2_82 = arith.constant 2 : index
    %c1_83 = arith.constant 1 : index
    %c128_84 = arith.constant 128 : index
    scf.for %arg399 = %c0_79 to %c1_81 step %c1_80 {
      scf.for %arg400 = %c0_79 to %c2_82 step %c1_80 {
        scf.for %arg401 = %c0_79 to %c1_83 step %c1_80 {
          %3945 = memref.load %371[%arg401] : memref<1xi64>
          %3946 = arith.index_cast %3945 : i64 to index
          scf.for %arg402 = %c0_79 to %c128_84 step %c1_80 {
            %3947 = memref.load %372[%arg399, %arg400, %arg401, %arg402] : memref<1x2x1x128xf32>
            memref.store %3947, %370[%arg399, %arg400, %3946, %arg402] : memref<1x2x1024x128xf32>
          }
        }
      }
    }
    %373 = bufferization.to_tensor %370 restrict : memref<1x2x1024x128xf32> to tensor<1x2x1024x128xf32>
    %374 = bufferization.to_memref %arg41 : tensor<1x2x1024x128xf32> to memref<1x2x1024x128xf32>
    %375 = bufferization.to_memref %arg3 : tensor<1xi64> to memref<1xi64>
    %376 = bufferization.to_memref %355 : tensor<1x2x1x128xf32> to memref<1x2x1x128xf32>
    %c0_85 = arith.constant 0 : index
    %c1_86 = arith.constant 1 : index
    %c1_87 = arith.constant 1 : index
    %c2_88 = arith.constant 2 : index
    %c1_89 = arith.constant 1 : index
    %c128_90 = arith.constant 128 : index
    scf.for %arg399 = %c0_85 to %c1_87 step %c1_86 {
      scf.for %arg400 = %c0_85 to %c2_88 step %c1_86 {
        scf.for %arg401 = %c0_85 to %c1_89 step %c1_86 {
          %3945 = memref.load %375[%arg401] : memref<1xi64>
          %3946 = arith.index_cast %3945 : i64 to index
          scf.for %arg402 = %c0_85 to %c128_90 step %c1_86 {
            %3947 = memref.load %376[%arg399, %arg400, %arg401, %arg402] : memref<1x2x1x128xf32>
            memref.store %3947, %374[%arg399, %arg400, %3946, %arg402] : memref<1x2x1024x128xf32>
          }
        }
      }
    }
    %377 = bufferization.to_tensor %374 restrict : memref<1x2x1024x128xf32> to tensor<1x2x1024x128xf32>
    %378 = tosa.reshape %373 {new_shape = array<i64: 1, 2, 1, 1024, 128>} : (tensor<1x2x1024x128xf32>) -> tensor<1x2x1x1024x128xf32>
    %379 = "tosa.const"() <{value = dense<0.000000e+00> : tensor<1x2x6x1024x128xf32>}> : () -> tensor<1x2x6x1024x128xf32>
    %380 = tosa.add %378, %379 : (tensor<1x2x1x1024x128xf32>, tensor<1x2x6x1024x128xf32>) -> tensor<1x2x6x1024x128xf32>
    %381 = tosa.reshape %380 {new_shape = array<i64: 1, 12, 1024, 128>} : (tensor<1x2x6x1024x128xf32>) -> tensor<1x12x1024x128xf32>
    %382 = tosa.reshape %377 {new_shape = array<i64: 1, 2, 1, 1024, 128>} : (tensor<1x2x1024x128xf32>) -> tensor<1x2x1x1024x128xf32>
    %383 = "tosa.const"() <{value = dense<0.000000e+00> : tensor<1x2x6x1024x128xf32>}> : () -> tensor<1x2x6x1024x128xf32>
    %384 = tosa.add %382, %383 : (tensor<1x2x1x1024x128xf32>, tensor<1x2x6x1024x128xf32>) -> tensor<1x2x6x1024x128xf32>
    %385 = tosa.reshape %384 {new_shape = array<i64: 1, 12, 1024, 128>} : (tensor<1x2x6x1024x128xf32>) -> tensor<1x12x1024x128xf32>
    %386 = tosa.reshape %17 {new_shape = array<i64: 1, 1, 1, 1024>} : (tensor<1x1024xi1>) -> tensor<1x1x1x1024xi1>
    %cst_91 = arith.constant 0xFF800000 : f32
    %cst_92 = arith.constant 0.000000e+00 : f32
    %387 = tensor.empty() : tensor<1x1x1x1024xf32>
    %splat_93 = tensor.splat %cst_92 : tensor<1x1x1x1024xf32>
    %splat_94 = tensor.splat %cst_91 : tensor<1x1x1x1024xf32>
    %388 = linalg.generic {indexing_maps = [#map1, #map1, #map1, #map1], iterator_types = ["parallel", "parallel", "parallel", "parallel"]} ins(%386, %splat_93, %splat_94 : tensor<1x1x1x1024xi1>, tensor<1x1x1x1024xf32>, tensor<1x1x1x1024xf32>) outs(%387 : tensor<1x1x1x1024xf32>) {
    ^bb0(%in: i1, %in_1031: f32, %in_1032: f32, %out: f32):
      %3945 = arith.select %in, %in_1031, %in_1032 : f32
      linalg.yield %3945 : f32
    } -> tensor<1x1x1x1024xf32>
    %cst_95 = arith.constant 0.000000e+00 : f32
    %splat_96 = tensor.splat %cst_95 : tensor<1x1024xf32>
    %389 = tosa.reshape %388 {new_shape = array<i64: 1, 1024>} : (tensor<1x1x1x1024xf32>) -> tensor<1x1024xf32>
    %390 = tosa.add %splat_96, %389 : (tensor<1x1024xf32>, tensor<1x1024xf32>) -> tensor<1x1024xf32>
    %391 = "tosa.const"() <{value = dense<[0, 1, 3, 2]> : tensor<4xi32>}> : () -> tensor<4xi32>
    %392 = tosa.transpose %381, %391 : (tensor<1x12x1024x128xf32>, tensor<4xi32>) -> tensor<1x12x128x1024xf32>
    %393 = tosa.reshape %363 {new_shape = array<i64: 12, 1, 128>} : (tensor<1x12x1x128xf32>) -> tensor<12x1x128xf32>
    %394 = tosa.reshape %392 {new_shape = array<i64: 12, 128, 1024>} : (tensor<1x12x128x1024xf32>) -> tensor<12x128x1024xf32>
    %395 = tosa.matmul %393, %394 : (tensor<12x1x128xf32>, tensor<12x128x1024xf32>) -> tensor<12x1x1024xf32>
    %cst_97 = arith.constant 0.0883883461 : f32
    %splat_98 = tensor.splat %cst_97 : tensor<12x1x1024xf32>
    %396 = tosa.mul %395, %splat_98 : (tensor<12x1x1024xf32>, tensor<12x1x1024xf32>) -> tensor<12x1x1024xf32>
    %397 = tosa.reshape %390 {new_shape = array<i64: 1, 1, 1024>} : (tensor<1x1024xf32>) -> tensor<1x1x1024xf32>
    %398 = tosa.add %396, %397 : (tensor<12x1x1024xf32>, tensor<1x1x1024xf32>) -> tensor<12x1x1024xf32>
    %399 = tosa.reduce_max %398 {axis = 2 : i32} : (tensor<12x1x1024xf32>) -> tensor<12x1x1xf32>
    %400 = tosa.sub %398, %399 : (tensor<12x1x1024xf32>, tensor<12x1x1xf32>) -> tensor<12x1x1024xf32>
    %401 = math.exp %400 : tensor<12x1x1024xf32>
    %402 = tosa.reduce_sum %401 {axis = 2 : i32} : (tensor<12x1x1024xf32>) -> tensor<12x1x1xf32>
    %403 = tosa.log %402 : (tensor<12x1x1xf32>) -> tensor<12x1x1xf32>
    %404 = tosa.add %399, %403 : (tensor<12x1x1xf32>, tensor<12x1x1xf32>) -> tensor<12x1x1xf32>
    %405 = tosa.sub %398, %404 : (tensor<12x1x1024xf32>, tensor<12x1x1xf32>) -> tensor<12x1x1024xf32>
    %406 = math.exp %405 : tensor<12x1x1024xf32>
    %407 = tosa.reshape %404 {new_shape = array<i64: 1, 12, 1>} : (tensor<12x1x1xf32>) -> tensor<1x12x1xf32>
    %408 = tosa.reshape %385 {new_shape = array<i64: 12, 1024, 128>} : (tensor<1x12x1024x128xf32>) -> tensor<12x1024x128xf32>
    %409 = tosa.matmul %406, %408 : (tensor<12x1x1024xf32>, tensor<12x1024x128xf32>) -> tensor<12x1x128xf32>
    %410 = tosa.reshape %409 {new_shape = array<i64: 1, 12, 1, 128>} : (tensor<12x1x128xf32>) -> tensor<1x12x1x128xf32>
    %411 = "tosa.const"() <{value = dense<[0, 2, 1, 3]> : tensor<4xi32>}> : () -> tensor<4xi32>
    %412 = tosa.transpose %410, %411 : (tensor<1x12x1x128xf32>, tensor<4xi32>) -> tensor<1x1x12x128xf32>
    %413 = tosa.reshape %412 {new_shape = array<i64: 1, 1, 1536>} : (tensor<1x1x12x128xf32>) -> tensor<1x1x1536xf32>
    %414 = "tosa.const"() <{value = dense<[1, 0]> : tensor<2xi32>}> : () -> tensor<2xi32>
    %415 = tosa.transpose %arg42, %414 : (tensor<1536x1536xf32>, tensor<2xi32>) -> tensor<1536x1536xf32>
    %416 = tosa.reshape %413 {new_shape = array<i64: 1, 1536>} : (tensor<1x1x1536xf32>) -> tensor<1x1536xf32>
    %cst_99 = arith.constant dense<0.000000e+00> : tensor<1x1536xf32>
    %417 = linalg.matmul {cast = #linalg.type_fn<cast_signed>} ins(%416, %415 : tensor<1x1536xf32>, tensor<1536x1536xf32>) outs(%cst_99 : tensor<1x1536xf32>) -> tensor<1x1536xf32>
    %418 = tosa.reshape %417 {new_shape = array<i64: 1, 1, 1536>} : (tensor<1x1536xf32>) -> tensor<1x1x1536xf32>
    %419 = tosa.add %312, %418 : (tensor<1x1x1536xf32>, tensor<1x1x1536xf32>) -> tensor<1x1x1536xf32>
    %420 = tensor.empty() : tensor<1x1x1536xf32>
    %c2_i32_100 = arith.constant 2 : i32
    %421 = linalg.generic {indexing_maps = [#map, #map], iterator_types = ["parallel", "parallel", "parallel"]} ins(%419 : tensor<1x1x1536xf32>) outs(%420 : tensor<1x1x1536xf32>) {
    ^bb0(%in: f32, %out: f32):
      %3945 = math.fpowi %in, %c2_i32_100 : f32, i32
      linalg.yield %3945 : f32
    } -> tensor<1x1x1536xf32>
    %422 = tosa.reduce_sum %421 {axis = 2 : i32} : (tensor<1x1x1536xf32>) -> tensor<1x1x1xf32>
    %423 = "tosa.const"() <{value = dense<1.536000e+03> : tensor<1xf32>}> : () -> tensor<1xf32>
    %424 = tosa.reciprocal %423 : (tensor<1xf32>) -> tensor<1xf32>
    %425 = tosa.reshape %424 {new_shape = array<i64: 1, 1, 1>} : (tensor<1xf32>) -> tensor<1x1x1xf32>
    %426 = tosa.mul %425, %422 : (tensor<1x1x1xf32>, tensor<1x1x1xf32>) -> tensor<1x1x1xf32>
    %427 = "tosa.const"() <{value = dense<9.99999997E-7> : tensor<1x1x1xf32>}> : () -> tensor<1x1x1xf32>
    %428 = tosa.add %426, %427 : (tensor<1x1x1xf32>, tensor<1x1x1xf32>) -> tensor<1x1x1xf32>
    %429 = tosa.rsqrt %428 : (tensor<1x1x1xf32>) -> tensor<1x1x1xf32>
    %430 = tosa.mul %419, %429 : (tensor<1x1x1536xf32>, tensor<1x1x1xf32>) -> tensor<1x1x1536xf32>
    %431 = tosa.reshape %arg43 {new_shape = array<i64: 1, 1, 1536>} : (tensor<1536xf32>) -> tensor<1x1x1536xf32>
    %432 = tosa.mul %431, %430 : (tensor<1x1x1536xf32>, tensor<1x1x1536xf32>) -> tensor<1x1x1536xf32>
    %433 = "tosa.const"() <{value = dense<[1, 0]> : tensor<2xi32>}> : () -> tensor<2xi32>
    %434 = tosa.transpose %arg44, %433 : (tensor<8960x1536xf32>, tensor<2xi32>) -> tensor<1536x8960xf32>
    %435 = tosa.reshape %432 {new_shape = array<i64: 1, 1536>} : (tensor<1x1x1536xf32>) -> tensor<1x1536xf32>
    %cst_101 = arith.constant dense<0.000000e+00> : tensor<1x8960xf32>
    %436 = linalg.matmul {cast = #linalg.type_fn<cast_signed>} ins(%435, %434 : tensor<1x1536xf32>, tensor<1536x8960xf32>) outs(%cst_101 : tensor<1x8960xf32>) -> tensor<1x8960xf32>
    %437 = tosa.reshape %436 {new_shape = array<i64: 1, 1, 8960>} : (tensor<1x8960xf32>) -> tensor<1x1x8960xf32>
    %438 = tosa.sigmoid %437 : (tensor<1x1x8960xf32>) -> tensor<1x1x8960xf32>
    %439 = tosa.mul %437, %438 : (tensor<1x1x8960xf32>, tensor<1x1x8960xf32>) -> tensor<1x1x8960xf32>
    %440 = "tosa.const"() <{value = dense<[1, 0]> : tensor<2xi32>}> : () -> tensor<2xi32>
    %441 = tosa.transpose %arg45, %440 : (tensor<8960x1536xf32>, tensor<2xi32>) -> tensor<1536x8960xf32>
    %442 = tosa.reshape %432 {new_shape = array<i64: 1, 1536>} : (tensor<1x1x1536xf32>) -> tensor<1x1536xf32>
    %cst_102 = arith.constant dense<0.000000e+00> : tensor<1x8960xf32>
    %443 = linalg.matmul {cast = #linalg.type_fn<cast_signed>} ins(%442, %441 : tensor<1x1536xf32>, tensor<1536x8960xf32>) outs(%cst_102 : tensor<1x8960xf32>) -> tensor<1x8960xf32>
    %444 = tosa.reshape %443 {new_shape = array<i64: 1, 1, 8960>} : (tensor<1x8960xf32>) -> tensor<1x1x8960xf32>
    %445 = tosa.mul %439, %444 : (tensor<1x1x8960xf32>, tensor<1x1x8960xf32>) -> tensor<1x1x8960xf32>
    %446 = "tosa.const"() <{value = dense<[1, 0]> : tensor<2xi32>}> : () -> tensor<2xi32>
    %447 = tosa.transpose %arg46, %446 : (tensor<1536x8960xf32>, tensor<2xi32>) -> tensor<8960x1536xf32>
    %448 = tosa.reshape %445 {new_shape = array<i64: 1, 8960>} : (tensor<1x1x8960xf32>) -> tensor<1x8960xf32>
    %cst_103 = arith.constant dense<0.000000e+00> : tensor<1x1536xf32>
    %449 = linalg.matmul {cast = #linalg.type_fn<cast_signed>} ins(%448, %447 : tensor<1x8960xf32>, tensor<8960x1536xf32>) outs(%cst_103 : tensor<1x1536xf32>) -> tensor<1x1536xf32>
    %450 = tosa.reshape %449 {new_shape = array<i64: 1, 1, 1536>} : (tensor<1x1536xf32>) -> tensor<1x1x1536xf32>
    %451 = tosa.add %419, %450 : (tensor<1x1x1536xf32>, tensor<1x1x1536xf32>) -> tensor<1x1x1536xf32>
    %452 = tensor.empty() : tensor<1x1x1536xf32>
    %c2_i32_104 = arith.constant 2 : i32
    %453 = linalg.generic {indexing_maps = [#map, #map], iterator_types = ["parallel", "parallel", "parallel"]} ins(%451 : tensor<1x1x1536xf32>) outs(%452 : tensor<1x1x1536xf32>) {
    ^bb0(%in: f32, %out: f32):
      %3945 = math.fpowi %in, %c2_i32_104 : f32, i32
      linalg.yield %3945 : f32
    } -> tensor<1x1x1536xf32>
    %454 = tosa.reduce_sum %453 {axis = 2 : i32} : (tensor<1x1x1536xf32>) -> tensor<1x1x1xf32>
    %455 = "tosa.const"() <{value = dense<1.536000e+03> : tensor<1xf32>}> : () -> tensor<1xf32>
    %456 = tosa.reciprocal %455 : (tensor<1xf32>) -> tensor<1xf32>
    %457 = tosa.reshape %456 {new_shape = array<i64: 1, 1, 1>} : (tensor<1xf32>) -> tensor<1x1x1xf32>
    %458 = tosa.mul %457, %454 : (tensor<1x1x1xf32>, tensor<1x1x1xf32>) -> tensor<1x1x1xf32>
    %459 = "tosa.const"() <{value = dense<9.99999997E-7> : tensor<1x1x1xf32>}> : () -> tensor<1x1x1xf32>
    %460 = tosa.add %458, %459 : (tensor<1x1x1xf32>, tensor<1x1x1xf32>) -> tensor<1x1x1xf32>
    %461 = tosa.rsqrt %460 : (tensor<1x1x1xf32>) -> tensor<1x1x1xf32>
    %462 = tosa.mul %451, %461 : (tensor<1x1x1536xf32>, tensor<1x1x1xf32>) -> tensor<1x1x1536xf32>
    %463 = tosa.reshape %arg47 {new_shape = array<i64: 1, 1, 1536>} : (tensor<1536xf32>) -> tensor<1x1x1536xf32>
    %464 = tosa.mul %463, %462 : (tensor<1x1x1536xf32>, tensor<1x1x1536xf32>) -> tensor<1x1x1536xf32>
    %465 = tosa.reshape %464 {new_shape = array<i64: 1, 1536>} : (tensor<1x1x1536xf32>) -> tensor<1x1536xf32>
    %466 = "tosa.const"() <{value = dense<[1, 0]> : tensor<2xi32>}> : () -> tensor<2xi32>
    %467 = tosa.transpose %arg48, %466 : (tensor<1536x1536xf32>, tensor<2xi32>) -> tensor<1536x1536xf32>
    %cst_105 = arith.constant dense<0.000000e+00> : tensor<1x1536xf32>
    %468 = linalg.matmul {cast = #linalg.type_fn<cast_signed>} ins(%465, %467 : tensor<1x1536xf32>, tensor<1536x1536xf32>) outs(%cst_105 : tensor<1x1536xf32>) -> tensor<1x1536xf32>
    %469 = tosa.reshape %arg49 {new_shape = array<i64: 1, 1536>} : (tensor<1536xf32>) -> tensor<1x1536xf32>
    %470 = tosa.add %469, %468 : (tensor<1x1536xf32>, tensor<1x1536xf32>) -> tensor<1x1536xf32>
    %471 = tosa.reshape %470 {new_shape = array<i64: 1, 1, 1536>} : (tensor<1x1536xf32>) -> tensor<1x1x1536xf32>
    %472 = tosa.reshape %471 {new_shape = array<i64: 1, 1, 12, 128>} : (tensor<1x1x1536xf32>) -> tensor<1x1x12x128xf32>
    %473 = "tosa.const"() <{value = dense<[0, 2, 1, 3]> : tensor<4xi32>}> : () -> tensor<4xi32>
    %474 = tosa.transpose %472, %473 : (tensor<1x1x12x128xf32>, tensor<4xi32>) -> tensor<1x12x1x128xf32>
    %475 = tosa.reshape %464 {new_shape = array<i64: 1, 1536>} : (tensor<1x1x1536xf32>) -> tensor<1x1536xf32>
    %476 = "tosa.const"() <{value = dense<[1, 0]> : tensor<2xi32>}> : () -> tensor<2xi32>
    %477 = tosa.transpose %arg50, %476 : (tensor<256x1536xf32>, tensor<2xi32>) -> tensor<1536x256xf32>
    %cst_106 = arith.constant dense<0.000000e+00> : tensor<1x256xf32>
    %478 = linalg.matmul {cast = #linalg.type_fn<cast_signed>} ins(%475, %477 : tensor<1x1536xf32>, tensor<1536x256xf32>) outs(%cst_106 : tensor<1x256xf32>) -> tensor<1x256xf32>
    %479 = tosa.reshape %arg51 {new_shape = array<i64: 1, 256>} : (tensor<256xf32>) -> tensor<1x256xf32>
    %480 = tosa.add %479, %478 : (tensor<1x256xf32>, tensor<1x256xf32>) -> tensor<1x256xf32>
    %481 = tosa.reshape %480 {new_shape = array<i64: 1, 1, 256>} : (tensor<1x256xf32>) -> tensor<1x1x256xf32>
    %482 = tosa.reshape %481 {new_shape = array<i64: 1, 1, 2, 128>} : (tensor<1x1x256xf32>) -> tensor<1x1x2x128xf32>
    %483 = "tosa.const"() <{value = dense<[0, 2, 1, 3]> : tensor<4xi32>}> : () -> tensor<4xi32>
    %484 = tosa.transpose %482, %483 : (tensor<1x1x2x128xf32>, tensor<4xi32>) -> tensor<1x2x1x128xf32>
    %485 = tosa.reshape %464 {new_shape = array<i64: 1, 1536>} : (tensor<1x1x1536xf32>) -> tensor<1x1536xf32>
    %486 = "tosa.const"() <{value = dense<[1, 0]> : tensor<2xi32>}> : () -> tensor<2xi32>
    %487 = tosa.transpose %arg52, %486 : (tensor<256x1536xf32>, tensor<2xi32>) -> tensor<1536x256xf32>
    %cst_107 = arith.constant dense<0.000000e+00> : tensor<1x256xf32>
    %488 = linalg.matmul {cast = #linalg.type_fn<cast_signed>} ins(%485, %487 : tensor<1x1536xf32>, tensor<1536x256xf32>) outs(%cst_107 : tensor<1x256xf32>) -> tensor<1x256xf32>
    %489 = tosa.reshape %arg53 {new_shape = array<i64: 1, 256>} : (tensor<256xf32>) -> tensor<1x256xf32>
    %490 = tosa.add %489, %488 : (tensor<1x256xf32>, tensor<1x256xf32>) -> tensor<1x256xf32>
    %491 = tosa.reshape %490 {new_shape = array<i64: 1, 1, 256>} : (tensor<1x256xf32>) -> tensor<1x1x256xf32>
    %492 = tosa.reshape %491 {new_shape = array<i64: 1, 1, 2, 128>} : (tensor<1x1x256xf32>) -> tensor<1x1x2x128xf32>
    %493 = "tosa.const"() <{value = dense<[0, 2, 1, 3]> : tensor<4xi32>}> : () -> tensor<4xi32>
    %494 = tosa.transpose %492, %493 : (tensor<1x1x2x128xf32>, tensor<4xi32>) -> tensor<1x2x1x128xf32>
    %495 = tosa.reshape %31 {new_shape = array<i64: 1, 1, 1, 128>} : (tensor<1x1x128xf32>) -> tensor<1x1x1x128xf32>
    %496 = tosa.reshape %34 {new_shape = array<i64: 1, 1, 1, 128>} : (tensor<1x1x128xf32>) -> tensor<1x1x1x128xf32>
    %497 = tosa.mul %474, %495 : (tensor<1x12x1x128xf32>, tensor<1x1x1x128xf32>) -> tensor<1x12x1x128xf32>
    %extracted_slice_108 = tensor.extract_slice %474[0, 0, 0, 0] [1, 12, 1, 64] [1, 1, 1, 1] : tensor<1x12x1x128xf32> to tensor<1x12x1x64xf32>
    %extracted_slice_109 = tensor.extract_slice %474[0, 0, 0, 64] [1, 12, 1, 64] [1, 1, 1, 1] : tensor<1x12x1x128xf32> to tensor<1x12x1x64xf32>
    %498 = tensor.empty() : tensor<1x12x1x64xf32>
    %499 = linalg.negf ins(%extracted_slice_109 : tensor<1x12x1x64xf32>) outs(%498 : tensor<1x12x1x64xf32>) -> tensor<1x12x1x64xf32>
    %500 = tensor.empty() : tensor<1x12x1x128xf32>
    %inserted_slice_110 = tensor.insert_slice %499 into %500[0, 0, 0, 0] [1, 12, 1, 64] [1, 1, 1, 1] : tensor<1x12x1x64xf32> into tensor<1x12x1x128xf32>
    %inserted_slice_111 = tensor.insert_slice %extracted_slice_108 into %inserted_slice_110[0, 0, 0, 64] [1, 12, 1, 64] [1, 1, 1, 1] : tensor<1x12x1x64xf32> into tensor<1x12x1x128xf32>
    %501 = tosa.mul %inserted_slice_111, %496 : (tensor<1x12x1x128xf32>, tensor<1x1x1x128xf32>) -> tensor<1x12x1x128xf32>
    %502 = tosa.add %497, %501 : (tensor<1x12x1x128xf32>, tensor<1x12x1x128xf32>) -> tensor<1x12x1x128xf32>
    %503 = tosa.mul %484, %495 : (tensor<1x2x1x128xf32>, tensor<1x1x1x128xf32>) -> tensor<1x2x1x128xf32>
    %extracted_slice_112 = tensor.extract_slice %484[0, 0, 0, 0] [1, 2, 1, 64] [1, 1, 1, 1] : tensor<1x2x1x128xf32> to tensor<1x2x1x64xf32>
    %extracted_slice_113 = tensor.extract_slice %484[0, 0, 0, 64] [1, 2, 1, 64] [1, 1, 1, 1] : tensor<1x2x1x128xf32> to tensor<1x2x1x64xf32>
    %504 = tensor.empty() : tensor<1x2x1x64xf32>
    %505 = linalg.negf ins(%extracted_slice_113 : tensor<1x2x1x64xf32>) outs(%504 : tensor<1x2x1x64xf32>) -> tensor<1x2x1x64xf32>
    %506 = tensor.empty() : tensor<1x2x1x128xf32>
    %inserted_slice_114 = tensor.insert_slice %505 into %506[0, 0, 0, 0] [1, 2, 1, 64] [1, 1, 1, 1] : tensor<1x2x1x64xf32> into tensor<1x2x1x128xf32>
    %inserted_slice_115 = tensor.insert_slice %extracted_slice_112 into %inserted_slice_114[0, 0, 0, 64] [1, 2, 1, 64] [1, 1, 1, 1] : tensor<1x2x1x64xf32> into tensor<1x2x1x128xf32>
    %507 = tosa.mul %inserted_slice_115, %496 : (tensor<1x2x1x128xf32>, tensor<1x1x1x128xf32>) -> tensor<1x2x1x128xf32>
    %508 = tosa.add %503, %507 : (tensor<1x2x1x128xf32>, tensor<1x2x1x128xf32>) -> tensor<1x2x1x128xf32>
    %509 = bufferization.to_memref %arg54 : tensor<1x2x1024x128xf32> to memref<1x2x1024x128xf32>
    %510 = bufferization.to_memref %arg3 : tensor<1xi64> to memref<1xi64>
    %511 = bufferization.to_memref %508 : tensor<1x2x1x128xf32> to memref<1x2x1x128xf32>
    %c0_116 = arith.constant 0 : index
    %c1_117 = arith.constant 1 : index
    %c1_118 = arith.constant 1 : index
    %c2_119 = arith.constant 2 : index
    %c1_120 = arith.constant 1 : index
    %c128_121 = arith.constant 128 : index
    scf.for %arg399 = %c0_116 to %c1_118 step %c1_117 {
      scf.for %arg400 = %c0_116 to %c2_119 step %c1_117 {
        scf.for %arg401 = %c0_116 to %c1_120 step %c1_117 {
          %3945 = memref.load %510[%arg401] : memref<1xi64>
          %3946 = arith.index_cast %3945 : i64 to index
          scf.for %arg402 = %c0_116 to %c128_121 step %c1_117 {
            %3947 = memref.load %511[%arg399, %arg400, %arg401, %arg402] : memref<1x2x1x128xf32>
            memref.store %3947, %509[%arg399, %arg400, %3946, %arg402] : memref<1x2x1024x128xf32>
          }
        }
      }
    }
    %512 = bufferization.to_tensor %509 restrict : memref<1x2x1024x128xf32> to tensor<1x2x1024x128xf32>
    %513 = bufferization.to_memref %arg55 : tensor<1x2x1024x128xf32> to memref<1x2x1024x128xf32>
    %514 = bufferization.to_memref %arg3 : tensor<1xi64> to memref<1xi64>
    %515 = bufferization.to_memref %494 : tensor<1x2x1x128xf32> to memref<1x2x1x128xf32>
    %c0_122 = arith.constant 0 : index
    %c1_123 = arith.constant 1 : index
    %c1_124 = arith.constant 1 : index
    %c2_125 = arith.constant 2 : index
    %c1_126 = arith.constant 1 : index
    %c128_127 = arith.constant 128 : index
    scf.for %arg399 = %c0_122 to %c1_124 step %c1_123 {
      scf.for %arg400 = %c0_122 to %c2_125 step %c1_123 {
        scf.for %arg401 = %c0_122 to %c1_126 step %c1_123 {
          %3945 = memref.load %514[%arg401] : memref<1xi64>
          %3946 = arith.index_cast %3945 : i64 to index
          scf.for %arg402 = %c0_122 to %c128_127 step %c1_123 {
            %3947 = memref.load %515[%arg399, %arg400, %arg401, %arg402] : memref<1x2x1x128xf32>
            memref.store %3947, %513[%arg399, %arg400, %3946, %arg402] : memref<1x2x1024x128xf32>
          }
        }
      }
    }
    %516 = bufferization.to_tensor %513 restrict : memref<1x2x1024x128xf32> to tensor<1x2x1024x128xf32>
    %517 = tosa.reshape %512 {new_shape = array<i64: 1, 2, 1, 1024, 128>} : (tensor<1x2x1024x128xf32>) -> tensor<1x2x1x1024x128xf32>
    %518 = "tosa.const"() <{value = dense<0.000000e+00> : tensor<1x2x6x1024x128xf32>}> : () -> tensor<1x2x6x1024x128xf32>
    %519 = tosa.add %517, %518 : (tensor<1x2x1x1024x128xf32>, tensor<1x2x6x1024x128xf32>) -> tensor<1x2x6x1024x128xf32>
    %520 = tosa.reshape %519 {new_shape = array<i64: 1, 12, 1024, 128>} : (tensor<1x2x6x1024x128xf32>) -> tensor<1x12x1024x128xf32>
    %521 = tosa.reshape %516 {new_shape = array<i64: 1, 2, 1, 1024, 128>} : (tensor<1x2x1024x128xf32>) -> tensor<1x2x1x1024x128xf32>
    %522 = "tosa.const"() <{value = dense<0.000000e+00> : tensor<1x2x6x1024x128xf32>}> : () -> tensor<1x2x6x1024x128xf32>
    %523 = tosa.add %521, %522 : (tensor<1x2x1x1024x128xf32>, tensor<1x2x6x1024x128xf32>) -> tensor<1x2x6x1024x128xf32>
    %524 = tosa.reshape %523 {new_shape = array<i64: 1, 12, 1024, 128>} : (tensor<1x2x6x1024x128xf32>) -> tensor<1x12x1024x128xf32>
    %525 = tosa.reshape %17 {new_shape = array<i64: 1, 1, 1, 1024>} : (tensor<1x1024xi1>) -> tensor<1x1x1x1024xi1>
    %cst_128 = arith.constant 0xFF800000 : f32
    %cst_129 = arith.constant 0.000000e+00 : f32
    %526 = tensor.empty() : tensor<1x1x1x1024xf32>
    %splat_130 = tensor.splat %cst_129 : tensor<1x1x1x1024xf32>
    %splat_131 = tensor.splat %cst_128 : tensor<1x1x1x1024xf32>
    %527 = linalg.generic {indexing_maps = [#map1, #map1, #map1, #map1], iterator_types = ["parallel", "parallel", "parallel", "parallel"]} ins(%525, %splat_130, %splat_131 : tensor<1x1x1x1024xi1>, tensor<1x1x1x1024xf32>, tensor<1x1x1x1024xf32>) outs(%526 : tensor<1x1x1x1024xf32>) {
    ^bb0(%in: i1, %in_1031: f32, %in_1032: f32, %out: f32):
      %3945 = arith.select %in, %in_1031, %in_1032 : f32
      linalg.yield %3945 : f32
    } -> tensor<1x1x1x1024xf32>
    %cst_132 = arith.constant 0.000000e+00 : f32
    %splat_133 = tensor.splat %cst_132 : tensor<1x1024xf32>
    %528 = tosa.reshape %527 {new_shape = array<i64: 1, 1024>} : (tensor<1x1x1x1024xf32>) -> tensor<1x1024xf32>
    %529 = tosa.add %splat_133, %528 : (tensor<1x1024xf32>, tensor<1x1024xf32>) -> tensor<1x1024xf32>
    %530 = "tosa.const"() <{value = dense<[0, 1, 3, 2]> : tensor<4xi32>}> : () -> tensor<4xi32>
    %531 = tosa.transpose %520, %530 : (tensor<1x12x1024x128xf32>, tensor<4xi32>) -> tensor<1x12x128x1024xf32>
    %532 = tosa.reshape %502 {new_shape = array<i64: 12, 1, 128>} : (tensor<1x12x1x128xf32>) -> tensor<12x1x128xf32>
    %533 = tosa.reshape %531 {new_shape = array<i64: 12, 128, 1024>} : (tensor<1x12x128x1024xf32>) -> tensor<12x128x1024xf32>
    %534 = tosa.matmul %532, %533 : (tensor<12x1x128xf32>, tensor<12x128x1024xf32>) -> tensor<12x1x1024xf32>
    %cst_134 = arith.constant 0.0883883461 : f32
    %splat_135 = tensor.splat %cst_134 : tensor<12x1x1024xf32>
    %535 = tosa.mul %534, %splat_135 : (tensor<12x1x1024xf32>, tensor<12x1x1024xf32>) -> tensor<12x1x1024xf32>
    %536 = tosa.reshape %529 {new_shape = array<i64: 1, 1, 1024>} : (tensor<1x1024xf32>) -> tensor<1x1x1024xf32>
    %537 = tosa.add %535, %536 : (tensor<12x1x1024xf32>, tensor<1x1x1024xf32>) -> tensor<12x1x1024xf32>
    %538 = tosa.reduce_max %537 {axis = 2 : i32} : (tensor<12x1x1024xf32>) -> tensor<12x1x1xf32>
    %539 = tosa.sub %537, %538 : (tensor<12x1x1024xf32>, tensor<12x1x1xf32>) -> tensor<12x1x1024xf32>
    %540 = math.exp %539 : tensor<12x1x1024xf32>
    %541 = tosa.reduce_sum %540 {axis = 2 : i32} : (tensor<12x1x1024xf32>) -> tensor<12x1x1xf32>
    %542 = tosa.log %541 : (tensor<12x1x1xf32>) -> tensor<12x1x1xf32>
    %543 = tosa.add %538, %542 : (tensor<12x1x1xf32>, tensor<12x1x1xf32>) -> tensor<12x1x1xf32>
    %544 = tosa.sub %537, %543 : (tensor<12x1x1024xf32>, tensor<12x1x1xf32>) -> tensor<12x1x1024xf32>
    %545 = math.exp %544 : tensor<12x1x1024xf32>
    %546 = tosa.reshape %543 {new_shape = array<i64: 1, 12, 1>} : (tensor<12x1x1xf32>) -> tensor<1x12x1xf32>
    %547 = tosa.reshape %524 {new_shape = array<i64: 12, 1024, 128>} : (tensor<1x12x1024x128xf32>) -> tensor<12x1024x128xf32>
    %548 = tosa.matmul %545, %547 : (tensor<12x1x1024xf32>, tensor<12x1024x128xf32>) -> tensor<12x1x128xf32>
    %549 = tosa.reshape %548 {new_shape = array<i64: 1, 12, 1, 128>} : (tensor<12x1x128xf32>) -> tensor<1x12x1x128xf32>
    %550 = "tosa.const"() <{value = dense<[0, 2, 1, 3]> : tensor<4xi32>}> : () -> tensor<4xi32>
    %551 = tosa.transpose %549, %550 : (tensor<1x12x1x128xf32>, tensor<4xi32>) -> tensor<1x1x12x128xf32>
    %552 = tosa.reshape %551 {new_shape = array<i64: 1, 1, 1536>} : (tensor<1x1x12x128xf32>) -> tensor<1x1x1536xf32>
    %553 = "tosa.const"() <{value = dense<[1, 0]> : tensor<2xi32>}> : () -> tensor<2xi32>
    %554 = tosa.transpose %arg56, %553 : (tensor<1536x1536xf32>, tensor<2xi32>) -> tensor<1536x1536xf32>
    %555 = tosa.reshape %552 {new_shape = array<i64: 1, 1536>} : (tensor<1x1x1536xf32>) -> tensor<1x1536xf32>
    %cst_136 = arith.constant dense<0.000000e+00> : tensor<1x1536xf32>
    %556 = linalg.matmul {cast = #linalg.type_fn<cast_signed>} ins(%555, %554 : tensor<1x1536xf32>, tensor<1536x1536xf32>) outs(%cst_136 : tensor<1x1536xf32>) -> tensor<1x1536xf32>
    %557 = tosa.reshape %556 {new_shape = array<i64: 1, 1, 1536>} : (tensor<1x1536xf32>) -> tensor<1x1x1536xf32>
    %558 = tosa.add %451, %557 : (tensor<1x1x1536xf32>, tensor<1x1x1536xf32>) -> tensor<1x1x1536xf32>
    %559 = tensor.empty() : tensor<1x1x1536xf32>
    %c2_i32_137 = arith.constant 2 : i32
    %560 = linalg.generic {indexing_maps = [#map, #map], iterator_types = ["parallel", "parallel", "parallel"]} ins(%558 : tensor<1x1x1536xf32>) outs(%559 : tensor<1x1x1536xf32>) {
    ^bb0(%in: f32, %out: f32):
      %3945 = math.fpowi %in, %c2_i32_137 : f32, i32
      linalg.yield %3945 : f32
    } -> tensor<1x1x1536xf32>
    %561 = tosa.reduce_sum %560 {axis = 2 : i32} : (tensor<1x1x1536xf32>) -> tensor<1x1x1xf32>
    %562 = "tosa.const"() <{value = dense<1.536000e+03> : tensor<1xf32>}> : () -> tensor<1xf32>
    %563 = tosa.reciprocal %562 : (tensor<1xf32>) -> tensor<1xf32>
    %564 = tosa.reshape %563 {new_shape = array<i64: 1, 1, 1>} : (tensor<1xf32>) -> tensor<1x1x1xf32>
    %565 = tosa.mul %564, %561 : (tensor<1x1x1xf32>, tensor<1x1x1xf32>) -> tensor<1x1x1xf32>
    %566 = "tosa.const"() <{value = dense<9.99999997E-7> : tensor<1x1x1xf32>}> : () -> tensor<1x1x1xf32>
    %567 = tosa.add %565, %566 : (tensor<1x1x1xf32>, tensor<1x1x1xf32>) -> tensor<1x1x1xf32>
    %568 = tosa.rsqrt %567 : (tensor<1x1x1xf32>) -> tensor<1x1x1xf32>
    %569 = tosa.mul %558, %568 : (tensor<1x1x1536xf32>, tensor<1x1x1xf32>) -> tensor<1x1x1536xf32>
    %570 = tosa.reshape %arg57 {new_shape = array<i64: 1, 1, 1536>} : (tensor<1536xf32>) -> tensor<1x1x1536xf32>
    %571 = tosa.mul %570, %569 : (tensor<1x1x1536xf32>, tensor<1x1x1536xf32>) -> tensor<1x1x1536xf32>
    %572 = "tosa.const"() <{value = dense<[1, 0]> : tensor<2xi32>}> : () -> tensor<2xi32>
    %573 = tosa.transpose %arg58, %572 : (tensor<8960x1536xf32>, tensor<2xi32>) -> tensor<1536x8960xf32>
    %574 = tosa.reshape %571 {new_shape = array<i64: 1, 1536>} : (tensor<1x1x1536xf32>) -> tensor<1x1536xf32>
    %cst_138 = arith.constant dense<0.000000e+00> : tensor<1x8960xf32>
    %575 = linalg.matmul {cast = #linalg.type_fn<cast_signed>} ins(%574, %573 : tensor<1x1536xf32>, tensor<1536x8960xf32>) outs(%cst_138 : tensor<1x8960xf32>) -> tensor<1x8960xf32>
    %576 = tosa.reshape %575 {new_shape = array<i64: 1, 1, 8960>} : (tensor<1x8960xf32>) -> tensor<1x1x8960xf32>
    %577 = tosa.sigmoid %576 : (tensor<1x1x8960xf32>) -> tensor<1x1x8960xf32>
    %578 = tosa.mul %576, %577 : (tensor<1x1x8960xf32>, tensor<1x1x8960xf32>) -> tensor<1x1x8960xf32>
    %579 = "tosa.const"() <{value = dense<[1, 0]> : tensor<2xi32>}> : () -> tensor<2xi32>
    %580 = tosa.transpose %arg59, %579 : (tensor<8960x1536xf32>, tensor<2xi32>) -> tensor<1536x8960xf32>
    %581 = tosa.reshape %571 {new_shape = array<i64: 1, 1536>} : (tensor<1x1x1536xf32>) -> tensor<1x1536xf32>
    %cst_139 = arith.constant dense<0.000000e+00> : tensor<1x8960xf32>
    %582 = linalg.matmul {cast = #linalg.type_fn<cast_signed>} ins(%581, %580 : tensor<1x1536xf32>, tensor<1536x8960xf32>) outs(%cst_139 : tensor<1x8960xf32>) -> tensor<1x8960xf32>
    %583 = tosa.reshape %582 {new_shape = array<i64: 1, 1, 8960>} : (tensor<1x8960xf32>) -> tensor<1x1x8960xf32>
    %584 = tosa.mul %578, %583 : (tensor<1x1x8960xf32>, tensor<1x1x8960xf32>) -> tensor<1x1x8960xf32>
    %585 = "tosa.const"() <{value = dense<[1, 0]> : tensor<2xi32>}> : () -> tensor<2xi32>
    %586 = tosa.transpose %arg60, %585 : (tensor<1536x8960xf32>, tensor<2xi32>) -> tensor<8960x1536xf32>
    %587 = tosa.reshape %584 {new_shape = array<i64: 1, 8960>} : (tensor<1x1x8960xf32>) -> tensor<1x8960xf32>
    %cst_140 = arith.constant dense<0.000000e+00> : tensor<1x1536xf32>
    %588 = linalg.matmul {cast = #linalg.type_fn<cast_signed>} ins(%587, %586 : tensor<1x8960xf32>, tensor<8960x1536xf32>) outs(%cst_140 : tensor<1x1536xf32>) -> tensor<1x1536xf32>
    %589 = tosa.reshape %588 {new_shape = array<i64: 1, 1, 1536>} : (tensor<1x1536xf32>) -> tensor<1x1x1536xf32>
    %590 = tosa.add %558, %589 : (tensor<1x1x1536xf32>, tensor<1x1x1536xf32>) -> tensor<1x1x1536xf32>
    %591 = tensor.empty() : tensor<1x1x1536xf32>
    %c2_i32_141 = arith.constant 2 : i32
    %592 = linalg.generic {indexing_maps = [#map, #map], iterator_types = ["parallel", "parallel", "parallel"]} ins(%590 : tensor<1x1x1536xf32>) outs(%591 : tensor<1x1x1536xf32>) {
    ^bb0(%in: f32, %out: f32):
      %3945 = math.fpowi %in, %c2_i32_141 : f32, i32
      linalg.yield %3945 : f32
    } -> tensor<1x1x1536xf32>
    %593 = tosa.reduce_sum %592 {axis = 2 : i32} : (tensor<1x1x1536xf32>) -> tensor<1x1x1xf32>
    %594 = "tosa.const"() <{value = dense<1.536000e+03> : tensor<1xf32>}> : () -> tensor<1xf32>
    %595 = tosa.reciprocal %594 : (tensor<1xf32>) -> tensor<1xf32>
    %596 = tosa.reshape %595 {new_shape = array<i64: 1, 1, 1>} : (tensor<1xf32>) -> tensor<1x1x1xf32>
    %597 = tosa.mul %596, %593 : (tensor<1x1x1xf32>, tensor<1x1x1xf32>) -> tensor<1x1x1xf32>
    %598 = "tosa.const"() <{value = dense<9.99999997E-7> : tensor<1x1x1xf32>}> : () -> tensor<1x1x1xf32>
    %599 = tosa.add %597, %598 : (tensor<1x1x1xf32>, tensor<1x1x1xf32>) -> tensor<1x1x1xf32>
    %600 = tosa.rsqrt %599 : (tensor<1x1x1xf32>) -> tensor<1x1x1xf32>
    %601 = tosa.mul %590, %600 : (tensor<1x1x1536xf32>, tensor<1x1x1xf32>) -> tensor<1x1x1536xf32>
    %602 = tosa.reshape %arg61 {new_shape = array<i64: 1, 1, 1536>} : (tensor<1536xf32>) -> tensor<1x1x1536xf32>
    %603 = tosa.mul %602, %601 : (tensor<1x1x1536xf32>, tensor<1x1x1536xf32>) -> tensor<1x1x1536xf32>
    %604 = tosa.reshape %603 {new_shape = array<i64: 1, 1536>} : (tensor<1x1x1536xf32>) -> tensor<1x1536xf32>
    %605 = "tosa.const"() <{value = dense<[1, 0]> : tensor<2xi32>}> : () -> tensor<2xi32>
    %606 = tosa.transpose %arg62, %605 : (tensor<1536x1536xf32>, tensor<2xi32>) -> tensor<1536x1536xf32>
    %cst_142 = arith.constant dense<0.000000e+00> : tensor<1x1536xf32>
    %607 = linalg.matmul {cast = #linalg.type_fn<cast_signed>} ins(%604, %606 : tensor<1x1536xf32>, tensor<1536x1536xf32>) outs(%cst_142 : tensor<1x1536xf32>) -> tensor<1x1536xf32>
    %608 = tosa.reshape %arg63 {new_shape = array<i64: 1, 1536>} : (tensor<1536xf32>) -> tensor<1x1536xf32>
    %609 = tosa.add %608, %607 : (tensor<1x1536xf32>, tensor<1x1536xf32>) -> tensor<1x1536xf32>
    %610 = tosa.reshape %609 {new_shape = array<i64: 1, 1, 1536>} : (tensor<1x1536xf32>) -> tensor<1x1x1536xf32>
    %611 = tosa.reshape %610 {new_shape = array<i64: 1, 1, 12, 128>} : (tensor<1x1x1536xf32>) -> tensor<1x1x12x128xf32>
    %612 = "tosa.const"() <{value = dense<[0, 2, 1, 3]> : tensor<4xi32>}> : () -> tensor<4xi32>
    %613 = tosa.transpose %611, %612 : (tensor<1x1x12x128xf32>, tensor<4xi32>) -> tensor<1x12x1x128xf32>
    %614 = tosa.reshape %603 {new_shape = array<i64: 1, 1536>} : (tensor<1x1x1536xf32>) -> tensor<1x1536xf32>
    %615 = "tosa.const"() <{value = dense<[1, 0]> : tensor<2xi32>}> : () -> tensor<2xi32>
    %616 = tosa.transpose %arg64, %615 : (tensor<256x1536xf32>, tensor<2xi32>) -> tensor<1536x256xf32>
    %cst_143 = arith.constant dense<0.000000e+00> : tensor<1x256xf32>
    %617 = linalg.matmul {cast = #linalg.type_fn<cast_signed>} ins(%614, %616 : tensor<1x1536xf32>, tensor<1536x256xf32>) outs(%cst_143 : tensor<1x256xf32>) -> tensor<1x256xf32>
    %618 = tosa.reshape %arg65 {new_shape = array<i64: 1, 256>} : (tensor<256xf32>) -> tensor<1x256xf32>
    %619 = tosa.add %618, %617 : (tensor<1x256xf32>, tensor<1x256xf32>) -> tensor<1x256xf32>
    %620 = tosa.reshape %619 {new_shape = array<i64: 1, 1, 256>} : (tensor<1x256xf32>) -> tensor<1x1x256xf32>
    %621 = tosa.reshape %620 {new_shape = array<i64: 1, 1, 2, 128>} : (tensor<1x1x256xf32>) -> tensor<1x1x2x128xf32>
    %622 = "tosa.const"() <{value = dense<[0, 2, 1, 3]> : tensor<4xi32>}> : () -> tensor<4xi32>
    %623 = tosa.transpose %621, %622 : (tensor<1x1x2x128xf32>, tensor<4xi32>) -> tensor<1x2x1x128xf32>
    %624 = tosa.reshape %603 {new_shape = array<i64: 1, 1536>} : (tensor<1x1x1536xf32>) -> tensor<1x1536xf32>
    %625 = "tosa.const"() <{value = dense<[1, 0]> : tensor<2xi32>}> : () -> tensor<2xi32>
    %626 = tosa.transpose %arg66, %625 : (tensor<256x1536xf32>, tensor<2xi32>) -> tensor<1536x256xf32>
    %cst_144 = arith.constant dense<0.000000e+00> : tensor<1x256xf32>
    %627 = linalg.matmul {cast = #linalg.type_fn<cast_signed>} ins(%624, %626 : tensor<1x1536xf32>, tensor<1536x256xf32>) outs(%cst_144 : tensor<1x256xf32>) -> tensor<1x256xf32>
    %628 = tosa.reshape %arg67 {new_shape = array<i64: 1, 256>} : (tensor<256xf32>) -> tensor<1x256xf32>
    %629 = tosa.add %628, %627 : (tensor<1x256xf32>, tensor<1x256xf32>) -> tensor<1x256xf32>
    %630 = tosa.reshape %629 {new_shape = array<i64: 1, 1, 256>} : (tensor<1x256xf32>) -> tensor<1x1x256xf32>
    %631 = tosa.reshape %630 {new_shape = array<i64: 1, 1, 2, 128>} : (tensor<1x1x256xf32>) -> tensor<1x1x2x128xf32>
    %632 = "tosa.const"() <{value = dense<[0, 2, 1, 3]> : tensor<4xi32>}> : () -> tensor<4xi32>
    %633 = tosa.transpose %631, %632 : (tensor<1x1x2x128xf32>, tensor<4xi32>) -> tensor<1x2x1x128xf32>
    %634 = tosa.reshape %31 {new_shape = array<i64: 1, 1, 1, 128>} : (tensor<1x1x128xf32>) -> tensor<1x1x1x128xf32>
    %635 = tosa.reshape %34 {new_shape = array<i64: 1, 1, 1, 128>} : (tensor<1x1x128xf32>) -> tensor<1x1x1x128xf32>
    %636 = tosa.mul %613, %634 : (tensor<1x12x1x128xf32>, tensor<1x1x1x128xf32>) -> tensor<1x12x1x128xf32>
    %extracted_slice_145 = tensor.extract_slice %613[0, 0, 0, 0] [1, 12, 1, 64] [1, 1, 1, 1] : tensor<1x12x1x128xf32> to tensor<1x12x1x64xf32>
    %extracted_slice_146 = tensor.extract_slice %613[0, 0, 0, 64] [1, 12, 1, 64] [1, 1, 1, 1] : tensor<1x12x1x128xf32> to tensor<1x12x1x64xf32>
    %637 = tensor.empty() : tensor<1x12x1x64xf32>
    %638 = linalg.negf ins(%extracted_slice_146 : tensor<1x12x1x64xf32>) outs(%637 : tensor<1x12x1x64xf32>) -> tensor<1x12x1x64xf32>
    %639 = tensor.empty() : tensor<1x12x1x128xf32>
    %inserted_slice_147 = tensor.insert_slice %638 into %639[0, 0, 0, 0] [1, 12, 1, 64] [1, 1, 1, 1] : tensor<1x12x1x64xf32> into tensor<1x12x1x128xf32>
    %inserted_slice_148 = tensor.insert_slice %extracted_slice_145 into %inserted_slice_147[0, 0, 0, 64] [1, 12, 1, 64] [1, 1, 1, 1] : tensor<1x12x1x64xf32> into tensor<1x12x1x128xf32>
    %640 = tosa.mul %inserted_slice_148, %635 : (tensor<1x12x1x128xf32>, tensor<1x1x1x128xf32>) -> tensor<1x12x1x128xf32>
    %641 = tosa.add %636, %640 : (tensor<1x12x1x128xf32>, tensor<1x12x1x128xf32>) -> tensor<1x12x1x128xf32>
    %642 = tosa.mul %623, %634 : (tensor<1x2x1x128xf32>, tensor<1x1x1x128xf32>) -> tensor<1x2x1x128xf32>
    %extracted_slice_149 = tensor.extract_slice %623[0, 0, 0, 0] [1, 2, 1, 64] [1, 1, 1, 1] : tensor<1x2x1x128xf32> to tensor<1x2x1x64xf32>
    %extracted_slice_150 = tensor.extract_slice %623[0, 0, 0, 64] [1, 2, 1, 64] [1, 1, 1, 1] : tensor<1x2x1x128xf32> to tensor<1x2x1x64xf32>
    %643 = tensor.empty() : tensor<1x2x1x64xf32>
    %644 = linalg.negf ins(%extracted_slice_150 : tensor<1x2x1x64xf32>) outs(%643 : tensor<1x2x1x64xf32>) -> tensor<1x2x1x64xf32>
    %645 = tensor.empty() : tensor<1x2x1x128xf32>
    %inserted_slice_151 = tensor.insert_slice %644 into %645[0, 0, 0, 0] [1, 2, 1, 64] [1, 1, 1, 1] : tensor<1x2x1x64xf32> into tensor<1x2x1x128xf32>
    %inserted_slice_152 = tensor.insert_slice %extracted_slice_149 into %inserted_slice_151[0, 0, 0, 64] [1, 2, 1, 64] [1, 1, 1, 1] : tensor<1x2x1x64xf32> into tensor<1x2x1x128xf32>
    %646 = tosa.mul %inserted_slice_152, %635 : (tensor<1x2x1x128xf32>, tensor<1x1x1x128xf32>) -> tensor<1x2x1x128xf32>
    %647 = tosa.add %642, %646 : (tensor<1x2x1x128xf32>, tensor<1x2x1x128xf32>) -> tensor<1x2x1x128xf32>
    %648 = bufferization.to_memref %arg68 : tensor<1x2x1024x128xf32> to memref<1x2x1024x128xf32>
    %649 = bufferization.to_memref %arg3 : tensor<1xi64> to memref<1xi64>
    %650 = bufferization.to_memref %647 : tensor<1x2x1x128xf32> to memref<1x2x1x128xf32>
    %c0_153 = arith.constant 0 : index
    %c1_154 = arith.constant 1 : index
    %c1_155 = arith.constant 1 : index
    %c2_156 = arith.constant 2 : index
    %c1_157 = arith.constant 1 : index
    %c128_158 = arith.constant 128 : index
    scf.for %arg399 = %c0_153 to %c1_155 step %c1_154 {
      scf.for %arg400 = %c0_153 to %c2_156 step %c1_154 {
        scf.for %arg401 = %c0_153 to %c1_157 step %c1_154 {
          %3945 = memref.load %649[%arg401] : memref<1xi64>
          %3946 = arith.index_cast %3945 : i64 to index
          scf.for %arg402 = %c0_153 to %c128_158 step %c1_154 {
            %3947 = memref.load %650[%arg399, %arg400, %arg401, %arg402] : memref<1x2x1x128xf32>
            memref.store %3947, %648[%arg399, %arg400, %3946, %arg402] : memref<1x2x1024x128xf32>
          }
        }
      }
    }
    %651 = bufferization.to_tensor %648 restrict : memref<1x2x1024x128xf32> to tensor<1x2x1024x128xf32>
    %652 = bufferization.to_memref %arg69 : tensor<1x2x1024x128xf32> to memref<1x2x1024x128xf32>
    %653 = bufferization.to_memref %arg3 : tensor<1xi64> to memref<1xi64>
    %654 = bufferization.to_memref %633 : tensor<1x2x1x128xf32> to memref<1x2x1x128xf32>
    %c0_159 = arith.constant 0 : index
    %c1_160 = arith.constant 1 : index
    %c1_161 = arith.constant 1 : index
    %c2_162 = arith.constant 2 : index
    %c1_163 = arith.constant 1 : index
    %c128_164 = arith.constant 128 : index
    scf.for %arg399 = %c0_159 to %c1_161 step %c1_160 {
      scf.for %arg400 = %c0_159 to %c2_162 step %c1_160 {
        scf.for %arg401 = %c0_159 to %c1_163 step %c1_160 {
          %3945 = memref.load %653[%arg401] : memref<1xi64>
          %3946 = arith.index_cast %3945 : i64 to index
          scf.for %arg402 = %c0_159 to %c128_164 step %c1_160 {
            %3947 = memref.load %654[%arg399, %arg400, %arg401, %arg402] : memref<1x2x1x128xf32>
            memref.store %3947, %652[%arg399, %arg400, %3946, %arg402] : memref<1x2x1024x128xf32>
          }
        }
      }
    }
    %655 = bufferization.to_tensor %652 restrict : memref<1x2x1024x128xf32> to tensor<1x2x1024x128xf32>
    %656 = tosa.reshape %651 {new_shape = array<i64: 1, 2, 1, 1024, 128>} : (tensor<1x2x1024x128xf32>) -> tensor<1x2x1x1024x128xf32>
    %657 = "tosa.const"() <{value = dense<0.000000e+00> : tensor<1x2x6x1024x128xf32>}> : () -> tensor<1x2x6x1024x128xf32>
    %658 = tosa.add %656, %657 : (tensor<1x2x1x1024x128xf32>, tensor<1x2x6x1024x128xf32>) -> tensor<1x2x6x1024x128xf32>
    %659 = tosa.reshape %658 {new_shape = array<i64: 1, 12, 1024, 128>} : (tensor<1x2x6x1024x128xf32>) -> tensor<1x12x1024x128xf32>
    %660 = tosa.reshape %655 {new_shape = array<i64: 1, 2, 1, 1024, 128>} : (tensor<1x2x1024x128xf32>) -> tensor<1x2x1x1024x128xf32>
    %661 = "tosa.const"() <{value = dense<0.000000e+00> : tensor<1x2x6x1024x128xf32>}> : () -> tensor<1x2x6x1024x128xf32>
    %662 = tosa.add %660, %661 : (tensor<1x2x1x1024x128xf32>, tensor<1x2x6x1024x128xf32>) -> tensor<1x2x6x1024x128xf32>
    %663 = tosa.reshape %662 {new_shape = array<i64: 1, 12, 1024, 128>} : (tensor<1x2x6x1024x128xf32>) -> tensor<1x12x1024x128xf32>
    %664 = tosa.reshape %17 {new_shape = array<i64: 1, 1, 1, 1024>} : (tensor<1x1024xi1>) -> tensor<1x1x1x1024xi1>
    %cst_165 = arith.constant 0xFF800000 : f32
    %cst_166 = arith.constant 0.000000e+00 : f32
    %665 = tensor.empty() : tensor<1x1x1x1024xf32>
    %splat_167 = tensor.splat %cst_166 : tensor<1x1x1x1024xf32>
    %splat_168 = tensor.splat %cst_165 : tensor<1x1x1x1024xf32>
    %666 = linalg.generic {indexing_maps = [#map1, #map1, #map1, #map1], iterator_types = ["parallel", "parallel", "parallel", "parallel"]} ins(%664, %splat_167, %splat_168 : tensor<1x1x1x1024xi1>, tensor<1x1x1x1024xf32>, tensor<1x1x1x1024xf32>) outs(%665 : tensor<1x1x1x1024xf32>) {
    ^bb0(%in: i1, %in_1031: f32, %in_1032: f32, %out: f32):
      %3945 = arith.select %in, %in_1031, %in_1032 : f32
      linalg.yield %3945 : f32
    } -> tensor<1x1x1x1024xf32>
    %cst_169 = arith.constant 0.000000e+00 : f32
    %splat_170 = tensor.splat %cst_169 : tensor<1x1024xf32>
    %667 = tosa.reshape %666 {new_shape = array<i64: 1, 1024>} : (tensor<1x1x1x1024xf32>) -> tensor<1x1024xf32>
    %668 = tosa.add %splat_170, %667 : (tensor<1x1024xf32>, tensor<1x1024xf32>) -> tensor<1x1024xf32>
    %669 = "tosa.const"() <{value = dense<[0, 1, 3, 2]> : tensor<4xi32>}> : () -> tensor<4xi32>
    %670 = tosa.transpose %659, %669 : (tensor<1x12x1024x128xf32>, tensor<4xi32>) -> tensor<1x12x128x1024xf32>
    %671 = tosa.reshape %641 {new_shape = array<i64: 12, 1, 128>} : (tensor<1x12x1x128xf32>) -> tensor<12x1x128xf32>
    %672 = tosa.reshape %670 {new_shape = array<i64: 12, 128, 1024>} : (tensor<1x12x128x1024xf32>) -> tensor<12x128x1024xf32>
    %673 = tosa.matmul %671, %672 : (tensor<12x1x128xf32>, tensor<12x128x1024xf32>) -> tensor<12x1x1024xf32>
    %cst_171 = arith.constant 0.0883883461 : f32
    %splat_172 = tensor.splat %cst_171 : tensor<12x1x1024xf32>
    %674 = tosa.mul %673, %splat_172 : (tensor<12x1x1024xf32>, tensor<12x1x1024xf32>) -> tensor<12x1x1024xf32>
    %675 = tosa.reshape %668 {new_shape = array<i64: 1, 1, 1024>} : (tensor<1x1024xf32>) -> tensor<1x1x1024xf32>
    %676 = tosa.add %674, %675 : (tensor<12x1x1024xf32>, tensor<1x1x1024xf32>) -> tensor<12x1x1024xf32>
    %677 = tosa.reduce_max %676 {axis = 2 : i32} : (tensor<12x1x1024xf32>) -> tensor<12x1x1xf32>
    %678 = tosa.sub %676, %677 : (tensor<12x1x1024xf32>, tensor<12x1x1xf32>) -> tensor<12x1x1024xf32>
    %679 = math.exp %678 : tensor<12x1x1024xf32>
    %680 = tosa.reduce_sum %679 {axis = 2 : i32} : (tensor<12x1x1024xf32>) -> tensor<12x1x1xf32>
    %681 = tosa.log %680 : (tensor<12x1x1xf32>) -> tensor<12x1x1xf32>
    %682 = tosa.add %677, %681 : (tensor<12x1x1xf32>, tensor<12x1x1xf32>) -> tensor<12x1x1xf32>
    %683 = tosa.sub %676, %682 : (tensor<12x1x1024xf32>, tensor<12x1x1xf32>) -> tensor<12x1x1024xf32>
    %684 = math.exp %683 : tensor<12x1x1024xf32>
    %685 = tosa.reshape %682 {new_shape = array<i64: 1, 12, 1>} : (tensor<12x1x1xf32>) -> tensor<1x12x1xf32>
    %686 = tosa.reshape %663 {new_shape = array<i64: 12, 1024, 128>} : (tensor<1x12x1024x128xf32>) -> tensor<12x1024x128xf32>
    %687 = tosa.matmul %684, %686 : (tensor<12x1x1024xf32>, tensor<12x1024x128xf32>) -> tensor<12x1x128xf32>
    %688 = tosa.reshape %687 {new_shape = array<i64: 1, 12, 1, 128>} : (tensor<12x1x128xf32>) -> tensor<1x12x1x128xf32>
    %689 = "tosa.const"() <{value = dense<[0, 2, 1, 3]> : tensor<4xi32>}> : () -> tensor<4xi32>
    %690 = tosa.transpose %688, %689 : (tensor<1x12x1x128xf32>, tensor<4xi32>) -> tensor<1x1x12x128xf32>
    %691 = tosa.reshape %690 {new_shape = array<i64: 1, 1, 1536>} : (tensor<1x1x12x128xf32>) -> tensor<1x1x1536xf32>
    %692 = "tosa.const"() <{value = dense<[1, 0]> : tensor<2xi32>}> : () -> tensor<2xi32>
    %693 = tosa.transpose %arg70, %692 : (tensor<1536x1536xf32>, tensor<2xi32>) -> tensor<1536x1536xf32>
    %694 = tosa.reshape %691 {new_shape = array<i64: 1, 1536>} : (tensor<1x1x1536xf32>) -> tensor<1x1536xf32>
    %cst_173 = arith.constant dense<0.000000e+00> : tensor<1x1536xf32>
    %695 = linalg.matmul {cast = #linalg.type_fn<cast_signed>} ins(%694, %693 : tensor<1x1536xf32>, tensor<1536x1536xf32>) outs(%cst_173 : tensor<1x1536xf32>) -> tensor<1x1536xf32>
    %696 = tosa.reshape %695 {new_shape = array<i64: 1, 1, 1536>} : (tensor<1x1536xf32>) -> tensor<1x1x1536xf32>
    %697 = tosa.add %590, %696 : (tensor<1x1x1536xf32>, tensor<1x1x1536xf32>) -> tensor<1x1x1536xf32>
    %698 = tensor.empty() : tensor<1x1x1536xf32>
    %c2_i32_174 = arith.constant 2 : i32
    %699 = linalg.generic {indexing_maps = [#map, #map], iterator_types = ["parallel", "parallel", "parallel"]} ins(%697 : tensor<1x1x1536xf32>) outs(%698 : tensor<1x1x1536xf32>) {
    ^bb0(%in: f32, %out: f32):
      %3945 = math.fpowi %in, %c2_i32_174 : f32, i32
      linalg.yield %3945 : f32
    } -> tensor<1x1x1536xf32>
    %700 = tosa.reduce_sum %699 {axis = 2 : i32} : (tensor<1x1x1536xf32>) -> tensor<1x1x1xf32>
    %701 = "tosa.const"() <{value = dense<1.536000e+03> : tensor<1xf32>}> : () -> tensor<1xf32>
    %702 = tosa.reciprocal %701 : (tensor<1xf32>) -> tensor<1xf32>
    %703 = tosa.reshape %702 {new_shape = array<i64: 1, 1, 1>} : (tensor<1xf32>) -> tensor<1x1x1xf32>
    %704 = tosa.mul %703, %700 : (tensor<1x1x1xf32>, tensor<1x1x1xf32>) -> tensor<1x1x1xf32>
    %705 = "tosa.const"() <{value = dense<9.99999997E-7> : tensor<1x1x1xf32>}> : () -> tensor<1x1x1xf32>
    %706 = tosa.add %704, %705 : (tensor<1x1x1xf32>, tensor<1x1x1xf32>) -> tensor<1x1x1xf32>
    %707 = tosa.rsqrt %706 : (tensor<1x1x1xf32>) -> tensor<1x1x1xf32>
    %708 = tosa.mul %697, %707 : (tensor<1x1x1536xf32>, tensor<1x1x1xf32>) -> tensor<1x1x1536xf32>
    %709 = tosa.reshape %arg71 {new_shape = array<i64: 1, 1, 1536>} : (tensor<1536xf32>) -> tensor<1x1x1536xf32>
    %710 = tosa.mul %709, %708 : (tensor<1x1x1536xf32>, tensor<1x1x1536xf32>) -> tensor<1x1x1536xf32>
    %711 = "tosa.const"() <{value = dense<[1, 0]> : tensor<2xi32>}> : () -> tensor<2xi32>
    %712 = tosa.transpose %arg72, %711 : (tensor<8960x1536xf32>, tensor<2xi32>) -> tensor<1536x8960xf32>
    %713 = tosa.reshape %710 {new_shape = array<i64: 1, 1536>} : (tensor<1x1x1536xf32>) -> tensor<1x1536xf32>
    %cst_175 = arith.constant dense<0.000000e+00> : tensor<1x8960xf32>
    %714 = linalg.matmul {cast = #linalg.type_fn<cast_signed>} ins(%713, %712 : tensor<1x1536xf32>, tensor<1536x8960xf32>) outs(%cst_175 : tensor<1x8960xf32>) -> tensor<1x8960xf32>
    %715 = tosa.reshape %714 {new_shape = array<i64: 1, 1, 8960>} : (tensor<1x8960xf32>) -> tensor<1x1x8960xf32>
    %716 = tosa.sigmoid %715 : (tensor<1x1x8960xf32>) -> tensor<1x1x8960xf32>
    %717 = tosa.mul %715, %716 : (tensor<1x1x8960xf32>, tensor<1x1x8960xf32>) -> tensor<1x1x8960xf32>
    %718 = "tosa.const"() <{value = dense<[1, 0]> : tensor<2xi32>}> : () -> tensor<2xi32>
    %719 = tosa.transpose %arg73, %718 : (tensor<8960x1536xf32>, tensor<2xi32>) -> tensor<1536x8960xf32>
    %720 = tosa.reshape %710 {new_shape = array<i64: 1, 1536>} : (tensor<1x1x1536xf32>) -> tensor<1x1536xf32>
    %cst_176 = arith.constant dense<0.000000e+00> : tensor<1x8960xf32>
    %721 = linalg.matmul {cast = #linalg.type_fn<cast_signed>} ins(%720, %719 : tensor<1x1536xf32>, tensor<1536x8960xf32>) outs(%cst_176 : tensor<1x8960xf32>) -> tensor<1x8960xf32>
    %722 = tosa.reshape %721 {new_shape = array<i64: 1, 1, 8960>} : (tensor<1x8960xf32>) -> tensor<1x1x8960xf32>
    %723 = tosa.mul %717, %722 : (tensor<1x1x8960xf32>, tensor<1x1x8960xf32>) -> tensor<1x1x8960xf32>
    %724 = "tosa.const"() <{value = dense<[1, 0]> : tensor<2xi32>}> : () -> tensor<2xi32>
    %725 = tosa.transpose %arg74, %724 : (tensor<1536x8960xf32>, tensor<2xi32>) -> tensor<8960x1536xf32>
    %726 = tosa.reshape %723 {new_shape = array<i64: 1, 8960>} : (tensor<1x1x8960xf32>) -> tensor<1x8960xf32>
    %cst_177 = arith.constant dense<0.000000e+00> : tensor<1x1536xf32>
    %727 = linalg.matmul {cast = #linalg.type_fn<cast_signed>} ins(%726, %725 : tensor<1x8960xf32>, tensor<8960x1536xf32>) outs(%cst_177 : tensor<1x1536xf32>) -> tensor<1x1536xf32>
    %728 = tosa.reshape %727 {new_shape = array<i64: 1, 1, 1536>} : (tensor<1x1536xf32>) -> tensor<1x1x1536xf32>
    %729 = tosa.add %697, %728 : (tensor<1x1x1536xf32>, tensor<1x1x1536xf32>) -> tensor<1x1x1536xf32>
    %730 = tensor.empty() : tensor<1x1x1536xf32>
    %c2_i32_178 = arith.constant 2 : i32
    %731 = linalg.generic {indexing_maps = [#map, #map], iterator_types = ["parallel", "parallel", "parallel"]} ins(%729 : tensor<1x1x1536xf32>) outs(%730 : tensor<1x1x1536xf32>) {
    ^bb0(%in: f32, %out: f32):
      %3945 = math.fpowi %in, %c2_i32_178 : f32, i32
      linalg.yield %3945 : f32
    } -> tensor<1x1x1536xf32>
    %732 = tosa.reduce_sum %731 {axis = 2 : i32} : (tensor<1x1x1536xf32>) -> tensor<1x1x1xf32>
    %733 = "tosa.const"() <{value = dense<1.536000e+03> : tensor<1xf32>}> : () -> tensor<1xf32>
    %734 = tosa.reciprocal %733 : (tensor<1xf32>) -> tensor<1xf32>
    %735 = tosa.reshape %734 {new_shape = array<i64: 1, 1, 1>} : (tensor<1xf32>) -> tensor<1x1x1xf32>
    %736 = tosa.mul %735, %732 : (tensor<1x1x1xf32>, tensor<1x1x1xf32>) -> tensor<1x1x1xf32>
    %737 = "tosa.const"() <{value = dense<9.99999997E-7> : tensor<1x1x1xf32>}> : () -> tensor<1x1x1xf32>
    %738 = tosa.add %736, %737 : (tensor<1x1x1xf32>, tensor<1x1x1xf32>) -> tensor<1x1x1xf32>
    %739 = tosa.rsqrt %738 : (tensor<1x1x1xf32>) -> tensor<1x1x1xf32>
    %740 = tosa.mul %729, %739 : (tensor<1x1x1536xf32>, tensor<1x1x1xf32>) -> tensor<1x1x1536xf32>
    %741 = tosa.reshape %arg75 {new_shape = array<i64: 1, 1, 1536>} : (tensor<1536xf32>) -> tensor<1x1x1536xf32>
    %742 = tosa.mul %741, %740 : (tensor<1x1x1536xf32>, tensor<1x1x1536xf32>) -> tensor<1x1x1536xf32>
    %743 = tosa.reshape %742 {new_shape = array<i64: 1, 1536>} : (tensor<1x1x1536xf32>) -> tensor<1x1536xf32>
    %744 = "tosa.const"() <{value = dense<[1, 0]> : tensor<2xi32>}> : () -> tensor<2xi32>
    %745 = tosa.transpose %arg76, %744 : (tensor<1536x1536xf32>, tensor<2xi32>) -> tensor<1536x1536xf32>
    %cst_179 = arith.constant dense<0.000000e+00> : tensor<1x1536xf32>
    %746 = linalg.matmul {cast = #linalg.type_fn<cast_signed>} ins(%743, %745 : tensor<1x1536xf32>, tensor<1536x1536xf32>) outs(%cst_179 : tensor<1x1536xf32>) -> tensor<1x1536xf32>
    %747 = tosa.reshape %arg77 {new_shape = array<i64: 1, 1536>} : (tensor<1536xf32>) -> tensor<1x1536xf32>
    %748 = tosa.add %747, %746 : (tensor<1x1536xf32>, tensor<1x1536xf32>) -> tensor<1x1536xf32>
    %749 = tosa.reshape %748 {new_shape = array<i64: 1, 1, 1536>} : (tensor<1x1536xf32>) -> tensor<1x1x1536xf32>
    %750 = tosa.reshape %749 {new_shape = array<i64: 1, 1, 12, 128>} : (tensor<1x1x1536xf32>) -> tensor<1x1x12x128xf32>
    %751 = "tosa.const"() <{value = dense<[0, 2, 1, 3]> : tensor<4xi32>}> : () -> tensor<4xi32>
    %752 = tosa.transpose %750, %751 : (tensor<1x1x12x128xf32>, tensor<4xi32>) -> tensor<1x12x1x128xf32>
    %753 = tosa.reshape %742 {new_shape = array<i64: 1, 1536>} : (tensor<1x1x1536xf32>) -> tensor<1x1536xf32>
    %754 = "tosa.const"() <{value = dense<[1, 0]> : tensor<2xi32>}> : () -> tensor<2xi32>
    %755 = tosa.transpose %arg78, %754 : (tensor<256x1536xf32>, tensor<2xi32>) -> tensor<1536x256xf32>
    %cst_180 = arith.constant dense<0.000000e+00> : tensor<1x256xf32>
    %756 = linalg.matmul {cast = #linalg.type_fn<cast_signed>} ins(%753, %755 : tensor<1x1536xf32>, tensor<1536x256xf32>) outs(%cst_180 : tensor<1x256xf32>) -> tensor<1x256xf32>
    %757 = tosa.reshape %arg79 {new_shape = array<i64: 1, 256>} : (tensor<256xf32>) -> tensor<1x256xf32>
    %758 = tosa.add %757, %756 : (tensor<1x256xf32>, tensor<1x256xf32>) -> tensor<1x256xf32>
    %759 = tosa.reshape %758 {new_shape = array<i64: 1, 1, 256>} : (tensor<1x256xf32>) -> tensor<1x1x256xf32>
    %760 = tosa.reshape %759 {new_shape = array<i64: 1, 1, 2, 128>} : (tensor<1x1x256xf32>) -> tensor<1x1x2x128xf32>
    %761 = "tosa.const"() <{value = dense<[0, 2, 1, 3]> : tensor<4xi32>}> : () -> tensor<4xi32>
    %762 = tosa.transpose %760, %761 : (tensor<1x1x2x128xf32>, tensor<4xi32>) -> tensor<1x2x1x128xf32>
    %763 = tosa.reshape %742 {new_shape = array<i64: 1, 1536>} : (tensor<1x1x1536xf32>) -> tensor<1x1536xf32>
    %764 = "tosa.const"() <{value = dense<[1, 0]> : tensor<2xi32>}> : () -> tensor<2xi32>
    %765 = tosa.transpose %arg80, %764 : (tensor<256x1536xf32>, tensor<2xi32>) -> tensor<1536x256xf32>
    %cst_181 = arith.constant dense<0.000000e+00> : tensor<1x256xf32>
    %766 = linalg.matmul {cast = #linalg.type_fn<cast_signed>} ins(%763, %765 : tensor<1x1536xf32>, tensor<1536x256xf32>) outs(%cst_181 : tensor<1x256xf32>) -> tensor<1x256xf32>
    %767 = tosa.reshape %arg81 {new_shape = array<i64: 1, 256>} : (tensor<256xf32>) -> tensor<1x256xf32>
    %768 = tosa.add %767, %766 : (tensor<1x256xf32>, tensor<1x256xf32>) -> tensor<1x256xf32>
    %769 = tosa.reshape %768 {new_shape = array<i64: 1, 1, 256>} : (tensor<1x256xf32>) -> tensor<1x1x256xf32>
    %770 = tosa.reshape %769 {new_shape = array<i64: 1, 1, 2, 128>} : (tensor<1x1x256xf32>) -> tensor<1x1x2x128xf32>
    %771 = "tosa.const"() <{value = dense<[0, 2, 1, 3]> : tensor<4xi32>}> : () -> tensor<4xi32>
    %772 = tosa.transpose %770, %771 : (tensor<1x1x2x128xf32>, tensor<4xi32>) -> tensor<1x2x1x128xf32>
    %773 = tosa.reshape %31 {new_shape = array<i64: 1, 1, 1, 128>} : (tensor<1x1x128xf32>) -> tensor<1x1x1x128xf32>
    %774 = tosa.reshape %34 {new_shape = array<i64: 1, 1, 1, 128>} : (tensor<1x1x128xf32>) -> tensor<1x1x1x128xf32>
    %775 = tosa.mul %752, %773 : (tensor<1x12x1x128xf32>, tensor<1x1x1x128xf32>) -> tensor<1x12x1x128xf32>
    %extracted_slice_182 = tensor.extract_slice %752[0, 0, 0, 0] [1, 12, 1, 64] [1, 1, 1, 1] : tensor<1x12x1x128xf32> to tensor<1x12x1x64xf32>
    %extracted_slice_183 = tensor.extract_slice %752[0, 0, 0, 64] [1, 12, 1, 64] [1, 1, 1, 1] : tensor<1x12x1x128xf32> to tensor<1x12x1x64xf32>
    %776 = tensor.empty() : tensor<1x12x1x64xf32>
    %777 = linalg.negf ins(%extracted_slice_183 : tensor<1x12x1x64xf32>) outs(%776 : tensor<1x12x1x64xf32>) -> tensor<1x12x1x64xf32>
    %778 = tensor.empty() : tensor<1x12x1x128xf32>
    %inserted_slice_184 = tensor.insert_slice %777 into %778[0, 0, 0, 0] [1, 12, 1, 64] [1, 1, 1, 1] : tensor<1x12x1x64xf32> into tensor<1x12x1x128xf32>
    %inserted_slice_185 = tensor.insert_slice %extracted_slice_182 into %inserted_slice_184[0, 0, 0, 64] [1, 12, 1, 64] [1, 1, 1, 1] : tensor<1x12x1x64xf32> into tensor<1x12x1x128xf32>
    %779 = tosa.mul %inserted_slice_185, %774 : (tensor<1x12x1x128xf32>, tensor<1x1x1x128xf32>) -> tensor<1x12x1x128xf32>
    %780 = tosa.add %775, %779 : (tensor<1x12x1x128xf32>, tensor<1x12x1x128xf32>) -> tensor<1x12x1x128xf32>
    %781 = tosa.mul %762, %773 : (tensor<1x2x1x128xf32>, tensor<1x1x1x128xf32>) -> tensor<1x2x1x128xf32>
    %extracted_slice_186 = tensor.extract_slice %762[0, 0, 0, 0] [1, 2, 1, 64] [1, 1, 1, 1] : tensor<1x2x1x128xf32> to tensor<1x2x1x64xf32>
    %extracted_slice_187 = tensor.extract_slice %762[0, 0, 0, 64] [1, 2, 1, 64] [1, 1, 1, 1] : tensor<1x2x1x128xf32> to tensor<1x2x1x64xf32>
    %782 = tensor.empty() : tensor<1x2x1x64xf32>
    %783 = linalg.negf ins(%extracted_slice_187 : tensor<1x2x1x64xf32>) outs(%782 : tensor<1x2x1x64xf32>) -> tensor<1x2x1x64xf32>
    %784 = tensor.empty() : tensor<1x2x1x128xf32>
    %inserted_slice_188 = tensor.insert_slice %783 into %784[0, 0, 0, 0] [1, 2, 1, 64] [1, 1, 1, 1] : tensor<1x2x1x64xf32> into tensor<1x2x1x128xf32>
    %inserted_slice_189 = tensor.insert_slice %extracted_slice_186 into %inserted_slice_188[0, 0, 0, 64] [1, 2, 1, 64] [1, 1, 1, 1] : tensor<1x2x1x64xf32> into tensor<1x2x1x128xf32>
    %785 = tosa.mul %inserted_slice_189, %774 : (tensor<1x2x1x128xf32>, tensor<1x1x1x128xf32>) -> tensor<1x2x1x128xf32>
    %786 = tosa.add %781, %785 : (tensor<1x2x1x128xf32>, tensor<1x2x1x128xf32>) -> tensor<1x2x1x128xf32>
    %787 = bufferization.to_memref %arg82 : tensor<1x2x1024x128xf32> to memref<1x2x1024x128xf32>
    %788 = bufferization.to_memref %arg3 : tensor<1xi64> to memref<1xi64>
    %789 = bufferization.to_memref %786 : tensor<1x2x1x128xf32> to memref<1x2x1x128xf32>
    %c0_190 = arith.constant 0 : index
    %c1_191 = arith.constant 1 : index
    %c1_192 = arith.constant 1 : index
    %c2_193 = arith.constant 2 : index
    %c1_194 = arith.constant 1 : index
    %c128_195 = arith.constant 128 : index
    scf.for %arg399 = %c0_190 to %c1_192 step %c1_191 {
      scf.for %arg400 = %c0_190 to %c2_193 step %c1_191 {
        scf.for %arg401 = %c0_190 to %c1_194 step %c1_191 {
          %3945 = memref.load %788[%arg401] : memref<1xi64>
          %3946 = arith.index_cast %3945 : i64 to index
          scf.for %arg402 = %c0_190 to %c128_195 step %c1_191 {
            %3947 = memref.load %789[%arg399, %arg400, %arg401, %arg402] : memref<1x2x1x128xf32>
            memref.store %3947, %787[%arg399, %arg400, %3946, %arg402] : memref<1x2x1024x128xf32>
          }
        }
      }
    }
    %790 = bufferization.to_tensor %787 restrict : memref<1x2x1024x128xf32> to tensor<1x2x1024x128xf32>
    %791 = bufferization.to_memref %arg83 : tensor<1x2x1024x128xf32> to memref<1x2x1024x128xf32>
    %792 = bufferization.to_memref %arg3 : tensor<1xi64> to memref<1xi64>
    %793 = bufferization.to_memref %772 : tensor<1x2x1x128xf32> to memref<1x2x1x128xf32>
    %c0_196 = arith.constant 0 : index
    %c1_197 = arith.constant 1 : index
    %c1_198 = arith.constant 1 : index
    %c2_199 = arith.constant 2 : index
    %c1_200 = arith.constant 1 : index
    %c128_201 = arith.constant 128 : index
    scf.for %arg399 = %c0_196 to %c1_198 step %c1_197 {
      scf.for %arg400 = %c0_196 to %c2_199 step %c1_197 {
        scf.for %arg401 = %c0_196 to %c1_200 step %c1_197 {
          %3945 = memref.load %792[%arg401] : memref<1xi64>
          %3946 = arith.index_cast %3945 : i64 to index
          scf.for %arg402 = %c0_196 to %c128_201 step %c1_197 {
            %3947 = memref.load %793[%arg399, %arg400, %arg401, %arg402] : memref<1x2x1x128xf32>
            memref.store %3947, %791[%arg399, %arg400, %3946, %arg402] : memref<1x2x1024x128xf32>
          }
        }
      }
    }
    %794 = bufferization.to_tensor %791 restrict : memref<1x2x1024x128xf32> to tensor<1x2x1024x128xf32>
    %795 = tosa.reshape %790 {new_shape = array<i64: 1, 2, 1, 1024, 128>} : (tensor<1x2x1024x128xf32>) -> tensor<1x2x1x1024x128xf32>
    %796 = "tosa.const"() <{value = dense<0.000000e+00> : tensor<1x2x6x1024x128xf32>}> : () -> tensor<1x2x6x1024x128xf32>
    %797 = tosa.add %795, %796 : (tensor<1x2x1x1024x128xf32>, tensor<1x2x6x1024x128xf32>) -> tensor<1x2x6x1024x128xf32>
    %798 = tosa.reshape %797 {new_shape = array<i64: 1, 12, 1024, 128>} : (tensor<1x2x6x1024x128xf32>) -> tensor<1x12x1024x128xf32>
    %799 = tosa.reshape %794 {new_shape = array<i64: 1, 2, 1, 1024, 128>} : (tensor<1x2x1024x128xf32>) -> tensor<1x2x1x1024x128xf32>
    %800 = "tosa.const"() <{value = dense<0.000000e+00> : tensor<1x2x6x1024x128xf32>}> : () -> tensor<1x2x6x1024x128xf32>
    %801 = tosa.add %799, %800 : (tensor<1x2x1x1024x128xf32>, tensor<1x2x6x1024x128xf32>) -> tensor<1x2x6x1024x128xf32>
    %802 = tosa.reshape %801 {new_shape = array<i64: 1, 12, 1024, 128>} : (tensor<1x2x6x1024x128xf32>) -> tensor<1x12x1024x128xf32>
    %803 = tosa.reshape %17 {new_shape = array<i64: 1, 1, 1, 1024>} : (tensor<1x1024xi1>) -> tensor<1x1x1x1024xi1>
    %cst_202 = arith.constant 0xFF800000 : f32
    %cst_203 = arith.constant 0.000000e+00 : f32
    %804 = tensor.empty() : tensor<1x1x1x1024xf32>
    %splat_204 = tensor.splat %cst_203 : tensor<1x1x1x1024xf32>
    %splat_205 = tensor.splat %cst_202 : tensor<1x1x1x1024xf32>
    %805 = linalg.generic {indexing_maps = [#map1, #map1, #map1, #map1], iterator_types = ["parallel", "parallel", "parallel", "parallel"]} ins(%803, %splat_204, %splat_205 : tensor<1x1x1x1024xi1>, tensor<1x1x1x1024xf32>, tensor<1x1x1x1024xf32>) outs(%804 : tensor<1x1x1x1024xf32>) {
    ^bb0(%in: i1, %in_1031: f32, %in_1032: f32, %out: f32):
      %3945 = arith.select %in, %in_1031, %in_1032 : f32
      linalg.yield %3945 : f32
    } -> tensor<1x1x1x1024xf32>
    %cst_206 = arith.constant 0.000000e+00 : f32
    %splat_207 = tensor.splat %cst_206 : tensor<1x1024xf32>
    %806 = tosa.reshape %805 {new_shape = array<i64: 1, 1024>} : (tensor<1x1x1x1024xf32>) -> tensor<1x1024xf32>
    %807 = tosa.add %splat_207, %806 : (tensor<1x1024xf32>, tensor<1x1024xf32>) -> tensor<1x1024xf32>
    %808 = "tosa.const"() <{value = dense<[0, 1, 3, 2]> : tensor<4xi32>}> : () -> tensor<4xi32>
    %809 = tosa.transpose %798, %808 : (tensor<1x12x1024x128xf32>, tensor<4xi32>) -> tensor<1x12x128x1024xf32>
    %810 = tosa.reshape %780 {new_shape = array<i64: 12, 1, 128>} : (tensor<1x12x1x128xf32>) -> tensor<12x1x128xf32>
    %811 = tosa.reshape %809 {new_shape = array<i64: 12, 128, 1024>} : (tensor<1x12x128x1024xf32>) -> tensor<12x128x1024xf32>
    %812 = tosa.matmul %810, %811 : (tensor<12x1x128xf32>, tensor<12x128x1024xf32>) -> tensor<12x1x1024xf32>
    %cst_208 = arith.constant 0.0883883461 : f32
    %splat_209 = tensor.splat %cst_208 : tensor<12x1x1024xf32>
    %813 = tosa.mul %812, %splat_209 : (tensor<12x1x1024xf32>, tensor<12x1x1024xf32>) -> tensor<12x1x1024xf32>
    %814 = tosa.reshape %807 {new_shape = array<i64: 1, 1, 1024>} : (tensor<1x1024xf32>) -> tensor<1x1x1024xf32>
    %815 = tosa.add %813, %814 : (tensor<12x1x1024xf32>, tensor<1x1x1024xf32>) -> tensor<12x1x1024xf32>
    %816 = tosa.reduce_max %815 {axis = 2 : i32} : (tensor<12x1x1024xf32>) -> tensor<12x1x1xf32>
    %817 = tosa.sub %815, %816 : (tensor<12x1x1024xf32>, tensor<12x1x1xf32>) -> tensor<12x1x1024xf32>
    %818 = math.exp %817 : tensor<12x1x1024xf32>
    %819 = tosa.reduce_sum %818 {axis = 2 : i32} : (tensor<12x1x1024xf32>) -> tensor<12x1x1xf32>
    %820 = tosa.log %819 : (tensor<12x1x1xf32>) -> tensor<12x1x1xf32>
    %821 = tosa.add %816, %820 : (tensor<12x1x1xf32>, tensor<12x1x1xf32>) -> tensor<12x1x1xf32>
    %822 = tosa.sub %815, %821 : (tensor<12x1x1024xf32>, tensor<12x1x1xf32>) -> tensor<12x1x1024xf32>
    %823 = math.exp %822 : tensor<12x1x1024xf32>
    %824 = tosa.reshape %821 {new_shape = array<i64: 1, 12, 1>} : (tensor<12x1x1xf32>) -> tensor<1x12x1xf32>
    %825 = tosa.reshape %802 {new_shape = array<i64: 12, 1024, 128>} : (tensor<1x12x1024x128xf32>) -> tensor<12x1024x128xf32>
    %826 = tosa.matmul %823, %825 : (tensor<12x1x1024xf32>, tensor<12x1024x128xf32>) -> tensor<12x1x128xf32>
    %827 = tosa.reshape %826 {new_shape = array<i64: 1, 12, 1, 128>} : (tensor<12x1x128xf32>) -> tensor<1x12x1x128xf32>
    %828 = "tosa.const"() <{value = dense<[0, 2, 1, 3]> : tensor<4xi32>}> : () -> tensor<4xi32>
    %829 = tosa.transpose %827, %828 : (tensor<1x12x1x128xf32>, tensor<4xi32>) -> tensor<1x1x12x128xf32>
    %830 = tosa.reshape %829 {new_shape = array<i64: 1, 1, 1536>} : (tensor<1x1x12x128xf32>) -> tensor<1x1x1536xf32>
    %831 = "tosa.const"() <{value = dense<[1, 0]> : tensor<2xi32>}> : () -> tensor<2xi32>
    %832 = tosa.transpose %arg84, %831 : (tensor<1536x1536xf32>, tensor<2xi32>) -> tensor<1536x1536xf32>
    %833 = tosa.reshape %830 {new_shape = array<i64: 1, 1536>} : (tensor<1x1x1536xf32>) -> tensor<1x1536xf32>
    %cst_210 = arith.constant dense<0.000000e+00> : tensor<1x1536xf32>
    %834 = linalg.matmul {cast = #linalg.type_fn<cast_signed>} ins(%833, %832 : tensor<1x1536xf32>, tensor<1536x1536xf32>) outs(%cst_210 : tensor<1x1536xf32>) -> tensor<1x1536xf32>
    %835 = tosa.reshape %834 {new_shape = array<i64: 1, 1, 1536>} : (tensor<1x1536xf32>) -> tensor<1x1x1536xf32>
    %836 = tosa.add %729, %835 : (tensor<1x1x1536xf32>, tensor<1x1x1536xf32>) -> tensor<1x1x1536xf32>
    %837 = tensor.empty() : tensor<1x1x1536xf32>
    %c2_i32_211 = arith.constant 2 : i32
    %838 = linalg.generic {indexing_maps = [#map, #map], iterator_types = ["parallel", "parallel", "parallel"]} ins(%836 : tensor<1x1x1536xf32>) outs(%837 : tensor<1x1x1536xf32>) {
    ^bb0(%in: f32, %out: f32):
      %3945 = math.fpowi %in, %c2_i32_211 : f32, i32
      linalg.yield %3945 : f32
    } -> tensor<1x1x1536xf32>
    %839 = tosa.reduce_sum %838 {axis = 2 : i32} : (tensor<1x1x1536xf32>) -> tensor<1x1x1xf32>
    %840 = "tosa.const"() <{value = dense<1.536000e+03> : tensor<1xf32>}> : () -> tensor<1xf32>
    %841 = tosa.reciprocal %840 : (tensor<1xf32>) -> tensor<1xf32>
    %842 = tosa.reshape %841 {new_shape = array<i64: 1, 1, 1>} : (tensor<1xf32>) -> tensor<1x1x1xf32>
    %843 = tosa.mul %842, %839 : (tensor<1x1x1xf32>, tensor<1x1x1xf32>) -> tensor<1x1x1xf32>
    %844 = "tosa.const"() <{value = dense<9.99999997E-7> : tensor<1x1x1xf32>}> : () -> tensor<1x1x1xf32>
    %845 = tosa.add %843, %844 : (tensor<1x1x1xf32>, tensor<1x1x1xf32>) -> tensor<1x1x1xf32>
    %846 = tosa.rsqrt %845 : (tensor<1x1x1xf32>) -> tensor<1x1x1xf32>
    %847 = tosa.mul %836, %846 : (tensor<1x1x1536xf32>, tensor<1x1x1xf32>) -> tensor<1x1x1536xf32>
    %848 = tosa.reshape %arg85 {new_shape = array<i64: 1, 1, 1536>} : (tensor<1536xf32>) -> tensor<1x1x1536xf32>
    %849 = tosa.mul %848, %847 : (tensor<1x1x1536xf32>, tensor<1x1x1536xf32>) -> tensor<1x1x1536xf32>
    %850 = "tosa.const"() <{value = dense<[1, 0]> : tensor<2xi32>}> : () -> tensor<2xi32>
    %851 = tosa.transpose %arg86, %850 : (tensor<8960x1536xf32>, tensor<2xi32>) -> tensor<1536x8960xf32>
    %852 = tosa.reshape %849 {new_shape = array<i64: 1, 1536>} : (tensor<1x1x1536xf32>) -> tensor<1x1536xf32>
    %cst_212 = arith.constant dense<0.000000e+00> : tensor<1x8960xf32>
    %853 = linalg.matmul {cast = #linalg.type_fn<cast_signed>} ins(%852, %851 : tensor<1x1536xf32>, tensor<1536x8960xf32>) outs(%cst_212 : tensor<1x8960xf32>) -> tensor<1x8960xf32>
    %854 = tosa.reshape %853 {new_shape = array<i64: 1, 1, 8960>} : (tensor<1x8960xf32>) -> tensor<1x1x8960xf32>
    %855 = tosa.sigmoid %854 : (tensor<1x1x8960xf32>) -> tensor<1x1x8960xf32>
    %856 = tosa.mul %854, %855 : (tensor<1x1x8960xf32>, tensor<1x1x8960xf32>) -> tensor<1x1x8960xf32>
    %857 = "tosa.const"() <{value = dense<[1, 0]> : tensor<2xi32>}> : () -> tensor<2xi32>
    %858 = tosa.transpose %arg87, %857 : (tensor<8960x1536xf32>, tensor<2xi32>) -> tensor<1536x8960xf32>
    %859 = tosa.reshape %849 {new_shape = array<i64: 1, 1536>} : (tensor<1x1x1536xf32>) -> tensor<1x1536xf32>
    %cst_213 = arith.constant dense<0.000000e+00> : tensor<1x8960xf32>
    %860 = linalg.matmul {cast = #linalg.type_fn<cast_signed>} ins(%859, %858 : tensor<1x1536xf32>, tensor<1536x8960xf32>) outs(%cst_213 : tensor<1x8960xf32>) -> tensor<1x8960xf32>
    %861 = tosa.reshape %860 {new_shape = array<i64: 1, 1, 8960>} : (tensor<1x8960xf32>) -> tensor<1x1x8960xf32>
    %862 = tosa.mul %856, %861 : (tensor<1x1x8960xf32>, tensor<1x1x8960xf32>) -> tensor<1x1x8960xf32>
    %863 = "tosa.const"() <{value = dense<[1, 0]> : tensor<2xi32>}> : () -> tensor<2xi32>
    %864 = tosa.transpose %arg88, %863 : (tensor<1536x8960xf32>, tensor<2xi32>) -> tensor<8960x1536xf32>
    %865 = tosa.reshape %862 {new_shape = array<i64: 1, 8960>} : (tensor<1x1x8960xf32>) -> tensor<1x8960xf32>
    %cst_214 = arith.constant dense<0.000000e+00> : tensor<1x1536xf32>
    %866 = linalg.matmul {cast = #linalg.type_fn<cast_signed>} ins(%865, %864 : tensor<1x8960xf32>, tensor<8960x1536xf32>) outs(%cst_214 : tensor<1x1536xf32>) -> tensor<1x1536xf32>
    %867 = tosa.reshape %866 {new_shape = array<i64: 1, 1, 1536>} : (tensor<1x1536xf32>) -> tensor<1x1x1536xf32>
    %868 = tosa.add %836, %867 : (tensor<1x1x1536xf32>, tensor<1x1x1536xf32>) -> tensor<1x1x1536xf32>
    %869 = tensor.empty() : tensor<1x1x1536xf32>
    %c2_i32_215 = arith.constant 2 : i32
    %870 = linalg.generic {indexing_maps = [#map, #map], iterator_types = ["parallel", "parallel", "parallel"]} ins(%868 : tensor<1x1x1536xf32>) outs(%869 : tensor<1x1x1536xf32>) {
    ^bb0(%in: f32, %out: f32):
      %3945 = math.fpowi %in, %c2_i32_215 : f32, i32
      linalg.yield %3945 : f32
    } -> tensor<1x1x1536xf32>
    %871 = tosa.reduce_sum %870 {axis = 2 : i32} : (tensor<1x1x1536xf32>) -> tensor<1x1x1xf32>
    %872 = "tosa.const"() <{value = dense<1.536000e+03> : tensor<1xf32>}> : () -> tensor<1xf32>
    %873 = tosa.reciprocal %872 : (tensor<1xf32>) -> tensor<1xf32>
    %874 = tosa.reshape %873 {new_shape = array<i64: 1, 1, 1>} : (tensor<1xf32>) -> tensor<1x1x1xf32>
    %875 = tosa.mul %874, %871 : (tensor<1x1x1xf32>, tensor<1x1x1xf32>) -> tensor<1x1x1xf32>
    %876 = "tosa.const"() <{value = dense<9.99999997E-7> : tensor<1x1x1xf32>}> : () -> tensor<1x1x1xf32>
    %877 = tosa.add %875, %876 : (tensor<1x1x1xf32>, tensor<1x1x1xf32>) -> tensor<1x1x1xf32>
    %878 = tosa.rsqrt %877 : (tensor<1x1x1xf32>) -> tensor<1x1x1xf32>
    %879 = tosa.mul %868, %878 : (tensor<1x1x1536xf32>, tensor<1x1x1xf32>) -> tensor<1x1x1536xf32>
    %880 = tosa.reshape %arg89 {new_shape = array<i64: 1, 1, 1536>} : (tensor<1536xf32>) -> tensor<1x1x1536xf32>
    %881 = tosa.mul %880, %879 : (tensor<1x1x1536xf32>, tensor<1x1x1536xf32>) -> tensor<1x1x1536xf32>
    %882 = tosa.reshape %881 {new_shape = array<i64: 1, 1536>} : (tensor<1x1x1536xf32>) -> tensor<1x1536xf32>
    %883 = "tosa.const"() <{value = dense<[1, 0]> : tensor<2xi32>}> : () -> tensor<2xi32>
    %884 = tosa.transpose %arg90, %883 : (tensor<1536x1536xf32>, tensor<2xi32>) -> tensor<1536x1536xf32>
    %cst_216 = arith.constant dense<0.000000e+00> : tensor<1x1536xf32>
    %885 = linalg.matmul {cast = #linalg.type_fn<cast_signed>} ins(%882, %884 : tensor<1x1536xf32>, tensor<1536x1536xf32>) outs(%cst_216 : tensor<1x1536xf32>) -> tensor<1x1536xf32>
    %886 = tosa.reshape %arg91 {new_shape = array<i64: 1, 1536>} : (tensor<1536xf32>) -> tensor<1x1536xf32>
    %887 = tosa.add %886, %885 : (tensor<1x1536xf32>, tensor<1x1536xf32>) -> tensor<1x1536xf32>
    %888 = tosa.reshape %887 {new_shape = array<i64: 1, 1, 1536>} : (tensor<1x1536xf32>) -> tensor<1x1x1536xf32>
    %889 = tosa.reshape %888 {new_shape = array<i64: 1, 1, 12, 128>} : (tensor<1x1x1536xf32>) -> tensor<1x1x12x128xf32>
    %890 = "tosa.const"() <{value = dense<[0, 2, 1, 3]> : tensor<4xi32>}> : () -> tensor<4xi32>
    %891 = tosa.transpose %889, %890 : (tensor<1x1x12x128xf32>, tensor<4xi32>) -> tensor<1x12x1x128xf32>
    %892 = tosa.reshape %881 {new_shape = array<i64: 1, 1536>} : (tensor<1x1x1536xf32>) -> tensor<1x1536xf32>
    %893 = "tosa.const"() <{value = dense<[1, 0]> : tensor<2xi32>}> : () -> tensor<2xi32>
    %894 = tosa.transpose %arg92, %893 : (tensor<256x1536xf32>, tensor<2xi32>) -> tensor<1536x256xf32>
    %cst_217 = arith.constant dense<0.000000e+00> : tensor<1x256xf32>
    %895 = linalg.matmul {cast = #linalg.type_fn<cast_signed>} ins(%892, %894 : tensor<1x1536xf32>, tensor<1536x256xf32>) outs(%cst_217 : tensor<1x256xf32>) -> tensor<1x256xf32>
    %896 = tosa.reshape %arg93 {new_shape = array<i64: 1, 256>} : (tensor<256xf32>) -> tensor<1x256xf32>
    %897 = tosa.add %896, %895 : (tensor<1x256xf32>, tensor<1x256xf32>) -> tensor<1x256xf32>
    %898 = tosa.reshape %897 {new_shape = array<i64: 1, 1, 256>} : (tensor<1x256xf32>) -> tensor<1x1x256xf32>
    %899 = tosa.reshape %898 {new_shape = array<i64: 1, 1, 2, 128>} : (tensor<1x1x256xf32>) -> tensor<1x1x2x128xf32>
    %900 = "tosa.const"() <{value = dense<[0, 2, 1, 3]> : tensor<4xi32>}> : () -> tensor<4xi32>
    %901 = tosa.transpose %899, %900 : (tensor<1x1x2x128xf32>, tensor<4xi32>) -> tensor<1x2x1x128xf32>
    %902 = tosa.reshape %881 {new_shape = array<i64: 1, 1536>} : (tensor<1x1x1536xf32>) -> tensor<1x1536xf32>
    %903 = "tosa.const"() <{value = dense<[1, 0]> : tensor<2xi32>}> : () -> tensor<2xi32>
    %904 = tosa.transpose %arg94, %903 : (tensor<256x1536xf32>, tensor<2xi32>) -> tensor<1536x256xf32>
    %cst_218 = arith.constant dense<0.000000e+00> : tensor<1x256xf32>
    %905 = linalg.matmul {cast = #linalg.type_fn<cast_signed>} ins(%902, %904 : tensor<1x1536xf32>, tensor<1536x256xf32>) outs(%cst_218 : tensor<1x256xf32>) -> tensor<1x256xf32>
    %906 = tosa.reshape %arg95 {new_shape = array<i64: 1, 256>} : (tensor<256xf32>) -> tensor<1x256xf32>
    %907 = tosa.add %906, %905 : (tensor<1x256xf32>, tensor<1x256xf32>) -> tensor<1x256xf32>
    %908 = tosa.reshape %907 {new_shape = array<i64: 1, 1, 256>} : (tensor<1x256xf32>) -> tensor<1x1x256xf32>
    %909 = tosa.reshape %908 {new_shape = array<i64: 1, 1, 2, 128>} : (tensor<1x1x256xf32>) -> tensor<1x1x2x128xf32>
    %910 = "tosa.const"() <{value = dense<[0, 2, 1, 3]> : tensor<4xi32>}> : () -> tensor<4xi32>
    %911 = tosa.transpose %909, %910 : (tensor<1x1x2x128xf32>, tensor<4xi32>) -> tensor<1x2x1x128xf32>
    %912 = tosa.reshape %31 {new_shape = array<i64: 1, 1, 1, 128>} : (tensor<1x1x128xf32>) -> tensor<1x1x1x128xf32>
    %913 = tosa.reshape %34 {new_shape = array<i64: 1, 1, 1, 128>} : (tensor<1x1x128xf32>) -> tensor<1x1x1x128xf32>
    %914 = tosa.mul %891, %912 : (tensor<1x12x1x128xf32>, tensor<1x1x1x128xf32>) -> tensor<1x12x1x128xf32>
    %extracted_slice_219 = tensor.extract_slice %891[0, 0, 0, 0] [1, 12, 1, 64] [1, 1, 1, 1] : tensor<1x12x1x128xf32> to tensor<1x12x1x64xf32>
    %extracted_slice_220 = tensor.extract_slice %891[0, 0, 0, 64] [1, 12, 1, 64] [1, 1, 1, 1] : tensor<1x12x1x128xf32> to tensor<1x12x1x64xf32>
    %915 = tensor.empty() : tensor<1x12x1x64xf32>
    %916 = linalg.negf ins(%extracted_slice_220 : tensor<1x12x1x64xf32>) outs(%915 : tensor<1x12x1x64xf32>) -> tensor<1x12x1x64xf32>
    %917 = tensor.empty() : tensor<1x12x1x128xf32>
    %inserted_slice_221 = tensor.insert_slice %916 into %917[0, 0, 0, 0] [1, 12, 1, 64] [1, 1, 1, 1] : tensor<1x12x1x64xf32> into tensor<1x12x1x128xf32>
    %inserted_slice_222 = tensor.insert_slice %extracted_slice_219 into %inserted_slice_221[0, 0, 0, 64] [1, 12, 1, 64] [1, 1, 1, 1] : tensor<1x12x1x64xf32> into tensor<1x12x1x128xf32>
    %918 = tosa.mul %inserted_slice_222, %913 : (tensor<1x12x1x128xf32>, tensor<1x1x1x128xf32>) -> tensor<1x12x1x128xf32>
    %919 = tosa.add %914, %918 : (tensor<1x12x1x128xf32>, tensor<1x12x1x128xf32>) -> tensor<1x12x1x128xf32>
    %920 = tosa.mul %901, %912 : (tensor<1x2x1x128xf32>, tensor<1x1x1x128xf32>) -> tensor<1x2x1x128xf32>
    %extracted_slice_223 = tensor.extract_slice %901[0, 0, 0, 0] [1, 2, 1, 64] [1, 1, 1, 1] : tensor<1x2x1x128xf32> to tensor<1x2x1x64xf32>
    %extracted_slice_224 = tensor.extract_slice %901[0, 0, 0, 64] [1, 2, 1, 64] [1, 1, 1, 1] : tensor<1x2x1x128xf32> to tensor<1x2x1x64xf32>
    %921 = tensor.empty() : tensor<1x2x1x64xf32>
    %922 = linalg.negf ins(%extracted_slice_224 : tensor<1x2x1x64xf32>) outs(%921 : tensor<1x2x1x64xf32>) -> tensor<1x2x1x64xf32>
    %923 = tensor.empty() : tensor<1x2x1x128xf32>
    %inserted_slice_225 = tensor.insert_slice %922 into %923[0, 0, 0, 0] [1, 2, 1, 64] [1, 1, 1, 1] : tensor<1x2x1x64xf32> into tensor<1x2x1x128xf32>
    %inserted_slice_226 = tensor.insert_slice %extracted_slice_223 into %inserted_slice_225[0, 0, 0, 64] [1, 2, 1, 64] [1, 1, 1, 1] : tensor<1x2x1x64xf32> into tensor<1x2x1x128xf32>
    %924 = tosa.mul %inserted_slice_226, %913 : (tensor<1x2x1x128xf32>, tensor<1x1x1x128xf32>) -> tensor<1x2x1x128xf32>
    %925 = tosa.add %920, %924 : (tensor<1x2x1x128xf32>, tensor<1x2x1x128xf32>) -> tensor<1x2x1x128xf32>
    %926 = bufferization.to_memref %arg96 : tensor<1x2x1024x128xf32> to memref<1x2x1024x128xf32>
    %927 = bufferization.to_memref %arg3 : tensor<1xi64> to memref<1xi64>
    %928 = bufferization.to_memref %925 : tensor<1x2x1x128xf32> to memref<1x2x1x128xf32>
    %c0_227 = arith.constant 0 : index
    %c1_228 = arith.constant 1 : index
    %c1_229 = arith.constant 1 : index
    %c2_230 = arith.constant 2 : index
    %c1_231 = arith.constant 1 : index
    %c128_232 = arith.constant 128 : index
    scf.for %arg399 = %c0_227 to %c1_229 step %c1_228 {
      scf.for %arg400 = %c0_227 to %c2_230 step %c1_228 {
        scf.for %arg401 = %c0_227 to %c1_231 step %c1_228 {
          %3945 = memref.load %927[%arg401] : memref<1xi64>
          %3946 = arith.index_cast %3945 : i64 to index
          scf.for %arg402 = %c0_227 to %c128_232 step %c1_228 {
            %3947 = memref.load %928[%arg399, %arg400, %arg401, %arg402] : memref<1x2x1x128xf32>
            memref.store %3947, %926[%arg399, %arg400, %3946, %arg402] : memref<1x2x1024x128xf32>
          }
        }
      }
    }
    %929 = bufferization.to_tensor %926 restrict : memref<1x2x1024x128xf32> to tensor<1x2x1024x128xf32>
    %930 = bufferization.to_memref %arg97 : tensor<1x2x1024x128xf32> to memref<1x2x1024x128xf32>
    %931 = bufferization.to_memref %arg3 : tensor<1xi64> to memref<1xi64>
    %932 = bufferization.to_memref %911 : tensor<1x2x1x128xf32> to memref<1x2x1x128xf32>
    %c0_233 = arith.constant 0 : index
    %c1_234 = arith.constant 1 : index
    %c1_235 = arith.constant 1 : index
    %c2_236 = arith.constant 2 : index
    %c1_237 = arith.constant 1 : index
    %c128_238 = arith.constant 128 : index
    scf.for %arg399 = %c0_233 to %c1_235 step %c1_234 {
      scf.for %arg400 = %c0_233 to %c2_236 step %c1_234 {
        scf.for %arg401 = %c0_233 to %c1_237 step %c1_234 {
          %3945 = memref.load %931[%arg401] : memref<1xi64>
          %3946 = arith.index_cast %3945 : i64 to index
          scf.for %arg402 = %c0_233 to %c128_238 step %c1_234 {
            %3947 = memref.load %932[%arg399, %arg400, %arg401, %arg402] : memref<1x2x1x128xf32>
            memref.store %3947, %930[%arg399, %arg400, %3946, %arg402] : memref<1x2x1024x128xf32>
          }
        }
      }
    }
    %933 = bufferization.to_tensor %930 restrict : memref<1x2x1024x128xf32> to tensor<1x2x1024x128xf32>
    %934 = tosa.reshape %929 {new_shape = array<i64: 1, 2, 1, 1024, 128>} : (tensor<1x2x1024x128xf32>) -> tensor<1x2x1x1024x128xf32>
    %935 = "tosa.const"() <{value = dense<0.000000e+00> : tensor<1x2x6x1024x128xf32>}> : () -> tensor<1x2x6x1024x128xf32>
    %936 = tosa.add %934, %935 : (tensor<1x2x1x1024x128xf32>, tensor<1x2x6x1024x128xf32>) -> tensor<1x2x6x1024x128xf32>
    %937 = tosa.reshape %936 {new_shape = array<i64: 1, 12, 1024, 128>} : (tensor<1x2x6x1024x128xf32>) -> tensor<1x12x1024x128xf32>
    %938 = tosa.reshape %933 {new_shape = array<i64: 1, 2, 1, 1024, 128>} : (tensor<1x2x1024x128xf32>) -> tensor<1x2x1x1024x128xf32>
    %939 = "tosa.const"() <{value = dense<0.000000e+00> : tensor<1x2x6x1024x128xf32>}> : () -> tensor<1x2x6x1024x128xf32>
    %940 = tosa.add %938, %939 : (tensor<1x2x1x1024x128xf32>, tensor<1x2x6x1024x128xf32>) -> tensor<1x2x6x1024x128xf32>
    %941 = tosa.reshape %940 {new_shape = array<i64: 1, 12, 1024, 128>} : (tensor<1x2x6x1024x128xf32>) -> tensor<1x12x1024x128xf32>
    %942 = tosa.reshape %17 {new_shape = array<i64: 1, 1, 1, 1024>} : (tensor<1x1024xi1>) -> tensor<1x1x1x1024xi1>
    %cst_239 = arith.constant 0xFF800000 : f32
    %cst_240 = arith.constant 0.000000e+00 : f32
    %943 = tensor.empty() : tensor<1x1x1x1024xf32>
    %splat_241 = tensor.splat %cst_240 : tensor<1x1x1x1024xf32>
    %splat_242 = tensor.splat %cst_239 : tensor<1x1x1x1024xf32>
    %944 = linalg.generic {indexing_maps = [#map1, #map1, #map1, #map1], iterator_types = ["parallel", "parallel", "parallel", "parallel"]} ins(%942, %splat_241, %splat_242 : tensor<1x1x1x1024xi1>, tensor<1x1x1x1024xf32>, tensor<1x1x1x1024xf32>) outs(%943 : tensor<1x1x1x1024xf32>) {
    ^bb0(%in: i1, %in_1031: f32, %in_1032: f32, %out: f32):
      %3945 = arith.select %in, %in_1031, %in_1032 : f32
      linalg.yield %3945 : f32
    } -> tensor<1x1x1x1024xf32>
    %cst_243 = arith.constant 0.000000e+00 : f32
    %splat_244 = tensor.splat %cst_243 : tensor<1x1024xf32>
    %945 = tosa.reshape %944 {new_shape = array<i64: 1, 1024>} : (tensor<1x1x1x1024xf32>) -> tensor<1x1024xf32>
    %946 = tosa.add %splat_244, %945 : (tensor<1x1024xf32>, tensor<1x1024xf32>) -> tensor<1x1024xf32>
    %947 = "tosa.const"() <{value = dense<[0, 1, 3, 2]> : tensor<4xi32>}> : () -> tensor<4xi32>
    %948 = tosa.transpose %937, %947 : (tensor<1x12x1024x128xf32>, tensor<4xi32>) -> tensor<1x12x128x1024xf32>
    %949 = tosa.reshape %919 {new_shape = array<i64: 12, 1, 128>} : (tensor<1x12x1x128xf32>) -> tensor<12x1x128xf32>
    %950 = tosa.reshape %948 {new_shape = array<i64: 12, 128, 1024>} : (tensor<1x12x128x1024xf32>) -> tensor<12x128x1024xf32>
    %951 = tosa.matmul %949, %950 : (tensor<12x1x128xf32>, tensor<12x128x1024xf32>) -> tensor<12x1x1024xf32>
    %cst_245 = arith.constant 0.0883883461 : f32
    %splat_246 = tensor.splat %cst_245 : tensor<12x1x1024xf32>
    %952 = tosa.mul %951, %splat_246 : (tensor<12x1x1024xf32>, tensor<12x1x1024xf32>) -> tensor<12x1x1024xf32>
    %953 = tosa.reshape %946 {new_shape = array<i64: 1, 1, 1024>} : (tensor<1x1024xf32>) -> tensor<1x1x1024xf32>
    %954 = tosa.add %952, %953 : (tensor<12x1x1024xf32>, tensor<1x1x1024xf32>) -> tensor<12x1x1024xf32>
    %955 = tosa.reduce_max %954 {axis = 2 : i32} : (tensor<12x1x1024xf32>) -> tensor<12x1x1xf32>
    %956 = tosa.sub %954, %955 : (tensor<12x1x1024xf32>, tensor<12x1x1xf32>) -> tensor<12x1x1024xf32>
    %957 = math.exp %956 : tensor<12x1x1024xf32>
    %958 = tosa.reduce_sum %957 {axis = 2 : i32} : (tensor<12x1x1024xf32>) -> tensor<12x1x1xf32>
    %959 = tosa.log %958 : (tensor<12x1x1xf32>) -> tensor<12x1x1xf32>
    %960 = tosa.add %955, %959 : (tensor<12x1x1xf32>, tensor<12x1x1xf32>) -> tensor<12x1x1xf32>
    %961 = tosa.sub %954, %960 : (tensor<12x1x1024xf32>, tensor<12x1x1xf32>) -> tensor<12x1x1024xf32>
    %962 = math.exp %961 : tensor<12x1x1024xf32>
    %963 = tosa.reshape %960 {new_shape = array<i64: 1, 12, 1>} : (tensor<12x1x1xf32>) -> tensor<1x12x1xf32>
    %964 = tosa.reshape %941 {new_shape = array<i64: 12, 1024, 128>} : (tensor<1x12x1024x128xf32>) -> tensor<12x1024x128xf32>
    %965 = tosa.matmul %962, %964 : (tensor<12x1x1024xf32>, tensor<12x1024x128xf32>) -> tensor<12x1x128xf32>
    %966 = tosa.reshape %965 {new_shape = array<i64: 1, 12, 1, 128>} : (tensor<12x1x128xf32>) -> tensor<1x12x1x128xf32>
    %967 = "tosa.const"() <{value = dense<[0, 2, 1, 3]> : tensor<4xi32>}> : () -> tensor<4xi32>
    %968 = tosa.transpose %966, %967 : (tensor<1x12x1x128xf32>, tensor<4xi32>) -> tensor<1x1x12x128xf32>
    %969 = tosa.reshape %968 {new_shape = array<i64: 1, 1, 1536>} : (tensor<1x1x12x128xf32>) -> tensor<1x1x1536xf32>
    %970 = "tosa.const"() <{value = dense<[1, 0]> : tensor<2xi32>}> : () -> tensor<2xi32>
    %971 = tosa.transpose %arg98, %970 : (tensor<1536x1536xf32>, tensor<2xi32>) -> tensor<1536x1536xf32>
    %972 = tosa.reshape %969 {new_shape = array<i64: 1, 1536>} : (tensor<1x1x1536xf32>) -> tensor<1x1536xf32>
…
    %3594 = tosa.reshape %3587 {new_shape = array<i64: 1, 1, 1024>} : (tensor<1x1024xf32>) -> tensor<1x1x1024xf32>
    %3595 = tosa.add %3593, %3594 : (tensor<12x1x1024xf32>, tensor<1x1x1024xf32>) -> tensor<12x1x1024xf32>
    %3596 = tosa.reduce_max %3595 {axis = 2 : i32} : (tensor<12x1x1024xf32>) -> tensor<12x1x1xf32>
    %3597 = tosa.sub %3595, %3596 : (tensor<12x1x1024xf32>, tensor<12x1x1xf32>) -> tensor<12x1x1024xf32>
    %3598 = math.exp %3597 : tensor<12x1x1024xf32>
    %3599 = tosa.reduce_sum %3598 {axis = 2 : i32} : (tensor<12x1x1024xf32>) -> tensor<12x1x1xf32>
    %3600 = tosa.log %3599 : (tensor<12x1x1xf32>) -> tensor<12x1x1xf32>
    %3601 = tosa.add %3596, %3600 : (tensor<12x1x1xf32>, tensor<12x1x1xf32>) -> tensor<12x1x1xf32>
    %3602 = tosa.sub %3595, %3601 : (tensor<12x1x1024xf32>, tensor<12x1x1xf32>) -> tensor<12x1x1024xf32>
    %3603 = math.exp %3602 : tensor<12x1x1024xf32>
    %3604 = tosa.reshape %3601 {new_shape = array<i64: 1, 12, 1>} : (tensor<12x1x1xf32>) -> tensor<1x12x1xf32>
    %3605 = tosa.reshape %3582 {new_shape = array<i64: 12, 1024, 128>} : (tensor<1x12x1024x128xf32>) -> tensor<12x1024x128xf32>
    %3606 = tosa.matmul %3603, %3605 : (tensor<12x1x1024xf32>, tensor<12x1024x128xf32>) -> tensor<12x1x128xf32>
    %3607 = tosa.reshape %3606 {new_shape = array<i64: 1, 12, 1, 128>} : (tensor<12x1x128xf32>) -> tensor<1x12x1x128xf32>
    %3608 = "tosa.const"() <{value = dense<[0, 2, 1, 3]> : tensor<4xi32>}> : () -> tensor<4xi32>
    %3609 = tosa.transpose %3607, %3608 : (tensor<1x12x1x128xf32>, tensor<4xi32>) -> tensor<1x1x12x128xf32>
    %3610 = tosa.reshape %3609 {new_shape = array<i64: 1, 1, 1536>} : (tensor<1x1x12x128xf32>) -> tensor<1x1x1536xf32>
    %3611 = "tosa.const"() <{value = dense<[1, 0]> : tensor<2xi32>}> : () -> tensor<2xi32>
    %3612 = tosa.transpose %arg364, %3611 : (tensor<1536x1536xf32>, tensor<2xi32>) -> tensor<1536x1536xf32>
    %3613 = tosa.reshape %3610 {new_shape = array<i64: 1, 1536>} : (tensor<1x1x1536xf32>) -> tensor<1x1536xf32>
    %cst_950 = arith.constant dense<0.000000e+00> : tensor<1x1536xf32>
    %3614 = linalg.matmul {cast = #linalg.type_fn<cast_signed>} ins(%3613, %3612 : tensor<1x1536xf32>, tensor<1536x1536xf32>) outs(%cst_950 : tensor<1x1536xf32>) -> tensor<1x1536xf32>
    %3615 = tosa.reshape %3614 {new_shape = array<i64: 1, 1, 1536>} : (tensor<1x1536xf32>) -> tensor<1x1x1536xf32>
    %3616 = tosa.add %3509, %3615 : (tensor<1x1x1536xf32>, tensor<1x1x1536xf32>) -> tensor<1x1x1536xf32>
    %3617 = tensor.empty() : tensor<1x1x1536xf32>
    %c2_i32_951 = arith.constant 2 : i32
    %3618 = linalg.generic {indexing_maps = [#map, #map], iterator_types = ["parallel", "parallel", "parallel"]} ins(%3616 : tensor<1x1x1536xf32>) outs(%3617 : tensor<1x1x1536xf32>) {
    ^bb0(%in: f32, %out: f32):
      %3945 = math.fpowi %in, %c2_i32_951 : f32, i32
      linalg.yield %3945 : f32
    } -> tensor<1x1x1536xf32>
    %3619 = tosa.reduce_sum %3618 {axis = 2 : i32} : (tensor<1x1x1536xf32>) -> tensor<1x1x1xf32>
    %3620 = "tosa.const"() <{value = dense<1.536000e+03> : tensor<1xf32>}> : () -> tensor<1xf32>
    %3621 = tosa.reciprocal %3620 : (tensor<1xf32>) -> tensor<1xf32>
    %3622 = tosa.reshape %3621 {new_shape = array<i64: 1, 1, 1>} : (tensor<1xf32>) -> tensor<1x1x1xf32>
    %3623 = tosa.mul %3622, %3619 : (tensor<1x1x1xf32>, tensor<1x1x1xf32>) -> tensor<1x1x1xf32>
    %3624 = "tosa.const"() <{value = dense<9.99999997E-7> : tensor<1x1x1xf32>}> : () -> tensor<1x1x1xf32>
    %3625 = tosa.add %3623, %3624 : (tensor<1x1x1xf32>, tensor<1x1x1xf32>) -> tensor<1x1x1xf32>
    %3626 = tosa.rsqrt %3625 : (tensor<1x1x1xf32>) -> tensor<1x1x1xf32>
    %3627 = tosa.mul %3616, %3626 : (tensor<1x1x1536xf32>, tensor<1x1x1xf32>) -> tensor<1x1x1536xf32>
    %3628 = tosa.reshape %arg365 {new_shape = array<i64: 1, 1, 1536>} : (tensor<1536xf32>) -> tensor<1x1x1536xf32>
    %3629 = tosa.mul %3628, %3627 : (tensor<1x1x1536xf32>, tensor<1x1x1536xf32>) -> tensor<1x1x1536xf32>
    %3630 = "tosa.const"() <{value = dense<[1, 0]> : tensor<2xi32>}> : () -> tensor<2xi32>
    %3631 = tosa.transpose %arg366, %3630 : (tensor<8960x1536xf32>, tensor<2xi32>) -> tensor<1536x8960xf32>
    %3632 = tosa.reshape %3629 {new_shape = array<i64: 1, 1536>} : (tensor<1x1x1536xf32>) -> tensor<1x1536xf32>
    %cst_952 = arith.constant dense<0.000000e+00> : tensor<1x8960xf32>
    %3633 = linalg.matmul {cast = #linalg.type_fn<cast_signed>} ins(%3632, %3631 : tensor<1x1536xf32>, tensor<1536x8960xf32>) outs(%cst_952 : tensor<1x8960xf32>) -> tensor<1x8960xf32>
    %3634 = tosa.reshape %3633 {new_shape = array<i64: 1, 1, 8960>} : (tensor<1x8960xf32>) -> tensor<1x1x8960xf32>
    %3635 = tosa.sigmoid %3634 : (tensor<1x1x8960xf32>) -> tensor<1x1x8960xf32>
    %3636 = tosa.mul %3634, %3635 : (tensor<1x1x8960xf32>, tensor<1x1x8960xf32>) -> tensor<1x1x8960xf32>
    %3637 = "tosa.const"() <{value = dense<[1, 0]> : tensor<2xi32>}> : () -> tensor<2xi32>
    %3638 = tosa.transpose %arg367, %3637 : (tensor<8960x1536xf32>, tensor<2xi32>) -> tensor<1536x8960xf32>
    %3639 = tosa.reshape %3629 {new_shape = array<i64: 1, 1536>} : (tensor<1x1x1536xf32>) -> tensor<1x1536xf32>
    %cst_953 = arith.constant dense<0.000000e+00> : tensor<1x8960xf32>
    %3640 = linalg.matmul {cast = #linalg.type_fn<cast_signed>} ins(%3639, %3638 : tensor<1x1536xf32>, tensor<1536x8960xf32>) outs(%cst_953 : tensor<1x8960xf32>) -> tensor<1x8960xf32>
    %3641 = tosa.reshape %3640 {new_shape = array<i64: 1, 1, 8960>} : (tensor<1x8960xf32>) -> tensor<1x1x8960xf32>
    %3642 = tosa.mul %3636, %3641 : (tensor<1x1x8960xf32>, tensor<1x1x8960xf32>) -> tensor<1x1x8960xf32>
    %3643 = "tosa.const"() <{value = dense<[1, 0]> : tensor<2xi32>}> : () -> tensor<2xi32>
    %3644 = tosa.transpose %arg368, %3643 : (tensor<1536x8960xf32>, tensor<2xi32>) -> tensor<8960x1536xf32>
    %3645 = tosa.reshape %3642 {new_shape = array<i64: 1, 8960>} : (tensor<1x1x8960xf32>) -> tensor<1x8960xf32>
    %cst_954 = arith.constant dense<0.000000e+00> : tensor<1x1536xf32>
    %3646 = linalg.matmul {cast = #linalg.type_fn<cast_signed>} ins(%3645, %3644 : tensor<1x8960xf32>, tensor<8960x1536xf32>) outs(%cst_954 : tensor<1x1536xf32>) -> tensor<1x1536xf32>
    %3647 = tosa.reshape %3646 {new_shape = array<i64: 1, 1, 1536>} : (tensor<1x1536xf32>) -> tensor<1x1x1536xf32>
    %3648 = tosa.add %3616, %3647 : (tensor<1x1x1536xf32>, tensor<1x1x1536xf32>) -> tensor<1x1x1536xf32>
    %3649 = tensor.empty() : tensor<1x1x1536xf32>
    %c2_i32_955 = arith.constant 2 : i32
    %3650 = linalg.generic {indexing_maps = [#map, #map], iterator_types = ["parallel", "parallel", "parallel"]} ins(%3648 : tensor<1x1x1536xf32>) outs(%3649 : tensor<1x1x1536xf32>) {
    ^bb0(%in: f32, %out: f32):
      %3945 = math.fpowi %in, %c2_i32_955 : f32, i32
      linalg.yield %3945 : f32
    } -> tensor<1x1x1536xf32>
    %3651 = tosa.reduce_sum %3650 {axis = 2 : i32} : (tensor<1x1x1536xf32>) -> tensor<1x1x1xf32>
    %3652 = "tosa.const"() <{value = dense<1.536000e+03> : tensor<1xf32>}> : () -> tensor<1xf32>
    %3653 = tosa.reciprocal %3652 : (tensor<1xf32>) -> tensor<1xf32>
    %3654 = tosa.reshape %3653 {new_shape = array<i64: 1, 1, 1>} : (tensor<1xf32>) -> tensor<1x1x1xf32>
    %3655 = tosa.mul %3654, %3651 : (tensor<1x1x1xf32>, tensor<1x1x1xf32>) -> tensor<1x1x1xf32>
    %3656 = "tosa.const"() <{value = dense<9.99999997E-7> : tensor<1x1x1xf32>}> : () -> tensor<1x1x1xf32>
    %3657 = tosa.add %3655, %3656 : (tensor<1x1x1xf32>, tensor<1x1x1xf32>) -> tensor<1x1x1xf32>
    %3658 = tosa.rsqrt %3657 : (tensor<1x1x1xf32>) -> tensor<1x1x1xf32>
    %3659 = tosa.mul %3648, %3658 : (tensor<1x1x1536xf32>, tensor<1x1x1xf32>) -> tensor<1x1x1536xf32>
    %3660 = tosa.reshape %arg369 {new_shape = array<i64: 1, 1, 1536>} : (tensor<1536xf32>) -> tensor<1x1x1536xf32>
    %3661 = tosa.mul %3660, %3659 : (tensor<1x1x1536xf32>, tensor<1x1x1536xf32>) -> tensor<1x1x1536xf32>
    %3662 = tosa.reshape %3661 {new_shape = array<i64: 1, 1536>} : (tensor<1x1x1536xf32>) -> tensor<1x1536xf32>
    %3663 = "tosa.const"() <{value = dense<[1, 0]> : tensor<2xi32>}> : () -> tensor<2xi32>
    %3664 = tosa.transpose %arg370, %3663 : (tensor<1536x1536xf32>, tensor<2xi32>) -> tensor<1536x1536xf32>
    %cst_956 = arith.constant dense<0.000000e+00> : tensor<1x1536xf32>
    %3665 = linalg.matmul {cast = #linalg.type_fn<cast_signed>} ins(%3662, %3664 : tensor<1x1536xf32>, tensor<1536x1536xf32>) outs(%cst_956 : tensor<1x1536xf32>) -> tensor<1x1536xf32>
    %3666 = tosa.reshape %arg371 {new_shape = array<i64: 1, 1536>} : (tensor<1536xf32>) -> tensor<1x1536xf32>
    %3667 = tosa.add %3666, %3665 : (tensor<1x1536xf32>, tensor<1x1536xf32>) -> tensor<1x1536xf32>
    %3668 = tosa.reshape %3667 {new_shape = array<i64: 1, 1, 1536>} : (tensor<1x1536xf32>) -> tensor<1x1x1536xf32>
    %3669 = tosa.reshape %3668 {new_shape = array<i64: 1, 1, 12, 128>} : (tensor<1x1x1536xf32>) -> tensor<1x1x12x128xf32>
    %3670 = "tosa.const"() <{value = dense<[0, 2, 1, 3]> : tensor<4xi32>}> : () -> tensor<4xi32>
    %3671 = tosa.transpose %3669, %3670 : (tensor<1x1x12x128xf32>, tensor<4xi32>) -> tensor<1x12x1x128xf32>
    %3672 = tosa.reshape %3661 {new_shape = array<i64: 1, 1536>} : (tensor<1x1x1536xf32>) -> tensor<1x1536xf32>
    %3673 = "tosa.const"() <{value = dense<[1, 0]> : tensor<2xi32>}> : () -> tensor<2xi32>
    %3674 = tosa.transpose %arg372, %3673 : (tensor<256x1536xf32>, tensor<2xi32>) -> tensor<1536x256xf32>
    %cst_957 = arith.constant dense<0.000000e+00> : tensor<1x256xf32>
    %3675 = linalg.matmul {cast = #linalg.type_fn<cast_signed>} ins(%3672, %3674 : tensor<1x1536xf32>, tensor<1536x256xf32>) outs(%cst_957 : tensor<1x256xf32>) -> tensor<1x256xf32>
    %3676 = tosa.reshape %arg373 {new_shape = array<i64: 1, 256>} : (tensor<256xf32>) -> tensor<1x256xf32>
    %3677 = tosa.add %3676, %3675 : (tensor<1x256xf32>, tensor<1x256xf32>) -> tensor<1x256xf32>
    %3678 = tosa.reshape %3677 {new_shape = array<i64: 1, 1, 256>} : (tensor<1x256xf32>) -> tensor<1x1x256xf32>
    %3679 = tosa.reshape %3678 {new_shape = array<i64: 1, 1, 2, 128>} : (tensor<1x1x256xf32>) -> tensor<1x1x2x128xf32>
    %3680 = "tosa.const"() <{value = dense<[0, 2, 1, 3]> : tensor<4xi32>}> : () -> tensor<4xi32>
    %3681 = tosa.transpose %3679, %3680 : (tensor<1x1x2x128xf32>, tensor<4xi32>) -> tensor<1x2x1x128xf32>
    %3682 = tosa.reshape %3661 {new_shape = array<i64: 1, 1536>} : (tensor<1x1x1536xf32>) -> tensor<1x1536xf32>
    %3683 = "tosa.const"() <{value = dense<[1, 0]> : tensor<2xi32>}> : () -> tensor<2xi32>
    %3684 = tosa.transpose %arg374, %3683 : (tensor<256x1536xf32>, tensor<2xi32>) -> tensor<1536x256xf32>
    %cst_958 = arith.constant dense<0.000000e+00> : tensor<1x256xf32>
    %3685 = linalg.matmul {cast = #linalg.type_fn<cast_signed>} ins(%3682, %3684 : tensor<1x1536xf32>, tensor<1536x256xf32>) outs(%cst_958 : tensor<1x256xf32>) -> tensor<1x256xf32>
    %3686 = tosa.reshape %arg375 {new_shape = array<i64: 1, 256>} : (tensor<256xf32>) -> tensor<1x256xf32>
    %3687 = tosa.add %3686, %3685 : (tensor<1x256xf32>, tensor<1x256xf32>) -> tensor<1x256xf32>
    %3688 = tosa.reshape %3687 {new_shape = array<i64: 1, 1, 256>} : (tensor<1x256xf32>) -> tensor<1x1x256xf32>
    %3689 = tosa.reshape %3688 {new_shape = array<i64: 1, 1, 2, 128>} : (tensor<1x1x256xf32>) -> tensor<1x1x2x128xf32>
    %3690 = "tosa.const"() <{value = dense<[0, 2, 1, 3]> : tensor<4xi32>}> : () -> tensor<4xi32>
    %3691 = tosa.transpose %3689, %3690 : (tensor<1x1x2x128xf32>, tensor<4xi32>) -> tensor<1x2x1x128xf32>
    %3692 = tosa.reshape %31 {new_shape = array<i64: 1, 1, 1, 128>} : (tensor<1x1x128xf32>) -> tensor<1x1x1x128xf32>
    %3693 = tosa.reshape %34 {new_shape = array<i64: 1, 1, 1, 128>} : (tensor<1x1x128xf32>) -> tensor<1x1x1x128xf32>
    %3694 = tosa.mul %3671, %3692 : (tensor<1x12x1x128xf32>, tensor<1x1x1x128xf32>) -> tensor<1x12x1x128xf32>
    %extracted_slice_959 = tensor.extract_slice %3671[0, 0, 0, 0] [1, 12, 1, 64] [1, 1, 1, 1] : tensor<1x12x1x128xf32> to tensor<1x12x1x64xf32>
    %extracted_slice_960 = tensor.extract_slice %3671[0, 0, 0, 64] [1, 12, 1, 64] [1, 1, 1, 1] : tensor<1x12x1x128xf32> to tensor<1x12x1x64xf32>
    %3695 = tensor.empty() : tensor<1x12x1x64xf32>
    %3696 = linalg.negf ins(%extracted_slice_960 : tensor<1x12x1x64xf32>) outs(%3695 : tensor<1x12x1x64xf32>) -> tensor<1x12x1x64xf32>
    %3697 = tensor.empty() : tensor<1x12x1x128xf32>
    %inserted_slice_961 = tensor.insert_slice %3696 into %3697[0, 0, 0, 0] [1, 12, 1, 64] [1, 1, 1, 1] : tensor<1x12x1x64xf32> into tensor<1x12x1x128xf32>
    %inserted_slice_962 = tensor.insert_slice %extracted_slice_959 into %inserted_slice_961[0, 0, 0, 64] [1, 12, 1, 64] [1, 1, 1, 1] : tensor<1x12x1x64xf32> into tensor<1x12x1x128xf32>
    %3698 = tosa.mul %inserted_slice_962, %3693 : (tensor<1x12x1x128xf32>, tensor<1x1x1x128xf32>) -> tensor<1x12x1x128xf32>
    %3699 = tosa.add %3694, %3698 : (tensor<1x12x1x128xf32>, tensor<1x12x1x128xf32>) -> tensor<1x12x1x128xf32>
    %3700 = tosa.mul %3681, %3692 : (tensor<1x2x1x128xf32>, tensor<1x1x1x128xf32>) -> tensor<1x2x1x128xf32>
    %extracted_slice_963 = tensor.extract_slice %3681[0, 0, 0, 0] [1, 2, 1, 64] [1, 1, 1, 1] : tensor<1x2x1x128xf32> to tensor<1x2x1x64xf32>
    %extracted_slice_964 = tensor.extract_slice %3681[0, 0, 0, 64] [1, 2, 1, 64] [1, 1, 1, 1] : tensor<1x2x1x128xf32> to tensor<1x2x1x64xf32>
    %3701 = tensor.empty() : tensor<1x2x1x64xf32>
    %3702 = linalg.negf ins(%extracted_slice_964 : tensor<1x2x1x64xf32>) outs(%3701 : tensor<1x2x1x64xf32>) -> tensor<1x2x1x64xf32>
    %3703 = tensor.empty() : tensor<1x2x1x128xf32>
    %inserted_slice_965 = tensor.insert_slice %3702 into %3703[0, 0, 0, 0] [1, 2, 1, 64] [1, 1, 1, 1] : tensor<1x2x1x64xf32> into tensor<1x2x1x128xf32>
    %inserted_slice_966 = tensor.insert_slice %extracted_slice_963 into %inserted_slice_965[0, 0, 0, 64] [1, 2, 1, 64] [1, 1, 1, 1] : tensor<1x2x1x64xf32> into tensor<1x2x1x128xf32>
    %3704 = tosa.mul %inserted_slice_966, %3693 : (tensor<1x2x1x128xf32>, tensor<1x1x1x128xf32>) -> tensor<1x2x1x128xf32>
    %3705 = tosa.add %3700, %3704 : (tensor<1x2x1x128xf32>, tensor<1x2x1x128xf32>) -> tensor<1x2x1x128xf32>
    %3706 = bufferization.to_memref %arg376 : tensor<1x2x1024x128xf32> to memref<1x2x1024x128xf32>
    %3707 = bufferization.to_memref %arg3 : tensor<1xi64> to memref<1xi64>
    %3708 = bufferization.to_memref %3705 : tensor<1x2x1x128xf32> to memref<1x2x1x128xf32>
    %c0_967 = arith.constant 0 : index
    %c1_968 = arith.constant 1 : index
    %c1_969 = arith.constant 1 : index
    %c2_970 = arith.constant 2 : index
    %c1_971 = arith.constant 1 : index
    %c128_972 = arith.constant 128 : index
    scf.for %arg399 = %c0_967 to %c1_969 step %c1_968 {
      scf.for %arg400 = %c0_967 to %c2_970 step %c1_968 {
        scf.for %arg401 = %c0_967 to %c1_971 step %c1_968 {
          %3945 = memref.load %3707[%arg401] : memref<1xi64>
          %3946 = arith.index_cast %3945 : i64 to index
          scf.for %arg402 = %c0_967 to %c128_972 step %c1_968 {
            %3947 = memref.load %3708[%arg399, %arg400, %arg401, %arg402] : memref<1x2x1x128xf32>
            memref.store %3947, %3706[%arg399, %arg400, %3946, %arg402] : memref<1x2x1024x128xf32>
          }
        }
      }
    }
    %3709 = bufferization.to_tensor %3706 restrict : memref<1x2x1024x128xf32> to tensor<1x2x1024x128xf32>
    %3710 = bufferization.to_memref %arg377 : tensor<1x2x1024x128xf32> to memref<1x2x1024x128xf32>
    %3711 = bufferization.to_memref %arg3 : tensor<1xi64> to memref<1xi64>
    %3712 = bufferization.to_memref %3691 : tensor<1x2x1x128xf32> to memref<1x2x1x128xf32>
    %c0_973 = arith.constant 0 : index
    %c1_974 = arith.constant 1 : index
    %c1_975 = arith.constant 1 : index
    %c2_976 = arith.constant 2 : index
    %c1_977 = arith.constant 1 : index
    %c128_978 = arith.constant 128 : index
    scf.for %arg399 = %c0_973 to %c1_975 step %c1_974 {
      scf.for %arg400 = %c0_973 to %c2_976 step %c1_974 {
        scf.for %arg401 = %c0_973 to %c1_977 step %c1_974 {
          %3945 = memref.load %3711[%arg401] : memref<1xi64>
          %3946 = arith.index_cast %3945 : i64 to index
          scf.for %arg402 = %c0_973 to %c128_978 step %c1_974 {
            %3947 = memref.load %3712[%arg399, %arg400, %arg401, %arg402] : memref<1x2x1x128xf32>
            memref.store %3947, %3710[%arg399, %arg400, %3946, %arg402] : memref<1x2x1024x128xf32>
          }
        }
      }
    }
    %3713 = bufferization.to_tensor %3710 restrict : memref<1x2x1024x128xf32> to tensor<1x2x1024x128xf32>
    %3714 = tosa.reshape %3709 {new_shape = array<i64: 1, 2, 1, 1024, 128>} : (tensor<1x2x1024x128xf32>) -> tensor<1x2x1x1024x128xf32>
    %3715 = "tosa.const"() <{value = dense<0.000000e+00> : tensor<1x2x6x1024x128xf32>}> : () -> tensor<1x2x6x1024x128xf32>
    %3716 = tosa.add %3714, %3715 : (tensor<1x2x1x1024x128xf32>, tensor<1x2x6x1024x128xf32>) -> tensor<1x2x6x1024x128xf32>
    %3717 = tosa.reshape %3716 {new_shape = array<i64: 1, 12, 1024, 128>} : (tensor<1x2x6x1024x128xf32>) -> tensor<1x12x1024x128xf32>
    %3718 = tosa.reshape %3713 {new_shape = array<i64: 1, 2, 1, 1024, 128>} : (tensor<1x2x1024x128xf32>) -> tensor<1x2x1x1024x128xf32>
    %3719 = "tosa.const"() <{value = dense<0.000000e+00> : tensor<1x2x6x1024x128xf32>}> : () -> tensor<1x2x6x1024x128xf32>
    %3720 = tosa.add %3718, %3719 : (tensor<1x2x1x1024x128xf32>, tensor<1x2x6x1024x128xf32>) -> tensor<1x2x6x1024x128xf32>
    %3721 = tosa.reshape %3720 {new_shape = array<i64: 1, 12, 1024, 128>} : (tensor<1x2x6x1024x128xf32>) -> tensor<1x12x1024x128xf32>
    %3722 = tosa.reshape %17 {new_shape = array<i64: 1, 1, 1, 1024>} : (tensor<1x1024xi1>) -> tensor<1x1x1x1024xi1>
    %cst_979 = arith.constant 0xFF800000 : f32
    %cst_980 = arith.constant 0.000000e+00 : f32
    %3723 = tensor.empty() : tensor<1x1x1x1024xf32>
    %splat_981 = tensor.splat %cst_980 : tensor<1x1x1x1024xf32>
    %splat_982 = tensor.splat %cst_979 : tensor<1x1x1x1024xf32>
    %3724 = linalg.generic {indexing_maps = [#map1, #map1, #map1, #map1], iterator_types = ["parallel", "parallel", "parallel", "parallel"]} ins(%3722, %splat_981, %splat_982 : tensor<1x1x1x1024xi1>, tensor<1x1x1x1024xf32>, tensor<1x1x1x1024xf32>) outs(%3723 : tensor<1x1x1x1024xf32>) {
    ^bb0(%in: i1, %in_1031: f32, %in_1032: f32, %out: f32):
      %3945 = arith.select %in, %in_1031, %in_1032 : f32
      linalg.yield %3945 : f32
    } -> tensor<1x1x1x1024xf32>
    %cst_983 = arith.constant 0.000000e+00 : f32
    %splat_984 = tensor.splat %cst_983 : tensor<1x1024xf32>
    %3725 = tosa.reshape %3724 {new_shape = array<i64: 1, 1024>} : (tensor<1x1x1x1024xf32>) -> tensor<1x1024xf32>
    %3726 = tosa.add %splat_984, %3725 : (tensor<1x1024xf32>, tensor<1x1024xf32>) -> tensor<1x1024xf32>
    %3727 = "tosa.const"() <{value = dense<[0, 1, 3, 2]> : tensor<4xi32>}> : () -> tensor<4xi32>
    %3728 = tosa.transpose %3717, %3727 : (tensor<1x12x1024x128xf32>, tensor<4xi32>) -> tensor<1x12x128x1024xf32>
    %3729 = tosa.reshape %3699 {new_shape = array<i64: 12, 1, 128>} : (tensor<1x12x1x128xf32>) -> tensor<12x1x128xf32>
    %3730 = tosa.reshape %3728 {new_shape = array<i64: 12, 128, 1024>} : (tensor<1x12x128x1024xf32>) -> tensor<12x128x1024xf32>
    %3731 = tosa.matmul %3729, %3730 : (tensor<12x1x128xf32>, tensor<12x128x1024xf32>) -> tensor<12x1x1024xf32>
    %cst_985 = arith.constant 0.0883883461 : f32
    %splat_986 = tensor.splat %cst_985 : tensor<12x1x1024xf32>
    %3732 = tosa.mul %3731, %splat_986 : (tensor<12x1x1024xf32>, tensor<12x1x1024xf32>) -> tensor<12x1x1024xf32>
    %3733 = tosa.reshape %3726 {new_shape = array<i64: 1, 1, 1024>} : (tensor<1x1024xf32>) -> tensor<1x1x1024xf32>
    %3734 = tosa.add %3732, %3733 : (tensor<12x1x1024xf32>, tensor<1x1x1024xf32>) -> tensor<12x1x1024xf32>
    %3735 = tosa.reduce_max %3734 {axis = 2 : i32} : (tensor<12x1x1024xf32>) -> tensor<12x1x1xf32>
    %3736 = tosa.sub %3734, %3735 : (tensor<12x1x1024xf32>, tensor<12x1x1xf32>) -> tensor<12x1x1024xf32>
    %3737 = math.exp %3736 : tensor<12x1x1024xf32>
    %3738 = tosa.reduce_sum %3737 {axis = 2 : i32} : (tensor<12x1x1024xf32>) -> tensor<12x1x1xf32>
    %3739 = tosa.log %3738 : (tensor<12x1x1xf32>) -> tensor<12x1x1xf32>
    %3740 = tosa.add %3735, %3739 : (tensor<12x1x1xf32>, tensor<12x1x1xf32>) -> tensor<12x1x1xf32>
    %3741 = tosa.sub %3734, %3740 : (tensor<12x1x1024xf32>, tensor<12x1x1xf32>) -> tensor<12x1x1024xf32>
    %3742 = math.exp %3741 : tensor<12x1x1024xf32>
    %3743 = tosa.reshape %3740 {new_shape = array<i64: 1, 12, 1>} : (tensor<12x1x1xf32>) -> tensor<1x12x1xf32>
    %3744 = tosa.reshape %3721 {new_shape = array<i64: 12, 1024, 128>} : (tensor<1x12x1024x128xf32>) -> tensor<12x1024x128xf32>
    %3745 = tosa.matmul %3742, %3744 : (tensor<12x1x1024xf32>, tensor<12x1024x128xf32>) -> tensor<12x1x128xf32>
    %3746 = tosa.reshape %3745 {new_shape = array<i64: 1, 12, 1, 128>} : (tensor<12x1x128xf32>) -> tensor<1x12x1x128xf32>
    %3747 = "tosa.const"() <{value = dense<[0, 2, 1, 3]> : tensor<4xi32>}> : () -> tensor<4xi32>
    %3748 = tosa.transpose %3746, %3747 : (tensor<1x12x1x128xf32>, tensor<4xi32>) -> tensor<1x1x12x128xf32>
    %3749 = tosa.reshape %3748 {new_shape = array<i64: 1, 1, 1536>} : (tensor<1x1x12x128xf32>) -> tensor<1x1x1536xf32>
    %3750 = "tosa.const"() <{value = dense<[1, 0]> : tensor<2xi32>}> : () -> tensor<2xi32>
    %3751 = tosa.transpose %arg378, %3750 : (tensor<1536x1536xf32>, tensor<2xi32>) -> tensor<1536x1536xf32>
    %3752 = tosa.reshape %3749 {new_shape = array<i64: 1, 1536>} : (tensor<1x1x1536xf32>) -> tensor<1x1536xf32>
    %cst_987 = arith.constant dense<0.000000e+00> : tensor<1x1536xf32>
    %3753 = linalg.matmul {cast = #linalg.type_fn<cast_signed>} ins(%3752, %3751 : tensor<1x1536xf32>, tensor<1536x1536xf32>) outs(%cst_987 : tensor<1x1536xf32>) -> tensor<1x1536xf32>
    %3754 = tosa.reshape %3753 {new_shape = array<i64: 1, 1, 1536>} : (tensor<1x1536xf32>) -> tensor<1x1x1536xf32>
    %3755 = tosa.add %3648, %3754 : (tensor<1x1x1536xf32>, tensor<1x1x1536xf32>) -> tensor<1x1x1536xf32>
    %3756 = tensor.empty() : tensor<1x1x1536xf32>
    %c2_i32_988 = arith.constant 2 : i32
    %3757 = linalg.generic {indexing_maps = [#map, #map], iterator_types = ["parallel", "parallel", "parallel"]} ins(%3755 : tensor<1x1x1536xf32>) outs(%3756 : tensor<1x1x1536xf32>) {
    ^bb0(%in: f32, %out: f32):
      %3945 = math.fpowi %in, %c2_i32_988 : f32, i32
      linalg.yield %3945 : f32
    } -> tensor<1x1x1536xf32>
    %3758 = tosa.reduce_sum %3757 {axis = 2 : i32} : (tensor<1x1x1536xf32>) -> tensor<1x1x1xf32>
    %3759 = "tosa.const"() <{value = dense<1.536000e+03> : tensor<1xf32>}> : () -> tensor<1xf32>
    %3760 = tosa.reciprocal %3759 : (tensor<1xf32>) -> tensor<1xf32>
    %3761 = tosa.reshape %3760 {new_shape = array<i64: 1, 1, 1>} : (tensor<1xf32>) -> tensor<1x1x1xf32>
    %3762 = tosa.mul %3761, %3758 : (tensor<1x1x1xf32>, tensor<1x1x1xf32>) -> tensor<1x1x1xf32>
    %3763 = "tosa.const"() <{value = dense<9.99999997E-7> : tensor<1x1x1xf32>}> : () -> tensor<1x1x1xf32>
    %3764 = tosa.add %3762, %3763 : (tensor<1x1x1xf32>, tensor<1x1x1xf32>) -> tensor<1x1x1xf32>
    %3765 = tosa.rsqrt %3764 : (tensor<1x1x1xf32>) -> tensor<1x1x1xf32>
    %3766 = tosa.mul %3755, %3765 : (tensor<1x1x1536xf32>, tensor<1x1x1xf32>) -> tensor<1x1x1536xf32>
    %3767 = tosa.reshape %arg379 {new_shape = array<i64: 1, 1, 1536>} : (tensor<1536xf32>) -> tensor<1x1x1536xf32>
    %3768 = tosa.mul %3767, %3766 : (tensor<1x1x1536xf32>, tensor<1x1x1536xf32>) -> tensor<1x1x1536xf32>
    %3769 = "tosa.const"() <{value = dense<[1, 0]> : tensor<2xi32>}> : () -> tensor<2xi32>
    %3770 = tosa.transpose %arg380, %3769 : (tensor<8960x1536xf32>, tensor<2xi32>) -> tensor<1536x8960xf32>
    %3771 = tosa.reshape %3768 {new_shape = array<i64: 1, 1536>} : (tensor<1x1x1536xf32>) -> tensor<1x1536xf32>
    %cst_989 = arith.constant dense<0.000000e+00> : tensor<1x8960xf32>
    %3772 = linalg.matmul {cast = #linalg.type_fn<cast_signed>} ins(%3771, %3770 : tensor<1x1536xf32>, tensor<1536x8960xf32>) outs(%cst_989 : tensor<1x8960xf32>) -> tensor<1x8960xf32>
    %3773 = tosa.reshape %3772 {new_shape = array<i64: 1, 1, 8960>} : (tensor<1x8960xf32>) -> tensor<1x1x8960xf32>
    %3774 = tosa.sigmoid %3773 : (tensor<1x1x8960xf32>) -> tensor<1x1x8960xf32>
    %3775 = tosa.mul %3773, %3774 : (tensor<1x1x8960xf32>, tensor<1x1x8960xf32>) -> tensor<1x1x8960xf32>
    %3776 = "tosa.const"() <{value = dense<[1, 0]> : tensor<2xi32>}> : () -> tensor<2xi32>
    %3777 = tosa.transpose %arg381, %3776 : (tensor<8960x1536xf32>, tensor<2xi32>) -> tensor<1536x8960xf32>
    %3778 = tosa.reshape %3768 {new_shape = array<i64: 1, 1536>} : (tensor<1x1x1536xf32>) -> tensor<1x1536xf32>
    %cst_990 = arith.constant dense<0.000000e+00> : tensor<1x8960xf32>
    %3779 = linalg.matmul {cast = #linalg.type_fn<cast_signed>} ins(%3778, %3777 : tensor<1x1536xf32>, tensor<1536x8960xf32>) outs(%cst_990 : tensor<1x8960xf32>) -> tensor<1x8960xf32>
    %3780 = tosa.reshape %3779 {new_shape = array<i64: 1, 1, 8960>} : (tensor<1x8960xf32>) -> tensor<1x1x8960xf32>
    %3781 = tosa.mul %3775, %3780 : (tensor<1x1x8960xf32>, tensor<1x1x8960xf32>) -> tensor<1x1x8960xf32>
    %3782 = "tosa.const"() <{value = dense<[1, 0]> : tensor<2xi32>}> : () -> tensor<2xi32>
    %3783 = tosa.transpose %arg382, %3782 : (tensor<1536x8960xf32>, tensor<2xi32>) -> tensor<8960x1536xf32>
    %3784 = tosa.reshape %3781 {new_shape = array<i64: 1, 8960>} : (tensor<1x1x8960xf32>) -> tensor<1x8960xf32>
    %cst_991 = arith.constant dense<0.000000e+00> : tensor<1x1536xf32>
    %3785 = linalg.matmul {cast = #linalg.type_fn<cast_signed>} ins(%3784, %3783 : tensor<1x8960xf32>, tensor<8960x1536xf32>) outs(%cst_991 : tensor<1x1536xf32>) -> tensor<1x1536xf32>
    %3786 = tosa.reshape %3785 {new_shape = array<i64: 1, 1, 1536>} : (tensor<1x1536xf32>) -> tensor<1x1x1536xf32>
    %3787 = tosa.add %3755, %3786 : (tensor<1x1x1536xf32>, tensor<1x1x1536xf32>) -> tensor<1x1x1536xf32>
    %3788 = tensor.empty() : tensor<1x1x1536xf32>
    %c2_i32_992 = arith.constant 2 : i32
    %3789 = linalg.generic {indexing_maps = [#map, #map], iterator_types = ["parallel", "parallel", "parallel"]} ins(%3787 : tensor<1x1x1536xf32>) outs(%3788 : tensor<1x1x1536xf32>) {
    ^bb0(%in: f32, %out: f32):
      %3945 = math.fpowi %in, %c2_i32_992 : f32, i32
      linalg.yield %3945 : f32
    } -> tensor<1x1x1536xf32>
    %3790 = tosa.reduce_sum %3789 {axis = 2 : i32} : (tensor<1x1x1536xf32>) -> tensor<1x1x1xf32>
    %3791 = "tosa.const"() <{value = dense<1.536000e+03> : tensor<1xf32>}> : () -> tensor<1xf32>
    %3792 = tosa.reciprocal %3791 : (tensor<1xf32>) -> tensor<1xf32>
    %3793 = tosa.reshape %3792 {new_shape = array<i64: 1, 1, 1>} : (tensor<1xf32>) -> tensor<1x1x1xf32>
    %3794 = tosa.mul %3793, %3790 : (tensor<1x1x1xf32>, tensor<1x1x1xf32>) -> tensor<1x1x1xf32>
    %3795 = "tosa.const"() <{value = dense<9.99999997E-7> : tensor<1x1x1xf32>}> : () -> tensor<1x1x1xf32>
    %3796 = tosa.add %3794, %3795 : (tensor<1x1x1xf32>, tensor<1x1x1xf32>) -> tensor<1x1x1xf32>
    %3797 = tosa.rsqrt %3796 : (tensor<1x1x1xf32>) -> tensor<1x1x1xf32>
    %3798 = tosa.mul %3787, %3797 : (tensor<1x1x1536xf32>, tensor<1x1x1xf32>) -> tensor<1x1x1536xf32>
    %3799 = tosa.reshape %arg383 {new_shape = array<i64: 1, 1, 1536>} : (tensor<1536xf32>) -> tensor<1x1x1536xf32>
    %3800 = tosa.mul %3799, %3798 : (tensor<1x1x1536xf32>, tensor<1x1x1536xf32>) -> tensor<1x1x1536xf32>
    %3801 = tosa.reshape %3800 {new_shape = array<i64: 1, 1536>} : (tensor<1x1x1536xf32>) -> tensor<1x1536xf32>
    %3802 = "tosa.const"() <{value = dense<[1, 0]> : tensor<2xi32>}> : () -> tensor<2xi32>
    %3803 = tosa.transpose %arg384, %3802 : (tensor<1536x1536xf32>, tensor<2xi32>) -> tensor<1536x1536xf32>
    %cst_993 = arith.constant dense<0.000000e+00> : tensor<1x1536xf32>
    %3804 = linalg.matmul {cast = #linalg.type_fn<cast_signed>} ins(%3801, %3803 : tensor<1x1536xf32>, tensor<1536x1536xf32>) outs(%cst_993 : tensor<1x1536xf32>) -> tensor<1x1536xf32>
    %3805 = tosa.reshape %arg385 {new_shape = array<i64: 1, 1536>} : (tensor<1536xf32>) -> tensor<1x1536xf32>
    %3806 = tosa.add %3805, %3804 : (tensor<1x1536xf32>, tensor<1x1536xf32>) -> tensor<1x1536xf32>
    %3807 = tosa.reshape %3806 {new_shape = array<i64: 1, 1, 1536>} : (tensor<1x1536xf32>) -> tensor<1x1x1536xf32>
    %3808 = tosa.reshape %3807 {new_shape = array<i64: 1, 1, 12, 128>} : (tensor<1x1x1536xf32>) -> tensor<1x1x12x128xf32>
    %3809 = "tosa.const"() <{value = dense<[0, 2, 1, 3]> : tensor<4xi32>}> : () -> tensor<4xi32>
    %3810 = tosa.transpose %3808, %3809 : (tensor<1x1x12x128xf32>, tensor<4xi32>) -> tensor<1x12x1x128xf32>
    %3811 = tosa.reshape %3800 {new_shape = array<i64: 1, 1536>} : (tensor<1x1x1536xf32>) -> tensor<1x1536xf32>
    %3812 = "tosa.const"() <{value = dense<[1, 0]> : tensor<2xi32>}> : () -> tensor<2xi32>
    %3813 = tosa.transpose %arg386, %3812 : (tensor<256x1536xf32>, tensor<2xi32>) -> tensor<1536x256xf32>
    %cst_994 = arith.constant dense<0.000000e+00> : tensor<1x256xf32>
    %3814 = linalg.matmul {cast = #linalg.type_fn<cast_signed>} ins(%3811, %3813 : tensor<1x1536xf32>, tensor<1536x256xf32>) outs(%cst_994 : tensor<1x256xf32>) -> tensor<1x256xf32>
    %3815 = tosa.reshape %arg387 {new_shape = array<i64: 1, 256>} : (tensor<256xf32>) -> tensor<1x256xf32>
    %3816 = tosa.add %3815, %3814 : (tensor<1x256xf32>, tensor<1x256xf32>) -> tensor<1x256xf32>
    %3817 = tosa.reshape %3816 {new_shape = array<i64: 1, 1, 256>} : (tensor<1x256xf32>) -> tensor<1x1x256xf32>
    %3818 = tosa.reshape %3817 {new_shape = array<i64: 1, 1, 2, 128>} : (tensor<1x1x256xf32>) -> tensor<1x1x2x128xf32>
    %3819 = "tosa.const"() <{value = dense<[0, 2, 1, 3]> : tensor<4xi32>}> : () -> tensor<4xi32>
    %3820 = tosa.transpose %3818, %3819 : (tensor<1x1x2x128xf32>, tensor<4xi32>) -> tensor<1x2x1x128xf32>
    %3821 = tosa.reshape %3800 {new_shape = array<i64: 1, 1536>} : (tensor<1x1x1536xf32>) -> tensor<1x1536xf32>
    %3822 = "tosa.const"() <{value = dense<[1, 0]> : tensor<2xi32>}> : () -> tensor<2xi32>
    %3823 = tosa.transpose %arg388, %3822 : (tensor<256x1536xf32>, tensor<2xi32>) -> tensor<1536x256xf32>
    %cst_995 = arith.constant dense<0.000000e+00> : tensor<1x256xf32>
    %3824 = linalg.matmul {cast = #linalg.type_fn<cast_signed>} ins(%3821, %3823 : tensor<1x1536xf32>, tensor<1536x256xf32>) outs(%cst_995 : tensor<1x256xf32>) -> tensor<1x256xf32>
    %3825 = tosa.reshape %arg389 {new_shape = array<i64: 1, 256>} : (tensor<256xf32>) -> tensor<1x256xf32>
    %3826 = tosa.add %3825, %3824 : (tensor<1x256xf32>, tensor<1x256xf32>) -> tensor<1x256xf32>
    %3827 = tosa.reshape %3826 {new_shape = array<i64: 1, 1, 256>} : (tensor<1x256xf32>) -> tensor<1x1x256xf32>
    %3828 = tosa.reshape %3827 {new_shape = array<i64: 1, 1, 2, 128>} : (tensor<1x1x256xf32>) -> tensor<1x1x2x128xf32>
    %3829 = "tosa.const"() <{value = dense<[0, 2, 1, 3]> : tensor<4xi32>}> : () -> tensor<4xi32>
    %3830 = tosa.transpose %3828, %3829 : (tensor<1x1x2x128xf32>, tensor<4xi32>) -> tensor<1x2x1x128xf32>
    %3831 = tosa.reshape %31 {new_shape = array<i64: 1, 1, 1, 128>} : (tensor<1x1x128xf32>) -> tensor<1x1x1x128xf32>
    %3832 = tosa.reshape %34 {new_shape = array<i64: 1, 1, 1, 128>} : (tensor<1x1x128xf32>) -> tensor<1x1x1x128xf32>
    %3833 = tosa.mul %3810, %3831 : (tensor<1x12x1x128xf32>, tensor<1x1x1x128xf32>) -> tensor<1x12x1x128xf32>
    %extracted_slice_996 = tensor.extract_slice %3810[0, 0, 0, 0] [1, 12, 1, 64] [1, 1, 1, 1] : tensor<1x12x1x128xf32> to tensor<1x12x1x64xf32>
    %extracted_slice_997 = tensor.extract_slice %3810[0, 0, 0, 64] [1, 12, 1, 64] [1, 1, 1, 1] : tensor<1x12x1x128xf32> to tensor<1x12x1x64xf32>
    %3834 = tensor.empty() : tensor<1x12x1x64xf32>
    %3835 = linalg.negf ins(%extracted_slice_997 : tensor<1x12x1x64xf32>) outs(%3834 : tensor<1x12x1x64xf32>) -> tensor<1x12x1x64xf32>
    %3836 = tensor.empty() : tensor<1x12x1x128xf32>
    %inserted_slice_998 = tensor.insert_slice %3835 into %3836[0, 0, 0, 0] [1, 12, 1, 64] [1, 1, 1, 1] : tensor<1x12x1x64xf32> into tensor<1x12x1x128xf32>
    %inserted_slice_999 = tensor.insert_slice %extracted_slice_996 into %inserted_slice_998[0, 0, 0, 64] [1, 12, 1, 64] [1, 1, 1, 1] : tensor<1x12x1x64xf32> into tensor<1x12x1x128xf32>
    %3837 = tosa.mul %inserted_slice_999, %3832 : (tensor<1x12x1x128xf32>, tensor<1x1x1x128xf32>) -> tensor<1x12x1x128xf32>
    %3838 = tosa.add %3833, %3837 : (tensor<1x12x1x128xf32>, tensor<1x12x1x128xf32>) -> tensor<1x12x1x128xf32>
    %3839 = tosa.mul %3820, %3831 : (tensor<1x2x1x128xf32>, tensor<1x1x1x128xf32>) -> tensor<1x2x1x128xf32>
    %extracted_slice_1000 = tensor.extract_slice %3820[0, 0, 0, 0] [1, 2, 1, 64] [1, 1, 1, 1] : tensor<1x2x1x128xf32> to tensor<1x2x1x64xf32>
    %extracted_slice_1001 = tensor.extract_slice %3820[0, 0, 0, 64] [1, 2, 1, 64] [1, 1, 1, 1] : tensor<1x2x1x128xf32> to tensor<1x2x1x64xf32>
    %3840 = tensor.empty() : tensor<1x2x1x64xf32>
    %3841 = linalg.negf ins(%extracted_slice_1001 : tensor<1x2x1x64xf32>) outs(%3840 : tensor<1x2x1x64xf32>) -> tensor<1x2x1x64xf32>
    %3842 = tensor.empty() : tensor<1x2x1x128xf32>
    %inserted_slice_1002 = tensor.insert_slice %3841 into %3842[0, 0, 0, 0] [1, 2, 1, 64] [1, 1, 1, 1] : tensor<1x2x1x64xf32> into tensor<1x2x1x128xf32>
    %inserted_slice_1003 = tensor.insert_slice %extracted_slice_1000 into %inserted_slice_1002[0, 0, 0, 64] [1, 2, 1, 64] [1, 1, 1, 1] : tensor<1x2x1x64xf32> into tensor<1x2x1x128xf32>
    %3843 = tosa.mul %inserted_slice_1003, %3832 : (tensor<1x2x1x128xf32>, tensor<1x1x1x128xf32>) -> tensor<1x2x1x128xf32>
    %3844 = tosa.add %3839, %3843 : (tensor<1x2x1x128xf32>, tensor<1x2x1x128xf32>) -> tensor<1x2x1x128xf32>
    %3845 = bufferization.to_memref %arg390 : tensor<1x2x1024x128xf32> to memref<1x2x1024x128xf32>
    %3846 = bufferization.to_memref %arg3 : tensor<1xi64> to memref<1xi64>
    %3847 = bufferization.to_memref %3844 : tensor<1x2x1x128xf32> to memref<1x2x1x128xf32>
    %c0_1004 = arith.constant 0 : index
    %c1_1005 = arith.constant 1 : index
    %c1_1006 = arith.constant 1 : index
    %c2_1007 = arith.constant 2 : index
    %c1_1008 = arith.constant 1 : index
    %c128_1009 = arith.constant 128 : index
    scf.for %arg399 = %c0_1004 to %c1_1006 step %c1_1005 {
      scf.for %arg400 = %c0_1004 to %c2_1007 step %c1_1005 {
        scf.for %arg401 = %c0_1004 to %c1_1008 step %c1_1005 {
          %3945 = memref.load %3846[%arg401] : memref<1xi64>
          %3946 = arith.index_cast %3945 : i64 to index
          scf.for %arg402 = %c0_1004 to %c128_1009 step %c1_1005 {
            %3947 = memref.load %3847[%arg399, %arg400, %arg401, %arg402] : memref<1x2x1x128xf32>
            memref.store %3947, %3845[%arg399, %arg400, %3946, %arg402] : memref<1x2x1024x128xf32>
          }
        }
      }
    }
    %3848 = bufferization.to_tensor %3845 restrict : memref<1x2x1024x128xf32> to tensor<1x2x1024x128xf32>
    %3849 = bufferization.to_memref %arg391 : tensor<1x2x1024x128xf32> to memref<1x2x1024x128xf32>
    %3850 = bufferization.to_memref %arg3 : tensor<1xi64> to memref<1xi64>
    %3851 = bufferization.to_memref %3830 : tensor<1x2x1x128xf32> to memref<1x2x1x128xf32>
    %c0_1010 = arith.constant 0 : index
    %c1_1011 = arith.constant 1 : index
    %c1_1012 = arith.constant 1 : index
    %c2_1013 = arith.constant 2 : index
    %c1_1014 = arith.constant 1 : index
    %c128_1015 = arith.constant 128 : index
    scf.for %arg399 = %c0_1010 to %c1_1012 step %c1_1011 {
      scf.for %arg400 = %c0_1010 to %c2_1013 step %c1_1011 {
        scf.for %arg401 = %c0_1010 to %c1_1014 step %c1_1011 {
          %3945 = memref.load %3850[%arg401] : memref<1xi64>
          %3946 = arith.index_cast %3945 : i64 to index
          scf.for %arg402 = %c0_1010 to %c128_1015 step %c1_1011 {
            %3947 = memref.load %3851[%arg399, %arg400, %arg401, %arg402] : memref<1x2x1x128xf32>
            memref.store %3947, %3849[%arg399, %arg400, %3946, %arg402] : memref<1x2x1024x128xf32>
          }
        }
      }
    }
    %3852 = bufferization.to_tensor %3849 restrict : memref<1x2x1024x128xf32> to tensor<1x2x1024x128xf32>
    %3853 = tosa.reshape %3848 {new_shape = array<i64: 1, 2, 1, 1024, 128>} : (tensor<1x2x1024x128xf32>) -> tensor<1x2x1x1024x128xf32>
    %3854 = "tosa.const"() <{value = dense<0.000000e+00> : tensor<1x2x6x1024x128xf32>}> : () -> tensor<1x2x6x1024x128xf32>
    %3855 = tosa.add %3853, %3854 : (tensor<1x2x1x1024x128xf32>, tensor<1x2x6x1024x128xf32>) -> tensor<1x2x6x1024x128xf32>
    %3856 = tosa.reshape %3855 {new_shape = array<i64: 1, 12, 1024, 128>} : (tensor<1x2x6x1024x128xf32>) -> tensor<1x12x1024x128xf32>
    %3857 = tosa.reshape %3852 {new_shape = array<i64: 1, 2, 1, 1024, 128>} : (tensor<1x2x1024x128xf32>) -> tensor<1x2x1x1024x128xf32>
    %3858 = "tosa.const"() <{value = dense<0.000000e+00> : tensor<1x2x6x1024x128xf32>}> : () -> tensor<1x2x6x1024x128xf32>
    %3859 = tosa.add %3857, %3858 : (tensor<1x2x1x1024x128xf32>, tensor<1x2x6x1024x128xf32>) -> tensor<1x2x6x1024x128xf32>
    %3860 = tosa.reshape %3859 {new_shape = array<i64: 1, 12, 1024, 128>} : (tensor<1x2x6x1024x128xf32>) -> tensor<1x12x1024x128xf32>
    %3861 = tosa.reshape %17 {new_shape = array<i64: 1, 1, 1, 1024>} : (tensor<1x1024xi1>) -> tensor<1x1x1x1024xi1>
    %cst_1016 = arith.constant 0xFF800000 : f32
    %cst_1017 = arith.constant 0.000000e+00 : f32
    %3862 = tensor.empty() : tensor<1x1x1x1024xf32>
    %splat_1018 = tensor.splat %cst_1017 : tensor<1x1x1x1024xf32>
    %splat_1019 = tensor.splat %cst_1016 : tensor<1x1x1x1024xf32>
    %3863 = linalg.generic {indexing_maps = [#map1, #map1, #map1, #map1], iterator_types = ["parallel", "parallel", "parallel", "parallel"]} ins(%3861, %splat_1018, %splat_1019 : tensor<1x1x1x1024xi1>, tensor<1x1x1x1024xf32>, tensor<1x1x1x1024xf32>) outs(%3862 : tensor<1x1x1x1024xf32>) {
    ^bb0(%in: i1, %in_1031: f32, %in_1032: f32, %out: f32):
      %3945 = arith.select %in, %in_1031, %in_1032 : f32
      linalg.yield %3945 : f32
    } -> tensor<1x1x1x1024xf32>
    %cst_1020 = arith.constant 0.000000e+00 : f32
    %splat_1021 = tensor.splat %cst_1020 : tensor<1x1024xf32>
    %3864 = tosa.reshape %3863 {new_shape = array<i64: 1, 1024>} : (tensor<1x1x1x1024xf32>) -> tensor<1x1024xf32>
    %3865 = tosa.add %splat_1021, %3864 : (tensor<1x1024xf32>, tensor<1x1024xf32>) -> tensor<1x1024xf32>
    %3866 = "tosa.const"() <{value = dense<[0, 1, 3, 2]> : tensor<4xi32>}> : () -> tensor<4xi32>
    %3867 = tosa.transpose %3856, %3866 : (tensor<1x12x1024x128xf32>, tensor<4xi32>) -> tensor<1x12x128x1024xf32>
    %3868 = tosa.reshape %3838 {new_shape = array<i64: 12, 1, 128>} : (tensor<1x12x1x128xf32>) -> tensor<12x1x128xf32>
    %3869 = tosa.reshape %3867 {new_shape = array<i64: 12, 128, 1024>} : (tensor<1x12x128x1024xf32>) -> tensor<12x128x1024xf32>
    %3870 = tosa.matmul %3868, %3869 : (tensor<12x1x128xf32>, tensor<12x128x1024xf32>) -> tensor<12x1x1024xf32>
    %cst_1022 = arith.constant 0.0883883461 : f32
    %splat_1023 = tensor.splat %cst_1022 : tensor<12x1x1024xf32>
    %3871 = tosa.mul %3870, %splat_1023 : (tensor<12x1x1024xf32>, tensor<12x1x1024xf32>) -> tensor<12x1x1024xf32>
    %3872 = tosa.reshape %3865 {new_shape = array<i64: 1, 1, 1024>} : (tensor<1x1024xf32>) -> tensor<1x1x1024xf32>
    %3873 = tosa.add %3871, %3872 : (tensor<12x1x1024xf32>, tensor<1x1x1024xf32>) -> tensor<12x1x1024xf32>
    %3874 = tosa.reduce_max %3873 {axis = 2 : i32} : (tensor<12x1x1024xf32>) -> tensor<12x1x1xf32>
    %3875 = tosa.sub %3873, %3874 : (tensor<12x1x1024xf32>, tensor<12x1x1xf32>) -> tensor<12x1x1024xf32>
    %3876 = math.exp %3875 : tensor<12x1x1024xf32>
    %3877 = tosa.reduce_sum %3876 {axis = 2 : i32} : (tensor<12x1x1024xf32>) -> tensor<12x1x1xf32>
    %3878 = tosa.log %3877 : (tensor<12x1x1xf32>) -> tensor<12x1x1xf32>
    %3879 = tosa.add %3874, %3878 : (tensor<12x1x1xf32>, tensor<12x1x1xf32>) -> tensor<12x1x1xf32>
    %3880 = tosa.sub %3873, %3879 : (tensor<12x1x1024xf32>, tensor<12x1x1xf32>) -> tensor<12x1x1024xf32>
    %3881 = math.exp %3880 : tensor<12x1x1024xf32>
    %3882 = tosa.reshape %3879 {new_shape = array<i64: 1, 12, 1>} : (tensor<12x1x1xf32>) -> tensor<1x12x1xf32>
    %3883 = tosa.reshape %3860 {new_shape = array<i64: 12, 1024, 128>} : (tensor<1x12x1024x128xf32>) -> tensor<12x1024x128xf32>
    %3884 = tosa.matmul %3881, %3883 : (tensor<12x1x1024xf32>, tensor<12x1024x128xf32>) -> tensor<12x1x128xf32>
    %3885 = tosa.reshape %3884 {new_shape = array<i64: 1, 12, 1, 128>} : (tensor<12x1x128xf32>) -> tensor<1x12x1x128xf32>
    %3886 = "tosa.const"() <{value = dense<[0, 2, 1, 3]> : tensor<4xi32>}> : () -> tensor<4xi32>
    %3887 = tosa.transpose %3885, %3886 : (tensor<1x12x1x128xf32>, tensor<4xi32>) -> tensor<1x1x12x128xf32>
    %3888 = tosa.reshape %3887 {new_shape = array<i64: 1, 1, 1536>} : (tensor<1x1x12x128xf32>) -> tensor<1x1x1536xf32>
    %3889 = "tosa.const"() <{value = dense<[1, 0]> : tensor<2xi32>}> : () -> tensor<2xi32>
    %3890 = tosa.transpose %arg392, %3889 : (tensor<1536x1536xf32>, tensor<2xi32>) -> tensor<1536x1536xf32>
    %3891 = tosa.reshape %3888 {new_shape = array<i64: 1, 1536>} : (tensor<1x1x1536xf32>) -> tensor<1x1536xf32>
    %cst_1024 = arith.constant dense<0.000000e+00> : tensor<1x1536xf32>
    %3892 = linalg.matmul {cast = #linalg.type_fn<cast_signed>} ins(%3891, %3890 : tensor<1x1536xf32>, tensor<1536x1536xf32>) outs(%cst_1024 : tensor<1x1536xf32>) -> tensor<1x1536xf32>
    %3893 = tosa.reshape %3892 {new_shape = array<i64: 1, 1, 1536>} : (tensor<1x1536xf32>) -> tensor<1x1x1536xf32>
    %3894 = tosa.add %3787, %3893 : (tensor<1x1x1536xf32>, tensor<1x1x1536xf32>) -> tensor<1x1x1536xf32>
    %3895 = tensor.empty() : tensor<1x1x1536xf32>
    %c2_i32_1025 = arith.constant 2 : i32
    %3896 = linalg.generic {indexing_maps = [#map, #map], iterator_types = ["parallel", "parallel", "parallel"]} ins(%3894 : tensor<1x1x1536xf32>) outs(%3895 : tensor<1x1x1536xf32>) {
    ^bb0(%in: f32, %out: f32):
      %3945 = math.fpowi %in, %c2_i32_1025 : f32, i32
      linalg.yield %3945 : f32
    } -> tensor<1x1x1536xf32>
    %3897 = tosa.reduce_sum %3896 {axis = 2 : i32} : (tensor<1x1x1536xf32>) -> tensor<1x1x1xf32>
    %3898 = "tosa.const"() <{value = dense<1.536000e+03> : tensor<1xf32>}> : () -> tensor<1xf32>
    %3899 = tosa.reciprocal %3898 : (tensor<1xf32>) -> tensor<1xf32>
    %3900 = tosa.reshape %3899 {new_shape = array<i64: 1, 1, 1>} : (tensor<1xf32>) -> tensor<1x1x1xf32>
    %3901 = tosa.mul %3900, %3897 : (tensor<1x1x1xf32>, tensor<1x1x1xf32>) -> tensor<1x1x1xf32>
    %3902 = "tosa.const"() <{value = dense<9.99999997E-7> : tensor<1x1x1xf32>}> : () -> tensor<1x1x1xf32>
    %3903 = tosa.add %3901, %3902 : (tensor<1x1x1xf32>, tensor<1x1x1xf32>) -> tensor<1x1x1xf32>
    %3904 = tosa.rsqrt %3903 : (tensor<1x1x1xf32>) -> tensor<1x1x1xf32>
    %3905 = tosa.mul %3894, %3904 : (tensor<1x1x1536xf32>, tensor<1x1x1xf32>) -> tensor<1x1x1536xf32>
    %3906 = tosa.reshape %arg393 {new_shape = array<i64: 1, 1, 1536>} : (tensor<1536xf32>) -> tensor<1x1x1536xf32>
    %3907 = tosa.mul %3906, %3905 : (tensor<1x1x1536xf32>, tensor<1x1x1536xf32>) -> tensor<1x1x1536xf32>
    %3908 = "tosa.const"() <{value = dense<[1, 0]> : tensor<2xi32>}> : () -> tensor<2xi32>
    %3909 = tosa.transpose %arg394, %3908 : (tensor<8960x1536xf32>, tensor<2xi32>) -> tensor<1536x8960xf32>
    %3910 = tosa.reshape %3907 {new_shape = array<i64: 1, 1536>} : (tensor<1x1x1536xf32>) -> tensor<1x1536xf32>
    %cst_1026 = arith.constant dense<0.000000e+00> : tensor<1x8960xf32>
    %3911 = linalg.matmul {cast = #linalg.type_fn<cast_signed>} ins(%3910, %3909 : tensor<1x1536xf32>, tensor<1536x8960xf32>) outs(%cst_1026 : tensor<1x8960xf32>) -> tensor<1x8960xf32>
    %3912 = tosa.reshape %3911 {new_shape = array<i64: 1, 1, 8960>} : (tensor<1x8960xf32>) -> tensor<1x1x8960xf32>
    %3913 = tosa.sigmoid %3912 : (tensor<1x1x8960xf32>) -> tensor<1x1x8960xf32>
    %3914 = tosa.mul %3912, %3913 : (tensor<1x1x8960xf32>, tensor<1x1x8960xf32>) -> tensor<1x1x8960xf32>
    %3915 = "tosa.const"() <{value = dense<[1, 0]> : tensor<2xi32>}> : () -> tensor<2xi32>
    %3916 = tosa.transpose %arg395, %3915 : (tensor<8960x1536xf32>, tensor<2xi32>) -> tensor<1536x8960xf32>
    %3917 = tosa.reshape %3907 {new_shape = array<i64: 1, 1536>} : (tensor<1x1x1536xf32>) -> tensor<1x1536xf32>
    %cst_1027 = arith.constant dense<0.000000e+00> : tensor<1x8960xf32>
    %3918 = linalg.matmul {cast = #linalg.type_fn<cast_signed>} ins(%3917, %3916 : tensor<1x1536xf32>, tensor<1536x8960xf32>) outs(%cst_1027 : tensor<1x8960xf32>) -> tensor<1x8960xf32>
    %3919 = tosa.reshape %3918 {new_shape = array<i64: 1, 1, 8960>} : (tensor<1x8960xf32>) -> tensor<1x1x8960xf32>
    %3920 = tosa.mul %3914, %3919 : (tensor<1x1x8960xf32>, tensor<1x1x8960xf32>) -> tensor<1x1x8960xf32>
    %3921 = "tosa.const"() <{value = dense<[1, 0]> : tensor<2xi32>}> : () -> tensor<2xi32>
    %3922 = tosa.transpose %arg396, %3921 : (tensor<1536x8960xf32>, tensor<2xi32>) -> tensor<8960x1536xf32>
    %3923 = tosa.reshape %3920 {new_shape = array<i64: 1, 8960>} : (tensor<1x1x8960xf32>) -> tensor<1x8960xf32>
    %cst_1028 = arith.constant dense<0.000000e+00> : tensor<1x1536xf32>
    %3924 = linalg.matmul {cast = #linalg.type_fn<cast_signed>} ins(%3923, %3922 : tensor<1x8960xf32>, tensor<8960x1536xf32>) outs(%cst_1028 : tensor<1x1536xf32>) -> tensor<1x1536xf32>
    %3925 = tosa.reshape %3924 {new_shape = array<i64: 1, 1, 1536>} : (tensor<1x1536xf32>) -> tensor<1x1x1536xf32>
    %3926 = tosa.add %3894, %3925 : (tensor<1x1x1536xf32>, tensor<1x1x1536xf32>) -> tensor<1x1x1536xf32>
    
    
    //rms norm
    %3927 = tensor.empty() : tensor<1x1x1536xf32>
    %c2_i32_1029 = arith.constant 2 : i32
    %3928 = linalg.generic {indexing_maps = [#map, #map], iterator_types = ["parallel", "parallel", "parallel"]} ins(%3926 : tensor<1x1x1536xf32>) outs(%3927 : tensor<1x1x1536xf32>) {
    ^bb0(%in: f32, %out: f32):
      %3945 = math.fpowi %in, %c2_i32_1029 : f32, i32
      linalg.yield %3945 : f32
    } -> tensor<1x1x1536xf32>
    %3929 = tosa.reduce_sum %3928 {axis = 2 : i32} : (tensor<1x1x1536xf32>) -> tensor<1x1x1xf32>
    %3930 = "tosa.const"() <{value = dense<1.536000e+03> : tensor<1xf32>}> : () -> tensor<1xf32>
    %3931 = tosa.reciprocal %3930 : (tensor<1xf32>) -> tensor<1xf32>
    %3932 = tosa.reshape %3931 {new_shape = array<i64: 1, 1, 1>} : (tensor<1xf32>) -> tensor<1x1x1xf32>
    %3933 = tosa.mul %3932, %3929 : (tensor<1x1x1xf32>, tensor<1x1x1xf32>) -> tensor<1x1x1xf32>
    %3934 = "tosa.const"() <{value = dense<9.99999997E-7> : tensor<1x1x1xf32>}> : () -> tensor<1x1x1xf32>
    %3935 = tosa.add %3933, %3934 : (tensor<1x1x1xf32>, tensor<1x1x1xf32>) -> tensor<1x1x1xf32>
    %3936 = tosa.rsqrt %3935 : (tensor<1x1x1xf32>) -> tensor<1x1x1xf32>
    %3937 = tosa.mul %3926, %3936 : (tensor<1x1x1536xf32>, tensor<1x1x1xf32>) -> tensor<1x1x1536xf32>
    %3938 = tosa.reshape %arg397 {new_shape = array<i64: 1, 1, 1536>} : (tensor<1536xf32>) -> tensor<1x1x1536xf32>
    %3939 = tosa.mul %3938, %3937 : (tensor<1x1x1536xf32>, tensor<1x1x1536xf32>) -> tensor<1x1x1536xf32>
    // ===========================================
    // 10. FINAL OUTPUT PROJECTION LAYER
    // ===========================================
    // Project the final hidden states back to vocabulary space
    // Input: Final hidden states (1x40x1536) from last transformer layer
    // Weights: %arg341 (151936x1536) - vocabulary_size x hidden_dim
    // Output: Logits (1x40x151936) - probabilities over vocabulary
    
    %3940 = "tosa.const"() <{value = dense<[1, 0]> : tensor<2xi32>}> : () -> tensor<2xi32>
    %3941 = tosa.transpose %arg398, %3940 : (tensor<151936x1536xf32>, tensor<2xi32>) -> tensor<1536x151936xf32>
    %3942 = tosa.reshape %3939 {new_shape = array<i64: 1, 1536>} : (tensor<1x1x1536xf32>) -> tensor<1x1536xf32>
    %cst_1030 = arith.constant dense<0.000000e+00> : tensor<1x151936xf32>
    %3943 = linalg.matmul {cast = #linalg.type_fn<cast_signed>} ins(%3942, %3941 : tensor<1x1536xf32>, tensor<1536x151936xf32>) outs(%cst_1030 : tensor<1x151936xf32>) -> tensor<1x151936xf32>
    %3944 = tosa.reshape %3943 {new_shape = array<i64: 1, 1, 151936>} : (tensor<1x151936xf32>) -> tensor<1x1x151936xf32>
    return %95, %99, %234, %238, %373, %377, %512, %516, %651, %655, %790, %794, %929, %933, %1068, %1072, %1207, %1211, %1346, %1350, %1485, %1489, %1624, %1628, %1763, %1767, %1902, %1906, %2041, %2045, %2180, %2184, %2319, %2323, %2458, %2462, %2597, %2601, %2736, %2740, %2875, %2879, %3014, %3018, %3153, %3157, %3292, %3296, %3431, %3435, %3570, %3574, %3709, %3713, %3848, %3852, %3944 : tensor<1x2x1024x128xf32>, tensor<1x2x1024x128xf32>, tensor<1x2x1024x128xf32>, tensor<1x2x1024x128xf32>, tensor<1x2x1024x128xf32>, tensor<1x2x1024x128xf32>, tensor<1x2x1024x128xf32>, tensor<1x2x1024x128xf32>, tensor<1x2x1024x128xf32>, tensor<1x2x1024x128xf32>, tensor<1x2x1024x128xf32>, tensor<1x2x1024x128xf32>, tensor<1x2x1024x128xf32>, tensor<1x2x1024x128xf32>, tensor<1x2x1024x128xf32>, tensor<1x2x1024x128xf32>, tensor<1x2x1024x128xf32>, tensor<1x2x1024x128xf32>, tensor<1x2x1024x128xf32>, tensor<1x2x1024x128xf32>, tensor<1x2x1024x128xf32>, tensor<1x2x1024x128xf32>, tensor<1x2x1024x128xf32>, tensor<1x2x1024x128xf32>, tensor<1x2x1024x128xf32>, tensor<1x2x1024x128xf32>, tensor<1x2x1024x128xf32>, tensor<1x2x1024x128xf32>, tensor<1x2x1024x128xf32>, tensor<1x2x1024x128xf32>, tensor<1x2x1024x128xf32>, tensor<1x2x1024x128xf32>, tensor<1x2x1024x128xf32>, tensor<1x2x1024x128xf32>, tensor<1x2x1024x128xf32>, tensor<1x2x1024x128xf32>, tensor<1x2x1024x128xf32>, tensor<1x2x1024x128xf32>, tensor<1x2x1024x128xf32>, tensor<1x2x1024x128xf32>, tensor<1x2x1024x128xf32>, tensor<1x2x1024x128xf32>, tensor<1x2x1024x128xf32>, tensor<1x2x1024x128xf32>, tensor<1x2x1024x128xf32>, tensor<1x2x1024x128xf32>, tensor<1x2x1024x128xf32>, tensor<1x2x1024x128xf32>, tensor<1x2x1024x128xf32>, tensor<1x2x1024x128xf32>, tensor<1x2x1024x128xf32>, tensor<1x2x1024x128xf32>, tensor<1x2x1024x128xf32>, tensor<1x2x1024x128xf32>, tensor<1x2x1024x128xf32>, tensor<1x2x1024x128xf32>, tensor<1x1x151936xf32>
  }
}

