#map = affine_map<(d0, d1) -> (d0, d1)>
#map1 = affine_map<(d0, d1, d2) -> (d1)>
#map2 = affine_map<(d0, d1, d2) -> (d0, d2)>
#map3 = affine_map<(d0, d1, d2) -> (d0, d1)>
#map4 = affine_map<(d0, d1, d2) -> (d0, d1, d2)>
module {
  func.func @subgraph0(%arg0: tensor<32000x4096xf32>, %arg1: tensor<1x40xi64>, %arg2: tensor<64xf32>, %arg3: tensor<4096xf32>, %arg4: tensor<4096x4096xf32>, %arg5: tensor<4096x4096xf32>, %arg6: tensor<4096x4096xf32>, %arg7: tensor<4096x4096xf32>, %arg8: tensor<4096xf32>, %arg9: tensor<11008x4096xf32>, %arg10: tensor<11008x4096xf32>, %arg11: tensor<4096x11008xf32>, %arg12: tensor<4096xf32>, %arg13: tensor<4096x4096xf32>, %arg14: tensor<4096x4096xf32>, %arg15: tensor<4096x4096xf32>, %arg16: tensor<4096x4096xf32>, %arg17: tensor<4096xf32>, %arg18: tensor<11008x4096xf32>, %arg19: tensor<11008x4096xf32>, %arg20: tensor<4096x11008xf32>, %arg21: tensor<4096xf32>, %arg22: tensor<4096x4096xf32>, %arg23: tensor<4096x4096xf32>, %arg24: tensor<4096x4096xf32>, %arg25: tensor<4096x4096xf32>, %arg26: tensor<4096xf32>, %arg27: tensor<11008x4096xf32>, %arg28: tensor<11008x4096xf32>, %arg29: tensor<4096x11008xf32>, %arg30: tensor<4096xf32>, %arg31: tensor<4096x4096xf32>, %arg32: tensor<4096x4096xf32>, %arg33: tensor<4096x4096xf32>, %arg34: tensor<4096x4096xf32>, %arg35: tensor<4096xf32>, %arg36: tensor<11008x4096xf32>, %arg37: tensor<11008x4096xf32>, %arg38: tensor<4096x11008xf32>, %arg39: tensor<4096xf32>, %arg40: tensor<4096x4096xf32>, %arg41: tensor<4096x4096xf32>, %arg42: tensor<4096x4096xf32>, %arg43: tensor<4096x4096xf32>, %arg44: tensor<4096xf32>, %arg45: tensor<11008x4096xf32>, %arg46: tensor<11008x4096xf32>, %arg47: tensor<4096x11008xf32>, %arg48: tensor<4096xf32>, %arg49: tensor<4096x4096xf32>, %arg50: tensor<4096x4096xf32>, %arg51: tensor<4096x4096xf32>, %arg52: tensor<4096x4096xf32>, %arg53: tensor<4096xf32>, %arg54: tensor<11008x4096xf32>, %arg55: tensor<11008x4096xf32>, %arg56: tensor<4096x11008xf32>, %arg57: tensor<4096xf32>, %arg58: tensor<4096x4096xf32>, %arg59: tensor<4096x4096xf32>, %arg60: tensor<4096x4096xf32>, %arg61: tensor<4096x4096xf32>, %arg62: tensor<4096xf32>, %arg63: tensor<11008x4096xf32>, %arg64: tensor<11008x4096xf32>, %arg65: tensor<4096x11008xf32>, %arg66: tensor<4096xf32>, %arg67: tensor<4096x4096xf32>, %arg68: tensor<4096x4096xf32>, %arg69: tensor<4096x4096xf32>, %arg70: tensor<4096x4096xf32>, %arg71: tensor<4096xf32>, %arg72: tensor<11008x4096xf32>, %arg73: tensor<11008x4096xf32>, %arg74: tensor<4096x11008xf32>, %arg75: tensor<4096xf32>, %arg76: tensor<4096x4096xf32>, %arg77: tensor<4096x4096xf32>, %arg78: tensor<4096x4096xf32>, %arg79: tensor<4096x4096xf32>, %arg80: tensor<4096xf32>, %arg81: tensor<11008x4096xf32>, %arg82: tensor<11008x4096xf32>, %arg83: tensor<4096x11008xf32>, %arg84: tensor<4096xf32>, %arg85: tensor<4096x4096xf32>, %arg86: tensor<4096x4096xf32>, %arg87: tensor<4096x4096xf32>, %arg88: tensor<4096x4096xf32>, %arg89: tensor<4096xf32>, %arg90: tensor<11008x4096xf32>, %arg91: tensor<11008x4096xf32>, %arg92: tensor<4096x11008xf32>, %arg93: tensor<4096xf32>, %arg94: tensor<4096x4096xf32>, %arg95: tensor<4096x4096xf32>, %arg96: tensor<4096x4096xf32>, %arg97: tensor<4096x4096xf32>, %arg98: tensor<4096xf32>, %arg99: tensor<11008x4096xf32>, %arg100: tensor<11008x4096xf32>, %arg101: tensor<4096x11008xf32>, %arg102: tensor<4096xf32>, %arg103: tensor<4096x4096xf32>, %arg104: tensor<4096x4096xf32>, %arg105: tensor<4096x4096xf32>, %arg106: tensor<4096x4096xf32>, %arg107: tensor<4096xf32>, %arg108: tensor<11008x4096xf32>, %arg109: tensor<11008x4096xf32>, %arg110: tensor<4096x11008xf32>, %arg111: tensor<4096xf32>, %arg112: tensor<4096x4096xf32>, %arg113: tensor<4096x4096xf32>, %arg114: tensor<4096x4096xf32>, %arg115: tensor<4096x4096xf32>, %arg116: tensor<4096xf32>, %arg117: tensor<11008x4096xf32>, %arg118: tensor<11008x4096xf32>, %arg119: tensor<4096x11008xf32>, %arg120: tensor<4096xf32>, %arg121: tensor<4096x4096xf32>, %arg122: tensor<4096x4096xf32>, %arg123: tensor<4096x4096xf32>, %arg124: tensor<4096x4096xf32>, %arg125: tensor<4096xf32>, %arg126: tensor<11008x4096xf32>, %arg127: tensor<11008x4096xf32>, %arg128: tensor<4096x11008xf32>, %arg129: tensor<4096xf32>, %arg130: tensor<4096x4096xf32>, %arg131: tensor<4096x4096xf32>, %arg132: tensor<4096x4096xf32>, %arg133: tensor<4096x4096xf32>, %arg134: tensor<4096xf32>, %arg135: tensor<11008x4096xf32>, %arg136: tensor<11008x4096xf32>, %arg137: tensor<4096x11008xf32>, %arg138: tensor<4096xf32>, %arg139: tensor<4096x4096xf32>, %arg140: tensor<4096x4096xf32>, %arg141: tensor<4096x4096xf32>, %arg142: tensor<4096x4096xf32>, %arg143: tensor<4096xf32>, %arg144: tensor<11008x4096xf32>, %arg145: tensor<11008x4096xf32>, %arg146: tensor<4096x11008xf32>, %arg147: tensor<4096xf32>, %arg148: tensor<4096x4096xf32>, %arg149: tensor<4096x4096xf32>, %arg150: tensor<4096x4096xf32>, %arg151: tensor<4096x4096xf32>, %arg152: tensor<4096xf32>, %arg153: tensor<11008x4096xf32>, %arg154: tensor<11008x4096xf32>, %arg155: tensor<4096x11008xf32>, %arg156: tensor<4096xf32>, %arg157: tensor<4096x4096xf32>, %arg158: tensor<4096x4096xf32>, %arg159: tensor<4096x4096xf32>, %arg160: tensor<4096x4096xf32>, %arg161: tensor<4096xf32>, %arg162: tensor<11008x4096xf32>, %arg163: tensor<11008x4096xf32>, %arg164: tensor<4096x11008xf32>, %arg165: tensor<4096xf32>, %arg166: tensor<4096x4096xf32>, %arg167: tensor<4096x4096xf32>, %arg168: tensor<4096x4096xf32>, %arg169: tensor<4096x4096xf32>, %arg170: tensor<4096xf32>, %arg171: tensor<11008x4096xf32>, %arg172: tensor<11008x4096xf32>, %arg173: tensor<4096x11008xf32>, %arg174: tensor<4096xf32>, %arg175: tensor<4096x4096xf32>, %arg176: tensor<4096x4096xf32>, %arg177: tensor<4096x4096xf32>, %arg178: tensor<4096x4096xf32>, %arg179: tensor<4096xf32>, %arg180: tensor<11008x4096xf32>, %arg181: tensor<11008x4096xf32>, %arg182: tensor<4096x11008xf32>, %arg183: tensor<4096xf32>, %arg184: tensor<4096x4096xf32>, %arg185: tensor<4096x4096xf32>, %arg186: tensor<4096x4096xf32>, %arg187: tensor<4096x4096xf32>, %arg188: tensor<4096xf32>, %arg189: tensor<11008x4096xf32>, %arg190: tensor<11008x4096xf32>, %arg191: tensor<4096x11008xf32>, %arg192: tensor<4096xf32>, %arg193: tensor<4096x4096xf32>, %arg194: tensor<4096x4096xf32>, %arg195: tensor<4096x4096xf32>, %arg196: tensor<4096x4096xf32>, %arg197: tensor<4096xf32>, %arg198: tensor<11008x4096xf32>, %arg199: tensor<11008x4096xf32>, %arg200: tensor<4096x11008xf32>, %arg201: tensor<4096xf32>, %arg202: tensor<4096x4096xf32>, %arg203: tensor<4096x4096xf32>, %arg204: tensor<4096x4096xf32>, %arg205: tensor<4096x4096xf32>, %arg206: tensor<4096xf32>, %arg207: tensor<11008x4096xf32>, %arg208: tensor<11008x4096xf32>, %arg209: tensor<4096x11008xf32>, %arg210: tensor<4096xf32>, %arg211: tensor<4096x4096xf32>, %arg212: tensor<4096x4096xf32>, %arg213: tensor<4096x4096xf32>, %arg214: tensor<4096x4096xf32>, %arg215: tensor<4096xf32>, %arg216: tensor<11008x4096xf32>, %arg217: tensor<11008x4096xf32>, %arg218: tensor<4096x11008xf32>, %arg219: tensor<4096xf32>, %arg220: tensor<4096x4096xf32>, %arg221: tensor<4096x4096xf32>, %arg222: tensor<4096x4096xf32>, %arg223: tensor<4096x4096xf32>, %arg224: tensor<4096xf32>, %arg225: tensor<11008x4096xf32>, %arg226: tensor<11008x4096xf32>, %arg227: tensor<4096x11008xf32>, %arg228: tensor<4096xf32>, %arg229: tensor<4096x4096xf32>, %arg230: tensor<4096x4096xf32>, %arg231: tensor<4096x4096xf32>, %arg232: tensor<4096x4096xf32>, %arg233: tensor<4096xf32>, %arg234: tensor<11008x4096xf32>, %arg235: tensor<11008x4096xf32>, %arg236: tensor<4096x11008xf32>, %arg237: tensor<4096xf32>, %arg238: tensor<4096x4096xf32>, %arg239: tensor<4096x4096xf32>, %arg240: tensor<4096x4096xf32>, %arg241: tensor<4096x4096xf32>, %arg242: tensor<4096xf32>, %arg243: tensor<11008x4096xf32>, %arg244: tensor<11008x4096xf32>, %arg245: tensor<4096x11008xf32>, %arg246: tensor<4096xf32>, %arg247: tensor<4096x4096xf32>, %arg248: tensor<4096x4096xf32>, %arg249: tensor<4096x4096xf32>, %arg250: tensor<4096x4096xf32>, %arg251: tensor<4096xf32>, %arg252: tensor<11008x4096xf32>, %arg253: tensor<11008x4096xf32>, %arg254: tensor<4096x11008xf32>, %arg255: tensor<4096xf32>, %arg256: tensor<4096x4096xf32>, %arg257: tensor<4096x4096xf32>, %arg258: tensor<4096x4096xf32>, %arg259: tensor<4096x4096xf32>, %arg260: tensor<4096xf32>, %arg261: tensor<11008x4096xf32>, %arg262: tensor<11008x4096xf32>, %arg263: tensor<4096x11008xf32>, %arg264: tensor<4096xf32>, %arg265: tensor<4096x4096xf32>, %arg266: tensor<4096x4096xf32>, %arg267: tensor<4096x4096xf32>, %arg268: tensor<4096x4096xf32>, %arg269: tensor<4096xf32>, %arg270: tensor<11008x4096xf32>, %arg271: tensor<11008x4096xf32>, %arg272: tensor<4096x11008xf32>, %arg273: tensor<4096xf32>, %arg274: tensor<4096x4096xf32>, %arg275: tensor<4096x4096xf32>, %arg276: tensor<4096x4096xf32>, %arg277: tensor<4096x4096xf32>, %arg278: tensor<4096xf32>, %arg279: tensor<11008x4096xf32>, %arg280: tensor<11008x4096xf32>, %arg281: tensor<4096x11008xf32>, %arg282: tensor<4096xf32>, %arg283: tensor<4096x4096xf32>, %arg284: tensor<4096x4096xf32>, %arg285: tensor<4096x4096xf32>, %arg286: tensor<4096x4096xf32>, %arg287: tensor<4096xf32>, %arg288: tensor<11008x4096xf32>, %arg289: tensor<11008x4096xf32>, %arg290: tensor<4096x11008xf32>, %arg291: tensor<4096xf32>, %arg292: tensor<32000x4096xf32>) -> tensor<1x40x32000xf32> {
    %0 = tosa.cast %arg1 : (tensor<1x40xi64>) -> tensor<1x40xi32>
    %1 = tosa.reshape %arg0 {new_shape = array<i64: 1, 32000, 4096>} : (tensor<32000x4096xf32>) -> tensor<1x32000x4096xf32>
    %2 = tosa.gather %1, %0 : (tensor<1x32000x4096xf32>, tensor<1x40xi32>) -> tensor<1x40x4096xf32>
    %3 = tosa.reshape %2 {new_shape = array<i64: 1, 40, 4096>} : (tensor<1x40x4096xf32>) -> tensor<1x40x4096xf32>
    %4 = "tosa.const"() <{value = dense<[0, 1, 2, 3, 4, 5, 6, 7, 8, 9, 10, 11, 12, 13, 14, 15, 16, 17, 18, 19, 20, 21, 22, 23, 24, 25, 26, 27, 28, 29, 30, 31, 32, 33, 34, 35, 36, 37, 38, 39]> : tensor<40xi64>}> : () -> tensor<40xi64>
    %5 = tosa.reshape %4 {new_shape = array<i64: 1, 40>} : (tensor<40xi64>) -> tensor<1x40xi64>
    %cst = arith.constant dense<-3.40282347E+38> : tensor<40x41xf32>
    %6 = "tosa.const"() <{value = dense<[0, 1, 2, 3, 4, 5, 6, 7, 8, 9, 10, 11, 12, 13, 14, 15, 16, 17, 18, 19, 20, 21, 22, 23, 24, 25, 26, 27, 28, 29, 30, 31, 32, 33, 34, 35, 36, 37, 38, 39, 40]> : tensor<41xi64>}> : () -> tensor<41xi64>
    %7 = tosa.reshape %6 {new_shape = array<i64: 1, 41>} : (tensor<41xi64>) -> tensor<1x41xi64>
    %8 = "tosa.const"() <{value = dense<[0, 1, 2, 3, 4, 5, 6, 7, 8, 9, 10, 11, 12, 13, 14, 15, 16, 17, 18, 19, 20, 21, 22, 23, 24, 25, 26, 27, 28, 29, 30, 31, 32, 33, 34, 35, 36, 37, 38, 39]> : tensor<40xi64>}> : () -> tensor<40xi64>
    %9 = tosa.reshape %8 {new_shape = array<i64: 40, 1>} : (tensor<40xi64>) -> tensor<40x1xi64>
    %10 = tosa.sub %7, %9 : (tensor<1x41xi64>, tensor<40x1xi64>) -> tensor<40x41xi64>
    %c1_i64 = arith.constant 1 : i64
    %splat = tensor.splat %c1_i64 : tensor<40x41xi64>
    %11 = arith.cmpi sge, %10, %splat : tensor<40x41xi64>
    %cst_0 = arith.constant 0.000000e+00 : f32
    %12 = tensor.empty() : tensor<40x41xf32>
    %splat_1 = tensor.splat %cst_0 : tensor<40x41xf32>
    %13 = linalg.generic {indexing_maps = [#map, #map, #map, #map], iterator_types = ["parallel", "parallel"]} ins(%11, %cst, %splat_1 : tensor<40x41xi1>, tensor<40x41xf32>, tensor<40x41xf32>) outs(%12 : tensor<40x41xf32>) {
    ^bb0(%in: i1, %in_873: f32, %in_874: f32, %out: f32):
      %3745 = arith.select %in, %in_873, %in_874 : f32
      linalg.yield %3745 : f32
    } -> tensor<40x41xf32>
    %14 = "tosa.const"() <{value = dense<[0, 1, 2, 3, 4, 5, 6, 7, 8, 9, 10, 11, 12, 13, 14, 15, 16, 17, 18, 19, 20, 21, 22, 23, 24, 25, 26, 27, 28, 29, 30, 31, 32, 33, 34, 35, 36, 37, 38, 39, 40]> : tensor<41xi64>}> : () -> tensor<41xi64>
    %15 = tosa.reshape %4 {new_shape = array<i64: 40, 1>} : (tensor<40xi64>) -> tensor<40x1xi64>
    %16 = tensor.empty() : tensor<40x41xi1>
    %17 = linalg.generic {indexing_maps = [#map1, #map2, #map3], iterator_types = ["parallel", "parallel", "reduction"]} ins(%14, %15 : tensor<41xi64>, tensor<40x1xi64>) outs(%16 : tensor<40x41xi1>) {
    ^bb0(%in: i64, %in_873: i64, %out: i1):
      %3745 = arith.cmpi sgt, %in, %in_873 : i64
      linalg.yield %3745 : i1
    } -> tensor<40x41xi1>
    %18 = tosa.cast %17 : (tensor<40x41xi1>) -> tensor<40x41xf32>
    %19 = tosa.mul %13, %18 {shift = 0 : i8} : (tensor<40x41xf32>, tensor<40x41xf32>) -> tensor<40x41xf32> // *******
    %20 = tosa.reshape %arg2 {new_shape = array<i64: 1, 64>} : (tensor<64xf32>) -> tensor<1x64xf32>
    %extracted_slice = tensor.extract_slice %20[0, 0] [1, 64] [1, 1] : tensor<1x64xf32> to tensor<1x64xf32>
    %21 = tosa.reshape %extracted_slice {new_shape = array<i64: 1, 64, 1>} : (tensor<1x64xf32>) -> tensor<1x64x1xf32>
    %22 = "tosa.const"() <{value = dense<0.000000e+00> : tensor<1x64x1xf32>}> : () -> tensor<1x64x1xf32>
    %23 = tosa.add %21, %22 : (tensor<1x64x1xf32>, tensor<1x64x1xf32>) -> tensor<1x64x1xf32>
    %extracted_slice_2 = tensor.extract_slice %5[0, 0] [1, 40] [1, 1] : tensor<1x40xi64> to tensor<1x40xi64>
    %24 = tosa.reshape %extracted_slice_2 {new_shape = array<i64: 1, 1, 40>} : (tensor<1x40xi64>) -> tensor<1x1x40xi64>
    %extracted_slice_3 = tensor.extract_slice %24[0, 0, 0] [1, 1, 40] [1, 1, 1] : tensor<1x1x40xi64> to tensor<1x1x40xi64>
    %25 = tosa.cast %extracted_slice_3 : (tensor<1x1x40xi64>) -> tensor<1x1x40xf32>
    %26 = "tosa.const"() <{value = dense<0.000000e+00> : tensor<1x64x1xf32>}> : () -> tensor<1x64x1xf32>
    %27 = tosa.add %23, %26 : (tensor<1x64x1xf32>, tensor<1x64x1xf32>) -> tensor<1x64x1xf32>
    %28 = tosa.reshape %27 {new_shape = array<i64: 1, 64, 1>} : (tensor<1x64x1xf32>) -> tensor<1x64x1xf32>
    %29 = "tosa.const"() <{value = dense<0.000000e+00> : tensor<1x1x40xf32>}> : () -> tensor<1x1x40xf32>
    %30 = tosa.add %25, %29 : (tensor<1x1x40xf32>, tensor<1x1x40xf32>) -> tensor<1x1x40xf32>
    %31 = tosa.reshape %30 {new_shape = array<i64: 1, 1, 40>} : (tensor<1x1x40xf32>) -> tensor<1x1x40xf32>
    %32 = tosa.matmul %28, %31 : (tensor<1x64x1xf32>, tensor<1x1x40xf32>) -> tensor<1x64x40xf32>
    %33 = tosa.reshape %32 {new_shape = array<i64: 1, 64, 40>} : (tensor<1x64x40xf32>) -> tensor<1x64x40xf32>
    %34 = "tosa.const"() <{value = dense<[0, 2, 1]> : tensor<3xi32>}> : () -> tensor<3xi32>
    %35 = tosa.transpose %33, %34 : (tensor<1x64x40xf32>, tensor<3xi32>) -> tensor<1x40x64xf32>
    %36 = tosa.reshape %35 {new_shape = array<i64: 1, 40, 1, 64>} : (tensor<1x40x64xf32>) -> tensor<1x40x1x64xf32>
    %37 = "tosa.const"() <{value = dense<0.000000e+00> : tensor<1x40x2x64xf32>}> : () -> tensor<1x40x2x64xf32>
    %38 = tosa.add %36, %37 : (tensor<1x40x1x64xf32>, tensor<1x40x2x64xf32>) -> tensor<1x40x2x64xf32>
    %39 = tosa.identity %38 : (tensor<1x40x2x64xf32>) -> tensor<1x40x2x64xf32>
    %40 = tosa.reshape %39 {new_shape = array<i64: 1, 40, 128>} : (tensor<1x40x2x64xf32>) -> tensor<1x40x128xf32>
    %41 = tosa.identity %40 : (tensor<1x40x128xf32>) -> tensor<1x40x128xf32>
    %42 = math.cos %41 : tensor<1x40x128xf32>
    %43 = math.sin %41 : tensor<1x40x128xf32>
    %cst_4 = arith.constant dense<1.000000e+00> : tensor<1xf32>
    %44 = tosa.reshape %cst_4 {new_shape = array<i64: 1, 1, 1>} : (tensor<1xf32>) -> tensor<1x1x1xf32>
    %45 = tosa.mul %42, %44 {shift = 0 : i8} : (tensor<1x40x128xf32>, tensor<1x1x1xf32>) -> tensor<1x40x128xf32>  // ***************
    %cst_5 = arith.constant dense<1.000000e+00> : tensor<1xf32>
    %46 = tosa.reshape %cst_5 {new_shape = array<i64: 1, 1, 1>} : (tensor<1xf32>) -> tensor<1x1x1xf32>
    %47 = tosa.mul %43, %46 {shift = 0 : i8} : (tensor<1x40x128xf32>, tensor<1x1x1xf32>) -> tensor<1x40x128xf32>  // ***************
    %48 = tensor.empty() : tensor<1x40x4096xf32>
    %c2_i32 = arith.constant 2 : i32
    %49 = linalg.generic {indexing_maps = [#map4, #map4], iterator_types = ["parallel", "parallel", "parallel"]} ins(%3 : tensor<1x40x4096xf32>) outs(%48 : tensor<1x40x4096xf32>) {
    ^bb0(%in: f32, %out: f32):
      %3745 = math.fpowi %in, %c2_i32 : f32, i32
      linalg.yield %3745 : f32
    } -> tensor<1x40x4096xf32>
    %50 = tosa.reduce_sum %49 {axis = 2 : i32} : (tensor<1x40x4096xf32>) -> tensor<1x40x1xf32>
    %51 = "tosa.const"() <{value = dense<4.096000e+03> : tensor<1xf32>}> : () -> tensor<1xf32>
    %52 = tosa.reciprocal %51 : (tensor<1xf32>) -> tensor<1xf32>
    %53 = tosa.mul %52, %50 {shift = 0 : i8} : (tensor<1xf32>, tensor<1x40x1xf32>) -> tensor<1x40x1xf32>
    %54 = "tosa.const"() <{value = dense<9.99999974E-6> : tensor<1x40x1xf32>}> : () -> tensor<1x40x1xf32>
    %55 = tosa.add %53, %54 : (tensor<1x40x1xf32>, tensor<1x40x1xf32>) -> tensor<1x40x1xf32>
    %56 = tosa.rsqrt %55 : (tensor<1x40x1xf32>) -> tensor<1x40x1xf32>
    %57 = tosa.mul %3, %56 {shift = 0 : i8} : (tensor<1x40x4096xf32>, tensor<1x40x1xf32>) -> tensor<1x40x4096xf32>
    %58 = tosa.reshape %arg3 {new_shape = array<i64: 1, 1, 4096>} : (tensor<4096xf32>) -> tensor<1x1x4096xf32>
    %59 = tosa.mul %58, %57 {shift = 0 : i8} : (tensor<1x1x4096xf32>, tensor<1x40x4096xf32>) -> tensor<1x40x4096xf32>
    %60 = "tosa.const"() <{value = dense<[1, 0]> : tensor<2xi32>}> : () -> tensor<2xi32>
    %61 = tosa.transpose %arg4, %60 : (tensor<4096x4096xf32>, tensor<2xi32>) -> tensor<4096x4096xf32>
    %62 = tosa.reshape %59 {new_shape = array<i64: 40, 4096>} : (tensor<1x40x4096xf32>) -> tensor<40x4096xf32>
    %cst_6 = arith.constant dense<0.000000e+00> : tensor<40x4096xf32>
    %63 = linalg.matmul {cast = #linalg.type_fn<cast_signed>} ins(%62, %61 : tensor<40x4096xf32>, tensor<4096x4096xf32>) outs(%cst_6 : tensor<40x4096xf32>) -> tensor<40x4096xf32>
    %64 = tosa.reshape %63 {new_shape = array<i64: 1, 40, 4096>} : (tensor<40x4096xf32>) -> tensor<1x40x4096xf32>
    %65 = "tosa.const"() <{value = dense<[1, 0]> : tensor<2xi32>}> : () -> tensor<2xi32>
    %66 = tosa.transpose %arg5, %65 : (tensor<4096x4096xf32>, tensor<2xi32>) -> tensor<4096x4096xf32>
    %67 = tosa.reshape %59 {new_shape = array<i64: 40, 4096>} : (tensor<1x40x4096xf32>) -> tensor<40x4096xf32>
    %cst_7 = arith.constant dense<0.000000e+00> : tensor<40x4096xf32>
    %68 = linalg.matmul {cast = #linalg.type_fn<cast_signed>} ins(%67, %66 : tensor<40x4096xf32>, tensor<4096x4096xf32>) outs(%cst_7 : tensor<40x4096xf32>) -> tensor<40x4096xf32>
    %69 = tosa.reshape %68 {new_shape = array<i64: 1, 40, 4096>} : (tensor<40x4096xf32>) -> tensor<1x40x4096xf32>
    %70 = "tosa.const"() <{value = dense<[1, 0]> : tensor<2xi32>}> : () -> tensor<2xi32>
    %71 = tosa.transpose %arg6, %70 : (tensor<4096x4096xf32>, tensor<2xi32>) -> tensor<4096x4096xf32>
    %72 = tosa.reshape %59 {new_shape = array<i64: 40, 4096>} : (tensor<1x40x4096xf32>) -> tensor<40x4096xf32>
    %cst_8 = arith.constant dense<0.000000e+00> : tensor<40x4096xf32>
    %73 = linalg.matmul {cast = #linalg.type_fn<cast_signed>} ins(%72, %71 : tensor<40x4096xf32>, tensor<4096x4096xf32>) outs(%cst_8 : tensor<40x4096xf32>) -> tensor<40x4096xf32>
    %74 = tosa.reshape %73 {new_shape = array<i64: 1, 40, 4096>} : (tensor<40x4096xf32>) -> tensor<1x40x4096xf32>
    %75 = tosa.reshape %64 {new_shape = array<i64: 1, 40, 32, 128>} : (tensor<1x40x4096xf32>) -> tensor<1x40x32x128xf32>
    %76 = "tosa.const"() <{value = dense<[0, 2, 1, 3]> : tensor<4xi32>}> : () -> tensor<4xi32>
    %77 = tosa.transpose %75, %76 : (tensor<1x40x32x128xf32>, tensor<4xi32>) -> tensor<1x32x40x128xf32>
    %78 = tosa.reshape %69 {new_shape = array<i64: 1, 40, 32, 128>} : (tensor<1x40x4096xf32>) -> tensor<1x40x32x128xf32>
    %79 = "tosa.const"() <{value = dense<[0, 2, 1, 3]> : tensor<4xi32>}> : () -> tensor<4xi32>
    %80 = tosa.transpose %78, %79 : (tensor<1x40x32x128xf32>, tensor<4xi32>) -> tensor<1x32x40x128xf32>
    %81 = tosa.reshape %74 {new_shape = array<i64: 1, 40, 32, 128>} : (tensor<1x40x4096xf32>) -> tensor<1x40x32x128xf32>
    %82 = "tosa.const"() <{value = dense<[0, 2, 1, 3]> : tensor<4xi32>}> : () -> tensor<4xi32>
    %83 = tosa.transpose %81, %82 : (tensor<1x40x32x128xf32>, tensor<4xi32>) -> tensor<1x32x40x128xf32>
    %84 = tosa.reshape %45 {new_shape = array<i64: 1, 1, 40, 128>} : (tensor<1x40x128xf32>) -> tensor<1x1x40x128xf32>
    %85 = tosa.reshape %47 {new_shape = array<i64: 1, 1, 40, 128>} : (tensor<1x40x128xf32>) -> tensor<1x1x40x128xf32>
    %86 = tosa.mul %77, %84 {shift = 0 : i8} : (tensor<1x32x40x128xf32>, tensor<1x1x40x128xf32>) -> tensor<1x32x40x128xf32>
    %extracted_slice_9 = tensor.extract_slice %77[0, 0, 0, 0] [1, 32, 40, 64] [1, 1, 1, 1] : tensor<1x32x40x128xf32> to tensor<1x32x40x64xf32>
    %extracted_slice_10 = tensor.extract_slice %77[0, 0, 0, 64] [1, 32, 40, 64] [1, 1, 1, 1] : tensor<1x32x40x128xf32> to tensor<1x32x40x64xf32>
    %87 = tensor.empty() : tensor<1x32x40x64xf32>
    %88 = linalg.negf ins(%extracted_slice_10 : tensor<1x32x40x64xf32>) outs(%87 : tensor<1x32x40x64xf32>) -> tensor<1x32x40x64xf32>
    %89 = tensor.empty() : tensor<1x32x40x128xf32>
    %inserted_slice = tensor.insert_slice %88 into %89[0, 0, 0, 0] [1, 32, 40, 64] [1, 1, 1, 1] : tensor<1x32x40x64xf32> into tensor<1x32x40x128xf32>
    %inserted_slice_11 = tensor.insert_slice %extracted_slice_9 into %inserted_slice[0, 0, 0, 64] [1, 32, 40, 64] [1, 1, 1, 1] : tensor<1x32x40x64xf32> into tensor<1x32x40x128xf32>
    %90 = tosa.mul %inserted_slice_11, %85 {shift = 0 : i8} : (tensor<1x32x40x128xf32>, tensor<1x1x40x128xf32>) -> tensor<1x32x40x128xf32>
    %91 = tosa.add %86, %90 : (tensor<1x32x40x128xf32>, tensor<1x32x40x128xf32>) -> tensor<1x32x40x128xf32>
    %92 = tosa.mul %80, %84 {shift = 0 : i8} : (tensor<1x32x40x128xf32>, tensor<1x1x40x128xf32>) -> tensor<1x32x40x128xf32>
    %extracted_slice_12 = tensor.extract_slice %80[0, 0, 0, 0] [1, 32, 40, 64] [1, 1, 1, 1] : tensor<1x32x40x128xf32> to tensor<1x32x40x64xf32>
    %extracted_slice_13 = tensor.extract_slice %80[0, 0, 0, 64] [1, 32, 40, 64] [1, 1, 1, 1] : tensor<1x32x40x128xf32> to tensor<1x32x40x64xf32>
    %93 = tensor.empty() : tensor<1x32x40x64xf32>
    %94 = linalg.negf ins(%extracted_slice_13 : tensor<1x32x40x64xf32>) outs(%93 : tensor<1x32x40x64xf32>) -> tensor<1x32x40x64xf32>
    %95 = tensor.empty() : tensor<1x32x40x128xf32>
    %inserted_slice_14 = tensor.insert_slice %94 into %95[0, 0, 0, 0] [1, 32, 40, 64] [1, 1, 1, 1] : tensor<1x32x40x64xf32> into tensor<1x32x40x128xf32>
    %inserted_slice_15 = tensor.insert_slice %extracted_slice_12 into %inserted_slice_14[0, 0, 0, 64] [1, 32, 40, 64] [1, 1, 1, 1] : tensor<1x32x40x64xf32> into tensor<1x32x40x128xf32>
    %96 = tosa.mul %inserted_slice_15, %85 {shift = 0 : i8} : (tensor<1x32x40x128xf32>, tensor<1x1x40x128xf32>) -> tensor<1x32x40x128xf32>
    %97 = tosa.add %92, %96 : (tensor<1x32x40x128xf32>, tensor<1x32x40x128xf32>) -> tensor<1x32x40x128xf32>
    %98 = tosa.reshape %19 {new_shape = array<i64: 1, 40, 41>} : (tensor<40x41xf32>) -> tensor<1x40x41xf32>
    %99 = tosa.reshape %98 {new_shape = array<i64: 1, 1, 40, 41>} : (tensor<1x40x41xf32>) -> tensor<1x1x40x41xf32>
    %extracted_slice_16 = tensor.extract_slice %99[0, 0, 0, 0] [1, 1, 40, 41] [1, 1, 1, 1] : tensor<1x1x40x41xf32> to tensor<1x1x40x41xf32>
    %extracted_slice_17 = tensor.extract_slice %extracted_slice_16[0, 0, 0, 0] [1, 1, 40, 41] [1, 1, 1, 1] : tensor<1x1x40x41xf32> to tensor<1x1x40x41xf32>
    %100 = "tosa.const"() <{value = dense<0.000000e+00> : tensor<1x1x40x41xf32>}> : () -> tensor<1x1x40x41xf32>
    %101 = tosa.add %extracted_slice_17, %100 : (tensor<1x1x40x41xf32>, tensor<1x1x40x41xf32>) -> tensor<1x1x40x41xf32>
    %extracted_slice_18 = tensor.extract_slice %101[0, 0, 0, 0] [1, 1, 40, 41] [1, 1, 1, 1] : tensor<1x1x40x41xf32> to tensor<1x1x40x41xf32>
    %extracted_slice_19 = tensor.extract_slice %extracted_slice_18[0, 0, 0, 0] [1, 1, 40, 41] [1, 1, 1, 1] : tensor<1x1x40x41xf32> to tensor<1x1x40x41xf32>
    %extracted_slice_20 = tensor.extract_slice %extracted_slice_19[0, 0, 0, 0] [1, 1, 40, 41] [1, 1, 1, 1] : tensor<1x1x40x41xf32> to tensor<1x1x40x41xf32>
    %extracted_slice_21 = tensor.extract_slice %extracted_slice_20[0, 0, 0, 0] [1, 1, 40, 40] [1, 1, 1, 1] : tensor<1x1x40x41xf32> to tensor<1x1x40x40xf32>
    %cst_22 = arith.constant 0.000000e+00 : f32
    %splat_23 = tensor.splat %cst_22 : tensor<40x40xf32>
    %102 = tosa.reshape %extracted_slice_21 {new_shape = array<i64: 40, 40>} : (tensor<1x1x40x40xf32>) -> tensor<40x40xf32>
    %103 = tosa.add %splat_23, %102 : (tensor<40x40xf32>, tensor<40x40xf32>) -> tensor<40x40xf32>
    %104 = "tosa.const"() <{value = dense<[0, 1, 3, 2]> : tensor<4xi32>}> : () -> tensor<4xi32>
    %105 = tosa.transpose %97, %104 : (tensor<1x32x40x128xf32>, tensor<4xi32>) -> tensor<1x32x128x40xf32>
    %106 = tosa.reshape %91 {new_shape = array<i64: 32, 40, 128>} : (tensor<1x32x40x128xf32>) -> tensor<32x40x128xf32>
    %107 = tosa.reshape %105 {new_shape = array<i64: 32, 128, 40>} : (tensor<1x32x128x40xf32>) -> tensor<32x128x40xf32>
    %108 = tosa.matmul %106, %107 : (tensor<32x40x128xf32>, tensor<32x128x40xf32>) -> tensor<32x40x40xf32>
    %cst_24 = arith.constant 0.0883883461 : f32
    %splat_25 = tensor.splat %cst_24 : tensor<32x40x40xf32>
    %109 = tosa.mul %108, %splat_25 {shift = 0 : i8} : (tensor<32x40x40xf32>, tensor<32x40x40xf32>) -> tensor<32x40x40xf32>
    %110 = tosa.add %109, %103 : (tensor<32x40x40xf32>, tensor<40x40xf32>) -> tensor<32x40x40xf32>
    %111 = tosa.reduce_max %110 {axis = 2 : i32} : (tensor<32x40x40xf32>) -> tensor<32x40x1xf32>
    %112 = tosa.sub %110, %111 : (tensor<32x40x40xf32>, tensor<32x40x1xf32>) -> tensor<32x40x40xf32>
    %113 = math.exp %112 : tensor<32x40x40xf32>
    %114 = tosa.reduce_sum %113 {axis = 2 : i32} : (tensor<32x40x40xf32>) -> tensor<32x40x1xf32>
    %115 = tosa.log %114 : (tensor<32x40x1xf32>) -> tensor<32x40x1xf32>
    %116 = tosa.add %111, %115 : (tensor<32x40x1xf32>, tensor<32x40x1xf32>) -> tensor<32x40x1xf32>
    %117 = tosa.sub %110, %116 : (tensor<32x40x40xf32>, tensor<32x40x1xf32>) -> tensor<32x40x40xf32>
    %118 = math.exp %117 : tensor<32x40x40xf32>
    %119 = tosa.reshape %116 {new_shape = array<i64: 1, 32, 40>} : (tensor<32x40x1xf32>) -> tensor<1x32x40xf32>
    %120 = tosa.reshape %83 {new_shape = array<i64: 32, 40, 128>} : (tensor<1x32x40x128xf32>) -> tensor<32x40x128xf32>
    %121 = tosa.matmul %118, %120 : (tensor<32x40x40xf32>, tensor<32x40x128xf32>) -> tensor<32x40x128xf32>
    %130 = tosa.reshape %129 {new_shape = array<i64: 1, 40, 4096>} : (tensor<40x4096xf32>) -> tensor<1x40x4096xf32>
    %131 = tosa.add %3, %130 : (tensor<1x40x4096xf32>, tensor<1x40x4096xf32>) -> tensor<1x40x4096xf32>
    %132 = tensor.empty() : tensor<1x40x4096xf32>
    %c2_i32_27 = arith.constant 2 : i32
    %133 = linalg.generic {indexing_maps = [#map4, #map4], iterator_types = ["parallel", "parallel", "parallel"]} ins(%131 : tensor<1x40x4096xf32>) outs(%132 : tensor<1x40x4096xf32>) {
    ^bb0(%in: f32, %out: f32):
      %3745 = math.fpowi %in, %c2_i32_27 : f32, i32
      linalg.yield %3745 : f32
    } -> tensor<1x40x4096xf32>
    %134 = tosa.reduce_sum %133 {axis = 2 : i32} : (tensor<1x40x4096xf32>) -> tensor<1x40x1xf32>
    %135 = "tosa.const"() <{value = dense<4.096000e+03> : tensor<1xf32>}> : () -> tensor<1xf32>
    %136 = tosa.reciprocal %135 : (tensor<1xf32>) -> tensor<1xf32>
    %137 = tosa.mul %136, %134 {shift = 0 : i8} : (tensor<1xf32>, tensor<1x40x1xf32>) -> tensor<1x40x1xf32>
    %138 = "tosa.const"() <{value = dense<9.99999974E-6> : tensor<1x40x1xf32>}> : () -> tensor<1x40x1xf32>
    %139 = tosa.add %137, %138 : (tensor<1x40x1xf32>, tensor<1x40x1xf32>) -> tensor<1x40x1xf32>
    %140 = tosa.rsqrt %139 : (tensor<1x40x1xf32>) -> tensor<1x40x1xf32>
    %141 = tosa.mul %131, %140 {shift = 0 : i8} : (tensor<1x40x4096xf32>, tensor<1x40x1xf32>) -> tensor<1x40x4096xf32>
    %142 = tosa.reshape %arg8 {new_shape = array<i64: 1, 1, 4096>} : (tensor<4096xf32>) -> tensor<1x1x4096xf32>
    %143 = tosa.mul %142, %141 {shift = 0 : i8} : (tensor<1x1x4096xf32>, tensor<1x40x4096xf32>) -> tensor<1x40x4096xf32>
    %144 = "tosa.const"() <{value = dense<[1, 0]> : tensor<2xi32>}> : () -> tensor<2xi32>
    %145 = tosa.transpose %arg9, %144 : (tensor<11008x4096xf32>, tensor<2xi32>) -> tensor<4096x11008xf32>
    %146 = tosa.reshape %143 {new_shape = array<i64: 40, 4096>} : (tensor<1x40x4096xf32>) -> tensor<40x4096xf32>
    %cst_28 = arith.constant dense<0.000000e+00> : tensor<40x11008xf32>
    %147 = linalg.matmul {cast = #linalg.type_fn<cast_signed>} ins(%146, %145 : tensor<40x4096xf32>, tensor<4096x11008xf32>) outs(%cst_28 : tensor<40x11008xf32>) -> tensor<40x11008xf32>
    %148 = tosa.reshape %147 {new_shape = array<i64: 1, 40, 11008>} : (tensor<40x11008xf32>) -> tensor<1x40x11008xf32>
    %149 = tosa.sigmoid %148 : (tensor<1x40x11008xf32>) -> tensor<1x40x11008xf32>
    %150 = tosa.mul %148, %149 {shift = 0 : i8} : (tensor<1x40x11008xf32>, tensor<1x40x11008xf32>) -> tensor<1x40x11008xf32>
    %151 = "tosa.const"() <{value = dense<[1, 0]> : tensor<2xi32>}> : () -> tensor<2xi32>
    %152 = tosa.transpose %arg10, %151 : (tensor<11008x4096xf32>, tensor<2xi32>) -> tensor<4096x11008xf32>
    %153 = tosa.reshape %143 {new_shape = array<i64: 40, 4096>} : (tensor<1x40x4096xf32>) -> tensor<40x4096xf32>
    %cst_29 = arith.constant dense<0.000000e+00> : tensor<40x11008xf32>
    %154 = linalg.matmul {cast = #linalg.type_fn<cast_signed>} ins(%153, %152 : tensor<40x4096xf32>, tensor<4096x11008xf32>) outs(%cst_29 : tensor<40x11008xf32>) -> tensor<40x11008xf32>
    %155 = tosa.reshape %154 {new_shape = array<i64: 1, 40, 11008>} : (tensor<40x11008xf32>) -> tensor<1x40x11008xf32>
    %156 = tosa.mul %150, %155 {shift = 0 : i8} : (tensor<1x40x11008xf32>, tensor<1x40x11008xf32>) -> tensor<1x40x11008xf32>
    %157 = "tosa.const"() <{value = dense<[1, 0]> : tensor<2xi32>}> : () -> tensor<2xi32>
    %158 = tosa.transpose %arg11, %157 : (tensor<4096x11008xf32>, tensor<2xi32>) -> tensor<11008x4096xf32>
    %159 = tosa.reshape %156 {new_shape = array<i64: 40, 11008>} : (tensor<1x40x11008xf32>) -> tensor<40x11008xf32>
    %cst_30 = arith.constant dense<0.000000e+00> : tensor<40x4096xf32>
    %160 = linalg.matmul {cast = #linalg.type_fn<cast_signed>} ins(%159, %158 : tensor<40x11008xf32>, tensor<11008x4096xf32>) outs(%cst_30 : tensor<40x4096xf32>) -> tensor<40x4096xf32>
    %161 = tosa.reshape %160 {new_shape = array<i64: 1, 40, 4096>} : (tensor<40x4096xf32>) -> tensor<1x40x4096xf32>
    %162 = tosa.add %131, %161 : (tensor<1x40x4096xf32>, tensor<1x40x4096xf32>) -> tensor<1x40x4096xf32>
    %163 = tensor.empty() : tensor<1x40x4096xf32>
    %c2_i32_31 = arith.constant 2 : i32
    %164 = linalg.generic {indexing_maps = [#map4, #map4], iterator_types = ["parallel", "parallel", "parallel"]} ins(%162 : tensor<1x40x4096xf32>) outs(%163 : tensor<1x40x4096xf32>) {
    ^bb0(%in: f32, %out: f32):
      %3745 = math.fpowi %in, %c2_i32_31 : f32, i32
      linalg.yield %3745 : f32
    } -> tensor<1x40x4096xf32>
    %165 = tosa.reduce_sum %164 {axis = 2 : i32} : (tensor<1x40x4096xf32>) -> tensor<1x40x1xf32>
    %166 = "tosa.const"() <{value = dense<4.096000e+03> : tensor<1xf32>}> : () -> tensor<1xf32>
    %167 = tosa.reciprocal %166 : (tensor<1xf32>) -> tensor<1xf32>
    %168 = tosa.mul %167, %165 {shift = 0 : i8} : (tensor<1xf32>, tensor<1x40x1xf32>) -> tensor<1x40x1xf32>
    %169 = "tosa.const"() <{value = dense<9.99999974E-6> : tensor<1x40x1xf32>}> : () -> tensor<1x40x1xf32>
    %170 = tosa.add %168, %169 : (tensor<1x40x1xf32>, tensor<1x40x1xf32>) -> tensor<1x40x1xf32>
    %171 = tosa.rsqrt %170 : (tensor<1x40x1xf32>) -> tensor<1x40x1xf32>
    %172 = tosa.mul %162, %171 {shift = 0 : i8} : (tensor<1x40x4096xf32>, tensor<1x40x1xf32>) -> tensor<1x40x4096xf32>
    %173 = tosa.reshape %arg12 {new_shape = array<i64: 1, 1, 4096>} : (tensor<4096xf32>) -> tensor<1x1x4096xf32>
    %174 = tosa.mul %173, %172 {shift = 0 : i8} : (tensor<1x1x4096xf32>, tensor<1x40x4096xf32>) -> tensor<1x40x4096xf32>
    %175 = "tosa.const"() <{value = dense<[1, 0]> : tensor<2xi32>}> : () -> tensor<2xi32>
    %176 = tosa.transpose %arg13, %175 : (tensor<4096x4096xf32>, tensor<2xi32>) -> tensor<4096x4096xf32>
    %177 = tosa.reshape %174 {new_shape = array<i64: 40, 4096>} : (tensor<1x40x4096xf32>) -> tensor<40x4096xf32>
    %cst_32 = arith.constant dense<0.000000e+00> : tensor<40x4096xf32>
    %178 = linalg.matmul {cast = #linalg.type_fn<cast_signed>} ins(%177, %176 : tensor<40x4096xf32>, tensor<4096x4096xf32>) outs(%cst_32 : tensor<40x4096xf32>) -> tensor<40x4096xf32>
    %179 = tosa.reshape %178 {new_shape = array<i64: 1, 40, 4096>} : (tensor<40x4096xf32>) -> tensor<1x40x4096xf32>
    %180 = "tosa.const"() <{value = dense<[1, 0]> : tensor<2xi32>}> : () -> tensor<2xi32>
    %181 = tosa.transpose %arg14, %180 : (tensor<4096x4096xf32>, tensor<2xi32>) -> tensor<4096x4096xf32>
    %182 = tosa.reshape %174 {new_shape = array<i64: 40, 4096>} : (tensor<1x40x4096xf32>) -> tensor<40x4096xf32>
    %cst_33 = arith.constant dense<0.000000e+00> : tensor<40x4096xf32>
    %183 = linalg.matmul {cast = #linalg.type_fn<cast_signed>} ins(%182, %181 : tensor<40x4096xf32>, tensor<4096x4096xf32>) outs(%cst_33 : tensor<40x4096xf32>) -> tensor<40x4096xf32>
    %184 = tosa.reshape %183 {new_shape = array<i64: 1, 40, 4096>} : (tensor<40x4096xf32>) -> tensor<1x40x4096xf32>
    %185 = "tosa.const"() <{value = dense<[1, 0]> : tensor<2xi32>}> : () -> tensor<2xi32>
    %186 = tosa.transpose %arg15, %185 : (tensor<4096x4096xf32>, tensor<2xi32>) -> tensor<4096x4096xf32>
    %187 = tosa.reshape %174 {new_shape = array<i64: 40, 4096>} : (tensor<1x40x4096xf32>) -> tensor<40x4096xf32>
    %cst_34 = arith.constant dense<0.000000e+00> : tensor<40x4096xf32>
    %188 = linalg.matmul {cast = #linalg.type_fn<cast_signed>} ins(%187, %186 : tensor<40x4096xf32>, tensor<4096x4096xf32>) outs(%cst_34 : tensor<40x4096xf32>) -> tensor<40x4096xf32>
    %189 = tosa.reshape %188 {new_shape = array<i64: 1, 40, 4096>} : (tensor<40x4096xf32>) -> tensor<1x40x4096xf32>
    %190 = tosa.reshape %179 {new_shape = array<i64: 1, 40, 32, 128>} : (tensor<1x40x4096xf32>) -> tensor<1x40x32x128xf32>
    %191 = "tosa.const"() <{value = dense<[0, 2, 1, 3]> : tensor<4xi32>}> : () -> tensor<4xi32>
    %192 = tosa.transpose %190, %191 : (tensor<1x40x32x128xf32>, tensor<4xi32>) -> tensor<1x32x40x128xf32>
    %193 = tosa.reshape %184 {new_shape = array<i64: 1, 40, 32, 128>} : (tensor<1x40x4096xf32>) -> tensor<1x40x32x128xf32>
    %194 = "tosa.const"() <{value = dense<[0, 2, 1, 3]> : tensor<4xi32>}> : () -> tensor<4xi32>
    %195 = tosa.transpose %193, %194 : (tensor<1x40x32x128xf32>, tensor<4xi32>) -> tensor<1x32x40x128xf32>
    %196 = tosa.reshape %189 {new_shape = array<i64: 1, 40, 32, 128>} : (tensor<1x40x4096xf32>) -> tensor<1x40x32x128xf32>
    %197 = "tosa.const"() <{value = dense<[0, 2, 1, 3]> : tensor<4xi32>}> : () -> tensor<4xi32>
    %198 = tosa.transpose %196, %197 : (tensor<1x40x32x128xf32>, tensor<4xi32>) -> tensor<1x32x40x128xf32>
    %199 = tosa.reshape %45 {new_shape = array<i64: 1, 1, 40, 128>} : (tensor<1x40x128xf32>) -> tensor<1x1x40x128xf32>
    %200 = tosa.reshape %47 {new_shape = array<i64: 1, 1, 40, 128>} : (tensor<1x40x128xf32>) -> tensor<1x1x40x128xf32>
    %201 = tosa.mul %192, %199 {shift = 0 : i8} : (tensor<1x32x40x128xf32>, tensor<1x1x40x128xf32>) -> tensor<1x32x40x128xf32>
    %extracted_slice_35 = tensor.extract_slice %192[0, 0, 0, 0] [1, 32, 40, 64] [1, 1, 1, 1] : tensor<1x32x40x128xf32> to tensor<1x32x40x64xf32>
    %extracted_slice_36 = tensor.extract_slice %192[0, 0, 0, 64] [1, 32, 40, 64] [1, 1, 1, 1] : tensor<1x32x40x128xf32> to tensor<1x32x40x64xf32>
    %202 = tensor.empty() : tensor<1x32x40x64xf32>
    %203 = linalg.negf ins(%extracted_slice_36 : tensor<1x32x40x64xf32>) outs(%202 : tensor<1x32x40x64xf32>) -> tensor<1x32x40x64xf32>
    %204 = tensor.empty() : tensor<1x32x40x128xf32>
    %inserted_slice_37 = tensor.insert_slice %203 into %204[0, 0, 0, 0] [1, 32, 40, 64] [1, 1, 1, 1] : tensor<1x32x40x64xf32> into tensor<1x32x40x128xf32>
    %inserted_slice_38 = tensor.insert_slice %extracted_slice_35 into %inserted_slice_37[0, 0, 0, 64] [1, 32, 40, 64] [1, 1, 1, 1] : tensor<1x32x40x64xf32> into tensor<1x32x40x128xf32>
    %205 = tosa.mul %inserted_slice_38, %200 {shift = 0 : i8} : (tensor<1x32x40x128xf32>, tensor<1x1x40x128xf32>) -> tensor<1x32x40x128xf32>
    %206 = tosa.add %201, %205 : (tensor<1x32x40x128xf32>, tensor<1x32x40x128xf32>) -> tensor<1x32x40x128xf32>
    %207 = tosa.mul %195, %199 {shift = 0 : i8} : (tensor<1x32x40x128xf32>, tensor<1x1x40x128xf32>) -> tensor<1x32x40x128xf32>
    %extracted_slice_39 = tensor.extract_slice %195[0, 0, 0, 0] [1, 32, 40, 64] [1, 1, 1, 1] : tensor<1x32x40x128xf32> to tensor<1x32x40x64xf32>
    %extracted_slice_40 = tensor.extract_slice %195[0, 0, 0, 64] [1, 32, 40, 64] [1, 1, 1, 1] : tensor<1x32x40x128xf32> to tensor<1x32x40x64xf32>
    %208 = tensor.empty() : tensor<1x32x40x64xf32>
    %209 = linalg.negf ins(%extracted_slice_40 : tensor<1x32x40x64xf32>) outs(%208 : tensor<1x32x40x64xf32>) -> tensor<1x32x40x64xf32>
    %210 = tensor.empty() : tensor<1x32x40x128xf32>
    %inserted_slice_41 = tensor.insert_slice %209 into %210[0, 0, 0, 0] [1, 32, 40, 64] [1, 1, 1, 1] : tensor<1x32x40x64xf32> into tensor<1x32x40x128xf32>
    %inserted_slice_42 = tensor.insert_slice %extracted_slice_39 into %inserted_slice_41[0, 0, 0, 64] [1, 32, 40, 64] [1, 1, 1, 1] : tensor<1x32x40x64xf32> into tensor<1x32x40x128xf32>
    %211 = tosa.mul %inserted_slice_42, %200 {shift = 0 : i8} : (tensor<1x32x40x128xf32>, tensor<1x1x40x128xf32>) -> tensor<1x32x40x128xf32>
    %212 = tosa.add %207, %211 : (tensor<1x32x40x128xf32>, tensor<1x32x40x128xf32>) -> tensor<1x32x40x128xf32>
    %213 = tosa.reshape %19 {new_shape = array<i64: 1, 40, 41>} : (tensor<40x41xf32>) -> tensor<1x40x41xf32>
    %214 = tosa.reshape %213 {new_shape = array<i64: 1, 1, 40, 41>} : (tensor<1x40x41xf32>) -> tensor<1x1x40x41xf32>
    %extracted_slice_43 = tensor.extract_slice %214[0, 0, 0, 0] [1, 1, 40, 41] [1, 1, 1, 1] : tensor<1x1x40x41xf32> to tensor<1x1x40x41xf32>
    %extracted_slice_44 = tensor.extract_slice %extracted_slice_43[0, 0, 0, 0] [1, 1, 40, 41] [1, 1, 1, 1] : tensor<1x1x40x41xf32> to tensor<1x1x40x41xf32>
    %215 = "tosa.const"() <{value = dense<0.000000e+00> : tensor<1x1x40x41xf32>}> : () -> tensor<1x1x40x41xf32>
    %216 = tosa.add %extracted_slice_44, %215 : (tensor<1x1x40x41xf32>, tensor<1x1x40x41xf32>) -> tensor<1x1x40x41xf32>
    %extracted_slice_45 = tensor.extract_slice %216[0, 0, 0, 0] [1, 1, 40, 41] [1, 1, 1, 1] : tensor<1x1x40x41xf32> to tensor<1x1x40x41xf32>
    %extracted_slice_46 = tensor.extract_slice %extracted_slice_45[0, 0, 0, 0] [1, 1, 40, 41] [1, 1, 1, 1] : tensor<1x1x40x41xf32> to tensor<1x1x40x41xf32>
    %extracted_slice_47 = tensor.extract_slice %extracted_slice_46[0, 0, 0, 0] [1, 1, 40, 41] [1, 1, 1, 1] : tensor<1x1x40x41xf32> to tensor<1x1x40x41xf32>
    %extracted_slice_48 = tensor.extract_slice %extracted_slice_47[0, 0, 0, 0] [1, 1, 40, 40] [1, 1, 1, 1] : tensor<1x1x40x41xf32> to tensor<1x1x40x40xf32>
    %cst_49 = arith.constant 0.000000e+00 : f32
    %splat_50 = tensor.splat %cst_49 : tensor<40x40xf32>
    %217 = tosa.reshape %extracted_slice_48 {new_shape = array<i64: 40, 40>} : (tensor<1x1x40x40xf32>) -> tensor<40x40xf32>
    %218 = tosa.add %splat_50, %217 : (tensor<40x40xf32>, tensor<40x40xf32>) -> tensor<40x40xf32>
    %219 = "tosa.const"() <{value = dense<[0, 1, 3, 2]> : tensor<4xi32>}> : () -> tensor<4xi32>
    %220 = tosa.transpose %212, %219 : (tensor<1x32x40x128xf32>, tensor<4xi32>) -> tensor<1x32x128x40xf32>
    %221 = tosa.reshape %206 {new_shape = array<i64: 32, 40, 128>} : (tensor<1x32x40x128xf32>) -> tensor<32x40x128xf32>
    %222 = tosa.reshape %220 {new_shape = array<i64: 32, 128, 40>} : (tensor<1x32x128x40xf32>) -> tensor<32x128x40xf32>
    %223 = tosa.matmul %221, %222 : (tensor<32x40x128xf32>, tensor<32x128x40xf32>) -> tensor<32x40x40xf32>
    %cst_51 = arith.constant 0.0883883461 : f32
    %splat_52 = tensor.splat %cst_51 : tensor<32x40x40xf32>
    %224 = tosa.mul %223, %splat_52 {shift = 0 : i8} : (tensor<32x40x40xf32>, tensor<32x40x40xf32>) -> tensor<32x40x40xf32>
    %225 = tosa.add %224, %218 : (tensor<32x40x40xf32>, tensor<40x40xf32>) -> tensor<32x40x40xf32>
    %226 = tosa.reduce_max %225 {axis = 2 : i32} : (tensor<32x40x40xf32>) -> tensor<32x40x1xf32>
    %227 = tosa.sub %225, %226 : (tensor<32x40x40xf32>, tensor<32x40x1xf32>) -> tensor<32x40x40xf32>
    %228 = math.exp %227 : tensor<32x40x40xf32>
    %229 = tosa.reduce_sum %228 {axis = 2 : i32} : (tensor<32x40x40xf32>) -> tensor<32x40x1xf32>
    %230 = tosa.log %229 : (tensor<32x40x1xf32>) -> tensor<32x40x1xf32>
    %231 = tosa.add %226, %230 : (tensor<32x40x1xf32>, tensor<32x40x1xf32>) -> tensor<32x40x1xf32>
    %232 = tosa.sub %225, %231 : (tensor<32x40x40xf32>, tensor<32x40x1xf32>) -> tensor<32x40x40xf32>
    %233 = math.exp %232 : tensor<32x40x40xf32>
    %234 = tosa.reshape %231 {new_shape = array<i64: 1, 32, 40>} : (tensor<32x40x1xf32>) -> tensor<1x32x40xf32>
    %235 = tosa.reshape %198 {new_shape = array<i64: 32, 40, 128>} : (tensor<1x32x40x128xf32>) -> tensor<32x40x128xf32>
    %236 = tosa.matmul %233, %235 : (tensor<32x40x40xf32>, tensor<32x40x128xf32>) -> tensor<32x40x128xf32>
    %237 = tosa.reshape %236 {new_shape = array<i64: 1, 32, 40, 128>} : (tensor<32x40x128xf32>) -> tensor<1x32x40x128xf32>
    %238 = "tosa.const"() <{value = dense<[0, 2, 1, 3]> : tensor<4xi32>}> : () -> tensor<4xi32>
    %239 = tosa.transpose %237, %238 : (tensor<1x32x40x128xf32>, tensor<4xi32>) -> tensor<1x40x32x128xf32>
    %240 = tosa.reshape %239 {new_shape = array<i64: 1, 40, 4096>} : (tensor<1x40x32x128xf32>) -> tensor<1x40x4096xf32>
    %241 = "tosa.const"() <{value = dense<[1, 0]> : tensor<2xi32>}> : () -> tensor<2xi32>
    %242 = tosa.transpose %arg16, %241 : (tensor<4096x4096xf32>, tensor<2xi32>) -> tensor<4096x4096xf32>
    %243 = tosa.reshape %240 {new_shape = array<i64: 40, 4096>} : (tensor<1x40x4096xf32>) -> tensor<40x4096xf32>
    %cst_53 = arith.constant dense<0.000000e+00> : tensor<40x4096xf32>
    %244 = linalg.matmul {cast = #linalg.type_fn<cast_signed>} ins(%243, %242 : tensor<40x4096xf32>, tensor<4096x4096xf32>) outs(%cst_53 : tensor<40x4096xf32>) -> tensor<40x4096xf32>
    %245 = tosa.reshape %244 {new_shape = array<i64: 1, 40, 4096>} : (tensor<40x4096xf32>) -> tensor<1x40x4096xf32>
    %246 = tosa.add %162, %245 : (tensor<1x40x4096xf32>, tensor<1x40x4096xf32>) -> tensor<1x40x4096xf32>
    %247 = tensor.empty() : tensor<1x40x4096xf32>
    %c2_i32_54 = arith.constant 2 : i32
    %248 = linalg.generic {indexing_maps = [#map4, #map4], iterator_types = ["parallel", "parallel", "parallel"]} ins(%246 : tensor<1x40x4096xf32>) outs(%247 : tensor<1x40x4096xf32>) {
    ^bb0(%in: f32, %out: f32):
      %3745 = math.fpowi %in, %c2_i32_54 : f32, i32
      linalg.yield %3745 : f32
    } -> tensor<1x40x4096xf32>
    %249 = tosa.reduce_sum %248 {axis = 2 : i32} : (tensor<1x40x4096xf32>) -> tensor<1x40x1xf32>
    %250 = "tosa.const"() <{value = dense<4.096000e+03> : tensor<1xf32>}> : () -> tensor<1xf32>
    %251 = tosa.reciprocal %250 : (tensor<1xf32>) -> tensor<1xf32>
    %252 = tosa.mul %251, %249 {shift = 0 : i8} : (tensor<1xf32>, tensor<1x40x1xf32>) -> tensor<1x40x1xf32>
    %253 = "tosa.const"() <{value = dense<9.99999974E-6> : tensor<1x40x1xf32>}> : () -> tensor<1x40x1xf32>
    %254 = tosa.add %252, %253 : (tensor<1x40x1xf32>, tensor<1x40x1xf32>) -> tensor<1x40x1xf32>
    %255 = tosa.rsqrt %254 : (tensor<1x40x1xf32>) -> tensor<1x40x1xf32>
    %256 = tosa.mul %246, %255 {shift = 0 : i8} : (tensor<1x40x4096xf32>, tensor<1x40x1xf32>) -> tensor<1x40x4096xf32>
    %257 = tosa.reshape %arg17 {new_shape = array<i64: 1, 1, 4096>} : (tensor<4096xf32>) -> tensor<1x1x4096xf32>
    %258 = tosa.mul %257, %256 {shift = 0 : i8} : (tensor<1x1x4096xf32>, tensor<1x40x4096xf32>) -> tensor<1x40x4096xf32>
    %259 = "tosa.const"() <{value = dense<[1, 0]> : tensor<2xi32>}> : () -> tensor<2xi32>
    %260 = tosa.transpose %arg18, %259 : (tensor<11008x4096xf32>, tensor<2xi32>) -> tensor<4096x11008xf32>
    %261 = tosa.reshape %258 {new_shape = array<i64: 40, 4096>} : (tensor<1x40x4096xf32>) -> tensor<40x4096xf32>
    %cst_55 = arith.constant dense<0.000000e+00> : tensor<40x11008xf32>
    %262 = linalg.matmul {cast = #linalg.type_fn<cast_signed>} ins(%261, %260 : tensor<40x4096xf32>, tensor<4096x11008xf32>) outs(%cst_55 : tensor<40x11008xf32>) -> tensor<40x11008xf32>
    %263 = tosa.reshape %262 {new_shape = array<i64: 1, 40, 11008>} : (tensor<40x11008xf32>) -> tensor<1x40x11008xf32>
    %264 = tosa.sigmoid %263 : (tensor<1x40x11008xf32>) -> tensor<1x40x11008xf32>
    %265 = tosa.mul %263, %264 {shift = 0 : i8} : (tensor<1x40x11008xf32>, tensor<1x40x11008xf32>) -> tensor<1x40x11008xf32>
    %266 = "tosa.const"() <{value = dense<[1, 0]> : tensor<2xi32>}> : () -> tensor<2xi32>
    %267 = tosa.transpose %arg19, %266 : (tensor<11008x4096xf32>, tensor<2xi32>) -> tensor<4096x11008xf32>
    %268 = tosa.reshape %258 {new_shape = array<i64: 40, 4096>} : (tensor<1x40x4096xf32>) -> tensor<40x4096xf32>
    %cst_56 = arith.constant dense<0.000000e+00> : tensor<40x11008xf32>
    %269 = linalg.matmul {cast = #linalg.type_fn<cast_signed>} ins(%268, %267 : tensor<40x4096xf32>, tensor<4096x11008xf32>) outs(%cst_56 : tensor<40x11008xf32>) -> tensor<40x11008xf32>
    %270 = tosa.reshape %269 {new_shape = array<i64: 1, 40, 11008>} : (tensor<40x11008xf32>) -> tensor<1x40x11008xf32>
    %271 = tosa.mul %265, %270 {shift = 0 : i8} : (tensor<1x40x11008xf32>, tensor<1x40x11008xf32>) -> tensor<1x40x11008xf32>
    %272 = "tosa.const"() <{value = dense<[1, 0]> : tensor<2xi32>}> : () -> tensor<2xi32>
    %273 = tosa.transpose %arg20, %272 : (tensor<4096x11008xf32>, tensor<2xi32>) -> tensor<11008x4096xf32>
    %274 = tosa.reshape %271 {new_shape = array<i64: 40, 11008>} : (tensor<1x40x11008xf32>) -> tensor<40x11008xf32>
    %cst_57 = arith.constant dense<0.000000e+00> : tensor<40x4096xf32>
    %275 = linalg.matmul {cast = #linalg.type_fn<cast_signed>} ins(%274, %273 : tensor<40x11008xf32>, tensor<11008x4096xf32>) outs(%cst_57 : tensor<40x4096xf32>) -> tensor<40x4096xf32>
    %276 = tosa.reshape %275 {new_shape = array<i64: 1, 40, 4096>} : (tensor<40x4096xf32>) -> tensor<1x40x4096xf32>
    %277 = tosa.add %246, %276 : (tensor<1x40x4096xf32>, tensor<1x40x4096xf32>) -> tensor<1x40x4096xf32>
    %278 = tensor.empty() : tensor<1x40x4096xf32>
    %c2_i32_58 = arith.constant 2 : i32
    %279 = linalg.generic {indexing_maps = [#map4, #map4], iterator_types = ["parallel", "parallel", "parallel"]} ins(%277 : tensor<1x40x4096xf32>) outs(%278 : tensor<1x40x4096xf32>) {
    ^bb0(%in: f32, %out: f32):
      %3745 = math.fpowi %in, %c2_i32_58 : f32, i32
      linalg.yield %3745 : f32
    } -> tensor<1x40x4096xf32>
    %280 = tosa.reduce_sum %279 {axis = 2 : i32} : (tensor<1x40x4096xf32>) -> tensor<1x40x1xf32>
    %281 = "tosa.const"() <{value = dense<4.096000e+03> : tensor<1xf32>}> : () -> tensor<1xf32>
    %282 = tosa.reciprocal %281 : (tensor<1xf32>) -> tensor<1xf32>
    %283 = tosa.mul %282, %280 {shift = 0 : i8} : (tensor<1xf32>, tensor<1x40x1xf32>) -> tensor<1x40x1xf32>
    %284 = "tosa.const"() <{value = dense<9.99999974E-6> : tensor<1x40x1xf32>}> : () -> tensor<1x40x1xf32>
    %285 = tosa.add %283, %284 : (tensor<1x40x1xf32>, tensor<1x40x1xf32>) -> tensor<1x40x1xf32>
    %286 = tosa.rsqrt %285 : (tensor<1x40x1xf32>) -> tensor<1x40x1xf32>
    %287 = tosa.mul %277, %286 {shift = 0 : i8} : (tensor<1x40x4096xf32>, tensor<1x40x1xf32>) -> tensor<1x40x4096xf32>
    %288 = tosa.reshape %arg21 {new_shape = array<i64: 1, 1, 4096>} : (tensor<4096xf32>) -> tensor<1x1x4096xf32>
    %289 = tosa.mul %288, %287 {shift = 0 : i8} : (tensor<1x1x4096xf32>, tensor<1x40x4096xf32>) -> tensor<1x40x4096xf32>
    %290 = "tosa.const"() <{value = dense<[1, 0]> : tensor<2xi32>}> : () -> tensor<2xi32>
    %291 = tosa.transpose %arg22, %290 : (tensor<4096x4096xf32>, tensor<2xi32>) -> tensor<4096x4096xf32>
    %292 = tosa.reshape %289 {new_shape = array<i64: 40, 4096>} : (tensor<1x40x4096xf32>) -> tensor<40x4096xf32>
    %cst_59 = arith.constant dense<0.000000e+00> : tensor<40x4096xf32>
    %293 = linalg.matmul {cast = #linalg.type_fn<cast_signed>} ins(%292, %291 : tensor<40x4096xf32>, tensor<4096x4096xf32>) outs(%cst_59 : tensor<40x4096xf32>) -> tensor<40x4096xf32>
    %294 = tosa.reshape %293 {new_shape = array<i64: 1, 40, 4096>} : (tensor<40x4096xf32>) -> tensor<1x40x4096xf32>
    %295 = "tosa.const"() <{value = dense<[1, 0]> : tensor<2xi32>}> : () -> tensor<2xi32>
    %296 = tosa.transpose %arg23, %295 : (tensor<4096x4096xf32>, tensor<2xi32>) -> tensor<4096x4096xf32>
    %297 = tosa.reshape %289 {new_shape = array<i64: 40, 4096>} : (tensor<1x40x4096xf32>) -> tensor<40x4096xf32>
    %cst_60 = arith.constant dense<0.000000e+00> : tensor<40x4096xf32>
    %298 = linalg.matmul {cast = #linalg.type_fn<cast_signed>} ins(%297, %296 : tensor<40x4096xf32>, tensor<4096x4096xf32>) outs(%cst_60 : tensor<40x4096xf32>) -> tensor<40x4096xf32>
    %299 = tosa.reshape %298 {new_shape = array<i64: 1, 40, 4096>} : (tensor<40x4096xf32>) -> tensor<1x40x4096xf32>
    %300 = "tosa.const"() <{value = dense<[1, 0]> : tensor<2xi32>}> : () -> tensor<2xi32>
    %301 = tosa.transpose %arg24, %300 : (tensor<4096x4096xf32>, tensor<2xi32>) -> tensor<4096x4096xf32>
    %302 = tosa.reshape %289 {new_shape = array<i64: 40, 4096>} : (tensor<1x40x4096xf32>) -> tensor<40x4096xf32>
    %cst_61 = arith.constant dense<0.000000e+00> : tensor<40x4096xf32>
    %303 = linalg.matmul {cast = #linalg.type_fn<cast_signed>} ins(%302, %301 : tensor<40x4096xf32>, tensor<4096x4096xf32>) outs(%cst_61 : tensor<40x4096xf32>) -> tensor<40x4096xf32>
    %304 = tosa.reshape %303 {new_shape = array<i64: 1, 40, 4096>} : (tensor<40x4096xf32>) -> tensor<1x40x4096xf32>
    %305 = tosa.reshape %294 {new_shape = array<i64: 1, 40, 32, 128>} : (tensor<1x40x4096xf32>) -> tensor<1x40x32x128xf32>
    %306 = "tosa.const"() <{value = dense<[0, 2, 1, 3]> : tensor<4xi32>}> : () -> tensor<4xi32>
    %307 = tosa.transpose %305, %306 : (tensor<1x40x32x128xf32>, tensor<4xi32>) -> tensor<1x32x40x128xf32>
    %308 = tosa.reshape %299 {new_shape = array<i64: 1, 40, 32, 128>} : (tensor<1x40x4096xf32>) -> tensor<1x40x32x128xf32>
    %309 = "tosa.const"() <{value = dense<[0, 2, 1, 3]> : tensor<4xi32>}> : () -> tensor<4xi32>
    %310 = tosa.transpose %308, %309 : (tensor<1x40x32x128xf32>, tensor<4xi32>) -> tensor<1x32x40x128xf32>
    %311 = tosa.reshape %304 {new_shape = array<i64: 1, 40, 32, 128>} : (tensor<1x40x4096xf32>) -> tensor<1x40x32x128xf32>
    %312 = "tosa.const"() <{value = dense<[0, 2, 1, 3]> : tensor<4xi32>}> : () -> tensor<4xi32>
    %313 = tosa.transpose %311, %312 : (tensor<1x40x32x128xf32>, tensor<4xi32>) -> tensor<1x32x40x128xf32>
    %314 = tosa.reshape %45 {new_shape = array<i64: 1, 1, 40, 128>} : (tensor<1x40x128xf32>) -> tensor<1x1x40x128xf32>
    %315 = tosa.reshape %47 {new_shape = array<i64: 1, 1, 40, 128>} : (tensor<1x40x128xf32>) -> tensor<1x1x40x128xf32>
    %316 = tosa.mul %307, %314 {shift = 0 : i8} : (tensor<1x32x40x128xf32>, tensor<1x1x40x128xf32>) -> tensor<1x32x40x128xf32>
    %extracted_slice_62 = tensor.extract_slice %307[0, 0, 0, 0] [1, 32, 40, 64] [1, 1, 1, 1] : tensor<1x32x40x128xf32> to tensor<1x32x40x64xf32>
    %extracted_slice_63 = tensor.extract_slice %307[0, 0, 0, 64] [1, 32, 40, 64] [1, 1, 1, 1] : tensor<1x32x40x128xf32> to tensor<1x32x40x64xf32>
    %317 = tensor.empty() : tensor<1x32x40x64xf32>
    %318 = linalg.negf ins(%extracted_slice_63 : tensor<1x32x40x64xf32>) outs(%317 : tensor<1x32x40x64xf32>) -> tensor<1x32x40x64xf32>
    %319 = tensor.empty() : tensor<1x32x40x128xf32>
    %inserted_slice_64 = tensor.insert_slice %318 into %319[0, 0, 0, 0] [1, 32, 40, 64] [1, 1, 1, 1] : tensor<1x32x40x64xf32> into tensor<1x32x40x128xf32>
    %inserted_slice_65 = tensor.insert_slice %extracted_slice_62 into %inserted_slice_64[0, 0, 0, 64] [1, 32, 40, 64] [1, 1, 1, 1] : tensor<1x32x40x64xf32> into tensor<1x32x40x128xf32>
    %320 = tosa.mul %inserted_slice_65, %315 {shift = 0 : i8} : (tensor<1x32x40x128xf32>, tensor<1x1x40x128xf32>) -> tensor<1x32x40x128xf32>
    %321 = tosa.add %316, %320 : (tensor<1x32x40x128xf32>, tensor<1x32x40x128xf32>) -> tensor<1x32x40x128xf32>
    %322 = tosa.mul %310, %314 {shift = 0 : i8} : (tensor<1x32x40x128xf32>, tensor<1x1x40x128xf32>) -> tensor<1x32x40x128xf32>
    %extracted_slice_66 = tensor.extract_slice %310[0, 0, 0, 0] [1, 32, 40, 64] [1, 1, 1, 1] : tensor<1x32x40x128xf32> to tensor<1x32x40x64xf32>
    %extracted_slice_67 = tensor.extract_slice %310[0, 0, 0, 64] [1, 32, 40, 64] [1, 1, 1, 1] : tensor<1x32x40x128xf32> to tensor<1x32x40x64xf32>
    %323 = tensor.empty() : tensor<1x32x40x64xf32>
    %324 = linalg.negf ins(%extracted_slice_67 : tensor<1x32x40x64xf32>) outs(%323 : tensor<1x32x40x64xf32>) -> tensor<1x32x40x64xf32>
    %325 = tensor.empty() : tensor<1x32x40x128xf32>
    %inserted_slice_68 = tensor.insert_slice %324 into %325[0, 0, 0, 0] [1, 32, 40, 64] [1, 1, 1, 1] : tensor<1x32x40x64xf32> into tensor<1x32x40x128xf32>
    %inserted_slice_69 = tensor.insert_slice %extracted_slice_66 into %inserted_slice_68[0, 0, 0, 64] [1, 32, 40, 64] [1, 1, 1, 1] : tensor<1x32x40x64xf32> into tensor<1x32x40x128xf32>
    %326 = tosa.mul %inserted_slice_69, %315 {shift = 0 : i8} : (tensor<1x32x40x128xf32>, tensor<1x1x40x128xf32>) -> tensor<1x32x40x128xf32>
    %327 = tosa.add %322, %326 : (tensor<1x32x40x128xf32>, tensor<1x32x40x128xf32>) -> tensor<1x32x40x128xf32>
    %328 = tosa.reshape %19 {new_shape = array<i64: 1, 40, 41>} : (tensor<40x41xf32>) -> tensor<1x40x41xf32>
    %329 = tosa.reshape %328 {new_shape = array<i64: 1, 1, 40, 41>} : (tensor<1x40x41xf32>) -> tensor<1x1x40x41xf32>
    %extracted_slice_70 = tensor.extract_slice %329[0, 0, 0, 0] [1, 1, 40, 41] [1, 1, 1, 1] : tensor<1x1x40x41xf32> to tensor<1x1x40x41xf32>
    %extracted_slice_71 = tensor.extract_slice %extracted_slice_70[0, 0, 0, 0] [1, 1, 40, 41] [1, 1, 1, 1] : tensor<1x1x40x41xf32> to tensor<1x1x40x41xf32>
    %330 = "tosa.const"() <{value = dense<0.000000e+00> : tensor<1x1x40x41xf32>}> : () -> tensor<1x1x40x41xf32>
    %331 = tosa.add %extracted_slice_71, %330 : (tensor<1x1x40x41xf32>, tensor<1x1x40x41xf32>) -> tensor<1x1x40x41xf32>
    %extracted_slice_72 = tensor.extract_slice %331[0, 0, 0, 0] [1, 1, 40, 41] [1, 1, 1, 1] : tensor<1x1x40x41xf32> to tensor<1x1x40x41xf32>
    %extracted_slice_73 = tensor.extract_slice %extracted_slice_72[0, 0, 0, 0] [1, 1, 40, 41] [1, 1, 1, 1] : tensor<1x1x40x41xf32> to tensor<1x1x40x41xf32>
    %extracted_slice_74 = tensor.extract_slice %extracted_slice_73[0, 0, 0, 0] [1, 1, 40, 41] [1, 1, 1, 1] : tensor<1x1x40x41xf32> to tensor<1x1x40x41xf32>
    %extracted_slice_75 = tensor.extract_slice %extracted_slice_74[0, 0, 0, 0] [1, 1, 40, 40] [1, 1, 1, 1] : tensor<1x1x40x41xf32> to tensor<1x1x40x40xf32>
    %cst_76 = arith.constant 0.000000e+00 : f32
    %splat_77 = tensor.splat %cst_76 : tensor<40x40xf32>
    %332 = tosa.reshape %extracted_slice_75 {new_shape = array<i64: 40, 40>} : (tensor<1x1x40x40xf32>) -> tensor<40x40xf32>
    %333 = tosa.add %splat_77, %332 : (tensor<40x40xf32>, tensor<40x40xf32>) -> tensor<40x40xf32>
    %334 = "tosa.const"() <{value = dense<[0, 1, 3, 2]> : tensor<4xi32>}> : () -> tensor<4xi32>
    %335 = tosa.transpose %327, %334 : (tensor<1x32x40x128xf32>, tensor<4xi32>) -> tensor<1x32x128x40xf32>
    %336 = tosa.reshape %321 {new_shape = array<i64: 32, 40, 128>} : (tensor<1x32x40x128xf32>) -> tensor<32x40x128xf32>
    %337 = tosa.reshape %335 {new_shape = array<i64: 32, 128, 40>} : (tensor<1x32x128x40xf32>) -> tensor<32x128x40xf32>
    %338 = tosa.matmul %336, %337 : (tensor<32x40x128xf32>, tensor<32x128x40xf32>) -> tensor<32x40x40xf32>
    %cst_78 = arith.constant 0.0883883461 : f32
    %splat_79 = tensor.splat %cst_78 : tensor<32x40x40xf32>
    %339 = tosa.mul %338, %splat_79 {shift = 0 : i8} : (tensor<32x40x40xf32>, tensor<32x40x40xf32>) -> tensor<32x40x40xf32>
    %340 = tosa.add %339, %333 : (tensor<32x40x40xf32>, tensor<40x40xf32>) -> tensor<32x40x40xf32>
    %341 = tosa.reduce_max %340 {axis = 2 : i32} : (tensor<32x40x40xf32>) -> tensor<32x40x1xf32>
    %342 = tosa.sub %340, %341 : (tensor<32x40x40xf32>, tensor<32x40x1xf32>) -> tensor<32x40x40xf32>
    %343 = math.exp %342 : tensor<32x40x40xf32>
    %344 = tosa.reduce_sum %343 {axis = 2 : i32} : (tensor<32x40x40xf32>) -> tensor<32x40x1xf32>
    %345 = tosa.log %344 : (tensor<32x40x1xf32>) -> tensor<32x40x1xf32>
    %346 = tosa.add %341, %345 : (tensor<32x40x1xf32>, tensor<32x40x1xf32>) -> tensor<32x40x1xf32>
    %347 = tosa.sub %340, %346 : (tensor<32x40x40xf32>, tensor<32x40x1xf32>) -> tensor<32x40x40xf32>
    %348 = math.exp %347 : tensor<32x40x40xf32>
    %349 = tosa.reshape %346 {new_shape = array<i64: 1, 32, 40>} : (tensor<32x40x1xf32>) -> tensor<1x32x40xf32>
    %350 = tosa.reshape %313 {new_shape = array<i64: 32, 40, 128>} : (tensor<1x32x40x128xf32>) -> tensor<32x40x128xf32>
    %351 = tosa.matmul %348, %350 : (tensor<32x40x40xf32>, tensor<32x40x128xf32>) -> tensor<32x40x128xf32>
    %352 = tosa.reshape %351 {new_shape = array<i64: 1, 32, 40, 128>} : (tensor<32x40x128xf32>) -> tensor<1x32x40x128xf32>
    %353 = "tosa.const"() <{value = dense<[0, 2, 1, 3]> : tensor<4xi32>}> : () -> tensor<4xi32>
    %354 = tosa.transpose %352, %353 : (tensor<1x32x40x128xf32>, tensor<4xi32>) -> tensor<1x40x32x128xf32>
    %355 = tosa.reshape %354 {new_shape = array<i64: 1, 40, 4096>} : (tensor<1x40x32x128xf32>) -> tensor<1x40x4096xf32>
    %356 = "tosa.const"() <{value = dense<[1, 0]> : tensor<2xi32>}> : () -> tensor<2xi32>
    %357 = tosa.transpose %arg25, %356 : (tensor<4096x4096xf32>, tensor<2xi32>) -> tensor<4096x4096xf32>
    %358 = tosa.reshape %355 {new_shape = array<i64: 40, 4096>} : (tensor<1x40x4096xf32>) -> tensor<40x4096xf32>
    %cst_80 = arith.constant dense<0.000000e+00> : tensor<40x4096xf32>
    %359 = linalg.matmul {cast = #linalg.type_fn<cast_signed>} ins(%358, %357 : tensor<40x4096xf32>, tensor<4096x4096xf32>) outs(%cst_80 : tensor<40x4096xf32>) -> tensor<40x4096xf32>
    %360 = tosa.reshape %359 {new_shape = array<i64: 1, 40, 4096>} : (tensor<40x4096xf32>) -> tensor<1x40x4096xf32>
    %361 = tosa.add %277, %360 : (tensor<1x40x4096xf32>, tensor<1x40x4096xf32>) -> tensor<1x40x4096xf32>
    %362 = tensor.empty() : tensor<1x40x4096xf32>
    %c2_i32_81 = arith.constant 2 : i32
    %363 = linalg.generic {indexing_maps = [#map4, #map4], iterator_types = ["parallel", "parallel", "parallel"]} ins(%361 : tensor<1x40x4096xf32>) outs(%362 : tensor<1x40x4096xf32>) {
    ^bb0(%in: f32, %out: f32):
      %3745 = math.fpowi %in, %c2_i32_81 : f32, i32
      linalg.yield %3745 : f32
    } -> tensor<1x40x4096xf32>
    %364 = tosa.reduce_sum %363 {axis = 2 : i32} : (tensor<1x40x4096xf32>) -> tensor<1x40x1xf32>
    %365 = "tosa.const"() <{value = dense<4.096000e+03> : tensor<1xf32>}> : () -> tensor<1xf32>
    %366 = tosa.reciprocal %365 : (tensor<1xf32>) -> tensor<1xf32>
    %367 = tosa.mul %366, %364 {shift = 0 : i8} : (tensor<1xf32>, tensor<1x40x1xf32>) -> tensor<1x40x1xf32>
    %368 = "tosa.const"() <{value = dense<9.99999974E-6> : tensor<1x40x1xf32>}> : () -> tensor<1x40x1xf32>
    %369 = tosa.add %367, %368 : (tensor<1x40x1xf32>, tensor<1x40x1xf32>) -> tensor<1x40x1xf32>
    %370 = tosa.rsqrt %369 : (tensor<1x40x1xf32>) -> tensor<1x40x1xf32>
    %371 = tosa.mul %361, %370 {shift = 0 : i8} : (tensor<1x40x4096xf32>, tensor<1x40x1xf32>) -> tensor<1x40x4096xf32>
    %372 = tosa.reshape %arg26 {new_shape = array<i64: 1, 1, 4096>} : (tensor<4096xf32>) -> tensor<1x1x4096xf32>
    %373 = tosa.mul %372, %371 {shift = 0 : i8} : (tensor<1x1x4096xf32>, tensor<1x40x4096xf32>) -> tensor<1x40x4096xf32>
    %374 = "tosa.const"() <{value = dense<[1, 0]> : tensor<2xi32>}> : () -> tensor<2xi32>
    %375 = tosa.transpose %arg27, %374 : (tensor<11008x4096xf32>, tensor<2xi32>) -> tensor<4096x11008xf32>
    %376 = tosa.reshape %373 {new_shape = array<i64: 40, 4096>} : (tensor<1x40x4096xf32>) -> tensor<40x4096xf32>
    %cst_82 = arith.constant dense<0.000000e+00> : tensor<40x11008xf32>
    %377 = linalg.matmul {cast = #linalg.type_fn<cast_signed>} ins(%376, %375 : tensor<40x4096xf32>, tensor<4096x11008xf32>) outs(%cst_82 : tensor<40x11008xf32>) -> tensor<40x11008xf32>
    %378 = tosa.reshape %377 {new_shape = array<i64: 1, 40, 11008>} : (tensor<40x11008xf32>) -> tensor<1x40x11008xf32>
    %379 = tosa.sigmoid %378 : (tensor<1x40x11008xf32>) -> tensor<1x40x11008xf32>
    %380 = tosa.mul %378, %379 {shift = 0 : i8} : (tensor<1x40x11008xf32>, tensor<1x40x11008xf32>) -> tensor<1x40x11008xf32>
    %381 = "tosa.const"() <{value = dense<[1, 0]> : tensor<2xi32>}> : () -> tensor<2xi32>
    %382 = tosa.transpose %arg28, %381 : (tensor<11008x4096xf32>, tensor<2xi32>) -> tensor<4096x11008xf32>
    %383 = tosa.reshape %373 {new_shape = array<i64: 40, 4096>} : (tensor<1x40x4096xf32>) -> tensor<40x4096xf32>
    %cst_83 = arith.constant dense<0.000000e+00> : tensor<40x11008xf32>
    %384 = linalg.matmul {cast = #linalg.type_fn<cast_signed>} ins(%383, %382 : tensor<40x4096xf32>, tensor<4096x11008xf32>) outs(%cst_83 : tensor<40x11008xf32>) -> tensor<40x11008xf32>
    %385 = tosa.reshape %384 {new_shape = array<i64: 1, 40, 11008>} : (tensor<40x11008xf32>) -> tensor<1x40x11008xf32>
    %386 = tosa.mul %380, %385 {shift = 0 : i8} : (tensor<1x40x11008xf32>, tensor<1x40x11008xf32>) -> tensor<1x40x11008xf32>
    %387 = "tosa.const"() <{value = dense<[1, 0]> : tensor<2xi32>}> : () -> tensor<2xi32>
    %388 = tosa.transpose %arg29, %387 : (tensor<4096x11008xf32>, tensor<2xi32>) -> tensor<11008x4096xf32>
    %389 = tosa.reshape %386 {new_shape = array<i64: 40, 11008>} : (tensor<1x40x11008xf32>) -> tensor<40x11008xf32>
    %cst_84 = arith.constant dense<0.000000e+00> : tensor<40x4096xf32>
    %390 = linalg.matmul {cast = #linalg.type_fn<cast_signed>} ins(%389, %388 : tensor<40x11008xf32>, tensor<11008x4096xf32>) outs(%cst_84 : tensor<40x4096xf32>) -> tensor<40x4096xf32>
    %391 = tosa.reshape %390 {new_shape = array<i64: 1, 40, 4096>} : (tensor<40x4096xf32>) -> tensor<1x40x4096xf32>
    %392 = tosa.add %361, %391 : (tensor<1x40x4096xf32>, tensor<1x40x4096xf32>) -> tensor<1x40x4096xf32>
    %393 = tensor.empty() : tensor<1x40x4096xf32>
    %c2_i32_85 = arith.constant 2 : i32
    %394 = linalg.generic {indexing_maps = [#map4, #map4], iterator_types = ["parallel", "parallel", "parallel"]} ins(%392 : tensor<1x40x4096xf32>) outs(%393 : tensor<1x40x4096xf32>) {
    ^bb0(%in: f32, %out: f32):
      %3745 = math.fpowi %in, %c2_i32_85 : f32, i32
      linalg.yield %3745 : f32
    } -> tensor<1x40x4096xf32>
    %395 = tosa.reduce_sum %394 {axis = 2 : i32} : (tensor<1x40x4096xf32>) -> tensor<1x40x1xf32>
    %396 = "tosa.const"() <{value = dense<4.096000e+03> : tensor<1xf32>}> : () -> tensor<1xf32>
    %397 = tosa.reciprocal %396 : (tensor<1xf32>) -> tensor<1xf32>
    %398 = tosa.mul %397, %395 {shift = 0 : i8} : (tensor<1xf32>, tensor<1x40x1xf32>) -> tensor<1x40x1xf32>
    %399 = "tosa.const"() <{value = dense<9.99999974E-6> : tensor<1x40x1xf32>}> : () -> tensor<1x40x1xf32>
    %400 = tosa.add %398, %399 : (tensor<1x40x1xf32>, tensor<1x40x1xf32>) -> tensor<1x40x1xf32>
    %401 = tosa.rsqrt %400 : (tensor<1x40x1xf32>) -> tensor<1x40x1xf32>
    %402 = tosa.mul %392, %401 {shift = 0 : i8} : (tensor<1x40x4096xf32>, tensor<1x40x1xf32>) -> tensor<1x40x4096xf32>
    %403 = tosa.reshape %arg30 {new_shape = array<i64: 1, 1, 4096>} : (tensor<4096xf32>) -> tensor<1x1x4096xf32>
    %404 = tosa.mul %403, %402 {shift = 0 : i8} : (tensor<1x1x4096xf32>, tensor<1x40x4096xf32>) -> tensor<1x40x4096xf32>
    %405 = "tosa.const"() <{value = dense<[1, 0]> : tensor<2xi32>}> : () -> tensor<2xi32>
    %406 = tosa.transpose %arg31, %405 : (tensor<4096x4096xf32>, tensor<2xi32>) -> tensor<4096x4096xf32>
    %407 = tosa.reshape %404 {new_shape = array<i64: 40, 4096>} : (tensor<1x40x4096xf32>) -> tensor<40x4096xf32>
    %cst_86 = arith.constant dense<0.000000e+00> : tensor<40x4096xf32>
    %408 = linalg.matmul {cast = #linalg.type_fn<cast_signed>} ins(%407, %406 : tensor<40x4096xf32>, tensor<4096x4096xf32>) outs(%cst_86 : tensor<40x4096xf32>) -> tensor<40x4096xf32>
    %409 = tosa.reshape %408 {new_shape = array<i64: 1, 40, 4096>} : (tensor<40x4096xf32>) -> tensor<1x40x4096xf32>
    %410 = "tosa.const"() <{value = dense<[1, 0]> : tensor<2xi32>}> : () -> tensor<2xi32>
    %411 = tosa.transpose %arg32, %410 : (tensor<4096x4096xf32>, tensor<2xi32>) -> tensor<4096x4096xf32>
    %412 = tosa.reshape %404 {new_shape = array<i64: 40, 4096>} : (tensor<1x40x4096xf32>) -> tensor<40x4096xf32>
    %cst_87 = arith.constant dense<0.000000e+00> : tensor<40x4096xf32>
    %413 = linalg.matmul {cast = #linalg.type_fn<cast_signed>} ins(%412, %411 : tensor<40x4096xf32>, tensor<4096x4096xf32>) outs(%cst_87 : tensor<40x4096xf32>) -> tensor<40x4096xf32>
    %414 = tosa.reshape %413 {new_shape = array<i64: 1, 40, 4096>} : (tensor<40x4096xf32>) -> tensor<1x40x4096xf32>
    %415 = "tosa.const"() <{value = dense<[1, 0]> : tensor<2xi32>}> : () -> tensor<2xi32>
    %416 = tosa.transpose %arg33, %415 : (tensor<4096x4096xf32>, tensor<2xi32>) -> tensor<4096x4096xf32>
    %417 = tosa.reshape %404 {new_shape = array<i64: 40, 4096>} : (tensor<1x40x4096xf32>) -> tensor<40x4096xf32>
    %cst_88 = arith.constant dense<0.000000e+00> : tensor<40x4096xf32>
    %418 = linalg.matmul {cast = #linalg.type_fn<cast_signed>} ins(%417, %416 : tensor<40x4096xf32>, tensor<4096x4096xf32>) outs(%cst_88 : tensor<40x4096xf32>) -> tensor<40x4096xf32>
    %419 = tosa.reshape %418 {new_shape = array<i64: 1, 40, 4096>} : (tensor<40x4096xf32>) -> tensor<1x40x4096xf32>
    %420 = tosa.reshape %409 {new_shape = array<i64: 1, 40, 32, 128>} : (tensor<1x40x4096xf32>) -> tensor<1x40x32x128xf32>
    %421 = "tosa.const"() <{value = dense<[0, 2, 1, 3]> : tensor<4xi32>}> : () -> tensor<4xi32>
    %422 = tosa.transpose %420, %421 : (tensor<1x40x32x128xf32>, tensor<4xi32>) -> tensor<1x32x40x128xf32>
    %423 = tosa.reshape %414 {new_shape = array<i64: 1, 40, 32, 128>} : (tensor<1x40x4096xf32>) -> tensor<1x40x32x128xf32>
    %424 = "tosa.const"() <{value = dense<[0, 2, 1, 3]> : tensor<4xi32>}> : () -> tensor<4xi32>
    %425 = tosa.transpose %423, %424 : (tensor<1x40x32x128xf32>, tensor<4xi32>) -> tensor<1x32x40x128xf32>
    %426 = tosa.reshape %419 {new_shape = array<i64: 1, 40, 32, 128>} : (tensor<1x40x4096xf32>) -> tensor<1x40x32x128xf32>
    %427 = "tosa.const"() <{value = dense<[0, 2, 1, 3]> : tensor<4xi32>}> : () -> tensor<4xi32>
    %428 = tosa.transpose %426, %427 : (tensor<1x40x32x128xf32>, tensor<4xi32>) -> tensor<1x32x40x128xf32>
    %429 = tosa.reshape %45 {new_shape = array<i64: 1, 1, 40, 128>} : (tensor<1x40x128xf32>) -> tensor<1x1x40x128xf32>
    %430 = tosa.reshape %47 {new_shape = array<i64: 1, 1, 40, 128>} : (tensor<1x40x128xf32>) -> tensor<1x1x40x128xf32>
    %431 = tosa.mul %422, %429 {shift = 0 : i8} : (tensor<1x32x40x128xf32>, tensor<1x1x40x128xf32>) -> tensor<1x32x40x128xf32>
    %extracted_slice_89 = tensor.extract_slice %422[0, 0, 0, 0] [1, 32, 40, 64] [1, 1, 1, 1] : tensor<1x32x40x128xf32> to tensor<1x32x40x64xf32>
    %extracted_slice_90 = tensor.extract_slice %422[0, 0, 0, 64] [1, 32, 40, 64] [1, 1, 1, 1] : tensor<1x32x40x128xf32> to tensor<1x32x40x64xf32>
    %432 = tensor.empty() : tensor<1x32x40x64xf32>
    %433 = linalg.negf ins(%extracted_slice_90 : tensor<1x32x40x64xf32>) outs(%432 : tensor<1x32x40x64xf32>) -> tensor<1x32x40x64xf32>
    %434 = tensor.empty() : tensor<1x32x40x128xf32>
    %inserted_slice_91 = tensor.insert_slice %433 into %434[0, 0, 0, 0] [1, 32, 40, 64] [1, 1, 1, 1] : tensor<1x32x40x64xf32> into tensor<1x32x40x128xf32>
    %inserted_slice_92 = tensor.insert_slice %extracted_slice_89 into %inserted_slice_91[0, 0, 0, 64] [1, 32, 40, 64] [1, 1, 1, 1] : tensor<1x32x40x64xf32> into tensor<1x32x40x128xf32>
    %435 = tosa.mul %inserted_slice_92, %430 {shift = 0 : i8} : (tensor<1x32x40x128xf32>, tensor<1x1x40x128xf32>) -> tensor<1x32x40x128xf32>
    %436 = tosa.add %431, %435 : (tensor<1x32x40x128xf32>, tensor<1x32x40x128xf32>) -> tensor<1x32x40x128xf32>
    %437 = tosa.mul %425, %429 {shift = 0 : i8} : (tensor<1x32x40x128xf32>, tensor<1x1x40x128xf32>) -> tensor<1x32x40x128xf32>
    %extracted_slice_93 = tensor.extract_slice %425[0, 0, 0, 0] [1, 32, 40, 64] [1, 1, 1, 1] : tensor<1x32x40x128xf32> to tensor<1x32x40x64xf32>
    %extracted_slice_94 = tensor.extract_slice %425[0, 0, 0, 64] [1, 32, 40, 64] [1, 1, 1, 1] : tensor<1x32x40x128xf32> to tensor<1x32x40x64xf32>
    %438 = tensor.empty() : tensor<1x32x40x64xf32>
    %439 = linalg.negf ins(%extracted_slice_94 : tensor<1x32x40x64xf32>) outs(%438 : tensor<1x32x40x64xf32>) -> tensor<1x32x40x64xf32>
    %440 = tensor.empty() : tensor<1x32x40x128xf32>
    %inserted_slice_95 = tensor.insert_slice %439 into %440[0, 0, 0, 0] [1, 32, 40, 64] [1, 1, 1, 1] : tensor<1x32x40x64xf32> into tensor<1x32x40x128xf32>
    %inserted_slice_96 = tensor.insert_slice %extracted_slice_93 into %inserted_slice_95[0, 0, 0, 64] [1, 32, 40, 64] [1, 1, 1, 1] : tensor<1x32x40x64xf32> into tensor<1x32x40x128xf32>
    %441 = tosa.mul %inserted_slice_96, %430 {shift = 0 : i8} : (tensor<1x32x40x128xf32>, tensor<1x1x40x128xf32>) -> tensor<1x32x40x128xf32>
    %442 = tosa.add %437, %441 : (tensor<1x32x40x128xf32>, tensor<1x32x40x128xf32>) -> tensor<1x32x40x128xf32>
    %443 = tosa.reshape %19 {new_shape = array<i64: 1, 40, 41>} : (tensor<40x41xf32>) -> tensor<1x40x41xf32>
    %444 = tosa.reshape %443 {new_shape = array<i64: 1, 1, 40, 41>} : (tensor<1x40x41xf32>) -> tensor<1x1x40x41xf32>
    %extracted_slice_97 = tensor.extract_slice %444[0, 0, 0, 0] [1, 1, 40, 41] [1, 1, 1, 1] : tensor<1x1x40x41xf32> to tensor<1x1x40x41xf32>
    %extracted_slice_98 = tensor.extract_slice %extracted_slice_97[0, 0, 0, 0] [1, 1, 40, 41] [1, 1, 1, 1] : tensor<1x1x40x41xf32> to tensor<1x1x40x41xf32>
    %445 = "tosa.const"() <{value = dense<0.000000e+00> : tensor<1x1x40x41xf32>}> : () -> tensor<1x1x40x41xf32>
    %446 = tosa.add %extracted_slice_98, %445 : (tensor<1x1x40x41xf32>, tensor<1x1x40x41xf32>) -> tensor<1x1x40x41xf32>
    %extracted_slice_99 = tensor.extract_slice %446[0, 0, 0, 0] [1, 1, 40, 41] [1, 1, 1, 1] : tensor<1x1x40x41xf32> to tensor<1x1x40x41xf32>
    %extracted_slice_100 = tensor.extract_slice %extracted_slice_99[0, 0, 0, 0] [1, 1, 40, 41] [1, 1, 1, 1] : tensor<1x1x40x41xf32> to tensor<1x1x40x41xf32>
    %extracted_slice_101 = tensor.extract_slice %extracted_slice_100[0, 0, 0, 0] [1, 1, 40, 41] [1, 1, 1, 1] : tensor<1x1x40x41xf32> to tensor<1x1x40x41xf32>
    %extracted_slice_102 = tensor.extract_slice %extracted_slice_101[0, 0, 0, 0] [1, 1, 40, 40] [1, 1, 1, 1] : tensor<1x1x40x41xf32> to tensor<1x1x40x40xf32>
    %cst_103 = arith.constant 0.000000e+00 : f32
    %splat_104 = tensor.splat %cst_103 : tensor<40x40xf32>
    %447 = tosa.reshape %extracted_slice_102 {new_shape = array<i64: 40, 40>} : (tensor<1x1x40x40xf32>) -> tensor<40x40xf32>
    %448 = tosa.add %splat_104, %447 : (tensor<40x40xf32>, tensor<40x40xf32>) -> tensor<40x40xf32>
    %449 = "tosa.const"() <{value = dense<[0, 1, 3, 2]> : tensor<4xi32>}> : () -> tensor<4xi32>
    %450 = tosa.transpose %442, %449 : (tensor<1x32x40x128xf32>, tensor<4xi32>) -> tensor<1x32x128x40xf32>
    %451 = tosa.reshape %436 {new_shape = array<i64: 32, 40, 128>} : (tensor<1x32x40x128xf32>) -> tensor<32x40x128xf32>
    %452 = tosa.reshape %450 {new_shape = array<i64: 32, 128, 40>} : (tensor<1x32x128x40xf32>) -> tensor<32x128x40xf32>
    %453 = tosa.matmul %451, %452 : (tensor<32x40x128xf32>, tensor<32x128x40xf32>) -> tensor<32x40x40xf32>
    %cst_105 = arith.constant 0.0883883461 : f32
    %splat_106 = tensor.splat %cst_105 : tensor<32x40x40xf32>
    %454 = tosa.mul %453, %splat_106 {shift = 0 : i8} : (tensor<32x40x40xf32>, tensor<32x40x40xf32>) -> tensor<32x40x40xf32>
    %455 = tosa.add %454, %448 : (tensor<32x40x40xf32>, tensor<40x40xf32>) -> tensor<32x40x40xf32>
    %456 = tosa.reduce_max %455 {axis = 2 : i32} : (tensor<32x40x40xf32>) -> tensor<32x40x1xf32>
    %457 = tosa.sub %455, %456 : (tensor<32x40x40xf32>, tensor<32x40x1xf32>) -> tensor<32x40x40xf32>
    %458 = math.exp %457 : tensor<32x40x40xf32>
    %459 = tosa.reduce_sum %458 {axis = 2 : i32} : (tensor<32x40x40xf32>) -> tensor<32x40x1xf32>
    %460 = tosa.log %459 : (tensor<32x40x1xf32>) -> tensor<32x40x1xf32>
    %461 = tosa.add %456, %460 : (tensor<32x40x1xf32>, tensor<32x40x1xf32>) -> tensor<32x40x1xf32>
    %462 = tosa.sub %455, %461 : (tensor<32x40x40xf32>, tensor<32x40x1xf32>) -> tensor<32x40x40xf32>
    %463 = math.exp %462 : tensor<32x40x40xf32>
    %464 = tosa.reshape %461 {new_shape = array<i64: 1, 32, 40>} : (tensor<32x40x1xf32>) -> tensor<1x32x40xf32>
    %465 = tosa.reshape %428 {new_shape = array<i64: 32, 40, 128>} : (tensor<1x32x40x128xf32>) -> tensor<32x40x128xf32>
    %466 = tosa.matmul %463, %465 : (tensor<32x40x40xf32>, tensor<32x40x128xf32>) -> tensor<32x40x128xf32>
    %467 = tosa.reshape %466 {new_shape = array<i64: 1, 32, 40, 128>} : (tensor<32x40x128xf32>) -> tensor<1x32x40x128xf32>
    %468 = "tosa.const"() <{value = dense<[0, 2, 1, 3]> : tensor<4xi32>}> : () -> tensor<4xi32>
    %469 = tosa.transpose %467, %468 : (tensor<1x32x40x128xf32>, tensor<4xi32>) -> tensor<1x40x32x128xf32>
    %470 = tosa.reshape %469 {new_shape = array<i64: 1, 40, 4096>} : (tensor<1x40x32x128xf32>) -> tensor<1x40x4096xf32>
    %471 = "tosa.const"() <{value = dense<[1, 0]> : tensor<2xi32>}> : () -> tensor<2xi32>
    %472 = tosa.transpose %arg34, %471 : (tensor<4096x4096xf32>, tensor<2xi32>) -> tensor<4096x4096xf32>
    %473 = tosa.reshape %470 {new_shape = array<i64: 40, 4096>} : (tensor<1x40x4096xf32>) -> tensor<40x4096xf32>
    %cst_107 = arith.constant dense<0.000000e+00> : tensor<40x4096xf32>
    %474 = linalg.matmul {cast = #linalg.type_fn<cast_signed>} ins(%473, %472 : tensor<40x4096xf32>, tensor<4096x4096xf32>) outs(%cst_107 : tensor<40x4096xf32>) -> tensor<40x4096xf32>
    %475 = tosa.reshape %474 {new_shape = array<i64: 1, 40, 4096>} : (tensor<40x4096xf32>) -> tensor<1x40x4096xf32>
    %476 = tosa.add %392, %475 : (tensor<1x40x4096xf32>, tensor<1x40x4096xf32>) -> tensor<1x40x4096xf32>
    %477 = tensor.empty() : tensor<1x40x4096xf32>
    %c2_i32_108 = arith.constant 2 : i32
    %478 = linalg.generic {indexing_maps = [#map4, #map4], iterator_types = ["parallel", "parallel", "parallel"]} ins(%476 : tensor<1x40x4096xf32>) outs(%477 : tensor<1x40x4096xf32>) {
    ^bb0(%in: f32, %out: f32):
      %3745 = math.fpowi %in, %c2_i32_108 : f32, i32
      linalg.yield %3745 : f32
    } -> tensor<1x40x4096xf32>
    %479 = tosa.reduce_sum %478 {axis = 2 : i32} : (tensor<1x40x4096xf32>) -> tensor<1x40x1xf32>
    %480 = "tosa.const"() <{value = dense<4.096000e+03> : tensor<1xf32>}> : () -> tensor<1xf32>
    %481 = tosa.reciprocal %480 : (tensor<1xf32>) -> tensor<1xf32>
    %482 = tosa.mul %481, %479 {shift = 0 : i8} : (tensor<1xf32>, tensor<1x40x1xf32>) -> tensor<1x40x1xf32>
    %483 = "tosa.const"() <{value = dense<9.99999974E-6> : tensor<1x40x1xf32>}> : () -> tensor<1x40x1xf32>
    %484 = tosa.add %482, %483 : (tensor<1x40x1xf32>, tensor<1x40x1xf32>) -> tensor<1x40x1xf32>
    %485 = tosa.rsqrt %484 : (tensor<1x40x1xf32>) -> tensor<1x40x1xf32>
    %486 = tosa.mul %476, %485 {shift = 0 : i8} : (tensor<1x40x4096xf32>, tensor<1x40x1xf32>) -> tensor<1x40x4096xf32>
    %487 = tosa.reshape %arg35 {new_shape = array<i64: 1, 1, 4096>} : (tensor<4096xf32>) -> tensor<1x1x4096xf32>
    %488 = tosa.mul %487, %486 {shift = 0 : i8} : (tensor<1x1x4096xf32>, tensor<1x40x4096xf32>) -> tensor<1x40x4096xf32>
    %489 = "tosa.const"() <{value = dense<[1, 0]> : tensor<2xi32>}> : () -> tensor<2xi32>
    %490 = tosa.transpose %arg36, %489 : (tensor<11008x4096xf32>, tensor<2xi32>) -> tensor<4096x11008xf32>
    %491 = tosa.reshape %488 {new_shape = array<i64: 40, 4096>} : (tensor<1x40x4096xf32>) -> tensor<40x4096xf32>
    %cst_109 = arith.constant dense<0.000000e+00> : tensor<40x11008xf32>
    %492 = linalg.matmul {cast = #linalg.type_fn<cast_signed>} ins(%491, %490 : tensor<40x4096xf32>, tensor<4096x11008xf32>) outs(%cst_109 : tensor<40x11008xf32>) -> tensor<40x11008xf32>
    %493 = tosa.reshape %492 {new_shape = array<i64: 1, 40, 11008>} : (tensor<40x11008xf32>) -> tensor<1x40x11008xf32>
    %494 = tosa.sigmoid %493 : (tensor<1x40x11008xf32>) -> tensor<1x40x11008xf32>
    %495 = tosa.mul %493, %494 {shift = 0 : i8} : (tensor<1x40x11008xf32>, tensor<1x40x11008xf32>) -> tensor<1x40x11008xf32>
    %496 = "tosa.const"() <{value = dense<[1, 0]> : tensor<2xi32>}> : () -> tensor<2xi32>
    %497 = tosa.transpose %arg37, %496 : (tensor<11008x4096xf32>, tensor<2xi32>) -> tensor<4096x11008xf32>
    %498 = tosa.reshape %488 {new_shape = array<i64: 40, 4096>} : (tensor<1x40x4096xf32>) -> tensor<40x4096xf32>
    %cst_110 = arith.constant dense<0.000000e+00> : tensor<40x11008xf32>
    %499 = linalg.matmul {cast = #linalg.type_fn<cast_signed>} ins(%498, %497 : tensor<40x4096xf32>, tensor<4096x11008xf32>) outs(%cst_110 : tensor<40x11008xf32>) -> tensor<40x11008xf32>
    %500 = tosa.reshape %499 {new_shape = array<i64: 1, 40, 11008>} : (tensor<40x11008xf32>) -> tensor<1x40x11008xf32>
    %501 = tosa.mul %495, %500 {shift = 0 : i8} : (tensor<1x40x11008xf32>, tensor<1x40x11008xf32>) -> tensor<1x40x11008xf32>
    %502 = "tosa.const"() <{value = dense<[1, 0]> : tensor<2xi32>}> : () -> tensor<2xi32>
    %503 = tosa.transpose %arg38, %502 : (tensor<4096x11008xf32>, tensor<2xi32>) -> tensor<11008x4096xf32>
    %504 = tosa.reshape %501 {new_shape = array<i64: 40, 11008>} : (tensor<1x40x11008xf32>) -> tensor<40x11008xf32>
    %cst_111 = arith.constant dense<0.000000e+00> : tensor<40x4096xf32>
    %505 = linalg.matmul {cast = #linalg.type_fn<cast_signed>} ins(%504, %503 : tensor<40x11008xf32>, tensor<11008x4096xf32>) outs(%cst_111 : tensor<40x4096xf32>) -> tensor<40x4096xf32>
    %506 = tosa.reshape %505 {new_shape = array<i64: 1, 40, 4096>} : (tensor<40x4096xf32>) -> tensor<1x40x4096xf32>
    %507 = tosa.add %476, %506 : (tensor<1x40x4096xf32>, tensor<1x40x4096xf32>) -> tensor<1x40x4096xf32>
    %508 = tensor.empty() : tensor<1x40x4096xf32>
    %c2_i32_112 = arith.constant 2 : i32
    %509 = linalg.generic {indexing_maps = [#map4, #map4], iterator_types = ["parallel", "parallel", "parallel"]} ins(%507 : tensor<1x40x4096xf32>) outs(%508 : tensor<1x40x4096xf32>) {
    ^bb0(%in: f32, %out: f32):
      %3745 = math.fpowi %in, %c2_i32_112 : f32, i32
      linalg.yield %3745 : f32
    } -> tensor<1x40x4096xf32>
    %510 = tosa.reduce_sum %509 {axis = 2 : i32} : (tensor<1x40x4096xf32>) -> tensor<1x40x1xf32>
    %511 = "tosa.const"() <{value = dense<4.096000e+03> : tensor<1xf32>}> : () -> tensor<1xf32>
    %512 = tosa.reciprocal %511 : (tensor<1xf32>) -> tensor<1xf32>
    %513 = tosa.mul %512, %510 {shift = 0 : i8} : (tensor<1xf32>, tensor<1x40x1xf32>) -> tensor<1x40x1xf32>
    %514 = "tosa.const"() <{value = dense<9.99999974E-6> : tensor<1x40x1xf32>}> : () -> tensor<1x40x1xf32>
    %515 = tosa.add %513, %514 : (tensor<1x40x1xf32>, tensor<1x40x1xf32>) -> tensor<1x40x1xf32>
    %516 = tosa.rsqrt %515 : (tensor<1x40x1xf32>) -> tensor<1x40x1xf32>
    %517 = tosa.mul %507, %516 {shift = 0 : i8} : (tensor<1x40x4096xf32>, tensor<1x40x1xf32>) -> tensor<1x40x4096xf32>
    %518 = tosa.reshape %arg39 {new_shape = array<i64: 1, 1, 4096>} : (tensor<4096xf32>) -> tensor<1x1x4096xf32>
    %519 = tosa.mul %518, %517 {shift = 0 : i8} : (tensor<1x1x4096xf32>, tensor<1x40x4096xf32>) -> tensor<1x40x4096xf32>
    %520 = "tosa.const"() <{value = dense<[1, 0]> : tensor<2xi32>}> : () -> tensor<2xi32>
    %521 = tosa.transpose %arg40, %520 : (tensor<4096x4096xf32>, tensor<2xi32>) -> tensor<4096x4096xf32>
    %522 = tosa.reshape %519 {new_shape = array<i64: 40, 4096>} : (tensor<1x40x4096xf32>) -> tensor<40x4096xf32>
    %cst_113 = arith.constant dense<0.000000e+00> : tensor<40x4096xf32>
    %523 = linalg.matmul {cast = #linalg.type_fn<cast_signed>} ins(%522, %521 : tensor<40x4096xf32>, tensor<4096x4096xf32>) outs(%cst_113 : tensor<40x4096xf32>) -> tensor<40x4096xf32>
    %524 = tosa.reshape %523 {new_shape = array<i64: 1, 40, 4096>} : (tensor<40x4096xf32>) -> tensor<1x40x4096xf32>
    %525 = "tosa.const"() <{value = dense<[1, 0]> : tensor<2xi32>}> : () -> tensor<2xi32>
    %526 = tosa.transpose %arg41, %525 : (tensor<4096x4096xf32>, tensor<2xi32>) -> tensor<4096x4096xf32>
    %527 = tosa.reshape %519 {new_shape = array<i64: 40, 4096>} : (tensor<1x40x4096xf32>) -> tensor<40x4096xf32>
    %cst_114 = arith.constant dense<0.000000e+00> : tensor<40x4096xf32>
    %528 = linalg.matmul {cast = #linalg.type_fn<cast_signed>} ins(%527, %526 : tensor<40x4096xf32>, tensor<4096x4096xf32>) outs(%cst_114 : tensor<40x4096xf32>) -> tensor<40x4096xf32>
    %529 = tosa.reshape %528 {new_shape = array<i64: 1, 40, 4096>} : (tensor<40x4096xf32>) -> tensor<1x40x4096xf32>
    %530 = "tosa.const"() <{value = dense<[1, 0]> : tensor<2xi32>}> : () -> tensor<2xi32>
    %531 = tosa.transpose %arg42, %530 : (tensor<4096x4096xf32>, tensor<2xi32>) -> tensor<4096x4096xf32>
    %532 = tosa.reshape %519 {new_shape = array<i64: 40, 4096>} : (tensor<1x40x4096xf32>) -> tensor<40x4096xf32>
    %cst_115 = arith.constant dense<0.000000e+00> : tensor<40x4096xf32>
    %533 = linalg.matmul {cast = #linalg.type_fn<cast_signed>} ins(%532, %531 : tensor<40x4096xf32>, tensor<4096x4096xf32>) outs(%cst_115 : tensor<40x4096xf32>) -> tensor<40x4096xf32>
    %534 = tosa.reshape %533 {new_shape = array<i64: 1, 40, 4096>} : (tensor<40x4096xf32>) -> tensor<1x40x4096xf32>
    %535 = tosa.reshape %524 {new_shape = array<i64: 1, 40, 32, 128>} : (tensor<1x40x4096xf32>) -> tensor<1x40x32x128xf32>
    %536 = "tosa.const"() <{value = dense<[0, 2, 1, 3]> : tensor<4xi32>}> : () -> tensor<4xi32>
    %537 = tosa.transpose %535, %536 : (tensor<1x40x32x128xf32>, tensor<4xi32>) -> tensor<1x32x40x128xf32>
    %538 = tosa.reshape %529 {new_shape = array<i64: 1, 40, 32, 128>} : (tensor<1x40x4096xf32>) -> tensor<1x40x32x128xf32>
    %539 = "tosa.const"() <{value = dense<[0, 2, 1, 3]> : tensor<4xi32>}> : () -> tensor<4xi32>
    %540 = tosa.transpose %538, %539 : (tensor<1x40x32x128xf32>, tensor<4xi32>) -> tensor<1x32x40x128xf32>
    %541 = tosa.reshape %534 {new_shape = array<i64: 1, 40, 32, 128>} : (tensor<1x40x4096xf32>) -> tensor<1x40x32x128xf32>
    %542 = "tosa.const"() <{value = dense<[0, 2, 1, 3]> : tensor<4xi32>}> : () -> tensor<4xi32>
    %543 = tosa.transpose %541, %542 : (tensor<1x40x32x128xf32>, tensor<4xi32>) -> tensor<1x32x40x128xf32>
    %544 = tosa.reshape %45 {new_shape = array<i64: 1, 1, 40, 128>} : (tensor<1x40x128xf32>) -> tensor<1x1x40x128xf32>
    %545 = tosa.reshape %47 {new_shape = array<i64: 1, 1, 40, 128>} : (tensor<1x40x128xf32>) -> tensor<1x1x40x128xf32>
    %546 = tosa.mul %537, %544 {shift = 0 : i8} : (tensor<1x32x40x128xf32>, tensor<1x1x40x128xf32>) -> tensor<1x32x40x128xf32>
    %extracted_slice_116 = tensor.extract_slice %537[0, 0, 0, 0] [1, 32, 40, 64] [1, 1, 1, 1] : tensor<1x32x40x128xf32> to tensor<1x32x40x64xf32>
    %extracted_slice_117 = tensor.extract_slice %537[0, 0, 0, 64] [1, 32, 40, 64] [1, 1, 1, 1] : tensor<1x32x40x128xf32> to tensor<1x32x40x64xf32>
    %547 = tensor.empty() : tensor<1x32x40x64xf32>
    %548 = linalg.negf ins(%extracted_slice_117 : tensor<1x32x40x64xf32>) outs(%547 : tensor<1x32x40x64xf32>) -> tensor<1x32x40x64xf32>
    %549 = tensor.empty() : tensor<1x32x40x128xf32>
    %inserted_slice_118 = tensor.insert_slice %548 into %549[0, 0, 0, 0] [1, 32, 40, 64] [1, 1, 1, 1] : tensor<1x32x40x64xf32> into tensor<1x32x40x128xf32>
    %inserted_slice_119 = tensor.insert_slice %extracted_slice_116 into %inserted_slice_118[0, 0, 0, 64] [1, 32, 40, 64] [1, 1, 1, 1] : tensor<1x32x40x64xf32> into tensor<1x32x40x128xf32>
    %550 = tosa.mul %inserted_slice_119, %545 {shift = 0 : i8} : (tensor<1x32x40x128xf32>, tensor<1x1x40x128xf32>) -> tensor<1x32x40x128xf32>
    %551 = tosa.add %546, %550 : (tensor<1x32x40x128xf32>, tensor<1x32x40x128xf32>) -> tensor<1x32x40x128xf32>
    %552 = tosa.mul %540, %544 {shift = 0 : i8} : (tensor<1x32x40x128xf32>, tensor<1x1x40x128xf32>) -> tensor<1x32x40x128xf32>
    %extracted_slice_120 = tensor.extract_slice %540[0, 0, 0, 0] [1, 32, 40, 64] [1, 1, 1, 1] : tensor<1x32x40x128xf32> to tensor<1x32x40x64xf32>
    %extracted_slice_121 = tensor.extract_slice %540[0, 0, 0, 64] [1, 32, 40, 64] [1, 1, 1, 1] : tensor<1x32x40x128xf32> to tensor<1x32x40x64xf32>
    %553 = tensor.empty() : tensor<1x32x40x64xf32>
    %554 = linalg.negf ins(%extracted_slice_121 : tensor<1x32x40x64xf32>) outs(%553 : tensor<1x32x40x64xf32>) -> tensor<1x32x40x64xf32>
    %555 = tensor.empty() : tensor<1x32x40x128xf32>
    %inserted_slice_122 = tensor.insert_slice %554 into %555[0, 0, 0, 0] [1, 32, 40, 64] [1, 1, 1, 1] : tensor<1x32x40x64xf32> into tensor<1x32x40x128xf32>
    %inserted_slice_123 = tensor.insert_slice %extracted_slice_120 into %inserted_slice_122[0, 0, 0, 64] [1, 32, 40, 64] [1, 1, 1, 1] : tensor<1x32x40x64xf32> into tensor<1x32x40x128xf32>
    %556 = tosa.mul %inserted_slice_123, %545 {shift = 0 : i8} : (tensor<1x32x40x128xf32>, tensor<1x1x40x128xf32>) -> tensor<1x32x40x128xf32>
    %557 = tosa.add %552, %556 : (tensor<1x32x40x128xf32>, tensor<1x32x40x128xf32>) -> tensor<1x32x40x128xf32>
    %558 = tosa.reshape %19 {new_shape = array<i64: 1, 40, 41>} : (tensor<40x41xf32>) -> tensor<1x40x41xf32>
    %559 = tosa.reshape %558 {new_shape = array<i64: 1, 1, 40, 41>} : (tensor<1x40x41xf32>) -> tensor<1x1x40x41xf32>
    %extracted_slice_124 = tensor.extract_slice %559[0, 0, 0, 0] [1, 1, 40, 41] [1, 1, 1, 1] : tensor<1x1x40x41xf32> to tensor<1x1x40x41xf32>
    %extracted_slice_125 = tensor.extract_slice %extracted_slice_124[0, 0, 0, 0] [1, 1, 40, 41] [1, 1, 1, 1] : tensor<1x1x40x41xf32> to tensor<1x1x40x41xf32>
    %560 = "tosa.const"() <{value = dense<0.000000e+00> : tensor<1x1x40x41xf32>}> : () -> tensor<1x1x40x41xf32>
    %561 = tosa.add %extracted_slice_125, %560 : (tensor<1x1x40x41xf32>, tensor<1x1x40x41xf32>) -> tensor<1x1x40x41xf32>
    %extracted_slice_126 = tensor.extract_slice %561[0, 0, 0, 0] [1, 1, 40, 41] [1, 1, 1, 1] : tensor<1x1x40x41xf32> to tensor<1x1x40x41xf32>
    %extracted_slice_127 = tensor.extract_slice %extracted_slice_126[0, 0, 0, 0] [1, 1, 40, 41] [1, 1, 1, 1] : tensor<1x1x40x41xf32> to tensor<1x1x40x41xf32>
    %extracted_slice_128 = tensor.extract_slice %extracted_slice_127[0, 0, 0, 0] [1, 1, 40, 41] [1, 1, 1, 1] : tensor<1x1x40x41xf32> to tensor<1x1x40x41xf32>
    %extracted_slice_129 = tensor.extract_slice %extracted_slice_128[0, 0, 0, 0] [1, 1, 40, 40] [1, 1, 1, 1] : tensor<1x1x40x41xf32> to tensor<1x1x40x40xf32>
    %cst_130 = arith.constant 0.000000e+00 : f32
    %splat_131 = tensor.splat %cst_130 : tensor<40x40xf32>
    %562 = tosa.reshape %extracted_slice_129 {new_shape = array<i64: 40, 40>} : (tensor<1x1x40x40xf32>) -> tensor<40x40xf32>
    %563 = tosa.add %splat_131, %562 : (tensor<40x40xf32>, tensor<40x40xf32>) -> tensor<40x40xf32>
    %564 = "tosa.const"() <{value = dense<[0, 1, 3, 2]> : tensor<4xi32>}> : () -> tensor<4xi32>
    %565 = tosa.transpose %557, %564 : (tensor<1x32x40x128xf32>, tensor<4xi32>) -> tensor<1x32x128x40xf32>
    %566 = tosa.reshape %551 {new_shape = array<i64: 32, 40, 128>} : (tensor<1x32x40x128xf32>) -> tensor<32x40x128xf32>
    %567 = tosa.reshape %565 {new_shape = array<i64: 32, 128, 40>} : (tensor<1x32x128x40xf32>) -> tensor<32x128x40xf32>
    %568 = tosa.matmul %566, %567 : (tensor<32x40x128xf32>, tensor<32x128x40xf32>) -> tensor<32x40x40xf32>
    %cst_132 = arith.constant 0.0883883461 : f32
    %splat_133 = tensor.splat %cst_132 : tensor<32x40x40xf32>
    %569 = tosa.mul %568, %splat_133 {shift = 0 : i8} : (tensor<32x40x40xf32>, tensor<32x40x40xf32>) -> tensor<32x40x40xf32>
    %570 = tosa.add %569, %563 : (tensor<32x40x40xf32>, tensor<40x40xf32>) -> tensor<32x40x40xf32>
    %571 = tosa.reduce_max %570 {axis = 2 : i32} : (tensor<32x40x40xf32>) -> tensor<32x40x1xf32>
    %572 = tosa.sub %570, %571 : (tensor<32x40x40xf32>, tensor<32x40x1xf32>) -> tensor<32x40x40xf32>
    %573 = math.exp %572 : tensor<32x40x40xf32>
    %574 = tosa.reduce_sum %573 {axis = 2 : i32} : (tensor<32x40x40xf32>) -> tensor<32x40x1xf32>
    %575 = tosa.log %574 : (tensor<32x40x1xf32>) -> tensor<32x40x1xf32>
    %576 = tosa.add %571, %575 : (tensor<32x40x1xf32>, tensor<32x40x1xf32>) -> tensor<32x40x1xf32>
    %577 = tosa.sub %570, %576 : (tensor<32x40x40xf32>, tensor<32x40x1xf32>) -> tensor<32x40x40xf32>
    %578 = math.exp %577 : tensor<32x40x40xf32>
    %579 = tosa.reshape %576 {new_shape = array<i64: 1, 32, 40>} : (tensor<32x40x1xf32>) -> tensor<1x32x40xf32>
    %580 = tosa.reshape %543 {new_shape = array<i64: 32, 40, 128>} : (tensor<1x32x40x128xf32>) -> tensor<32x40x128xf32>
    %581 = tosa.matmul %578, %580 : (tensor<32x40x40xf32>, tensor<32x40x128xf32>) -> tensor<32x40x128xf32>
    %582 = tosa.reshape %581 {new_shape = array<i64: 1, 32, 40, 128>} : (tensor<32x40x128xf32>) -> tensor<1x32x40x128xf32>
    %583 = "tosa.const"() <{value = dense<[0, 2, 1, 3]> : tensor<4xi32>}> : () -> tensor<4xi32>
    %584 = tosa.transpose %582, %583 : (tensor<1x32x40x128xf32>, tensor<4xi32>) -> tensor<1x40x32x128xf32>
    %585 = tosa.reshape %584 {new_shape = array<i64: 1, 40, 4096>} : (tensor<1x40x32x128xf32>) -> tensor<1x40x4096xf32>
    %586 = "tosa.const"() <{value = dense<[1, 0]> : tensor<2xi32>}> : () -> tensor<2xi32>
    %587 = tosa.transpose %arg43, %586 : (tensor<4096x4096xf32>, tensor<2xi32>) -> tensor<4096x4096xf32>
    %588 = tosa.reshape %585 {new_shape = array<i64: 40, 4096>} : (tensor<1x40x4096xf32>) -> tensor<40x4096xf32>
    %cst_134 = arith.constant dense<0.000000e+00> : tensor<40x4096xf32>
    %589 = linalg.matmul {cast = #linalg.type_fn<cast_signed>} ins(%588, %587 : tensor<40x4096xf32>, tensor<4096x4096xf32>) outs(%cst_134 : tensor<40x4096xf32>) -> tensor<40x4096xf32>
    %590 = tosa.reshape %589 {new_shape = array<i64: 1, 40, 4096>} : (tensor<40x4096xf32>) -> tensor<1x40x4096xf32>
    %591 = tosa.add %507, %590 : (tensor<1x40x4096xf32>, tensor<1x40x4096xf32>) -> tensor<1x40x4096xf32>
    %592 = tensor.empty() : tensor<1x40x4096xf32>
    %c2_i32_135 = arith.constant 2 : i32
    %593 = linalg.generic {indexing_maps = [#map4, #map4], iterator_types = ["parallel", "parallel", "parallel"]} ins(%591 : tensor<1x40x4096xf32>) outs(%592 : tensor<1x40x4096xf32>) {
    ^bb0(%in: f32, %out: f32):
      %3745 = math.fpowi %in, %c2_i32_135 : f32, i32
      linalg.yield %3745 : f32
    } -> tensor<1x40x4096xf32>
    %594 = tosa.reduce_sum %593 {axis = 2 : i32} : (tensor<1x40x4096xf32>) -> tensor<1x40x1xf32>
    %595 = "tosa.const"() <{value = dense<4.096000e+03> : tensor<1xf32>}> : () -> tensor<1xf32>
    %596 = tosa.reciprocal %595 : (tensor<1xf32>) -> tensor<1xf32>
    %597 = tosa.mul %596, %594 {shift = 0 : i8} : (tensor<1xf32>, tensor<1x40x1xf32>) -> tensor<1x40x1xf32>
    %598 = "tosa.const"() <{value = dense<9.99999974E-6> : tensor<1x40x1xf32>}> : () -> tensor<1x40x1xf32>
    %599 = tosa.add %597, %598 : (tensor<1x40x1xf32>, tensor<1x40x1xf32>) -> tensor<1x40x1xf32>
    %600 = tosa.rsqrt %599 : (tensor<1x40x1xf32>) -> tensor<1x40x1xf32>
    %601 = tosa.mul %591, %600 {shift = 0 : i8} : (tensor<1x40x4096xf32>, tensor<1x40x1xf32>) -> tensor<1x40x4096xf32>
    %602 = tosa.reshape %arg44 {new_shape = array<i64: 1, 1, 4096>} : (tensor<4096xf32>) -> tensor<1x1x4096xf32>
    %603 = tosa.mul %602, %601 {shift = 0 : i8} : (tensor<1x1x4096xf32>, tensor<1x40x4096xf32>) -> tensor<1x40x4096xf32>
    %604 = "tosa.const"() <{value = dense<[1, 0]> : tensor<2xi32>}> : () -> tensor<2xi32>
    %605 = tosa.transpose %arg45, %604 : (tensor<11008x4096xf32>, tensor<2xi32>) -> tensor<4096x11008xf32>
    %606 = tosa.reshape %603 {new_shape = array<i64: 40, 4096>} : (tensor<1x40x4096xf32>) -> tensor<40x4096xf32>
    %cst_136 = arith.constant dense<0.000000e+00> : tensor<40x11008xf32>
    %607 = linalg.matmul {cast = #linalg.type_fn<cast_signed>} ins(%606, %605 : tensor<40x4096xf32>, tensor<4096x11008xf32>) outs(%cst_136 : tensor<40x11008xf32>) -> tensor<40x11008xf32>
    %608 = tosa.reshape %607 {new_shape = array<i64: 1, 40, 11008>} : (tensor<40x11008xf32>) -> tensor<1x40x11008xf32>
    %609 = tosa.sigmoid %608 : (tensor<1x40x11008xf32>) -> tensor<1x40x11008xf32>
    %610 = tosa.mul %608, %609 {shift = 0 : i8} : (tensor<1x40x11008xf32>, tensor<1x40x11008xf32>) -> tensor<1x40x11008xf32>
    %611 = "tosa.const"() <{value = dense<[1, 0]> : tensor<2xi32>}> : () -> tensor<2xi32>
    %612 = tosa.transpose %arg46, %611 : (tensor<11008x4096xf32>, tensor<2xi32>) -> tensor<4096x11008xf32>
    %613 = tosa.reshape %603 {new_shape = array<i64: 40, 4096>} : (tensor<1x40x4096xf32>) -> tensor<40x4096xf32>
    %cst_137 = arith.constant dense<0.000000e+00> : tensor<40x11008xf32>
    %614 = linalg.matmul {cast = #linalg.type_fn<cast_signed>} ins(%613, %612 : tensor<40x4096xf32>, tensor<4096x11008xf32>) outs(%cst_137 : tensor<40x11008xf32>) -> tensor<40x11008xf32>
    %615 = tosa.reshape %614 {new_shape = array<i64: 1, 40, 11008>} : (tensor<40x11008xf32>) -> tensor<1x40x11008xf32>
    %616 = tosa.mul %610, %615 {shift = 0 : i8} : (tensor<1x40x11008xf32>, tensor<1x40x11008xf32>) -> tensor<1x40x11008xf32>
    %617 = "tosa.const"() <{value = dense<[1, 0]> : tensor<2xi32>}> : () -> tensor<2xi32>
    %618 = tosa.transpose %arg47, %617 : (tensor<4096x11008xf32>, tensor<2xi32>) -> tensor<11008x4096xf32>
    %619 = tosa.reshape %616 {new_shape = array<i64: 40, 11008>} : (tensor<1x40x11008xf32>) -> tensor<40x11008xf32>
    %cst_138 = arith.constant dense<0.000000e+00> : tensor<40x4096xf32>
    %620 = linalg.matmul {cast = #linalg.type_fn<cast_signed>} ins(%619, %618 : tensor<40x11008xf32>, tensor<11008x4096xf32>) outs(%cst_138 : tensor<40x4096xf32>) -> tensor<40x4096xf32>
    %621 = tosa.reshape %620 {new_shape = array<i64: 1, 40, 4096>} : (tensor<40x4096xf32>) -> tensor<1x40x4096xf32>
    %622 = tosa.add %591, %621 : (tensor<1x40x4096xf32>, tensor<1x40x4096xf32>) -> tensor<1x40x4096xf32>
    %623 = tensor.empty() : tensor<1x40x4096xf32>
    %c2_i32_139 = arith.constant 2 : i32
    %624 = linalg.generic {indexing_maps = [#map4, #map4], iterator_types = ["parallel", "parallel", "parallel"]} ins(%622 : tensor<1x40x4096xf32>) outs(%623 : tensor<1x40x4096xf32>) {
    ^bb0(%in: f32, %out: f32):
      %3745 = math.fpowi %in, %c2_i32_139 : f32, i32
      linalg.yield %3745 : f32
    } -> tensor<1x40x4096xf32>
    %625 = tosa.reduce_sum %624 {axis = 2 : i32} : (tensor<1x40x4096xf32>) -> tensor<1x40x1xf32>
    %626 = "tosa.const"() <{value = dense<4.096000e+03> : tensor<1xf32>}> : () -> tensor<1xf32>
    %627 = tosa.reciprocal %626 : (tensor<1xf32>) -> tensor<1xf32>
    %628 = tosa.mul %627, %625 {shift = 0 : i8} : (tensor<1xf32>, tensor<1x40x1xf32>) -> tensor<1x40x1xf32>
    %629 = "tosa.const"() <{value = dense<9.99999974E-6> : tensor<1x40x1xf32>}> : () -> tensor<1x40x1xf32>
    %630 = tosa.add %628, %629 : (tensor<1x40x1xf32>, tensor<1x40x1xf32>) -> tensor<1x40x1xf32>
    %631 = tosa.rsqrt %630 : (tensor<1x40x1xf32>) -> tensor<1x40x1xf32>
    %632 = tosa.mul %622, %631 {shift = 0 : i8} : (tensor<1x40x4096xf32>, tensor<1x40x1xf32>) -> tensor<1x40x4096xf32>
    %633 = tosa.reshape %arg48 {new_shape = array<i64: 1, 1, 4096>} : (tensor<4096xf32>) -> tensor<1x1x4096xf32>
    %634 = tosa.mul %633, %632 {shift = 0 : i8} : (tensor<1x1x4096xf32>, tensor<1x40x4096xf32>) -> tensor<1x40x4096xf32>
    %635 = "tosa.const"() <{value = dense<[1, 0]> : tensor<2xi32>}> : () -> tensor<2xi32>
    %636 = tosa.transpose %arg49, %635 : (tensor<4096x4096xf32>, tensor<2xi32>) -> tensor<4096x4096xf32>
    %637 = tosa.reshape %634 {new_shape = array<i64: 40, 4096>} : (tensor<1x40x4096xf32>) -> tensor<40x4096xf32>
    %cst_140 = arith.constant dense<0.000000e+00> : tensor<40x4096xf32>
    %638 = linalg.matmul {cast = #linalg.type_fn<cast_signed>} ins(%637, %636 : tensor<40x4096xf32>, tensor<4096x4096xf32>) outs(%cst_140 : tensor<40x4096xf32>) -> tensor<40x4096xf32>
    %639 = tosa.reshape %638 {new_shape = array<i64: 1, 40, 4096>} : (tensor<40x4096xf32>) -> tensor<1x40x4096xf32>
    %640 = "tosa.const"() <{value = dense<[1, 0]> : tensor<2xi32>}> : () -> tensor<2xi32>
    %641 = tosa.transpose %arg50, %640 : (tensor<4096x4096xf32>, tensor<2xi32>) -> tensor<4096x4096xf32>
    %642 = tosa.reshape %634 {new_shape = array<i64: 40, 4096>} : (tensor<1x40x4096xf32>) -> tensor<40x4096xf32>
    %cst_141 = arith.constant dense<0.000000e+00> : tensor<40x4096xf32>
    %643 = linalg.matmul {cast = #linalg.type_fn<cast_signed>} ins(%642, %641 : tensor<40x4096xf32>, tensor<4096x4096xf32>) outs(%cst_141 : tensor<40x4096xf32>) -> tensor<40x4096xf32>
    %644 = tosa.reshape %643 {new_shape = array<i64: 1, 40, 4096>} : (tensor<40x4096xf32>) -> tensor<1x40x4096xf32>
    %645 = "tosa.const"() <{value = dense<[1, 0]> : tensor<2xi32>}> : () -> tensor<2xi32>
    %646 = tosa.transpose %arg51, %645 : (tensor<4096x4096xf32>, tensor<2xi32>) -> tensor<4096x4096xf32>
    %647 = tosa.reshape %634 {new_shape = array<i64: 40, 4096>} : (tensor<1x40x4096xf32>) -> tensor<40x4096xf32>
    %cst_142 = arith.constant dense<0.000000e+00> : tensor<40x4096xf32>
    %648 = linalg.matmul {cast = #linalg.type_fn<cast_signed>} ins(%647, %646 : tensor<40x4096xf32>, tensor<4096x4096xf32>) outs(%cst_142 : tensor<40x4096xf32>) -> tensor<40x4096xf32>
    %649 = tosa.reshape %648 {new_shape = array<i64: 1, 40, 4096>} : (tensor<40x4096xf32>) -> tensor<1x40x4096xf32>
    %650 = tosa.reshape %639 {new_shape = array<i64: 1, 40, 32, 128>} : (tensor<1x40x4096xf32>) -> tensor<1x40x32x128xf32>
    %651 = "tosa.const"() <{value = dense<[0, 2, 1, 3]> : tensor<4xi32>}> : () -> tensor<4xi32>
    %652 = tosa.transpose %650, %651 : (tensor<1x40x32x128xf32>, tensor<4xi32>) -> tensor<1x32x40x128xf32>
    %653 = tosa.reshape %644 {new_shape = array<i64: 1, 40, 32, 128>} : (tensor<1x40x4096xf32>) -> tensor<1x40x32x128xf32>
    %654 = "tosa.const"() <{value = dense<[0, 2, 1, 3]> : tensor<4xi32>}> : () -> tensor<4xi32>
    %655 = tosa.transpose %653, %654 : (tensor<1x40x32x128xf32>, tensor<4xi32>) -> tensor<1x32x40x128xf32>
    %656 = tosa.reshape %649 {new_shape = array<i64: 1, 40, 32, 128>} : (tensor<1x40x4096xf32>) -> tensor<1x40x32x128xf32>
    %657 = "tosa.const"() <{value = dense<[0, 2, 1, 3]> : tensor<4xi32>}> : () -> tensor<4xi32>
    %658 = tosa.transpose %656, %657 : (tensor<1x40x32x128xf32>, tensor<4xi32>) -> tensor<1x32x40x128xf32>
    %659 = tosa.reshape %45 {new_shape = array<i64: 1, 1, 40, 128>} : (tensor<1x40x128xf32>) -> tensor<1x1x40x128xf32>
    %660 = tosa.reshape %47 {new_shape = array<i64: 1, 1, 40, 128>} : (tensor<1x40x128xf32>) -> tensor<1x1x40x128xf32>
    %661 = tosa.mul %652, %659 {shift = 0 : i8} : (tensor<1x32x40x128xf32>, tensor<1x1x40x128xf32>) -> tensor<1x32x40x128xf32>
    %extracted_slice_143 = tensor.extract_slice %652[0, 0, 0, 0] [1, 32, 40, 64] [1, 1, 1, 1] : tensor<1x32x40x128xf32> to tensor<1x32x40x64xf32>
    %extracted_slice_144 = tensor.extract_slice %652[0, 0, 0, 64] [1, 32, 40, 64] [1, 1, 1, 1] : tensor<1x32x40x128xf32> to tensor<1x32x40x64xf32>
    %662 = tensor.empty() : tensor<1x32x40x64xf32>
    %663 = linalg.negf ins(%extracted_slice_144 : tensor<1x32x40x64xf32>) outs(%662 : tensor<1x32x40x64xf32>) -> tensor<1x32x40x64xf32>
    %664 = tensor.empty() : tensor<1x32x40x128xf32>
    %inserted_slice_145 = tensor.insert_slice %663 into %664[0, 0, 0, 0] [1, 32, 40, 64] [1, 1, 1, 1] : tensor<1x32x40x64xf32> into tensor<1x32x40x128xf32>
    %inserted_slice_146 = tensor.insert_slice %extracted_slice_143 into %inserted_slice_145[0, 0, 0, 64] [1, 32, 40, 64] [1, 1, 1, 1] : tensor<1x32x40x64xf32> into tensor<1x32x40x128xf32>
    %665 = tosa.mul %inserted_slice_146, %660 {shift = 0 : i8} : (tensor<1x32x40x128xf32>, tensor<1x1x40x128xf32>) -> tensor<1x32x40x128xf32>
    %666 = tosa.add %661, %665 : (tensor<1x32x40x128xf32>, tensor<1x32x40x128xf32>) -> tensor<1x32x40x128xf32>
    %667 = tosa.mul %655, %659 {shift = 0 : i8} : (tensor<1x32x40x128xf32>, tensor<1x1x40x128xf32>) -> tensor<1x32x40x128xf32>
    %extracted_slice_147 = tensor.extract_slice %655[0, 0, 0, 0] [1, 32, 40, 64] [1, 1, 1, 1] : tensor<1x32x40x128xf32> to tensor<1x32x40x64xf32>
    %extracted_slice_148 = tensor.extract_slice %655[0, 0, 0, 64] [1, 32, 40, 64] [1, 1, 1, 1] : tensor<1x32x40x128xf32> to tensor<1x32x40x64xf32>
    %668 = tensor.empty() : tensor<1x32x40x64xf32>
    %669 = linalg.negf ins(%extracted_slice_148 : tensor<1x32x40x64xf32>) outs(%668 : tensor<1x32x40x64xf32>) -> tensor<1x32x40x64xf32>
    %670 = tensor.empty() : tensor<1x32x40x128xf32>
    %inserted_slice_149 = tensor.insert_slice %669 into %670[0, 0, 0, 0] [1, 32, 40, 64] [1, 1, 1, 1] : tensor<1x32x40x64xf32> into tensor<1x32x40x128xf32>
    %inserted_slice_150 = tensor.insert_slice %extracted_slice_147 into %inserted_slice_149[0, 0, 0, 64] [1, 32, 40, 64] [1, 1, 1, 1] : tensor<1x32x40x64xf32> into tensor<1x32x40x128xf32>
    %671 = tosa.mul %inserted_slice_150, %660 {shift = 0 : i8} : (tensor<1x32x40x128xf32>, tensor<1x1x40x128xf32>) -> tensor<1x32x40x128xf32>
    %672 = tosa.add %667, %671 : (tensor<1x32x40x128xf32>, tensor<1x32x40x128xf32>) -> tensor<1x32x40x128xf32>
    %673 = tosa.reshape %19 {new_shape = array<i64: 1, 40, 41>} : (tensor<40x41xf32>) -> tensor<1x40x41xf32>
    %674 = tosa.reshape %673 {new_shape = array<i64: 1, 1, 40, 41>} : (tensor<1x40x41xf32>) -> tensor<1x1x40x41xf32>
    %extracted_slice_151 = tensor.extract_slice %674[0, 0, 0, 0] [1, 1, 40, 41] [1, 1, 1, 1] : tensor<1x1x40x41xf32> to tensor<1x1x40x41xf32>
    %extracted_slice_152 = tensor.extract_slice %extracted_slice_151[0, 0, 0, 0] [1, 1, 40, 41] [1, 1, 1, 1] : tensor<1x1x40x41xf32> to tensor<1x1x40x41xf32>
    %675 = "tosa.const"() <{value = dense<0.000000e+00> : tensor<1x1x40x41xf32>}> : () -> tensor<1x1x40x41xf32>
    %676 = tosa.add %extracted_slice_152, %675 : (tensor<1x1x40x41xf32>, tensor<1x1x40x41xf32>) -> tensor<1x1x40x41xf32>
    %extracted_slice_153 = tensor.extract_slice %676[0, 0, 0, 0] [1, 1, 40, 41] [1, 1, 1, 1] : tensor<1x1x40x41xf32> to tensor<1x1x40x41xf32>
    %extracted_slice_154 = tensor.extract_slice %extracted_slice_153[0, 0, 0, 0] [1, 1, 40, 41] [1, 1, 1, 1] : tensor<1x1x40x41xf32> to tensor<1x1x40x41xf32>
    %extracted_slice_155 = tensor.extract_slice %extracted_slice_154[0, 0, 0, 0] [1, 1, 40, 41] [1, 1, 1, 1] : tensor<1x1x40x41xf32> to tensor<1x1x40x41xf32>
    %extracted_slice_156 = tensor.extract_slice %extracted_slice_155[0, 0, 0, 0] [1, 1, 40, 40] [1, 1, 1, 1] : tensor<1x1x40x41xf32> to tensor<1x1x40x40xf32>
    %cst_157 = arith.constant 0.000000e+00 : f32
    %splat_158 = tensor.splat %cst_157 : tensor<40x40xf32>
    %677 = tosa.reshape %extracted_slice_156 {new_shape = array<i64: 40, 40>} : (tensor<1x1x40x40xf32>) -> tensor<40x40xf32>
    %678 = tosa.add %splat_158, %677 : (tensor<40x40xf32>, tensor<40x40xf32>) -> tensor<40x40xf32>
    %679 = "tosa.const"() <{value = dense<[0, 1, 3, 2]> : tensor<4xi32>}> : () -> tensor<4xi32>
    %680 = tosa.transpose %672, %679 : (tensor<1x32x40x128xf32>, tensor<4xi32>) -> tensor<1x32x128x40xf32>
    %681 = tosa.reshape %666 {new_shape = array<i64: 32, 40, 128>} : (tensor<1x32x40x128xf32>) -> tensor<32x40x128xf32>
    %682 = tosa.reshape %680 {new_shape = array<i64: 32, 128, 40>} : (tensor<1x32x128x40xf32>) -> tensor<32x128x40xf32>
    %683 = tosa.matmul %681, %682 : (tensor<32x40x128xf32>, tensor<32x128x40xf32>) -> tensor<32x40x40xf32>
    %cst_159 = arith.constant 0.0883883461 : f32
    %splat_160 = tensor.splat %cst_159 : tensor<32x40x40xf32>
    %684 = tosa.mul %683, %splat_160 {shift = 0 : i8} : (tensor<32x40x40xf32>, tensor<32x40x40xf32>) -> tensor<32x40x40xf32>
    %685 = tosa.add %684, %678 : (tensor<32x40x40xf32>, tensor<40x40xf32>) -> tensor<32x40x40xf32>
    %686 = tosa.reduce_max %685 {axis = 2 : i32} : (tensor<32x40x40xf32>) -> tensor<32x40x1xf32>
    %687 = tosa.sub %685, %686 : (tensor<32x40x40xf32>, tensor<32x40x1xf32>) -> tensor<32x40x40xf32>
    %688 = math.exp %687 : tensor<32x40x40xf32>
    %689 = tosa.reduce_sum %688 {axis = 2 : i32} : (tensor<32x40x40xf32>) -> tensor<32x40x1xf32>
    %690 = tosa.log %689 : (tensor<32x40x1xf32>) -> tensor<32x40x1xf32>
    %691 = tosa.add %686, %690 : (tensor<32x40x1xf32>, tensor<32x40x1xf32>) -> tensor<32x40x1xf32>
    %692 = tosa.sub %685, %691 : (tensor<32x40x40xf32>, tensor<32x40x1xf32>) -> tensor<32x40x40xf32>
    %693 = math.exp %692 : tensor<32x40x40xf32>
    %694 = tosa.reshape %691 {new_shape = array<i64: 1, 32, 40>} : (tensor<32x40x1xf32>) -> tensor<1x32x40xf32>
    %695 = tosa.reshape %658 {new_shape = array<i64: 32, 40, 128>} : (tensor<1x32x40x128xf32>) -> tensor<32x40x128xf32>
    %696 = tosa.matmul %693, %695 : (tensor<32x40x40xf32>, tensor<32x40x128xf32>) -> tensor<32x40x128xf32>
    %697 = tosa.reshape %696 {new_shape = array<i64: 1, 32, 40, 128>} : (tensor<32x40x128xf32>) -> tensor<1x32x40x128xf32>
    %698 = "tosa.const"() <{value = dense<[0, 2, 1, 3]> : tensor<4xi32>}> : () -> tensor<4xi32>
    %699 = tosa.transpose %697, %698 : (tensor<1x32x40x128xf32>, tensor<4xi32>) -> tensor<1x40x32x128xf32>
    %700 = tosa.reshape %699 {new_shape = array<i64: 1, 40, 4096>} : (tensor<1x40x32x128xf32>) -> tensor<1x40x4096xf32>
    %701 = "tosa.const"() <{value = dense<[1, 0]> : tensor<2xi32>}> : () -> tensor<2xi32>
    %702 = tosa.transpose %arg52, %701 : (tensor<4096x4096xf32>, tensor<2xi32>) -> tensor<4096x4096xf32>
    %703 = tosa.reshape %700 {new_shape = array<i64: 40, 4096>} : (tensor<1x40x4096xf32>) -> tensor<40x4096xf32>
    %cst_161 = arith.constant dense<0.000000e+00> : tensor<40x4096xf32>
    %704 = linalg.matmul {cast = #linalg.type_fn<cast_signed>} ins(%703, %702 : tensor<40x4096xf32>, tensor<4096x4096xf32>) outs(%cst_161 : tensor<40x4096xf32>) -> tensor<40x4096xf32>
    %705 = tosa.reshape %704 {new_shape = array<i64: 1, 40, 4096>} : (tensor<40x4096xf32>) -> tensor<1x40x4096xf32>
    %706 = tosa.add %622, %705 : (tensor<1x40x4096xf32>, tensor<1x40x4096xf32>) -> tensor<1x40x4096xf32>
    %707 = tensor.empty() : tensor<1x40x4096xf32>
    %c2_i32_162 = arith.constant 2 : i32
    %708 = linalg.generic {indexing_maps = [#map4, #map4], iterator_types = ["parallel", "parallel", "parallel"]} ins(%706 : tensor<1x40x4096xf32>) outs(%707 : tensor<1x40x4096xf32>) {
    ^bb0(%in: f32, %out: f32):
      %3745 = math.fpowi %in, %c2_i32_162 : f32, i32
      linalg.yield %3745 : f32
    } -> tensor<1x40x4096xf32>
    %709 = tosa.reduce_sum %708 {axis = 2 : i32} : (tensor<1x40x4096xf32>) -> tensor<1x40x1xf32>
    %710 = "tosa.const"() <{value = dense<4.096000e+03> : tensor<1xf32>}> : () -> tensor<1xf32>
    %711 = tosa.reciprocal %710 : (tensor<1xf32>) -> tensor<1xf32>
    %712 = tosa.mul %711, %709 {shift = 0 : i8} : (tensor<1xf32>, tensor<1x40x1xf32>) -> tensor<1x40x1xf32>
    %713 = "tosa.const"() <{value = dense<9.99999974E-6> : tensor<1x40x1xf32>}> : () -> tensor<1x40x1xf32>
    %714 = tosa.add %712, %713 : (tensor<1x40x1xf32>, tensor<1x40x1xf32>) -> tensor<1x40x1xf32>
    %715 = tosa.rsqrt %714 : (tensor<1x40x1xf32>) -> tensor<1x40x1xf32>
    %716 = tosa.mul %706, %715 {shift = 0 : i8} : (tensor<1x40x4096xf32>, tensor<1x40x1xf32>) -> tensor<1x40x4096xf32>
    %717 = tosa.reshape %arg53 {new_shape = array<i64: 1, 1, 4096>} : (tensor<4096xf32>) -> tensor<1x1x4096xf32>
    %718 = tosa.mul %717, %716 {shift = 0 : i8} : (tensor<1x1x4096xf32>, tensor<1x40x4096xf32>) -> tensor<1x40x4096xf32>
    %719 = "tosa.const"() <{value = dense<[1, 0]> : tensor<2xi32>}> : () -> tensor<2xi32>
    %720 = tosa.transpose %arg54, %719 : (tensor<11008x4096xf32>, tensor<2xi32>) -> tensor<4096x11008xf32>
    %721 = tosa.reshape %718 {new_shape = array<i64: 40, 4096>} : (tensor<1x40x4096xf32>) -> tensor<40x4096xf32>
    %cst_163 = arith.constant dense<0.000000e+00> : tensor<40x11008xf32>
    %722 = linalg.matmul {cast = #linalg.type_fn<cast_signed>} ins(%721, %720 : tensor<40x4096xf32>, tensor<4096x11008xf32>) outs(%cst_163 : tensor<40x11008xf32>) -> tensor<40x11008xf32>
    %723 = tosa.reshape %722 {new_shape = array<i64: 1, 40, 11008>} : (tensor<40x11008xf32>) -> tensor<1x40x11008xf32>
    %724 = tosa.sigmoid %723 : (tensor<1x40x11008xf32>) -> tensor<1x40x11008xf32>
    %725 = tosa.mul %723, %724 {shift = 0 : i8} : (tensor<1x40x11008xf32>, tensor<1x40x11008xf32>) -> tensor<1x40x11008xf32>
    %726 = "tosa.const"() <{value = dense<[1, 0]> : tensor<2xi32>}> : () -> tensor<2xi32>
    %727 = tosa.transpose %arg55, %726 : (tensor<11008x4096xf32>, tensor<2xi32>) -> tensor<4096x11008xf32>
    %728 = tosa.reshape %718 {new_shape = array<i64: 40, 4096>} : (tensor<1x40x4096xf32>) -> tensor<40x4096xf32>
    %cst_164 = arith.constant dense<0.000000e+00> : tensor<40x11008xf32>
    %729 = linalg.matmul {cast = #linalg.type_fn<cast_signed>} ins(%728, %727 : tensor<40x4096xf32>, tensor<4096x11008xf32>) outs(%cst_164 : tensor<40x11008xf32>) -> tensor<40x11008xf32>
    %730 = tosa.reshape %729 {new_shape = array<i64: 1, 40, 11008>} : (tensor<40x11008xf32>) -> tensor<1x40x11008xf32>
    %731 = tosa.mul %725, %730 {shift = 0 : i8} : (tensor<1x40x11008xf32>, tensor<1x40x11008xf32>) -> tensor<1x40x11008xf32>
    %732 = "tosa.const"() <{value = dense<[1, 0]> : tensor<2xi32>}> : () -> tensor<2xi32>
    %733 = tosa.transpose %arg56, %732 : (tensor<4096x11008xf32>, tensor<2xi32>) -> tensor<11008x4096xf32>
    %734 = tosa.reshape %731 {new_shape = array<i64: 40, 11008>} : (tensor<1x40x11008xf32>) -> tensor<40x11008xf32>
    %cst_165 = arith.constant dense<0.000000e+00> : tensor<40x4096xf32>
    %735 = linalg.matmul {cast = #linalg.type_fn<cast_signed>} ins(%734, %733 : tensor<40x11008xf32>, tensor<11008x4096xf32>) outs(%cst_165 : tensor<40x4096xf32>) -> tensor<40x4096xf32>
    %736 = tosa.reshape %735 {new_shape = array<i64: 1, 40, 4096>} : (tensor<40x4096xf32>) -> tensor<1x40x4096xf32>
    %737 = tosa.add %706, %736 : (tensor<1x40x4096xf32>, tensor<1x40x4096xf32>) -> tensor<1x40x4096xf32>
    %738 = tensor.empty() : tensor<1x40x4096xf32>
    %c2_i32_166 = arith.constant 2 : i32
    %739 = linalg.generic {indexing_maps = [#map4, #map4], iterator_types = ["parallel", "parallel", "parallel"]} ins(%737 : tensor<1x40x4096xf32>) outs(%738 : tensor<1x40x4096xf32>) {
    ^bb0(%in: f32, %out: f32):
      %3745 = math.fpowi %in, %c2_i32_166 : f32, i32
      linalg.yield %3745 : f32
    } -> tensor<1x40x4096xf32>
    %740 = tosa.reduce_sum %739 {axis = 2 : i32} : (tensor<1x40x4096xf32>) -> tensor<1x40x1xf32>
    %741 = "tosa.const"() <{value = dense<4.096000e+03> : tensor<1xf32>}> : () -> tensor<1xf32>
    %742 = tosa.reciprocal %741 : (tensor<1xf32>) -> tensor<1xf32>
    %743 = tosa.mul %742, %740 {shift = 0 : i8} : (tensor<1xf32>, tensor<1x40x1xf32>) -> tensor<1x40x1xf32>
    %744 = "tosa.const"() <{value = dense<9.99999974E-6> : tensor<1x40x1xf32>}> : () -> tensor<1x40x1xf32>
    %745 = tosa.add %743, %744 : (tensor<1x40x1xf32>, tensor<1x40x1xf32>) -> tensor<1x40x1xf32>
    %746 = tosa.rsqrt %745 : (tensor<1x40x1xf32>) -> tensor<1x40x1xf32>
    %747 = tosa.mul %737, %746 {shift = 0 : i8} : (tensor<1x40x4096xf32>, tensor<1x40x1xf32>) -> tensor<1x40x4096xf32>
    %748 = tosa.reshape %arg57 {new_shape = array<i64: 1, 1, 4096>} : (tensor<4096xf32>) -> tensor<1x1x4096xf32>
    %749 = tosa.mul %748, %747 {shift = 0 : i8} : (tensor<1x1x4096xf32>, tensor<1x40x4096xf32>) -> tensor<1x40x4096xf32>
    %750 = "tosa.const"() <{value = dense<[1, 0]> : tensor<2xi32>}> : () -> tensor<2xi32>
    %751 = tosa.transpose %arg58, %750 : (tensor<4096x4096xf32>, tensor<2xi32>) -> tensor<4096x4096xf32>
    %752 = tosa.reshape %749 {new_shape = array<i64: 40, 4096>} : (tensor<1x40x4096xf32>) -> tensor<40x4096xf32>
    %cst_167 = arith.constant dense<0.000000e+00> : tensor<40x4096xf32>
    %753 = linalg.matmul {cast = #linalg.type_fn<cast_signed>} ins(%752, %751 : tensor<40x4096xf32>, tensor<4096x4096xf32>) outs(%cst_167 : tensor<40x4096xf32>) -> tensor<40x4096xf32>
    %754 = tosa.reshape %753 {new_shape = array<i64: 1, 40, 4096>} : (tensor<40x4096xf32>) -> tensor<1x40x4096xf32>
    %755 = "tosa.const"() <{value = dense<[1, 0]> : tensor<2xi32>}> : () -> tensor<2xi32>
    %756 = tosa.transpose %arg59, %755 : (tensor<4096x4096xf32>, tensor<2xi32>) -> tensor<4096x4096xf32>
    %757 = tosa.reshape %749 {new_shape = array<i64: 40, 4096>} : (tensor<1x40x4096xf32>) -> tensor<40x4096xf32>
    %cst_168 = arith.constant dense<0.000000e+00> : tensor<40x4096xf32>
    %758 = linalg.matmul {cast = #linalg.type_fn<cast_signed>} ins(%757, %756 : tensor<40x4096xf32>, tensor<4096x4096xf32>) outs(%cst_168 : tensor<40x4096xf32>) -> tensor<40x4096xf32>
    %759 = tosa.reshape %758 {new_shape = array<i64: 1, 40, 4096>} : (tensor<40x4096xf32>) -> tensor<1x40x4096xf32>
    %760 = "tosa.const"() <{value = dense<[1, 0]> : tensor<2xi32>}> : () -> tensor<2xi32>
    %761 = tosa.transpose %arg60, %760 : (tensor<4096x4096xf32>, tensor<2xi32>) -> tensor<4096x4096xf32>
    %762 = tosa.reshape %749 {new_shape = array<i64: 40, 4096>} : (tensor<1x40x4096xf32>) -> tensor<40x4096xf32>
    %cst_169 = arith.constant dense<0.000000e+00> : tensor<40x4096xf32>
    %763 = linalg.matmul {cast = #linalg.type_fn<cast_signed>} ins(%762, %761 : tensor<40x4096xf32>, tensor<4096x4096xf32>) outs(%cst_169 : tensor<40x4096xf32>) -> tensor<40x4096xf32>
    %764 = tosa.reshape %763 {new_shape = array<i64: 1, 40, 4096>} : (tensor<40x4096xf32>) -> tensor<1x40x4096xf32>
    %765 = tosa.reshape %754 {new_shape = array<i64: 1, 40, 32, 128>} : (tensor<1x40x4096xf32>) -> tensor<1x40x32x128xf32>
    %766 = "tosa.const"() <{value = dense<[0, 2, 1, 3]> : tensor<4xi32>}> : () -> tensor<4xi32>
    %767 = tosa.transpose %765, %766 : (tensor<1x40x32x128xf32>, tensor<4xi32>) -> tensor<1x32x40x128xf32>
    %768 = tosa.reshape %759 {new_shape = array<i64: 1, 40, 32, 128>} : (tensor<1x40x4096xf32>) -> tensor<1x40x32x128xf32>
    %769 = "tosa.const"() <{value = dense<[0, 2, 1, 3]> : tensor<4xi32>}> : () -> tensor<4xi32>
    %770 = tosa.transpose %768, %769 : (tensor<1x40x32x128xf32>, tensor<4xi32>) -> tensor<1x32x40x128xf32>
    %771 = tosa.reshape %764 {new_shape = array<i64: 1, 40, 32, 128>} : (tensor<1x40x4096xf32>) -> tensor<1x40x32x128xf32>
    %772 = "tosa.const"() <{value = dense<[0, 2, 1, 3]> : tensor<4xi32>}> : () -> tensor<4xi32>
    %773 = tosa.transpose %771, %772 : (tensor<1x40x32x128xf32>, tensor<4xi32>) -> tensor<1x32x40x128xf32>
    %774 = tosa.reshape %45 {new_shape = array<i64: 1, 1, 40, 128>} : (tensor<1x40x128xf32>) -> tensor<1x1x40x128xf32>
    %775 = tosa.reshape %47 {new_shape = array<i64: 1, 1, 40, 128>} : (tensor<1x40x128xf32>) -> tensor<1x1x40x128xf32>
    %776 = tosa.mul %767, %774 {shift = 0 : i8} : (tensor<1x32x40x128xf32>, tensor<1x1x40x128xf32>) -> tensor<1x32x40x128xf32>
    %extracted_slice_170 = tensor.extract_slice %767[0, 0, 0, 0] [1, 32, 40, 64] [1, 1, 1, 1] : tensor<1x32x40x128xf32> to tensor<1x32x40x64xf32>
    %extracted_slice_171 = tensor.extract_slice %767[0, 0, 0, 64] [1, 32, 40, 64] [1, 1, 1, 1] : tensor<1x32x40x128xf32> to tensor<1x32x40x64xf32>
    %777 = tensor.empty() : tensor<1x32x40x64xf32>
    %778 = linalg.negf ins(%extracted_slice_171 : tensor<1x32x40x64xf32>) outs(%777 : tensor<1x32x40x64xf32>) -> tensor<1x32x40x64xf32>
    %779 = tensor.empty() : tensor<1x32x40x128xf32>
    %inserted_slice_172 = tensor.insert_slice %778 into %779[0, 0, 0, 0] [1, 32, 40, 64] [1, 1, 1, 1] : tensor<1x32x40x64xf32> into tensor<1x32x40x128xf32>
    %inserted_slice_173 = tensor.insert_slice %extracted_slice_170 into %inserted_slice_172[0, 0, 0, 64] [1, 32, 40, 64] [1, 1, 1, 1] : tensor<1x32x40x64xf32> into tensor<1x32x40x128xf32>
    %780 = tosa.mul %inserted_slice_173, %775 {shift = 0 : i8} : (tensor<1x32x40x128xf32>, tensor<1x1x40x128xf32>) -> tensor<1x32x40x128xf32>
    %781 = tosa.add %776, %780 : (tensor<1x32x40x128xf32>, tensor<1x32x40x128xf32>) -> tensor<1x32x40x128xf32>
    %782 = tosa.mul %770, %774 {shift = 0 : i8} : (tensor<1x32x40x128xf32>, tensor<1x1x40x128xf32>) -> tensor<1x32x40x128xf32>
    %extracted_slice_174 = tensor.extract_slice %770[0, 0, 0, 0] [1, 32, 40, 64] [1, 1, 1, 1] : tensor<1x32x40x128xf32> to tensor<1x32x40x64xf32>
    %extracted_slice_175 = tensor.extract_slice %770[0, 0, 0, 64] [1, 32, 40, 64] [1, 1, 1, 1] : tensor<1x32x40x128xf32> to tensor<1x32x40x64xf32>
    %783 = tensor.empty() : tensor<1x32x40x64xf32>
    %784 = linalg.negf ins(%extracted_slice_175 : tensor<1x32x40x64xf32>) outs(%783 : tensor<1x32x40x64xf32>) -> tensor<1x32x40x64xf32>
    %785 = tensor.empty() : tensor<1x32x40x128xf32>
    %inserted_slice_176 = tensor.insert_slice %784 into %785[0, 0, 0, 0] [1, 32, 40, 64] [1, 1, 1, 1] : tensor<1x32x40x64xf32> into tensor<1x32x40x128xf32>
    %inserted_slice_177 = tensor.insert_slice %extracted_slice_174 into %inserted_slice_176[0, 0, 0, 64] [1, 32, 40, 64] [1, 1, 1, 1] : tensor<1x32x40x64xf32> into tensor<1x32x40x128xf32>
    %786 = tosa.mul %inserted_slice_177, %775 {shift = 0 : i8} : (tensor<1x32x40x128xf32>, tensor<1x1x40x128xf32>) -> tensor<1x32x40x128xf32>
    %787 = tosa.add %782, %786 : (tensor<1x32x40x128xf32>, tensor<1x32x40x128xf32>) -> tensor<1x32x40x128xf32>
    %788 = tosa.reshape %19 {new_shape = array<i64: 1, 40, 41>} : (tensor<40x41xf32>) -> tensor<1x40x41xf32>
    %789 = tosa.reshape %788 {new_shape = array<i64: 1, 1, 40, 41>} : (tensor<1x40x41xf32>) -> tensor<1x1x40x41xf32>
    %extracted_slice_178 = tensor.extract_slice %789[0, 0, 0, 0] [1, 1, 40, 41] [1, 1, 1, 1] : tensor<1x1x40x41xf32> to tensor<1x1x40x41xf32>
    %extracted_slice_179 = tensor.extract_slice %extracted_slice_178[0, 0, 0, 0] [1, 1, 40, 41] [1, 1, 1, 1] : tensor<1x1x40x41xf32> to tensor<1x1x40x41xf32>
    %790 = "tosa.const"() <{value = dense<0.000000e+00> : tensor<1x1x40x41xf32>}> : () -> tensor<1x1x40x41xf32>
    %791 = tosa.add %extracted_slice_179, %790 : (tensor<1x1x40x41xf32>, tensor<1x1x40x41xf32>) -> tensor<1x1x40x41xf32>
    %extracted_slice_180 = tensor.extract_slice %791[0, 0, 0, 0] [1, 1, 40, 41] [1, 1, 1, 1] : tensor<1x1x40x41xf32> to tensor<1x1x40x41xf32>
    %extracted_slice_181 = tensor.extract_slice %extracted_slice_180[0, 0, 0, 0] [1, 1, 40, 41] [1, 1, 1, 1] : tensor<1x1x40x41xf32> to tensor<1x1x40x41xf32>
    %extracted_slice_182 = tensor.extract_slice %extracted_slice_181[0, 0, 0, 0] [1, 1, 40, 41] [1, 1, 1, 1] : tensor<1x1x40x41xf32> to tensor<1x1x40x41xf32>
    %extracted_slice_183 = tensor.extract_slice %extracted_slice_182[0, 0, 0, 0] [1, 1, 40, 40] [1, 1, 1, 1] : tensor<1x1x40x41xf32> to tensor<1x1x40x40xf32>
    %cst_184 = arith.constant 0.000000e+00 : f32
    %splat_185 = tensor.splat %cst_184 : tensor<40x40xf32>
    %792 = tosa.reshape %extracted_slice_183 {new_shape = array<i64: 40, 40>} : (tensor<1x1x40x40xf32>) -> tensor<40x40xf32>
    %793 = tosa.add %splat_185, %792 : (tensor<40x40xf32>, tensor<40x40xf32>) -> tensor<40x40xf32>
    %794 = "tosa.const"() <{value = dense<[0, 1, 3, 2]> : tensor<4xi32>}> : () -> tensor<4xi32>
    %795 = tosa.transpose %787, %794 : (tensor<1x32x40x128xf32>, tensor<4xi32>) -> tensor<1x32x128x40xf32>
    %796 = tosa.reshape %781 {new_shape = array<i64: 32, 40, 128>} : (tensor<1x32x40x128xf32>) -> tensor<32x40x128xf32>
    %797 = tosa.reshape %795 {new_shape = array<i64: 32, 128, 40>} : (tensor<1x32x128x40xf32>) -> tensor<32x128x40xf32>
    %798 = tosa.matmul %796, %797 : (tensor<32x40x128xf32>, tensor<32x128x40xf32>) -> tensor<32x40x40xf32>
    %cst_186 = arith.constant 0.0883883461 : f32
    %splat_187 = tensor.splat %cst_186 : tensor<32x40x40xf32>
    %799 = tosa.mul %798, %splat_187 {shift = 0 : i8} : (tensor<32x40x40xf32>, tensor<32x40x40xf32>) -> tensor<32x40x40xf32>
    %800 = tosa.add %799, %793 : (tensor<32x40x40xf32>, tensor<40x40xf32>) -> tensor<32x40x40xf32>
    %801 = tosa.reduce_max %800 {axis = 2 : i32} : (tensor<32x40x40xf32>) -> tensor<32x40x1xf32>
    %802 = tosa.sub %800, %801 : (tensor<32x40x40xf32>, tensor<32x40x1xf32>) -> tensor<32x40x40xf32>
    %803 = math.exp %802 : tensor<32x40x40xf32>
    %804 = tosa.reduce_sum %803 {axis = 2 : i32} : (tensor<32x40x40xf32>) -> tensor<32x40x1xf32>
    %805 = tosa.log %804 : (tensor<32x40x1xf32>) -> tensor<32x40x1xf32>
    %806 = tosa.add %801, %805 : (tensor<32x40x1xf32>, tensor<32x40x1xf32>) -> tensor<32x40x1xf32>
    %807 = tosa.sub %800, %806 : (tensor<32x40x40xf32>, tensor<32x40x1xf32>) -> tensor<32x40x40xf32>
    %808 = math.exp %807 : tensor<32x40x40xf32>
    %809 = tosa.reshape %806 {new_shape = array<i64: 1, 32, 40>} : (tensor<32x40x1xf32>) -> tensor<1x32x40xf32>
    %810 = tosa.reshape %773 {new_shape = array<i64: 32, 40, 128>} : (tensor<1x32x40x128xf32>) -> tensor<32x40x128xf32>
    %811 = tosa.matmul %808, %810 : (tensor<32x40x40xf32>, tensor<32x40x128xf32>) -> tensor<32x40x128xf32>
    %812 = tosa.reshape %811 {new_shape = array<i64: 1, 32, 40, 128>} : (tensor<32x40x128xf32>) -> tensor<1x32x40x128xf32>
    %813 = "tosa.const"() <{value = dense<[0, 2, 1, 3]> : tensor<4xi32>}> : () -> tensor<4xi32>
    %814 = tosa.transpose %812, %813 : (tensor<1x32x40x128xf32>, tensor<4xi32>) -> tensor<1x40x32x128xf32>
    %815 = tosa.reshape %814 {new_shape = array<i64: 1, 40, 4096>} : (tensor<1x40x32x128xf32>) -> tensor<1x40x4096xf32>
    %816 = "tosa.const"() <{value = dense<[1, 0]> : tensor<2xi32>}> : () -> tensor<2xi32>
    %817 = tosa.transpose %arg61, %816 : (tensor<4096x4096xf32>, tensor<2xi32>) -> tensor<4096x4096xf32>
    %818 = tosa.reshape %815 {new_shape = array<i64: 40, 4096>} : (tensor<1x40x4096xf32>) -> tensor<40x4096xf32>
    %cst_188 = arith.constant dense<0.000000e+00> : tensor<40x4096xf32>
    %819 = linalg.matmul {cast = #linalg.type_fn<cast_signed>} ins(%818, %817 : tensor<40x4096xf32>, tensor<4096x4096xf32>) outs(%cst_188 : tensor<40x4096xf32>) -> tensor<40x4096xf32>
    %820 = tosa.reshape %819 {new_shape = array<i64: 1, 40, 4096>} : (tensor<40x4096xf32>) -> tensor<1x40x4096xf32>
    %821 = tosa.add %737, %820 : (tensor<1x40x4096xf32>, tensor<1x40x4096xf32>) -> tensor<1x40x4096xf32>
    %822 = tensor.empty() : tensor<1x40x4096xf32>
    %c2_i32_189 = arith.constant 2 : i32
    %823 = linalg.generic {indexing_maps = [#map4, #map4], iterator_types = ["parallel", "parallel", "parallel"]} ins(%821 : tensor<1x40x4096xf32>) outs(%822 : tensor<1x40x4096xf32>) {
    ^bb0(%in: f32, %out: f32):
      %3745 = math.fpowi %in, %c2_i32_189 : f32, i32
      linalg.yield %3745 : f32
    } -> tensor<1x40x4096xf32>
    %824 = tosa.reduce_sum %823 {axis = 2 : i32} : (tensor<1x40x4096xf32>) -> tensor<1x40x1xf32>
    %825 = "tosa.const"() <{value = dense<4.096000e+03> : tensor<1xf32>}> : () -> tensor<1xf32>
    %826 = tosa.reciprocal %825 : (tensor<1xf32>) -> tensor<1xf32>
    %827 = tosa.mul %826, %824 {shift = 0 : i8} : (tensor<1xf32>, tensor<1x40x1xf32>) -> tensor<1x40x1xf32>
    %828 = "tosa.const"() <{value = dense<9.99999974E-6> : tensor<1x40x1xf32>}> : () -> tensor<1x40x1xf32>
    %829 = tosa.add %827, %828 : (tensor<1x40x1xf32>, tensor<1x40x1xf32>) -> tensor<1x40x1xf32>
    %830 = tosa.rsqrt %829 : (tensor<1x40x1xf32>) -> tensor<1x40x1xf32>
    %831 = tosa.mul %821, %830 {shift = 0 : i8} : (tensor<1x40x4096xf32>, tensor<1x40x1xf32>) -> tensor<1x40x4096xf32>
    %832 = tosa.reshape %arg62 {new_shape = array<i64: 1, 1, 4096>} : (tensor<4096xf32>) -> tensor<1x1x4096xf32>
    %833 = tosa.mul %832, %831 {shift = 0 : i8} : (tensor<1x1x4096xf32>, tensor<1x40x4096xf32>) -> tensor<1x40x4096xf32>
    %834 = "tosa.const"() <{value = dense<[1, 0]> : tensor<2xi32>}> : () -> tensor<2xi32>
    %835 = tosa.transpose %arg63, %834 : (tensor<11008x4096xf32>, tensor<2xi32>) -> tensor<4096x11008xf32>
    %836 = tosa.reshape %833 {new_shape = array<i64: 40, 4096>} : (tensor<1x40x4096xf32>) -> tensor<40x4096xf32>
    %cst_190 = arith.constant dense<0.000000e+00> : tensor<40x11008xf32>
    %837 = linalg.matmul {cast = #linalg.type_fn<cast_signed>} ins(%836, %835 : tensor<40x4096xf32>, tensor<4096x11008xf32>) outs(%cst_190 : tensor<40x11008xf32>) -> tensor<40x11008xf32>
    %838 = tosa.reshape %837 {new_shape = array<i64: 1, 40, 11008>} : (tensor<40x11008xf32>) -> tensor<1x40x11008xf32>
    %839 = tosa.sigmoid %838 : (tensor<1x40x11008xf32>) -> tensor<1x40x11008xf32>
    %840 = tosa.mul %838, %839 {shift = 0 : i8} : (tensor<1x40x11008xf32>, tensor<1x40x11008xf32>) -> tensor<1x40x11008xf32>
    %841 = "tosa.const"() <{value = dense<[1, 0]> : tensor<2xi32>}> : () -> tensor<2xi32>
    %842 = tosa.transpose %arg64, %841 : (tensor<11008x4096xf32>, tensor<2xi32>) -> tensor<4096x11008xf32>
    %843 = tosa.reshape %833 {new_shape = array<i64: 40, 4096>} : (tensor<1x40x4096xf32>) -> tensor<40x4096xf32>
    %cst_191 = arith.constant dense<0.000000e+00> : tensor<40x11008xf32>
    %844 = linalg.matmul {cast = #linalg.type_fn<cast_signed>} ins(%843, %842 : tensor<40x4096xf32>, tensor<4096x11008xf32>) outs(%cst_191 : tensor<40x11008xf32>) -> tensor<40x11008xf32>
    %845 = tosa.reshape %844 {new_shape = array<i64: 1, 40, 11008>} : (tensor<40x11008xf32>) -> tensor<1x40x11008xf32>
    %846 = tosa.mul %840, %845 {shift = 0 : i8} : (tensor<1x40x11008xf32>, tensor<1x40x11008xf32>) -> tensor<1x40x11008xf32>
    %847 = "tosa.const"() <{value = dense<[1, 0]> : tensor<2xi32>}> : () -> tensor<2xi32>
    %848 = tosa.transpose %arg65, %847 : (tensor<4096x11008xf32>, tensor<2xi32>) -> tensor<11008x4096xf32>
    %849 = tosa.reshape %846 {new_shape = array<i64: 40, 11008>} : (tensor<1x40x11008xf32>) -> tensor<40x11008xf32>
    %cst_192 = arith.constant dense<0.000000e+00> : tensor<40x4096xf32>
    %850 = linalg.matmul {cast = #linalg.type_fn<cast_signed>} ins(%849, %848 : tensor<40x11008xf32>, tensor<11008x4096xf32>) outs(%cst_192 : tensor<40x4096xf32>) -> tensor<40x4096xf32>
    %851 = tosa.reshape %850 {new_shape = array<i64: 1, 40, 4096>} : (tensor<40x4096xf32>) -> tensor<1x40x4096xf32>
    %852 = tosa.add %821, %851 : (tensor<1x40x4096xf32>, tensor<1x40x4096xf32>) -> tensor<1x40x4096xf32>
    %853 = tensor.empty() : tensor<1x40x4096xf32>
    %c2_i32_193 = arith.constant 2 : i32
    %854 = linalg.generic {indexing_maps = [#map4, #map4], iterator_types = ["parallel", "parallel", "parallel"]} ins(%852 : tensor<1x40x4096xf32>) outs(%853 : tensor<1x40x4096xf32>) {
    ^bb0(%in: f32, %out: f32):
      %3745 = math.fpowi %in, %c2_i32_193 : f32, i32
      linalg.yield %3745 : f32
    } -> tensor<1x40x4096xf32>
    %855 = tosa.reduce_sum %854 {axis = 2 : i32} : (tensor<1x40x4096xf32>) -> tensor<1x40x1xf32>
    %856 = "tosa.const"() <{value = dense<4.096000e+03> : tensor<1xf32>}> : () -> tensor<1xf32>
    %857 = tosa.reciprocal %856 : (tensor<1xf32>) -> tensor<1xf32>
    %858 = tosa.mul %857, %855 {shift = 0 : i8} : (tensor<1xf32>, tensor<1x40x1xf32>) -> tensor<1x40x1xf32>
    %859 = "tosa.const"() <{value = dense<9.99999974E-6> : tensor<1x40x1xf32>}> : () -> tensor<1x40x1xf32>
    %860 = tosa.add %858, %859 : (tensor<1x40x1xf32>, tensor<1x40x1xf32>) -> tensor<1x40x1xf32>
    %861 = tosa.rsqrt %860 : (tensor<1x40x1xf32>) -> tensor<1x40x1xf32>
    %862 = tosa.mul %852, %861 {shift = 0 : i8} : (tensor<1x40x4096xf32>, tensor<1x40x1xf32>) -> tensor<1x40x4096xf32>
    %863 = tosa.reshape %arg66 {new_shape = array<i64: 1, 1, 4096>} : (tensor<4096xf32>) -> tensor<1x1x4096xf32>
    %864 = tosa.mul %863, %862 {shift = 0 : i8} : (tensor<1x1x4096xf32>, tensor<1x40x4096xf32>) -> tensor<1x40x4096xf32>
    %865 = "tosa.const"() <{value = dense<[1, 0]> : tensor<2xi32>}> : () -> tensor<2xi32>
    %866 = tosa.transpose %arg67, %865 : (tensor<4096x4096xf32>, tensor<2xi32>) -> tensor<4096x4096xf32>
    %867 = tosa.reshape %864 {new_shape = array<i64: 40, 4096>} : (tensor<1x40x4096xf32>) -> tensor<40x4096xf32>
    %cst_194 = arith.constant dense<0.000000e+00> : tensor<40x4096xf32>
    %868 = linalg.matmul {cast = #linalg.type_fn<cast_signed>} ins(%867, %866 : tensor<40x4096xf32>, tensor<4096x4096xf32>) outs(%cst_194 : tensor<40x4096xf32>) -> tensor<40x4096xf32>
    %869 = tosa.reshape %868 {new_shape = array<i64: 1, 40, 4096>} : (tensor<40x4096xf32>) -> tensor<1x40x4096xf32>
    %870 = "tosa.const"() <{value = dense<[1, 0]> : tensor<2xi32>}> : () -> tensor<2xi32>
    %871 = tosa.transpose %arg68, %870 : (tensor<4096x4096xf32>, tensor<2xi32>) -> tensor<4096x4096xf32>
    %872 = tosa.reshape %864 {new_shape = array<i64: 40, 4096>} : (tensor<1x40x4096xf32>) -> tensor<40x4096xf32>
    %cst_195 = arith.constant dense<0.000000e+00> : tensor<40x4096xf32>
    %873 = linalg.matmul {cast = #linalg.type_fn<cast_signed>} ins(%872, %871 : tensor<40x4096xf32>, tensor<4096x4096xf32>) outs(%cst_195 : tensor<40x4096xf32>) -> tensor<40x4096xf32>
    %874 = tosa.reshape %873 {new_shape = array<i64: 1, 40, 4096>} : (tensor<40x4096xf32>) -> tensor<1x40x4096xf32>
    %875 = "tosa.const"() <{value = dense<[1, 0]> : tensor<2xi32>}> : () -> tensor<2xi32>
    %876 = tosa.transpose %arg69, %875 : (tensor<4096x4096xf32>, tensor<2xi32>) -> tensor<4096x4096xf32>
    %877 = tosa.reshape %864 {new_shape = array<i64: 40, 4096>} : (tensor<1x40x4096xf32>) -> tensor<40x4096xf32>
    %cst_196 = arith.constant dense<0.000000e+00> : tensor<40x4096xf32>
    %878 = linalg.matmul {cast = #linalg.type_fn<cast_signed>} ins(%877, %876 : tensor<40x4096xf32>, tensor<4096x4096xf32>) outs(%cst_196 : tensor<40x4096xf32>) -> tensor<40x4096xf32>
    %879 = tosa.reshape %878 {new_shape = array<i64: 1, 40, 4096>} : (tensor<40x4096xf32>) -> tensor<1x40x4096xf32>
    %880 = tosa.reshape %869 {new_shape = array<i64: 1, 40, 32, 128>} : (tensor<1x40x4096xf32>) -> tensor<1x40x32x128xf32>
    %881 = "tosa.const"() <{value = dense<[0, 2, 1, 3]> : tensor<4xi32>}> : () -> tensor<4xi32>
    %882 = tosa.transpose %880, %881 : (tensor<1x40x32x128xf32>, tensor<4xi32>) -> tensor<1x32x40x128xf32>
    %883 = tosa.reshape %874 {new_shape = array<i64: 1, 40, 32, 128>} : (tensor<1x40x4096xf32>) -> tensor<1x40x32x128xf32>
    %884 = "tosa.const"() <{value = dense<[0, 2, 1, 3]> : tensor<4xi32>}> : () -> tensor<4xi32>
    %885 = tosa.transpose %883, %884 : (tensor<1x40x32x128xf32>, tensor<4xi32>) -> tensor<1x32x40x128xf32>
    %886 = tosa.reshape %879 {new_shape = array<i64: 1, 40, 32, 128>} : (tensor<1x40x4096xf32>) -> tensor<1x40x32x128xf32>
    %887 = "tosa.const"() <{value = dense<[0, 2, 1, 3]> : tensor<4xi32>}> : () -> tensor<4xi32>
    %888 = tosa.transpose %886, %887 : (tensor<1x40x32x128xf32>, tensor<4xi32>) -> tensor<1x32x40x128xf32>
    %889 = tosa.reshape %45 {new_shape = array<i64: 1, 1, 40, 128>} : (tensor<1x40x128xf32>) -> tensor<1x1x40x128xf32>
    %890 = tosa.reshape %47 {new_shape = array<i64: 1, 1, 40, 128>} : (tensor<1x40x128xf32>) -> tensor<1x1x40x128xf32>
    %891 = tosa.mul %882, %889 {shift = 0 : i8} : (tensor<1x32x40x128xf32>, tensor<1x1x40x128xf32>) -> tensor<1x32x40x128xf32>
    %extracted_slice_197 = tensor.extract_slice %882[0, 0, 0, 0] [1, 32, 40, 64] [1, 1, 1, 1] : tensor<1x32x40x128xf32> to tensor<1x32x40x64xf32>
    %extracted_slice_198 = tensor.extract_slice %882[0, 0, 0, 64] [1, 32, 40, 64] [1, 1, 1, 1] : tensor<1x32x40x128xf32> to tensor<1x32x40x64xf32>
    %892 = tensor.empty() : tensor<1x32x40x64xf32>
    %893 = linalg.negf ins(%extracted_slice_198 : tensor<1x32x40x64xf32>) outs(%892 : tensor<1x32x40x64xf32>) -> tensor<1x32x40x64xf32>
    %894 = tensor.empty() : tensor<1x32x40x128xf32>
    %inserted_slice_199 = tensor.insert_slice %893 into %894[0, 0, 0, 0] [1, 32, 40, 64] [1, 1, 1, 1] : tensor<1x32x40x64xf32> into tensor<1x32x40x128xf32>
    %inserted_slice_200 = tensor.insert_slice %extracted_slice_197 into %inserted_slice_199[0, 0, 0, 64] [1, 32, 40, 64] [1, 1, 1, 1] : tensor<1x32x40x64xf32> into tensor<1x32x40x128xf32>
    %895 = tosa.mul %inserted_slice_200, %890 {shift = 0 : i8} : (tensor<1x32x40x128xf32>, tensor<1x1x40x128xf32>) -> tensor<1x32x40x128xf32>
    %896 = tosa.add %891, %895 : (tensor<1x32x40x128xf32>, tensor<1x32x40x128xf32>) -> tensor<1x32x40x128xf32>
    %897 = tosa.mul %885, %889 {shift = 0 : i8} : (tensor<1x32x40x128xf32>, tensor<1x1x40x128xf32>) -> tensor<1x32x40x128xf32>
    %extracted_slice_201 = tensor.extract_slice %885[0, 0, 0, 0] [1, 32, 40, 64] [1, 1, 1, 1] : tensor<1x32x40x128xf32> to tensor<1x32x40x64xf32>
    %extracted_slice_202 = tensor.extract_slice %885[0, 0, 0, 64] [1, 32, 40, 64] [1, 1, 1, 1] : tensor<1x32x40x128xf32> to tensor<1x32x40x64xf32>
    %898 = tensor.empty() : tensor<1x32x40x64xf32>
    %899 = linalg.negf ins(%extracted_slice_202 : tensor<1x32x40x64xf32>) outs(%898 : tensor<1x32x40x64xf32>) -> tensor<1x32x40x64xf32>
    %900 = tensor.empty() : tensor<1x32x40x128xf32>
    %inserted_slice_203 = tensor.insert_slice %899 into %900[0, 0, 0, 0] [1, 32, 40, 64] [1, 1, 1, 1] : tensor<1x32x40x64xf32> into tensor<1x32x40x128xf32>
    %inserted_slice_204 = tensor.insert_slice %extracted_slice_201 into %inserted_slice_203[0, 0, 0, 64] [1, 32, 40, 64] [1, 1, 1, 1] : tensor<1x32x40x64xf32> into tensor<1x32x40x128xf32>
    %901 = tosa.mul %inserted_slice_204, %890 {shift = 0 : i8} : (tensor<1x32x40x128xf32>, tensor<1x1x40x128xf32>) -> tensor<1x32x40x128xf32>
    %902 = tosa.add %897, %901 : (tensor<1x32x40x128xf32>, tensor<1x32x40x128xf32>) -> tensor<1x32x40x128xf32>
    %903 = tosa.reshape %19 {new_shape = array<i64: 1, 40, 41>} : (tensor<40x41xf32>) -> tensor<1x40x41xf32>
    %904 = tosa.reshape %903 {new_shape = array<i64: 1, 1, 40, 41>} : (tensor<1x40x41xf32>) -> tensor<1x1x40x41xf32>
    %extracted_slice_205 = tensor.extract_slice %904[0, 0, 0, 0] [1, 1, 40, 41] [1, 1, 1, 1] : tensor<1x1x40x41xf32> to tensor<1x1x40x41xf32>
    %extracted_slice_206 = tensor.extract_slice %extracted_slice_205[0, 0, 0, 0] [1, 1, 40, 41] [1, 1, 1, 1] : tensor<1x1x40x41xf32> to tensor<1x1x40x41xf32>
    %905 = "tosa.const"() <{value = dense<0.000000e+00> : tensor<1x1x40x41xf32>}> : () -> tensor<1x1x40x41xf32>
    %906 = tosa.add %extracted_slice_206, %905 : (tensor<1x1x40x41xf32>, tensor<1x1x40x41xf32>) -> tensor<1x1x40x41xf32>
    %extracted_slice_207 = tensor.extract_slice %906[0, 0, 0, 0] [1, 1, 40, 41] [1, 1, 1, 1] : tensor<1x1x40x41xf32> to tensor<1x1x40x41xf32>
    %extracted_slice_208 = tensor.extract_slice %extracted_slice_207[0, 0, 0, 0] [1, 1, 40, 41] [1, 1, 1, 1] : tensor<1x1x40x41xf32> to tensor<1x1x40x41xf32>
    %extracted_slice_209 = tensor.extract_slice %extracted_slice_208[0, 0, 0, 0] [1, 1, 40, 41] [1, 1, 1, 1] : tensor<1x1x40x41xf32> to tensor<1x1x40x41xf32>
    %extracted_slice_210 = tensor.extract_slice %extracted_slice_209[0, 0, 0, 0] [1, 1, 40, 40] [1, 1, 1, 1] : tensor<1x1x40x41xf32> to tensor<1x1x40x40xf32>
    %cst_211 = arith.constant 0.000000e+00 : f32
    %splat_212 = tensor.splat %cst_211 : tensor<40x40xf32>
    %907 = tosa.reshape %extracted_slice_210 {new_shape = array<i64: 40, 40>} : (tensor<1x1x40x40xf32>) -> tensor<40x40xf32>
    %908 = tosa.add %splat_212, %907 : (tensor<40x40xf32>, tensor<40x40xf32>) -> tensor<40x40xf32>
    %909 = "tosa.const"() <{value = dense<[0, 1, 3, 2]> : tensor<4xi32>}> : () -> tensor<4xi32>
    %910 = tosa.transpose %902, %909 : (tensor<1x32x40x128xf32>, tensor<4xi32>) -> tensor<1x32x128x40xf32>
    %911 = tosa.reshape %896 {new_shape = array<i64: 32, 40, 128>} : (tensor<1x32x40x128xf32>) -> tensor<32x40x128xf32>
    %912 = tosa.reshape %910 {new_shape = array<i64: 32, 128, 40>} : (tensor<1x32x128x40xf32>) -> tensor<32x128x40xf32>
    %913 = tosa.matmul %911, %912 : (tensor<32x40x128xf32>, tensor<32x128x40xf32>) -> tensor<32x40x40xf32>
    %cst_213 = arith.constant 0.0883883461 : f32
    %splat_214 = tensor.splat %cst_213 : tensor<32x40x40xf32>
    %914 = tosa.mul %913, %splat_214 {shift = 0 : i8} : (tensor<32x40x40xf32>, tensor<32x40x40xf32>) -> tensor<32x40x40xf32>
    %915 = tosa.add %914, %908 : (tensor<32x40x40xf32>, tensor<40x40xf32>) -> tensor<32x40x40xf32>
    %916 = tosa.reduce_max %915 {axis = 2 : i32} : (tensor<32x40x40xf32>) -> tensor<32x40x1xf32>
    %917 = tosa.sub %915, %916 : (tensor<32x40x40xf32>, tensor<32x40x1xf32>) -> tensor<32x40x40xf32>
    %918 = math.exp %917 : tensor<32x40x40xf32>
    %919 = tosa.reduce_sum %918 {axis = 2 : i32} : (tensor<32x40x40xf32>) -> tensor<32x40x1xf32>
    %920 = tosa.log %919 : (tensor<32x40x1xf32>) -> tensor<32x40x1xf32>
    %921 = tosa.add %916, %920 : (tensor<32x40x1xf32>, tensor<32x40x1xf32>) -> tensor<32x40x1xf32>
    %922 = tosa.sub %915, %921 : (tensor<32x40x40xf32>, tensor<32x40x1xf32>) -> tensor<32x40x40xf32>
    %923 = math.exp %922 : tensor<32x40x40xf32>
    %924 = tosa.reshape %921 {new_shape = array<i64: 1, 32, 40>} : (tensor<32x40x1xf32>) -> tensor<1x32x40xf32>
    %925 = tosa.reshape %888 {new_shape = array<i64: 32, 40, 128>} : (tensor<1x32x40x128xf32>) -> tensor<32x40x128xf32>
    %926 = tosa.matmul %923, %925 : (tensor<32x40x40xf32>, tensor<32x40x128xf32>) -> tensor<32x40x128xf32>
    %927 = tosa.reshape %926 {new_shape = array<i64: 1, 32, 40, 128>} : (tensor<32x40x128xf32>) -> tensor<1x32x40x128xf32>
    %928 = "tosa.const"() <{value = dense<[0, 2, 1, 3]> : tensor<4xi32>}> : () -> tensor<4xi32>
    %929 = tosa.transpose %927, %928 : (tensor<1x32x40x128xf32>, tensor<4xi32>) -> tensor<1x40x32x128xf32>
    %930 = tosa.reshape %929 {new_shape = array<i64: 1, 40, 4096>} : (tensor<1x40x32x128xf32>) -> tensor<1x40x4096xf32>
    %931 = "tosa.const"() <{value = dense<[1, 0]> : tensor<2xi32>}> : () -> tensor<2xi32>
    %932 = tosa.transpose %arg70, %931 : (tensor<4096x4096xf32>, tensor<2xi32>) -> tensor<4096x4096xf32>
    %933 = tosa.reshape %930 {new_shape = array<i64: 40, 4096>} : (tensor<1x40x4096xf32>) -> tensor<40x4096xf32>
    %cst_215 = arith.constant dense<0.000000e+00> : tensor<40x4096xf32>
    %934 = linalg.matmul {cast = #linalg.type_fn<cast_signed>} ins(%933, %932 : tensor<40x4096xf32>, tensor<4096x4096xf32>) outs(%cst_215 : tensor<40x4096xf32>) -> tensor<40x4096xf32>
    %935 = tosa.reshape %934 {new_shape = array<i64: 1, 40, 4096>} : (tensor<40x4096xf32>) -> tensor<1x40x4096xf32>
    %936 = tosa.add %852, %935 : (tensor<1x40x4096xf32>, tensor<1x40x4096xf32>) -> tensor<1x40x4096xf32>
    %937 = tensor.empty() : tensor<1x40x4096xf32>
    %c2_i32_216 = arith.constant 2 : i32
    %938 = linalg.generic {indexing_maps = [#map4, #map4], iterator_types = ["parallel", "parallel", "parallel"]} ins(%936 : tensor<1x40x4096xf32>) outs(%937 : tensor<1x40x4096xf32>) {
    ^bb0(%in: f32, %out: f32):
      %3745 = math.fpowi %in, %c2_i32_216 : f32, i32
      linalg.yield %3745 : f32
    } -> tensor<1x40x4096xf32>
    %939 = tosa.reduce_sum %938 {axis = 2 : i32} : (tensor<1x40x4096xf32>) -> tensor<1x40x1xf32>
    %940 = "tosa.const"() <{value = dense<4.096000e+03> : tensor<1xf32>}> : () -> tensor<1xf32>
    %941 = tosa.reciprocal %940 : (tensor<1xf32>) -> tensor<1xf32>
    %942 = tosa.mul %941, %939 {shift = 0 : i8} : (tensor<1xf32>, tensor<1x40x1xf32>) -> tensor<1x40x1xf32>
    %943 = "tosa.const"() <{value = dense<9.99999974E-6> : tensor<1x40x1xf32>}> : () -> tensor<1x40x1xf32>
    %944 = tosa.add %942, %943 : (tensor<1x40x1xf32>, tensor<1x40x1xf32>) -> tensor<1x40x1xf32>
    %945 = tosa.rsqrt %944 : (tensor<1x40x1xf32>) -> tensor<1x40x1xf32>
    %946 = tosa.mul %936, %945 {shift = 0 : i8} : (tensor<1x40x4096xf32>, tensor<1x40x1xf32>) -> tensor<1x40x4096xf32>
    %947 = tosa.reshape %arg71 {new_shape = array<i64: 1, 1, 4096>} : (tensor<4096xf32>) -> tensor<1x1x4096xf32>
    %948 = tosa.mul %947, %946 {shift = 0 : i8} : (tensor<1x1x4096xf32>, tensor<1x40x4096xf32>) -> tensor<1x40x4096xf32>
    %949 = "tosa.const"() <{value = dense<[1, 0]> : tensor<2xi32>}> : () -> tensor<2xi32>
    %950 = tosa.transpose %arg72, %949 : (tensor<11008x4096xf32>, tensor<2xi32>) -> tensor<4096x11008xf32>
    %951 = tosa.reshape %948 {new_shape = array<i64: 40, 4096>} : (tensor<1x40x4096xf32>) -> tensor<40x4096xf32>
    %cst_217 = arith.constant dense<0.000000e+00> : tensor<40x11008xf32>
    %952 = linalg.matmul {cast = #linalg.type_fn<cast_signed>} ins(%951, %950 : tensor<40x4096xf32>, tensor<4096x11008xf32>) outs(%cst_217 : tensor<40x11008xf32>) -> tensor<40x11008xf32>
    %953 = tosa.reshape %952 {new_shape = array<i64: 1, 40, 11008>} : (tensor<40x11008xf32>) -> tensor<1x40x11008xf32>
    %954 = tosa.sigmoid %953 : (tensor<1x40x11008xf32>) -> tensor<1x40x11008xf32>
    %955 = tosa.mul %953, %954 {shift = 0 : i8} : (tensor<1x40x11008xf32>, tensor<1x40x11008xf32>) -> tensor<1x40x11008xf32>
    %956 = "tosa.const"() <{value = dense<[1, 0]> : tensor<2xi32>}> : () -> tensor<2xi32>
    %957 = tosa.transpose %arg73, %956 : (tensor<11008x4096xf32>, tensor<2xi32>) -> tensor<4096x11008xf32>
    %958 = tosa.reshape %948 {new_shape = array<i64: 40, 4096>} : (tensor<1x40x4096xf32>) -> tensor<40x4096xf32>
    %cst_218 = arith.constant dense<0.000000e+00> : tensor<40x11008xf32>
    %959 = linalg.matmul {cast = #linalg.type_fn<cast_signed>} ins(%958, %957 : tensor<40x4096xf32>, tensor<4096x11008xf32>) outs(%cst_218 : tensor<40x11008xf32>) -> tensor<40x11008xf32>
    %960 = tosa.reshape %959 {new_shape = array<i64: 1, 40, 11008>} : (tensor<40x11008xf32>) -> tensor<1x40x11008xf32>
    %961 = tosa.mul %955, %960 {shift = 0 : i8} : (tensor<1x40x11008xf32>, tensor<1x40x11008xf32>) -> tensor<1x40x11008xf32>
    %962 = "tosa.const"() <{value = dense<[1, 0]> : tensor<2xi32>}> : () -> tensor<2xi32>
    %963 = tosa.transpose %arg74, %962 : (tensor<4096x11008xf32>, tensor<2xi32>) -> tensor<11008x4096xf32>
    %964 = tosa.reshape %961 {new_shape = array<i64: 40, 11008>} : (tensor<1x40x11008xf32>) -> tensor<40x11008xf32>
    %cst_219 = arith.constant dense<0.000000e+00> : tensor<40x4096xf32>
    %965 = linalg.matmul {cast = #linalg.type_fn<cast_signed>} ins(%964, %963 : tensor<40x11008xf32>, tensor<11008x4096xf32>) outs(%cst_219 : tensor<40x4096xf32>) -> tensor<40x4096xf32>
    %966 = tosa.reshape %965 {new_shape = array<i64: 1, 40, 4096>} : (tensor<40x4096xf32>) -> tensor<1x40x4096xf32>
    %967 = tosa.add %936, %966 : (tensor<1x40x4096xf32>, tensor<1x40x4096xf32>) -> tensor<1x40x4096xf32>
    %968 = tensor.empty() : tensor<1x40x4096xf32>
    %c2_i32_220 = arith.constant 2 : i32
    %969 = linalg.generic {indexing_maps = [#map4, #map4], iterator_types = ["parallel", "parallel", "parallel"]} ins(%967 : tensor<1x40x4096xf32>) outs(%968 : tensor<1x40x4096xf32>) {
    ^bb0(%in: f32, %out: f32):
      %3745 = math.fpowi %in, %c2_i32_220 : f32, i32
      linalg.yield %3745 : f32
    } -> tensor<1x40x4096xf32>
    %970 = tosa.reduce_sum %969 {axis = 2 : i32} : (tensor<1x40x4096xf32>) -> tensor<1x40x1xf32>
    %971 = "tosa.const"() <{value = dense<4.096000e+03> : tensor<1xf32>}> : () -> tensor<1xf32>
    %972 = tosa.reciprocal %971 : (tensor<1xf32>) -> tensor<1xf32>
    %973 = tosa.mul %972, %970 {shift = 0 : i8} : (tensor<1xf32>, tensor<1x40x1xf32>) -> tensor<1x40x1xf32>
    %974 = "tosa.const"() <{value = dense<9.99999974E-6> : tensor<1x40x1xf32>}> : () -> tensor<1x40x1xf32>
    %975 = tosa.add %973, %974 : (tensor<1x40x1xf32>, tensor<1x40x1xf32>) -> tensor<1x40x1xf32>
    %976 = tosa.rsqrt %975 : (tensor<1x40x1xf32>) -> tensor<1x40x1xf32>
    %977 = tosa.mul %967, %976 {shift = 0 : i8} : (tensor<1x40x4096xf32>, tensor<1x40x1xf32>) -> tensor<1x40x4096xf32>
    %978 = tosa.reshape %arg75 {new_shape = array<i64: 1, 1, 4096>} : (tensor<4096xf32>) -> tensor<1x1x4096xf32>
    %979 = tosa.mul %978, %977 {shift = 0 : i8} : (tensor<1x1x4096xf32>, tensor<1x40x4096xf32>) -> tensor<1x40x4096xf32>
    %980 = "tosa.const"() <{value = dense<[1, 0]> : tensor<2xi32>}> : () -> tensor<2xi32>
    %981 = tosa.transpose %arg76, %980 : (tensor<4096x4096xf32>, tensor<2xi32>) -> tensor<4096x4096xf32>
    %982 = tosa.reshape %979 {new_shape = array<i64: 40, 4096>} : (tensor<1x40x4096xf32>) -> tensor<40x4096xf32>
    %cst_221 = arith.constant dense<0.000000e+00> : tensor<40x4096xf32>
    %983 = linalg.matmul {cast = #linalg.type_fn<cast_signed>} ins(%982, %981 : tensor<40x4096xf32>, tensor<4096x4096xf32>) outs(%cst_221 : tensor<40x4096xf32>) -> tensor<40x4096xf32>
    %984 = tosa.reshape %983 {new_shape = array<i64: 1, 40, 4096>} : (tensor<40x4096xf32>) -> tensor<1x40x4096xf32>
    %985 = "tosa.const"() <{value = dense<[1, 0]> : tensor<2xi32>}> : () -> tensor<2xi32>
    %986 = tosa.transpose %arg77, %985 : (tensor<4096x4096xf32>, tensor<2xi32>) -> tensor<4096x4096xf32>
    %987 = tosa.reshape %979 {new_shape = array<i64: 40, 4096>} : (tensor<1x40x4096xf32>) -> tensor<40x4096xf32>
    %cst_222 = arith.constant dense<0.000000e+00> : tensor<40x4096xf32>
    %988 = linalg.matmul {cast = #linalg.type_fn<cast_signed>} ins(%987, %986 : tensor<40x4096xf32>, tensor<4096x4096xf32>) outs(%cst_222 : tensor<40x4096xf32>) -> tensor<40x4096xf32>
    %989 = tosa.reshape %988 {new_shape = array<i64: 1, 40, 4096>} : (tensor<40x4096xf32>) -> tensor<1x40x4096xf32>
    %990 = "tosa.const"() <{value = dense<[1, 0]> : tensor<2xi32>}> : () -> tensor<2xi32>
    %991 = tosa.transpose %arg78, %990 : (tensor<4096x4096xf32>, tensor<2xi32>) -> tensor<4096x4096xf32>
    %992 = tosa.reshape %979 {new_shape = array<i64: 40, 4096>} : (tensor<1x40x4096xf32>) -> tensor<40x4096xf32>
    %cst_223 = arith.constant dense<0.000000e+00> : tensor<40x4096xf32>
    %993 = linalg.matmul {cast = #linalg.type_fn<cast_signed>} ins(%992, %991 : tensor<40x4096xf32>, tensor<4096x4096xf32>) outs(%cst_223 : tensor<40x4096xf32>) -> tensor<40x4096xf32>
    %994 = tosa.reshape %993 {new_shape = array<i64: 1, 40, 4096>} : (tensor<40x4096xf32>) -> tensor<1x40x4096xf32>
    %995 = tosa.reshape %984 {new_shape = array<i64: 1, 40, 32, 128>} : (tensor<1x40x4096xf32>) -> tensor<1x40x32x128xf32>
    %996 = "tosa.const"() <{value = dense<[0, 2, 1, 3]> : tensor<4xi32>}> : () -> tensor<4xi32>
    %997 = tosa.transpose %995, %996 : (tensor<1x40x32x128xf32>, tensor<4xi32>) -> tensor<1x32x40x128xf32>
    %998 = tosa.reshape %989 {new_shape = array<i64: 1, 40, 32, 128>} : (tensor<1x40x4096xf32>) -> tensor<1x40x32x128xf32>
    %999 = "tosa.const"() <{value = dense<[0, 2, 1, 3]> : tensor<4xi32>}> : () -> tensor<4xi32>
    %1000 = tosa.transpose %998, %999 : (tensor<1x40x32x128xf32>, tensor<4xi32>) -> tensor<1x32x40x128xf32>
    %1001 = tosa.reshape %994 {new_shape = array<i64: 1, 40, 32, 128>} : (tensor<1x40x4096xf32>) -> tensor<1x40x32x128xf32>
    %1002 = "tosa.const"() <{value = dense<[0, 2, 1, 3]> : tensor<4xi32>}> : () -> tensor<4xi32>
    %1003 = tosa.transpose %1001, %1002 : (tensor<1x40x32x128xf32>, tensor<4xi32>) -> tensor<1x32x40x128xf32>
    %1004 = tosa.reshape %45 {new_shape = array<i64: 1, 1, 40, 128>} : (tensor<1x40x128xf32>) -> tensor<1x1x40x128xf32>
    %1005 = tosa.reshape %47 {new_shape = array<i64: 1, 1, 40, 128>} : (tensor<1x40x128xf32>) -> tensor<1x1x40x128xf32>
    %1006 = tosa.mul %997, %1004 {shift = 0 : i8} : (tensor<1x32x40x128xf32>, tensor<1x1x40x128xf32>) -> tensor<1x32x40x128xf32>
    %extracted_slice_224 = tensor.extract_slice %997[0, 0, 0, 0] [1, 32, 40, 64] [1, 1, 1, 1] : tensor<1x32x40x128xf32> to tensor<1x32x40x64xf32>
    %extracted_slice_225 = tensor.extract_slice %997[0, 0, 0, 64] [1, 32, 40, 64] [1, 1, 1, 1] : tensor<1x32x40x128xf32> to tensor<1x32x40x64xf32>
    %1007 = tensor.empty() : tensor<1x32x40x64xf32>
    %1008 = linalg.negf ins(%extracted_slice_225 : tensor<1x32x40x64xf32>) outs(%1007 : tensor<1x32x40x64xf32>) -> tensor<1x32x40x64xf32>
    %1009 = tensor.empty() : tensor<1x32x40x128xf32>
    %inserted_slice_226 = tensor.insert_slice %1008 into %1009[0, 0, 0, 0] [1, 32, 40, 64] [1, 1, 1, 1] : tensor<1x32x40x64xf32> into tensor<1x32x40x128xf32>
    %inserted_slice_227 = tensor.insert_slice %extracted_slice_224 into %inserted_slice_226[0, 0, 0, 64] [1, 32, 40, 64] [1, 1, 1, 1] : tensor<1x32x40x64xf32> into tensor<1x32x40x128xf32>
    %1010 = tosa.mul %inserted_slice_227, %1005 {shift = 0 : i8} : (tensor<1x32x40x128xf32>, tensor<1x1x40x128xf32>) -> tensor<1x32x40x128xf32>
    %1011 = tosa.add %1006, %1010 : (tensor<1x32x40x128xf32>, tensor<1x32x40x128xf32>) -> tensor<1x32x40x128xf32>
    %1012 = tosa.mul %1000, %1004 {shift = 0 : i8} : (tensor<1x32x40x128xf32>, tensor<1x1x40x128xf32>) -> tensor<1x32x40x128xf32>
    %extracted_slice_228 = tensor.extract_slice %1000[0, 0, 0, 0] [1, 32, 40, 64] [1, 1, 1, 1] : tensor<1x32x40x128xf32> to tensor<1x32x40x64xf32>
    %extracted_slice_229 = tensor.extract_slice %1000[0, 0, 0, 64] [1, 32, 40, 64] [1, 1, 1, 1] : tensor<1x32x40x128xf32> to tensor<1x32x40x64xf32>
    %1013 = tensor.empty() : tensor<1x32x40x64xf32>
    %1014 = linalg.negf ins(%extracted_slice_229 : tensor<1x32x40x64xf32>) outs(%1013 : tensor<1x32x40x64xf32>) -> tensor<1x32x40x64xf32>
    %1015 = tensor.empty() : tensor<1x32x40x128xf32>
    %inserted_slice_230 = tensor.insert_slice %1014 into %1015[0, 0, 0, 0] [1, 32, 40, 64] [1, 1, 1, 1] : tensor<1x32x40x64xf32> into tensor<1x32x40x128xf32>
    %inserted_slice_231 = tensor.insert_slice %extracted_slice_228 into %inserted_slice_230[0, 0, 0, 64] [1, 32, 40, 64] [1, 1, 1, 1] : tensor<1x32x40x64xf32> into tensor<1x32x40x128xf32>
    %1016 = tosa.mul %inserted_slice_231, %1005 {shift = 0 : i8} : (tensor<1x32x40x128xf32>, tensor<1x1x40x128xf32>) -> tensor<1x32x40x128xf32>
    %1017 = tosa.add %1012, %1016 : (tensor<1x32x40x128xf32>, tensor<1x32x40x128xf32>) -> tensor<1x32x40x128xf32>
    %1018 = tosa.reshape %19 {new_shape = array<i64: 1, 40, 41>} : (tensor<40x41xf32>) -> tensor<1x40x41xf32>
    %1019 = tosa.reshape %1018 {new_shape = array<i64: 1, 1, 40, 41>} : (tensor<1x40x41xf32>) -> tensor<1x1x40x41xf32>
    %extracted_slice_232 = tensor.extract_slice %1019[0, 0, 0, 0] [1, 1, 40, 41] [1, 1, 1, 1] : tensor<1x1x40x41xf32> to tensor<1x1x40x41xf32>
    %extracted_slice_233 = tensor.extract_slice %extracted_slice_232[0, 0, 0, 0] [1, 1, 40, 41] [1, 1, 1, 1] : tensor<1x1x40x41xf32> to tensor<1x1x40x41xf32>
    %1020 = "tosa.const"() <{value = dense<0.000000e+00> : tensor<1x1x40x41xf32>}> : () -> tensor<1x1x40x41xf32>
    %1021 = tosa.add %extracted_slice_233, %1020 : (tensor<1x1x40x41xf32>, tensor<1x1x40x41xf32>) -> tensor<1x1x40x41xf32>
    %extracted_slice_234 = tensor.extract_slice %1021[0, 0, 0, 0] [1, 1, 40, 41] [1, 1, 1, 1] : tensor<1x1x40x41xf32> to tensor<1x1x40x41xf32>
…
    %3393 = tosa.reshape %arg264 {new_shape = array<i64: 1, 1, 4096>} : (tensor<4096xf32>) -> tensor<1x1x4096xf32>
    %3394 = tosa.mul %3393, %3392 {shift = 0 : i8} : (tensor<1x1x4096xf32>, tensor<1x40x4096xf32>) -> tensor<1x40x4096xf32>
    %3395 = "tosa.const"() <{value = dense<[1, 0]> : tensor<2xi32>}> : () -> tensor<2xi32>
    %3396 = tosa.transpose %arg265, %3395 : (tensor<4096x4096xf32>, tensor<2xi32>) -> tensor<4096x4096xf32>
    %3397 = tosa.reshape %3394 {new_shape = array<i64: 40, 4096>} : (tensor<1x40x4096xf32>) -> tensor<40x4096xf32>
    %cst_788 = arith.constant dense<0.000000e+00> : tensor<40x4096xf32>
    %3398 = linalg.matmul {cast = #linalg.type_fn<cast_signed>} ins(%3397, %3396 : tensor<40x4096xf32>, tensor<4096x4096xf32>) outs(%cst_788 : tensor<40x4096xf32>) -> tensor<40x4096xf32>
    %3399 = tosa.reshape %3398 {new_shape = array<i64: 1, 40, 4096>} : (tensor<40x4096xf32>) -> tensor<1x40x4096xf32>
    %3400 = "tosa.const"() <{value = dense<[1, 0]> : tensor<2xi32>}> : () -> tensor<2xi32>
    %3401 = tosa.transpose %arg266, %3400 : (tensor<4096x4096xf32>, tensor<2xi32>) -> tensor<4096x4096xf32>
    %3402 = tosa.reshape %3394 {new_shape = array<i64: 40, 4096>} : (tensor<1x40x4096xf32>) -> tensor<40x4096xf32>
    %cst_789 = arith.constant dense<0.000000e+00> : tensor<40x4096xf32>
    %3403 = linalg.matmul {cast = #linalg.type_fn<cast_signed>} ins(%3402, %3401 : tensor<40x4096xf32>, tensor<4096x4096xf32>) outs(%cst_789 : tensor<40x4096xf32>) -> tensor<40x4096xf32>
    %3404 = tosa.reshape %3403 {new_shape = array<i64: 1, 40, 4096>} : (tensor<40x4096xf32>) -> tensor<1x40x4096xf32>
    %3405 = "tosa.const"() <{value = dense<[1, 0]> : tensor<2xi32>}> : () -> tensor<2xi32>
    %3406 = tosa.transpose %arg267, %3405 : (tensor<4096x4096xf32>, tensor<2xi32>) -> tensor<4096x4096xf32>
    %3407 = tosa.reshape %3394 {new_shape = array<i64: 40, 4096>} : (tensor<1x40x4096xf32>) -> tensor<40x4096xf32>
    %cst_790 = arith.constant dense<0.000000e+00> : tensor<40x4096xf32>
    %3408 = linalg.matmul {cast = #linalg.type_fn<cast_signed>} ins(%3407, %3406 : tensor<40x4096xf32>, tensor<4096x4096xf32>) outs(%cst_790 : tensor<40x4096xf32>) -> tensor<40x4096xf32>
    %3409 = tosa.reshape %3408 {new_shape = array<i64: 1, 40, 4096>} : (tensor<40x4096xf32>) -> tensor<1x40x4096xf32>
    %3410 = tosa.reshape %3399 {new_shape = array<i64: 1, 40, 32, 128>} : (tensor<1x40x4096xf32>) -> tensor<1x40x32x128xf32>
    %3411 = "tosa.const"() <{value = dense<[0, 2, 1, 3]> : tensor<4xi32>}> : () -> tensor<4xi32>
    %3412 = tosa.transpose %3410, %3411 : (tensor<1x40x32x128xf32>, tensor<4xi32>) -> tensor<1x32x40x128xf32>
    %3413 = tosa.reshape %3404 {new_shape = array<i64: 1, 40, 32, 128>} : (tensor<1x40x4096xf32>) -> tensor<1x40x32x128xf32>
    %3414 = "tosa.const"() <{value = dense<[0, 2, 1, 3]> : tensor<4xi32>}> : () -> tensor<4xi32>
    %3415 = tosa.transpose %3413, %3414 : (tensor<1x40x32x128xf32>, tensor<4xi32>) -> tensor<1x32x40x128xf32>
    %3416 = tosa.reshape %3409 {new_shape = array<i64: 1, 40, 32, 128>} : (tensor<1x40x4096xf32>) -> tensor<1x40x32x128xf32>
    %3417 = "tosa.const"() <{value = dense<[0, 2, 1, 3]> : tensor<4xi32>}> : () -> tensor<4xi32>
    %3418 = tosa.transpose %3416, %3417 : (tensor<1x40x32x128xf32>, tensor<4xi32>) -> tensor<1x32x40x128xf32>
    %3419 = tosa.reshape %45 {new_shape = array<i64: 1, 1, 40, 128>} : (tensor<1x40x128xf32>) -> tensor<1x1x40x128xf32>
    %3420 = tosa.reshape %47 {new_shape = array<i64: 1, 1, 40, 128>} : (tensor<1x40x128xf32>) -> tensor<1x1x40x128xf32>
    %3421 = tosa.mul %3412, %3419 {shift = 0 : i8} : (tensor<1x32x40x128xf32>, tensor<1x1x40x128xf32>) -> tensor<1x32x40x128xf32>
    %extracted_slice_791 = tensor.extract_slice %3412[0, 0, 0, 0] [1, 32, 40, 64] [1, 1, 1, 1] : tensor<1x32x40x128xf32> to tensor<1x32x40x64xf32>
    %extracted_slice_792 = tensor.extract_slice %3412[0, 0, 0, 64] [1, 32, 40, 64] [1, 1, 1, 1] : tensor<1x32x40x128xf32> to tensor<1x32x40x64xf32>
    %3422 = tensor.empty() : tensor<1x32x40x64xf32>
    %3423 = linalg.negf ins(%extracted_slice_792 : tensor<1x32x40x64xf32>) outs(%3422 : tensor<1x32x40x64xf32>) -> tensor<1x32x40x64xf32>
    %3424 = tensor.empty() : tensor<1x32x40x128xf32>
    %inserted_slice_793 = tensor.insert_slice %3423 into %3424[0, 0, 0, 0] [1, 32, 40, 64] [1, 1, 1, 1] : tensor<1x32x40x64xf32> into tensor<1x32x40x128xf32>
    %inserted_slice_794 = tensor.insert_slice %extracted_slice_791 into %inserted_slice_793[0, 0, 0, 64] [1, 32, 40, 64] [1, 1, 1, 1] : tensor<1x32x40x64xf32> into tensor<1x32x40x128xf32>
    %3425 = tosa.mul %inserted_slice_794, %3420 {shift = 0 : i8} : (tensor<1x32x40x128xf32>, tensor<1x1x40x128xf32>) -> tensor<1x32x40x128xf32>
    %3426 = tosa.add %3421, %3425 : (tensor<1x32x40x128xf32>, tensor<1x32x40x128xf32>) -> tensor<1x32x40x128xf32>
    %3427 = tosa.mul %3415, %3419 {shift = 0 : i8} : (tensor<1x32x40x128xf32>, tensor<1x1x40x128xf32>) -> tensor<1x32x40x128xf32>
    %extracted_slice_795 = tensor.extract_slice %3415[0, 0, 0, 0] [1, 32, 40, 64] [1, 1, 1, 1] : tensor<1x32x40x128xf32> to tensor<1x32x40x64xf32>
    %extracted_slice_796 = tensor.extract_slice %3415[0, 0, 0, 64] [1, 32, 40, 64] [1, 1, 1, 1] : tensor<1x32x40x128xf32> to tensor<1x32x40x64xf32>
    %3428 = tensor.empty() : tensor<1x32x40x64xf32>
    %3429 = linalg.negf ins(%extracted_slice_796 : tensor<1x32x40x64xf32>) outs(%3428 : tensor<1x32x40x64xf32>) -> tensor<1x32x40x64xf32>
    %3430 = tensor.empty() : tensor<1x32x40x128xf32>
    %inserted_slice_797 = tensor.insert_slice %3429 into %3430[0, 0, 0, 0] [1, 32, 40, 64] [1, 1, 1, 1] : tensor<1x32x40x64xf32> into tensor<1x32x40x128xf32>
    %inserted_slice_798 = tensor.insert_slice %extracted_slice_795 into %inserted_slice_797[0, 0, 0, 64] [1, 32, 40, 64] [1, 1, 1, 1] : tensor<1x32x40x64xf32> into tensor<1x32x40x128xf32>
    %3431 = tosa.mul %inserted_slice_798, %3420 {shift = 0 : i8} : (tensor<1x32x40x128xf32>, tensor<1x1x40x128xf32>) -> tensor<1x32x40x128xf32>
    %3432 = tosa.add %3427, %3431 : (tensor<1x32x40x128xf32>, tensor<1x32x40x128xf32>) -> tensor<1x32x40x128xf32>
    %3433 = tosa.reshape %19 {new_shape = array<i64: 1, 40, 41>} : (tensor<40x41xf32>) -> tensor<1x40x41xf32>
    %3434 = tosa.reshape %3433 {new_shape = array<i64: 1, 1, 40, 41>} : (tensor<1x40x41xf32>) -> tensor<1x1x40x41xf32>
    %extracted_slice_799 = tensor.extract_slice %3434[0, 0, 0, 0] [1, 1, 40, 41] [1, 1, 1, 1] : tensor<1x1x40x41xf32> to tensor<1x1x40x41xf32>
    %extracted_slice_800 = tensor.extract_slice %extracted_slice_799[0, 0, 0, 0] [1, 1, 40, 41] [1, 1, 1, 1] : tensor<1x1x40x41xf32> to tensor<1x1x40x41xf32>
    %3435 = "tosa.const"() <{value = dense<0.000000e+00> : tensor<1x1x40x41xf32>}> : () -> tensor<1x1x40x41xf32>
    %3436 = tosa.add %extracted_slice_800, %3435 : (tensor<1x1x40x41xf32>, tensor<1x1x40x41xf32>) -> tensor<1x1x40x41xf32>
    %extracted_slice_801 = tensor.extract_slice %3436[0, 0, 0, 0] [1, 1, 40, 41] [1, 1, 1, 1] : tensor<1x1x40x41xf32> to tensor<1x1x40x41xf32>
    %extracted_slice_802 = tensor.extract_slice %extracted_slice_801[0, 0, 0, 0] [1, 1, 40, 41] [1, 1, 1, 1] : tensor<1x1x40x41xf32> to tensor<1x1x40x41xf32>
    %extracted_slice_803 = tensor.extract_slice %extracted_slice_802[0, 0, 0, 0] [1, 1, 40, 41] [1, 1, 1, 1] : tensor<1x1x40x41xf32> to tensor<1x1x40x41xf32>
    %extracted_slice_804 = tensor.extract_slice %extracted_slice_803[0, 0, 0, 0] [1, 1, 40, 40] [1, 1, 1, 1] : tensor<1x1x40x41xf32> to tensor<1x1x40x40xf32>
    %cst_805 = arith.constant 0.000000e+00 : f32
    %splat_806 = tensor.splat %cst_805 : tensor<40x40xf32>
    %3437 = tosa.reshape %extracted_slice_804 {new_shape = array<i64: 40, 40>} : (tensor<1x1x40x40xf32>) -> tensor<40x40xf32>
    %3438 = tosa.add %splat_806, %3437 : (tensor<40x40xf32>, tensor<40x40xf32>) -> tensor<40x40xf32>
    %3439 = "tosa.const"() <{value = dense<[0, 1, 3, 2]> : tensor<4xi32>}> : () -> tensor<4xi32>
    %3440 = tosa.transpose %3432, %3439 : (tensor<1x32x40x128xf32>, tensor<4xi32>) -> tensor<1x32x128x40xf32>
    %3441 = tosa.reshape %3426 {new_shape = array<i64: 32, 40, 128>} : (tensor<1x32x40x128xf32>) -> tensor<32x40x128xf32>
    %3442 = tosa.reshape %3440 {new_shape = array<i64: 32, 128, 40>} : (tensor<1x32x128x40xf32>) -> tensor<32x128x40xf32>
    %3443 = tosa.matmul %3441, %3442 : (tensor<32x40x128xf32>, tensor<32x128x40xf32>) -> tensor<32x40x40xf32>
    %cst_807 = arith.constant 0.0883883461 : f32
    %splat_808 = tensor.splat %cst_807 : tensor<32x40x40xf32>
    %3444 = tosa.mul %3443, %splat_808 {shift = 0 : i8} : (tensor<32x40x40xf32>, tensor<32x40x40xf32>) -> tensor<32x40x40xf32>
    %3445 = tosa.add %3444, %3438 : (tensor<32x40x40xf32>, tensor<40x40xf32>) -> tensor<32x40x40xf32>
    %3446 = tosa.reduce_max %3445 {axis = 2 : i32} : (tensor<32x40x40xf32>) -> tensor<32x40x1xf32>
    %3447 = tosa.sub %3445, %3446 : (tensor<32x40x40xf32>, tensor<32x40x1xf32>) -> tensor<32x40x40xf32>
    %3448 = math.exp %3447 : tensor<32x40x40xf32>
    %3449 = tosa.reduce_sum %3448 {axis = 2 : i32} : (tensor<32x40x40xf32>) -> tensor<32x40x1xf32>
    %3450 = tosa.log %3449 : (tensor<32x40x1xf32>) -> tensor<32x40x1xf32>
    %3451 = tosa.add %3446, %3450 : (tensor<32x40x1xf32>, tensor<32x40x1xf32>) -> tensor<32x40x1xf32>
    %3452 = tosa.sub %3445, %3451 : (tensor<32x40x40xf32>, tensor<32x40x1xf32>) -> tensor<32x40x40xf32>
    %3453 = math.exp %3452 : tensor<32x40x40xf32>
    %3454 = tosa.reshape %3451 {new_shape = array<i64: 1, 32, 40>} : (tensor<32x40x1xf32>) -> tensor<1x32x40xf32>
    %3455 = tosa.reshape %3418 {new_shape = array<i64: 32, 40, 128>} : (tensor<1x32x40x128xf32>) -> tensor<32x40x128xf32>
    %3456 = tosa.matmul %3453, %3455 : (tensor<32x40x40xf32>, tensor<32x40x128xf32>) -> tensor<32x40x128xf32>
    %3457 = tosa.reshape %3456 {new_shape = array<i64: 1, 32, 40, 128>} : (tensor<32x40x128xf32>) -> tensor<1x32x40x128xf32>
    %3458 = "tosa.const"() <{value = dense<[0, 2, 1, 3]> : tensor<4xi32>}> : () -> tensor<4xi32>
    %3459 = tosa.transpose %3457, %3458 : (tensor<1x32x40x128xf32>, tensor<4xi32>) -> tensor<1x40x32x128xf32>
    %3460 = tosa.reshape %3459 {new_shape = array<i64: 1, 40, 4096>} : (tensor<1x40x32x128xf32>) -> tensor<1x40x4096xf32>
    %3461 = "tosa.const"() <{value = dense<[1, 0]> : tensor<2xi32>}> : () -> tensor<2xi32>
    %3462 = tosa.transpose %arg268, %3461 : (tensor<4096x4096xf32>, tensor<2xi32>) -> tensor<4096x4096xf32>
    %3463 = tosa.reshape %3460 {new_shape = array<i64: 40, 4096>} : (tensor<1x40x4096xf32>) -> tensor<40x4096xf32>
    %cst_809 = arith.constant dense<0.000000e+00> : tensor<40x4096xf32>
    %3464 = linalg.matmul {cast = #linalg.type_fn<cast_signed>} ins(%3463, %3462 : tensor<40x4096xf32>, tensor<4096x4096xf32>) outs(%cst_809 : tensor<40x4096xf32>) -> tensor<40x4096xf32>
    %3465 = tosa.reshape %3464 {new_shape = array<i64: 1, 40, 4096>} : (tensor<40x4096xf32>) -> tensor<1x40x4096xf32>
    %3466 = tosa.add %3382, %3465 : (tensor<1x40x4096xf32>, tensor<1x40x4096xf32>) -> tensor<1x40x4096xf32>
    %3467 = tensor.empty() : tensor<1x40x4096xf32>
    %c2_i32_810 = arith.constant 2 : i32
    %3468 = linalg.generic {indexing_maps = [#map4, #map4], iterator_types = ["parallel", "parallel", "parallel"]} ins(%3466 : tensor<1x40x4096xf32>) outs(%3467 : tensor<1x40x4096xf32>) {
    ^bb0(%in: f32, %out: f32):
      %3745 = math.fpowi %in, %c2_i32_810 : f32, i32
      linalg.yield %3745 : f32
    } -> tensor<1x40x4096xf32>
    %3469 = tosa.reduce_sum %3468 {axis = 2 : i32} : (tensor<1x40x4096xf32>) -> tensor<1x40x1xf32>
    %3470 = "tosa.const"() <{value = dense<4.096000e+03> : tensor<1xf32>}> : () -> tensor<1xf32>
    %3471 = tosa.reciprocal %3470 : (tensor<1xf32>) -> tensor<1xf32>
    %3472 = tosa.mul %3471, %3469 {shift = 0 : i8} : (tensor<1xf32>, tensor<1x40x1xf32>) -> tensor<1x40x1xf32>
    %3473 = "tosa.const"() <{value = dense<9.99999974E-6> : tensor<1x40x1xf32>}> : () -> tensor<1x40x1xf32>
    %3474 = tosa.add %3472, %3473 : (tensor<1x40x1xf32>, tensor<1x40x1xf32>) -> tensor<1x40x1xf32>
    %3475 = tosa.rsqrt %3474 : (tensor<1x40x1xf32>) -> tensor<1x40x1xf32>
    %3476 = tosa.mul %3466, %3475 {shift = 0 : i8} : (tensor<1x40x4096xf32>, tensor<1x40x1xf32>) -> tensor<1x40x4096xf32>
    %3477 = tosa.reshape %arg269 {new_shape = array<i64: 1, 1, 4096>} : (tensor<4096xf32>) -> tensor<1x1x4096xf32>
    %3478 = tosa.mul %3477, %3476 {shift = 0 : i8} : (tensor<1x1x4096xf32>, tensor<1x40x4096xf32>) -> tensor<1x40x4096xf32>
    %3479 = "tosa.const"() <{value = dense<[1, 0]> : tensor<2xi32>}> : () -> tensor<2xi32>
    %3480 = tosa.transpose %arg270, %3479 : (tensor<11008x4096xf32>, tensor<2xi32>) -> tensor<4096x11008xf32>
    %3481 = tosa.reshape %3478 {new_shape = array<i64: 40, 4096>} : (tensor<1x40x4096xf32>) -> tensor<40x4096xf32>
    %cst_811 = arith.constant dense<0.000000e+00> : tensor<40x11008xf32>
    %3482 = linalg.matmul {cast = #linalg.type_fn<cast_signed>} ins(%3481, %3480 : tensor<40x4096xf32>, tensor<4096x11008xf32>) outs(%cst_811 : tensor<40x11008xf32>) -> tensor<40x11008xf32>
    %3483 = tosa.reshape %3482 {new_shape = array<i64: 1, 40, 11008>} : (tensor<40x11008xf32>) -> tensor<1x40x11008xf32>
    %3484 = tosa.sigmoid %3483 : (tensor<1x40x11008xf32>) -> tensor<1x40x11008xf32>
    %3485 = tosa.mul %3483, %3484 {shift = 0 : i8} : (tensor<1x40x11008xf32>, tensor<1x40x11008xf32>) -> tensor<1x40x11008xf32>
    %3486 = "tosa.const"() <{value = dense<[1, 0]> : tensor<2xi32>}> : () -> tensor<2xi32>
    %3487 = tosa.transpose %arg271, %3486 : (tensor<11008x4096xf32>, tensor<2xi32>) -> tensor<4096x11008xf32>
    %3488 = tosa.reshape %3478 {new_shape = array<i64: 40, 4096>} : (tensor<1x40x4096xf32>) -> tensor<40x4096xf32>
    %cst_812 = arith.constant dense<0.000000e+00> : tensor<40x11008xf32>
    %3489 = linalg.matmul {cast = #linalg.type_fn<cast_signed>} ins(%3488, %3487 : tensor<40x4096xf32>, tensor<4096x11008xf32>) outs(%cst_812 : tensor<40x11008xf32>) -> tensor<40x11008xf32>
    %3490 = tosa.reshape %3489 {new_shape = array<i64: 1, 40, 11008>} : (tensor<40x11008xf32>) -> tensor<1x40x11008xf32>
    %3491 = tosa.mul %3485, %3490 {shift = 0 : i8} : (tensor<1x40x11008xf32>, tensor<1x40x11008xf32>) -> tensor<1x40x11008xf32>
    %3492 = "tosa.const"() <{value = dense<[1, 0]> : tensor<2xi32>}> : () -> tensor<2xi32>
    %3493 = tosa.transpose %arg272, %3492 : (tensor<4096x11008xf32>, tensor<2xi32>) -> tensor<11008x4096xf32>
    %3494 = tosa.reshape %3491 {new_shape = array<i64: 40, 11008>} : (tensor<1x40x11008xf32>) -> tensor<40x11008xf32>
    %cst_813 = arith.constant dense<0.000000e+00> : tensor<40x4096xf32>
    %3495 = linalg.matmul {cast = #linalg.type_fn<cast_signed>} ins(%3494, %3493 : tensor<40x11008xf32>, tensor<11008x4096xf32>) outs(%cst_813 : tensor<40x4096xf32>) -> tensor<40x4096xf32>
    %3496 = tosa.reshape %3495 {new_shape = array<i64: 1, 40, 4096>} : (tensor<40x4096xf32>) -> tensor<1x40x4096xf32>
    %3497 = tosa.add %3466, %3496 : (tensor<1x40x4096xf32>, tensor<1x40x4096xf32>) -> tensor<1x40x4096xf32>
    %3498 = tensor.empty() : tensor<1x40x4096xf32>
    %c2_i32_814 = arith.constant 2 : i32
    %3499 = linalg.generic {indexing_maps = [#map4, #map4], iterator_types = ["parallel", "parallel", "parallel"]} ins(%3497 : tensor<1x40x4096xf32>) outs(%3498 : tensor<1x40x4096xf32>) {
    ^bb0(%in: f32, %out: f32):
      %3745 = math.fpowi %in, %c2_i32_814 : f32, i32
      linalg.yield %3745 : f32
    } -> tensor<1x40x4096xf32>
    %3500 = tosa.reduce_sum %3499 {axis = 2 : i32} : (tensor<1x40x4096xf32>) -> tensor<1x40x1xf32>
    %3501 = "tosa.const"() <{value = dense<4.096000e+03> : tensor<1xf32>}> : () -> tensor<1xf32>
    %3502 = tosa.reciprocal %3501 : (tensor<1xf32>) -> tensor<1xf32>
    %3503 = tosa.mul %3502, %3500 {shift = 0 : i8} : (tensor<1xf32>, tensor<1x40x1xf32>) -> tensor<1x40x1xf32>
    %3504 = "tosa.const"() <{value = dense<9.99999974E-6> : tensor<1x40x1xf32>}> : () -> tensor<1x40x1xf32>
    %3505 = tosa.add %3503, %3504 : (tensor<1x40x1xf32>, tensor<1x40x1xf32>) -> tensor<1x40x1xf32>
    %3506 = tosa.rsqrt %3505 : (tensor<1x40x1xf32>) -> tensor<1x40x1xf32>
    %3507 = tosa.mul %3497, %3506 {shift = 0 : i8} : (tensor<1x40x4096xf32>, tensor<1x40x1xf32>) -> tensor<1x40x4096xf32>
    %3508 = tosa.reshape %arg273 {new_shape = array<i64: 1, 1, 4096>} : (tensor<4096xf32>) -> tensor<1x1x4096xf32>
    %3509 = tosa.mul %3508, %3507 {shift = 0 : i8} : (tensor<1x1x4096xf32>, tensor<1x40x4096xf32>) -> tensor<1x40x4096xf32>
    %3510 = "tosa.const"() <{value = dense<[1, 0]> : tensor<2xi32>}> : () -> tensor<2xi32>
    %3511 = tosa.transpose %arg274, %3510 : (tensor<4096x4096xf32>, tensor<2xi32>) -> tensor<4096x4096xf32>
    %3512 = tosa.reshape %3509 {new_shape = array<i64: 40, 4096>} : (tensor<1x40x4096xf32>) -> tensor<40x4096xf32>
    %cst_815 = arith.constant dense<0.000000e+00> : tensor<40x4096xf32>
    %3513 = linalg.matmul {cast = #linalg.type_fn<cast_signed>} ins(%3512, %3511 : tensor<40x4096xf32>, tensor<4096x4096xf32>) outs(%cst_815 : tensor<40x4096xf32>) -> tensor<40x4096xf32>
    %3514 = tosa.reshape %3513 {new_shape = array<i64: 1, 40, 4096>} : (tensor<40x4096xf32>) -> tensor<1x40x4096xf32>
    %3515 = "tosa.const"() <{value = dense<[1, 0]> : tensor<2xi32>}> : () -> tensor<2xi32>
    %3516 = tosa.transpose %arg275, %3515 : (tensor<4096x4096xf32>, tensor<2xi32>) -> tensor<4096x4096xf32>
    %3517 = tosa.reshape %3509 {new_shape = array<i64: 40, 4096>} : (tensor<1x40x4096xf32>) -> tensor<40x4096xf32>
    %cst_816 = arith.constant dense<0.000000e+00> : tensor<40x4096xf32>
    %3518 = linalg.matmul {cast = #linalg.type_fn<cast_signed>} ins(%3517, %3516 : tensor<40x4096xf32>, tensor<4096x4096xf32>) outs(%cst_816 : tensor<40x4096xf32>) -> tensor<40x4096xf32>
    %3519 = tosa.reshape %3518 {new_shape = array<i64: 1, 40, 4096>} : (tensor<40x4096xf32>) -> tensor<1x40x4096xf32>
    %3520 = "tosa.const"() <{value = dense<[1, 0]> : tensor<2xi32>}> : () -> tensor<2xi32>
    %3521 = tosa.transpose %arg276, %3520 : (tensor<4096x4096xf32>, tensor<2xi32>) -> tensor<4096x4096xf32>
    %3522 = tosa.reshape %3509 {new_shape = array<i64: 40, 4096>} : (tensor<1x40x4096xf32>) -> tensor<40x4096xf32>
    %cst_817 = arith.constant dense<0.000000e+00> : tensor<40x4096xf32>
    %3523 = linalg.matmul {cast = #linalg.type_fn<cast_signed>} ins(%3522, %3521 : tensor<40x4096xf32>, tensor<4096x4096xf32>) outs(%cst_817 : tensor<40x4096xf32>) -> tensor<40x4096xf32>
    %3524 = tosa.reshape %3523 {new_shape = array<i64: 1, 40, 4096>} : (tensor<40x4096xf32>) -> tensor<1x40x4096xf32>
    %3525 = tosa.reshape %3514 {new_shape = array<i64: 1, 40, 32, 128>} : (tensor<1x40x4096xf32>) -> tensor<1x40x32x128xf32>
    %3526 = "tosa.const"() <{value = dense<[0, 2, 1, 3]> : tensor<4xi32>}> : () -> tensor<4xi32>
    %3527 = tosa.transpose %3525, %3526 : (tensor<1x40x32x128xf32>, tensor<4xi32>) -> tensor<1x32x40x128xf32>
    %3528 = tosa.reshape %3519 {new_shape = array<i64: 1, 40, 32, 128>} : (tensor<1x40x4096xf32>) -> tensor<1x40x32x128xf32>
    %3529 = "tosa.const"() <{value = dense<[0, 2, 1, 3]> : tensor<4xi32>}> : () -> tensor<4xi32>
    %3530 = tosa.transpose %3528, %3529 : (tensor<1x40x32x128xf32>, tensor<4xi32>) -> tensor<1x32x40x128xf32>
    %3531 = tosa.reshape %3524 {new_shape = array<i64: 1, 40, 32, 128>} : (tensor<1x40x4096xf32>) -> tensor<1x40x32x128xf32>
    %3532 = "tosa.const"() <{value = dense<[0, 2, 1, 3]> : tensor<4xi32>}> : () -> tensor<4xi32>
    %3533 = tosa.transpose %3531, %3532 : (tensor<1x40x32x128xf32>, tensor<4xi32>) -> tensor<1x32x40x128xf32>
    %3534 = tosa.reshape %45 {new_shape = array<i64: 1, 1, 40, 128>} : (tensor<1x40x128xf32>) -> tensor<1x1x40x128xf32>
    %3535 = tosa.reshape %47 {new_shape = array<i64: 1, 1, 40, 128>} : (tensor<1x40x128xf32>) -> tensor<1x1x40x128xf32>
    %3536 = tosa.mul %3527, %3534 {shift = 0 : i8} : (tensor<1x32x40x128xf32>, tensor<1x1x40x128xf32>) -> tensor<1x32x40x128xf32>
    %extracted_slice_818 = tensor.extract_slice %3527[0, 0, 0, 0] [1, 32, 40, 64] [1, 1, 1, 1] : tensor<1x32x40x128xf32> to tensor<1x32x40x64xf32>
    %extracted_slice_819 = tensor.extract_slice %3527[0, 0, 0, 64] [1, 32, 40, 64] [1, 1, 1, 1] : tensor<1x32x40x128xf32> to tensor<1x32x40x64xf32>
    %3537 = tensor.empty() : tensor<1x32x40x64xf32>
    %3538 = linalg.negf ins(%extracted_slice_819 : tensor<1x32x40x64xf32>) outs(%3537 : tensor<1x32x40x64xf32>) -> tensor<1x32x40x64xf32>
    %3539 = tensor.empty() : tensor<1x32x40x128xf32>
    %inserted_slice_820 = tensor.insert_slice %3538 into %3539[0, 0, 0, 0] [1, 32, 40, 64] [1, 1, 1, 1] : tensor<1x32x40x64xf32> into tensor<1x32x40x128xf32>
    %inserted_slice_821 = tensor.insert_slice %extracted_slice_818 into %inserted_slice_820[0, 0, 0, 64] [1, 32, 40, 64] [1, 1, 1, 1] : tensor<1x32x40x64xf32> into tensor<1x32x40x128xf32>
    %3540 = tosa.mul %inserted_slice_821, %3535 {shift = 0 : i8} : (tensor<1x32x40x128xf32>, tensor<1x1x40x128xf32>) -> tensor<1x32x40x128xf32>
    %3541 = tosa.add %3536, %3540 : (tensor<1x32x40x128xf32>, tensor<1x32x40x128xf32>) -> tensor<1x32x40x128xf32>
    %3542 = tosa.mul %3530, %3534 {shift = 0 : i8} : (tensor<1x32x40x128xf32>, tensor<1x1x40x128xf32>) -> tensor<1x32x40x128xf32>
    %extracted_slice_822 = tensor.extract_slice %3530[0, 0, 0, 0] [1, 32, 40, 64] [1, 1, 1, 1] : tensor<1x32x40x128xf32> to tensor<1x32x40x64xf32>
    %extracted_slice_823 = tensor.extract_slice %3530[0, 0, 0, 64] [1, 32, 40, 64] [1, 1, 1, 1] : tensor<1x32x40x128xf32> to tensor<1x32x40x64xf32>
    %3543 = tensor.empty() : tensor<1x32x40x64xf32>
    %3544 = linalg.negf ins(%extracted_slice_823 : tensor<1x32x40x64xf32>) outs(%3543 : tensor<1x32x40x64xf32>) -> tensor<1x32x40x64xf32>
    %3545 = tensor.empty() : tensor<1x32x40x128xf32>
    %inserted_slice_824 = tensor.insert_slice %3544 into %3545[0, 0, 0, 0] [1, 32, 40, 64] [1, 1, 1, 1] : tensor<1x32x40x64xf32> into tensor<1x32x40x128xf32>
    %inserted_slice_825 = tensor.insert_slice %extracted_slice_822 into %inserted_slice_824[0, 0, 0, 64] [1, 32, 40, 64] [1, 1, 1, 1] : tensor<1x32x40x64xf32> into tensor<1x32x40x128xf32>
    %3546 = tosa.mul %inserted_slice_825, %3535 {shift = 0 : i8} : (tensor<1x32x40x128xf32>, tensor<1x1x40x128xf32>) -> tensor<1x32x40x128xf32>
    %3547 = tosa.add %3542, %3546 : (tensor<1x32x40x128xf32>, tensor<1x32x40x128xf32>) -> tensor<1x32x40x128xf32>
    %3548 = tosa.reshape %19 {new_shape = array<i64: 1, 40, 41>} : (tensor<40x41xf32>) -> tensor<1x40x41xf32>
    %3549 = tosa.reshape %3548 {new_shape = array<i64: 1, 1, 40, 41>} : (tensor<1x40x41xf32>) -> tensor<1x1x40x41xf32>
    %extracted_slice_826 = tensor.extract_slice %3549[0, 0, 0, 0] [1, 1, 40, 41] [1, 1, 1, 1] : tensor<1x1x40x41xf32> to tensor<1x1x40x41xf32>
    %extracted_slice_827 = tensor.extract_slice %extracted_slice_826[0, 0, 0, 0] [1, 1, 40, 41] [1, 1, 1, 1] : tensor<1x1x40x41xf32> to tensor<1x1x40x41xf32>
    %3550 = "tosa.const"() <{value = dense<0.000000e+00> : tensor<1x1x40x41xf32>}> : () -> tensor<1x1x40x41xf32>
    %3551 = tosa.add %extracted_slice_827, %3550 : (tensor<1x1x40x41xf32>, tensor<1x1x40x41xf32>) -> tensor<1x1x40x41xf32>
    %extracted_slice_828 = tensor.extract_slice %3551[0, 0, 0, 0] [1, 1, 40, 41] [1, 1, 1, 1] : tensor<1x1x40x41xf32> to tensor<1x1x40x41xf32>
    %extracted_slice_829 = tensor.extract_slice %extracted_slice_828[0, 0, 0, 0] [1, 1, 40, 41] [1, 1, 1, 1] : tensor<1x1x40x41xf32> to tensor<1x1x40x41xf32>
    %extracted_slice_830 = tensor.extract_slice %extracted_slice_829[0, 0, 0, 0] [1, 1, 40, 41] [1, 1, 1, 1] : tensor<1x1x40x41xf32> to tensor<1x1x40x41xf32>
    %extracted_slice_831 = tensor.extract_slice %extracted_slice_830[0, 0, 0, 0] [1, 1, 40, 40] [1, 1, 1, 1] : tensor<1x1x40x41xf32> to tensor<1x1x40x40xf32>
    %cst_832 = arith.constant 0.000000e+00 : f32
    %splat_833 = tensor.splat %cst_832 : tensor<40x40xf32>
    %3552 = tosa.reshape %extracted_slice_831 {new_shape = array<i64: 40, 40>} : (tensor<1x1x40x40xf32>) -> tensor<40x40xf32>
    %3553 = tosa.add %splat_833, %3552 : (tensor<40x40xf32>, tensor<40x40xf32>) -> tensor<40x40xf32>
    %3554 = "tosa.const"() <{value = dense<[0, 1, 3, 2]> : tensor<4xi32>}> : () -> tensor<4xi32>
    %3555 = tosa.transpose %3547, %3554 : (tensor<1x32x40x128xf32>, tensor<4xi32>) -> tensor<1x32x128x40xf32>
    %3556 = tosa.reshape %3541 {new_shape = array<i64: 32, 40, 128>} : (tensor<1x32x40x128xf32>) -> tensor<32x40x128xf32>
    %3557 = tosa.reshape %3555 {new_shape = array<i64: 32, 128, 40>} : (tensor<1x32x128x40xf32>) -> tensor<32x128x40xf32>
    %3558 = tosa.matmul %3556, %3557 : (tensor<32x40x128xf32>, tensor<32x128x40xf32>) -> tensor<32x40x40xf32>
    %cst_834 = arith.constant 0.0883883461 : f32
    %splat_835 = tensor.splat %cst_834 : tensor<32x40x40xf32>
    %3559 = tosa.mul %3558, %splat_835 {shift = 0 : i8} : (tensor<32x40x40xf32>, tensor<32x40x40xf32>) -> tensor<32x40x40xf32>
    %3560 = tosa.add %3559, %3553 : (tensor<32x40x40xf32>, tensor<40x40xf32>) -> tensor<32x40x40xf32>
    %3561 = tosa.reduce_max %3560 {axis = 2 : i32} : (tensor<32x40x40xf32>) -> tensor<32x40x1xf32>
    %3562 = tosa.sub %3560, %3561 : (tensor<32x40x40xf32>, tensor<32x40x1xf32>) -> tensor<32x40x40xf32>
    %3563 = math.exp %3562 : tensor<32x40x40xf32>
    %3564 = tosa.reduce_sum %3563 {axis = 2 : i32} : (tensor<32x40x40xf32>) -> tensor<32x40x1xf32>
    %3565 = tosa.log %3564 : (tensor<32x40x1xf32>) -> tensor<32x40x1xf32>
    %3566 = tosa.add %3561, %3565 : (tensor<32x40x1xf32>, tensor<32x40x1xf32>) -> tensor<32x40x1xf32>
    %3567 = tosa.sub %3560, %3566 : (tensor<32x40x40xf32>, tensor<32x40x1xf32>) -> tensor<32x40x40xf32>
    %3568 = math.exp %3567 : tensor<32x40x40xf32>
    %3569 = tosa.reshape %3566 {new_shape = array<i64: 1, 32, 40>} : (tensor<32x40x1xf32>) -> tensor<1x32x40xf32>
    %3570 = tosa.reshape %3533 {new_shape = array<i64: 32, 40, 128>} : (tensor<1x32x40x128xf32>) -> tensor<32x40x128xf32>
    %3571 = tosa.matmul %3568, %3570 : (tensor<32x40x40xf32>, tensor<32x40x128xf32>) -> tensor<32x40x128xf32>
    %3572 = tosa.reshape %3571 {new_shape = array<i64: 1, 32, 40, 128>} : (tensor<32x40x128xf32>) -> tensor<1x32x40x128xf32>
    %3573 = "tosa.const"() <{value = dense<[0, 2, 1, 3]> : tensor<4xi32>}> : () -> tensor<4xi32>
    %3574 = tosa.transpose %3572, %3573 : (tensor<1x32x40x128xf32>, tensor<4xi32>) -> tensor<1x40x32x128xf32>
    %3575 = tosa.reshape %3574 {new_shape = array<i64: 1, 40, 4096>} : (tensor<1x40x32x128xf32>) -> tensor<1x40x4096xf32>
    %3576 = "tosa.const"() <{value = dense<[1, 0]> : tensor<2xi32>}> : () -> tensor<2xi32>
    %3577 = tosa.transpose %arg277, %3576 : (tensor<4096x4096xf32>, tensor<2xi32>) -> tensor<4096x4096xf32>
    %3578 = tosa.reshape %3575 {new_shape = array<i64: 40, 4096>} : (tensor<1x40x4096xf32>) -> tensor<40x4096xf32>
    %cst_836 = arith.constant dense<0.000000e+00> : tensor<40x4096xf32>
    %3579 = linalg.matmul {cast = #linalg.type_fn<cast_signed>} ins(%3578, %3577 : tensor<40x4096xf32>, tensor<4096x4096xf32>) outs(%cst_836 : tensor<40x4096xf32>) -> tensor<40x4096xf32>
    %3580 = tosa.reshape %3579 {new_shape = array<i64: 1, 40, 4096>} : (tensor<40x4096xf32>) -> tensor<1x40x4096xf32>
    %3581 = tosa.add %3497, %3580 : (tensor<1x40x4096xf32>, tensor<1x40x4096xf32>) -> tensor<1x40x4096xf32>
    %3582 = tensor.empty() : tensor<1x40x4096xf32>
    %c2_i32_837 = arith.constant 2 : i32
    %3583 = linalg.generic {indexing_maps = [#map4, #map4], iterator_types = ["parallel", "parallel", "parallel"]} ins(%3581 : tensor<1x40x4096xf32>) outs(%3582 : tensor<1x40x4096xf32>) {
    ^bb0(%in: f32, %out: f32):
      %3745 = math.fpowi %in, %c2_i32_837 : f32, i32
      linalg.yield %3745 : f32
    } -> tensor<1x40x4096xf32>
    %3584 = tosa.reduce_sum %3583 {axis = 2 : i32} : (tensor<1x40x4096xf32>) -> tensor<1x40x1xf32>
    %3585 = "tosa.const"() <{value = dense<4.096000e+03> : tensor<1xf32>}> : () -> tensor<1xf32>
    %3586 = tosa.reciprocal %3585 : (tensor<1xf32>) -> tensor<1xf32>
    %3587 = tosa.mul %3586, %3584 {shift = 0 : i8} : (tensor<1xf32>, tensor<1x40x1xf32>) -> tensor<1x40x1xf32>
    %3588 = "tosa.const"() <{value = dense<9.99999974E-6> : tensor<1x40x1xf32>}> : () -> tensor<1x40x1xf32>
    %3589 = tosa.add %3587, %3588 : (tensor<1x40x1xf32>, tensor<1x40x1xf32>) -> tensor<1x40x1xf32>
    %3590 = tosa.rsqrt %3589 : (tensor<1x40x1xf32>) -> tensor<1x40x1xf32>
    %3591 = tosa.mul %3581, %3590 {shift = 0 : i8} : (tensor<1x40x4096xf32>, tensor<1x40x1xf32>) -> tensor<1x40x4096xf32>
    %3592 = tosa.reshape %arg278 {new_shape = array<i64: 1, 1, 4096>} : (tensor<4096xf32>) -> tensor<1x1x4096xf32>
    %3593 = tosa.mul %3592, %3591 {shift = 0 : i8} : (tensor<1x1x4096xf32>, tensor<1x40x4096xf32>) -> tensor<1x40x4096xf32>
    %3594 = "tosa.const"() <{value = dense<[1, 0]> : tensor<2xi32>}> : () -> tensor<2xi32>
    %3595 = tosa.transpose %arg279, %3594 : (tensor<11008x4096xf32>, tensor<2xi32>) -> tensor<4096x11008xf32>
    %3596 = tosa.reshape %3593 {new_shape = array<i64: 40, 4096>} : (tensor<1x40x4096xf32>) -> tensor<40x4096xf32>
    %cst_838 = arith.constant dense<0.000000e+00> : tensor<40x11008xf32>
    %3597 = linalg.matmul {cast = #linalg.type_fn<cast_signed>} ins(%3596, %3595 : tensor<40x4096xf32>, tensor<4096x11008xf32>) outs(%cst_838 : tensor<40x11008xf32>) -> tensor<40x11008xf32>
    %3598 = tosa.reshape %3597 {new_shape = array<i64: 1, 40, 11008>} : (tensor<40x11008xf32>) -> tensor<1x40x11008xf32>
    %3599 = tosa.sigmoid %3598 : (tensor<1x40x11008xf32>) -> tensor<1x40x11008xf32>
    %3600 = tosa.mul %3598, %3599 {shift = 0 : i8} : (tensor<1x40x11008xf32>, tensor<1x40x11008xf32>) -> tensor<1x40x11008xf32>
    %3601 = "tosa.const"() <{value = dense<[1, 0]> : tensor<2xi32>}> : () -> tensor<2xi32>
    %3602 = tosa.transpose %arg280, %3601 : (tensor<11008x4096xf32>, tensor<2xi32>) -> tensor<4096x11008xf32>
    %3603 = tosa.reshape %3593 {new_shape = array<i64: 40, 4096>} : (tensor<1x40x4096xf32>) -> tensor<40x4096xf32>
    %cst_839 = arith.constant dense<0.000000e+00> : tensor<40x11008xf32>
    %3604 = linalg.matmul {cast = #linalg.type_fn<cast_signed>} ins(%3603, %3602 : tensor<40x4096xf32>, tensor<4096x11008xf32>) outs(%cst_839 : tensor<40x11008xf32>) -> tensor<40x11008xf32>
    %3605 = tosa.reshape %3604 {new_shape = array<i64: 1, 40, 11008>} : (tensor<40x11008xf32>) -> tensor<1x40x11008xf32>
    %3606 = tosa.mul %3600, %3605 {shift = 0 : i8} : (tensor<1x40x11008xf32>, tensor<1x40x11008xf32>) -> tensor<1x40x11008xf32>
    %3607 = "tosa.const"() <{value = dense<[1, 0]> : tensor<2xi32>}> : () -> tensor<2xi32>
    %3608 = tosa.transpose %arg281, %3607 : (tensor<4096x11008xf32>, tensor<2xi32>) -> tensor<11008x4096xf32>
    %3609 = tosa.reshape %3606 {new_shape = array<i64: 40, 11008>} : (tensor<1x40x11008xf32>) -> tensor<40x11008xf32>
    %cst_840 = arith.constant dense<0.000000e+00> : tensor<40x4096xf32>
    %3610 = linalg.matmul {cast = #linalg.type_fn<cast_signed>} ins(%3609, %3608 : tensor<40x11008xf32>, tensor<11008x4096xf32>) outs(%cst_840 : tensor<40x4096xf32>) -> tensor<40x4096xf32>
    %3611 = tosa.reshape %3610 {new_shape = array<i64: 1, 40, 4096>} : (tensor<40x4096xf32>) -> tensor<1x40x4096xf32>
    %3612 = tosa.add %3581, %3611 : (tensor<1x40x4096xf32>, tensor<1x40x4096xf32>) -> tensor<1x40x4096xf32>
    %3613 = tensor.empty() : tensor<1x40x4096xf32>
    %c2_i32_841 = arith.constant 2 : i32
    %3614 = linalg.generic {indexing_maps = [#map4, #map4], iterator_types = ["parallel", "parallel", "parallel"]} ins(%3612 : tensor<1x40x4096xf32>) outs(%3613 : tensor<1x40x4096xf32>) {
    ^bb0(%in: f32, %out: f32):
      %3745 = math.fpowi %in, %c2_i32_841 : f32, i32
      linalg.yield %3745 : f32
    } -> tensor<1x40x4096xf32>
    %3615 = tosa.reduce_sum %3614 {axis = 2 : i32} : (tensor<1x40x4096xf32>) -> tensor<1x40x1xf32>
    %3616 = "tosa.const"() <{value = dense<4.096000e+03> : tensor<1xf32>}> : () -> tensor<1xf32>
    %3617 = tosa.reciprocal %3616 : (tensor<1xf32>) -> tensor<1xf32>
    %3618 = tosa.mul %3617, %3615 {shift = 0 : i8} : (tensor<1xf32>, tensor<1x40x1xf32>) -> tensor<1x40x1xf32>
    %3619 = "tosa.const"() <{value = dense<9.99999974E-6> : tensor<1x40x1xf32>}> : () -> tensor<1x40x1xf32>
    %3620 = tosa.add %3618, %3619 : (tensor<1x40x1xf32>, tensor<1x40x1xf32>) -> tensor<1x40x1xf32>
    %3621 = tosa.rsqrt %3620 : (tensor<1x40x1xf32>) -> tensor<1x40x1xf32>
    %3622 = tosa.mul %3612, %3621 {shift = 0 : i8} : (tensor<1x40x4096xf32>, tensor<1x40x1xf32>) -> tensor<1x40x4096xf32>
    %3623 = tosa.reshape %arg282 {new_shape = array<i64: 1, 1, 4096>} : (tensor<4096xf32>) -> tensor<1x1x4096xf32>
    %3624 = tosa.mul %3623, %3622 {shift = 0 : i8} : (tensor<1x1x4096xf32>, tensor<1x40x4096xf32>) -> tensor<1x40x4096xf32>
    %3625 = "tosa.const"() <{value = dense<[1, 0]> : tensor<2xi32>}> : () -> tensor<2xi32>
    %3626 = tosa.transpose %arg283, %3625 : (tensor<4096x4096xf32>, tensor<2xi32>) -> tensor<4096x4096xf32>
    %3627 = tosa.reshape %3624 {new_shape = array<i64: 40, 4096>} : (tensor<1x40x4096xf32>) -> tensor<40x4096xf32>
    %cst_842 = arith.constant dense<0.000000e+00> : tensor<40x4096xf32>
    %3628 = linalg.matmul {cast = #linalg.type_fn<cast_signed>} ins(%3627, %3626 : tensor<40x4096xf32>, tensor<4096x4096xf32>) outs(%cst_842 : tensor<40x4096xf32>) -> tensor<40x4096xf32>
    %3629 = tosa.reshape %3628 {new_shape = array<i64: 1, 40, 4096>} : (tensor<40x4096xf32>) -> tensor<1x40x4096xf32>
    %3630 = "tosa.const"() <{value = dense<[1, 0]> : tensor<2xi32>}> : () -> tensor<2xi32>
    %3631 = tosa.transpose %arg284, %3630 : (tensor<4096x4096xf32>, tensor<2xi32>) -> tensor<4096x4096xf32>
    %3632 = tosa.reshape %3624 {new_shape = array<i64: 40, 4096>} : (tensor<1x40x4096xf32>) -> tensor<40x4096xf32>
    %cst_843 = arith.constant dense<0.000000e+00> : tensor<40x4096xf32>
    %3633 = linalg.matmul {cast = #linalg.type_fn<cast_signed>} ins(%3632, %3631 : tensor<40x4096xf32>, tensor<4096x4096xf32>) outs(%cst_843 : tensor<40x4096xf32>) -> tensor<40x4096xf32>
    %3634 = tosa.reshape %3633 {new_shape = array<i64: 1, 40, 4096>} : (tensor<40x4096xf32>) -> tensor<1x40x4096xf32>
    %3635 = "tosa.const"() <{value = dense<[1, 0]> : tensor<2xi32>}> : () -> tensor<2xi32>
    %3636 = tosa.transpose %arg285, %3635 : (tensor<4096x4096xf32>, tensor<2xi32>) -> tensor<4096x4096xf32>
    %3637 = tosa.reshape %3624 {new_shape = array<i64: 40, 4096>} : (tensor<1x40x4096xf32>) -> tensor<40x4096xf32>
    %cst_844 = arith.constant dense<0.000000e+00> : tensor<40x4096xf32>
    %3638 = linalg.matmul {cast = #linalg.type_fn<cast_signed>} ins(%3637, %3636 : tensor<40x4096xf32>, tensor<4096x4096xf32>) outs(%cst_844 : tensor<40x4096xf32>) -> tensor<40x4096xf32>
    %3639 = tosa.reshape %3638 {new_shape = array<i64: 1, 40, 4096>} : (tensor<40x4096xf32>) -> tensor<1x40x4096xf32>
    %3640 = tosa.reshape %3629 {new_shape = array<i64: 1, 40, 32, 128>} : (tensor<1x40x4096xf32>) -> tensor<1x40x32x128xf32>
    %3641 = "tosa.const"() <{value = dense<[0, 2, 1, 3]> : tensor<4xi32>}> : () -> tensor<4xi32>
    %3642 = tosa.transpose %3640, %3641 : (tensor<1x40x32x128xf32>, tensor<4xi32>) -> tensor<1x32x40x128xf32>
    %3643 = tosa.reshape %3634 {new_shape = array<i64: 1, 40, 32, 128>} : (tensor<1x40x4096xf32>) -> tensor<1x40x32x128xf32>
    %3644 = "tosa.const"() <{value = dense<[0, 2, 1, 3]> : tensor<4xi32>}> : () -> tensor<4xi32>
    %3645 = tosa.transpose %3643, %3644 : (tensor<1x40x32x128xf32>, tensor<4xi32>) -> tensor<1x32x40x128xf32>
    %3646 = tosa.reshape %3639 {new_shape = array<i64: 1, 40, 32, 128>} : (tensor<1x40x4096xf32>) -> tensor<1x40x32x128xf32>
    %3647 = "tosa.const"() <{value = dense<[0, 2, 1, 3]> : tensor<4xi32>}> : () -> tensor<4xi32>
    %3648 = tosa.transpose %3646, %3647 : (tensor<1x40x32x128xf32>, tensor<4xi32>) -> tensor<1x32x40x128xf32>
    %3649 = tosa.reshape %45 {new_shape = array<i64: 1, 1, 40, 128>} : (tensor<1x40x128xf32>) -> tensor<1x1x40x128xf32>
    %3650 = tosa.reshape %47 {new_shape = array<i64: 1, 1, 40, 128>} : (tensor<1x40x128xf32>) -> tensor<1x1x40x128xf32>
    %3651 = tosa.mul %3642, %3649 {shift = 0 : i8} : (tensor<1x32x40x128xf32>, tensor<1x1x40x128xf32>) -> tensor<1x32x40x128xf32>
    %extracted_slice_845 = tensor.extract_slice %3642[0, 0, 0, 0] [1, 32, 40, 64] [1, 1, 1, 1] : tensor<1x32x40x128xf32> to tensor<1x32x40x64xf32>
    %extracted_slice_846 = tensor.extract_slice %3642[0, 0, 0, 64] [1, 32, 40, 64] [1, 1, 1, 1] : tensor<1x32x40x128xf32> to tensor<1x32x40x64xf32>
    %3652 = tensor.empty() : tensor<1x32x40x64xf32>
    %3653 = linalg.negf ins(%extracted_slice_846 : tensor<1x32x40x64xf32>) outs(%3652 : tensor<1x32x40x64xf32>) -> tensor<1x32x40x64xf32>
    %3654 = tensor.empty() : tensor<1x32x40x128xf32>
    %inserted_slice_847 = tensor.insert_slice %3653 into %3654[0, 0, 0, 0] [1, 32, 40, 64] [1, 1, 1, 1] : tensor<1x32x40x64xf32> into tensor<1x32x40x128xf32>
    %inserted_slice_848 = tensor.insert_slice %extracted_slice_845 into %inserted_slice_847[0, 0, 0, 64] [1, 32, 40, 64] [1, 1, 1, 1] : tensor<1x32x40x64xf32> into tensor<1x32x40x128xf32>
    %3655 = tosa.mul %inserted_slice_848, %3650 {shift = 0 : i8} : (tensor<1x32x40x128xf32>, tensor<1x1x40x128xf32>) -> tensor<1x32x40x128xf32>
    %3656 = tosa.add %3651, %3655 : (tensor<1x32x40x128xf32>, tensor<1x32x40x128xf32>) -> tensor<1x32x40x128xf32>
    %3657 = tosa.mul %3645, %3649 {shift = 0 : i8} : (tensor<1x32x40x128xf32>, tensor<1x1x40x128xf32>) -> tensor<1x32x40x128xf32>
    %extracted_slice_849 = tensor.extract_slice %3645[0, 0, 0, 0] [1, 32, 40, 64] [1, 1, 1, 1] : tensor<1x32x40x128xf32> to tensor<1x32x40x64xf32>
    %extracted_slice_850 = tensor.extract_slice %3645[0, 0, 0, 64] [1, 32, 40, 64] [1, 1, 1, 1] : tensor<1x32x40x128xf32> to tensor<1x32x40x64xf32>
    %3658 = tensor.empty() : tensor<1x32x40x64xf32>
    %3659 = linalg.negf ins(%extracted_slice_850 : tensor<1x32x40x64xf32>) outs(%3658 : tensor<1x32x40x64xf32>) -> tensor<1x32x40x64xf32>
    %3660 = tensor.empty() : tensor<1x32x40x128xf32>
    %inserted_slice_851 = tensor.insert_slice %3659 into %3660[0, 0, 0, 0] [1, 32, 40, 64] [1, 1, 1, 1] : tensor<1x32x40x64xf32> into tensor<1x32x40x128xf32>
    %inserted_slice_852 = tensor.insert_slice %extracted_slice_849 into %inserted_slice_851[0, 0, 0, 64] [1, 32, 40, 64] [1, 1, 1, 1] : tensor<1x32x40x64xf32> into tensor<1x32x40x128xf32>
    %3661 = tosa.mul %inserted_slice_852, %3650 {shift = 0 : i8} : (tensor<1x32x40x128xf32>, tensor<1x1x40x128xf32>) -> tensor<1x32x40x128xf32>
    %3662 = tosa.add %3657, %3661 : (tensor<1x32x40x128xf32>, tensor<1x32x40x128xf32>) -> tensor<1x32x40x128xf32>
    %3663 = tosa.reshape %19 {new_shape = array<i64: 1, 40, 41>} : (tensor<40x41xf32>) -> tensor<1x40x41xf32>
    %3664 = tosa.reshape %3663 {new_shape = array<i64: 1, 1, 40, 41>} : (tensor<1x40x41xf32>) -> tensor<1x1x40x41xf32>
    %extracted_slice_853 = tensor.extract_slice %3664[0, 0, 0, 0] [1, 1, 40, 41] [1, 1, 1, 1] : tensor<1x1x40x41xf32> to tensor<1x1x40x41xf32>
    %extracted_slice_854 = tensor.extract_slice %extracted_slice_853[0, 0, 0, 0] [1, 1, 40, 41] [1, 1, 1, 1] : tensor<1x1x40x41xf32> to tensor<1x1x40x41xf32>
    %3665 = "tosa.const"() <{value = dense<0.000000e+00> : tensor<1x1x40x41xf32>}> : () -> tensor<1x1x40x41xf32>
    %3666 = tosa.add %extracted_slice_854, %3665 : (tensor<1x1x40x41xf32>, tensor<1x1x40x41xf32>) -> tensor<1x1x40x41xf32>
    %extracted_slice_855 = tensor.extract_slice %3666[0, 0, 0, 0] [1, 1, 40, 41] [1, 1, 1, 1] : tensor<1x1x40x41xf32> to tensor<1x1x40x41xf32>
    %extracted_slice_856 = tensor.extract_slice %extracted_slice_855[0, 0, 0, 0] [1, 1, 40, 41] [1, 1, 1, 1] : tensor<1x1x40x41xf32> to tensor<1x1x40x41xf32>
    %extracted_slice_857 = tensor.extract_slice %extracted_slice_856[0, 0, 0, 0] [1, 1, 40, 41] [1, 1, 1, 1] : tensor<1x1x40x41xf32> to tensor<1x1x40x41xf32>
    %extracted_slice_858 = tensor.extract_slice %extracted_slice_857[0, 0, 0, 0] [1, 1, 40, 40] [1, 1, 1, 1] : tensor<1x1x40x41xf32> to tensor<1x1x40x40xf32>
    %cst_859 = arith.constant 0.000000e+00 : f32
    %splat_860 = tensor.splat %cst_859 : tensor<40x40xf32>
    %3667 = tosa.reshape %extracted_slice_858 {new_shape = array<i64: 40, 40>} : (tensor<1x1x40x40xf32>) -> tensor<40x40xf32>
    %3668 = tosa.add %splat_860, %3667 : (tensor<40x40xf32>, tensor<40x40xf32>) -> tensor<40x40xf32>
    %3669 = "tosa.const"() <{value = dense<[0, 1, 3, 2]> : tensor<4xi32>}> : () -> tensor<4xi32>
    %3670 = tosa.transpose %3662, %3669 : (tensor<1x32x40x128xf32>, tensor<4xi32>) -> tensor<1x32x128x40xf32>
    %3671 = tosa.reshape %3656 {new_shape = array<i64: 32, 40, 128>} : (tensor<1x32x40x128xf32>) -> tensor<32x40x128xf32>
    %3672 = tosa.reshape %3670 {new_shape = array<i64: 32, 128, 40>} : (tensor<1x32x128x40xf32>) -> tensor<32x128x40xf32>
    %3673 = tosa.matmul %3671, %3672 : (tensor<32x40x128xf32>, tensor<32x128x40xf32>) -> tensor<32x40x40xf32>
    %cst_861 = arith.constant 0.0883883461 : f32
    %splat_862 = tensor.splat %cst_861 : tensor<32x40x40xf32>
    %3674 = tosa.mul %3673, %splat_862 {shift = 0 : i8} : (tensor<32x40x40xf32>, tensor<32x40x40xf32>) -> tensor<32x40x40xf32>
    %3675 = tosa.add %3674, %3668 : (tensor<32x40x40xf32>, tensor<40x40xf32>) -> tensor<32x40x40xf32>
    %3676 = tosa.reduce_max %3675 {axis = 2 : i32} : (tensor<32x40x40xf32>) -> tensor<32x40x1xf32>
    %3677 = tosa.sub %3675, %3676 : (tensor<32x40x40xf32>, tensor<32x40x1xf32>) -> tensor<32x40x40xf32>
    %3678 = math.exp %3677 : tensor<32x40x40xf32>
    %3679 = tosa.reduce_sum %3678 {axis = 2 : i32} : (tensor<32x40x40xf32>) -> tensor<32x40x1xf32>
    %3680 = tosa.log %3679 : (tensor<32x40x1xf32>) -> tensor<32x40x1xf32>
    %3681 = tosa.add %3676, %3680 : (tensor<32x40x1xf32>, tensor<32x40x1xf32>) -> tensor<32x40x1xf32>
    %3682 = tosa.sub %3675, %3681 : (tensor<32x40x40xf32>, tensor<32x40x1xf32>) -> tensor<32x40x40xf32>
    %3683 = math.exp %3682 : tensor<32x40x40xf32>
    %3684 = tosa.reshape %3681 {new_shape = array<i64: 1, 32, 40>} : (tensor<32x40x1xf32>) -> tensor<1x32x40xf32>
    %3685 = tosa.reshape %3648 {new_shape = array<i64: 32, 40, 128>} : (tensor<1x32x40x128xf32>) -> tensor<32x40x128xf32>
    %3686 = tosa.matmul %3683, %3685 : (tensor<32x40x40xf32>, tensor<32x40x128xf32>) -> tensor<32x40x128xf32>
    %3687 = tosa.reshape %3686 {new_shape = array<i64: 1, 32, 40, 128>} : (tensor<32x40x128xf32>) -> tensor<1x32x40x128xf32>
    %3688 = "tosa.const"() <{value = dense<[0, 2, 1, 3]> : tensor<4xi32>}> : () -> tensor<4xi32>
    %3689 = tosa.transpose %3687, %3688 : (tensor<1x32x40x128xf32>, tensor<4xi32>) -> tensor<1x40x32x128xf32>
    %3690 = tosa.reshape %3689 {new_shape = array<i64: 1, 40, 4096>} : (tensor<1x40x32x128xf32>) -> tensor<1x40x4096xf32>
    %3691 = "tosa.const"() <{value = dense<[1, 0]> : tensor<2xi32>}> : () -> tensor<2xi32>
    %3692 = tosa.transpose %arg286, %3691 : (tensor<4096x4096xf32>, tensor<2xi32>) -> tensor<4096x4096xf32>
    %3693 = tosa.reshape %3690 {new_shape = array<i64: 40, 4096>} : (tensor<1x40x4096xf32>) -> tensor<40x4096xf32>
    %cst_863 = arith.constant dense<0.000000e+00> : tensor<40x4096xf32>
    %3694 = linalg.matmul {cast = #linalg.type_fn<cast_signed>} ins(%3693, %3692 : tensor<40x4096xf32>, tensor<4096x4096xf32>) outs(%cst_863 : tensor<40x4096xf32>) -> tensor<40x4096xf32>
    %3695 = tosa.reshape %3694 {new_shape = array<i64: 1, 40, 4096>} : (tensor<40x4096xf32>) -> tensor<1x40x4096xf32>
    %3696 = tosa.add %3612, %3695 : (tensor<1x40x4096xf32>, tensor<1x40x4096xf32>) -> tensor<1x40x4096xf32>
    %3697 = tensor.empty() : tensor<1x40x4096xf32>
    %c2_i32_864 = arith.constant 2 : i32
    %3698 = linalg.generic {indexing_maps = [#map4, #map4], iterator_types = ["parallel", "parallel", "parallel"]} ins(%3696 : tensor<1x40x4096xf32>) outs(%3697 : tensor<1x40x4096xf32>) {
    ^bb0(%in: f32, %out: f32):
      %3745 = math.fpowi %in, %c2_i32_864 : f32, i32
      linalg.yield %3745 : f32
    } -> tensor<1x40x4096xf32>
    %3699 = tosa.reduce_sum %3698 {axis = 2 : i32} : (tensor<1x40x4096xf32>) -> tensor<1x40x1xf32>
    %3700 = "tosa.const"() <{value = dense<4.096000e+03> : tensor<1xf32>}> : () -> tensor<1xf32>
    %3701 = tosa.reciprocal %3700 : (tensor<1xf32>) -> tensor<1xf32>
    %3702 = tosa.mul %3701, %3699 {shift = 0 : i8} : (tensor<1xf32>, tensor<1x40x1xf32>) -> tensor<1x40x1xf32>
    %3703 = "tosa.const"() <{value = dense<9.99999974E-6> : tensor<1x40x1xf32>}> : () -> tensor<1x40x1xf32>
    %3704 = tosa.add %3702, %3703 : (tensor<1x40x1xf32>, tensor<1x40x1xf32>) -> tensor<1x40x1xf32>
    %3705 = tosa.rsqrt %3704 : (tensor<1x40x1xf32>) -> tensor<1x40x1xf32>
    %3706 = tosa.mul %3696, %3705 {shift = 0 : i8} : (tensor<1x40x4096xf32>, tensor<1x40x1xf32>) -> tensor<1x40x4096xf32>
    %3707 = tosa.reshape %arg287 {new_shape = array<i64: 1, 1, 4096>} : (tensor<4096xf32>) -> tensor<1x1x4096xf32>
    %3708 = tosa.mul %3707, %3706 {shift = 0 : i8} : (tensor<1x1x4096xf32>, tensor<1x40x4096xf32>) -> tensor<1x40x4096xf32>
    %3709 = "tosa.const"() <{value = dense<[1, 0]> : tensor<2xi32>}> : () -> tensor<2xi32>
    %3710 = tosa.transpose %arg288, %3709 : (tensor<11008x4096xf32>, tensor<2xi32>) -> tensor<4096x11008xf32>
    %3711 = tosa.reshape %3708 {new_shape = array<i64: 40, 4096>} : (tensor<1x40x4096xf32>) -> tensor<40x4096xf32>
    %cst_865 = arith.constant dense<0.000000e+00> : tensor<40x11008xf32>
    %3712 = linalg.matmul {cast = #linalg.type_fn<cast_signed>} ins(%3711, %3710 : tensor<40x4096xf32>, tensor<4096x11008xf32>) outs(%cst_865 : tensor<40x11008xf32>) -> tensor<40x11008xf32>
    %3713 = tosa.reshape %3712 {new_shape = array<i64: 1, 40, 11008>} : (tensor<40x11008xf32>) -> tensor<1x40x11008xf32>
    %3714 = tosa.sigmoid %3713 : (tensor<1x40x11008xf32>) -> tensor<1x40x11008xf32>
    %3715 = tosa.mul %3713, %3714 {shift = 0 : i8} : (tensor<1x40x11008xf32>, tensor<1x40x11008xf32>) -> tensor<1x40x11008xf32>
    %3716 = "tosa.const"() <{value = dense<[1, 0]> : tensor<2xi32>}> : () -> tensor<2xi32>
    %3717 = tosa.transpose %arg289, %3716 : (tensor<11008x4096xf32>, tensor<2xi32>) -> tensor<4096x11008xf32>
    %3718 = tosa.reshape %3708 {new_shape = array<i64: 40, 4096>} : (tensor<1x40x4096xf32>) -> tensor<40x4096xf32>
    %cst_866 = arith.constant dense<0.000000e+00> : tensor<40x11008xf32>
    %3719 = linalg.matmul {cast = #linalg.type_fn<cast_signed>} ins(%3718, %3717 : tensor<40x4096xf32>, tensor<4096x11008xf32>) outs(%cst_866 : tensor<40x11008xf32>) -> tensor<40x11008xf32>
    %3720 = tosa.reshape %3719 {new_shape = array<i64: 1, 40, 11008>} : (tensor<40x11008xf32>) -> tensor<1x40x11008xf32>
    %3721 = tosa.mul %3715, %3720 {shift = 0 : i8} : (tensor<1x40x11008xf32>, tensor<1x40x11008xf32>) -> tensor<1x40x11008xf32>
    %3722 = "tosa.const"() <{value = dense<[1, 0]> : tensor<2xi32>}> : () -> tensor<2xi32>
    %3723 = tosa.transpose %arg290, %3722 : (tensor<4096x11008xf32>, tensor<2xi32>) -> tensor<11008x4096xf32>
    %3724 = tosa.reshape %3721 {new_shape = array<i64: 40, 11008>} : (tensor<1x40x11008xf32>) -> tensor<40x11008xf32>
    %cst_867 = arith.constant dense<0.000000e+00> : tensor<40x4096xf32>
    %3725 = linalg.matmul {cast = #linalg.type_fn<cast_signed>} ins(%3724, %3723 : tensor<40x11008xf32>, tensor<11008x4096xf32>) outs(%cst_867 : tensor<40x4096xf32>) -> tensor<40x4096xf32>
    %3726 = tosa.reshape %3725 {new_shape = array<i64: 1, 40, 4096>} : (tensor<40x4096xf32>) -> tensor<1x40x4096xf32>
    %3727 = tosa.add %3696, %3726 : (tensor<1x40x4096xf32>, tensor<1x40x4096xf32>) -> tensor<1x40x4096xf32>
    %3728 = tensor.empty() : tensor<1x40x4096xf32>
    %c2_i32_868 = arith.constant 2 : i32
    %3729 = linalg.generic {indexing_maps = [#map4, #map4], iterator_types = ["parallel", "parallel", "parallel"]} ins(%3727 : tensor<1x40x4096xf32>) outs(%3728 : tensor<1x40x4096xf32>) {
    ^bb0(%in: f32, %out: f32):
      %3745 = math.fpowi %in, %c2_i32_868 : f32, i32
      linalg.yield %3745 : f32
    } -> tensor<1x40x4096xf32>
    %3730 = tosa.reduce_sum %3729 {axis = 2 : i32} : (tensor<1x40x4096xf32>) -> tensor<1x40x1xf32>
    %3731 = "tosa.const"() <{value = dense<4.096000e+03> : tensor<1xf32>}> : () -> tensor<1xf32>
    %3732 = tosa.reciprocal %3731 : (tensor<1xf32>) -> tensor<1xf32>
    %3733 = tosa.mul %3732, %3730 {shift = 0 : i8} : (tensor<1xf32>, tensor<1x40x1xf32>) -> tensor<1x40x1xf32>
    %3734 = "tosa.const"() <{value = dense<9.99999974E-6> : tensor<1x40x1xf32>}> : () -> tensor<1x40x1xf32>
    %3735 = tosa.add %3733, %3734 : (tensor<1x40x1xf32>, tensor<1x40x1xf32>) -> tensor<1x40x1xf32>
    %3736 = tosa.rsqrt %3735 : (tensor<1x40x1xf32>) -> tensor<1x40x1xf32>
    %3737 = tosa.mul %3727, %3736 {shift = 0 : i8} : (tensor<1x40x4096xf32>, tensor<1x40x1xf32>) -> tensor<1x40x4096xf32>
    %3738 = tosa.reshape %arg291 {new_shape = array<i64: 1, 1, 4096>} : (tensor<4096xf32>) -> tensor<1x1x4096xf32>
    %3739 = tosa.mul %3738, %3737 {shift = 0 : i8} : (tensor<1x1x4096xf32>, tensor<1x40x4096xf32>) -> tensor<1x40x4096xf32>
    %extracted_slice_869 = tensor.extract_slice %3739[0, 0, 0] [1, 40, 4096] [1, 1, 1] : tensor<1x40x4096xf32> to tensor<1x40x4096xf32>
    %extracted_slice_870 = tensor.extract_slice %extracted_slice_869[0, 0, 0] [1, 40, 4096] [1, 1, 1] : tensor<1x40x4096xf32> to tensor<1x40x4096xf32>
    %extracted_slice_871 = tensor.extract_slice %extracted_slice_870[0, 0, 0] [1, 40, 4096] [1, 1, 1] : tensor<1x40x4096xf32> to tensor<1x40x4096xf32>
    %3740 = "tosa.const"() <{value = dense<[1, 0]> : tensor<2xi32>}> : () -> tensor<2xi32>
    %3741 = tosa.transpose %arg292, %3740 : (tensor<32000x4096xf32>, tensor<2xi32>) -> tensor<4096x32000xf32>
    %3742 = tosa.reshape %extracted_slice_871 {new_shape = array<i64: 40, 4096>} : (tensor<1x40x4096xf32>) -> tensor<40x4096xf32>
    %cst_872 = arith.constant dense<0.000000e+00> : tensor<40x32000xf32>
    %3743 = linalg.matmul {cast = #linalg.type_fn<cast_signed>} ins(%3742, %3741 : tensor<40x4096xf32>, tensor<4096x32000xf32>) outs(%cst_872 : tensor<40x32000xf32>) -> tensor<40x32000xf32>
    %3744 = tosa.reshape %3743 {new_shape = array<i64: 1, 40, 32000>} : (tensor<40x32000xf32>) -> tensor<1x40x32000xf32>
    return %3744 : tensor<1x40x32000xf32>
  }
}

