module {
  func.func @subgraph0_decode(%arg0: tensor<151936x1536xf32>, %arg1: tensor<1x1xi64>, %arg2: tensor<1xi64>, %arg3: tensor<64xf32>) -> (tensor<1x1x1536xf32>, tensor<1x1024xi1>, tensor<1x1x128xf32>, tensor<1x1x128xf32>) {
    %0 = tosa.cast %arg1 : (tensor<1x1xi64>) -> tensor<1x1xi32>
    %1 = tosa.reshape %arg0 {new_shape = array<i64: 1, 151936, 1536>} : (tensor<151936x1536xf32>) -> tensor<1x151936x1536xf32>
    %2 = tosa.gather %1, %0 : (tensor<1x151936x1536xf32>, tensor<1x1xi32>) -> tensor<1x1x1536xf32>
    
    
    %3 = tosa.reshape %arg2 {new_shape = array<i64: 1, 1>} : (tensor<1xi64>) -> tensor<1x1xi64>
    %4 = "tosa.const"() <{value = dense<"…"> : tensor<1024xi64>}> : () -> tensor<1024xi64>
    %5 = "tosa.const"() <{value = dense<0> : tensor<1024xi64>}> : () -> tensor<1024xi64>
    %6 = tosa.add %4, %5 : (tensor<1024xi64>, tensor<1024xi64>) -> tensor<1024xi64>
    %7 = tosa.reshape %arg2 {new_shape = array<i64: 1, 1>} : (tensor<1xi64>) -> tensor<1x1xi64>
    %8 = "tosa.const"() <{value = dense<0> : tensor<1x1024xi64>}> : () -> tensor<1x1024xi64>
    %9 = tosa.reshape %6 {new_shape = array<i64: 1, 1024>} : (tensor<1024xi64>) -> tensor<1x1024xi64>
    %10 = tosa.add %9, %8 : (tensor<1x1024xi64>, tensor<1x1024xi64>) -> tensor<1x1024xi64>
    %11 = "tosa.const"() <{value = dense<0> : tensor<1x1024xi64>}> : () -> tensor<1x1024xi64>
    %12 = tosa.add %7, %11 : (tensor<1x1xi64>, tensor<1x1024xi64>) -> tensor<1x1024xi64>
    %13 = arith.cmpi ule, %10, %12 : tensor<1x1024xi64>
    %14 = "tosa.const"() <{value = dense<false> : tensor<1x1xi1>}> : () -> tensor<1x1xi1>
    %15 = tosa.add %13, %14 : (tensor<1x1024xi1>, tensor<1x1xi1>) -> tensor<1x1024xi1>
    %16 = "tosa.const"() <{value = dense<false> : tensor<1x1xi1>}> : () -> tensor<1x1xi1>
    %17 = tosa.add %15, %16 : (tensor<1x1024xi1>, tensor<1x1xi1>) -> tensor<1x1024xi1>
    
    
    %18 = tosa.reshape %arg3 {new_shape = array<i64: 1, 64>} : (tensor<64xf32>) -> tensor<1x64xf32>
    %19 = tosa.reshape %18 {new_shape = array<i64: 1, 64, 1>} : (tensor<1x64xf32>) -> tensor<1x64x1xf32>
    %20 = tosa.reshape %3 {new_shape = array<i64: 1, 1, 1>} : (tensor<1x1xi64>) -> tensor<1x1x1xi64>
    %21 = tosa.cast %20 : (tensor<1x1x1xi64>) -> tensor<1x1x1xf32>
    %22 = tosa.matmul %19, %21 : (tensor<1x64x1xf32>, tensor<1x1x1xf32>) -> tensor<1x64x1xf32>
    %23 = "tosa.const"() <{value = dense<[0, 2, 1]> : tensor<3xi32>}> : () -> tensor<3xi32>
    %24 = tosa.transpose %22, %23 : (tensor<1x64x1xf32>, tensor<3xi32>) -> tensor<1x1x64xf32>
    %25 = tosa.reshape %24 {new_shape = array<i64: 1, 1, 1, 64>} : (tensor<1x1x64xf32>) -> tensor<1x1x1x64xf32>
    %26 = "tosa.const"() <{value = dense<0.000000e+00> : tensor<1x1x2x64xf32>}> : () -> tensor<1x1x2x64xf32>
    %27 = tosa.add %25, %26 : (tensor<1x1x1x64xf32>, tensor<1x1x2x64xf32>) -> tensor<1x1x2x64xf32>
    %28 = tosa.reshape %27 {new_shape = array<i64: 1, 1, 128>} : (tensor<1x1x2x64xf32>) -> tensor<1x1x128xf32>
    %29 = math.cos %28 : tensor<1x1x128xf32>
    %cst = arith.constant dense<1.000000e+00> : tensor<1xf32>
    %30 = tosa.reshape %cst {new_shape = array<i64: 1, 1, 1>} : (tensor<1xf32>) -> tensor<1x1x1xf32>
    %31 = tosa.mul %29, %30 : (tensor<1x1x128xf32>, tensor<1x1x1xf32>) -> tensor<1x1x128xf32>
    %32 = math.sin %28 : tensor<1x1x128xf32>
    %cst_0 = arith.constant dense<1.000000e+00> : tensor<1xf32>
    %33 = tosa.reshape %cst_0 {new_shape = array<i64: 1, 1, 1>} : (tensor<1xf32>) -> tensor<1x1x1xf32>
    %34 = tosa.mul %32, %33 : (tensor<1x1x128xf32>, tensor<1x1x1xf32>) -> tensor<1x1x128xf32>
    return %2, %17, %31, %34 : tensor<1x1x1536xf32>, tensor<1x1024xi1>, tensor<1x1x128xf32>, tensor<1x1x128xf32>
  }
}

